simmodel.pth (torch, 11154 bytes, 6 tensors)

weight f4 [20, 16]
-0.16881253 0.039523304 -0.3092648 -0.27102524 0.14635491 0.29364175 -0.18398492 -0.13932928
-0.06495211 0.11310399 0.19339013 -0.13976343 -0.10912991 0.13458614 -0.30122054 -0.14364052
-0.59514505 0.7306642 0.6425176 -0.044514418 -0.47941118 1.5059745 1.0189315 -0.02896144
-1.0013709 0.53556854 0.41821834 -0.45593956 1.0133572 0.6551407 0.95279396 1.2725853
-0.39762822 -0.45619366 -0.0039543607 0.2747109 0.10564128 0.6462763 -0.5498074 0.42877442
-0.26676497 -1.0979048 -0.072407976 1.5203685 -0.4483045 -0.2777698 0.36368862 1.0103314
-0.27251354 0.048455503 -0.18122126 0.0027188803 -0.09404687 0.22522347 -0.029255595 -0.14695466
0.011139228 -0.02172508 0.2795584 -0.23204362 -0.028676268 0.14316982 -0.29847938 0.15241104
0.08836389 -0.31817502 -0.36404166 -0.45282662 0.2593189 0.4360842 0.5278336 -0.43876448
1.0027897 2.084628 0.5726548 0.8980852 -1.2793028 -0.44124797 -0.4807113 -0.76689255
-0.13427855 0.7079023 0.021074302 -2.8826206 -0.2262855 2.1077404 -0.07555073 -0.19558789
1.0358655 1.5918632 0.9542175 -1.277012 -0.017301824 -2.400983 0.59200954 0.9317026
-0.82772416 0.322743 0.17863527 -0.24691185 -0.41919708 -0.7708283 0.8564026 0.99639326
0.45837438 -1.6785359 0.9743881 -0.75715435 1.8834666 -1.6978972 1.1088758 -0.6006937
-0.5605962 -0.4795314 0.3281823 -0.052680768 -1.7395074 1.0231866 0.6411115 -1.9334171
1.9183396 -0.15116976 -1.1858598 0.12930931 0.61709815 0.34506783 -2.1993937 -1.5244298
-0.71090066 1.6909951 -0.71670705 -1.8387618 0.88431454 -0.33064395 -0.55354196 1.2740244
-0.1713518 0.16153952 -0.43617913 -0.0026321136 -0.16940285 1.7086124 0.52995294 -1.4338001
-0.47659853 -0.17992947 -0.47966143 -0.7656921 -0.7650869 0.77851856 -0.2160861 0.24573898
-0.026251694 -0.4010589 -0.068569936 -0.49954608 -0.43437707 -0.12333378 -0.3377841 -0.37002274
-0.6006019 0.3740431 -0.34794065 0.051665366 -0.17833742 0.29037765 0.5834452 -0.12516502
0.41069362 0.4614047 -0.18977988 -0.15693244 0.42113975 -0.55481607 -0.54943955 -0.4642636
-0.052876078 0.2829652 -0.2229233 -1.0410577 0.37469763 0.81330234 -0.8503068 -0.4402206
0.6331744 -0.096492626 0.055308867 -0.48850363 -0.23118801 -0.33321223 -0.9583813 0.0430891
0.4224445 -0.15301186 0.2758861 -0.10323916 -0.26603377 -0.3630683 -0.43803275 0.049576975
-0.35166365 0.4745716 -0.36983097 -0.2905211 0.19030127 -0.18551889 0.565056 0.33737335
0.21624254 0.22161485 0.5191977 0.27268457 0.48480922 -0.23937508 -0.42090017 0.55756664
-0.5715692 0.3130484 0.20006764 -0.46408013 0.43402654 -0.71576154 0.571948 -0.06933921
-0.45308813 -0.0872053 1.4678211 -0.16595876 -0.17953795 -0.15466142 -0.37416226 -0.86409444
0.4464054 0.31492528 0.4411598 0.5983056 1.1558073 0.061094474 -0.66413283 -0.88022
0.5857343 -1.0260624 -1.2815777 1.5946051 -1.6196803 -1.0280297 0.5715289 0.7569744
-0.92164373 0.004876648 -0.26399413 -1.9311513 -0.6244256 -1.0504096 1.0705401 1.7546337
00000000: 31dd 2cbe 30e3 213d f557 9ebe d2c3 8abe
00000010: 10de 153e 3658 963e 8b66 3cbe 56ac 0ebe
00000020: 9d05 85bd 11a3 e73d 1008 463e 251e 0fbe
00000030: 817f dfbd f3d0 093e 9439 9abe 8016 13be
00000040: 6d5b 18bf cf0c 3b3f 097c 243f c054 36bd
00000050: 6275 f5be c6c3 c03f 596c 823f 8b40 edbc
00000060: ec2c 80bf 051b 093f b720 d63e e970 e9be
00000070: b0b5 813f 4db7 273f 4eea 733f 13e4 a23f
00000080: ed95 cbbe 3792 e9be 9593 81bb e8a6 8c3e
00000090: 755a d83d 5d72 253f 2ec0 0cbf 5288 db3e
000000a0: 6b95 88be 2588 8cbf a24a 94bd 6f9b c23f
000000b0: 2b88 e5be d837 8ebe 6535 ba3e 8a52 813f
000000c0: e586 8bbe 4779 463d 1192 39be 3e2f 323b
000000d0: a59b c0bd fba0 663e 6ea9 efbc 487b 16be
000000e0: 4f81 363c ccf8 b1bc 4722 8f3e d89c 6dbe
000000f0: 7eea eabc 1c9b 123e 4ad2 98be a411 1c3e
00000100: 21f8 b43d d6e7 a2be ab63 babe e4d8 e7be
00000110: 72c5 843e 6e46 df3e 1a20 073f bda5 e0be
00000120: 6a5b 803f 8c6a 0540 8199 123f e9e8 653f
00000130: 32c0 a3bf 41eb e1be cb1f f6be 1253 44bf
00000140: 5180 09be 1639 353f 04a4 ac3c db7c 38c0
00000150: 63b7 67be 38e5 0640 57ba 9abd 3148 48be
00000160: 3e97 843f 2cc2 cb3f 9947 743f 2175 a3bf
00000170: 8ebc 8dbc b5a9 19c0 f08d 173f 1084 6e3f
00000180: bbe5 53bf 923e a53e 2aec 363e 76d6 7cbe
00000190: 00a1 d6be 0155 45bf 333d 5b3f a113 7f3f
000001a0: 0cb0 ea3e 44da d6bf 8071 793f ded4 41bf
000001b0: 6f15 f13f b254 d9bf a4ef 8d3f 10c7 19bf
000001c0: 3c83 0fbf 2485 f5be 8307 a83e cac7 57bd
000001d0: 2ea8 debf c7f7 823f e21f 243f 367a f7bf
000001e0: 278c f53f 3fcc 1abe 41ca 97bf a969 043e
000001f0: 25fa 1d3f bbac b03e dec2 0cc0 8420 c3bf
00000200: 96fd 35bf 8772 d83f 1d7a 37bf 8c5c ebbf
00000210: 7062 623f 2a4a a9be edb4 0dbf 3b13 a33f
00000220: d976 2fbe 9e6a 253e df52 dfbe 8a7f 2cbb
00000230: f177 2dbe d0b3 da3f ffaa 073f c386 b7bf
00000240: b904 f4be 6e3f 38be 2f96 f5be 6604 44bf
00000250: bcdc 43bf fe4c 473f ad45 5dbe 00a3 7b3e
00000260: cb0d d7bc 9857 cdbe 656e 8cbd 81c4 ffbe
00000270: ac66 debe 6c96 fcbd 0af2 acbe 9f73 bdbe
00000280: 0cc1 19bf 9482 bf3e 4725 b2be 109f 533d
00000290: 169e 36be 61ac 943e aa5c 153f 422b 00be
000002a0: 6f46 d23e 3d3d ec3e a855 42be e6b2 20be
000002b0: a19f d73e 6d08 0ebf 12a8 0cbf f5b3 edbe
000002c0: 9694 58bd d1e0 903e 0146 64be 6141 85bf
000002d0: 5ed8 bf3e 9534 503f b5ad 59bf 9864 e1be
000002e0: b817 223f ed9d c5bd 8d8b 623d 261d fabe
000002f0: 8dbc 6cbe cb9a aabe 7a58 75bf 327e 303d
00000300: a54a d83e 24af 1cbe f140 8d3e 0d6f d3bd
00000310: 9435 88be 17e4 b9be d445 e0be 3a11 4b3d
00000320: 420d b4be 0cfb f23e 7c5a bdbe 2ebf 94be
00000330: 56de 423e aaf8 3dbe 83a7 103f 33bc ac3e
00000340: af6e 5d3e 01ef 623e 24ea 043f 509d 8b3e
00000350: ea38 f83e be1e 75be 3a80 d7be b0bc 0e3f
00000360: 5c52 12bf e147 a03e 88de 4c3e e99b edbe
00000370: ba38 de3e 263c 37bf 2f6b 123f b701 8ebd
00000380: 2bfb e7be b198 b2bd 90e1 bb3f 18f1 29be
00000390: ccd8 37be 905f 1ebe 3292 bfbe 4b35 5dbf
000003a0: 408f e43e e33d a13e b3df e13e 8e2a 193f
000003b0: 7ef1 933f 333e 7a3d 9c04 2abf 1956 61bf
000003c0: aff2 153f 0356 83bf bd0a a4bf 051c cc3f
000003d0: af51 cfbf 7a96 83bf b84f 123f 13c9 413f
000003e0: d8f0 6bbf 4acc 9f3b 3d2a 87be f72f f7bf
000003f0: 5bda 1fbf d273 86bf 7507 893f d697 e03f

bias f4 [20]
-0.2998489 0.39266378 5.7800374 -0.04413709 3.2180028 -5.1826844 7.339874 0.28136975
1.0511132 9.813598 7.180644 8.020373 -11.691395 -6.003478 -3.6766443 -3.0467541
-5.6847568 -2.4488077 5.381599 -12.326191
00000000: cc85 99be 3a0b c93e 11f6 b840 18c9 34bd
00000010: c2f3 4d40 8dd8 a5c0 3fe0 ea40 b20f 903e
00000020: e18a 863f 7f04 1d41 d6c7 e540 7353 0041
00000030: f40f 3bc1 7e1c c0c0 244e 6bc0 05fe 42c0
00000040: 87e9 b5c0 44b9 1cc0 0f36 ac40 1438 45c1

weight f4 [50, 20]
-0.12788787 0.15178911 -1.0779285 0.19611102 -0.31400672 -0.04967746 0.002978064 -0.4448121
-1.1768341 0.27243376 -0.011416934 -0.013269979 0.027668273 -0.06732508 -0.90812963 -0.9046882
0.10689446 0.4600343 0.2762843 0.0781457 0.2444677 -0.28279072 -0.20847113 -0.046045132
-0.08416269 -0.25510934 -0.1585892 -0.099016674 -0.26546755 -0.097736515 -0.2515907 -0.08449934
-0.44310278 -0.31718427 -0.10516278 -0.5456287 -0.18116407 -0.21367665 -0.119947426 -0.43860498
0.042036604 0.31593645 0.16274998 -0.24959527 0.00929497 0.8284605 -3.1425848 0.58369446
0.014986609 -0.15064628 -0.25812274 -0.747352 -1.242641 0.11225762 0.014987972 -0.14146377
0.7150608 1.275147 -0.3837842 -0.80230117 0.035795048 -0.7207212 0.43853387 0.22144656
-1.186046 -0.3870171 -1.1213161 1.1576041 0.12721361 0.06765818 0.23894387 -0.50269765
0.34514892 -0.75289464 0.07542196 -0.3468232 -0.76301235 -0.044379305 -0.38479242 -0.6989714
-0.127779 0.6722718 -0.28620467 -0.16015561 0.025209125 0.8671932 0.17570136 0.024374312
-0.50051224 0.11379548 0.053482242 0.53150207 -0.7483143 1.012738 0.09123447 -0.1947764
0.7680292 -0.6334295 0.17938173 -0.87047 0.03543383 -0.21629468 -0.025839005 0.21292682
0.062842585 -0.017049167 -0.09925666 -0.22801784 -0.44354212 -0.031569827 -0.23498975 -0.195492
-0.50060207 -0.16455624 -0.2871088 -0.31421465 -0.29531375 -0.01564756 -0.13888219 -0.18029158
-0.114313595 0.5323164 0.001618854 0.19417028 -0.9591227 -0.20431153 -0.41266143 0.18690108
0.1089617 0.664555 0.53396696 -1.4796853 -2.8796744 0.57117367 0.14485125 -0.102429554
0.33023572 0.8594989 -0.6521592 -0.5075249 -0.11733236 -0.20684908 0.08060069 -0.06037516
0.12317196 -0.34164777 -0.22227846 0.11254517 -0.4324084 -0.18601297 -0.22376634 -0.12724718
-0.49817464 -0.37960145 -0.6611108 -0.3430095 -0.093279004 0.00041707794 -0.19983546 -0.3001296
-0.17858042 -0.06904109 0.37027732 0.15034313 0.057794083 0.099567965 0.6233894 0.30345196
0.42536914 0.35801157 -0.4000549 0.47023094 -0.4875118 -1.6681024 -0.42608437 -0.2920036
0.16948298 -0.43824586 0.025594573 -1.5858696 -0.009006851 -0.5184728 -0.22214918 0.09133601
0.043120984 -0.29490483 -0.04352587 -0.26020887 -0.30989844 -0.08668083 -0.07840255 -0.27059275
-0.26429504 -0.5306086 -0.31194836 -0.05658202 -0.07603845 -0.14089763 -0.3535045 -0.26555985
-0.1708978 -0.19960083 -0.28365678 -0.022997124 -0.01064275 -0.14970674 -0.6416739 -0.4142692
-0.09159854 -0.596257 -0.09993847 -0.12217768 -0.3533216 -0.3933864 -0.41920447 -0.38528806
-0.61157084 -0.7170394 -0.47659546 -0.20528121 -0.15366562 0.03779169 0.07487366 -0.15792772
-0.14866617 -0.1528645 -0.017276812 0.08629279 0.037523013 0.06783205 -0.005616624 0.079672426
-0.5994191 0.2501246 -0.09852017 0.0032895624 -0.105207786 -0.13119769 0.13525908 -0.9374708
-0.008408352 0.48340565 -4.30563 -0.102864735 1.0555856 0.3141935 0.26857948 0.8699996
0.7048493 -0.18529992 0.14985374 -1.4152725 -2.3686206 0.061399575 0.7315813 0.33566186
00000000: 0af5 02be 9b6e 1b3e 90f9 89bf 54d1 483e
00000010: 7dc5 a0be 987a 4bbd 9f2b 433b 69be e3be
00000020: 80a2 96bf 707c 8b3e 180e 3bbc 536a 59bc
00000030: 93a8 e23c bbe1 89bd 2f7b 68bf a599 67bf
00000040: 7ceb da3d 9e89 eb3e 2375 8d3e da0a a03d
00000050: be55 7a3e f2c9 90be 7579 55be d299 3cbd
00000060: 7d5d acbd b19d 82be 3565 22be 41c9 cabd
00000070: 5deb 87be 152a c8bd 7fd0 80be fd0d adbd
00000080: 5ede e2be fa65 a2be 955f d7bd 53ae 0bbf
00000090: 1383 39be 0dce 5abe ffa6 f5bd d590 e0be
000000a0: 932e 2c3d 6cc2 a13e eea7 263e e795 7fbe
000000b0: ee49 183c fd15 543f 1c20 49c0 006d 153f
000000c0: 658a 753c 0543 1abe aa28 84be 7652 3fbf
000000d0: dc0e 9fbf 53e7 e53d 1c90 753c e1db 10be
000000e0: 390e 373f 0438 a33f 5d7f c4be 9c63 4dbf
000000f0: d49d 123d 2f81 38bf 8387 e03e e3c2 623e
00000100: 5bd0 97bf 1b27 c6be 4987 8fbf 5f2c 943f
00000110: 4944 023e 5f90 8a3d b4ad 743e cbb0 00bf
00000120: 5cb7 b03e b4bd 40bf d476 9a3d cf92 b1be
00000130: c754 43bf 13c7 35bd 8303 c5be caef 32bf
00000140: 80d8 02be 011a 2c3f 6b89 92be d5ff 23be
00000150: 5e83 ce3c 6000 5e3f 0feb 333e a3ac c73c
00000160: 9221 00bf 9b0d e93d 3210 5b3d 8510 083f
00000170: 8791 3fbf 66a1 813f 23d9 ba3d 7773 47be
00000180: 909d 443f 7028 22bf d8af 373e 1fd7 5ebf
00000190: 1023 113d 5a7c 5dbe 52ac d3bc 7d09 5a3e
000001a0: 9db3 803d b2aa 8bbc 1347 cbbd 827d 69be
000001b0: f417 e3be 5d4f 01bd 27a1 70be 0e2f 48be
000001c0: 7527 00bf 6e81 28be edff 92be bee0 a0be
000001d0: 5d33 97be 502f 80bc 2237 0ebe 5b9e 38be
000001e0: 3f1d eabd e345 083f ba2f d43a 93d4 463e
000001f0: 1189 75bf 0b37 51be 5c48 d3be ff62 3f3e
00000200: 5027 df3d 4720 2a3f 0fb2 083f 5466 bdbf
00000210: 964c 38c0 7038 123f e353 143e 96c6 d1bd
00000220: a814 a93e 1f08 5c3f e8f3 26bf 27ed 01bf
00000230: f34b f0bd 3fd0 53be f911 a53d f24b 77bd
00000240: 9541 fc3d 75ec aebe f79c 63be 157e e63d
00000250: a264 ddbe 2f7a 3ebe 0123 65be 164d 02be
00000260: bf10 ffbe 1f5b c2be 8f3e 29bf f19e afbe
00000270: 1009 bfbd 41ab da39 aba1 4cbe 96aa 99be
00000280: c9dd 36be 6a65 8dbd fd94 bd3e 8df3 193e
00000290: 7db9 6c3d 4aea cb3d 7396 1f3f 0e5e 9b3e
000002a0: fcc9 d93e 4b4d b73e ffd3 ccbe 1cc2 f03e
000002b0: 269b f9be 6184 d5bf bb27 dabe 7f81 95be
000002c0: f28c 2d3e c361 e0be b6ab d13c c6fd cabf
000002d0: 7991 13bc a2ba 04bf 137b 63be 600e bb3d
000002e0: a19f 303d c4fd 96be 2f48 32bd 193a 85be
000002f0: 02ab 9ebe b885 b1bd 8491 a0bd 228b 8abe
00000300: ae51 87be f7d5 07bf b2b7 9fbe 8cc2 67bd
00000310: 0cba 9bbd 7847 10be 8bfe b4be 76f7 87be
00000320: d5ff 2ebe 2964 4cbe 763b 91be 7764 bcbc
00000330: ee5e 2ebc b94c 19be be44 24bf 181b d4be
00000340: 0498 bbbd 4ca4 18bf 8aac ccbd 4b38 fabd
00000350: 92e6 b4be f169 c9be f8a1 d6be 7a44 c5be
00000360: e88f 1cbf e58f 37bf 5204 f4be 3d35 52be
00000370: 855a 1dbe 76cb 1a3d 5d57 993d ceb7 21be
00000380: f23b 18be 8388 1cbe 1a88 8dbc 46ba b03d
00000390: bbb1 193d 88eb 8a3d a80b b8bb 4c2b a33d
000003a0: 8873 19bf 5510 803e f1c4 c9bd b395 573b
000003b0: 2e77 d7bd b058 06be 5b81 0a3e 16fe 6fbf
000003c0: 2fc3 09bc f280 f73e b9c7 89c0 bfaa d2bd
000003d0: 6e1d 873f f8dd a03e 4083 893e 4bb8 5e3f
000003e0: 0171 343f 43bf 3dbe 4273 193e a627 b5bf
000003f0: 7b97 17c0 1f7e 7b3d e948 3b3f dfdb ab3e

bias f4 [50]
4.40889 -0.33984584 -0.9095939 -3.626413 -13.932236 -0.14468876 -2.5777485 -0.59924895
10.361311 -0.50667864 -0.21732597 10.404635 -0.33249527 -0.5689255 6.6460137 -1.8235002
7.7732124 0.6515017 -0.016530855 -0.3699624 -0.5757826 -0.3567997 -0.68377525 -7.7565045
-0.5335541 2.9195414 -3.0160685 3.0498817 3.9350693 -2.7287183 -0.0010723118 -1.2019104
1.9152302 -0.5007013 -0.2104297 7.5075464 -0.3674725 -4.218078 -0.39278626 -0.38086617
-0.42347807 -6.9551826 -0.837269 -0.54429185 -0.6274724 3.3010192 -16.662815 11.699214
-7.773305 -0.21757585
00000000: a015 8d40 4600 aebe 25db 68bf 2717 68c0
00000010: 70ea 5ec1 4a29 14be d5f9 24c0 6168 19bf
00000020: eec7 2541 b1b5 01bf b38a 5ebe 6379 2641
00000030: d23c aabe 1aa5 11bf 25ac d440 7468 e9bf
00000040: 28be f840 d1c8 263f b76b 87bc b66b bdbe
00000050: 7d66 13bf 73ae b6be e50b 2fbf 4935 f8c0
00000060: 0097 08bf c4d9 3a40 4407 41c0 4331 4340
00000070: 2dd8 7b40 52a3 2ec0 d08c 8cba 33d8 99bf
00000080: 4326 f53f f62d 00bf e27a 57be d23d f040
00000090: 5b25 bcbe 7ffa 86c0 481b c9be e400 c3be
000000a0: 1ed2 d8be db90 dec0 4357 56bf b656 0bbf
000000b0: 08a2 20bf e643 5340 724d 85c1 fb2f 3b41
000000c0: eabe f8c0 34cc 5ebe

weight f4 [10, 50]
-0.009534677 0.032822553 -0.00022744207 -0.10558768 -0.22350721 -0.019695316 0.048225414 0.011396591
0.35513136 -0.5754859 -0.3260069 0.24010713 -0.01586383 -0.34971935 0.1263188 0.17459303
-0.20406294 -0.5372173 0.25426975 -0.604531 -0.07366773 -0.00063507154 -0.14301024 0.15535937
-0.4053495 0.049796812 0.14640552 0.053334765 0.16986428 -0.15330249 -0.18680897 -0.07529131
0.23882347 -0.22371012 -0.10783222 0.25292552 -0.00534165 -0.29588354 -0.015269234 -0.027194712
0.035002366 0.12371706 0.21876238 -0.06147413 -0.6401675 0.09426084 -1.3771536 0.44731733
0.0902625 -1.9418482 0.30832282 -0.06745091 0.039151404 0.12171778 0.11717535 -0.17184055
-0.27714968 0.21428607 -0.26081684 0.11510144 0.2831663 0.39320892 -0.13285412 -1.2108057
0.25924712 0.26601532 -0.06454614 -0.74499214 -0.32536194 0.0052468837 -0.008395214 0.10924009
-0.17912082 0.22020525 -0.19092909 0.10035912 0.22125868 0.029527584 -0.28034082 -0.05785203
0.0022274689 -0.23161909 0.07005217 -0.31151897 -0.0856186 0.020001167 0.035836734 -0.038368907
-0.29381815 0.012389209 -0.6738203 -0.25217792 0.23996466 -0.15640162 0.05482259 0.23982154
0.03317504 0.3221755 0.049851906 0.04891461 -0.17259434 -0.0549352 0.08451753 0.072854325
0.045293506 -0.19540496 -0.07004149 -0.08147452 -0.30878913 -0.4558996 0.045920752 0.23689146
0.036700748 -0.20798934 -0.08185017 0.11679344 -0.28893456 -0.057787336 0.111881554 -0.060664196
-0.10881986 -0.06432417 -0.39129725 0.023022676 -0.03615672 -0.0151040405 0.098062485 -0.1498889
-0.18782264 -0.06344053 -0.049962096 -0.2697629 -0.22761273 0.29279765 0.19520295 -0.09202452
0.10309095 -0.09512709 -0.17465721 -0.15784775 -0.13345982 -0.11212821 0.2813177 -0.09554243
-0.117465965 0.2004254 0.15696299 -0.041583177 0.12989604 0.4224826 -0.051963326 -0.034222797
-0.050404046 -0.016345449 0.038450953 -0.392563 0.3054806 -0.13212293 0.21712151 -0.79532784
0.050014373 0.04815314 -0.02655865 -0.16131076 0.119523525 -0.08578839 -0.21866009 -2.3591495
0.11382526 -0.31278193 -0.7434243 -0.0013266191 -1.095327 0.30904034 -0.29213962 0.071395904
0.23915204 -0.35186413 0.043704394 0.18679382 -0.13247892 0.07477221 0.11626085 -0.29386148
0.0435054 0.20846665 0.00783558 0.19866912 0.14251055 -0.11686945 -0.70302993 0.03381816
-0.41914585 -0.028601173 -0.1880397 0.10301521 -0.05916114 0.15289097 0.23891631 -5.3792067
-0.17079338 -0.049017224 -0.19471872 -0.17555301 -0.07053769 -0.03742455 0.30620643 -0.084057756
0.46149477 -0.14637049 -0.10407597 -0.1648373 -0.16701941 -1.2188749 -0.015348529 0.03198872
-0.11122297 -1.944009 0.16497348 -0.118683636 -0.22565605 0.14416432 -6.628817e-05 0.103628606
-0.09177555 -0.0106256325 0.110578574 -0.2586165 0.2359144 -0.02938063 -0.084411345 0.23047991
-0.032513756 -0.31840017 0.004018032 -0.042343028 0.03771523 0.16809633 -0.44938734 0.03641036
-0.17621954 0.07559035 -0.22789572 -0.0067306464 -0.56053823 -0.06461423 0.14766054 0.11206434
0.08596743 -3.1114101 -0.067557365 0.066074006 -0.10620056 0.4351286 0.013272527 -0.13832542
00000000: 5537 1cbc f170 063d 847d 6eb9 5b3e d8bd
00000010: 13df 64be 1258 a1bc 0388 453d c4b8 3a3c
00000020: c7d3 b53e 0b53 13bf 60ea a6be a5de 753e
00000030: ddf4 81bc 6a0e b3be b759 013e 84c8 323e
00000040: e0f5 50be 1387 09bf a52f 823e 8bc2 1abf
00000050: 1bdf 96bd ee7a 26ba 4771 12be 8716 1f3e
00000060: f889 cfbe bef7 4b3d 54eb 153e 8e75 5a3d
00000070: e7f0 2d3e 54fb 1cbe da4a 3fbe 5532 9abd
00000080: 248e 743e 4414 65be 24d7 dcbd 747f 813e
00000090: 0209 afbb 0c7e 97be cf2b 7abc 72c7 debc
000000a0: a45e 0f3d 5f5f fd3d 3f03 603e 4ccc 7bbd
000000b0: 04e2 23bf d40b c13d 9246 b0bf c706 e53e
000000c0: 8cdb b83d 7b8e f8bf 7ddc 9d3e b423 8abd
000000d0: 395d 203d 2c47 f93d a1f9 ef3d f8f6 2fbe
000000e0: 90e6 8dbe cf6d 5b3e c989 85be 4eba eb3d
000000f0: 2cfb 903e ae52 c93e e90a 08be aefb 9abf
00000100: 0abc 843e 2933 883e c430 84bd ceb7 3ebf
00000110: d795 a6be 0dee ab3b 148c 09bc 45b9 df3d
00000120: 736b 37be 7c7d 613e ea82 43be 1589 cd3d
00000130: a391 623e d5e3 f13c d588 8fbe 40f6 6cbd
00000140: bafa 113b 8e2d 6dbe 8377 8f3d 6a7f 9fbe
00000150: ce58 afbd 7dd9 a33c 8ac9 123d b728 1dbd
00000160: 556f 96be 1cfc 4a3c 7d7f 2cbf 771d 81be
00000170: 4cb9 753e bf27 20be a78d 603d c793 753e
00000180: 8de2 073d 30f4 a43e 8331 4c3d b05a 483d
00000190: 92bc 30be bb03 61bd 8717 ad3d a634 953d
000001a0: af85 393d 3d18 48be ea71 8fbd 1ddc a6bd
000001b0: 9c19 9ebe ac6b e9be 6617 3c3d ad93 723e
000001c0: 8653 163d 28fb 54be 10a1 a7bd 6631 ef3d
000001d0: 3bef 93be 6ab2 6cbd 2822 e53d 057b 78bd
000001e0: f2dc debd 64bc 83bd 1d58 c8be 0d9a bc3c
000001f0: 1219 14bd f076 77bc fcd4 c83d 7a7c 19be
00000200: 9454 40be 1ced 81bd 0ea5 4cbd 5d1e 8abe
00000210: 5013 69be 93e9 953e 48e3 473e 5a77 bcbd
00000220: 5921 d33d fed1 c2bd 57d9 32be d7a2 21be
00000230: b1a9 08be 7aa3 e5bd e008 903e c0ab c3bd
00000240: ff91 f0bd 513c 4d3e e8ba 203e 1f53 2abd
00000250: 7803 053e a44f d83e 7fd7 54bd 342d 0cbd
00000260: 7974 4ebd e4e6 85bc bf7e 1d3d 04fe c8be
00000270: f467 9c3e 3c4b 07be 1a55 5e3e 9b9a 4bbf
00000280: dfdb 4c3d 3a3c 453d 8791 d9bc a62e 25be
00000290: c0c8 f43d d3b1 afbd 6ee8 5fbe 4efc 16c0
000002a0: 381d e93d f424 a0be 0e51 3ebf f3e1 adba
000002b0: ad33 8cbf 893a 9e3e 5393 95be 0438 923d
000002c0: 46e4 743e 8927 b4be 6103 333d e146 3f3e
000002d0: 8ea8 07be 2c22 993d 2b1a ee3d 0375 96be
000002e0: b832 323d 4878 553e ce60 003c eb6f 4b3e
000002f0: 49ee 113e 4059 efbd c5f9 33bf e984 0a3d
00000300: 499a d6be 024d eabc 7b8d 40be a3f9 d23d
00000310: f452 72bd 738f 1c3e 7aa6 743e 7622 acc0
00000320: 76e4 2ebe 49c6 48bd 5864 47be 2bc4 33be
00000330: 1076 90bd 7c4a 19bd 17c7 9c3e 7926 acbd
00000340: 0b49 ec3e 25e2 15be c825 d5bd 1ccb 28be
00000350: 2307 2bbe 1804 9cbf 6678 7bbc 9b06 033d
00000360: dec8 e3bd 49d5 f8bf cfee 283e 6810 f3bd
00000370: 6112 67be d09f 133e 3104 8bb8 3c3b d43d
00000380: d2f4 bbbd 2217 2ebc 0577 e23d 6269 84be
00000390: 8b93 713e a6af f0bc dbdf acbd ed02 6c3e
000003a0: 252d 05bd 5905 a3be b2a9 833b e26f 2dbd
000003b0: 497b 1a3d 7221 2c3e 1916 e6be 0823 153d
000003c0: e572 34be 1dcf 9a3d 7f5d 69be c18c dcbb
000003d0: 6f7f 0fbf 7754 84bd 5334 173e fd81 e53d
000003e0: b10f b03d 5821 47c0 845b 8abd cf51 873d
000003f0: ae7f d9bd 2dc9 de3e 0375 593c 2ea5 0dbe

bias f4 [10]
-1.563333 -1.5914944 1.2001536 -2.6420884 -1.3638614 4.807984 -0.49530047 -4.2282157
-6.810777 -8.359542
00000000: 4c1b c8bf 17b6 cbbf a29e 993f fa17 29c0
00000010: 0393 aebf 01db 9940 0698 fdbe 8b4d 87c0
00000020: e3f1 d9c0 afc0 05c1
