torch0.187valmodel.pth (torch, 438404 bytes, 8 tensors)

hidden1.weight f4 [200, 139]
00000000: ab35 95bd 66af 7639 8d5b 33bd c3ed 4fbd
00000010: 434a 663c 3eb1 91bc dc69 8fbd f605 23bd
00000020: 205e 9b3c 0409 743d f0fa a23d a93b 113d
00000030: 5fcf 053d f636 17bd 6c97 4e3d 85d2 cabc
00000040: 0f13 2b3d 15aa f3bc 0c41 a1bd 6724 323b
00000050: 2e83 bebc 5df8 993d a556 fdbc 77c9 7abd
00000060: 07b6 89bd 5232 c63b 7b99 6fbd 6eec 97bd
00000070: 67e9 813d 59bd 93bd 6a85 69bc 96fe 7dbc
00000080: 7627 b33c 50de 083d 1b38 b73c 17f4 74bd
00000090: b9b0 e6bc 3d49 a6bd 4113 55bd d768 4bbd
000000a0: 22ef 473d a8a9 883d 8e98 f03c 8d30 583d
000000b0: 90fa a63d 487c ad3d ed9c 61bd 599d 473c
000000c0: aecc 18bd 7c1a bc3c 041d 9e3b d7aa dbbc
000000d0: abde 323a bcad 9c3d 1ff2 423c b2ac a33d
000000e0: 2909 e53c a996 01bd f29d 3abc e221 89bc
000000f0: f858 bfbc 5b96 663d 7cfb 88bd 8851 8ebd
00000100: f73a 7b3d 3edb a23c 0978 89bd 51ed d2bc
00000110: c6e7 9d3c cd2d 913d 16c9 2abd 4ab6 6dbc
00000120: ced9 953d eebe 413d fe19 8d3a 8f74 7ebd
00000130: 1e3a 293d 6577 a83d ecb4 2f3d ea48 aabd
00000140: c333 9d3d bda8 84bd c2b4 c7b8 a8a8 94bd
00000150: 1649 5dbd db05 813d 0b48 9abd 01a0 883b
00000160: d794 363d 2095 963c 7fe8 913d 40a7 15bd
00000170: d381 96bd afc5 113d 0442 79bc df50 39bd
00000180: 9a4c 07bc 3abd 6e3c 9a39 073d 1241 89bd
00000190: def3 88bd 9fc9 8a3d 8834 8bbc 3c65 343d
000001a0: fad8 8ebd 29bc ba3c 7b47 783d b9de c33c
000001b0: dbd2 c43c 7829 8d3c 3050 0a3d 1189 dcbb
000001c0: a019 7a3d a1af ba3c 2975 86bd 68cf 6dbd
000001d0: 8107 373d 3563 4a3d 63e5 98bd 60ff 60bd
000001e0: 543b 2ebc 75fe ea3c a1cc 56bd 2dcf 543d
000001f0: 9cdf 943c d65b 073d 4286 9b3d 295a 80bc
00000200: 7ccc 7ebd adb9 a2bc 6f33 9cbd ba13 04bd
00000210: 9612 da3c a1f6 83bd dcec f83b b0f6 873d
00000220: 17d5 a6bc 51fd f9bc b71e a33b 522c c13c
00000230: aed3 8f3d bdef 123d d60a 73bd f221 a6bd
00000240: 3398 c83c 6c05 d63c 7a04 903d f850 c7bc
00000250: e694 35bd 951d 11bd e0ee 98bc 4c72 97bd
00000260: 2edf 87bd 4fd0 693c b08e 713d c3d8 aabd
00000270: 8a0d 8cbb 58d4 f8bc 6ac0 4abc c665 c8bb
00000280: 647f a83c 54f6 ff3c b355 86bd d00a 173c
00000290: 4186 343b 2ede 0bbd b863 a4bc eb12 bd3b
000002a0: a911 5e3d 8a71 88bd 6338 6fbc 4bc9 173d
000002b0: 8e47 0cbc 40c7 31bd 3221 27bd 88c2 873d
000002c0: b92c 913d c98f 22bd aa15 8d3b d1e1 39bd
000002d0: 8f40 a83b 3c7e 0fbd d7f1 03bd 3de1 873d
000002e0: 6750 69bd a8a5 c2bb 3d2e 6f3d 4401 953d
000002f0: 8482 613d 075b 503d dd60 05bc 475b 76bd
00000300: 8691 093c c29a 3b3d 9c9d 773c 8bbe 963d
00000310: 2d0c 0bbd 4cbb a4bd 5f27 a33d c80a 4ebd
00000320: cbb5 a63d 7df8 6abd 3fe6 eb3c 4bf2 92bd
00000330: 879a 95bd 67c1 9bbc 8d06 803d 7769 8dbc
00000340: 2833 6abd e8a7 9f3d d904 8bbd 9f0c 46bd
00000350: aef4 e5bc a863 a73d 8cd9 45bd 7bf7 9c3d
00000360: 46ea 6fbd 06d9 913d 62fa 3e3d def5 983d
00000370: 8656 073c 18d2 80bd 23f8 7a3d ae63 4bbd
00000380: 5bea 213c 7d89 693d 7f9f e4bc 408b 97bc
00000390: 39b1 c43c 3da1 f73c 4c73 8b3c 1cd8 9bbd
000003a0: d894 8abd 096b 013d bea1 bf3c 4ddc 0b3d
000003b0: 0a97 d33b db45 c7bc 705c 54bd 0975 99bd
000003c0: e742 883d 6947 c4bc 0099 d53c 32e0 07bd
000003d0: e7e8 6c39 ba8a 503d 6523 283d cfa1 acbd
000003e0: 19e2 033d 9340 a13d 9a2e d2bc 32c9 963d
000003f0: ad6c 71bd 1a4c 09bc e50a e9bb 0304 1dbb
-0.07285627 0.00023525729 -0.04378848 -0.050763857 0.014055791 -0.017784711 -0.07002613 -0.039800607
0.01896578 0.05957891 0.07958019 0.035457287 0.032668468 -0.03691765 0.050437376 -0.024758587
0.041766223 -0.029744187 -0.07873735 0.0027182342 -0.02325591 0.07518075 -0.030925104 -0.061227288
-0.06724172 0.006048479 -0.05849598 -0.07418142 0.06343346 -0.072138496 -0.014253 -0.015502593
0.021869402 0.03341514 0.02236562 -0.059803095 -0.02816044 -0.08119438 -0.052020315 -0.04966053
0.04881204 0.06672984 0.029369619 0.052780677 0.0815326 0.084709704 -0.055081297 0.012183511
-0.037304573 0.022961847 0.0048252363 -0.026814861 0.0006823341 0.07650325 0.0118985465 0.079919234
0.02795847 -0.03163782 -0.011390196 -0.01673979 -0.023357853 0.056295734 -0.06688592 -0.069491446
0.06133553 0.019879933 -0.06712348 -0.025747927 0.019275557 0.07088814 -0.041695677 -0.014508793
0.073169336 0.047301225 0.0010765193 -0.062122878 0.04131519 0.08225898 0.04289715 -0.083146885
0.076758884 -0.06477497 -9.522728e-05 -0.07258731 -0.05402478 0.06299945 -0.07533272 0.0041694646
0.04457554 0.018381655 0.07124423 -0.036536455 -0.07348981 0.035588916 -0.015213493 -0.04524314
-0.008258009 0.014571482 0.033013918 -0.06701864 -0.06687139 0.067767374 -0.016992822 0.044041857
-0.06974979 0.0227948 0.060615044 0.023909913 0.024026325 0.017231688 0.03376788 -0.006730207
0.061059594 0.022788825 -0.06565315 -0.058059126 0.04468489 0.049411017 -0.07465627 -0.054931045
-0.010634262 0.028685788 -0.052441243 0.05195539 0.018173032 0.033046566 0.07593967 -0.015667992
-0.06220673 -0.019863928 -0.07626998 -0.032245375 0.02662019 -0.06443525 0.007596595 0.06638849
-0.020365281 -0.030516298 0.0049780267 0.023580704 0.070227966 0.035873163 -0.059336506 -0.08111943
0.024486637 0.026125632 0.07032104 -0.024330601 -0.044331454 -0.035428602 -0.018668592 -0.07394847
-0.06634365 0.014270856 0.058973968 -0.08342125 -0.004274075 -0.03037469 -0.012374977 -0.006115648
0.020568557 0.031245388 -0.065593146 0.0092188865 0.0027545842 -0.034147434 -0.02006708 0.0057700775
0.05421606 -0.06662281 -0.014600846 0.037057202 -0.008561982 -0.04340291 -0.040803142 0.06628901
0.07088608 -0.039687905 0.004305561 -0.04538137 0.005134649 -0.035032496 -0.03221306 0.06634758
-0.056961443 -0.005940158 0.058393706 0.07275632 0.05505611 0.05086806 -0.00814077 -0.060145643
0.008396512 0.045801885 0.015113261 0.07360562 -0.03394716 -0.080435365 0.07966494 -0.05030325
0.08140143 -0.057365883 0.028796313 -0.0717512 -0.073048644 -0.01901312 0.062512495 -0.017262204
-0.057177693 0.077956975 -0.06788034 -0.04835188 -0.028070774 0.08173305 -0.048303172 0.07664391
-0.05857303 0.07121472 0.046625502 0.074687704 0.008260375 -0.06290072 0.061271798 -0.04965561
0.009882535 0.057015885 -0.027908085 -0.018499017 0.024010288 0.030228252 0.017022751 -0.07609579
-0.06766671 0.031596217 0.023392554 0.034145642 0.0064572142 -0.024325302 -0.051845968 -0.07493026
0.066533856 -0.023959832 0.026073933 -0.033172794 0.00022593477 0.05091355 0.04104938 -0.084293
0.032198045 0.07873645 -0.025656987 0.07362594 -0.058941532 -0.00837996 -0.0071118944 -0.002395869

hidden1.bias f4 [200]
00000000: 0c64 6fbd c3f7 c2bc d15c 7cbc f461 35bc
00000010: 65d9 86bd d2c6 143b 33e5 963b 69c5 963c
00000020: c320 273d 44cd 8bbc c9b1 0bbd 91ce 82bd
00000030: a344 043c 4ad6 2a3c 58e8 b73c 3b96 a8bc
00000040: 067f 57bd 8d67 ed3c e4d9 ea3c a9f1 83bc
00000050: de69 bdbc 2dda f93c 0c46 ff3b f415 c23c
00000060: 725d 88bd bb84 b93c c337 28bd 263e c73c
00000070: f491 a6bc 8d5f f83c fb75 3ebd 4dc7 f83c
00000080: 9ea6 f93c cfd1 6a3c 0544 50bc 7ffe 143d
00000090: 2fd7 c53c 2089 823c 192c aebb 2f3e e03c
000000a0: f3fd bdba 926a 1d3d 49ac 98bd 55b8 86bd
000000b0: 9b09 3f3b b877 673c 5b02 5abd 4e5e 023d
000000c0: 7461 f03c 169f 2ebd 6d43 a1bd 656f 323d
000000d0: d5f5 49bd 73a2 4abd 065a ec3c 2d85 f5bc
000000e0: 0147 223d e528 4b3c 19d5 54bd 82e2 20bd
000000f0: 76b1 94bc a255 88bd 3194 56bd 3221 ed3b
00000100: 2e57 7ebd f138 1b3c 67bb 7f3b 21cf c1bc
00000110: b21b e33b c5a6 883a 9d8e d13b 19c1 2b3d
00000120: a5b8 72bb ab7c b43c 7258 0a3d e2dd 14bd
00000130: b663 913c 5224 8fbd 9a94 a63c 6fc6 25bb
00000140: 7166 723c eede 67bb b7db 2bbb f874 6c3c
00000150: d883 913c b8a0 73bd 6334 2c3d 4442 d5bc
00000160: 48e2 7cbb 66c1 fa3c ac83 78bd 8429 81bd
00000170: 79f1 90bd 7027 abbd c1f0 a53c 4ae1 c93c
00000180: 572d 9cbc f22b c83b c9f1 acbd ebf2 0dbd
00000190: 6d19 233b d417 433c 5f8c ef3c d985 063d
000001a0: 8621 43bd 1067 96bd f4a5 dd3c 8fac 0a3d
000001b0: 3985 abbd ba13 3cbc 5099 01bd 2b4e 87bd
000001c0: 4909 31bd b492 8b3b 11bf 193b cce2 53bd
000001d0: aef4 18ba 82a4 4abd 6124 76bd 9184 463c
000001e0: 48ca 333d 3394 aabd a11c 13ba 1e58 103a
000001f0: 88a5 57bd 036f 49bd a335 55bd 2e01 da3c
00000200: b906 dbbb 7e6e 8dbc 10b5 14bd 4ea4 5abd
00000210: 8a4e 30bd e434 8d3b f3ea a63b e90f 20bd
00000220: dab6 a0bd 6eb6 803c fda3 dabc 881c 673c
00000230: 7009 4abd f0d3 abbc 56d0 8cbd 7940 5cbd
00000240: 394e 42bc ff53 313b 0c5d 3f3c 1e11 54bd
00000250: f96b 673d 79f8 9e3c 0e93 07bc 7437 073d
00000260: 8d57 cebc a278 95bd fc04 91bd 9996 f93c
00000270: d430 013d 0a47 4bbd 3cf8 163d f920 103c
00000280: cf71 36bd 5c50 243c 20c2 363c 5527 693c
00000290: c019 ae3b ae5d 33bc 111c 3fbd 2f9a 243d
000002a0: dfc0 28bd 1e59 24bd 159a 6ebd e27d f6bc
000002b0: 848b 4ebd ffb5 363c c0d7 04bc eb60 8abd
000002c0: 0c0b 2d3b ac5c 863a dcca 253c 8183 21bd
000002d0: 6a90 363d bff1 b7bc 9d5b ea3c 4759 063d
000002e0: e862 9ebd 8b0d b53c b992 34bc 2660 043d
000002f0: 6396 a03c 7a11 a23b f5b9 a13c 4c0f 56bc
00000300: dc69 0fbd 9fa9 8bbd e4c4 cf3c c919 55bd
00000310: 329f a0bd 3b94 f93b a8c1 a93c fc57 49bd
-0.05844502 -0.023799783 -0.0154029885 -0.011070717 -0.065844335 0.0022701514 0.0046049594 0.01840468
0.04080273 -0.017065652 -0.034105096 -0.06387056 0.008073005 0.010427067 0.022449657 -0.020579448
-0.052611373 0.02898004 0.028668351 -0.016106443 -0.02312177 0.030499542 0.0077903327 0.023692109
-0.06658448 0.022646299 -0.041068804 0.024321627 -0.020333268 0.030319 -0.046499234 0.030368472
0.030474957 0.014332249 -0.01271153 0.03637552 0.02415046 0.015934527 -0.0053153154 0.027373401
-0.0014495238 0.03843171 -0.07454736 -0.06578127 0.0029150012 0.014127664 -0.053224903 0.031828217
0.029343344 -0.042632185 -0.078741886 0.043563265 -0.04930671 -0.04947133 0.02885152 -0.02997073
0.039618496 0.012399887 -0.05196104 -0.039278515 -0.018151026 -0.06656958 -0.05238742 0.007236623
-0.06209486 0.009474025 0.0039021613 -0.023658337 0.006930792 0.0010425678 0.0063951747 0.0419322
-0.0037036326 0.022032103 0.033775754 -0.036344416 0.017747741 -0.069893494 0.02033453 -0.0025295278
0.014794932 -0.003538068 -0.002622349 0.014432184 0.017763063 -0.059479445 0.042042147 -0.026032574
-0.0038587023 0.030609798 -0.060672447 -0.063067466 -0.07077307 -0.083571315 0.020256402 0.024643559
-0.019064588 0.0061087543 -0.08444554 -0.034655493 0.002488698 0.011907537 0.029241739 0.03284249
-0.047639392 -0.07343876 0.027056672 0.03385597 -0.083750196 -0.011479313 -0.03164035 -0.06606706
-0.043221746 0.0042594317 0.0023459832 -0.051729962 -0.00058348 -0.049473293 -0.060093287 0.012116567
0.043894082 -0.08329048 -0.0005611871 0.00055062945 -0.052648097 -0.049178135 -0.052053105 0.02661189
-0.006684151 -0.0172646 -0.036305487 -0.05337935 -0.04304365 0.0043092836 0.005093926 -0.039077673
-0.07847376 0.01571199 -0.026689524 0.0141059235 -0.049325407 -0.020975083 -0.068756744 -0.053772423
-0.01185947 0.0027058122 0.011679899 -0.051774137 0.056499455 0.01940559 -0.008274807 0.03301187
-0.025188232 -0.072983995 -0.07081029 0.030467318 0.031540707 -0.049628295 0.03685783 0.008796924
-0.04454213 0.010028925 0.011154681 0.014230569 0.0053131282 -0.010947628 -0.046657626 0.040186103
-0.04119956 -0.04012405 -0.058252413 -0.030089322 -0.05042602 0.01115179 -0.008108079 -0.06756767
0.002640429 0.0010251007 0.010119166 -0.039432053 0.044571318 -0.02245414 0.028608138 0.032799985
-0.077337086 0.022101184 -0.0110213095 0.032318257 0.01960296 0.004945931 0.019741992 -0.0130651705
-0.035013065 -0.06819462 0.02536244 -0.052026544 -0.07842864 0.0076165474 0.020722225 -0.049156174

hidden2.weight f4 [200, 200]
00000000: 1085 2abc fff1 f33c 8458 6d3e 67ec 83be
00000010: 0c6e 5fbc f64d a2bd 43e3 96bd c11c b63d
00000020: f450 af3d 2da3 883e 8e70 57bd e4a4 57bc
00000030: 50ba d4be ba20 2cbe dcb2 713d 914c c5be
00000040: 400d 01bd 0672 d13d 3981 9a3d 1faf cabe
00000050: 63cc 18bd 5b5d 963d e7ee 1fbd c61f 1a3e
00000060: c3a6 37bd e879 16be 6b40 62bd bb70 793d
00000070: ef57 30be 43c6 513e 32d0 253d 21ff ebbd
00000080: 0de7 7dbd f740 63be 8644 07bf 4f9b d03c
00000090: 2b35 00be be1c d9bd e8bf 453f 0bea 98bd
000000a0: 5f62 d9be 583b c13c a3ca 8b3d e39f 623d
000000b0: fe94 803d 5b19 babd 6523 4b3d 2c94 7a3e
000000c0: ccf8 efbe 26d9 3ebd 5fb7 8bbc c032 993d
000000d0: ad51 d4bc 478b 7d3d 3fc7 2c3e e68a 28bc
000000e0: c20a d3bb 37e2 93be ab7a babe 62bb 8abd
000000f0: 4116 a03d 5b89 04bc f66f 253d 8202 b2bd
00000100: 9c83 683c 5621 acbe 7eb0 ef3d 49c2 7cbd
00000110: 108b 93be fd60 083e 5a91 91be fdac 1a3e
00000120: 1380 1fbe af55 b93d 2ccd c0bd e9ce 0cbd
00000130: 380e 43bd 1584 83bd 91b1 b4be ea10 72bd
00000140: 12c3 293e 920a 25be 8cdf 5ebe b28d 89bb
00000150: adbc b43d d3c5 13bc fde0 5dbb 9d9e aebc
00000160: 9a73 4bbd bba3 8a3d 8564 88bd f003 33bd
00000170: f270 693d 0d0e 1d3d 3501 4c3c 461f d93d
00000180: 3d56 c8bc 7c6d c23d 7a90 1dbd 6b3e 01bd
00000190: 018f 5d3c 842c a23d 0313 7abd c887 7a3e
000001a0: b702 753d 12f6 7a3d 0f17 80bd 2f4a d7bb
000001b0: e420 61bd 2ae3 a73d 73c0 a23c fc00 87bd
000001c0: 476b 74bb 7bf2 103f 2e36 57bd 9066 dbbc
000001d0: 913b fcbe e91a 053b f81c e73b 3b2b f7bd
000001e0: 3dd1 003e 5af7 d03c acb0 6ebe 140a 1a3e
000001f0: 4150 303c 24f3 8bbc 7cc8 373c 7d1f b2be
00000200: ad39 e1be bf9d ccbe 95b8 40bd 92a5 86bd
00000210: fa8a a0bc 0f0c aabe 0f0c 0dbe ded4 6e3d
00000220: 95e9 1abd 97f7 57be f24f 4f3d ae75 643b
00000230: dea5 59bd e4ea c53e 9abf 013d 983a ef3b
00000240: f833 a73d 21b2 b9be 5dd7 27be 7213 88bd
00000250: 978d 92bd e9d6 e13d 7dc6 ffbe 302d 9f3d
00000260: bc37 153c a72b 2f3d 7ff3 7f3d 9f1f ba3d
00000270: 1c0f 06be dd9b c63c 3af2 a2bc dc55 1f3e
00000280: 1be3 4d3d 08dc a13c cc9a 833d 3aa9 5cbe
00000290: 7838 5cbc 88d4 8bbe 0c1b 8039 5aed 903d
000002a0: 79b2 573d 652a 47bc 3e51 34bc 007b 10bd
000002b0: 5401 80bc 437b 15bd 3383 0dbf a287 1fbd
000002c0: 43a8 0bbe 0b85 39be 8906 46bd 8a26 0cbd
000002d0: 48e9 c13c 073d d1bb d57a 26bd 20f1 c9be
000002e0: 8cc1 bd3c c70e 983c 0535 2bbe 9237 993c
000002f0: 3afb 603d 64fa cabe b5be 13be cf15 06be
00000300: 6055 853d 67ff 763d b5d4 4e3e e220 8d3d
00000310: 1814 7e3d d7ee f3bd 44e5 8cbd 7dad 4d3d
00000320: fbf7 6ebc 110f 28bd f187 d03a 1fdb b5bd
00000330: 97ed 78bd fdbd bdbc f08c c7bd 442d f3bb
00000340: 0401 1a3d 2d1e 5b3b 40fa f5bc 0343 843d
00000350: f57d 01bd a82e e7bc 3cff 7bbc 99bb 1d3c
00000360: eeb7 883d b7d3 d03c cd26 af3c 2667 b93d
00000370: 4c7f 863d 1ee1 e13c acc6 66bd fd80 4e3a
00000380: ed10 223c a488 133d a48a 3f3d 374f 57bd
00000390: 0dea 2bbd 4a30 bbbd 5436 69bd ed8f 8ebd
000003a0: 658c 84bd ffe1 0c3d 4a55 25bd 7d19 eebc
000003b0: 6149 adbd 666d bcbd cc93 4e3c d667 9cbd
000003c0: 142a 32bd c1cc 093d df2f 00bc d758 4eba
000003d0: 54f6 8a3d 315a a1bd d75a 61bd 3536 30bd
000003e0: 713a c4bd 3329 0abb 1bda c6bc 3a29 19bd
000003f0: f35f 1ebc 9daf 843d 6746 053d 3072 ad3c
-0.010407701 0.029778479 0.23178297 -0.25766298 -0.013637077 -0.07925026 -0.073675655 0.08892203
0.085603625 0.26686993 -0.052597575 -0.013161872 -0.41548395 -0.16809359 0.059008464 -0.38534978
-0.031506777 0.10226826 0.075441785 -0.39586732 -0.037304293 0.07342025 -0.039046194 0.15051183
-0.04483677 -0.14694941 -0.055237215 0.060898524 -0.17221044 0.20485787 0.040481754 -0.11523271
-0.061987925 -0.22192751 -0.52838933 0.025464682 -0.12520282 -0.10601185 0.7724595 -0.07466515
-0.42457864 0.023587868 0.06825759 0.05532826 0.06278418 -0.090868674 0.0495943 0.24470586
-0.46869504 -0.046593808 -0.017055212 0.07480383 -0.025917852 0.061900403 0.16872881 -0.010287022
-0.0064404914 -0.28883526 -0.36421713 -0.06774022 0.078167446 -0.008089389 0.040389977 -0.086918846
0.014191534 -0.33619183 0.11703585 -0.061708722 -0.28817034 0.13318248 -0.28431207 0.15105052
-0.155762 0.09049546 -0.094141334 -0.034377012 -0.047620982 -0.06421677 -0.35291722 -0.05909816
0.1657832 -0.16117314 -0.21764964 -0.0041977996 0.088250495 -0.009019333 -0.0033856027 -0.021315867
-0.049670793 0.0676951 -0.066597976 -0.043704927 0.05699248 0.038343478 0.01245146 0.10601668
-0.024455184 0.09493539 -0.03846786 -0.031553667 0.013522864 0.07918647 -0.061053287 0.24465859
0.059817042 0.061269827 -0.06254398 -0.0065701227 -0.054963008 0.08197625 0.019867158 -0.06591985
-0.0037295388 0.56619996 -0.052541904 -0.026782304 -0.49264196 0.002031023 0.007053014 -0.120687924
0.12579818 0.025508571 -0.23309582 0.15042907 0.0107613215 -0.017083712 0.011217233 -0.3478965
-0.43989316 -0.399641 -0.04705103 -0.06574549 -0.01959752 -0.33212325 -0.13774131 0.058308475
-0.037820417 -0.21090542 0.05061335 0.0034860182 -0.0531367 0.3865577 0.031676866 0.007300686
0.08164209 -0.36268714 -0.16390748 -0.06644334 -0.07155912 0.11027319 -0.49956122 0.07772291
0.009107526 0.04276624 0.062488075 0.090880625 -0.13091701 0.024244243 -0.019890893 0.15560097
0.050265413 0.01975824 0.064260095 -0.2154893 -0.013441198 -0.27310586 0.00024434214 0.07076521
0.05266044 -0.012156104 -0.011005698 -0.035273552 -0.015625633 -0.036494505 -0.5527832 -0.03894771
-0.13638406 -0.18117158 -0.048346076 -0.03421644 0.023670807 -0.006385449 -0.040644486 -0.39441776
0.02316358 0.018561734 -0.16719444 0.018703256 0.05492709 -0.39644158 -0.14428218 -0.13094257
0.065104246 0.060302164 0.20198329 0.068910375 0.06203088 -0.119107895 -0.068796664 0.05021428
-0.01458549 -0.041029993 0.0015909654 -0.08879685 -0.06077346 -0.023161883 -0.097436786 -0.0074211676
0.037598625 0.0033434734 -0.030026555 0.06458094 -0.031614263 -0.02822049 -0.015380677 0.009627246
0.06675707 0.025491579 0.021380806 0.09052877 0.06567249 0.027573165 -0.056341812 0.0007877497
0.009891731 0.036018983 0.046763077 -0.05256578 -0.041971255 -0.0914007 -0.056936577 -0.069610454
-0.06472091 0.034395214 -0.04036454 -0.029064888 -0.084612615 -0.092005536 0.01260848 -0.07636993
-0.04349716 0.033642534 -0.007823913 -0.00078715145 0.067852646 -0.07878531 -0.055018272 -0.043020446
-0.09581459 -0.0021081686 -0.024273923 -0.037392832 -0.009666431 0.06478808 0.032537844 0.021172613

hidden2.bias f4 [200]
00000000: c6ad 073e fff4 6dbd 9589 c53d af97 89bd
00000010: 49b4 773d 45c8 8f3d edc2 ed3d 5dbd 363e
00000020: 1276 bebd 7fc7 023d 9219 aebd 0b12 133e
00000030: 103e 98bc 366e 053e f36c eb3d 3daf 663d
00000040: 7867 97bc 5b75 d1bb ab2f c7bc b29f 013e
00000050: d3e2 073e 4221 113e 2f2a f23d 251c 84bd
00000060: e8b6 13bd 6641 adbc dbb2 6ebd d875 c63d
00000070: 3cec a73c adf3 e13d ed51 83bd 1f59 59bd
00000080: b5b4 4ebd 607e cc3d e907 5a3e 57e5 8bbd
00000090: 3e9d 2c3e b4dc 0a3e 2874 e53c 7d1b f5bc
000000a0: ae9d 303e 4e97 313d 4948 9b3d 93a2 82bd
000000b0: 5711 33bd 588d f03d 0fd8 2a3e c55e e53d
000000c0: 9d42 a1bd b3ec 53bd a610 c5bd b35a 2fbd
000000d0: 426d 943d 8831 c5bc 6c9a 79bc 51d5 863d
000000e0: f6ad 943d ffea 1b3e 29ba 81bd a6f8 713d
000000f0: 76b4 b9bd 81f2 2b3d a95b fd3d 00fc 0ebd
00000100: 161b 373c 59c7 20bd 2261 79bd eac3 91bd
00000110: c785 6cbc 36f8 80bd 1e26 2f3d 99b8 283e
00000120: 74da 253e d0c4 c63c 00b6 acbc 2e12 453d
00000130: 2fe8 85bd d96f a2bd ecfd 8cbd f608 c63d
00000140: bbe9 24bd 3022 89bd d581 6f3d c03d ac3d
00000150: 0b99 34bd 5823 e13d 4192 6ebd c302 0d3e
00000160: 9228 33bd 4654 cb3d 06d7 2c3e eddc e6bc
00000170: 74a6 17bd ad55 50bc f738 e73c 91b6 45bd
00000180: d148 303d 0a44 143e 2a10 b13d a4bd e73d
00000190: 647e 1c3e c269 c93d 836d f9bc 709c 1ebd
000001a0: 46a4 6d3c abba da3d 63ca 303d 5488 263e
000001b0: 0224 333d b892 c1bc 79c1 8bbd 0b67 543d
000001c0: 0764 ddbd f127 083e a455 09bd b3bf f2bc
000001d0: 04c8 933d 0de1 833d f44c c13d daf7 72bd
000001e0: 33b0 66bd 65a6 cd3d bcd5 263e 2726 8a3d
000001f0: 400a 96bc 8710 4ebd bb0a 0f3e 96c1 e33d
00000200: b7d3 583c 26c1 4e3d b643 d5bc 9bf1 c3bc
00000210: 3d33 06bd 5efd 54bd 1391 34bd ec2f 95bd
00000220: ea39 fc3d 8346 32bd 04fb 56bd 58ef 293e
00000230: c19f b63d 4fff 40bd 07c7 20bd f843 573d
00000240: 49b6 bebd c83f 97bd 8eef 0cbd f733 813d
00000250: 72fb 753d 7436 19bd d968 d13d 2904 52bd
00000260: 216a 6b3c 0375 943c c10b 79bd f927 8cbd
00000270: b58e 3f3d 4fcd 1c3e 64c2 cebd be38 85bc
00000280: a8f3 4abd d133 d23d ea92 bdbc 6ffa e3bc
00000290: 5fcd 6cbd 8d4d 83bd 7a06 363e 9ee4 bf3d
000002a0: 515e ef3d 7003 243e ff24 2a3d b32d 68bd
000002b0: a659 9abd 996b 193e 02fc 023d 4ef9 d43c
000002c0: 19e4 43bd d7ec bc3c 6763 883d 9b3b 72bc
000002d0: 847b 11bd 7aaf 82bd 554b a4bd 7f1b b3bd
000002e0: eb28 e13c 9226 a6bd 4767 943d 72ff e73c
000002f0: 3544 83bd a15c 5bbd 9619 fbbc 3828 babd
00000300: 385c ccbc 5f71 cebd b8de 97bd 2ec7 56bd
00000310: 8447 1e3e 7024 afbc 1341 81bd 7496 4ebd
0.13249883 -0.058094975 0.09645382 -0.067183845 0.060474668 0.0702062 0.11609445 0.17845674
-0.09299864 0.031928536 -0.08500971 0.14362352 -0.018584281 0.13030323 0.1149539 0.056319464
-0.018481955 -0.0063921637 -0.024314722 0.12658575 0.1327012 0.14172843 0.11824452 -0.06450681
-0.036063105 -0.021149348 -0.05827604 0.09690446 0.020498388 0.110328056 -0.064121105 -0.053063508
-0.050465304 0.099850416 0.2129208 -0.068308525 0.16856858 0.13560754 0.02800949 -0.029920334
0.1724765 0.043357186 0.07582147 -0.06378665 -0.04371771 0.11745709 0.16683982 0.111997165
-0.078740336 -0.051739406 -0.09622316 -0.042811107 0.07247402 -0.02407147 -0.015234571 0.065836556
0.07259743 0.15226363 -0.06334335 0.05907502 -0.09067623 0.041979317 0.123709984 -0.034908295
0.011175891 -0.039252613 -0.06088365 -0.07117446 -0.014436192 -0.062973425 0.04276096 0.16476668
0.16196615 0.02426377 -0.021082878 0.04811304 -0.06538426 -0.079314895 -0.06884369 0.09669678
-0.040261965 -0.06695974 0.058473427 0.084102154 -0.044091266 0.109930694 -0.058244947 0.13770585
-0.043739863 0.09928183 0.168789 -0.028181517 -0.037023976 -0.012715739 0.028225405 -0.048269812
0.043038193 0.1447908 0.08645661 0.11315468 0.15282589 0.09834625 -0.030447727 -0.03872341
0.014504498 0.10680135 0.04316176 0.16262943 0.04373551 -0.023629531 -0.06824011 0.051856082
-0.10810094 0.13296486 -0.03352894 -0.029632425 0.07215884 0.064394094 0.09438506 -0.0593184
-0.05632038 0.10041503 0.1629247 0.06745558 -0.018315434 -0.05030873 0.13968937 0.11120908
0.0132340705 0.05047717 -0.026033264 -0.023918917 -0.03276371 -0.051999442 -0.044083666 -0.07284531
0.12315734 -0.043524276 -0.05248548 0.16595209 0.089171894 -0.04711848 -0.039252307 0.052555054
-0.09312112 -0.07385212 -0.034408145 0.0630874 0.06005425 -0.037405446 0.10225076 -0.0512735
0.014368565 0.018122202 -0.060802225 -0.06843562 0.046766955 0.15312694 -0.10095671 -0.016262408
-0.049548775 0.102637894 -0.023141343 -0.027829377 -0.057813045 -0.06411276 0.17775908 0.09369777
0.11687911 0.16016936 0.04153919 -0.056684207 -0.0753663 0.14982451 0.031978615 0.025997784
-0.047824953 0.023062153 0.066595845 -0.014784719 -0.035518184 -0.06381126 -0.08022181 -0.08745479
0.027485332 -0.081128255 0.07246261 0.028320048 -0.06409494 -0.053555135 -0.030651849 -0.09089702
-0.024946317 -0.100802176 -0.07415527 -0.052436046 0.15456969 -0.02137968 -0.0631124 -0.050436452

hidden3.weight f4 [200, 200]
00000000: b41e 333d d552 27bb 1dc5 633d 6644 073c
00000010: 9fb7 bf3b 7698 7a3d 9559 3dbc 2781 c2bc
00000020: 897e 19bd 39f8 42bd 70b4 6c3d 38b4 f63c
00000030: a26e a4bb f53e 69bd c8a6 afbc 9faf 4e3d
00000040: 7d74 813d d1f0 90bd 1363 023d 5b78 953c
00000050: e535 993c a485 39bc 8177 adbc be30 a6bc
00000060: 7566 dc3b ece6 843d 42d0 3d3d 08ba cf3b
00000070: 95fb 10bd 9ff6 763c 5592 debc fd3d e2bc
00000080: ce25 35bd cb53 9e3c cf23 073d 7b36 2f3d
00000090: bac1 6a3d 5bfc 12bd c88d 9fbc a109 09bd
000000a0: d5e3 27bd 870f 2d3d 31bc 76bd 5ca5 6bbd
000000b0: 8028 6fbd d585 093d 166a e8bc bc18 15bd
000000c0: aa16 0d3d 6f30 253d 83a2 ac3c 1265 3b3d
000000d0: fd2d ab3c 99f6 e9bc 673f 8bbd 418a 14bd
000000e0: 0548 44bd 2939 edba 8e75 02bd 5efb 71bd
000000f0: 41fb 8dbd 21ce 90bb 7c9d 6b3d a7b3 003d
00000100: 403a 0fbc 7ae4 8cbc 8c28 2abd a3f3 533d
00000110: dd25 323d 490e 09bd 623f 6d3a 2cfd 3a3d
00000120: ebd5 64bd 1f15 5c3d b093 4339 fd6b 11bd
00000130: 47c1 903d 66e6 9bbc 8fc3 0f3d 0e40 4d3d
00000140: 0197 09bc 5e7a 1fbc 4245 92bd d196 8fbc
00000150: aebb bfba 5e4f 823d dfda a83c 1e1d 53bd
00000160: cdff c73c e02a 773d 6c5d 83bd 74e8 423d
00000170: 550e d13c 7ec2 2c3d 1f6c 9dbd 1193 853c
00000180: f8b7 683d 5528 87bd d5fe 7b3d c5d6 293d
00000190: 1f22 59bc 7d35 31bd b7c9 683d 59d7 113c
000001a0: 0f3f 5f3c ae72 c5ba b126 15bc 30a4 15bd
000001b0: 058e 79bd cfc8 2fbd f9c1 5ebd b52d 6a3c
000001c0: 9270 c23c cd12 243c c934 22bd 9d02 1abc
000001d0: e253 0dbd f2db 9b3c 5d36 ffbc 4de3 783d
000001e0: 4149 70bd 2b0a 1cbd e151 1d3d 5669 6e3d
000001f0: 01df a13c a409 dd3c 3371 293d 5a39 6c3d
00000200: 6c62 f5bc 1fa6 603c 8b2b 33bc 143c c33b
00000210: fa6f 44bd 74b9 ff3c efbd b13c 049c 90bd
00000220: deed 2d3d 3205 04bc 2257 0e3d dbb2 84bd
00000230: a196 5e3d 4862 133d 63bc bfbb 31c2 173d
00000240: 3e9a 3fbd c08f 91bc 5c95 21bd 6cf1 2d3d
00000250: 3c52 49bd dd15 b03c b235 9ebd c1fc f2ba
00000260: 116f 06bd c7ed 47bd 426c 2cbd de51 00bd
00000270: 28db 523d 267d 91bd 6321 5e3c f290 663d
00000280: f795 303d 256a 5c3d 44d1 46bd 6fbd f03c
00000290: 9810 48bb a0ea 1abd 0821 573d 8ccf f8bc
000002a0: c513 f1bc 3557 153d 5640 7bbc dda8 53bd
000002b0: 39d8 fa3c f382 8fbd 3c32 ebbb f1e2 49bd
000002c0: 03f9 f3bc 1734 093d f3c8 f93c 346a 1ebd
000002d0: 28c7 0d3c 3cb8 66bd 4b37 03bd 94e4 263d
000002e0: 3fa4 553d a252 633d a32c 85bd 69ec 39bd
000002f0: cd2d f03c 0a6e 9ebc 9039 f53c dc16 c0bc
00000300: 175e 17bc 03e3 76bc ea1b 793d 42c7 b2bc
00000310: 4a3f 2a3d f7b7 cc3c e0da af3b 5212 5cbd
00000320: a86c 183c 8686 b23c ec1b 04be f844 0e3d
00000330: e842 8d3d c364 333e 5791 f53d 2977 2b3d
00000340: 52d8 6bbc e234 05bf dc0c aabd f789 80bd
00000350: 1c10 75bc a881 c5bd 7ca3 e33d 85c9 4c3e
00000360: a8db ca3c f689 73bc 8063 3fbd c4a6 093d
00000370: d855 49bc e36d 4ebd ee6d ca3d 3c37 65bd
00000380: 0f04 a03c 55d8 2bbd 9747 333d 510a a4be
00000390: 688e 823b 9242 07bd 9223 613d 6af5 97bf
000003a0: be3b 2bbf 8e21 bcbd cacd 81bd 92b4 43bd
000003b0: 8ca3 ecbc 50f7 9c3d 68cc e6be 9ac4 4ebc
000003c0: 098a 093a 3924 83bd 041c a43d 0e9e 18bd
000003d0: ab30 823d 8b99 8abd 2f11 a0bc fac9 a53e
000003e0: a5b2 95bb 6b3e 19bd 2a4a 3c3d 198e 153c
000003f0: 06c4 abbc 4738 4d3d d294 88bd e1ab 4bbd
0.043730453 -0.002553155 0.055607904 0.008256054 0.0058507468 0.061180554 -0.011557003 -0.023743225
-0.03747419 -0.047600005 0.057789266 0.030115232 -0.0050180713 -0.056944806 -0.021441832 0.050460454
0.063210465 -0.07077182 0.031832766 0.018245867 0.018702457 -0.011323366 -0.021175148 -0.020286914
0.006726081 0.06489357 0.04634119 0.0063393153 -0.035396177 0.0150734475 -0.027169386 -0.027617449
-0.044225506 0.019327065 0.032993134 0.042776566 0.05731366 -0.035885196 -0.019476786 -0.03345645
-0.040988762 0.042251136 -0.060238067 -0.057530746 -0.058388233 0.033574898 -0.028370898 -0.03640054
0.034445442 0.040329393 0.021073585 0.045750685 0.020895952 -0.02855997 -0.067992024 -0.03626466
-0.047920246 -0.00180987 -0.03185039 -0.059077613 -0.069326885 -0.0044191037 0.057523236 0.03142133
-0.008741915 -0.01719879 -0.041542575 0.051746022 0.04349314 -0.03346089 0.00090502773 0.0456516
-0.05586807 0.05373108 0.00018651667 -0.035503376 0.07068115 -0.019030761 0.03509861 0.050109915
-0.008397819 -0.009733764 -0.07142116 -0.01752797 -0.0014628076 0.06362794 0.020612178 -0.05154144
0.024413968 0.060343623 -0.06414303 0.047584966 0.02551953 0.04217767 -0.07686638 0.016305478
0.05681607 -0.065994896 0.061522324 0.041464586 -0.013252764 -0.0432639 0.056832995 0.008901441
0.013625874 -0.0015064084 -0.009103463 -0.036533535 -0.060926456 -0.042916115 -0.054384205 0.014293124
0.023735318 0.010014248 -0.03960112 -0.009400037 -0.034503825 0.019025777 -0.031153852 0.060763646
-0.05866361 -0.038095634 0.038408164 0.058205925 0.019759657 0.026982136 0.04136772 0.057671882
-0.029954158 0.013711481 -0.010935674 0.0059580896 -0.04795835 0.03121636 0.021697013 -0.070610076
0.042463176 -0.008057879 0.034751065 -0.064794265 0.05434287 0.0359824 -0.005851315 0.03705043
-0.046777956 -0.01776874 -0.03944908 0.042466566 -0.04915069 0.0214948 -0.07725085 -0.0018538461
-0.032820765 -0.048810747 -0.04209543 -0.031328075 0.051478535 -0.07103948 0.013557765 0.056290574
0.043111768 0.053812165 -0.048539415 0.029387204 -0.0030527469 -0.037821412 0.052521735 -0.030372404
-0.029428372 0.03646012 -0.015335163 -0.051674712 0.030620681 -0.070073985 -0.0071776193 -0.049288694
-0.029781824 0.033496942 0.030491328 -0.038675502 0.00865344 -0.056328043 -0.032035153 0.040745333
0.05215859 0.055498727 -0.065026544 -0.045391474 0.029318715 -0.01933958 0.029934675 -0.0234484
-0.009238741 -0.015068772 0.060817637 -0.02182353 0.041564263 0.024990065 0.005366668 -0.05372841
0.009303249 0.021792661 -0.12901276 0.034733742 0.06897527 0.17518906 0.11990612 0.041861687
-0.0143948365 -0.5203382 -0.08303234 -0.06276315 -0.014957454 -0.096438706 0.111151665 0.19998749
0.024762943 -0.014864435 -0.04672575 0.033606306 -0.012288533 -0.050397765 0.09884249 -0.05596088
0.019533185 -0.041954357 0.043769445 -0.3203912 0.0039842613 -0.03302247 0.054965563 -1.187177
-0.66888034 -0.091860875 -0.06338079 -0.047779627 -0.028886579 0.076643586 -0.45077825 -0.012620116
0.0005246704 -0.06403393 0.08013156 -0.037260108 0.06356939 -0.06767567 -0.019539444 0.32380658
-0.004568415 -0.037413042 0.045969166 0.009128117 -0.020967495 0.0501025 -0.0666901 -0.049724463

hidden3.bias f4 [200]
00000000: 7841 4dbd 36fb 5ebd 9d7a 03bd b589 96bd
00000010: 1733 aa3e 8b1f 47bd c055 a33e 4696 29bd
00000020: 00f4 e2ba 9a5f a43e 799a 2bbc 6b78 683c
00000030: ea33 b03b 552b a2bd 2abd 3cbc be4a 913e
00000040: d10d a9bc 37a8 c6ba 83d5 8b3e 881b fb3b
00000050: 0303 8dbd 3758 abbd 5f62 40bd 853b 88bd
00000060: fefe 6b3e 7b01 933e 3645 8abc b9f6 a43e
00000070: 64d8 08bd 2a82 733c ba33 89bd e419 34bc
00000080: f813 a13e 4e94 6bbd 4e4a 22bd 929b c6bd
00000090: 193e 26bd 5d3b c4bd b261 a8bd 97af 9dbd
000000a0: 01e9 89bd 2615 c7bd 8062 88bd 5cf8 b7bc
000000b0: efd8 c33d 55fe 14bc ba09 8b3e 56bd a43e
000000c0: 26bc 713e f4e1 973e 9747 623e cfb9 89bd
000000d0: 2f63 7c3e 550d b1bc 68ae 8dbd 63ce a6bd
000000e0: edd8 df3c 2061 b9bd bc65 903e e290 c4bc
000000f0: 09b6 6fbd 29f4 19bc ac00 193c 3c8e a03e
00000100: ce29 8f3e baee aa3e 5bd0 86bd 1bdc 6bbd
00000110: c981 c13c 2ab9 fcbb 2325 aa3b 284e a23e
00000120: 7568 b9bd 5b5a 35ba 21e1 923d 3c18 813e
00000130: 234f 403e 2354 2cbd 1c5e 4bba ae91 9a3e
00000140: 9d43 53bd 2e99 20bd 05d0 3abd e6b9 87bd
00000150: d93a f53d 3f88 923e 0057 8c3e a89e 69bd
00000160: 482e 58bd b9ff e6bc 62a5 7abc 19d7 ac3e
00000170: 150c 343e f7c4 9abd cb89 9b3e dd36 a73d
00000180: 7442 bfbd 9831 b33b 9dcd e0bd 5076 81bd
00000190: 809f 46bd 3e41 8f3e 0cb2 8e3e df1b 13be
000001a0: e905 0a3e 40a8 c2bd 535f 2cbd 2169 4a3c
000001b0: f0f5 6a3b ea34 3a3e 7321 933e 358b 6ebd
000001c0: 43dc 0ebd f40e bdbd be38 88bc 84b1 2d3d
000001d0: 8dbe 9b3e 8b79 52bc 27a5 0cbc 1bae 1e3e
000001e0: 347b a83e 2999 29bb 96c7 7cbd 62ae 16bd
000001f0: 7f23 39bd 8bad 3abd eb22 c93d 9ae4 8abd
00000200: 1bb8 cabd a88c 96bd 8e3b 8dbd 5596 9e3c
00000210: c0ac 6dbd e092 bcbd 97f3 8bbd a7d1 ad3c
00000220: 3b9b d1bd 1d38 1bbd 458e 943e dd49 933e
00000230: f09a b33e 5587 ab3e 06d6 973e 50c6 01be
00000240: 925f 2abd af1e a53e 75bc 093d 8913 773e
00000250: 6b61 93bc 7386 84bd 0596 b03d 0ddf 403e
00000260: ce59 ad3e decf 603b a833 863e 61ee 9ebd
00000270: e05f b3bd 882f 8e3e 2058 71bd 1a6c 54bd
00000280: b94e 3f3e 470c 9d3b a897 673e 4d21 dc3d
00000290: 69f7 d6bc ff8d 2b3d 69f2 eb3c 86f9 38bd
000002a0: 1930 3b3d d561 93bd c634 663d 4fd3 6fbd
000002b0: 392e bbbd e1e9 723d a769 a3bd 3e06 60bd
000002c0: 00ab 7c3e 0cae a13e 1f10 983b 02d0 3d3d
000002d0: 6dcc 7c3e 249a 13bd 7aa4 853e 757f c5bd
000002e0: 6da8 b8bd f5d6 833e 62c0 d4bd 20cd a03e
000002f0: 7edf 36bd 86f3 b3bd c692 a3bd f002 863e
00000300: ca5a 6d3c efb7 15be db58 42bd dc76 cabd
00000310: dea7 a4bd 2661 a03c d622 71bd 3dae 5e3e
-0.050111264 -0.054438792 -0.032099355 -0.07350484 0.33242103 -0.048614066 0.3190136 -0.041403078
-0.0017315149 0.32104188 -0.010473841 0.014188866 0.0053772824 -0.07918421 -0.01151971 0.28377336
-0.020636471 -0.0015156333 0.27311334 0.007663194 -0.0688534 -0.08366435 -0.046968814 -0.066519774
0.2304649 0.28712067 -0.016878705 0.32219484 -0.03340949 0.0148625765 -0.06699319 -0.010992501
0.31460547 -0.05751448 -0.039621644 -0.096976414 -0.040586565 -0.09581635 -0.08221759 -0.07699507
-0.06733895 -0.097208306 -0.066594124 -0.022457294 0.09562861 -0.009093841 0.27155858 0.32175702
0.23606929 0.29664576 0.22097622 -0.06724893 0.2464721 -0.021612803 -0.06918031 -0.08144834
0.027325118 -0.09051728 0.28202617 -0.023994867 -0.05852321 -0.009396591 0.009338539 0.31358516
0.27961582 0.3338526 -0.065827094 -0.057582956 0.023621457 -0.007712503 0.0051924153 0.31700253
-0.09053127 -0.0006918066 0.07171846 0.25213802 0.18780188 -0.042072427 -0.0007757859 0.3018927
-0.051578153 -0.039208584 -0.04560854 -0.06627254 0.11974115 0.28619573 0.27410126 -0.057036072
-0.052778512 -0.02819811 -0.015298219 0.33757856 0.17582734 -0.07557099 0.30378565 0.08164761
-0.09338847 0.0054685585 -0.109767176 -0.063213944 -0.048491955 0.27979463 0.27870214 -0.143661
0.13478817 -0.095047474 -0.042083096 0.012354166 0.0035852157 0.18184248 0.28736457 -0.058238227
-0.034878027 -0.09231368 -0.01662862 0.04240562 0.30418816 -0.012846361 -0.008584297 0.15496103
0.32906497 -0.0025878644 -0.061713777 -0.0367874 -0.045199867 -0.04557566 0.09821113 -0.067818835
-0.098983966 -0.07351047 -0.06896125 0.019358793 -0.058026075 -0.09207702 -0.068335705 0.021218134
-0.10234686 -0.03789531 0.29014793 0.2876729 0.35079145 0.33501688 0.29655474 -0.12673306
-0.04159505 0.32249972 0.033626992 0.24128546 -0.017990788 -0.06470957 0.08622364 0.18835087
0.33857578 0.0034303586 0.26211286 -0.07760311 -0.08758521 0.27770638 -0.058921933 -0.051860906
0.18682374 0.0047927233 0.22616446 0.10748539 -0.026241021 0.041883465 0.028802114 -0.04515984
0.045700166 -0.07196394 0.056202672 -0.05855113 -0.09139676 0.059305076 -0.07979136 -0.054693453
0.24674606 0.315781 0.0046405937 0.04634095 0.24687357 -0.03603567 0.26102048 -0.09643451
-0.090165 0.25749937 -0.103882566 0.31406498 -0.044646733 -0.08786683 -0.07986979 0.26174116
0.014486978 -0.14620946 -0.04744802 -0.09885952 -0.080398306 0.019577574 -0.058871113 0.21746154

output.weight f4 [2, 200]
00000000: 1fb1 92bc ec12 c93e c385 d3bc 5b1c 303c
00000010: 8b1d 5c3e 9086 543b 7790 3a3e a092 5d3d
00000020: 5c1f 843b eb46 233e afe2 0ebd 9964 f4bc
00000030: b10c b4bc 2c18 263d 7401 c1bc 769a 503e
00000040: a815 92bd e7c8 e83e 9620 3f3e 7318 61ba
00000050: a639 063d d9f8 503c ca7a 393b de91 24bc
00000060: 012a 273e 998e 293e 26fa 94bc 5ee7 5c3e
00000070: df5c 14bb 3c51 023e f2c1 91bd 6b6a bd3c
00000080: de5f 543e 805d f23e d361 423c 03dd 553c
00000090: fcd7 17bd 7c81 41bc b60d 463d a903 d63c
000000a0: d04a 0abd a489 dbbc cb92 2ebe 3c99 163d
000000b0: 2518 963d a068 f4bb 053e 203e a549 443e
000000c0: 6330 383e fe11 133e 88da 1f3e ee54 193d
000000d0: 32b4 153e 14fe 233c 2d93 95bb ea4e 163c
000000e0: eca3 21bc f9ea a9bc f1eb 1c3e 8d2f b7bc
000000f0: 1088 62bd 343f f8bc 14f7 f23c f025 433e
00000100: b607 0f3e 5921 3d3e d3ed 78bc 1433 89bc
00000110: 669f 10bd f182 a53d e0db 67bc 6cb0 523e
00000120: 7b66 0b3a ce7d b7bc 54a0 8e3f f323 503e
00000130: 2abc 643f 6eee 12bd fd33 613c 6c0d 2f3e
00000140: a4e6 b9bc 0445 20bd 7ffa be3a b516 21bb
00000150: 4a1a 143e b531 2c3e b2c7 4c3e f33d e93c
00000160: 4467 8ebd c040 75bc 7002 c0bc 37fb 533e
00000170: c74b 163e 76dc f63a c560 1e3e c7ff ddbe
00000180: 8ed0 eaba d2e0 b83d 6e19 4a3b 424c 163c
00000190: fd66 14bf 480f 1c3e 37ad 153e 0207 e1be
000001a0: 92a0 4fbd 1487 003d 5494 debc 3945 20bd
000001b0: aa28 5c3c fe48 ce3d 703d 313e daf7 e5bb
000001c0: 0a96 42bd 3bad 093d e4a2 b63c 8f34 09bd
000001d0: 8b7e 153e 18b2 01bd e860 06bd eed2 003e
000001e0: e145 393e ffb4 a93a b6e7 043b 6c2b 9d3c
000001f0: ecf8 61bd 536b 8f3c 13cd 693f 306b 0c3d
00000200: 15e0 cb3c 322b c4bc 6e59 fd3c ba57 a8bc
00000210: 3c2e 33be 769b 7cbd 2811 f53c 4392 c2ba
00000220: e87a 2e3d 3e0c d93b 554e 403e d0a4 123e
00000230: 662f 3c3e bf1d 5e3e eaa6 213e 24bc f5be
00000240: 8289 cb3c 2c79 313e 005c 153e db5d 363e
00000250: b501 38bd d4a1 61bc 5434 af3d d3ad 523f
00000260: 7e1b 543e f8e7 0fbd 55bd ec3d b49d 073b
00000270: 7df4 78bb d793 4a3e 346d 1ebf 4736 05bd
00000280: 0b92 193e a5ed a23f 57ad 303e dffa c83e
00000290: fecd 30be 0078 b1bd a2b5 4f3e 3703 a7bb
000002a0: bf8a 51bc 790f 67bd 61e4 37bd e0a3 c4bc
000002b0: 47e9 4cbc 0520 b63e 3e81 8f3d 04aa 46bd
000002c0: 7291 0d3e d3a1 543e 8b52 cbbc d471 5b3e
000002d0: c585 273e 8089 7dbd bf64 3f3e caeb 3ebd
000002e0: d72f 8b39 005b 0b3e f08f 323c 6b6b 173e
000002f0: bc65 873d 09f6 03bd f832 d2bc fa96 383e
00000300: c586 50bc 0f18 f5be 5714 f53c 70aa 83bc
00000310: 4ea3 d9bc 612f 6fbb e3ff 5abc e09d 1b3e
00000320: 52b6 903d af68 c93f d4ee 33bd 2a70 133b
00000330: 04b9 b13c cc66 79bc ca9c b23b eba9 963b
00000340: b358 903d cb42 9bbc 1105 8a3d 63cb be3c
00000350: 030d 57bd 43aa 68bd 7cdc 7e3c bbba 3f3c
00000360: 2b73 113f 2da0 4b3f 0681 b53d 6b89 cb3c
00000370: e47a 8bbc bd97 a43d 676b 6dbc cb09 4abd
00000380: 6baa 473c 67a7 47bd 124b 263d 93b7 16bc
00000390: d758 813d 258c 8cbe 7ab9 1e3d d26c 453d
000003a0: 9bde 10bd bde8 c13f 7505 2b3d 44af c33c
000003b0: d2c2 0f39 da36 66bc 7dd0 c73c e34a d83c
000003c0: df24 b83d 8012 4e3d 5d02 523d 091b 6c3b
000003d0: 89d2 2c3d 0da9 0b3d 8880 633d 5c92 0dbd
000003e0: f073 db3d a60e 8dbd 57a1 28bc 24be 083d
000003f0: e6bd a33d c431 753b d7ea 8cbd 8e15 b7ba
-0.017906724 0.3927225 -0.025820618 0.010748948 0.21495645 0.0032428838 0.18219171 0.05409491
0.0040320586 0.15945022 -0.03488415 -0.029833125 -0.021978708 0.040550396 -0.023560263 0.20371422
-0.07133037 0.45465776 0.18664774 -0.0008586712 0.03276982 0.012754642 0.0028301948 -0.010044543
0.16324617 0.16558303 -0.018185686 0.21572635 -0.0022638363 0.12726301 -0.0711707 0.023122033
0.20739695 0.4733696 0.011864143 0.013053182 -0.037071213 -0.011810657 0.04835292 0.026124792
-0.033762753 -0.02679903 -0.17048185 0.03676723 0.07328824 -0.0074587613 0.15648659 0.19168718
0.17987208 0.14362332 0.15610707 0.03743451 0.1461952 0.010009307 -0.004564664 0.009174088
-0.009865742 -0.020741927 0.1532438 -0.022361541 -0.05530554 -0.030303575 0.029658832 0.19057441
0.13967785 0.18469752 -0.01519342 -0.016747989 -0.035308264 0.08081616 -0.014151543 0.20575112
0.00053177 -0.022398856 1.1142678 0.20326214 0.89349616 -0.035871916 0.013745305 0.17094964
-0.022692986 -0.03912832 0.0014570503 -0.0024580185 0.14463153 0.16815837 0.19998053 0.028471923
-0.0695329 -0.014969051 -0.023438662 0.207013 0.14677344 0.0018834013 0.15466602 -0.43359205
-0.0017914937 0.09027256 0.0030837911 0.009173455 -0.5796965 0.15240204 0.14616857 -0.4395066
-0.05069024 0.03137882 -0.027170338 -0.039128516 0.013437429 0.10072516 0.17308593 -0.0070180716
-0.04750637 0.03361247 0.02229447 -0.03349739 0.14599054 -0.031663984 -0.03280726 0.12580463
0.18093063 0.0012947618 0.0020279712 0.019185744 -0.05516903 0.01750723 0.91328543 0.03428191
0.024887124 -0.023946378 0.030926432 -0.020549644 -0.17498106 -0.061671697 0.029915407 -0.0014844615
0.04259768 0.006623774 0.18779881 0.14320683 0.18377456 0.21691035 0.15786329 -0.47995102
0.024845842 0.1733138 0.14585876 0.1780924 -0.044923503 -0.013771493 0.08554903 0.82296485
0.20713612 -0.035133332 0.1155955 0.0020693364 -0.0037987523 0.19782959 -0.6188538 -0.032522466
0.14997117 1.2728773 0.17253624 0.392539 -0.1726608 -0.08665466 0.20284131 -0.005096819
-0.012789427 -0.05641124 -0.044895533 -0.024003923 -0.0125067895 0.35571304 0.07007073 -0.048501983
0.13825014 0.20764856 -0.024819633 0.2143014 0.16359623 -0.06189871 0.18690775 -0.046611585
0.0002654779 0.13608932 0.010898575 0.1478707 0.06611201 -0.03221706 -0.02565907 0.18026343
-0.012727444 -0.47869918 0.029916925 -0.016072482 -0.026567128 -0.0036496746 -0.013366672 0.15196943
0.07066025 1.5735072 -0.043928936 0.0022497275 0.021694668 -0.015222263 0.0054508196 0.0045978925
0.07048168 -0.018952748 0.067392476 0.023290342 -0.052502643 -0.056803 0.015555497 0.011702235
0.5681636 0.79541284 0.088625 0.0248458 -0.017026372 0.08036754 -0.014490939 -0.049325746
0.012186627 -0.04874363 0.040598936 -0.009199041 0.06315773 -0.27450672 0.038751103 0.048199482
-0.035368543 1.5149151 0.04175325 0.023887284 0.00013710119 -0.014051164 0.024391407 0.026402896
0.089914076 0.05031061 0.051271785 0.0036026856 0.04219297 0.034096766 0.0555425 -0.034563407
0.10715473 -0.068875596 -0.010292373 0.033384457 0.07995205 0.0037413696 -0.0688073 -0.0013968216

output.bias f4 [2]
00000000: 5cb3 d63e 12e4 973d
0.41933715 0.07416548
