CNN Models/torch0.120valmodel.pth (torch, 949970 bytes, 10 tensors)

conv1.weight f4 [16, 1, 7]
-0.16571473 0.21424341 0.07203333 -0.08587674 0.04158398 -0.17502068 -0.30228186 0.049268838
-0.22638372 -0.04827038 -0.13353461 -0.025317999 -0.33765605 0.2567388 0.03535451 -0.34575146
-0.011524693 0.3621276 0.34935322 -0.11681657 0.035931192 0.15106048 -0.19576725 -0.19441046
0.20695578 -0.06686373 0.05644919 0.111558706 -0.20247383 -0.2838899 0.26951203 -0.25897855
-0.18263467 -0.13552167 0.3373561 0.041759793 -0.29456294 0.104463555 -0.10457836 -0.051457837
0.26806718 0.0133329155 -0.3681757 0.08434787 0.11196453 -0.117712304 0.13208784 0.28021392
-0.03935957 -0.089010306 -0.10998145 0.06694906 0.104886636 -0.35418597 -0.03809239 0.33493665
-0.053610202 0.087058306 0.12757008 -0.16778113 -0.35633618 -0.20550017 -0.3442419 -0.29262394
0.20596376 -0.20056123 -0.120979786 0.13432364 0.3414078 0.21884723 0.34041777 0.2802873
0.17486487 0.21209912 0.16837461 0.31715488 0.070546724 0.25669983 0.28577414 -0.3594386
0.2921139 -0.13531648 0.10315776 -0.32347462 -0.20192613 0.25705275 -0.06588451 -0.22664572
0.27044177 0.3658015 -0.1475742 -0.2891422 0.24329239 -0.032646906 0.20461981 0.36113563
-0.31147435 0.108831145 -0.018210366 -0.2447384 0.21256447 -0.23672986 0.366859 0.20353903
0.16573325 -0.082999274 0.14287697 0.044214267 -0.27169922 -0.086161636 -0.028959766 0.095053785
00000000: 1fb1 29be a062 5b3e 3686 933d 25e0 afbd
00000010: f753 2a3d 9f38 33be b0c4 9abe 1fce 493d
00000020: 22d1 67be 29b7 45bd 4cbd 08be b167 cfbc
00000030: 41e1 acbe 4573 833e e4cf 103d 5606 b1be
00000040: 11d2 3cbc ca68 b93e 6dde b23e 873d efbd
00000050: 962c 133d 99af 1a3e 3677 48be 8913 47be
00000060: 37ec 533e daef 88bd 4437 673d e478 e43d
00000070: 4d55 4fbe 045a 91be 7bfd 893e d698 84be
00000080: 9504 3bbe 31c6 0abe f0b9 ac3e 510c 2b3d
00000090: f4d0 96be fdf0 d53d 2e2d d6bd 74c5 52bd
000000a0: 1a40 893e 4d72 5a3c 8681 bcbe 93be ac3d
000000b0: a94d e53d 2613 f1bd 0942 073e 3378 8f3e
000000c0: 8037 21bd 094b b6bd f43d e1bd 971c 893d
000000d0: cece d63d dd57 b5be c406 1cbd d17c ab3e
000000e0: 5f96 5bbd a04b b23d bba1 023e d1ce 2bbe
000000f0: b271 b6be a36e 52be 7940 b0be ced2 95be
00000100: 2ae8 523e ec5f 4dbe 40c4 f7bd 238c 093e
00000110: 01cd ae3e 7d19 603e 3d4b ae3e d181 8f3e
00000120: c70f 333e 8330 593e 656a 2c3e 2062 a23e
00000130: cd7a 903d 296e 833e fd50 923e 5608 b8be
00000140: f48f 953e 6790 0abe 6044 d33d 779e a5be
00000150: b9c5 4ebe 6b9c 833e 75ee 86bd d115 68be
00000160: 5877 8a3e 564a bb3e b11d 17be 720a 94be
00000170: a421 793e c3b8 05bd db87 513e c5e6 b83e
00000180: 9179 9fbe dde2 de3d e82d 95bc b49c 7abe
00000190: 80aa 593e 5069 72be f1d4 bb3e 896c 503e
000001a0: fab5 293e 86fb a9bd 574e 123e 051a 353d
000001b0: 291c 8bbe 8375 b0bd 083d edbc 8fab c23d

conv1.bias f4 [16]
0.08378844 -0.024016937 0.31313094 -0.018616375 -0.34095097 0.013796461 0.063165456 -0.17177789
-0.22189859 -0.23151308 -0.08669042 -0.16512917 0.08179179 0.19244039 -0.21816242 -0.007657326
00000000: 4699 ab3d 2bbf c4bc b352 a03e 5e81 98bc
00000010: 2091 aebe 8d0a 623c e45c 813d 8be6 2fbe
00000020: 6239 63be c411 6dbe bf8a b1bd 9f17 29be
00000030: 7482 a73d 180f 453e f865 5fbe 4eea fabb

conv2.weight f4 [32, 16, 7]
0.03620312 0.056819163 3.2362103e-05 -0.06109995 -0.011582489 -0.056585047 0.030036649 0.0714914
-0.012936009 -0.07932289 0.04263189 0.0099700615 -0.02412104 -0.0916414 -0.06528895 0.08336202
0.06797938 0.072013095 -0.017193614 -0.06490027 -0.03893325 -0.008967782 0.052367896 -0.046547063
0.044082083 0.08090624 -0.052079655 -0.012836828 0.02738994 0.08284957 0.005058896 0.020442305
-0.09280826 -0.041829802 0.03668255 0.070333466 0.05635357 0.027636265 -0.08871196 0.07576793
-0.025582856 0.07772223 -0.092223324 0.015140992 -0.010632442 -0.076728895 0.07780526 -0.05340425
0.020466376 0.02654608 -0.004595745 0.009096499 -0.028612332 -0.05504088 0.033957656 0.00037176427
0.017624583 -0.035202935 -0.063192606 -0.004073457 -0.09168651 0.00924762 -0.02749767 -0.003545379
0.033188444 0.08143957 0.03162699 -0.007649351 -0.06980167 -0.08655171 -0.09143439 0.039759167
0.042475577 0.04103273 -0.07787206 0.0052309455 -0.01021641 0.046930995 0.03426938 0.0838255
-0.007740467 -0.007381713 -0.067105286 0.012281141 -0.06816317 0.012001518 0.061310086 0.062321905
-0.013581257 -0.0368467 0.079312585 0.07526332 0.044271037 0.032701876 0.08379623 0.0039702877
-0.06468303 0.057569746 0.055449717 -0.045966517 -0.05529205 -0.01029749 0.009393829 -0.08346051
0.09349591 -0.019649912 -0.049776044 -0.044268582 -0.054266322 -0.06940523 -0.021856032 0.037501063
0.046258364 -0.057218593 -0.09171123 0.04885633 -0.08782021 -0.09100365 -0.08188275 0.012262296
0.046608724 0.052836373 -0.08970276 -0.0762395 -0.023841608 0.0088846525 -0.032345902 -0.05316725
0.04552369 -0.0898588 0.053147692 -0.03538705 0.022689201 0.052599836 0.0068943664 0.050762415
0.09189798 -0.07373007 -0.016784046 0.040329926 0.0032133888 -0.019285087 -0.08336738 -0.03044475
-0.06435492 0.056907386 -0.058180027 0.083042346 -0.027380388 -0.09446299 -0.029671248 -0.03606553
-0.08751438 0.073890135 -0.0783657 0.00016894075 0.035153195 -0.038966212 -0.08481913 0.07349563
-0.021343848 -0.09239794 0.033336252 -0.06656517 -0.09197535 0.00042513415 -0.07896812 0.08526989
-0.055082154 0.061164055 -0.061166927 -0.049429275 0.02640967 -0.09231236 -0.002987237 -0.036944665
0.0881154 -0.0812913 0.01111329 -0.08339119 -0.06431896 0.0051309983 -0.079415426 0.002541129
0.08873867 -0.022770764 0.05134837 0.083150975 0.008956575 -0.093996786 0.0007600757 0.014268026
-0.0155082615 -0.018008962 -0.06464516 0.00013229826 -0.05084719 -0.0029791493 -0.015844734 0.07786874
-0.08879028 0.054212116 0.019499715 0.052800756 -0.0152888 -0.028413383 -0.023594325 0.003314643
0.05668118 -0.0019286595 -0.06433156 0.09438509 0.073852085 0.0041107414 -0.015755184 0.036770083
-0.08339777 -0.08063151 -0.088278495 0.08361254 0.06124823 0.023662755 0.049412522 -0.041408427
0.051919658 0.012678386 0.0071275695 0.006559098 0.0070519643 -0.013760595 0.0153113175 0.044660736
0.07829028 -0.06531117 0.072342224 -0.029088302 -0.090746775 0.03534972 -0.054358754 0.012664462
-0.0029218595 0.03650793 0.040732216 0.0033125589 -0.020105965 -0.090083934 -0.0316999 0.075872995
-0.05133151 -0.068314515 0.06791792 -0.09420887 -0.040564053 -0.09379376 0.08553344 -0.075779185
00000000: b949 143d 36bb 683d 8bbc 0738 f143 7abd
00000010: 7bc4 3dbc b9c5 67bd 6b0f f63c 156a 923d
00000020: 8ef1 53bc 0a74 a2bd c79e 2e3d 7859 233c
00000030: 7d99 c5bc 7cae bbbd 37b6 85bd b5b9 aa3d
00000040: c638 8b3d 9a7b 933d 9fd9 8cbc 6fea 84bd
00000050: 7978 1fbd 9bed 12bc b87f 563d 22a8 3ebd
00000060: 6a8f 343d 2cb2 a53d 7a51 55bd 8f51 52bc
00000070: de60 e03c 09ad a93d 18c5 a53b 9f76 a73c
00000080: 4212 bebd ba55 2bbd 7140 163d fe0a 903d
00000090: 00d3 663d 7365 e23c 9eae b5bd 372c 9b3d
000000a0: 2393 d1bc d52c 9f3d 95df bcbd ec11 783c
000000b0: b233 2ebc 0a24 9dbd 5d58 9f3d 6abe 5abd
000000c0: 1aa9 a73c 2a77 d93c e797 96bb 7b09 153c
000000d0: 6964 eabc 8c72 61bd 2f17 0b3d 5be9 c239
000000e0: 6e61 903c f430 10bd 206b 81bd a27a 85bb
000000f0: 23c6 bbbd 5483 173c cb42 e1bc 9759 68bb
00000100: 9bf0 073d cac9 a63d 4d8b 013d 68a7 fabb
00000110: 2ef4 8ebd 0642 b1bd f441 bbbd 82da 223d
00000120: dffa 2d3d f011 283d 637b 9fbd 5a68 ab3b
00000130: bb62 27bc b73a 403d 0d5e 0c3d b4ac ab3d
00000140: bea3 fdbb 4ce2 f1bb 7f6e 89bd d736 493c
00000150: 2299 8bbd 04a2 443c 4920 7b3d 4145 7f3d
00000160: ec83 5ebc 91ec 16bd a36e a23d a823 9a3d
00000170: 8c55 353d 67f2 053d 5c9d ab3d 3019 823b
00000180: 8978 84bd 41ce 6b3d 3e1f 633d 6347 3cbd
00000190: eb79 62bd ceb6 28bc 93e8 193c 58ed aabd
000001a0: c97a bf3d daf8 a0bc f7e1 4bbd f952 35bd
000001b0: 5d46 5ebd 5424 8ebd 6c0b b3bc b79a 193d
000001c0: 6979 3d3d 0b5e 6abd 19d3 bbbd 931d 483d
000001d0: 15db b3bd 1f60 babd 25b2 a7bd cce7 483c
000001e0: cae8 3e3d f46a 583d 15b6 b7bd 7423 9cbd
000001f0: 7a4f c3bc ef90 113c 237d 04bd e7c5 59bd
00000200: 0c77 3a3d e407 b8bd 65b1 593d 03f2 10bd
00000210: b4de b93c ed72 573d 23ea e13b 40ec 4f3d
00000220: 0235 bc3d caff 96bd b27e 89bc fe30 253d
00000230: b897 523b c2fb 9dbc 84bc aabd 4567 f9bc
00000240: 83cc 83bd b817 693d 2e4e 6ebd 1b12 aa3d
00000250: d64c e0bc d075 c1bd 1e11 f3bc 73b9 13bd
00000260: bd3a b3bd b653 973d 327e a0bd b025 3139
00000270: ccfc 0f3d 099b 1fbd a7b5 adbd e084 963d
00000280: 4bd9 aebc 223b bdbd 988b 083d 5253 88bd
00000290: 935d bcbd 8ae4 de39 0aba a1bd fba1 ae3d
000002a0: d39d 61bd 2987 7a3d 2c8a 7abd 5a76 4abd
000002b0: 1859 d83c 430e bdbd 85c5 43bb 4a53 17bd
000002c0: d975 b43d 0e7c a6bd 8414 363c 00c9 aabd
000002d0: a9b9 83bd ef21 a83b 8ea4 a2bd 1289 263b
000002e0: 9fbc b53d c189 babc ab52 523d 0f4b aa3d
000002f0: 99be 123c 6381 c0bd d13f 473a 70c4 693c
00000300: 5d16 7ebc 8887 93bc af64 84bd 8bb9 0a39
00000310: 2545 50bd d53d 43bb d1cc 81bc a579 9f3d
00000320: aed7 b5bd 860d 5e3d debd 9f3c 9b45 583d
00000330: e07d 7abc 2fc3 e8bc e348 c1bc 7b3a 593b
00000340: 862a 683d 13cb fcba 44c0 83bd f84c c13d
00000350: c33f 973d 66b3 863b 0411 81bc 3a9c 163d
00000360: 73cc aabd 2222 a5bd 5bcb b4bd 0d3d ab3d
00000370: 6ddf 7a3d 65d8 c13c c964 4a3d e29b 29bd
00000380: b5a9 543d 01b9 4f3c 638e e93b b4ed d63b
00000390: 2a14 e73b 1e74 61bc 52dc 7a3c 2dee 363d
000003a0: a856 a03d ddc1 85bd 2928 943d 974a eebc
000003b0: 72d9 b9bd deca 103d 49a7 5ebd 9b7e 4f3c
000003c0: ab7c 3fbb 5789 153d d3d6 263d 8417 593b
000003d0: 44b5 a4bc ed7d b8bd c1d7 01bd 4d63 9b3d
000003e0: fd40 52bd 7be8 8bbd 8d18 8b3d 94f0 c0bd
000003f0: 7e26 26bd f116 c0bd 282c af3d 1e32 9bbd

conv2.bias f4 [32]
-0.029365435 -0.04346969 -0.012358087 -0.02877768 0.082850665 -0.08167983 -0.04292697 0.009977969
-0.025707167 0.018323887 0.075558476 0.05804157 0.032960963 -0.031659674 0.07964552 -0.039573442
-0.09379553 -0.08712163 0.01860653 -0.05453389 0.041884296 -0.0099318195 0.052138373 0.020059975
-0.032547656 0.053612545 -0.0021455295 -0.012435799 0.0747915 -0.03744554 -0.042586215 0.008081097
00000000: c88f f0bc 460d 32bd 9379 4abc 2bbf ebbc
00000010: 9cad a93d c147 a7bd 31d4 2fbd a37a 233c
00000020: d697 d2bc fa1b 963c 67be 9a3d ffbc 6d3d
00000030: 1302 073d 93ad 01bd 311d a33d c317 22bd
00000040: df17 c0bd d36c b2bd b96c 983c ee5e 5fbd
00000050: de8e 2b3d 12b9 22bc 0c8f 553d d154 a43c
00000060: b150 05bd d498 5b3d 039c 0cbb 86bf 4bbc
00000070: 492c 993d 7f60 19bd e26e 2ebd 9466 043c

fc1.weight f4 [200, 960]
-0.0031394607 0.030000452 0.023531627 0.021933995 0.029233903 0.027818317 -0.028209943 0.007061953
-0.006262631 0.01461118 -0.028986596 -0.020490512 -0.017461253 0.021379765 -0.011708962 0.014911717
-0.025205513 -0.01423943 0.030263126 0.02966251 0.01791988 0.028974067 -0.01141068 0.015525376
-0.018554334 -0.015779216 -0.0320636 -0.0302219 0.01065825 0.0051449626 0.013666774 -0.0043032835
-0.012246114 0.01626156 0.030420976 0.013657998 0.010169815 -0.0004532427 0.00916328 -0.025266064
0.027460473 -0.0045019514 -0.007952399 -0.031774092 1.3554613e-05 -0.010844644 -0.014772281 -0.010093308
0.014947399 0.013656617 0.015180671 -0.0071644573 0.01071699 -0.014421112 -0.012922402 -0.0190991
0.001369112 -0.0022951849 -0.02478814 0.012432685 -0.011106734 -0.023657529 -0.030987807 -0.02270952
0.023938147 -0.0027221648 -0.003543579 -0.023525376 0.02792119 0.026717855 0.02634986 0.02379142
0.006022792 -0.029094756 -0.01477696 -0.026096193 0.00047897839 -0.0075075934 -0.025596868 0.018810224
0.023267793 0.010063051 -0.031613965 -0.028283207 0.031435255 -0.023125416 -0.030489607 -0.017813835
-0.025635105 0.029705737 -0.004251266 0.005774396 -0.020875923 0.006259015 -0.01681488 0.006782801
-0.02254442 0.015255234 0.02597661 -0.016162207 0.022869503 0.025258904 0.020666048 0.02053639
0.017940417 0.009801351 0.013294155 -0.009275953 -0.018588684 -0.031796075 0.0013109115 -0.025667036
0.001316575 0.0036768399 -0.010777002 0.031399883 -0.017757073 0.0069648395 -0.028675005 0.011247889
0.031853605 -0.018072827 -0.01110441 -0.015395385 0.024725307 -0.0024287996 0.02752449 0.018596306
-0.001166801 0.014291433 0.0035232105 0.004501009 -0.011793891 0.0032014742 -0.031568464 0.002639529
0.027278319 -0.016395245 0.02081498 0.019181198 0.025162995 0.0075146575 0.0045802896 -0.0057112435
-0.02925803 -0.003929087 0.017618177 -0.028395463 -0.017379357 -0.018898832 -0.027640088 -0.010686521
-0.015458634 -0.008590593 0.00785205 -0.00935306 -0.028637677 0.022654274 -0.0198648 0.02164584
0.025841767 0.013920495 -0.021787953 0.0240496 0.0031763501 -0.021401357 0.011342406 0.001951368
-0.018310865 -0.020690506 -0.004343559 0.0027293595 -0.007651573 -0.00046076835 0.013097346 -0.00819395
-0.011480688 -0.007360032 -0.026898138 0.009806237 -0.016424239 -0.020795343 0.02638343 0.02447835
0.02230696 -0.002736185 0.026746737 -0.016027631 0.0077250446 -0.018563814 0.011504069 0.003994575
0.00090897473 -0.020887835 -0.021122843 0.020642964 -0.029391995 -0.026470775 0.025385251 0.004640414
0.010447375 -0.018971045 -0.025687492 -0.03095553 -0.00565584 0.016599268 -0.027103605 -0.006206901
-0.020881468 -0.023677742 0.020128619 0.0009384309 0.015090539 -0.003672923 -0.018454503 0.0133143775
0.014383964 -0.024629602 0.031222992 -0.02445436 -0.01630054 -0.025089534 0.009095638 0.014546885
0.022812271 -0.020593755 -0.026303256 0.03147803 0.018794805 0.029246353 -0.029868137 -0.017267896
0.006641468 -0.014187663 0.016358051 -0.022933463 -0.014013854 0.005410191 0.022963947 -0.01373594
-0.02045759 0.0032887692 -0.014065002 0.01754815 0.007121539 0.017344626 -0.011588332 0.0042065354
-0.018118812 0.01129878 0.029157227 -0.013671892 -0.026024068 -0.025008988 0.01811685 -0.019414991
00000000: 69bf 4dbb 82c3 f53c 66c5 c03c ecae b33c
00000010: f07b ef3c 3de3 e33c 8a18 e7bc f567 e73b
00000020: c236 cdbb bb63 6f3c 4c75 edbc b8db a7bc
00000030: e70a 8fbc 9e24 af3c f2d6 3fbc 4650 743c
00000040: cb7b cebc 804c 69bc 60ea f73c cbfe f23c
00000050: b6cc 923c 065b ed3c dcf3 3abc 265e 7e3c
00000060: 42ff 97bc 6a43 81bc 1f55 03bd eb93 f7bc
00000070: f19f 2e3c 1397 a83b 9bea 5f3c 8f02 8dbb
00000080: eda3 48bc f736 853c 6935 f93c ccc5 5f3c
00000090: 4c9f 263c 35a1 edb9 9521 163c c7fa cebc
000000a0: c9f4 e03c 1b85 93bb c74a 02bc 8d25 02bd
000000b0: 9f68 6337 bcad 31bc 7007 72bc 675e 25bc
000000c0: efe5 743c 01c0 5f3c 59b8 783c d3c3 eabb
000000d0: 5096 2f3c 8746 6cbc 7bb8 53bc b775 9cbc
000000e0: c773 b33a d06a 16bb 7f10 cbbc 76b2 4b3c
000000f0: 05f9 35bc 6fcd c1bc 24da fdbc 5109 babc
00000100: ef19 c43c 5966 32bb 643b 68bb 4ab8 c0bc
00000110: fbba e43c 67df da3c a9db d73c 39e6 c23c
00000120: d75a c53b 2058 eebc 101b 72bc afc7 d5bc
00000130: 641f fb39 4202 f6bb 86b0 d1bc e617 9a3c
00000140: 199c be3c 7fdf 243c a57d 01bd 2fb2 e7bc
00000150: 41c2 003d 8371 bdbc 57c5 f9bc 52ee 91bc
00000160: b600 d2bc 7259 f33c 344e 8bbb 2537 bd3b
00000170: fc03 abbc 6c18 cd3b 5cbf 89bc 4242 de3b
00000180: 13af b8bc 17f1 793c e6cc d43c 9b66 84bc
00000190: d358 bb3c c3eb ce3c d84b a93c ee3b a83c
000001a0: c8f7 923c d995 203c bacf 593c 2bfa 17bc
000001b0: 4c47 98bc 9a3c 02bd e4d2 ab3a ad43 d2bc
000001c0: ed90 ac3a 23f7 703b 0692 30bc 2a9d 003d
000001d0: 4877 91bc 4f39 e43b d8e7 eabc 1149 383c
000001e0: ed78 023d 770d 94bc 45ef 35bc ed3c 7cbc
000001f0: ba8c ca3c 7f2c 1fbb 0a7b e13c 4857 983c
00000200: 58ef 98ba 9d26 6a3c aae5 663b 337d 933b
00000210: 2a3b 41bc d3cf 513b ef4d 01bd f3fb 2c3b
00000220: c876 df3c 524f 86bc 2d84 aa3c e321 9d3c
00000230: a022 ce3c 843d f63b 4116 963b 6225 bbbb
00000240: 89ae efbc 92bf 80bb ff53 903c 9a9d e8bc
00000250: 275f 8ebc b9d1 9abc 776d e2bc 8516 2fbc
00000260: 3646 7dbc 8fbf 0cbc e2a5 003c 943d 19bc
00000270: 9099 eabc 7595 b93c 81bb a2bc 9e52 b13c
00000280: 1db2 d33c ca12 643c a67c b2bc ab03 c53c
00000290: 502a 503b e651 afbc 80d5 393c 0bc5 ff3a
000002a0: ab00 96bc 237f a9bc 6a54 8ebb 0edf 323b
000002b0: 0cba fabb 4893 f1b9 4096 563c eb3f 06bc
000002c0: 7f19 3cbc 6c2c f1bb 7c59 dcbc 57aa 203c
000002d0: 208c 86bc ff5a aabc 1022 d83c d286 c83c
000002e0: 16bd b63c 9151 33bb f91b db3c 614c 83bc
000002f0: 5f22 fd3b 2413 98bc 907b 3c3c ece4 823b
00000300: 4348 6e3a f71c abbc d009 adbc 6f1b a93c
00000310: 7bc7 f0bc 3dd9 d8bc bbf4 cf3c 9d0e 983b
00000320: 772b 2b3c 2a69 9bbc 936e d2bc 7496 fdbc
00000330: a054 b9bb 30fb 873c 6108 debc 4263 cbbb
00000340: 9d0f abbc d3f7 c1bc c6e4 a43c 0801 763a
00000350: 4f3e 773c 6cb5 70bb e62d 97bc 8c24 5a3c
00000360: b8aa 6b3c 05c4 c9bc 5cc7 ff3c 8354 c8bc
00000370: b688 85bc 9188 cdbc df05 153c 0f56 6e3c
00000380: cde0 ba3c 3cb4 a8bc ed79 d7bc 1bef 003d
00000390: 90f7 993c 0c96 ef3c 06ae f4bc 6775 8dbc
000003a0: aca0 d93b 5f73 68bc 5201 863c f5de bbbc
000003b0: 5d9a 65bc f947 b13b e31e bc3c b50c 61bc
000003c0: ad96 a7bc 6488 573b e570 66bc 23c1 8f3c
000003d0: cd5b e93b 5116 8e3c fddc 3dbc fad6 893b
000003e0: e76d 94bc 851e 393c 23db ee3c 1200 60bc
000003f0: 6d30 d5bc a6df ccbc ca69 943c 300c 9fbc

fc1.bias f4 [200]
0.0077893627 -0.024947809 0.013228575 -0.026631605 -0.004015555 0.00022430326 -0.02750072 -0.007020597
0.015835812 0.016366405 0.031483315 0.024983315 -0.013268566 0.028887812 -0.01936099 -0.02875901
0.023046158 -0.025404207 0.0006779192 -0.028301394 -0.012579732 0.004906112 0.0077326163 0.02816422
-0.008699714 -0.022139842 0.016945386 0.018871589 0.032205727 0.013371547 -0.0009926994 0.027735319
-0.016994802 -0.011610594 -0.028562281 -0.00736224 0.029363846 0.01865411 -0.008844845 0.027399879
-0.023403585 -0.0029469798 0.0055196825 -0.030984256 -0.0034124728 -0.021485088 0.012753436 0.011090767
-0.006956079 0.0077658966 0.019133855 -0.024152651 0.019082606 -0.011399252 0.03020511 -0.000570498
-0.024255952 -0.027168123 -0.02230049 -0.02602358 -0.007393801 -0.02654316 0.026610767 -0.0062140264
0.0037268645 0.0134559525 -0.015693206 0.0010736693 0.00017008481 0.020486638 -0.00871136 -0.012934448
0.0220782 0.0063677747 -0.024208346 -0.0050497996 -0.03224441 0.00966841 0.014261408 -0.017036567
0.008902791 0.0012739027 0.020275423 0.019277269 -0.028646167 -0.0013129892 0.026681311 -0.03167028
-0.022762474 0.0066335998 0.028239865 0.017833738 -0.0024600911 0.0068097482 0.009678648 0.028637724
0.02556682 -0.030666737 0.031733632 0.027377252 -0.013462354 -0.030794276 0.0005090463 -0.016505133
0.01090974 -0.02231359 -0.021396404 0.026101198 0.004073648 -0.005663593 0.011615495 -0.020419907
-0.0046887766 -0.019785287 -0.031781305 -0.012227269 0.013978407 -0.012828496 0.030640155 0.027371647
0.00039164867 0.0076425625 -0.004780104 0.008159165 0.017880877 0.01260726 -0.00091663504 0.0040107802
0.017760001 0.02276464 -0.03218316 -0.03190458 0.02516977 0.022704143 -0.011594115 0.031001836
-0.012615358 0.031156173 0.015523837 -0.005129188 -0.021394635 -0.022881137 -0.019028276 -0.015064226
0.03175715 0.007144031 -0.020561198 -0.00019984879 0.023934534 0.022253124 0.01987423 -0.014538348
0.004728771 -0.020039458 -0.02969155 0.024265805 0.010480428 -0.030240815 -0.01923244 0.00642202
-0.016190257 -0.009665962 0.015923923 0.029347088 -0.025502002 -0.01266643 0.027379895 0.03216043
-0.007797892 -0.022591911 -0.017913543 0.01041299 0.01822147 0.029886775 -0.009858898 -0.022531899
-0.016229562 -0.0055404627 -0.013821988 0.02607939 -0.0078235855 0.02000806 0.0036681215 -0.02455536
-0.02122038 -0.026385121 -0.019567147 0.015802262 0.016286055 0.018778244 -0.021195093 -0.007528951
-0.030288292 -0.016608264 -0.022233848 0.0010692409 -0.005774746 0.023125531 -0.0054015154 -0.03212344
00000000: e93d ff3b 595f ccbc aabc 583c 862a dabc
00000010: eb94 83bb f332 6b39 3149 e1bc 090d e6bb
00000020: 1bba 813c d712 863c a6f4 003d cfa9 cc3c
00000030: 6664 59bc 22a6 ec3c f09a 9ebc 0498 ebbc
00000040: 4ccb bc3c 7c1c d0bc 63b6 313a 53d8 e7bc
00000050: 381b 4ebc 73c3 a03b e361 fd3b a6b8 e63c
00000060: 3f89 0ebc 9d5e b5bc 0dd1 8a3c 9798 9a3c
00000070: 27ea 033d 5514 5b3c 771d 82ba 2e35 e33c
00000080: af38 8bbc 5c3a 3ebc 72fb e9bc f23e f1bb
00000090: 738c f03c 81d0 983c f8e9 10bc b675 e03c
000000a0: e0b8 bfbc 1e22 41bb 74de b43b b2d2 fdbc
000000b0: cba3 5fbb 7f01 b0bc caf3 503c 0cb6 353c
000000c0: d2ef e3bb 1079 fe3b 9abe 9c3c c8db c5bc
000000d0: 2053 9c3c eec3 3abc b570 f73c 798d 15ba
000000e0: 6bb4 c6bc af8f debc 84af b6bc 672f d5bc
000000f0: b347 f2bb 0b71 d9bc d3fe d93c 089f cbbb
00000100: 693e 743b 5b76 5c3c 0a8f 80bc 5dba 8c3a
00000110: cb58 3239 98d3 a73c 18ba 0ebc 02eb 53bc
00000120: 57dd b43c c4a8 d03b 9550 c6bc ca78 a5bb
00000130: b712 04bd 4068 1e3c aea8 693c 4590 8bbc
00000140: 03dd 113c 15f9 a63a a518 a63c 5deb 9d3c
00000150: 5eab eabc 9b18 acba c492 da3c b2b8 01bd
00000160: 5e78 babc ab5e d93b 4a57 e73c 0f18 923c
00000170: 7b39 21bb 4f24 df3b 3193 1e3c a999 ea3c
00000180: 8271 d13c cf38 fbbc 20fb 013d 4246 e03c
00000190: 3591 5cbc 4744 fcbc 8571 053a c635 87bc
000001a0: c4be 323c fdca b6bc 8347 afbc 2ed2 d53c
000001b0: 3c7c 853b a995 b9bb eb4e 3e3c a647 a7bc
000001c0: 4fa4 99bb c114 a2bc 1d2d 02bd e254 48bc
000001d0: b005 653c 9d2e 52bc 1001 fb3c 813a e03c
000001e0: 3256 cd39 766e fa3b 6ba2 9cbb 05ae 053c
000001f0: eb7a 923c ae8e 4e3c 564a 70ba dd6c 833b
00000200: 6c7d 913c e97c ba3c 7dd2 03bd 60ae 02bd
00000210: d530 ce3c 0afe b93c 3ef5 3dbc 90f7 fd3c
00000220: a6b0 4ebc 3b3b ff3c b157 7e3c bf12 a8bb
00000230: cd43 afbc 3971 bbbc 30e1 9bbc f2cf 76bc
00000240: c913 023d 7a18 ea3b f56f a8bc 808e 51b9
00000250: 5b12 c43c 2f4c b63c 48cf a23c 4032 6ebc
00000260: cef3 9a3b ca29 a4bc b23b f3bc 15c9 c63c
00000270: 1ab6 2b3c 96bb f7bc 5a8d 9dbc cf6f d23b
00000280: 6ea1 84bc fc5d 1ebc e372 823c 4e69 f03c
00000290: 93e9 d0bc dc86 4fbc cd4b e03c a8ba 033d
000002a0: 7685 ffbb ac12 b9bc 6cbf 92bc 3f9b 2a3c
000002b0: 3145 953c 1cd5 f43c 3787 21bc d194 b8bc
000002c0: dcf3 84bc c58c b5bb 9f75 62bc 72a4 d53c
000002d0: 7f2e 00bc f1e7 a33c de64 703b 5328 c9bc
000002e0: 5dd6 adbc 9c25 d8bc 484b a0bc bf73 813c
000002f0: 556a 853c d5d4 993c 55a1 adbc 6bb5 f6bb
00000300: 271f f8bc 0e0e 88bc c223 b6bc c525 8c3a
00000310: 153a bdbb c171 bd3c 32ff b0bb de93 03bd

fc2.weight f4 [200, 200]
0.023848332 -0.055445522 -0.043031655 0.0215071 -0.0060919225 -0.040959574 0.02823861 -0.038289282
0.037294473 0.03937932 -0.06895729 0.026458258 -0.038345642 0.06989908 0.06510653 0.04698198
0.049262445 0.028545547 0.0069572227 0.06272512 0.0030227974 0.0015009252 0.003437691 0.019976225
0.028488532 -0.06491545 0.020948865 -0.0160937 -0.05468324 -0.05516255 0.025309976 0.058211874
-0.010290145 0.049734194 -0.06738508 -0.009114391 -0.003464918 -0.015307019 -0.0143751865 -0.05896044
-0.052911326 -0.0032525652 -0.047621593 -0.017113484 -5.458017e-05 -0.0123119885 0.001815973 -0.008833356
0.0137588475 0.062156968 -0.016344322 -0.028957205 0.06797277 0.06255588 -0.054506727 -0.039990507
-0.0184015 0.0073061483 -0.04032694 -0.011581567 0.018072132 -0.032079652 -0.029865587 0.009679403
0.014771241 0.053358257 -0.01776585 -0.06819942 -0.053913645 0.00797496 0.050226748 -0.009499985
0.056155484 0.0010694511 0.06370984 -0.006568865 0.047207255 -0.044076484 0.066628635 -0.051035985
0.023252426 -0.038358193 0.0010344186 0.022002941 0.018060355 0.013211073 0.05687065 0.06655036
-0.014955085 0.023611795 0.004415422 -0.051038925 -0.026482308 -0.06166277 0.017307157 0.007068398
-0.053095244 0.030901244 -0.030081624 -0.0016564134 0.00042849017 -0.0065154056 0.036436763 0.021410685
-0.042383034 0.070604116 0.006391216 -0.009162793 -0.05401189 0.016132677 0.036005035 0.040329266
0.06615337 0.048469882 0.06741375 0.029686278 -0.00018769679 -0.022031222 -0.017019127 0.03018415
-0.015405466 -0.06825671 0.06686047 0.0387096 0.0032342144 -0.010995591 -0.04462094 -0.060875688
-0.056386746 0.059435505 0.046696182 -0.034217425 -0.06703052 0.0065069003 -0.008642777 -0.066692196
-0.03403069 -0.010211406 0.018270273 -0.0264049 -0.002962713 0.0659074 -0.021561554 0.0119264545
0.0025032195 -0.044986114 0.016201561 0.039206248 0.00733029 0.009084163 0.03453524 0.03641235
-0.0041156146 0.06509853 -0.034959793 0.026917685 0.05271818 0.047922395 0.007847398 -0.01493128
-0.035498355 0.017887166 0.060743526 -0.040926136 -0.0021988854 0.06864688 0.047218163 -0.05381701
0.039038654 0.0684532 -0.017658425 -0.003400037 0.0017510751 0.04886629 0.051103774 0.040703446
-0.02245129 0.038512014 -0.048140384 0.040959053 -0.029013023 -0.066003874 0.026048355 -0.035099525
0.01819687 -0.023988528 0.0051669762 0.016757764 -0.01101953 -0.052064314 0.042709265 -0.04366906
0.053687535 -0.05835535 -0.01025733 -0.017557872 -0.021060158 -0.05900365 0.067498334 0.011085009
0.010412 0.0071667433 0.009584767 -0.036222816 -0.066539384 0.04797038 -0.0702374 0.05069975
0.025527386 -0.030352501 -0.043304592 0.016256934 0.018962104 -0.036299195 -0.0076144184 -0.054917693
0.040844545 0.0018094064 -0.050825376 0.027548319 0.025027525 0.03367477 -0.06463734 -0.04229263
-0.0043138987 -0.05929759 0.034338895 -0.016281093 -0.04901926 -0.032930296 0.024894636 -0.057910245
0.0702872 0.05670504 0.015072776 -0.06258947 -0.056463 -0.045205235 -0.04129262 -0.06281617
-0.0044336044 -0.030722164 0.06942279 0.044302855 0.04220535 0.06688151 0.035698898 -0.031709798
0.03081277 0.049437035 -0.01322805 0.0021847493 0.037755318 0.033699214 0.06560633 0.040672816
00000000: 945d c33c d81a 63bd f641 30bd a82f b03c
00000010: c09e c7bb 3ac5 27bd a854 e73c 39d5 1cbd
00000020: 17c2 183d 364c 213d 7b39 8dbd fdbe d83c
00000030: 5210 1dbd 4027 8f3d 9356 853d 2d70 403d
00000040: 6bc7 493d 5ad8 e93c 6af9 e33b 0776 803d
00000050: 201a 463b b1ba c43a e24a 613b 2ea5 a33c
00000060: c860 e93c 64f2 84bd f49c ab3c efd6 83bc
00000070: 88fb 5fbd 20f2 61bd de56 cf3c 936f 6e3d
00000080: ff97 28bc 15b6 4b3d 3001 8abd 8754 15bc
00000090: ad13 63bb 4bca 7abc e785 6bbc 8180 71bd
000000a0: 8cb9 58bd fd28 55bb dc0e 43bd 9431 8cbc
000000b0: 03ed 64b8 39b8 49bc f105 ee3a c8b9 10bc
000000c0: ca6c 613c 4e98 7e3d 87e4 85bc a937 edbc
000000d0: 4f35 8b3d 4c1d 803d 7242 5fbd 16cd 23bd
000000e0: bebe 96bc 6a68 ef3b dd2d 25bd 9dc0 3dbc
000000f0: 020c 943c f465 03bd ada8 f4bc 5c96 1e3c
00000100: 1303 723c 308e 5a3d b089 91bc 23ac 8bbd
00000110: 8ed4 5cbd 68a9 023c 90ba 4d3d d3a5 1bbc
00000120: 4b03 663d d32c 8c3a 4e7a 823d a23f d7bb
00000130: 655c 413d 8b89 34bd 9874 883d 1c0b 51bd
00000140: df7b be3c 7b1d 1dbd 5495 873a 833f b43c
00000150: 4ff3 933c 4273 583c 33f1 683d 8e4b 883d
00000160: 2c06 75bc 866d c13c 3faf 903b 310e 51bd
00000170: 6df1 d8bc 1a92 7cbd bdc7 8d3c 059e e73b
00000180: 667a 59bd 9b24 fd3c bd6d f6bc 031c d9ba
00000190: faa6 e039 2f7f d5bb b73e 153d 7665 af3c
000001a0: d599 2dbd e498 903d 686d d13b 8a1f 16bc
000001b0: 923b 5dbd ad28 843c 047a 133d 4d30 253d
000001c0: 6b7b 873d 5b88 463d 3810 8a3d a330 f33c
000001d0: 79d0 44b9 d27a b4bc b26b 8bbc c044 f73c
000001e0: 3567 7cbc 2dca 8bbd 24ee 883d f58d 1e3d
000001f0: 1df5 533b da26 34bc 72c4 36bd c958 79bd
00000200: caf5 66bd a572 733d 7f44 3f3d 9227 0cbd
00000210: 4c47 89bd d637 d53b 6f9a 0dbc eb95 88bd
00000220: c463 0bbd be4d 27bc 8aab 953c 174f d8bc
00000230: 132a 42bb 75fa 863d dba1 b0bc 2d67 433c
00000240: 0e0d 243b 5c43 38bd 23b9 843c bb96 203d
00000250: ee32 f03b bed5 143c d374 0d3d 1e25 153d
00000260: 47dc 86bb 6152 853d 0032 0fbd 7a82 dc3c
00000270: 05ef 573d 464a 443d 5f92 003c 54a2 74bc
00000280: b966 11bd 1b88 923c 34ce 783d 2aa2 27bd
00000290: 2d1b 10bb bc96 8c3d d567 413d 3a6f 5cbd
000002a0: ffe6 1f3d 3131 8c3d 67a8 90bc 28d3 5ebb
000002b0: 5584 e53a 0528 483d 3152 513d a8b8 263d
000002c0: c5eb b7bc c6be 1d3d da2e 45bd aec4 273d
000002d0: b8ac edbc 0a2d 87bd 5c63 d53c 85c4 0fbd
000002e0: 9a11 953c 9783 c4bc bd4f a93b 9447 893c
000002f0: 428b 34bc 6441 55bd e9ef 2e3d 54de 32bd
00000300: 76e7 5b3d 0506 6fbd 5c0e 28bc 87d5 8fbc
00000310: 5a86 acbc d0ad 71bd 913c 8a3d e69d 353c
00000320: 1897 2a3c 00d7 ea3b 6d09 1d3c 605e 14bd
00000330: cd45 88bd 977c 443d a0d8 8fbd 8baa 4f3d
00000340: cf1e d13c cfa5 f8bc 2860 31bd 432d 853c
00000350: 6a56 9b3c 77ae 14bd 5f82 f9bb 60f1 60bd
00000360: 9c4c 273d 9b29 ed3a 452e 50bd 03ad e13c
00000370: 8606 cd3c 8eee 093d 9560 84bd 093b 2dbd
00000380: 9b5b 8dbb 08e2 72bd f1a6 0c3d ed5f 85bc
00000390: 6bc8 48bd ebe1 06bd d6ef cb3c 4b33 6dbd
000003a0: bcf2 8f3d 8b43 683d cef3 763c e82e 80bd
000003b0: bf45 67bd 2029 39bd 7322 29bd c4a5 80bd
000003c0: c547 91bb 0cad fbbc 892d 8e3d e976 353d
000003d0: 84df 2c3d 2cf9 883d 0239 123d 22e2 01bd
000003e0: 106b fc3c 7d7e 4a3d 77ba 58bc 032e 0f3b
000003f0: 52a5 1a3d 3008 0a3d 9d5c 863d 8a98 263d

fc2.bias f4 [200]
-0.0021468005 -0.00022675848 0.012689894 -0.013816454 -0.04176264 -0.058046203 -0.029873544 -0.056862686
0.03735843 -0.017564842 -0.0065112417 0.029146805 0.03072234 0.033029087 0.046286136 -0.05355396
-0.02048186 0.05692334 0.027457451 0.010153033 -0.046301138 0.044968456 0.010890712 0.05428705
-0.06890444 0.058243457 -0.0175867 0.039852597 0.010853885 -0.060467184 -0.007042081 -0.009804933
-0.024031688 -0.041366477 -0.031781893 -0.0419801 -0.025138026 -0.012181898 0.022115937 -0.0279958
0.06395015 0.036619984 0.0060858536 0.028536621 -0.06453425 -0.049561873 0.0144759845 0.052847397
0.018711297 0.03896124 -0.019309985 -0.029046834 0.057358634 0.036080383 0.024622655 -0.054800313
-0.025484245 0.028979838 -0.0439733 0.019907989 -0.064900324 0.004119543 -0.013080047 -0.04926776
-0.0024910728 0.018975398 0.06804216 -0.012272657 -0.053513326 -0.028310841 -0.056699913 -0.045696568
0.033382937 0.016432138 -0.017377745 -0.017638609 -0.064763024 -0.026446348 -0.002276031 -0.06755497
-0.055775978 0.06798371 -0.010356257 0.020165574 0.028410813 0.06165006 -0.034609728 -0.008229695
-0.0059128325 -0.060369607 -0.029330002 -0.06018546 0.056631837 -0.05289096 0.014575165 0.0024182852
-0.009286317 -0.006798346 -0.010606027 0.0029184502 0.0013384322 -0.054904956 0.039048467 -0.05040286
0.004694055 -0.017827468 0.008635274 0.06975599 -0.028314566 0.038368344 0.035951473 -0.04532259
-0.055791084 -0.041484833 0.03844961 -0.0251132 -0.028642965 0.0662923 -0.04438059 -0.035994068
0.00889103 0.03826248 -0.05815242 -0.04429053 -0.005543398 0.0036541068 -0.030984148 -0.045956302
0.021376427 0.0041223075 -0.061879013 0.038971458 -0.026576286 -0.06463963 0.032163046 0.063335724
-0.03666584 0.013675186 0.032238875 0.035567652 0.02477601 0.025799884 -0.055393428 -0.05489114
0.06982435 0.01843956 0.032711275 -0.06832821 -0.009467127 -0.00045923208 -0.062459577 0.026971195
-0.0038650853 -0.04896918 0.066482216 0.070577346 0.036931995 -0.055064067 0.007716456 -0.024411911
0.008159436 0.02780872 0.02771984 0.044185527 -0.0021932884 0.06537314 -0.068439774 0.014946572
0.010594968 -0.02075746 -0.0016109032 -0.020679142 0.021679599 -0.030387374 0.049966246 0.060438003
-0.06346438 -0.015180276 0.06623904 0.013447197 -0.003313518 -0.040404964 -0.017028583 0.019663326
-0.054064926 -0.01756937 -0.06781403 -0.029364865 0.012499357 -0.003363344 -0.011988646 -0.015903456
0.047138058 0.0110386815 0.022165282 -0.058166128 0.016633002 0.03870341 -0.029114025 -0.01785268
00000000: 56b1 0cbb 04c6 6db9 46e9 4f3c 695e 62bc
00000010: 4d0f 2bbd dbc1 6dbd 5db9 f4bc d9e8 68bd
00000020: 2705 193d 25e4 8fbc 415c d5bb 48c5 ee3c
00000030: 6bad fb3c 8249 073d 8896 3d3d 665b 5bbd
00000040: 93c9 a7bc 7328 693d 73ee e03c e858 263c
00000050: 43a6 3dbd d830 383d f56e 323c 195c 5e3d
00000060: c51d 8dbd b190 6e3d fc11 90bc 7a3c 233d
00000070: 7ed4 313c 70ac 77bd 42c1 e6bb dfa4 20bc
00000080: 1ade c4bc e56f 29bd bb2d 02bd 53f3 2bbd
00000090: 43ee cdbc 9596 47bc 7b2c b53c 7357 e5bc
000000a0: 4cf8 823d d6fe 153d d76b c73b a2c5 e93c
000000b0: 882a 84bd 6401 4bbd ae2c 6d3c 8376 583d
000000c0: 6f48 993c d295 1f3d f92f 9ebc a0f3 edbc
000000d0: e3f0 6a3d 06c9 133d 73b5 c93c 4b76 60bd
000000e0: 56c4 d0bc 2067 ed3c 591d 34bd 1416 a33c
000000f0: 76ea 84bd 3bfd 863b b24d 56bc fecc 49bd
00000100: 4441 23bb 4b72 9b3c b059 8b3d 4113 49bc
00000110: ca30 5bbd 23ec e7bc 2b3e 68bd 532c 3bbd
00000120: 8cbc 083d b19c 863c c65b 8ebc d87e 90bc
00000130: 7aa2 84bd 03a6 d8bc 7729 15bb 435a 8abd
00000140: 5a75 64bd 0b3b 8b3d 4aad 29bc 4632 a53c
00000150: cbbd e83c c684 7c3d eec2 0dbd d8d5 06bc
00000160: 6fc0 c1bb 1f46 77bd 7945 f0bc 0785 76bd
00000170: c9f6 673d 31a4 58bd accc 6e3c 187c 1e3b
00000180: a325 18bc a9c4 debb e7c4 2dbc 7843 3f3b
00000190: 556e af3a 05e4 60bd 49f1 1f3d 3b73 4ebd
000001a0: 96d0 993b e90a 92bc f77a 0d3c 3adc 8e3d
000001b0: f3f3 e7bc 2028 1d3d da41 133d 2ea4 39bd
000001c0: 3185 64bd 00ec 29bd 577d 1d3d 33ba cdbc
000001d0: a7a4 eabc 42c4 873d 6cc8 35bd 846e 13bd
000001e0: afab 113c 1eb9 1c3d 3b31 6ebd fd69 35bd
000001f0: 65a5 b5bb bd79 6f3b 78d2 fdbc ad3c 3cbd
00000200: 9e1d af3c 6c14 873b d974 7dbd 89a0 1f3d
00000210: 83b6 d9bc c861 84bd 66bd 033d 29b6 813d
00000220: eb2e 16bd e30d 603c e90c 043d 63af 113d
00000230: 0ff7 ca3c 475a d33c 38e4 62bd 88d5 60bd
00000240: 1200 8f3d 8f0e 973c 42fc 053d a9ef 8bbd
00000250: 021c 1bbc 16c5 f0b9 9dd5 7fbd b2f2 dc3c
00000260: 5f4d 7dbb e893 48bd d427 883d db8a 903d
00000270: 0146 173d dc8a 61bd 53da fc3b 7dfb c7bc
00000280: 28af 053c 1dcf e33c b814 e33c e2fb 343d
00000290: 46bd 0fbb 5ae2 853d 272a 8cbd 77e2 743c
000002a0: 8496 2d3c 8c0b aabc f124 d3ba 4e67 a9bc
000002b0: 6a99 b13c f1ee f8bc 68a9 4c3d d78d 773d
000002c0: 9df9 81bd b1b6 78bc 55a8 873d a251 5c3c
000002d0: 9b27 59bb ad7f 25bd 877f 8bbc fc14 a13c
000002e0: 2f73 5dbd a4ed 8fbc 15e2 8abd 968e f0bc
000002f0: 1aca 4c3c 8c6b 5cbb 076c 44bc f747 82bc
00000300: d613 413d 96db 343c f793 b53c 9b3f 6ebd
00000310: ef41 883c 7887 1e3d 8980 eebc c93f 92bc

output.weight f4 [2, 200]
0.040857013 0.017241687 0.057680883 0.005481535 0.024733534 0.040586323 -0.03658496 -0.03285686
0.028226994 -0.040620048 -0.011865688 0.002199737 0.026831713 0.06887455 0.034909654 -0.041483123
0.020646486 -0.04707862 0.04764763 -0.006811091 -0.036574792 -0.0029991192 -0.011185783 -0.02724219
-0.022505086 0.0067835017 -0.054471187 -0.06283734 0.06832659 0.012655469 -0.053611055 0.059522346
0.05406425 0.06406521 0.032077614 -0.022664856 -0.017066145 0.039658543 -0.014216571 0.03313755
-0.05843858 0.013937677 -0.022655863 -0.0060547153 0.04888196 0.012248009 0.015196713 -0.066271044
0.061219987 -0.06454488 -0.018729758 -0.05213337 -0.042127993 -0.012536193 0.018792875 0.043531552
-0.046256978 -0.029973542 -0.043640643 0.022895215 0.027462171 0.037530523 0.061458454 0.046663452
0.011263519 0.031087348 -0.010893722 0.03996215 0.004344329 -0.06984026 0.038358953 0.070157185
0.009212282 -0.056188013 -0.03586315 0.028214011 0.049016435 0.017016066 -0.058985 -0.06425636
-0.06459364 -0.0028832997 0.018494898 -0.035476174 0.023509387 0.0047061765 0.021721862 -0.009592109
-0.05267462 -0.026678704 0.054993447 -0.06807403 0.018610524 0.042283483 -0.017696898 -0.013522741
-0.036175948 0.008346029 -0.0063694767 -0.027421288 -0.04928469 -0.031395778 -0.055233903 0.047725264
-0.041706838 -0.016076047 0.022713613 -0.02667384 -0.020914195 0.046697523 -0.06549203 -0.0014147349
-0.011547242 0.008321449 0.036660437 -0.041921854 -0.003194394 -0.068249084 0.054932754 -0.06371739
0.010198434 -0.025415875 0.02956175 0.057848003 -0.06243219 -0.06431021 0.006076522 -0.05897538
-0.017122917 -0.057425987 -0.06875769 -0.044440616 0.055115335 -0.010748383 -0.010848169 0.01662077
-0.054905437 -0.030426782 0.007051952 0.029665321 -0.031930447 0.0096437475 -0.044289403 -0.040494483
-0.004611835 0.060422223 0.03939063 -0.055020742 -0.046391554 0.058090415 -0.041495748 0.018294431
-0.03880785 0.01328328 -4.4405922e-05 -0.038810875 0.0126917735 -0.05162159 -0.011807196 0.052509952
-0.036802404 0.0354365 0.027606701 -0.024291186 -0.0076955175 -0.061117157 -0.05032128 -0.02171635
0.04397029 -0.0007969211 0.042188965 -0.018135335 0.017653074 -0.066824116 0.04051935 0.040821154
0.015572789 0.010177158 0.05725254 -0.019823324 0.04029211 0.06596798 -0.06854183 -0.04705282
0.01055669 -0.0032478953 -0.031203235 -0.059668265 -0.04445789 -0.054219715 -0.03740867 -0.058152158
-0.015295142 0.024755483 -0.040685922 -0.05515126 0.049342424 0.02026214 0.060186148 0.020003224
-0.050173946 -0.03738632 0.06380362 -0.032862145 0.000500005 -0.028168384 0.06495152 -0.05673621
0.04516862 0.003156032 0.06485886 0.06728766 0.0575327 0.05289949 -0.0052438183 -0.04072731
0.06957046 0.01124558 -0.06284874 -0.064608365 -0.016920974 0.056372214 -0.041454572 0.0012118737
-0.011511957 -0.052330337 -0.030307075 -0.043601245 -0.0036404005 -0.0652679 -0.029023046 0.028746521
-0.033319462 -0.029035201 -0.044008054 -0.006677393 0.06535798 0.023669941 0.054889698 0.0142307915
-0.017286371 -0.06919105 0.013908941 -0.025773482 0.06547329 -0.0034393517 0.04860572 0.034826573
0.0014248248 -0.061850317 0.011073756 -0.03538201 0.026391406 -0.065327406 0.058014877 0.048900418
00000000: af59 273d 703e 8d3c ca42 6c3d 739e b33b
00000010: fb9d ca3c d83d 263d 1cda 15bd ea94 06bd
00000020: 4c3c e73c 3561 26bd 4d68 42bc 7629 103b
00000030: 2ece db3c 1a0e 8d3d 6dfd 0e3d 35ea 29bd
00000040: d222 a93c 83d5 40bd 292a 433d 932f dfbb
00000050: 73cf 15bd df8c 44bb 9344 37bc 032b dfbc
00000060: 965c b8bc 2348 de3b 2e1d 5fbd ddb0 80bd
00000070: d0ee 8b3d e258 4f3c 4497 5bbd b4cd 733d
00000080: 7a72 5d3d 9f34 833d d163 033d a6ab b9bc
00000090: 4dce 8bbc ff70 223d 9fec 68bc 3dbb 073d
000000a0: 4b5d 6fbd db5a 643c ca98 b9bc a266 c6bb
000000b0: 7338 483d e0ab 483c a2fb 783c 1db9 87bd
000000c0: cfc1 7a3d 1b30 84bd 266f 99bc cd89 55bd
000000d0: 678e 2cbd 9b64 4dbc 84f3 993c 244e 323d
000000e0: f577 3dbd 138b f5bc 88c0 32bd bf8e bb3c
000000f0: 59f8 e03c 9bb9 193d dcbb 7b3d 2d22 3f3d
00000100: 9f8a 383c e5aa fe3c 957b 32bc 5aaf 233d
00000110: df5a 8e3b 6908 8fbd 471e 1d3d 92ae 8f3d
00000120: 1cef 163c 6725 66bd 3de5 12bd 1221 e73c
00000130: 75c5 483d 4765 8b3c 419a 71bd d798 83bd
00000140: ac49 84bd bef5 3cbb 9d82 973c 774f 11bd
00000150: c296 c03c 4536 9a3b 0cf2 b13c 3928 1dbc
00000160: 58c1 57bd 4c8d dabc cf40 613d 666a 8bbd
00000170: 1975 983c 7231 2d3d 16f9 90bc 7d8e 5dbc
00000180: 3b2d 14bd c8bd 083c 0bb7 d0bb 9ca2 e0bc
00000190: bede 49bd dc98 00bd f23c 62bd 917b 433d
000001a0: cad4 2abd eab1 83bc e611 ba3c 1983 dabc
000001b0: 3f54 abbc e745 3f3d af20 86bd a06e b9ba
000001c0: a530 3dbc b056 083c 4129 163d 40b6 2bbd
000001d0: 0a59 51bb 2dc6 8bbd 2b01 613d 437e 82bd
000001e0: 5517 273c f434 d0bc 7c2b f23c 07f2 6c3d
000001f0: e5b8 7fbd 12b5 83bd 901d c73b 2b90 71bd
00000200: 5c45 8cbc 8337 6bbd d5d0 8cbd 5d07 36bd
00000210: 9ec0 613d fc19 30bc 85bc 31bc 4828 883c
00000220: 86e4 60bd 9641 f9bc 1014 e73b b004 f33c
00000230: 80c9 02bd cf00 1e3c ce68 35bd 8bdd 25bd
00000240: e01e 97bb 4b7d 773d 1258 213d 6e5d 61bd
00000250: 1205 3ebd 37f0 6d3d 72f7 29bd 34de 953c
00000260: fbf4 1ebd 1da2 593c 7f40 3ab8 27f8 1ebd
00000270: 28f1 4f3c 2971 53bd f872 41bc ad14 573d
00000280: 1ebe 16bd dd25 113d 7327 e23c 4ffe c6bc
00000290: ae2a fcbb fc55 7abd b01d 4ebd 7de6 b1bc
000002a0: 311a 343d 78e8 50ba 56ce 2c3d 8e90 94bc
000002b0: 2e9d 903c 15db 88bd 9ef7 253d 1534 273d
000002c0: 0325 7f3c 18be 263c a481 6a3d 8664 a2bc
000002d0: 5709 253d 381a 873d a95f 8cbd 75ba 40bd
000002e0: f8f5 2c3c a4da 54bb ed9d ffbc b666 74bd
000002f0: 7a19 36bd 7e15 5ebd d539 19bd f530 6ebd
00000300: 7a98 7abc 03cc ca3c 48a6 26bd 4ae6 61bd
00000310: 481b 4a3d cafc a53c c085 763d cddd a33c
00000320: 3283 4dbd 6622 19bd 79ab 823d 759a 06bd
00000330: c412 033a 62c1 e6bc 4d05 853d 3a64 68bd
00000340: bb02 393d 6ed5 4e3b b9d4 843d 1dce 893d
00000350: 69a7 6b3d 23ad 583d 56d4 abbb aed1 26bd
00000360: f57a 8e3d 623f 383c d7b6 80bd 6451 84bd
00000370: db9d 8abc 8de6 663d 45cc 29bd bcd7 9e3a
00000380: a69c 3cbc 5658 56bd 8b46 f8bc 3897 32bd
00000390: c993 6ebb 2dab 85bd bdc1 edbc d37d eb3c
000003a0: fd79 08bd 3bdb edbc ca41 34bd 08ce dabb
000003b0: 68da 853d 77e7 c13c 05d4 603d 4428 693c
000003c0: 269c 8dbc 0ab4 8dbd 54e2 633c e922 d3bc
000003d0: dc16 863d bf66 61bb cb16 473d 4fa6 0e3d
000003e0: 30c1 ba3a c256 7dbd b36e 353c baec 10bd
000003f0: ca32 d83c 60ca 85bd 02a1 6d3d ce4b 483d

output.bias f4 [2]
-0.058621347 -0.031661473
00000000: f01c 70bd 76af 01bd
