CNN Models/torch0.153valmodel.pth (torch, 48882 bytes, 14 tensors)

weight f4 [16, 1, 5]
0.2858467 0.24911878 -0.3509853 -0.012952367 0.15914996 0.39243066 0.09367627 -0.31436265
-0.044487156 0.015211489 -0.21794239 -1.4160014 -1.0767527 -0.80341077 0.6857961 1.8697125
1.6123754 -0.24884014 -0.93889266 -1.1446416 0.08042198 0.44277024 -0.051417254 0.07713848
-0.3341555 1.1733446 0.7251045 0.49107012 0.41057897 1.1690018 0.10280854 0.14355052
-0.3982671 -0.24028964 0.27630663 0.94516444 -0.005734423 -0.83056223 -1.4453263 -1.1587464
0.0032305482 0.24410415 -0.4036318 -0.36303797 -0.42220503 0.308334 0.22104947 0.22407354
-0.35623547 -0.0474969 0.641045 0.6587709 0.90612036 0.6071328 0.7666861 -4.2791214
-7.4051294 -7.353145 -5.969942 -3.1973886 -4.4967318 -4.974495 -3.4398556 -1.3207175
-0.16634198 -1.4460801 0.36784938 1.4333395 -0.9909218 0.4691148 -0.30734766 -0.40297896
-0.32085168 -0.08888941 0.24948908 -1.5612649 -1.0274552 -1.9359725 -1.2212106 -0.74979067
00000000: 805a 923e fe18 7f3e 58b4 b3be 2a36 54bc
00000010: 35f8 223e acec c83e 58d9 bf3d 24f4 a0be
00000020: 2a38 36bd 9c39 793c 4a2c 5fbe 893f b5bf
00000030: 08d3 89bf 54ac 4dbf 5590 2f3f bd52 ef3f
00000040: 5162 ce3f f3cf 7ebe 455b 70bf 9e83 92bf
00000050: 47b4 a43d c8b2 e23e e69a 52bd c8fa 9d3d
00000060: 6e16 abbe 2830 963f 73a0 393f 8b6d fb3e
00000070: 6837 d23e daa1 953f 498d d23d e8fe 123e
00000080: aae9 cbbe 7d0e 76be 1078 8d3e 4cf6 713f
00000090: d4e7 bbbb ba9f 54bf 7400 b9bf cd51 94bf
000000a0: 9bb7 533b 70f6 793e d4a8 cebe 1de0 b9be
000000b0: 422b d8be f4dd 9d3e cb5a 623e 8973 653e
000000c0: 7f64 b6be 1c8c 42bd 861b 243f 36a5 283f
000000d0: 81f7 673f 0e6d 1b3f 8a45 443f 90ee 88c0
000000e0: d2f6 ecc0 f74c ebc0 c409 bfc0 04a2 4cc0
000000f0: 3ae5 8fc0 102f 9fc0 9826 5cc0 450d a9bf
00000100: 8d55 2abe 2719 b9bf c156 bc3e ab77 b73f
00000110: 0dad 7dbf d12f f03e ac5c 9dbe 4253 cebe
00000120: ac46 a4be a70b b6bd 117a 7f3e 87d7 c7bf
00000130: a783 83bf f2cd f7bf a150 9cbf 48f2 3fbf

bias f4 [16]
-0.16734481 -0.16961178 0.031138817 0.000683019 -0.3821222 -0.0007981713 -0.09909981 0.035168223
-0.13054802 -0.19446714 -0.00916058 0.021189444 0.051806763 -0.00047217094 -0.3771857 0.049967892
00000000: 705c 2bbe b6ae 2dbe d516 ff3c a10c 333a
00000010: 85a5 c3be 5f3c 51ba d7f4 cabd 8e0c 103d
00000020: 61ae 05be 6522 47be 4216 16bc 7c95 ad3c
00000030: 5433 543d b68d f7b9 7c1e c1be 22ab 4c3d

weight f4 [16, 16, 5]
-0.056340244 0.07051253 -0.0019119821 -0.111618474 0.10179479 -0.07167233 -0.048653 0.09583705
0.104676165 -0.026285302 0.10803541 -0.019771982 -0.14457074 -0.082009435 -0.007277415 0.7815117
-0.31231344 -0.70486546 -0.076608114 -0.02726383 0.09251332 0.0043806215 0.05330038 -0.071344934
0.095609486 0.01279878 -0.18810265 -0.22426873 -0.041624736 0.1249711 -0.07441095 -0.033356015
0.0122844605 -0.034473002 0.04684543 0.18927082 -0.13618763 -0.09402355 -0.19194803 -0.054549586
0.060580466 -0.037525155 0.014522299 0.0953236 -0.0011343597 -0.105141245 -0.0062565915 0.060538713
-0.034777988 -0.06577496 -0.22007078 -0.32420516 0.04758637 0.30196187 0.50307107 -0.24587017
-0.47076026 -0.027204016 -0.08411491 -0.72058135 0.20816052 -0.13413636 -0.27028877 -0.00029988444
-0.01704161 -3.7278712 -7.7027216 -6.5462084 -4.512906 -1.9502228 0.08775167 0.10009079
-0.041424755 -0.004526963 0.018660018 0.14427169 -0.009255552 0.07577327 -0.08429473 -0.0049952567
0.08156137 -0.100883655 -0.1009868 -0.0041156476 0.10158282 0.098162144 -0.028318582 -0.06335052
-0.02765662 0.019042838 -0.11116596 -0.21893334 -0.053469937 -0.12167635 -0.16601856 -0.052494057
-0.14118946 -0.15858078 0.010863484 -0.07287678 -0.03635081 -0.065326825 0.02017444 -0.06705117
0.05000615 -0.0311518 -0.09576368 -0.0023090122 -0.05795152 -0.099356376 0.06924242 -0.09555863
0.109564215 0.045523357 0.045947652 -0.012760292 -0.058564153 -0.12882218 -0.20018674 -0.19756433
-0.07894731 0.012857258 -0.10938519 0.020641945 -0.019019967 -0.044062912 -0.03335265 -0.095363826
-0.08169113 0.07659624 -0.036115486 -0.143946 -0.15812251 -0.059198145 -0.12126934 -0.10549714
-0.19030853 0.016402304 0.010266483 -0.023188677 -0.043989886 -0.16364723 -0.11698639 -0.19335344
-0.08332677 -0.1069538 -0.09360956 0.013884092 0.03887324 -0.12467581 0.07598113 -0.1037666
-0.060155757 0.000535106 0.048530888 -0.13931234 -0.09651712 -0.022649134 -0.1651257 -0.14733206
-0.055572018 -0.10656277 0.0037954024 -0.0631347 0.09343956 -0.02750944 0.026841186 -0.00561796
-0.02892609 0.102348246 0.158855 -0.08561888 -0.21881737 -0.0013967267 -0.13027397 -0.40509164
0.09277578 -0.21738452 -0.5054459 -0.5459878 0.03726875 -0.06912756 0.10456116 0.03894909
-0.002153512 -0.2140611 0.05518105 0.06262238 -0.020369917 0.2328627 -0.028135069 0.04642763
0.06631345 -0.07501292 0.09024662 -0.14324354 -0.012584784 0.0040085516 -0.04096856 -0.17243837
0.09421142 -0.06790103 0.043609507 0.035439894 0.037678372 0.10037228 0.09334209 0.020149423
-0.09468377 0.102477394 -0.091849126 0.098141946 0.22453523 0.52810633 0.98544556 0.18901601
0.6075722 0.7723334 0.48707336 0.52212983 0.28083026 -0.07933863 -0.2589758 -0.17770223
0.14900096 -2.5997834 -4.025916 -4.678235 -3.8352637 -2.431546 0.08081951 -0.029435683
0.068037845 0.095222324 -0.089150846 0.11636938 -0.15573823 -0.32320037 -0.30542606 -0.3744808
-0.09985499 -0.07732545 -0.06787383 -0.09264879 -0.035735138 -0.014860204 0.03916922 -0.08792785
-0.02053479 0.08672487 -0.068738244 -0.0032585768 0.055439856 0.04658989 -0.055513173 0.10764877
00000000: 07c5 66bd e068 903d 799b faba 3a98 e4bd
00000010: c979 d03d f1c8 92bd 5e48 47bd 3746 c43d
00000020: 7560 d63d 4654 d7bc ab41 dd3d daf8 a1bc
00000030: 5a0a 14be 90f4 a7bd 6277 eebb 2711 483f
00000040: 8ce7 9fbe 1072 34bf b7e4 9cbd 6558 dfbc
00000050: a077 bd3d 518b 8f3b 8051 5a3d 4b1d 92bd
00000060: e8ce c33d f9b1 513c fb9d 40be b4a6 65be
00000070: b37e 2abd d9f0 ff3d c564 98bd 51a0 08bd
00000080: c344 493c 9033 0dbd fee0 3f3d 36d0 413e
00000090: c574 0bbe 6b8f c0bd 068e 44be 636f 5fbd
000000a0: 3923 783d fab3 19bd f0ee 6d3c 0539 c33d
000000b0: ccae 94ba 4b54 d7bd 1804 cdbb 71f7 773d
000000c0: 5d73 0ebd 06b5 86bd 3c5a 61be 38fe a5be
000000d0: ede9 423d bf9a 9a3e 44c9 003f 64c5 7bbe
000000e0: 7d07 f1be f5da debc 7044 acbd 0578 38bf
000000f0: 0828 553e 0b5b 09be 4a63 8abe cf39 9db9
00000100: d99a 8bbc 7195 6ec0 b27c f6c0 8a7a d1c0
00000110: ba69 90c0 e7a0 f9bf 26b7 b33d 66fc cc3d
00000120: 01ad 29bd eb56 94bb e5dc 983c f5bb 133e
00000130: 99a4 17bc 042f 9b3d b7a2 acbd 40af a3bb
00000140: a609 a73d 179c cebd 2bd2 cebd 8edc 86bb
00000150: a70a d03d 3c09 c93d 5ffc e7bc ebbd 81bd
00000160: 2390 e2bc baff 9b3c fbaa e3bd 1030 60be
00000170: 4b03 5bbd 7331 f9bd c500 2abe 0204 57bd
00000180: f893 10be 0063 22be c1fc 313c 6c40 95bd
00000190: 96e4 14bd 12ca 85bd de44 a53c 2052 89bd
000001a0: 40d3 4c3d 0f32 ffbc c01f c4bd cc52 17bb
000001b0: 935e 6dbd 5b7b cbbd f8ce 8d3d 3eb4 c3bd
000001c0: 3463 e03d b376 3a3d 9b33 3c3d 8b10 51bc
000001d0: f7e0 6fbd f6e9 03be c1fd 4cbe 4e4e 4abe
000001e0: 21af a1bd 40a7 523c 5805 e0bd 4c19 a93c
000001f0: c3cf 9bbc 507b 34bd ca9c 08bd 1c4e c3bd
00000200: ae4d a7bd 7dde 9c3d d5ed 13bd 9566 13be
00000210: deea 21be c179 72bd 0f5c f8bd e20e d8bd
00000220: 3de0 42be 205e 863c c034 283c 2ef6 bdbc
00000230: bd2e 34bd 2493 27be 8f96 efbd 72fe 45be
00000240: 3aa7 aabd 980a dbbd 5eb6 bfbd 1a7a 633c
00000250: 8c39 1f3d 0856 ffbd ff9b 9b3d 9583 d4bd
00000260: e265 76bd 5b46 0c3a 53c8 463d e5a7 0ebe
00000270: c5aa c5bd ad8a b9bc b616 29be 37de 16be
00000280: 7c9f 63bd 953d dabd 49bc 783b c44c 81bd
00000290: 3d5d bf3d 7a5b e1bc 0ce2 db3c dd16 b8bb
000002a0: 68f6 ecbc f59b d13d e3aa 223e f458 afbd
000002b0: a911 60be 5f12 b7ba 8a66 05be 2c68 cfbe
000002c0: 3a01 be3d 0c9a 5ebe e764 01bf dbc5 0bbf
000002d0: 1ea7 183d c092 8dbd 2924 d63d 1589 1f3d
000002e0: f021 0dbb d532 5bbe 8605 623d 2a40 803d
000002f0: d0de a6bc 8f73 6e3e 847b e6bc e62a 3e3d
00000300: 59cf 873d 60a0 99bd 38d3 b83d 6fae 12be
00000310: 6930 4ebc 2b5a 833b a6ce 27bd af93 30be
00000320: ebf1 c03d b20f 8bbd e29f 323d 6c29 113d
00000330: a354 1a3d fb8f cd3d 232a bf3d 6710 a53c
00000340: 90e9 c1bd abdf d13d 651b bcbd a5fe c83d
00000350: 90ec 653e fa31 073f 2946 7c3f 6a8d 413e
00000360: da89 1b3f a4b7 453f ae61 f93e 4daa 053f
00000370: fcc8 8f3e 4b7c a2bd 7a98 84be 93f7 35be
00000380: b593 183e da62 26c0 4ed4 80c0 1ab4 95c0
00000390: f674 75c0 739e 1bc0 b384 a53d 1a23 f1bc
000003a0: 6d57 8b3d ec03 c33d b894 b6bd 1253 ee3d
000003b0: d879 1fbe 857a a5be ce60 9cbe f3bb bfbe
000003c0: c680 ccbd ce5c 9ebd 6f01 8bbd a6be bdbd
000003d0: 025f 12bd 3778 73bc e76f 203d 8413 b4bd
000003e0: 9338 a8bc cf9c b13d a3c6 8cbd d98d 55bb
000003f0: e714 633d 0ad5 3e3d c861 63bd f576 dc3d

bias f4 [16]
0.04320693 0.014575484 0.08696738 -0.081035584 -0.010509328 -0.109476484 0.094890125 -0.08731904
-0.095429264 -0.011737084 -0.09026495 0.10956015 -0.08961805 -0.073288664 0.036389824 0.093805216
00000000: c0f9 303d 03ce 6e3c f41b b23d fcf5 a5bd
00000010: 512f 2cbc 3535 e0bd c155 c23d 53d4 b2bd
00000020: 6b70 c3bd e64c 40bc d5dc b8bd 1261 e03d
00000030: ab89 b7bd 5e18 96bd 7f0d 153d f31c c03d

weight f4 [16, 16, 5]
0.68620205 -0.10862118 0.17968775 -0.10667053 -0.13139498 -0.030743342 -0.061203305 -0.01727794
-0.10676275 0.06725371 0.45262486 0.1072921 -0.03813079 -0.12443931 -0.059784003 0.093709074
0.0056600966 0.08704009 -0.0003839398 -0.010785727 -0.08963908 0.00295908 -0.067609556 0.041113466
0.05846639 -0.01781453 -0.02897436 -0.094664596 -0.038666885 0.028471254 1.1709726 0.30947965
0.476382 0.27468747 0.21015917 -1.3468517 -0.41911224 0.27571964 0.11294185 0.14652672
0.030934243 -0.078728914 -0.07894411 0.06800431 -0.088970356 0.037571393 0.0400421 0.00022741842
-0.089699596 0.08014487 -0.012940892 -0.07886904 0.09134839 0.0011252135 -0.026286604 0.41820574
0.03691665 -0.17519264 -0.04328432 0.06723144 -0.12392721 0.029102698 0.029241389 0.088300556
-0.104872674 0.007531455 -0.02975257 -0.058064755 0.077818856 0.04140463 0.10934584 0.25620085
-0.06831472 -0.12439613 0.1895447 -0.13066557 -0.19891775 0.21531111 0.22403821 0.021458328
0.013132998 0.0606875 0.03863621 0.03674928 0.09613794 0.105473086 0.057882853 -0.086876936
-0.06018524 0.09071626 -0.14077657 -0.15228254 -0.07993002 0.032829102 -0.01094265 -0.07762137
-0.012807825 -0.07524554 -0.022562671 0.050770406 -0.04941805 -0.08039206 -0.075276084 -0.022951689
0.032263447 0.06934011 -0.069876775 0.023367282 -0.06722625 0.02998313 -0.029306686 0.0021873799
-0.052702874 -0.049741395 -0.010267556 0.06826614 -0.0875775 -0.042361595 0.06872398 0.012051953
0.09786969 0.10959379 -0.07992424 0.016623352 0.07113594 0.10505099 0.036934536 -0.01993732
-0.009109344 -0.09710309 0.091464974 0.0072933766 0.07809893 0.08695671 -0.04375773 0.06325733
-0.07112435 -0.0629564 0.016301466 0.05989664 0.011563176 -0.023728285 0.10917008 -0.09883735
-0.036957327 -0.061985787 -0.092359 0.047355197 0.081769325 -0.035818156 -0.12397695 0.06153357
-0.07982399 0.018063188 0.028136533 -0.017829504 -0.1178867 -0.07346421 -0.12084844 0.05295046
0.8809199 0.61906993 0.25108254 0.1523638 0.13605778 -0.046614353 -0.07851798 -0.054339364
-0.027566513 -0.035510454 0.21746135 0.14765236 0.045419488 0.07382846 0.15738158 0.07396161
0.018787421 -0.061561074 -0.09782469 -0.046268538 0.033151526 -0.12196161 0.06171757 -0.09538505
-0.1306381 0.09394928 0.071259946 -0.04698637 -0.06719573 0.014130896 0.16263567 -0.30929673
-0.12537117 -0.44415647 -0.05376122 -0.5714527 -0.067248575 0.25527397 -0.021715323 -0.090547085
0.0068106763 -0.095890895 0.0867167 0.013340292 -0.023896018 -0.05625435 -0.10546677 -0.06889693
-0.03252711 -0.03214781 0.043923475 0.111942105 0.041455198 0.07896289 -0.03519052 0.04598347
0.19523257 0.026158795 0.1385057 -0.032811273 0.07481541 -0.033571094 0.022168083 0.02832094
-0.11034648 -0.053268716 0.036202747 0.0628569 0.09852497 0.073661916 -0.4445302 -0.30496365
-0.45907405 -0.19194551 -7.584563e-06 0.1999461 0.05060344 0.12557498 0.20221347 -0.042835172
-0.20421685 -0.24440348 0.022368737 0.31242564 0.14242767 -0.06516939 -0.059132725 -0.06835286
-0.08627621 0.07376862 -0.15947984 -0.054836974 -0.07488023 0.11760902 0.140391 0.034796458
00000000: f0aa 2f3f c874 debd 1100 383e 1476 dabd
00000010: 688c 06be 76d9 fbbc 51b0 7abd 778a 8dbc
00000020: 6ea6 dabd 50bc 893d 72be e73e f6bb db3d
00000030: 082f 1cbd 09da febd 12e0 74bd 8bea bf3d
00000040: 5578 b93b 1342 b23d 874b c9b9 9eb6 30bc
00000050: b294 b7bd 20ed 413b e176 8abd 9866 283d
00000060: 747a 6f3d c7ef 91bc a35b edbc 83df c1bd
00000070: 2b61 1ebd 8c3c e93c 6ee2 953f 1e74 9e3e
00000080: 57e8 f33e d6a3 8c3e f733 573e a365 acbf
00000090: e195 d6be 202b 8d3e 0f4e e73d 1a0b 163e
000000a0: cf69 fd3c a03c a1bd 73ad a1bd d845 8b3d
000000b0: 1736 b6bd 76e4 193d 2f03 243d 2b77 6e39
000000c0: 6cb4 b7bd fe22 a43d 0906 54bc 1786 a1bd
000000d0: dd14 bb3d e67b 933a 0157 d7bc 101f d63e
000000e0: ea35 173d b365 33be e64a 31bd a3b0 893d
000000f0: 8dcd fdbd c868 ee3c a38b ef3c ecd6 b43d
00000100: 7cc7 d6bd 6cca f63b a9bb f3bc 4fd5 6dbd
00000110: 7e5f 9f3d e797 293d b6f0 df3d c22c 833e
00000120: 97e8 8bbd 66c3 febd 0118 423e 32cd 05be
00000130: 18b1 4bbe 847a 5c3e 466a 653e 60c9 af3c
00000140: c92b 573c 7593 783d 0141 1e3d 6a86 163d
00000150: f8e3 c43d 4602 d83d 9216 6d3d 89ec b1bd
00000160: cc84 76bd 72c9 b93d bc27 10be f4ef 1bbe
00000170: 5ab2 a3bd cf77 063d cd48 33bc f4f7 9ebd
00000180: e9d7 51bc 551a 9abd 5ad5 b8bc a1f4 4f3d
00000190: 956a 4abd 98a4 a4bd 592a 9abd 2e05 bcbc
000001a0: ad26 043d 3002 8e3d 8e1b 8fbd be6c bf3c
000001b0: ebad 89bd 2e9f f53c 9314 f0bc 255a 0f3b
000001c0: f8de 57bd a2bd 4bbd 4039 28bc 1ecf 8b3d
000001d0: d55b b3bd 5a83 2dbd 28bf 8c3d 8e75 453c
000001e0: e76f c83d b572 e03d 52af a3bd b22d 883c
000001f0: b8af 913d f924 d73d ab48 173d 9753 a3bc
00000200: 5c3f 15bc fcdd c6bd fd51 bb3d 47fd ee3b
00000210: 55f2 9f3d 5c16 b23d 4e3b 33bd 0f8d 813d
00000220: a5a9 91bd 49ef 80bd a78a 853c 2e56 753d
00000230: 7a73 3d3c d261 c2bc 9094 df3d 3d6b cabd
00000240: 9160 17bd cfe4 7dbd b726 bdbd 86f7 413d
00000250: ad76 a73d 0fb6 12bd a1e7 fdbd a00a 7c3d
00000260: c37a a3bd 40f9 933c 967e e63c 2e0f 92bc
00000270: 956e f1bd 6774 96bd 637f f7bd 95e2 583d
00000280: f783 613f 5e7b 1e3f e48d 803e 4205 1c3e
00000290: bb52 0b3e b1ee 3ebd 09ce a0bd f492 5ebd
000002a0: 2bd3 e1bc 6973 11bd 30ae 5e3e 2e32 173e
000002b0: c909 3a3d 6033 973d a328 213e 2f79 973d
000002c0: 14e8 993c 7727 7cbd 5058 c8bd 1484 3dbd
000002d0: e5c9 073d 02c7 f9bd 90cb 7c3d 3d59 c3bd
000002e0: fec5 05be 7b68 c03d bcf0 913d c874 40bd
000002f0: ea9d 89bd 4685 673c f789 263e 245c 9ebe
00000300: 4d61 00be 7a68 e3be ba34 5cbd b94a 12bf
00000310: 9fb9 89bd 45b3 823e 55e4 b1bc c070 b9bd
00000320: 182c df3b 7262 c4bd 8698 b13d 3d91 5a3c
00000330: 95c1 c3bc f66a 66bd f6fe d7bd d519 8dbd
00000340: 263b 05bd 6cad 03bd 1ae9 333d e741 e53d
00000350: edcc 293d 4cb7 a13d ef23 10bd 2a59 3c3d
00000360: 0ceb 473e f84a d63c 70d4 0d3e 1d65 06bd
00000370: d238 993d d881 09bd d799 b53c 5101 e83c
00000380: 56fd e1bd 4c30 5abd 5549 143d 1ebb 803d
00000390: 76c7 c93d 0fdc 963d 7699 e3be 3224 9cbe
000003a0: c10b ebbe 5d8d 44be e67e feb6 acbe 4c3e
000003b0: 8d45 4f3d ba96 003e 0c11 4f3e ef73 2fbd
000003c0: 391e 51be e844 7abe a43e b73c 41f6 9f3e
000003d0: 8fd8 113e 8777 85bd 2835 72bd 96fc 8bbd
000003e0: 95b1 b0bd 0114 973d af4e 23be bc9c 60bd
000003f0: ce5a 99bd ffdc f03d a9c2 0f3e bb86 0e3d

bias f4 [16]
-0.08566981 -0.13950083 0.009325449 -0.02362677 -0.031153237 0.0030539667 -0.17491093 -0.27613863
-0.16579288 -0.105399296 -0.0700083 0.14183524 0.18739656 0.19058888 0.042991724 0.13644046
00000000: a773 afbd 4ed9 0ebe c5c9 183c ee8c c1bc
00000010: 1335 ffbc 0f25 483b da1b 33be 0b62 8dbe
00000020: 9cc5 29be 96db d7bd 8360 8fbd 423d 113e
00000030: e2e4 3f3e bb29 433e 1718 303d 0cb7 0b3e

weight f4 [16, 16, 5]
0.1720851 -0.5041293 -0.43906352 0.8654556 -0.8565705 -0.07394828 0.0697764 0.09859928
-0.003500267 0.044427715 -0.8998828 -0.26894695 0.026618687 0.09888573 -0.242776 -0.6286458
-0.44103083 -0.49483153 0.35676458 -0.2553899 0.61656797 -1.5000314 -0.2761711 0.5969449
-0.27485478 0.2774742 0.05080179 -0.22176513 0.26887208 -0.25748318 -0.73768204 -0.41417614
-0.0039249873 -0.23244044 0.19393174 1.6778964 -0.10146266 0.45575264 -0.083681524 0.24573462
-0.9243139 -0.82101476 0.1464716 -0.005082719 -0.12690228 -0.06264276 0.023392566 0.041531127
-0.0303746 0.11172887 -0.007966108 -0.0099439565 0.103597134 0.111330144 0.014468804 -0.12561354
-0.25463927 0.22381663 0.28136545 -0.3507688 -0.14401096 -0.019434558 0.11925108 -0.13506804
0.30466902 0.5373072 0.4993364 0.28318882 0.27572978 0.56591624 0.041903727 -0.043440267
0.29437467 0.3249791 -0.47761035 -0.028737692 -0.070945315 0.25460005 -0.0020893835 -0.46942568
-0.12375585 -0.047252405 -0.064548194 0.057504363 -0.12416214 0.0699244 0.007022485 -0.10335884
0.031932537 0.08493597 0.07363163 0.02058374 -0.0641743 0.010453368 -0.15022644 0.045557622
0.014514315 -0.021505114 0.017531179 -0.15454157 0.004572179 -0.060473666 0.08167246 0.07949794
0.074435525 -0.09648013 -0.025318714 -0.10068413 -0.088596165 0.014467447 -0.08998503 0.014639322
0.0007668892 0.033022862 -0.14224274 0.029607706 0.06838947 -0.088165425 -0.021105615 -0.00988759
0.061898824 -0.050178945 -0.13893545 -0.033182416 -0.13241452 -0.058303606 0.012204573 0.039161913
-0.03747756 -0.095002726 0.0116331875 -0.095960535 0.0992538 0.04767275 -0.0405337 -0.13580322
0.031402756 -0.1091897 -0.14701088 -0.11656194 0.038197972 0.0043264627 0.04643049 -0.09439413
0.0644325 0.043624673 -0.06964075 -0.059399176 -0.09889587 -0.10894977 0.019866709 0.061397355
-0.07134026 -0.00058972504 -0.066053174 -0.069382094 0.023593718 -0.117205106 -0.12524271 -0.08039664
-0.51711684 -0.0052152714 0.12752514 -0.539059 0.083642974 0.060430866 -0.043077935 -0.04940668
0.041163832 -0.023528911 -0.14970331 -0.08916889 -0.17109503 0.060239173 0.24861069 0.24949922
0.11443697 -0.23303771 0.17704917 -0.13696527 0.5640988 0.5408006 0.76543725 0.47595027
0.4140501 0.013223431 0.49846616 0.3170023 0.30361846 -0.46883392 0.40261987 0.2505657
0.31078732 0.5172 0.44406885 0.07399684 0.26101717 -0.33648804 0.11613726 0.17034525
-0.24516217 -0.26324448 -0.27892265 -0.45303738 -0.40710625 0.030090421 -0.062218126 0.020327786
-0.0046145795 0.012653434 0.101453625 0.03210005 -0.048142556 -0.09937736 0.025450522 0.16873376
0.12441169 0.0055870297 -0.00020454066 0.1022617 1.5137595 1.4139212 0.7674609 0.73872805
1.6854854 0.24581549 -0.05415638 -0.3096234 -0.41031528 -0.16356198 0.12783846 -0.1425298
0.02574787 -0.08955253 0.11284024 0.1752696 0.10939147 -0.027557729 0.07466657 0.037976045
-0.2844 -0.21065974 -0.21686111 -0.04395422 0.05795369 -0.110568225 -0.041103303 -0.067908555
-0.08430356 0.09501183 0.05239075 0.0721001 0.11801456 0.06358114 0.12633574 -0.11774955
00000000: 1437 303e 9e0e 01bf efcc e0be 808e 5d3f
00000010: 3448 5bbf 3272 97bd eee6 8e3d 6bee c93d
00000020: bc64 65bb d6f9 353d b85e 66bf 6ab3 89be
00000030: 6f0f da3c 9a84 ca3d 469a 78be eeee 20bf
00000040: cbce e1be 8f5a fdbe d9a9 b63e 77c2 82be
00000050: 66d7 1d3f 0701 c0bf 4c66 8dbe 62d1 183f
00000060: c4b9 8cbe 1911 8e3e 8a15 503d 6616 63be
00000070: 9aa9 893e d6d4 83be bbd8 3cbf e50e d4be
00000080: 2e9d 80bb de04 6ebe 0b96 463e 4fc5 d63f
00000090: a8cb cfbd 6958 e93e 3861 abbd dba1 7b3e
000000a0: d69f 6cbf 062e 52bf a7fc 153e f08c a6bb
000000b0: acf2 01be d94a 80bd c4a1 bf3c 8b1c 2a3d
000000c0: 27d4 f8bc 1bd2 e43d 4784 02bc faeb 22bc
000000d0: bc2a d43d 0f01 e43d 900e 6d3c d6a0 00be
000000e0: 1460 82be 3030 653e 220f 903e f897 b3be
000000f0: 9c77 13be 3935 9fbc e939 f43d 474f 0abe
00000100: 94fd 9b3e f78c 093f 05a9 ff3e 20fe 903e
00000110: 742c 8d3e e3df 103f 3ea3 2b3d 6cee 31bd
00000120: 47b8 963e a963 a63e 5889 f4be 4f6b ebbc
00000130: c74b 91bd f05a 823e 0aee 08bb 9058 f0be
00000140: b573 fdbd bd8b 41bd d831 84bd b289 6b3d
00000150: b848 febd 8634 8f3d e01c e63b cdad d3bd
00000160: b1cb 023d e9f2 ad3d 2ecc 963d 3b9f a83c
00000170: d16d 83bd 9a44 2b3c f6d4 19be a19a 3a3d
00000180: 73cd 6d3c 7e2b b0bc 8c9d 8f3c 2540 1ebe
00000190: 38d2 953b 3cb3 77bd e443 a73d d1cf a23d
000001a0: a771 983d 6097 c5bd 3169 cfbc 7b33 cebd
000001b0: e871 b5bd df08 6d3c 124a b8bd c4d9 6f3c
000001c0: 1009 493a fb42 073d 15a8 11be dc8b f23c
000001d0: c70f 8c3d 1390 b4bd afe5 acbc 8fff 21bc
000001e0: 9f89 7d3d 7088 4dbd 1845 0ebe 49ea 07bd
000001f0: ac97 07be c3cf 6ebd b0f5 473c 3e68 203d
00000200: 1282 19bd ca90 c2bd 2099 3e3c f586 c4bd
00000210: 9445 cb3d 8044 433d aa06 26bd 0010 0bbe
00000220: 2da0 003d d99e dfbd 058a 16be 07b8 eebd
00000230: 7a75 1c3d 00c5 8d3b e62d 3e3d b651 c1bd
00000240: 30f5 833d c9af 323d cf9f 8ebd 8d4c 73bd
00000250: eb89 cabd 0f21 dfbd 82bf a23c cb7b 7b3d
00000260: d81a 92bd c797 1aba e346 87bd 3318 8ebd
00000270: 9d47 c13c 3b09 f0bd a03f 00be fea6 a4bd
00000280: c561 04bf dee4 aabb f395 023e c5ff 09bf
00000290: 024d ab3d 5b86 773d 7d72 30bd a95e 4abd
000002a0: 689b 283d b4bf c0bc d34b 19be 2e9e b6bd
000002b0: 8933 2fbe 5abd 763d cd93 7e3e b97c 7f3e
000002c0: ee5d ea3d 70a1 6ebe 614c 353e a040 0cbe
000002d0: c768 103f e871 0a3f b2f3 433f c1af f33e
000002e0: 60fe d33e 17a7 583c f536 ff3e 204e a23e
000002f0: e173 9b3e 000b f0be 3124 ce3e 264a 803e
00000300: 841f 9f3e 3867 043f fe5c e33e a88b 973d
00000310: 0ba4 853e 2948 acbe 5fd9 ed3d fc6e 2e3e
00000320: cb0b 7bbe fbc7 86be f3ce 8ebe 84f4 e7be
00000330: 3b70 d0be 3080 f63c 6fd8 7ebd 7586 a63c
00000340: e635 97bb 5950 4f3c ebc6 cf3d 587b 033d
00000350: 2131 45bd 5b86 cbbd 9d7d d03c 8bc8 2c3e
00000360: 8ecb fe3d 6713 b73b f779 56b9 956e d13d
00000370: dfc2 c13f 5ffb b43f 5178 443f 481d 3d3f
00000380: fcbd d73f 0eb7 7b3e 15d3 5dbd f586 9ebe
00000390: d814 d2be cb7c 27be 16e8 023e 55f3 11be
000003a0: 32ed d23c 5167 b7bd c918 e73d e079 333e
000003b0: a308 e03d bfc0 e1bc c9ea 983d c58c 1b3d
000003c0: e09c 91be 30b7 57be d710 5ebe 5709 34bd
000003d0: d960 6d3d 9871 e2bd f05b 28bd a413 8bbd
000003e0: 58a7 acbd 9095 c23d af97 563d 38a9 933d
000003f0: 9eb1 f13d d436 823d 285e 013e ad26 f1bd

bias f4 [16]
0.27620023 -0.11468367 0.20170164 0.22638063 0.16661249 0.027077254 -0.14689004 0.01258987
-0.15141413 -0.1092373 -0.13245879 -0.12890528 -0.0065340376 -0.108476974 0.14172755 0.120753504
00000000: 1e6a 8d3e 46df eabd e08a 4e3e 53d0 673e
00000010: 779c 2a3e 1ed1 dd3c 586a 16be be45 4e3c
00000020: 4e0c 1bbe ceb7 dfbd 47a3 07be bfff 03be
00000030: 7b1b d6bb 2d29 debd 0721 113e 9d4d f73d

weight f4 [64, 64]
-0.28731722 -0.3769522 -0.35658795 0.10474492 0.0022206402 0.03317188 -0.12584476 -0.11520613
0.041653205 0.03370229 -0.015777852 0.111514576 -0.04582051 0.10659866 -0.048205327 0.13762222
0.0533728 -0.0989398 -0.18206975 -0.12850115 0.10423005 -0.08181352 -0.1777186 0.08541587
-0.20324153 -0.05585075 -0.25286388 -0.25339732 -0.2640484 0.13366897 -0.24397194 -0.047342382
0.030167997 -0.13820522 0.1287359 -0.24212517 -0.16500494 -0.19763966 -0.13972661 -0.06043425
0.02312521 0.093846865 -0.122594915 -0.08854765 -0.114642955 -0.0018317733 -0.037969157 -0.020230949
-0.08625128 0.022058563 -0.08862865 -0.10443493 -0.029574448 -0.081572235 0.08810144 0.08617136
0.07167067 -0.13520892 0.018307602 0.084985025 -0.06064824 0.10593935 -0.15790658 -0.18625332
-0.047579825 -0.101324886 -0.08409467 -0.042738542 -0.015249595 0.03676133 0.09582259 0.06640382
-0.056803096 -0.0934616 0.04629883 -0.13709146 -0.15318988 0.015392273 0.03189711 -0.022516042
-0.021556837 -0.034921438 -0.10934879 -0.041317377 0.063162975 -0.032518703 -0.01995096 -0.023065992
-0.13461128 -0.09771335 0.05466138 -0.0024535737 -0.026805803 0.049823403 0.09132442 -0.00512816
0.055436432 0.077603236 0.032082107 -0.06477259 -0.10053787 0.09957449 0.05048804 0.005325231
0.009162635 -0.0943654 0.032791346 -0.058533162 0.10940105 0.028265253 0.0317218 -0.09592469
0.036025748 -0.07655008 -0.08144294 -0.050682604 0.073141456 0.018336996 0.10261807 -0.0196165
-0.083478026 0.06999044 -0.009948218 -0.045411516 0.06955001 0.11511117 -0.06305647 -0.07769048
0.082891345 0.087090224 -0.062138114 0.08120652 0.09199569 -0.02847439 -0.05404456 -0.016501978
-0.07296621 -0.08346123 0.08433585 0.060633637 -0.11715291 -0.029358935 -0.110472776 0.07042985
-0.07909544 -0.070788376 0.07163449 0.07921175 0.026135594 -0.11794262 -0.091437995 0.10405904
0.06706679 0.042201757 0.1120691 -0.10785584 -0.07563399 0.065771356 0.12209378 0.08861856
-0.04200083 0.111800894 -0.1096372 0.012934595 0.067310125 -0.015578061 -0.08327539 -0.08457658
-0.119970515 0.0359395 0.033131838 -0.061349034 0.066901624 -0.10169703 0.047413602 -0.10264008
-0.11015735 0.022170465 -0.100778386 -0.036913365 0.031918243 0.016062006 0.09166326 -0.08160007
-0.12763236 -0.06129074 0.013578783 -0.06881501 -0.07882137 0.04908315 0.00032922954 -0.06988327
0.007471819 0.1082421 -0.0041076606 0.051941503 0.004180163 0.067378595 -0.032270342 -0.07637584
0.018259956 -0.029714115 -0.07297851 0.0010921744 -0.06821353 -0.13988522 -0.00028815187 -0.0058191367
-0.050915256 0.0547712 -0.0004938241 -0.04404225 0.07529171 0.065912396 0.11951059 0.054561675
0.104025885 0.016212538 -0.02495271 -0.11833209 -0.09895001 0.010473609 0.0686681 -0.0074355006
0.10418713 0.073369876 -0.11244495 0.070243 -0.027488396 -0.049015045 -0.020256191 -0.01287505
0.08335474 0.03612557 -0.12094396 -0.09372865 -0.0076455027 0.075488195 -0.10437949 0.08193196
-0.10230467 -0.08308071 -0.11601632 0.111043036 -0.03666684 0.06163849 0.032657653 0.12490307
0.007168468 -0.042174503 -0.08810667 -0.029619524 0.11053338 -0.072334 0.047142014 0.093103826
00000000: 3e1b 93be e1ff c0be b292 b6be 8184 d63d
00000010: 2988 113b 3ddf 073d 73dd 00be 31f1 ebbd
00000020: 8d9c 2a3d 6a0b 0a3d 8e40 81bc c161 e43d
00000030: 49ae 3bbd 6650 da3d f372 45bd d7ec 0c3e
00000040: 709d 5a3d f3a0 cabd 7e70 3abe ce95 03be
00000050: 9176 d53d d98d a7bd ddfb 35be 84ee ae3d
00000060: 8c1e 50be c2c3 64bd 6077 81be 4bbd 81be
00000070: 5a31 87be 85e0 083e c8d3 79be 16ea 41bd
00000080: e022 f73c ab85 0dbe 58d3 033e a9ef 77be
00000090: 0ef7 28be 0d62 4abe 7e14 0fbe e789 77bd
000000a0: 1571 bd3c c932 c03d 0b13 fbbd 7858 b5bd
000000b0: edc9 eabd 1d18 f0ba 8c85 1bbd 60bb a5bc
000000c0: 83a4 b0bd 29b4 b43c f082 b5bd fbe1 d5bd
000000d0: 1d46 f2bc 580f a7bd 876e b43d 9c7a b03d
000000e0: 12c8 923d 3574 0abe d3f9 953c a10c ae3d
000000f0: 4a6a 78bd bbf6 d83d 43b2 21be 31b9 3ebe
00000100: 10e3 42bd 6c83 cfbd d439 acbd 9c0e 2fbd
00000110: 70d9 79bc 0c93 163d a23e c43d bafe 873d
00000120: 5daa 68bd cc68 bfbd d8a3 3d3d b461 0cbe
00000130: cfdd 1cbe df2f 7c3c 8ba6 023d 9073 b8bc
00000140: f797 b0bc c809 0fbd 42f2 dfbd 693c 29bd
00000150: 975b 813d 5532 05bd 3270 a3bc e4f4 bcbc
00000160: 8ad7 09be f01d c8bd 9ce4 5f3d 23cc 20bb
00000170: d897 dbbc a013 4c3d 4c08 bb3d 200a a8bb
00000180: 5011 633d 72ee 9e3d 8768 033d 7ea7 84bd
00000190: cce6 cdbd b6ed cb3d 8ccc 4e3d 467f ae3b
000001a0: e01e 163c a642 c1bd 3850 063d 78c0 6fbd
000001b0: a80d e03d 888c e73c b8ee 013d 2a74 c4bd
000001c0: bc8f 133d 4ac6 9cbd 8ecb a6bd 9098 4fbd
000001d0: 30cb 953d 7837 963c 6c29 d23d c8b2 a0bc
000001e0: 87f6 aabd 2657 8f3d dafd 22bc 6d01 3abd
000001f0: 3c70 8e3d 68bf eb3d c023 81bd 301c 9fbd
00000200: f0c2 a93d 5c5c b23d 8984 7ebd 9b4f a63d
00000210: 3c68 bc3d 2043 e9bc d45d 5dbd 282f 87bc
00000220: 4f6f 95bd b9ed aabd 46b8 ac3d fa5a 783d
00000230: dded efbd 2682 f0bc 8d3f e2bd 863d 903d
00000240: cafc a1bd 7ff9 90bd 1ab5 923d c539 a23d
00000250: 501a d63c e68b f1bd d843 bbbd e81c d53d
00000260: 505a 893d c0db 2c3d 7c84 e53d 86e3 dcbd
00000270: fee5 9abd 22b3 863d 4e0c fa3d a67d b53d
00000280: 1009 2cbd def7 e43d 7889 e0bd a0eb 533c
00000290: e4d9 893d 203b 7fbc 4a8c aabd 7c36 adbd
000002a0: 1ab3 f5bd 4c35 133d 40b5 073d 2049 7bbd
000002b0: b803 893d 8846 d0bd c434 423d f634 d2bd
000002c0: 2d9a e1bd d69e b53c e664 cebd 7832 17bd
000002d0: b4bc 023d 7894 833c f2b9 bb3d f01d a7bd
000002e0: 0fb2 02be 000c 7bbd 8b79 5e3c e2ee 8cbd
000002f0: 196d a1bd 6a0b 493d 719c ac39 f61e 8fbd
00000300: 29d6 f43b 09ae dd3d 8e99 86bb 9dc0 543d
00000310: c0f9 883b cafd 893d e82d 04bd f06a 9cbd
00000320: e795 953c 046b f3bc c275 95bd 4b27 8f3a
00000330: 89b3 8bbd 123e 0fbe 1713 97b9 75ae bebb
00000340: 848c 50bd c457 603d f973 01ba a565 34bd
00000350: 8a32 9a3d 14fd 863d f8c1 f43d 107c 5f3d
00000360: 860b d53d 28d0 843c a069 ccbc 1858 f2bd
00000370: 4ea6 cabd 8099 2b3c dca1 8c3d 80a5 f3bb
00000380: 1060 d53d f242 963d 8a49 e6bd 90db 8f3d
00000390: 582f e1bc 00c4 48bd 50f0 a5bc e0f1 52bc
000003a0: e4b5 aa3d 68f8 133d 78b1 f7bd cef4 bfbd
000003b0: 2087 fabb 8e99 9a3d eac4 d5bd f2cb a73d
000003c0: 1c85 d1bd 3826 aabd f799 edbd 886a e33d
000003d0: f82f 16bd a478 7c3d 08c4 053d 2ecd ff3d
000003e0: 78e5 ea3b 2cbf 2cbd 4571 b4bd a5a4 f2bc
000003f0: 535f e23d d923 94bd fc17 413d 38ad be3d

bias f4 [64]
0.33870655 -0.035940927 0.029366802 0.09581611 0.05243291 0.038878687 0.15933909 0.012462746
0.2623343 0.037901822 0.068682596 0.35645437 0.16695046 0.50458014 -0.07985525 0.22956994
0.08287221 0.4152684 -0.17139445 -0.08424798 0.41190672 0.4212718 0.1953602 0.51761985
0.1108422 0.07505805 0.18127076 -0.10145062 -0.13601105 0.043778025 0.29527503 -0.0851011
0.35397553 0.5396253 0.09450559 0.6028362 0.38321847 -0.07159871 0.14852875 0.3502737
0.24206518 -0.41272166 0.10604176 0.18025635 -0.03344989 0.5441149 0.46020234 0.10887295
-0.06749003 -0.10679649 -0.07390692 0.4125005 0.0653034 0.48357594 -0.0494726 0.33164352
0.22820905 0.24912657 0.4506183 0.041393567 0.012868843 -0.12916376 -0.016830713 0.05121907
00000000: f26a ad3e cb36 13bd a692 f03c 3d3b c43d
00000010: e4c3 563d 423f 1f3d c929 233e 8c30 4c3c
00000020: ae50 863e f13e 1b3d 76a9 8c3d 3081 b63e
00000030: 10f5 2a3e 2a2c 013f 268b a3bd 6214 6b3e
00000040: e8b8 a93d 0f9e d43e 0782 2fbe 348a acbd
00000050: 70e5 d23e f0b0 d73e 810c 483e bc82 043f
00000060: 3c01 e33d 09b8 993d 0b9f 393e 58c5 cfbd
00000070: 7b46 0bbe 9650 333d 4a2e 973e 7c49 aebd
00000080: 483c b53e e224 0a3f 268c c13d 7953 1a3f
00000090: 3635 c43e 58a2 92bd ec17 183e 1357 b33e
000000a0: efdf 773e 4150 d3be 6c2c d93d 1f95 383e
000000b0: c002 09bd 1d4b 0b3f a49f eb3e c8f8 de3d
000000c0: 3638 8abd 1eb8 dabd 835c 97bd 4433 d33e
000000d0: cabd 853d 4497 f73e c8a3 4abd 2ecd a93e
000000e0: a2af 693e 091b 7f3e 71b7 e63e 4d8c 293d
000000f0: d7d7 523c 8143 04be 90e0 89bc 16cb 513d

weight f4 [32, 64]
0.06592438 0.07895871 0.115316495 0.022572368 0.56373435 0.03883277 0.27775648 -0.075348295
0.15922831 -0.034682952 -0.015007531 0.06399808 -0.02862324 -0.062172625 -0.08324909 0.026035475
0.12659705 -0.069154166 0.6530281 0.17335872 0.039632097 -0.04121384 0.26839492 -0.036327887
0.20386538 0.07810471 0.049316216 -0.08108188 0.06223338 0.0736097 -0.9066792 0.031441495
-0.010190851 0.0013308694 -0.03245138 -0.085282184 0.0783249 -0.06296003 0.16157828 -0.037558008
0.19838235 1.5887762 0.31098133 0.23719256 0.022250224 -0.027265847 0.04297928 0.093633026
0.057159703 -0.0040423106 -0.1295989 0.048527304 0.11396121 0.079254046 0.030970354 0.24380769
0.2733727 0.008043427 0.09780151 -0.027101826 -0.0017658006 -0.030762292 0.024177661 0.040715225
-0.001994267 -0.1121694 0.10740562 0.015202969 0.11264226 0.03578818 0.021220908 0.006447524
0.11159812 0.11983973 0.09624095 0.01076369 -0.020309553 0.09739384 -0.06786837 0.1135152
-0.117852 0.0046853274 -0.090913475 0.0046999007 -0.060245767 -0.06417197 -0.06065987 -0.02819641
-0.03179425 0.10396193 -0.10730146 -0.06190346 0.112596035 -0.07643108 -0.04100521 0.058197454
0.10740094 0.03377773 -0.10318911 -0.00826183 -0.00694035 -0.037886575 0.116217315 -0.045379654
-0.056447983 0.008050889 0.029391378 -0.06463426 0.11264756 -0.018697187 -0.09636633 -0.02133575
-0.0034148544 -0.12079686 -0.083479494 -0.07237239 0.10563961 -0.1207754 0.07052025 0.015555352
0.0661165 -0.08923851 -0.10129212 -0.11794387 -0.119859636 -0.11258657 -0.040088773 -0.121623084
0.10933943 -0.099479645 -0.096546255 -0.021429012 0.074758664 -0.08918417 0.02549603 -0.026691306
0.16399209 -0.15429406 -0.088971935 0.21288781 1.2559758 0.66590244 0.118046194 0.042346116
-0.008021206 0.22390246 0.074659534 -0.028299633 0.08235271 0.16103716 0.13629578 0.2739972
-0.07872569 -0.073343664 0.15535988 0.035742834 0.006216189 -0.08476973 0.2562782 0.06161812
0.16740584 0.29841 0.11398179 0.46057764 0.21650212 0.04980944 -0.06450301 0.11190925
0.12473211 -1.4553736 0.009863528 0.14920224 0.041713387 0.23431742 0.0137867145 0.67180485
-0.045126397 -0.31697595 0.04977491 0.24762696 -0.01318246 0.13084061 0.028385067 0.18674365
0.1393663 0.2193538 0.18797049 0.029583422 -0.011809483 -0.074648336 0.06828779 -0.031783264
0.033820346 0.085711285 0.07755509 -0.082233414 -0.0662822 -0.085822724 0.056151047 0.04015169
0.07438824 0.08789586 -0.094803624 -0.01779245 0.03231968 -0.08089625 0.08393803 -0.061392788
-0.064197056 -0.04115257 -0.015935265 0.119557545 -0.07886662 -0.052854754 0.05212559 0.048697364
0.09245494 -0.12143962 -0.10804004 0.12120189 -0.11161515 -0.045097418 -0.0030144453 -0.010284752
-0.088137925 0.052467998 0.03326394 0.08394201 -0.07525861 0.019215614 -0.053762734 0.02780075
0.030302577 -0.054845378 0.054230362 0.07863736 -0.117429286 0.079591304 0.07188771 -0.07918607
-0.05828622 0.099827886 -0.094518885 -0.028575342 0.0064840107 -0.12737238 0.0053469986 -0.109124854
-0.13349982 -0.13417344 -0.03879718 -0.04695296 0.111380085 0.078485444 -0.040924147 0.0027587658
00000000: 5d03 873d 1bb5 a13d 0e2b ec3d b0e9 b83c
00000010: e550 103f 1c0f 1f3d 1936 8e3e 3550 9abd
00000020: bf0c 233e b60f 0ebd 26e2 75bc 6d11 833d
00000030: 497b eabc b9a8 7ebd 807e aabd 5948 d53c
00000040: a8a2 013e b3a0 8dbd d92c 273f f384 313e
00000050: 4455 223d d8cf 28bd 0f6b 893e 8dcc 14bd
00000060: 16c2 503e 5df5 9f3d cdff 493d 420e a6bd
00000070: 6ee8 7e3d afc0 963d 211c 68bf ccc8 003d
00000080: 87f7 26bc 9170 ae3a bdeb 04bd 6da8 aebd
00000090: ce68 a03d 30f1 80bd c774 253e 6dd6 19bd
000000a0: be24 4b3e 055d cb3f f238 9f3e 9be2 723e
000000b0: 1a46 b63c a05c dfbc 0b0b 303d acc2 bf3d
000000c0: 4b20 6a3d 5c75 84bb 93b5 04be 91c4 463d
000000d0: 7f64 e93d f24f a23d 8ab5 fd3c b9a8 793e
000000e0: 82f7 8b3e 94c8 033c 284c c83d a604 debc
000000f0: 7072 e7ba 3401 fcbc 3b10 c63c 02c5 263d
00000100: 40b2 02bb 12b9 e5bd 7af7 db3d e015 793c
00000110: fcb0 e63d a096 123d 78d7 ad3c c045 d33b
00000120: 8e8d e43d 886e f53d fa19 c53d 305a 303c
00000130: 3860 a6bc 6c76 c73d 92fe 8abd a87a e83d
00000140: 645c f1bd 6087 993b d830 babd a001 9a3b
00000150: 44c4 76bd 986c 83bd 7c76 78bd 28fc e6bc
00000160: b03a 02bd fee9 d43d dec0 dbbd 7c8e 7dbd
00000170: c098 e63d e687 9cbd 14f5 27bd 7460 6e3d
00000180: 06f5 db3d 845a 0a3d d054 d3bd a05c 07bc
00000190: e06b e3bb f42e 1bbd 5803 ee3d 04e0 39bd
000001a0: 0036 67bd e0e7 033c 30c6 f03c f85e 84bd
000001b0: c4b3 e63d d82a 99bc b65b c5bd 50c8 aebc
000001c0: c0cb 5fbb 5864 f7bd 4cf7 aabd fa37 94bd
000001d0: 9459 d83d 1859 f7bd ec6c 903d e0db 7e3c
000001e0: 1668 873d aec2 b6bd 3e72 cfbd 8e8c f1bd
000001f0: f878 f5bd ca93 e6bd 2034 24bd 8615 f9bd
00000200: 5aed df3d fcbb cbbd 0bba c5bd e58b afbc
00000210: 121b 993d 31a6 b6bd 0ddd d03c baa7 dabc
00000220: 8bed 273e 43ff 1dbe eb36 b6bd 43ff 593e
00000230: d1c3 a03f 9578 2a3f 34c2 f13d 1f73 2d3d
00000240: 606b 03bc b046 653e 19e7 983d a2d4 e7bc
00000250: 8aa8 a83d ede6 243e 1f91 0b3e 5c49 8c3e
00000260: ef3a a1bd 3435 96bd a916 1f3e 1467 123d
00000270: 2cb1 cb3b c19b adbd e536 833e 4863 7c3d
00000280: 706c 2b3e 32c9 983e 496f e93d d5d0 eb3e
00000290: bbb2 5d3e fc04 4c3d 271a 84bd ad30 e53d
000002a0: 8c73 ff3d af49 babf a39a 213c 79c8 183e
000002b0: a8db 2a3d e8f0 6f3e ace1 613c 67fb 2b3f
000002c0: 75d6 38bd ac4a a2be c7e0 4b3d ec91 7d3e
000002d0: 3ffb 57bc 15fb 053e cd87 e83c ba39 3f3e
000002e0: 0ab6 0e3e 489e 603e 567b 403e ef58 f23c
000002f0: 907c 41bc 3ae1 98bd 78da 8b3d 2b2f 02bd
00000300: 3487 0a3d 6689 af3d 34d5 9e3d fe69 a8bd
00000310: f6be 87bd d3c3 afbd a4fe 653d 1976 243d
00000320: dd58 983d bf02 b43d 6728 c2bd 79c1 91bc
00000330: a461 043d efac a5bd b4e7 ab3d 0177 7bbd
00000340: bf79 83bd 998f 28bd ac8a 82bc 96da f43d
00000350: d384 a1bd 3a7e 58bd a581 553d e376 473d
00000360: 0459 bd3d 56b5 f8bd 1944 ddbd b238 f83d
00000370: 7c96 e4bd 12b8 38bd 008e 45bb 6081 28bc
00000380: a881 b4bd afe8 563d c53f 083d cae9 ab3d
00000390: 3021 9abd 106a 9d3c 5036 5cbd 66be e33c
000003a0: 1c3d f83c 8ca5 60bd a820 5e3d a00c a13d
000003b0: c47e f0bd c400 a33d dd39 933d 4e2c a2bd
000003c0: 88bd 6ebd 9072 cc3d 1e93 c1bd d616 eabc
000003d0: d377 d43b e86d 02be e035 af3b da7c dfbd
000003e0: 2db4 08be c364 09be cbe9 1ebd bf51 40bd
000003f0: 3e1b e43d fabc a03d 14a0 27bd 69cc 343b

bias f4 [32]
0.03151891 0.0149887055 0.7425355 0.015725227 -0.013833657 -0.02075272 -0.07343507 -0.122938134
0.638867 0.07739681 0.033683103 -0.0073920935 0.15181917 0.337683 -0.114448234 -0.09675166
0.03178704 -0.061920516 -0.021358069 0.043809153 -0.053325344 -0.13829102 -0.10973968 -0.117705934
-0.103708915 -0.028743908 -0.011864484 0.035129417 0.5208341 0.31982797 -0.11985357 0.07927002
00000000: f919 013d 3093 753c ce16 3e3f 31d2 803c
00000010: 90a6 62bc 9c01 aabc 2065 96bd fdc6 fbbd
00000020: ca8c 233f 3882 9e3d 4bf7 093d 6039 f2bb
00000030: 7c76 1b3e c9e4 ac3e d663 eabd bc25 c6bd
00000040: 2133 023d 5ea0 7dbd 1ef7 aebc 3a71 333d
00000050: ad6b 5abd 299c 0dbe 33bf e0bd cf0f f1bd
00000060: 5765 d4bd 5878 ebbc 4163 42bc dde3 0f3d
00000070: 6255 053f 7ec0 a33e ca75 f5bd 5258 a23d

weight f4 [2, 32]
0.17964338 -0.13402449 0.27851075 -0.019379228 -0.09063467 -0.06704389 -0.025363278 0.10030399
0.2603688 -0.018354233 -0.067278795 0.009120431 0.19999537 0.29778194 -0.121765465 -0.06497647
-0.12909092 -0.04796185 0.05412545 -0.13164571 0.09492885 -0.06800244 -0.00533594 -0.10905154
-0.077719785 -0.049584713 -0.03573123 -0.003640441 0.27889466 0.20192845 -0.1222268 -0.058895793
0.24894282 -0.053519204 -0.15444751 0.019785322 -0.083415106 0.059470713 0.10570202 -0.10233013
-0.059776615 -0.03152207 0.026335623 -0.11860066 0.21724705 0.1274557 0.10864427 0.10428445
0.15697837 -0.060317013 -0.008899459 -0.043606967 -0.057772722 -0.1091113 -0.09481636 -0.08192685
-0.5833655 0.08570391 -0.05050211 -0.14654243 -0.1339281 0.0898594 0.048533276 0.09435037
00000000: 6ff4 373e b73d 09be f698 8e3e 30c1 9ebc
00000010: ab9e b9bd 4f4e 89bd a6c6 cfbc 2e6c cd3d
00000020: 0f4f 853e 9e5b 96bc 77c9 89bd dc6d 153c
00000030: 96cb 4c3e e076 983e 2c60 f9bd 6212 85bd
00000040: 6930 04be a573 44bd a6b2 5d3d 22ce 06be
00000050: 0f6a c23d dd44 8bbd 1cd9 aebb 6a56 dfbd
00000060: 8d2b 9fbd 5719 4bbd e95a 12bd 7794 6ebb
00000070: 48cb 8e3e 55c6 4e3e 0b52 fabd b73c 71bd
00000080: deea 7e3e f436 5bbd 7d27 1ebe d414 a23c
00000090: 8ad5 aabd 9097 733d 4d7a d83d 7692 d1bd
000000a0: 53d8 74bd 491d 01bd cebd d73c e7e4 f2bd
000000b0: 0376 5e3e bf83 023e e380 de3d 1693 d53d
000000c0: f0be 203e f90e 77bd 09cf 11bc 389d 32bd
000000d0: 17a3 6cbd bf75 dfbd 142f c2bd 44c9 a7bd
000000e0: 7157 15bf 8885 af3d 4ddb 4ebd 380f 16be
000000f0: 7324 09be 3508 b83d d4ca 463d c43a c13d

bias f4 [2]
0.2969781 -0.098170914
00000000: 830d 983e d50d c9bd
