MultiModal/10loss14.802252665162086.pth (torch, 504678 bytes, 41 tensors)

weight f4 [16, 1, 4]
0	0xbca7c1c8	-0.020478144
1	0x3c797bc5	0.015227263
2	0x3e75ca51	0.24002959
3	0xc1d3790f	-26.43411
4	0xbe9d7e58	-0.30760455
5	0x3c29a368	0.0103539005
6	0xbf70fb5e	-0.94133556
7	0xbe463cd3	-0.1935914
8	0x3e9c3f32	0.30516964
9	0xbf42600e	-0.7592782
10	0x3f4bd141	0.7961617
11	0xbeb5a8b3	-0.3548027
12	0xbecb4f96	-0.39709157
13	0xbde16109	-0.11004836
14	0xbec63403	-0.38711557
15	0xbcff3768	-0.03115435
16	0xbbad1f53	-0.005283275
17	0xbf1afd33	-0.605426
18	0xbeca5428	-0.3951733
19	0xbf0799b3	-0.529689
20	0xbe422d61	-0.18962623
21	0xbfb0eabc	-1.3821635
22	0x3dd567ba	0.10420175
23	0xbf79e922	-0.9762136
24	0xc01cb12a	-2.4483132
25	0x3c0b58ca	0.008505056
26	0xbf3c66bc	-0.7359426
27	0xbcfa0992	-0.030522142
28	0xbea06c54	-0.31332648
29	0xbe4fd716	-0.20296893
30	0xbdac0467	-0.08399277
31	0xbe62a23c	-0.221322
32	0xbdc9e734	-0.098585516
33	0xbfa61590	-1.297533
34	0xbf09fbd0	-0.5389986
35	0xbf41e5e5	-0.75741416
36	0xbf3ea10a	-0.74464476
37	0x3c53756c	0.0129064135
38	0xbc4b016c	-0.012390476
39	0xbf57da73	-0.843177
40	0xc1078ed5	-8.472371
41	0xc10548d9	-8.330285
42	0xc16e8146	-14.906561
43	0xbce70b9c	-0.028203778
44	0xbf9f31a0	-1.2437019
45	0xbfc25179	-1.5181113
46	0xbf822b71	-1.0169507
47	0xbef35bee	-0.47531074
48	0xc1753734	-15.325977
49	0xc164fa69	-14.311135
50	0xbf4a3533	-0.78987426
51	0x3d7bd2c9	0.061480317
52	0xbf1c71db	-0.6111123
53	0xbf58ed3c	-0.8473699
54	0xbc234ba8	-0.009966768
55	0x3d08969c	0.033346757
56	0xbf4f0b8d	-0.80877
57	0xbe8fd2b0	-0.2809043
58	0xbda3d741	-0.08000041
59	0xbe96f725	-0.2948543
60	0x3d52b642	0.051443346
61	0x3d304233	0.043031882
62	0x3d0ffe25	0.03515448
63	0x3d93fd9f	0.07226109

bias f4 [16]
0	0x3dac8e7c	0.08425614
1	0xbfb4db21	-1.4129373
2	0x3b40aba6	0.0029399185
3	0xbbb1f769	-0.005431105
4	0xbd58d389	-0.05293611
5	0xc008525c	-2.1300268
6	0x3e7bbda8	0.24584067
7	0x3e465205	0.19367225
8	0xbfe2e45c	-1.772594
9	0xbf05ce89	-0.5226827
10	0x3e84bfe8	0.25927663
11	0x3e85f263	0.2616149
12	0x3d1ca62f	0.038244423
13	0xc046f488	-3.108675
14	0xbdfee6dc	-0.12446377
15	0xbda21f7e	-0.07916163

weight f4 [16, 16, 4]
0	0x3c805282	0.015664343
1	0xbd43ea33	-0.04783077
2	0xbe2ce53d	-0.16884322
3	0xbea66b2d	-0.32503644
4	0xbd2cf932	-0.04222984
5	0x3c146e41	0.00905949
6	0xbdf6582a	-0.12028535
7	0xbc7bd794	-0.015371222
8	0xbe914b94	-0.28377974
9	0xbe8a5159	-0.27015188
10	0xbeaae7e5	-0.33380046
11	0xbe5e63dd	-0.21717782
12	0xbe98ccd2	-0.29843765
13	0xbea4df38	-0.32201552
14	0xbe98cf62	-0.2984572
15	0xbe495018	-0.1965946
16	0x3d073f72	0.03301949
17	0xbd7871b8	-0.060655326
18	0xbe02c95d	-0.12772126
19	0xbd470360	-0.048587203
20	0xbe9a62bd	-0.30153456
21	0xbe74b62a	-0.23897615
22	0xbcb328c0	-0.021870017
23	0xbdfd8755	-0.12379328
24	0xbe3b9288	-0.18317616
25	0xbe214c20	-0.15751696
26	0x3cd69a32	0.026196573
27	0xbdbe4aad	-0.09291587
28	0xbe2f5423	-0.1712194
29	0xbe44bf2b	-0.1921355
30	0xbd3d837a	-0.046267964
31	0xbd40bc34	-0.047054484
32	0xbe4743eb	-0.19459502
33	0xbd441d08	-0.04787925
34	0xbe43cb32	-0.19120482
35	0xbd7da1ff	-0.06192207
36	0xbe90e722	-0.2830134
37	0xbec01cb3	-0.37521896
38	0xbddd8923	-0.108171724
39	0xbeb264bd	-0.34842482
40	0xbd24e6ce	-0.040259175
41	0xbd280e97	-0.04102954
42	0x3d9efa8e	0.07762633
43	0x3d83593c	0.064135045
44	0xbd86e63a	-0.06586881
45	0xbc6ea222	-0.014565023
46	0xbe07aaed	-0.13248797
47	0x3d6e58f3	0.058190297
48	0x3d0e8117	0.03479108
49	0xbd291892	-0.041283198
50	0xbd965763	-0.073408864
51	0xbcf1965c	-0.029490642
52	0xbe419ed2	-0.18908241
53	0xbdd569d6	-0.10420577
54	0xbdf661a3	-0.120303415
55	0xbe3570c9	-0.17718805
56	0xbf009500	-0.50227356
57	0xbd609a5d	-0.054834712
58	0xbe4040c1	-0.18774702
59	0xbdb52dee	-0.08846651
60	0xbeb7b550	-0.35880518
61	0xbeb00863	-0.343814
62	0xbece70d8	-0.40320468
63	0xbf00b2c3	-0.5027277
64	0xbe6d7e0e	-0.23192617
65	0xbea11d29	-0.3146756
66	0x3e16904a	0.1470348
67	0x3bdbabb8	0.00670382
68	0xbbe841ae	-0.0070879078
69	0xbd7fbc63	-0.06243552
70	0x3cb9eaeb	0.022695025
71	0xbb18b5ff	-0.0023301838
72	0xbe9c6a77	-0.30549976
73	0x3dcd0496	0.1001064
74	0xbe49ee52	-0.19719818
75	0xbeaca68a	-0.3372081
76	0x3e1ca69f	0.15297936
77	0xbef7aed1	-0.48375562
78	0xbe901d2f	-0.28147265
79	0xbe9d2bf9	-0.3069761
80	0xbd9c9903	-0.07646372
81	0xbe7edd1a	-0.24889031
82	0x3d2ca974	0.04215379
83	0xbeb092ef	-0.344871
84	0x3c879b15	0.016553441
85	0xbec03316	-0.37538975
86	0xbe92f868	-0.28705144
87	0xbdbbda62	-0.091725126
88	0xbcfc8f6a	-0.030830104
89	0xbc95ec71	-0.01830122
90	0x3c74f6f7	0.014951459
91	0xbe0fdb72	-0.14048555
92	0xbead6ebd	-0.3387355
93	0xbe654e95	-0.22393258
94	0xbdedde99	-0.11614723
95	0xbdaa5fa4	-0.08319023
96	0xbbf6748b	-0.007521217
97	0xbea8af7c	-0.32946384
98	0x3c246d07	0.01003576
99	0x3d4f2a42	0.05057741
100	0xbe5d8aa7	-0.21634923
101	0xbe602d85	-0.21892364
102	0xbe99af1f	-0.3001642
103	0xbdee5f83	-0.11639311
104	0xbee8f254	-0.45497382
105	0xbea6a089	-0.32544354
106	0xbe6bfbb1	-0.23045231
107	0xbcd08d11	-0.02545789
108	0xbea6fe38	-0.3261583
109	0xbec1576c	-0.3776201
110	0xbe954da1	-0.2916079
111	0xbe7a6061	-0.24450828
112	0xbe422766	-0.18960342
113	0xbe9c321b	-0.30506977
114	0xbf03c28a	-0.5146872
115	0xbec3d30b	-0.3824695
116	0x3d0c3e78	0.034239262
117	0xbe3fc524	-0.18727547
118	0xbcac705e	-0.021049675
119	0xbe6f7af5	-0.23386748
120	0xbe8e6417	-0.27810737
121	0xbe0d60d0	-0.13806462
122	0xbefe081d	-0.49615565
123	0x3dad1698	0.08451575
124	0xbe902fe1	-0.2816153
125	0xbeb467ad	-0.35235348
126	0xbeba8e64	-0.3643676
127	0xbead1c32	-0.33810574
128	0xbe364ad7	-0.17801987
129	0xbd93834a	-0.07202776
130	0xbdaaa84b	-0.083328806
131	0x3d1089b2	0.035287566
132	0xbde3a7bb	-0.111159764
133	0xbe0f51b3	-0.1399601
134	0xbe23fe90	-0.16015077
135	0x3c88bb62	0.016690914
136	0xbde5d2b4	-0.11221829
137	0xba95b307	-0.0011421152
138	0xbcf9c878	-0.030491099
139	0xbdaf1c47	-0.08550315
140	0xbd5b1285	-0.05348446
141	0x3cf59607	0.029978765
142	0xbe1ffe56	-0.15624365
143	0xbe40418b	-0.18775003
144	0xbdba744e	-0.091042146
145	0x3d258322	0.04040826
146	0xbdf6efa1	-0.12057424
147	0xbda44761	-0.08021427
148	0x3d5fe7b7	0.05466434
149	0xbd75a65f	-0.059973117
150	0xbd21fd65	-0.039548296
151	0xbd9738b0	-0.07383859
152	0xbd658e68	-0.056044012
153	0xbd1b87a1	-0.037971143
154	0x3b687840	0.0035472065
155	0xbdf16c23	-0.117882036
156	0xbe245b62	-0.16050485
157	0xbd0c82f3	-0.03430457
158	0xbdd45d1b	-0.10369321
159	0xbe2ce79b	-0.16885225
160	0xbdd97d55	-0.10619608
161	0xbd8b8f9b	-0.068145
162	0x3d605860	0.05477178
163	0x3b4bec90	0.0031116344
164	0xbe00e4ec	-0.12587327
165	0x3c2b1998	0.010443114
166	0x3ca34bc9	0.019933598
167	0x3ca44579	0.020052658
168	0xbe1fe2bd	-0.15613838
169	0xbcde5a6a	-0.027142722
170	0x3d72758b	0.05919413
171	0x3cd5841e	0.026063975
172	0xbd4d3804	-0.05010225
173	0xbe2d88f3	-0.16946773
174	0xbba54be8	-0.005044449
175	0x3a28189b	0.0006412358
176	0xbe1f72d2	-0.15571144
177	0xbdf21801	-0.11820985
178	0xbe11bbd3	-0.14231806
179	0xbd91fcaf	-0.07128274
180	0xbe1d60ff	-0.15369032
181	0xbda345ee	-0.079723224
182	0xbd39da69	-0.045374308
183	0xbcf89c3e	-0.03034794
184	0xbdc2ca87	-0.09511285
185	0xbe3b0d4e	-0.18266794
186	0xbe2a782d	-0.16647406
187	0x3c11893e	0.008882819
188	0xbdfa66d6	-0.12226646
189	0xbd9fd99f	-0.0780518
190	0xbdfdc746	-0.12391524
191	0x3c013aa9	0.007887521
192	0xbdf9c0ff	-0.12195014
193	0x3d1baa90	0.038004458
194	0xbe163d4d	-0.14671822
195	0xbd8a9c7f	-0.067681305
196	0xbecc2533	-0.3987213
197	0x3cb764e6	0.02238698
198	0xbe1d35e8	-0.15352595
199	0xbdb1192a	-0.08647378
200	0xbe58b070	-0.21161056
201	0xbf548956	-0.8302206
202	0xbea977df	-0.33099267
203	0xbedb81df	-0.4287252
204	0x3d1e13a8	0.038592964
205	0xbee99a9d	-0.45625773
206	0xbd79d812	-0.060997076
207	0xbd28108f	-0.041031417
208	0xbe06b9a6	-0.13156757
209	0xbddc3c70	-0.10753715
210	0xbe32ebfe	-0.17472836
211	0xbccade00	-0.024764061
212	0xbe8f5c41	-0.28000072
213	0x3ceb7ca2	0.028745953
214	0xbe29b6ed	-0.16573687
215	0xbee73b41	-0.45162395
216	0xbc90941d	-0.01764875
217	0xbd5a9068	-0.053360373
218	0x3e18212a	0.14856401
219	0xbe54a3fc	-0.2076568
220	0xbb8e2c2a	-0.004338761
221	0xbdd2b6d6	-0.102887794
222	0xbe78d673	-0.24300556
223	0xbf0680af	-0.52540106
224	0xbe022847	-0.12710677
225	0x3ad2d55a	0.0016085312
226	0xbd6fc12d	-0.058533836
227	0xbe2cb861	-0.1686721
228	0x3e3af4a0	0.1825738
229	0xbd229850	-0.039696038
230	0xbe8b4a2f	-0.27205035
231	0xbe1dece0	-0.15422392
232	0x3d3a58ef	0.04549497
233	0x3ccfa107	0.025345339
234	0x3dc46422	0.09589411
235	0xbdff07e4	-0.12452677
236	0xbd036a86	-0.03208401
237	0xbc88d3d0	-0.016702563
238	0xbdbef836	-0.09324686
239	0xbc7020c5	-0.01465625
240	0xbdc430d5	-0.095796265
241	0xbda1aa4b	-0.07893809
242	0xbc31546e	-0.010823352
243	0xbd2b2339	-0.041781638
244	0x3db599a2	0.08867194
245	0xbe10fb97	-0.14158474
246	0x3d539435	0.051655013
247	0xbe0fd7f8	-0.1404723
248	0xbd810971	-0.06300629
249	0xbdc35389	-0.095374174
250	0x3e8b7bed	0.27242985
251	0xbe0c647e	-0.1371021
252	0xbedff2ba	-0.43739873
253	0xbf388aa3	-0.7208654
254	0xbf252276	-0.6450571
255	0xbf28cbff	-0.65936273

bias f4 [16]
0	0xbee8cf3f	-0.45470616
1	0xbf0bae59	-0.5456291
2	0xbd882d4d	-0.066492654
3	0xbf16f515	-0.58967716
4	0xbe5910fb	-0.21197884
5	0xbeea26d0	-0.45732737
6	0xbef34dec	-0.47520387
7	0xbed0745d	-0.40713778
8	0x3e765d01	0.24058916
9	0xbea94803	-0.33062753
10	0xbee77aed	-0.45210972
11	0xbebd4c17	-0.36972114
12	0xbe5e09d1	-0.21683432
13	0xbdfc7c4a	-0.12328394
14	0x3d749b6f	0.059718546
15	0xbca97745	-0.020686755

weight f4 [16, 16, 5]
0	0x3dc0a1c5	0.09405855
1	0xbd69738a	-0.056994952
2	0xbbc74afc	-0.006081937
3	0x3cfb1a68	0.03065224
4	0x3dda26bc	0.10651919
5	0xbc0cb5ff	-0.008588313
6	0xbc5b06ca	-0.013368318
7	0xbdd61be6	-0.1045454
8	0x3dd7d6bb	0.105390035
9	0xbdb3365a	-0.08750601
10	0xbb8e51e1	-0.004343257
11	0xbdb8c070	-0.090210795
12	0xbb9fa1cf	-0.004871584
13	0xbe11f8bc	-0.14255041
14	0xbe03ad84	-0.1285916
15	0x3e9c8ff5	0.3057858
16	0xbe9c735a	-0.30556756
17	0x3e6be45f	0.23036335
18	0x3d6c1a38	0.05764219
19	0x3bf0d67d	0.0073497877
20	0xbd136574	-0.035985425
21	0xbc6815ab	-0.014165322
22	0x3d772190	0.060334742
23	0xbdc83438	-0.09775585
24	0x3d209413	0.039203715
25	0xbe7d24ab	-0.24721019
26	0xbe85c907	-0.26129934
27	0xbdbbd59e	-0.091716036
28	0xbf23bacf	-0.6395692
29	0xbecbf2bd	-0.39833632
30	0xbeecdf16	-0.4626395
31	0x3e1cb1ed	0.15302248
32	0x3eacb957	0.33735153
33	0x3ecad00d	0.39611855
34	0xbf19e88a	-0.6012045
35	0xbe9f29e3	-0.31086645
36	0x3c9c2459	0.0190603
37	0x3eb91184	0.36146176
38	0x3e34a4f1	0.17641045
39	0xbc669ee5	-0.014075969
40	0xbd405381	-0.046954636
41	0xbd76976b	-0.060202997
42	0x3c0011a4	0.007816706
43	0xbc8bb25b	-0.01705282
44	0x3d529fcc	0.051421925
45	0xbd2d65a3	-0.042333256
46	0xbf1f78ba	-0.6229359
47	0xbd67f601	-0.056631092
48	0xbf3b410a	-0.73146117
49	0xbe8e6af1	-0.27815965
50	0xbbd3e4f0	-0.0064665005
51	0xbdabcf11	-0.08389104
52	0xbdc73388	-0.09726626
53	0xbe5987ed	-0.21243258
54	0x3d4a6454	0.049412087
55	0xbe549481	-0.20759775
56	0xbe6899ea	-0.22714964
57	0x3e40f386	0.18842897
58	0xbe8abd78	-0.27097678
59	0xbedfc47a	-0.43704587
60	0x3d0f6bdb	0.03501497
61	0xbe15c436	-0.1462563
62	0xbe2e1abc	-0.17002386
63	0xbe040bbd	-0.12895103
64	0xbe1320fc	-0.14368051
65	0xbca16d1a	-0.019705344
66	0x3d7807f5	0.060554463
67	0x3dac0a5c	0.084004134
68	0xbbbd507a	-0.005777416
69	0xbcfded66	-0.03099699
70	0xbe8a2cf5	-0.26987424
71	0xbd992da8	-0.07479411
72	0x3e5e232d	0.21693106
73	0x3e95ae84	0.29234707
74	0x3e800ff4	0.2501217
75	0xbbc5fed0	-0.006042339
76	0xbd21225d	-0.039339412
77	0x3d242671	0.040075723
78	0x3d4fb2ad	0.050707508
79	0x3d200fed	0.039077688
80	0xbd062d47	-0.032758024
81	0xbd686e76	-0.05674597
82	0x3d3861a6	0.045015
83	0x3b0d8d0f	0.002159897
84	0x3d2fa11b	0.04287825
85	0x3d096580	0.033544064
86	0x3e3704ae	0.17872879
87	0xbeaf7d41	-0.3427525
88	0x3e33b554	0.1754964
89	0x3e1bb890	0.15207124
90	0xbdd99dc4	-0.106257945
91	0xbd3870c7	-0.045029428
92	0xbddc926f	-0.107701175
93	0x3cb9da78	0.022687182
94	0x3db6015c	0.08886978
95	0x3c3c7038	0.011501364
96	0xbd5f3d74	-0.054501966
97	0x3b615dca	0.0034388178
98	0xbc108e8c	-0.008823048
99	0xbe837fe7	-0.2568352
100	0xbdf046e5	-0.11732272
101	0xbdb78239	-0.08960385
102	0xbde47f4e	-0.11157094
103	0xbe8344ea	-0.25638515
104	0x3d855dda	0.065120414
105	0xbef36236	-0.47535866
106	0xbe097fdf	-0.13427685
107	0x3d9a28f8	0.075273454
108	0xbe9fa7e9	-0.31182793
109	0xbe7da38a	-0.24769416
110	0xbf086b1f	-0.53288454
111	0xbdf89fd3	-0.12139859
112	0xbece5499	-0.40298918
113	0xbedbe137	-0.42945263
114	0xbc3bc396	-0.011460206
115	0xbc815096	-0.015785497
116	0x3d8fb4d9	0.07016916
117	0xbced8780	-0.028995275
118	0xbe1e86fd	-0.15481181
119	0x3d51ac84	0.051189914
120	0x3ecbd7d8	0.39813113
121	0x3f6c1a1f	0.9222736
122	0xbe5caba3	-0.21549849
123	0x3df82ed6	0.12118308
124	0xbc981ef8	-0.018569455
125	0xbd708189	-0.058717284
126	0xbdb2dce3	-0.08733537
127	0xbf0f1055	-0.55884296
128	0xbde6f116	-0.11276452
129	0x3d2b14d6	0.041767918
130	0x3cd4acd3	0.025961315
131	0xbe01c464	-0.12672573
132	0x3e045515	0.12923081
133	0xbdfd04f1	-0.12354458
134	0xbcc4b316	-0.024011176
135	0x3d82b044	0.06381276
136	0xbee03788	-0.43792367
137	0xbe167c2d	-0.14695807
138	0x3e00e638	0.12587821
139	0xbeeb41a0	-0.45948505
140	0xbd969ab5	-0.07353727
141	0x3bbb78f6	0.005721207
142	0xbdfbc831	-0.12294043
143	0x3cd111b1	0.025521131
144	0xbdf9a643	-0.12189915
145	0x3c609cfd	0.013709304
146	0xbccba83a	-0.02486049
147	0xbe12847f	-0.14308356
148	0xbded776e	-0.11595045
149	0xbe1500df	-0.14551114
150	0xc12fcedb	-10.988002
151	0xbea07640	-0.31340218
152	0xbf0786ba	-0.5293995
153	0xbe05026b	-0.12989204
154	0x3e8e86ba	0.27837163
155	0xbd9037c9	-0.0704189
156	0xbee9cabd	-0.4566249
157	0xbea01278	-0.3126409
158	0xbe2f3827	-0.17111264
159	0xbda571aa	-0.0807832
160	0x3e205b3b	0.15659802
161	0xbd744831	-0.05963916
162	0x3e04e14a	0.12976566
163	0xbd137211	-0.035997454
164	0xbc363645	-0.011121337
165	0xbdb6435d	-0.08899567
166	0xbdf58c2e	-0.11989628
167	0xbe1703bb	-0.14747517
168	0xbbf81be0	-0.0075716823
169	0xbca617d5	-0.020275036
170	0xbd20d2ef	-0.039263662
171	0xbe026df6	-0.1273726
172	0xbe0f0f9b	-0.13970797
173	0xbc3f23de	-0.011666266
174	0xbc9b105a	-0.018928695
175	0xbe3ba19b	-0.18323366
176	0xbe26a9d5	-0.16275723
177	0xbd87641b	-0.066108905
178	0xbccfbfca	-0.025360007
179	0xbdb80da3	-0.08986976
180	0xbd5d06dd	-0.053961623
181	0xbd9d2eae	-0.07674919
182	0x3da9e6da	0.082959846
183	0x3def2c27	0.11678343
184	0xbb8bd534	-0.004267359
185	0xbf9513a7	-1.1646622
186	0x3f7bddf0	0.98385525
187	0xbe34a7fe	-0.17642209
188	0xbdb9a832	-0.09065284
189	0x3ba471ea	0.0050184624
190	0x3e0a7312	0.13520458
191	0xbd3b48dd	-0.045723785
192	0x3e0a7a5f	0.13523243
193	0xbe153fd0	-0.14575124
194	0xbe6180ba	-0.22021762
195	0xbdba0e71	-0.09084786
196	0xbdfcda70	-0.12346351
197	0x3dd7f0fe	0.105440125
198	0xbd33c68f	-0.043890532
199	0xbd36e418	-0.04465112
200	0x3d90ed89	0.07076556
201	0xbf0abaf6	-0.5419153
202	0xbe1a8fc5	-0.15093906
203	0xbe242df2	-0.16033152
204	0x3e44fec6	0.19237813
205	0xbd1d5f84	-0.03842117
206	0xbcb19fc1	-0.021682622
207	0x3b210188	0.0024567563
208	0x3d082bcb	0.03324489
209	0xbda5f5e8	-0.081035435
210	0xbd8cb16f	-0.0686978
211	0x3d514006	0.051086448
212	0x3c88ea33	0.016713237
213	0x3d6132b7	0.054980006
214	0xbc3166d7	-0.010827742
215	0xbe53bf04	-0.20678335
216	0xbd0fa4fc	-0.03506945
217	0x3e5ec95b	0.21756499
218	0x3e9cf9c1	0.30659297
219	0xbe87db0f	-0.26534316
220	0x3d098ac8	0.033579618
221	0xbd212f85	-0.03935196
222	0xbd07de16	-0.033170782
223	0xbe221242	-0.15827277
224	0x3cec680f	0.028858213
225	0x3ddef48f	0.108864896
226	0xbd5dc334	-0.05414124
227	0x3e02b965	0.12766035
228	0xbd123d63	-0.035703074
229	0xbdc9d1cc	-0.09854469
230	0xbf2af6c1	-0.66782767
231	0xbe0777f8	-0.13229358
232	0xbf5943ce	-0.84869087
233	0x3cc5bb68	0.024137214
234	0xbf29edff	-0.6637878
235	0xbf203d50	-0.62593555
236	0xbf24e979	-0.6441875
237	0x3cec3928	0.028835848
238	0xbf268f66	-0.6506256
239	0xbf0dca3e	-0.5538672
240	0x3d060224	0.032716885
241	0x3dfd3d27	0.123651795
242	0xbd80dd7c	-0.06292245
243	0xbe86003f	-0.26172063
244	0x3df7394c	0.120714754
245	0x3e601e49	0.21886553
246	0xbd7e332d	-0.062060524
247	0x3d651e2d	0.05593698
248	0xbe9bafe2	-0.30407625
249	0xbe09f76b	-0.13473289
250	0xbdaaa46c	-0.08332142
251	0xbad214ef	-0.0016027967
252	0x3ba43be8	0.005012024
253	0xbc6c44a7	-0.014420665
254	0xbdf5621e	-0.11981605
255	0x3e8a6c93	0.2703596

bias f4 [16]
0	0xbe4ec788	-0.20193303
1	0x3ea28028	0.317384
2	0xbff12bfc	-1.8841548
3	0x3e058d88	0.13042271
4	0xbec02e6f	-0.37535426
5	0xbe6b93c0	-0.23005581
6	0xbd426c24	-0.047466412
7	0xbc2836d5	-0.010266979
8	0x3ed6a68d	0.41923943
9	0x3d212953	0.03934605
10	0x3e8cada1	0.27476218
11	0x3e9ad713	0.30242214
12	0xbf7bf0f2	-0.9841453
13	0x3eb5d17a	0.3551138
14	0xbeb2666a	-0.3484376
15	0xbdbb54c8	-0.0914703

weight f4 [16, 16, 5]
0	0xbe8b2baa	-0.2718175
1	0x3e27e113	0.16394453
2	0x3e5de15f	0.21668003
3	0x3ec86190	0.39136934
4	0x3e1c457f	0.15260886
5	0x3dd7634a	0.10516985
6	0x3f06cf4e	0.5266007
7	0x3f2d93d7	0.6780371
8	0x3f4fd863	0.81189555
9	0x3f98b42a	1.1929982
10	0xbe974d39	-0.29551104
11	0x3d93a965	0.07210044
12	0xbe427e43	-0.18993478
13	0xbea0147c	-0.31265628
14	0x3e783241	0.2423792
15	0xbd807560	-0.062723875
16	0xbeff1cb3	-0.49826583
17	0xbd97aa5b	-0.074055396
18	0x3e1ff5c1	0.15621091
19	0x3e91c0b3	0.2846733
20	0x3ec25b3d	0.37960234
21	0x3f10754d	0.56428987
22	0x3ed29316	0.41127843
23	0x3e98c182	0.29835135
24	0x3e2f638b	0.17127816
25	0x3ce4137d	0.027841324
26	0xbd98cfe9	-0.07461531
27	0xbd08dee0	-0.033415675
28	0xbcb78369	-0.022401528
29	0x3d558180	0.052125454
30	0x3ef3867d	0.47563544
31	0xbea726c9	-0.32646778
32	0xbf935b78	-1.1512289
33	0xbec94bbf	-0.39315602
34	0xbe9922fd	-0.29909506
35	0xbf10d4c2	-0.5657464
36	0xbffb6130	-1.9639034
37	0xc053ee1b	-3.3114078
38	0x3e9b03e7	0.30276415
39	0xbec065e0	-0.37577724
40	0xbebb68fc	-0.36603534
41	0xbfc82922	-1.5637553
42	0xbf8459b8	-1.033988
43	0xbf1aed0e	-0.60517967
44	0x3f90a567	1.1300477
45	0x3f02e4a2	0.51130116
46	0xbec0b639	-0.37639025
47	0xbf000ca9	-0.5001932
48	0xbe4fb6ce	-0.20284578
49	0xbe8181c1	-0.25294307
50	0xbe895eb3	-0.26830062
51	0x3eca5b3f	0.3952274
52	0xbf9ac34e	-1.2090852
53	0xbe22567b	-0.15853302
54	0xbf4b5a10	-0.794343
55	0x3f1998a2	0.59998524
56	0xbed7abfa	-0.42123395
57	0xbfc45171	-1.5337354
58	0xbf3e5cf5	-0.7436059
59	0x3d9bb535	0.07602922
60	0x3d8f3764	0.06992987
61	0xbdc9ec19	-0.09859485
62	0xbd7fe977	-0.06247851
63	0xbe32b03e	-0.17450044
64	0x3e0584e7	0.1303898
65	0x3f513e95	0.8173612
66	0x3e0d7e51	0.13817717
67	0xbf00b30b	-0.502732
68	0x3e0c2bf2	0.13688639
69	0x3f23c304	0.63969445
70	0xbd51bc80	-0.05120516
71	0xbde5aab9	-0.112142034
72	0xbcb15441	-0.02164662
73	0xbc8d2778	-0.017230734
74	0xbe5d3f5c	-0.21606201
75	0x3eec88ce	0.46198124
76	0x3e729762	0.2369056
77	0xbdca875e	-0.098891005
78	0xbe76d6ad	-0.2410533
79	0x3e55e794	0.20889121
80	0xbf1fb72b	-0.6238887
81	0xbef1d05f	-0.47229287
82	0xbec2bcae	-0.38034576
83	0xbdd8f6b5	-0.10593931
84	0xbe41aed7	-0.18914352
85	0xbdf1232e	-0.11774288
86	0xbe2b38b1	-0.16720845
87	0x3d8756dc	0.06608364
88	0xbeaa60ea	-0.33277065
89	0xbe0a370c	-0.13497561
90	0xbe186f26	-0.1488615
91	0xbd8c3355	-0.06845728
92	0xbe047605	-0.12935646
93	0xbec5073c	-0.38482082
94	0xbe8b56bc	-0.2721461
95	0x3d3cb756	0.04607328
96	0xbe97db99	-0.29659727
97	0xbf07cce3	-0.5304701
98	0xbe92128d	-0.28529778
99	0xbd52f10d	-0.051499415
100	0xbd193124	-0.03740038
101	0x3d2b9d17	0.04189786
102	0xbdd98bfa	-0.106224015
103	0xbdb8fb0d	-0.09032259
104	0x3b919d00	0.0044437647
105	0xbe1c6a1b	-0.15274851
106	0xbe3532cf	-0.17695163
107	0xbe07c553	-0.13258867
108	0xbe344547	-0.17604552
109	0xbdc44ff5	-0.09585563
110	0xbd905381	-0.07047177
111	0xbe93ec84	-0.28891385
112	0xbe90c636	-0.28276223
113	0xbe131662	-0.14364007
114	0x3d550722	0.052008756
115	0xbe900843	-0.28131303
116	0xbe4aa0a3	-0.1978784
117	0xbe2dca58	-0.1697172
118	0xbd99868c	-0.07496366
119	0xbe55d95c	-0.20883697
120	0xbdb20391	-0.086920865
121	0xbc73b651	-0.014875011
122	0xbe6fef46	-0.2343112
123	0xbe7388b5	-0.23782618
124	0xbef40dc7	-0.4766676
125	0xbe0270b5	-0.12738307
126	0xbeae45e8	-0.3403771
127	0xbf021a7f	-0.5082168
128	0xbe7d4a01	-0.24735261
129	0xbe3ec831	-0.18631054
130	0xbcbed1e9	-0.023293452
131	0xbe227292	-0.15864018
132	0xbd4d3e4b	-0.050108235
133	0xbd7a73aa	-0.061145462
134	0xbdab9f1c	-0.08379957
135	0xbebe8a2f	-0.372148
136	0xbe71cd1f	-0.23613404
137	0xbf0022fd	-0.5005339
138	0x3caf006b	0.021362504
139	0xbe88c0c2	-0.26709563
140	0xbd221033	-0.03956623
141	0x3c2f6d27	0.010707176
142	0xbe0c4f4a	-0.13702121
143	0x3c777a88	0.015104897
144	0x3ccf73cf	0.025323777
145	0xbe36cd91	-0.17851855
146	0xbddab541	-0.10679103
147	0xbde0c30d	-0.10974703
148	0xbe606d2b	-0.21916644
149	0xbe706f0c	-0.23479861
150	0xbd38dc2b	-0.045131844
151	0xbdb251a3	-0.08706977
152	0x3d0a5092	0.033768244
153	0x3c95937e	0.018258806
154	0xbcee6c85	-0.02910448
155	0xbef60507	-0.4805071
156	0xba216c4e	-0.0006157801
157	0xbef2eb37	-0.4744508
158	0xbe87d57f	-0.26530072
159	0xbe33fb11	-0.17576243
160	0x3e80cfb9	0.2515848
161	0xbe8b1f74	-0.27172434
162	0xbf01f9bb	-0.50771683
163	0x3e14263f	0.14467715
164	0xbe9413c1	-0.2892132
165	0xbf849373	-1.0357498
166	0xbf2bd166	-0.6711639
167	0xbf4d1447	-0.80109066
168	0x3c752042	0.014961304
169	0xbe9940e1	-0.2993231
170	0xbf13c888	-0.5772786
171	0xbe8d8e1b	-0.2764748
172	0xbf284d62	-0.65743077
173	0xbeb82db1	-0.3597236
174	0xbdb00147	-0.08593994
175	0x3e9f3529	0.31095245
176	0xbeda7674	-0.42668498
177	0xbe6cf826	-0.23141536
178	0x3ddc6f46	0.10763411
179	0x3e178c6d	0.14799662
180	0xbee2cd7e	-0.44297403
181	0xbe835f67	-0.25658724
182	0xbe9d9e5d	-0.30784884
183	0x3d50b92e	0.05095785
184	0x3dde70ca	0.108613566
185	0xbc970460	-0.018434703
186	0x3d65dce6	0.05611887
187	0x3c0c2f89	0.008556255
188	0xbd947f9a	-0.072509006
189	0xbcdcaf54	-0.026939072
190	0x3f1d38d7	0.61414856
191	0xbdb3f0c2	-0.08786155
192	0xbfac7564	-1.3473325
193	0x3d2b2d40	0.0417912
194	0xbd050f0b	-0.03248505
195	0xbed9d7f3	-0.4254757
196	0xbf804f1b	-1.0024141
197	0x3d4d1b43	0.050074827
198	0x3ce10836	0.027469736
199	0xbfd3b5c0	-1.6539841
200	0xbedc603f	-0.4304218
201	0xbe17a001	-0.1480713
202	0xbf99eae6	-1.202481
203	0xbf39866d	-0.7247074
204	0x3eebfa7c	0.46089542
205	0x3f3e2b21	0.7428456
206	0x3eecff92	0.46288735
207	0x3d7febcc	0.062480733
208	0xbdb4f78d	-0.08836279
209	0xbe41b105	-0.18915184
210	0xbefbe264	-0.4919616
211	0xbe7c14e7	-0.24617349
212	0xbe8b1d26	-0.27170676
213	0xbe939f36	-0.28832406
214	0xbe859d7f	-0.26096722
215	0xbf8439ad	-1.0330101
216	0xbe6702ed	-0.2255971
217	0x3e5d7d6b	0.21629874
218	0x3f2adac4	0.6674006
219	0x3ea4f05b	0.32214627
220	0xbeaa687d	-0.33282843
221	0xbdb4436d	-0.08801923
222	0xbef4b5f0	-0.47795057
223	0x3d1fa8ae	0.038979225
224	0xbe0d83bb	-0.13819782
225	0xbedf581d	-0.43621913
226	0xbed72578	-0.42020774
227	0xbeaeac74	-0.34115946
228	0x3f27a970	0.65492916
229	0x3f431a70	0.76212215
230	0x3c7b5c8c	0.015341889
231	0x3c95310f	0.01821187
232	0xbced2971	-0.028950425
233	0xbe09e7b7	-0.13467298
234	0xbdd06ea4	-0.10177353
235	0xbf052c1a	-0.5202042
236	0x3f391948	0.723042
237	0xbd9727be	-0.07380627
238	0x3e0b420f	0.13599418
239	0x3d241834	0.040062144
240	0xbdef23ac	-0.11676726
241	0xbd2fe3d2	-0.042941876
242	0xbe2e20d2	-0.17004707
243	0xbe4e3f96	-0.20141444
244	0xbe47116c	-0.1944024
245	0xbe0a6d8b	-0.1351835
246	0xbdc75acf	-0.09734117
247	0xbe27be04	-0.16381079
248	0xbd0b9879	-0.034080956
249	0xbc062769	-0.008188107
250	0x3d00b1dd	0.031419624
251	0x3b09dea9	0.0021037257
252	0x3c6c751b	0.014432217
253	0x3ab25470	0.0013605487
254	0x3d66b1d8	0.05632195
255	0x3bf30ea1	0.0074175154

bias f4 [16]
0	0x3ede0cd1	0.43369153
1	0xbe5c1bd8	-0.21494997
2	0x3e0ab087	0.13543902
3	0xbea62556	-0.3245036
4	0xbe448c37	-0.19194113
5	0xbeb3462a	-0.35014468
6	0x3f63114f	0.88698286
7	0xbbc4bd06	-0.0060039787
8	0xbed4acd8	-0.4153812
9	0x3dbaf077	0.09127896
10	0xbefddd5c	-0.49582946
11	0x3eaa717b	0.33289704
12	0x3e58e1f4	0.21179944
13	0xbd90dbe9	-0.070731945
14	0xbf3867a7	-0.7203316
15	0x3ef759a7	0.48310587

weight f4 [64, 112]
0	0x3e36c900	0.17850113
1	0x3e0db1bb	0.1383733
2	0x3d957b4c	0.07298908
3	0x3dc8ad65	0.097986974
4	0x3e4d8472	0.20070055
5	0x3e022d92	0.12712696
6	0x3f7d8642	0.99032986
7	0xbda32b7d	-0.07967279
8	0x3cb4faef	0.02209231
9	0xbcebdeb6	-0.02879272
10	0x3ea70f38	0.32628798
11	0xbd938e6a	-0.07204898
12	0xbe94c64d	-0.2905754
13	0x3d1c6185	0.03817894
14	0x3be63d77	0.00702637
15	0x3ebd1101	0.36927035
16	0x3dd2ad59	0.1028697
17	0xbe720932	-0.2363632
18	0xbc6141e2	-0.013748618
19	0xbe576a1c	-0.21036571
20	0x3d84a9ee	0.06477724
21	0x3e81d231	0.25355676
22	0x3d77a6cd	0.060461808
23	0x3cd20ee4	0.025641866
24	0x3de52c22	0.11190058
25	0xbc69c63e	-0.014268456
26	0xbd2dd655	-0.04244073
27	0x3d99bf95	0.075072445
28	0x3d536c89	0.05161718
29	0xbbc90cd4	-0.0061355624
30	0x3e02e5ac	0.12782925
31	0xbda89af2	-0.082326785
32	0xbb633a17	-0.0034672075
33	0xbcc9e812	-0.024646793
34	0x3dcfe138	0.10150379
35	0x3f11e288	0.56986284
36	0x3ed422ee	0.414329
37	0x3f39be62	0.72556126
38	0x3f313a8a	0.6922995
39	0x3ed649c0	0.41853142
40	0x3ea1c5dd	0.3159627
41	0x3efafa80	0.4901924
42	0xbdbbce1a	-0.0917017
43	0x3d3b2ce5	0.04569711
44	0x3e69787f	0.22799872
45	0xbdfa7ec2	-0.122312084
46	0x3e4aaddf	0.19792889
47	0xbd04f7f6	-0.032463036
48	0xbd8c6c65	-0.06856612
49	0xbe1b01cb	-0.15137403
50	0x3f3607e2	0.7110578
51	0x3e446d82	0.19182399
52	0x3ed99d25	0.42502704
53	0x3e97bec9	0.29637745
54	0x3c8f3584	0.017481573
55	0xbf36f273	-0.714637
56	0xbe27966a	-0.16365972
57	0x3e1f0d6f	0.15532468
58	0xbc9ce0f4	-0.019150235
59	0x3d5f9699	0.05458698
60	0xbdffa7e4	-0.124831945
61	0x3e0ea513	0.13930158
62	0x3e8cb9b1	0.2748542
63	0xbf1bb687	-0.6082539
64	0x3ec412c1	0.38295558
65	0xbf3025cb	-0.6880767
66	0x3e08f3dd	0.13374276
67	0xbe9236d3	-0.28557453
68	0x3bb518ae	0.0055266237
69	0x3ff23b5c	1.8924365
70	0x3e09b161	0.13446571
71	0xbe1a06b8	-0.15041625
72	0x3a2cd2c3	0.0006592685
73	0xbe4bf42a	-0.1991736
74	0xbbd87ecb	-0.006606912
75	0xbe177f36	-0.14794621
76	0xbdf5f949	-0.12010438
77	0xbe87d87b	-0.2653235
78	0xbdbe14f1	-0.09281338
79	0xbf326618	-0.6968703
80	0xbe2e485b	-0.17019789
81	0xbe5b3b17	-0.2140926
82	0x3cba9198	0.022774503
83	0x3d6973d6	0.056995235
84	0x3dd59764	0.10429266
85	0x3e91d0d8	0.28479648
86	0x3f2bc354	0.6709492
87	0xbcb17d19	-0.021666097
88	0x3f2fbef8	0.6865077
89	0x3e367692	0.17818668
90	0x3f744b6b	0.9542758
91	0x3c5b52cb	0.013386439
92	0x3d27faf9	0.04101083
93	0xbcae3c80	-0.021269083
94	0x3da1472d	0.07874904
95	0x3c68cdbc	0.014209207
96	0x3d8f2a2d	0.06990466
97	0x3c10186f	0.008794888
98	0xbd6af97a	-0.057366826
99	0x3daf087b	0.085465394
100	0xbe596a84	-0.21232039
101	0xbda7c9b7	-0.08192771
102	0x3a646ee2	0.00087140326
103	0xbe61597a	-0.22006789
104	0x3bd3e7ed	0.0064668567
105	0x3d4e41ea	0.05035583
106	0x3db8cf37	0.09023898
107	0xbd1ad8a0	-0.037804246
108	0xbd4baadc	-0.04972349
109	0x3ed09119	0.407357
110	0x3e324897	0.17410503
111	0x3f000a57	0.5001578
112	0xbbe08706	-0.0068520335
113	0xbce6b945	-0.028164515
114	0xbe02b474	-0.1276415
115	0xbcecc147	-0.028900756
116	0xbddce1a7	-0.10785227
117	0x3bf47150	0.007459797
118	0xbe207bbe	-0.15672204
119	0xbbd80c7b	-0.0065932847
120	0xbd289dc5	-0.041166086
121	0x3b2554ee	0.0025227624
122	0xbdb9b882	-0.09068395
123	0x3cd3ad0b	0.02583935
124	0xbe138864	-0.14407498
125	0xbd862aee	-0.06551157
126	0xbd84537c	-0.06461236
127	0xbcd23d5b	-0.025664022
128	0xbd0187dd	-0.03162371
129	0xbd51f475	-0.051258523
130	0xbc8a8e1a	-0.016913462
131	0xbdaf90fe	-0.08572577
132	0x3cde0dc7	0.027106179
133	0xbb7607ee	-0.0037541348
134	0xbe0b07af	-0.1357715
135	0xbe189ac0	-0.14902782
136	0xbd6f61a1	-0.058442716
137	0xbda6a67f	-0.08137225
138	0xbcda5459	-0.026651548
139	0xbdd956c7	-0.106122546
140	0xbd78d694	-0.060751513
141	0xbe0e1422	-0.13874868
142	0xbdee9a33	-0.11650505
143	0xbd925ce0	-0.07146621
144	0xbcf06b69	-0.029348092
145	0x3e0711cb	0.13190381
146	0xbd72bb69	-0.05926076
147	0x3c20b810	0.009809509
148	0xbdc05c5e	-0.09392618
149	0xbdefe584	-0.117136985
150	0xbdf25983	-0.11833479
151	0xbd35bd97	-0.04437026
152	0x3c8ebbbf	0.017423509
153	0xbd4a18af	-0.049339946
154	0xbe090320	-0.13380098
155	0x3b6248fc	0.0034528365
156	0xbc3c3840	-0.01148802
157	0xb97db55b	-0.0002419552
158	0xbcb014bf	-0.021494268
159	0xbc57f0cc	-0.013179969
160	0xbd04f080	-0.03245592
161	0xbdca2660	-0.09870601
162	0xbe1bb71c	-0.1520657
163	0xbe22e5fd	-0.15908046
164	0xbe081243	-0.13288216
165	0xbd832e78	-0.064053476
166	0x3c21bc00	0.009871483
167	0xbe0c282a	-0.13687196
168	0xbe08b61d	-0.1335072
169	0xbc9f17a2	-0.019420449
170	0xbe00ba8f	-0.12571166
171	0xbdd63727	-0.10459738
172	0xbdb0f6b6	-0.086408064
173	0xbbc9537e	-0.0061439862
174	0xbcdb3fd4	-0.026763834
175	0xbd641e07	-0.0556927
176	0xbda6c14c	-0.08142337
177	0xbd55f1aa	-0.052232422
178	0xbdcf49e5	-0.10121516
179	0x3cbb31c8	0.022850886
180	0xbdb2289f	-0.08699154
181	0xbd0a455f	-0.033757564
182	0x3c16da91	0.009207384
183	0xbe163ab8	-0.14670837
184	0xbd466fb3	-0.04844637
185	0x3e0305f8	0.12795246
186	0xbc4d9924	-0.012548719
187	0xbdf0efcc	-0.117644876
188	0xbdb89d6f	-0.09014403
189	0xbccf2713	-0.025287187
190	0xbd5b7597	-0.05357894
191	0xbd482fba	-0.04887364
192	0xbcaa011f	-0.020752488
193	0xbda88d28	-0.082300484
194	0xbdd8ff4e	-0.105955705
195	0xbdb328ed	-0.0874804
196	0xbdb550c2	-0.08853294
197	0xbd21b141	-0.039475683
198	0xba2b21df	-0.00065281795
199	0xbccc7159	-0.024956392
200	0xbaa26b55	-0.0012391607
201	0xbe08383c	-0.13302702
202	0xbe191c9c	-0.1495232
203	0xbb8b33ab	-0.0042481027
204	0xbd21c3c3	-0.039493334
205	0xbd2fcef1	-0.042921964
206	0xbd13fa14	-0.036127165
207	0xbdba94dd	-0.09110425
208	0xbdfffb3f	-0.12499093
209	0xbd09830d	-0.033572245
210	0xbd8ff05f	-0.07028269
211	0xbe0051b5	-0.12531169
212	0xbc902204	-0.017594345
213	0xbdb2ed29	-0.08736641
214	0xbd0368ba	-0.032082297
215	0x3ca89038	0.020576581
216	0x3bef2f18	0.007299315
217	0xbd9b023a	-0.07568784
218	0xbd66d777	-0.056357827
219	0xbcfd4a43	-0.0309192
220	0xbcbb594e	-0.022869732
221	0xbd32ed0b	-0.043683093
222	0xbd9c0085	-0.076172866
223	0x3c2ea2cb	0.01065893
224	0x3f284e8f	0.6574487
225	0x3f023bb6	0.5087236
226	0x3fb99191	1.4497548
227	0x3ef13538	0.47110915
228	0x3fc44561	1.5333673
229	0xbf28d271	-0.6594611
230	0x3edb21bd	0.42799178
231	0x3e19c324	0.15015846
232	0x3e5b58e7	0.21420632
233	0xbde4f173	-0.11178865
234	0x3f0bfbdd	0.5468119
235	0x3e036cd2	0.1283448
236	0xbe6a8e4d	-0.22905846
237	0x3dad5cac	0.084649414
238	0x3f2ba822	0.67053425
239	0x3f48bbbf	0.7841148
240	0xbf737ba5	-0.9511054
241	0xbf9a1950	-1.2038975
242	0x3f161189	0.58620507
243	0x3f9d0eb7	1.2270116
244	0xbedab49b	-0.42715916
245	0x3cb876cf	0.02251759
246	0xbda887ff	-0.08229064
247	0x3dad84de	0.08472608
248	0xbd6c2ae9	-0.05765811
249	0xbc44fb83	-0.012022856
250	0xbd574332	-0.052554317
251	0x3d6def96	0.058089815
252	0xbb400782	-0.002930135
253	0xbc0dad34	-0.008647252
254	0x3e1b0d9d	0.15141912
255	0xbdb91f4c	-0.090391725

bias f4 [64]
0	0x3fbad64d	1.459665
1	0xbe0f6231	-0.14002301
2	0x3e23412b	0.15942828
3	0xbe844dc5	-0.25840583
4	0xbf81243f	-1.0089186
5	0xbdeee556	-0.11664836
6	0xbe2c8bf6	-0.16850266
7	0x3f16e49e	0.5894259
8	0xbfa30389	-1.2735454
9	0xbfab950f	-1.3404864
10	0x3fc4239c	1.5323367
11	0x3e95958e	0.29215664
12	0xbced6baf	-0.028982012
13	0xbf9d1792	-1.2272818
14	0xbfa06263	-1.2530025
15	0xbc8ac093	-0.01693753
16	0xbe1bce04	-0.15215307
17	0xbd25ccb3	-0.04047842
18	0xbe9ab0c8	-0.30212998
19	0xbe2aa265	-0.16663511
20	0xbe6df738	-0.23238838
21	0xbd0de963	-0.034646403
22	0xbefe6951	-0.49689725
23	0xbdcb06dc	-0.09913418
24	0xbe93e364	-0.28884423
25	0xbdf57a36	-0.119862005
26	0xbdaa5e80	-0.08318806
27	0xbea50244	-0.3222829
28	0xbdf9b9a7	-0.121936135
29	0x3e255cb0	0.16148639
30	0xbf00f44a	-0.50372756
31	0x4004d4ee	2.0754962
32	0xbe4112e0	-0.18854856
33	0x4014d61f	2.325569
34	0xbd3ef09c	-0.04661618
35	0xbd2ba9ef	-0.04191011
36	0x3e140ef7	0.14458834
37	0xbe160cd2	-0.14653328
38	0x3f5aa0de	0.85401714
39	0x3f88921f	1.0669593
40	0xbee32c6e	-0.44369835
41	0xbe15382c	-0.14572209
42	0x3eb6fee7	0.3574135
43	0xbf07dc3e	-0.5307044
44	0xbba53701	-0.0050419574
45	0xbd119913	-0.035546374
46	0x3f058725	0.5215934
47	0xbe059b3a	-0.13047495
48	0xbdd3ce26	-0.10342054
49	0xbe008485	-0.12550552
50	0xbe17078d	-0.14748974
51	0xbcb593e5	-0.022165248
52	0xbe0229d5	-0.1271127
53	0xbe00df10	-0.12585092
54	0xbf0740d0	-0.5283327
55	0xbcaa0e55	-0.020758787
56	0xbf5363d1	-0.8257418
57	0x3fa838ac	1.3142295
58	0xbe6e0ddf	-0.23247479
59	0x3f28b172	0.6589576
60	0x3eac2e20	0.3362894
61	0x3ecff917	0.40619728
62	0x3f82bcfe	1.0213926
63	0xbdbd28b6	-0.092362806

weight f4 [32, 64]
0	0xbe74afe5	-0.23895223
1	0x3ded653f	0.11591577
2	0x3e9bb01d	0.304078
3	0xbdc13788	-0.0943442
4	0xbf108ee4	-0.56468034
5	0xbcd19c66	-0.025587272
6	0xbe1f8ac1	-0.15580274
7	0x3f513400	0.8171997
8	0x3f79d0e7	0.97584385
9	0xbebad317	-0.36489174
10	0x3ed795f6	0.421066
11	0x3e31e691	0.1737311
12	0x3e0a336b	0.13496177
13	0x3eaf5ca7	0.34250376
14	0x3d0d7cda	0.034542896
15	0xbddfb14a	-0.10922487
16	0xbf1328a4	-0.5748389
17	0x3df71929	0.12065346
18	0x3e708974	0.23489934
19	0xbd634439	-0.055484984
20	0x3d4ae643	0.049536
21	0xbc4ba0c9	-0.012428471
22	0x3e586e38	0.21135795
23	0x3c4b6855	0.012415011
24	0xbd1efe9d	-0.038817037
25	0x3d7e06e7	0.0620183
26	0xbba76e10	-0.005109556
27	0x3e478f89	0.19488348
28	0x3cf057dc	0.02933877
29	0x3f0f19c6	0.558987
30	0x3e9c2176	0.3049428
31	0x3e91e655	0.28496042
32	0xbd4b4af6	-0.049632035
33	0x3e416df1	0.18889596
34	0xbb92bc48	-0.0044780113
35	0xbcb4fbcf	-0.022092728
36	0xbca415b2	-0.020029876
37	0x3db19569	0.08671076
38	0x3ecd41b0	0.40089178
39	0x3db34f80	0.08755398
40	0xbdf763c2	-0.12079574
41	0x3c4824d9	0.012215816
42	0x3f0b07ec	0.5430896
43	0xbf1b5bfa	-0.6068722
44	0xbd71e4ad	-0.059055973
45	0x3d448fe6	0.047988795
46	0x3e700487	0.23439227
47	0x3e4d0afd	0.20023723
48	0x3d6c31f4	0.057664827
49	0x3cb28d8c	0.02179601
50	0xbc0343c6	-0.008011764
51	0x3d803651	0.0626036
52	0x3e1a5ce9	0.15074505
53	0x3e458413	0.19288664
54	0xbc9b19d3	-0.018933212
55	0x3c90492f	0.017613022
56	0x3e8f662e	0.28007644
57	0x3ed89250	0.42299128
58	0x3d2d4731	0.04230422
59	0x3e976fb7	0.2957742
60	0xbf60e8f5	-0.87855464
61	0xbe8e6eb0	-0.27818823
62	0xbf0d0657	-0.550878
63	0x3caf0946	0.021366727
64	0xbeb1b2a0	-0.34706593
65	0xbdfdfa2e	-0.124012336
66	0xbd9870f5	-0.0744342
67	0xbdd29db0	-0.10283983
68	0xbe985b82	-0.29757315
69	0x3be26500	0.006909013
70	0x3d8d138a	0.068884924
71	0xbe20d90e	-0.157078
72	0xbd9bff7e	-0.07617091
73	0xbeb86858	-0.36017108
74	0xbf083460	-0.5320492
75	0xbdc8fd86	-0.09813981
76	0xbdc3564a	-0.09537943
77	0xbeef0872	-0.4668613
78	0xbdc08e96	-0.09402196
79	0xbdcc0762	-0.09962346
80	0xbf28c231	-0.6592131
81	0x3df359e8	0.11882383
82	0xbde8ffec	-0.11376938
83	0xbd55f8f4	-0.052239373
84	0xbdcc9684	-0.09989646
85	0x3cf417e0	0.02979654
86	0xbdc15a14	-0.09441009
87	0xbdcb2178	-0.09918493
88	0x3da680ac	0.08130011
89	0xbdd060a8	-0.10174686
90	0x3dea42b2	0.11438502
91	0xbd8f9a8a	-0.07011898
92	0xbddbeae8	-0.10738164
93	0xbe6cb2e8	-0.23115122
94	0xbd1ad6ac	-0.037802383
95	0x3d73de34	0.05953808
96	0xbda45c78	-0.080254495
97	0xbe97a8bc	-0.29620922
98	0xbd90effa	-0.07077022
99	0xbd1daa48	-0.03849247
100	0xbedab9d9	-0.42719916
101	0x3b975500	0.004618287
102	0xbee0e97a	-0.43928128
103	0xbed8c849	-0.42340305
104	0xbd8d351e	-0.06894897
105	0x3dc8808e	0.09790145
106	0xbd2f890c	-0.042855307
107	0x3df1d290	0.1180774
108	0xbd7333c4	-0.05937554
109	0xbdea00bc	-0.11425921
110	0x3d1eb000	0.038742065
111	0x3db8d15c	0.09024307
112	0xbc2e35b0	-0.010632917
113	0xbce93430	-0.028467268
114	0x3cfb16a0	0.030650437
115	0x3c9cf190	0.019158155
116	0xbd673264	-0.05644454
117	0xbdaf7bb2	-0.08568515
118	0xbdc77f60	-0.09741092
119	0xbd2d6738	-0.042334765
120	0x3d38cb4c	0.045115754
121	0xbdc35d9e	-0.095393404
122	0x3dc56eac	0.096402496
123	0xbf285dde	-0.6576823
124	0xbee58b50	-0.4483285
125	0xbd3e8378	-0.046512097
126	0xbefca11d	-0.4934167
127	0x3d8e303a	0.06942792
128	0x3dead1b3	0.11465778
129	0x3d5f2c3d	0.05448555
130	0xbe02b826	-0.1276556
131	0x3d8ed6af	0.069745414
132	0x3e884e46	0.26622218
133	0xbd739776	-0.059470616
134	0x3d9560f5	0.07293884
135	0xba86d6fe	-0.0010287461
136	0xbaaa4442	-0.0012990313
137	0x3f0e9c1e	0.55706966
138	0x3ed0af9c	0.4075898
139	0xbeebbf59	-0.46044424
140	0xbccf6f41	-0.025321605
141	0x3f197b53	0.599538
142	0xbec67dc8	-0.38767838
143	0xbe0cc424	-0.13746697
144	0xbe84446f	-0.2583346
145	0x3e3c8d39	0.18413247
146	0x3d8a10f6	0.06741516
147	0x3f061812	0.5238048
148	0xbd8ae77c	-0.067824334
149	0xbd41282f	-0.047157463
150	0xbd4c1417	-0.049823847
151	0x3cf24d60	0.02957791
152	0x3d9d57d8	0.076827705
153	0xbd107135	-0.035264213
154	0x3daf6921	0.085649736
155	0xbc391554	-0.011296589
156	0xbdcaac91	-0.09896196
157	0xbe0c9bc4	-0.13731295
158	0xbd6f4dfd	-0.058423985
159	0x3dcd514b	0.10025271
160	0xbd4caa63	-0.04996718
161	0x3e183bce	0.14866564
162	0xbd9ac92e	-0.07557903
163	0xbd604edd	-0.05476271
164	0x3f72c12b	0.94826
165	0x3dabb555	0.08384196
166	0x3db2b423	0.087257646
167	0x3eff4270	0.49855375
168	0xbd198b02	-0.037486084
169	0xbcccc3dc	-0.024995737
170	0x3f2a2795	0.6646665
171	0x3e89ce39	0.26915148
172	0xbcc5d796	-0.024150651
173	0xbd2f45bb	-0.04279111
174	0xbe1a1402	-0.15046695
175	0x3dd04d92	0.10171045
176	0x3d90f5dd	0.07078145
177	0xbd90e6d9	-0.07075281
178	0x3d5dfe6c	0.054197714
179	0xbc85be67	-0.016326142
180	0xbd3d7dc4	-0.046262518
181	0xbca703c9	-0.020387547
182	0xbe88014b	-0.26563486
183	0xbd4569e7	-0.0481967
184	0xbe3d5e63	-0.18493037
185	0x3db73754	0.089461
186	0x3d1c6688	0.03818372
187	0x3dc22423	0.09479549
188	0xbe4d960b	-0.20076768
189	0xbed44e0c	-0.41465795
190	0x3ee8bdac	0.45457208
191	0xbcd22fe5	-0.025657604
192	0xbdff11c5	-0.12454561
193	0xb80c6ce8	-3.3480028e-05
194	0xbea4d593	-0.32194194
195	0x3ea504a5	0.32230106
196	0x3e63849d	0.22218557
197	0xbce21ca8	-0.027601555
198	0xbdb6c228	-0.08923751
199	0x3dc49358	0.09598416
200	0x3ecb3937	0.3969209
201	0xbe8391aa	-0.2569707
202	0x3dbe9816	0.09306352
203	0x3e956b94	0.29183638
204	0xbb5a6b7a	-0.0033328221
205	0x3f884efc	1.0649104
206	0x3dcc379d	0.09971545
207	0xbdcc5dbd	-0.09978817
208	0x3d40f752	0.047110863
209	0xbd0a66f9	-0.03378961
210	0xbebb63da	-0.36599618
211	0xbd6a3fec	-0.057189867
212	0xbdabd9b0	-0.0839113
213	0x3da74f83	0.081694625
214	0xbc01c8af	-0.007921382
215	0xbbf806f3	-0.007569188
216	0xbf3daefd	-0.74095136
217	0x3d7f11d4	0.06227286
218	0xbe0c9f37	-0.1373261
219	0xbf142c24	-0.57879853
220	0xbdf410b4	-0.11917248
221	0xbdeccaed	-0.115621425
222	0x3f0c5586	0.54818
223	0x3e639899	0.2222618
224	0x3e800d06	0.25009936
225	0xbdc92f1f	-0.09823441
226	0xbd15a96e	-0.036538534
227	0x3e028dac	0.12749356
228	0x3e0dc2fb	0.1384391
229	0x3dbf6aba	0.09346528
230	0x3e70ff8f	0.23534988
231	0xbdb49146	-0.08816771
232	0x3dd83b42	0.105581775
233	0x3e3c343e	0.18379304
234	0x3e7a2c27	0.24430905
235	0x3e0678c2	0.13132003
236	0xbc92fc47	-0.01794256
237	0x3c403b1f	0.011732846
238	0xbe0ddeb9	-0.13854493
239	0x3cdc7c0e	0.026914623
240	0x3c8a901d	0.016914422
241	0xbd6d2cfe	-0.057904236
242	0xbca2419f	-0.019806681
243	0x3dd47954	0.10374704
244	0xbd2b73b1	-0.04185838
245	0x3e47e047	0.19519149
246	0xbede327e	-0.43397897
247	0xbc7cde9b	-0.015433933
248	0xbe91708f	-0.28406188
249	0x3dd9b0cd	0.10629425
250	0xbdd77151	-0.1051966
251	0x3f6beb7f	0.92156214
252	0xbe5d6e4c	-0.21624106
253	0x3e3de8db	0.18545859
254	0x3ec152f8	0.37758613
255	0x3d2b8ceb	0.041882437

bias f4 [32]
0	0x40181c19	2.376715
1	0xbf3ef157	-0.74587005
2	0x3e0cc7ae	0.13748047
3	0x3d6510d0	0.055924237
4	0xbd8bd7d3	-0.068282746
5	0xbebc16fa	-0.3673628
6	0xbe63830f	-0.22217964
7	0x3db080e9	0.08618338
8	0xbe960bd4	-0.293059
9	0xbdeb4624	-0.11487988
10	0x3f6b1e10	0.91842747
11	0xbf13424f	-0.57523054
12	0x3ef69659	0.4816158
13	0xbeb62f29	-0.35582855
14	0x3f468f33	0.77562255
15	0xbe313185	-0.17304046
16	0x3eae1eeb	0.34007964
17	0x3de4ca70	0.111714244
18	0xbc6e238f	-0.014534845
19	0xbf4c2959	-0.7975059
20	0xbe90b48f	-0.28262755
21	0xbecdb708	-0.40178704
22	0xbe353f04	-0.1769982
23	0x3f1e79ac	0.61904407
24	0xbe58a810	-0.21157861
25	0xbb6d9f21	-0.0036258178
26	0xbe159db7	-0.14610945
27	0xbe9b8c13	-0.30380306
28	0xbe1e86bc	-0.15481085
29	0xbe6d4a7b	-0.23172943
30	0xbe014606	-0.12624368
31	0xbecd9c1e	-0.4015817

weight f4 [10, 32]
0	0xbd7040f9	-0.058655713
1	0x3ecc396c	0.3988756
2	0xbede2484	-0.43387234
3	0x3db53643	0.0884824
4	0x3e7c2109	0.24621977
5	0x3cabe63e	0.020983811
6	0x3da237be	0.07920788
7	0x3eb620a1	0.3557177
8	0x3d14a87d	0.036293495
9	0xbdd7a5bf	-0.105296604
10	0x3d0d8745	0.03455283
11	0xbf31f7cc	-0.69518733
12	0x3d0da6bc	0.03458284
13	0xbe3a4d18	-0.18193471
14	0x3db36070	0.08758628
15	0x3e2d2f21	0.1691251
16	0x3e766067	0.24060212
17	0xbe35363e	-0.17696473
18	0xbc9d3087	-0.019188179
19	0x3d9ae3b3	0.075629614
20	0x3e259609	0.16170515
21	0xbebfaa78	-0.37434745
22	0x3e01c772	0.12673739
23	0xbf21fb55	-0.6327413
24	0x3d36d30c	0.044634864
25	0x3e357282	0.17719463
26	0x3d905d23	0.070490144
27	0x3e693009	0.2277223
28	0x3eabf338	0.33584
29	0x3cb61ae5	0.022229621
30	0xbd5d8eca	-0.054091252
31	0xbec73acf	-0.38912055
32	0xbcafb2d2	-0.021447573
33	0xbe8f0649	-0.27934483
34	0x3ea8f918	0.33002543
35	0xbc60e46a	-0.013726333
36	0xbcdff7bd	-0.02733981
37	0xbe5ded0d	-0.21672459
38	0x3eb63231	0.35585168
39	0xbe92b838	-0.28656173
40	0x3d00409d	0.03131162
41	0x3df51625	0.11967114
42	0x3e4ed2d5	0.20197614
43	0x3edb5edc	0.4284581
44	0xbea9a8ae	-0.33136505
45	0xbec4d240	-0.38441658
46	0xbd90e440	-0.07074785
47	0x3e60f77c	0.21969408
48	0x3cc75436	0.024332147
49	0x3f035715	0.5130475
50	0x3de92041	0.11383105
51	0x3e7eadbf	0.24870966
52	0x3dba9563	0.091105245
53	0xbedce2c7	-0.43141767
54	0x3dafbe75	0.08581249
55	0xbefc03f5	-0.4922177
56	0xbdbc7d80	-0.09203625
57	0x3db700b5	0.08935682
58	0x3da226dc	0.07917568
59	0xbdedbc2c	-0.116081566
60	0x3e5b8224	0.21436363
61	0xbd0a84d2	-0.033818074
62	0x3d1d4ba4	0.038402215
63	0xbe8e7600	-0.27824402
64	0xbf1b62bb	-0.60697526
65	0x3e415019	0.18878211
66	0xbe862576	-0.26200455
67	0xbe5e1d4e	-0.21690866
68	0xbd9dad9d	-0.0769913
69	0x3dfc8e19	0.123317905
70	0xbea6347f	-0.32461926
71	0xbd46a659	-0.048498485
72	0x3e92744a	0.28604347
73	0x3d0f770e	0.03502565
74	0x3f086205	0.53274566
75	0xbceba64b	-0.028765818
76	0xbe9be0fa	-0.3044508
77	0xbea0c2ac	-0.31398523
78	0x3e86d838	0.26336837
79	0xbe24a88b	-0.16079919
80	0x3ecd0775	0.40044752
81	0x3b42ffcc	0.0029754518
82	0xbd68d06b	-0.056839388
83	0x3e070828	0.13186705
84	0x3b8d5eb3	0.0043142675
85	0xbe988d18	-0.29795146
86	0x3d653564	0.05595912
87	0x3e9ec7a8	0.310117
88	0xbde60dd7	-0.112331085
89	0x3d10981c	0.035301313
90	0xbe0a9c0f	-0.13536094
91	0x3d656f06	0.056014083
92	0x3e342cd5	0.17595227
93	0x3ddaad72	0.10677613
94	0xbe14e6cc	-0.14541167
95	0xbf06656d	-0.52498513
96	0x3db814b7	0.08988326
97	0xbe638473	-0.22218494
98	0xbc828510	-0.01593259
99	0xbf5a2922	-0.85219014
100	0xbda70801	-0.081558235
101	0x3c82062a	0.01587208
102	0x3e86bef2	0.26317555
103	0xbe91efe7	-0.28503343
104	0x3e48be7e	0.19603917
105	0x3de3d781	0.111250885
106	0xbe533eb9	-0.20629396
107	0xbdf72df1	-0.120693095
108	0x3e02afa2	0.12762311
109	0x3e82d37d	0.25551978
110	0xbd68eada	-0.056864597
111	0x3d983401	0.07431794
112	0xbd9efbc8	-0.07762867
113	0x3e47fafa	0.19529334
114	0x3e8359ae	0.25654358
115	0xbf1c3677	-0.61020607
116	0x3e61888a	0.22024742
117	0x3eb9de45	0.3630239
118	0x3e093bdf	0.13401745
119	0x3e7b7467	0.24556123
120	0xbbf9d095	-0.007623742
121	0x3e1018ad	0.14071913
122	0x3d910f77	0.07083028
123	0xbe49af0e	-0.19695684
124	0x3df77b90	0.120841146
125	0xbe026991	-0.12735583
126	0x3c2021dc	0.009773698
127	0x3e1c4b99	0.15263213
128	0x3f1970c1	0.59937674
129	0x3db9f64c	0.090801805
130	0xbe3d65ca	-0.1849586
131	0xbe7141cf	-0.2356026
132	0x3cc34e89	0.02384116
133	0xbdf51a31	-0.11967886
134	0xbe8ffca3	-0.28122434
135	0xbe19b90e	-0.15011999
136	0xbdd4c998	-0.103900135
137	0xbe534f94	-0.20635825
138	0x3ed36621	0.41288856
139	0x3e3e8ded	0.18608828
140	0xbcf136ca	-0.02944507
141	0xbdff9fe3	-0.12481668
142	0x3f103bd3	0.56341285
143	0x3dd5d7aa	0.10441525
144	0xbd547943	-0.051873457
145	0xbe328e9c	-0.17437214
146	0x3dd908cf	0.10597383
147	0x3e8a6016	0.27026433
148	0xbda06851	-0.07832397
149	0x3ecf0b38	0.40438247
150	0xbcac7c93	-0.021055495
151	0xbde85754	-0.113447815
152	0xbddebefd	-0.10876272
153	0xbd387bea	-0.04504005
154	0xbda3bad0	-0.07994616
155	0x3c2e47ca	0.010637233
156	0x3dc98e54	0.098416
157	0xbd2676e5	-0.04064073
158	0x3d56e173	0.0524611
159	0xbee3e5ed	-0.44511357
160	0xbe05f459	-0.13081492
161	0xbf1ec276	-0.62015474
162	0x3e8b3ac3	0.2719327
163	0xbe6ed405	-0.23323067
164	0xbc933490	-0.0179694
165	0x3c5e3c8c	0.01356424
166	0xbce6464a	-0.028109688
167	0xbd1619a1	-0.036645535
168	0x3c95b42b	0.018274387
169	0x3c07db6a	0.0082920585
170	0xbe28a679	-0.16469754
171	0x3f08469c	0.5323274
172	0x3f1afae5	0.60539085
173	0xbe70f1de	-0.23529765
174	0x3e7c5b9e	0.24644324
175	0xbdfcf094	-0.12350574
176	0x3ee25f3c	0.44213283
177	0xbd1f28dc	-0.038857326
178	0xbd323428	-0.04350677
179	0x3d97265e	0.07380365
180	0xbe25344a	-0.16133228
181	0xbecb4328	-0.39699674
182	0x3d5550fa	0.05207918
183	0xbec2f32e	-0.38076156
184	0x3d15831b	0.036501985
185	0x3d39ff60	0.04540956
186	0x3d70d0c0	0.05879283
187	0x3d4c8d34	0.04993935
188	0x3e94df0f	0.2907643
189	0xbe72d1b9	-0.23712815
190	0x3e442c92	0.19157627
191	0xbe80bf15	-0.25145784
192	0xbe4098df	-0.18808316
193	0x3e961342	0.29311568
194	0x3f16df4d	0.5893448
195	0xbe736617	-0.23769413
196	0xbdb35eb9	-0.08758301
197	0xbdbb38df	-0.09141707
198	0x3e2599e2	0.16171983
199	0x3eb84d22	0.35996348
200	0xbd231ec9	-0.03982428
201	0x3cb31b58	0.021863624
202	0x3ca9398b	0.020657321
203	0x3e225039	0.15850915
204	0xbe89f74b	-0.26946482
205	0x3df04347	0.11731582
206	0x3e808829	0.25103882
207	0x3d96009f	0.07324337
208	0xbeba756a	-0.36417705
209	0xbec7b169	-0.3900254
210	0x3cdb8105	0.02679492
211	0xbea19bec	-0.3156427
212	0x3ddac2bb	0.10681673
213	0xbec466b7	-0.38359615
214	0xbd99c0e0	-0.07507491
215	0xbe1ba511	-0.15199687
216	0xbe05873f	-0.13039874
217	0xbdd22406	-0.10260777
218	0x3dff39e2	0.12462212
219	0xbd76aea7	-0.060225155
220	0x3eb6372c	0.35588968
221	0xbd8a63be	-0.067573056
222	0x3b3f4692	0.002918635
223	0xbceab31f	-0.028649865
224	0x3bca02ce	0.006164885
225	0xbe312109	-0.17297758
226	0x3e1c14d3	0.15242319
227	0x3ea3adcd	0.31968537
228	0x3c77ab2e	0.015116496
229	0xbcee6be3	-0.029104179
230	0x3e2da01d	0.1695561
231	0xbf223f02	-0.6337739
232	0xbdd8407f	-0.10559177
233	0x3db1dc74	0.08684626
234	0xbc8602dd	-0.016358787
235	0x3e34dfbc	0.17663473
236	0xbcbaca71	-0.02280161
237	0xbe7fd102	-0.24982074
238	0x39e4dcac	0.00043651962
239	0x3df242ee	0.11829172
240	0x3db977eb	0.09056076
241	0xbeeecf56	-0.4664256
242	0xbe41d4c9	-0.18928827
243	0x3f0b91eb	0.5451953
244	0x3cc02277	0.023453934
245	0xbeb8f501	-0.36124423
246	0xbe32d47e	-0.17463872
247	0x3e7c585c	0.24643081
248	0xbdb4e610	-0.088329434
249	0x3c79b4c2	0.01524085
250	0x3d9264a4	0.07148102
251	0xbe192bcc	-0.14958113
252	0xbe4b9373	-0.19880466
253	0xbd679854	-0.056541756
254	0xbe00e2d9	-0.12586536
255	0x3e4d722b	0.20063083

bias f4 [10]
0	0x3f841fed	1.0322243
1	0x3f39e362	0.72612584
2	0xbe8f0db8	-0.27940154
3	0x3fa67575	1.3004595
4	0xbf130e88	-0.5744405
5	0xbf3b5d9a	-0.731897
6	0x3f56b46a	0.8386904
7	0x3f90899f	1.1291999
8	0x3f4f39e6	0.8094772
9	0x3d65192c	0.05593221
