MultiModal/12loss14.030487731099129.pth (torch, 507686 bytes, 41 tensors)

weight f4 [16, 1, 4]
00000000: 4239 0d3e aca7 933e 5a41 adbe 53a8 b83e
00000010: 16f1 eabe 43fd 233f 9c54 ddbb 98fb 703d
00000020: 18cf 68bc 6d5e aabd 3589 89be 6074 47bd
00000030: b541 4dbe 52c9 1d3d 25d0 a5be a3f6 d13e
00000040: 5262 b2be 1c52 283f 3a2d 34bf 1174 bd3d
00000050: 330f 283d 0f36 673d dcf8 2a3e 28ec efc0
00000060: d141 8fbe 7e1b debc 6012 cdbc 2397 4cbf
00000070: 0129 d6be 0b52 3dbe 2e28 f8bd 0d40 12bf
00000080: 0b87 1ac2 cd22 0ac2 3401 58c0 c67b 79be
00000090: e5ed babe 0ca0 503f 5ef9 2dbf 4e6a 213e
000000a0: c06f a33e 5a7f bcbf da1c b13e de79 a9bd
000000b0: a8d5 4dbe 1021 00bd 34dc d8be e8a4 c9be
000000c0: a4a5 7dbe bec3 023c b173 cbbe aafa afbb
000000d0: 3404 4ebe a091 02bd d02e d7be 1c31 43be
000000e0: 01c2 3ac0 8762 6ebf 41c9 42bf 0d06 17be
000000f0: 0e9b ac3e 6bad 1ebf c420 1e3f bdf6 8fbd
0.13791373 0.2883886 -0.33838922 0.3606592 -0.4588706 0.6405832 -0.006754471 0.05883369
-0.014209531 -0.083187915 -0.26862493 -0.04869497 -0.20044596 0.038522072 -0.32385364 0.4100848
-0.34840637 0.6575029 -0.7038151 0.092506535 0.04103012 0.05644804 0.16696495 -7.4975777
-0.279799 -0.027112719 -0.025033176 -0.79918116 -0.41828158 -0.18488328 -0.12117039 -0.57128984
-38.631878 -34.533985 -3.3750734 -0.24363622 -0.36509624 0.8149421 -0.6795863 0.15763208
0.31921196 -1.4726365 0.34592324 -0.082751974 -0.20101035 -0.03128153 -0.42355502 -0.39383626
-0.24770218 0.007981239 -0.39736703 -0.0053704577 -0.20118791 -0.03187716 -0.42027903 -0.19061702
-2.918091 -0.9311909 -0.7608834 -0.14748402 0.33712047 -0.61983365 0.61768746 -0.070294835

bias f4 [16]
00000000: 3999 e2bf 28f6 15bc 193d c8be 3255 19be
00000010: e015 2c3f fc96 a13e 5276 7bbe 23ad 64be
00000020: e407 9a3e 614f 67bf ebcb 83bf 6094 a2bd
00000030: 0749 c9be a05c 2bbe b256 553f daf2 debd
-1.770301 -0.0091529265 -0.39109114 -0.14973906 0.6722088 0.31560504 -0.24556854 -0.22331671
0.30084145 -0.903555 -1.0296606 -0.079384565 -0.39313528 -0.16734552 0.8333541 -0.10886164

weight f4 [16, 16, 4]
00000000: bbaa 873e c4d1 d8be 885a 4d3e e24d abbe
00000010: 03dc 7dbe d1cd 63be 0e72 c0be 20c3 5ebe
00000020: d0e2 24be c902 97bc 81ea 03be e070 703d
00000030: 615e 183e 14b7 d7be 8eb3 c7be 4a33 d5be
00000040: 3c1e bebe ea7b 26bf 80f8 09bf 41cd f93c
00000050: 7bc9 1e3b e224 96bd 3e35 0abd ff5d cabe
00000060: d95a cebd 7456 0dbe efd4 afbd d6ff 13be
00000070: 1174 97bd 1b1c abbd 9a9b d5ba 4024 9b3d
00000080: c9f9 9fbc 56d4 dbbd 83aa 3e3d 90ba 5dbd
00000090: b957 a8be 7a7c 773e 48b3 143e 4a3e 8c3e
000000a0: ce86 efbd 7ec3 65bd aeb0 333d 0390 4a3d
000000b0: b8cb bc3c 0268 953d 92a2 f3bd ae12 a5bd
000000c0: 53d5 6ebd 809a 42be f489 353c cdf3 d9bd
000000d0: 7082 32bc 62bd e4bd 0064 89ba 7808 e9bd
000000e0: f2e7 a0bd 9785 83be ce34 73be 8ab5 31bd
000000f0: c398 c0be 3c3c c2be 80c9 2cbe ddc5 63be
00000100: 98f1 81be 638e 2fbe 3997 ecbd a7c3 9fbd
00000110: 007b 18bc 221b a3be 7b67 96be 1c6a ddbe
00000120: 3cf1 37be 3684 133d 8c5c 863c 0630 33be
00000130: 7a61 0d3c bf74 1bbe 6b63 aebd 7c65 553d
00000140: 8109 8cbe 8806 3bbf 7c37 bbbe cadf 24bf
00000150: 6a88 4a3c c784 f6bd 74ee b5bd aa1d 3b3b
00000160: 1bee c5bd be01 eebd a2a8 34be 6be3 36be
00000170: 270f e6bb a7ce 1ebe 2167 e1bd 83b0 e3bd
00000180: 727c 82bd 8f07 b3be 0351 aabd 67ca 59be
00000190: 5981 38bd b626 3abd d00e dfbd c11c f5bc
000001a0: 9ddb 9dbe 1e2b 1bbe 8335 07bc bfba 613d
000001b0: a0de bbbb 4ee3 96bd 443a dcbd b4bd 31bd
000001c0: ee29 edbd e18e 55bd a1c4 21be 2e64 0d3e
000001d0: 2cc0 8abd 2286 f23d 24fb 2dbd e034 38bd
000001e0: 827b a8bd 74eb 9dbd 6b21 36be c074 efbd
000001f0: 8ffa 8bbe 1c67 abbe 8243 d0be 9764 dabe
00000200: 0ee5 813d e04c 1ebd 7e90 c1bd 9405 97bd
00000210: 8bf2 083d 1a62 543d 553f 12be 6df7 8dbd
00000220: 5752 063b 36d1 a7bd 63e7 59bd ca67 07be
00000230: c291 d1bd 1c0c 3bbd 1b01 0cbe f46e ddbd
00000240: 7e26 18be a5ab 29be 2973 aabc c6fb 14be
00000250: f330 45bd 5cb7 063d ad7b bf3b cdf4 f03c
00000260: 3b61 4a3d a1af 873c 35cf 873d 70fc a9bb
00000270: 5858 a7bd c086 6e3d fd33 99bd 7373 38bd
00000280: ff18 c6bc 5c77 0bbd 7588 d4bd bd91 ae3d
00000290: b0d1 61bc ceb5 8abd a3ef 60bd 7617 08be
000002a0: ba21 813d 6356 343d c48a cabd 44b6 3cbc
000002b0: 665a b6bd 38a7 483d 2015 b03c 321b cfbd
000002c0: 5612 7e3d 9000 b3bd c781 29bd 6bb4 8ebd
000002d0: 686d d13d d8d2 323d 48ae dbbc ee6d 9b3d
000002e0: b034 5b3d 60c5 44bc a3d1 f6bd b268 ffbd
000002f0: f6bf 0fbe 8524 d2bd 2b41 0cbe 135b 0cbb
00000300: 9bed e53c 3089 abbc 5966 25be e822 b4bd
00000310: 5f9e 4bbe fa95 8dbd 05de 0f3c 152a 10bc
00000320: ef19 8fbd ad8a 053d c2e0 093c 00a1 aabd
00000330: 0d02 07be 509b 94bd edf2 e5bd c073 bebd
00000340: 1185 e2be 7f55 42be 43f2 71be a762 64be
00000350: c55e a1bc 62a7 b8bd 9450 aebc ffdb 60bd
00000360: a44a 8bbd e410 18bb 683e b03c 8be6 01be
00000370: d5a5 17bd c389 4a3d 663d b5bd 7334 1bbe
00000380: bb60 2ebe c913 a2bd a689 1dbe c45d 90bd
00000390: 5ea5 283e 8aed 663c da99 10be 6428 d3bd
000003a0: 7e0c 7bbd bef5 1c3d 8999 b33d 5dc3 573c
000003b0: 4ad2 96bd 0e68 db3d c64e f03d d01a eebc
000003c0: c630 99bc bddc a5bc 317a 373d 8b2b 0e3d
000003d0: fc60 4a3d fe9d b53d 403e 0abd d820 ea3d
000003e0: f37a 21bf 382e edbe e1db afbe 51bf f8be
000003f0: 15a0 a1bd 9172 1abd a95d e6bd 128f 363d
0.26497445 -0.42347538 0.20054066 -0.33457857 -0.24790959 -0.22246481 -0.37587017 -0.21754122
-0.16102147 -0.018433945 -0.12882425 0.058701396 0.14879753 -0.42131865 -0.39004177 -0.41640693
-0.37132442 -0.6503283 -0.53894806 0.03049338 0.0024228978 -0.073312536 -0.033742182 -0.39524838
-0.100759216 -0.1380251 -0.08585536 -0.14453062 -0.07395185 -0.0835497 -0.0016296983 0.075752735
-0.019528287 -0.10733859 0.04654933 -0.054132998 -0.32879427 0.24168578 0.14521515 0.27391273
-0.11695634 -0.05609464 0.043869667 0.049453747 0.02304636 0.072952285 -0.11896242 -0.080602035
-0.05830891 -0.1900425 0.011080254 -0.106422044 -0.010895357 -0.111689344 -0.0010482073 -0.113785684
-0.0785674 -0.25687858 -0.23750612 -0.04338602 -0.37616548 -0.3793658 -0.16873741 -0.22243448
-0.25379634 -0.1714416 -0.11552281 -0.078009896 -0.009306669 -0.31856638 -0.29375824 -0.43245018
-0.17963117 0.036014758 0.016401552 -0.17498788 0.008629197 -0.15181254 -0.08515056 0.052098736
-0.27351 -0.7305684 -0.3656577 -0.64403975 0.012361625 -0.12037044 -0.08883372 0.0028551617
-0.09664556 -0.11621426 -0.17642453 -0.1786019 -0.0070208493 -0.15508519 -0.110059984 -0.11117651
-0.06371392 -0.34966704 -0.08316233 -0.21268617 -0.04504523 -0.045447074 -0.10891497 -0.029920937
-0.30831614 -0.15153167 -0.008252504 0.055109736 -0.005733326 -0.07367574 -0.10753301 -0.043393806
-0.11580263 -0.052138213 -0.15797664 0.13807747 -0.06774935 0.1184199 -0.042475834 -0.0449723
-0.08226682 -0.07710925 -0.17786185 -0.1169219 -0.273396 -0.33477104 -0.40676504 -0.4265487
0.06342517 -0.038647532 -0.09451388 -0.07374111 0.033434432 0.05185137 -0.14281972 -0.06931958
0.0020495856 -0.08194201 -0.053199183 -0.13223186 -0.10232879 -0.045665845 -0.13672297 -0.10812178
-0.14858434 -0.16569383 -0.020806866 -0.14549169 -0.048142385 0.03288971 0.0058436007 0.029413605
0.049409132 0.016563239 0.066313185 -0.0051875636 -0.08171147 0.058233976 -0.07480619 -0.045031976
-0.024181841 -0.034049377 -0.103775896 0.08523891 -0.013782904 -0.06772958 -0.054916035 -0.132902
0.06305261 0.044027697 -0.09889749 -0.011518065 -0.08903961 0.048987597 0.021494448 -0.10112609
0.062029205 -0.08740342 -0.04138353 -0.06968006 0.10225946 0.043658108 -0.026816502 0.07589327
0.053517044 -0.0120099485 -0.12051704 -0.12471141 -0.14038071 -0.10260872 -0.13696735 -0.002141659
0.0280674 -0.02093944 -0.16152324 -0.0879572 -0.19884633 -0.069133714 0.008780961 -0.008799096
-0.06987368 0.032602955 0.008415403 -0.083314896 -0.13184376 -0.07256186 -0.11227975 -0.09299421
-0.44242147 -0.18977927 -0.23627572 -0.22303258 -0.01969851 -0.09016301 -0.021278657 -0.054897305
-0.06801346 -0.0023203427 0.021514133 -0.12685601 -0.037023384 0.049447786 -0.088496014 -0.15156727
-0.17029087 -0.0791393 -0.1538454 -0.070491344 0.16469333 0.01409472 -0.1412119 -0.10310438
-0.06129121 0.038320296 0.08769519 0.013169137 -0.07364328 0.10713206 0.11733775 -0.02906552
-0.018700015 -0.020246858 0.044794265 0.034709495 0.049408898 0.08868025 -0.033750772 0.11432046
-0.6307823 -0.46324325 -0.34347442 -0.48583463 -0.07891861 -0.037706915 -0.11248333 0.044570036

bias f4 [16]
00000000: 94c2 8ebe 009d 8fbe 8703 74bc 6d79 f3bd
00000010: 0d0d 8dbd 01af 99be 3924 1dbe 837a 1fbb
00000020: 8726 2abe 2e14 debd 9421 1bbe a5b9 24bf
00000030: 1a27 a0be d3d8 bebd 83a1 a0bd aef9 dbbd
-0.27882826 -0.2804947 -0.014893419 -0.118883945 -0.06887255 -0.3001633 -0.15345849 -0.0024334497
-0.1661626 -0.10843693 -0.15149528 -0.6434577 -0.31279832 -0.093187 -0.07843306 -0.10740982

weight f4 [16, 16, 5]
00000000: 0427 0abe 42cb 953d b4d2 debd f3f0 0bbd
00000010: 183f 4fbc 21a7 863d f46c b0bd 14b2 a23d
00000020: c2f6 99bd 8829 0fbe 1b7f 4dbd 1612 76bd
00000030: c11e 00be 6be6 05bd 193d 21bd cae3 92bd
00000040: 1192 9e3d 4855 05be d161 9e3d 1f21 a93d
00000050: fd6a 06be a39f 5abb 22df 5a3d ff4a 8ebd
00000060: 1837 e1bd febd d7bd f0bc 86bd 9006 aabb
00000070: 3e07 a6bd adfa 18bc b926 10bd 582b 243b
00000080: 688c e2bd 26d5 b8bd d70d 893d c4af 21bd
00000090: 6772 fa3c 6074 073d 1d47 5dbd 3abf 86bc
000000a0: 4f7d 41bb 5fd2 febd 3af0 e6bd 638c edbd
000000b0: 343a c2bd 75d0 03bd 1eac 073d e1ba 393d
000000c0: b083 5dbd afdf 8dbd fd2e 6dbd aec2 eb3c
000000d0: 023b febd 6490 05be 4271 263d 0992 84bd
000000e0: 0947 39bc 4cc8 033c ba2f 0abd dcb8 a7bc
000000f0: d02d 05bb a66c 063c 6c66 aa3c 3851 7d3d
00000100: 9e8e 1b3e 852c 513d 1ac0 15bd 7b9e 24bd
00000110: 6931 f63d 20cb 023b 5646 813d 15f9 b9bd
00000120: 77b4 2d3c bcc3 4b3d 3afa 143c bcba 8b3c
00000130: cb17 573d aa9d c1bd ddf2 d63c e0d1 273d
00000140: 49f6 7dbe dfcb 873c d126 bebe ce19 103e
00000150: f628 c23e 9a55 9e3e 6eed 10bf 3cf5 abbd
00000160: 541b 333e a749 15be b693 b7bd 41b5 27bd
00000170: 82dd ebbd b707 2dbe 3f13 27be 06bc 973c
00000180: 6936 123f bd12 3bbc d49f 993b c6ad a7be
00000190: e9c4 073e 0e40 51be fb9d adbd aa04 773e
000001a0: ae9a 0dbf d326 c8bd 7616 55be f0cc 28bd
000001b0: 26a3 613d 4c13 d13d 138f 25bd 6c6a c93d
000001c0: a284 cebd d018 a1bd bc4d 77bd b641 013e
000001d0: 121d e5bc 122f 993d 0f6b 213d 83dd 69bd
000001e0: 1617 78c0 906b 9b3f 4516 a03e 86d1 9ebe
000001f0: f494 a53e d324 d23d 382b d3bd 9282 c5bd
00000200: f719 94bd ccc5 383d 0dcf 7ebe 8132 91be
00000210: 4137 aebd 9721 953e f2e0 9e3d 2876 a53d
00000220: ca92 80bd 7be3 393d 19e1 8bbe c397 00bf
00000230: 8741 25be 65c7 19be 78ed 2bbd ed6d 943c
00000240: 2a59 10bd bbe2 613d 90e5 1abb 84e4 bbbd
00000250: 7a50 72bb 2c14 133e 0058 e3bd 95d5 10be
00000260: 9143 91bd 8b39 92bd 6263 79bd 816d 89bd
00000270: 5bf8 8ebd aea1 e6bc 6fc1 babd e41b 80bd
00000280: cbf8 9d3e b747 a83e 5b00 423e 2c9a a03e
00000290: 481c a13e 8ff8 87bd 1204 e33d 8236 82be
000002a0: 4e25 b13c 74f1 8a3c 75be d4bd fb49 283d
000002b0: 3802 8ebd c347 553d 9dfa 93bc 3daf ab3a
000002c0: a0fd 03bc 5b88 61bd 0590 cdbd 2ce0 a23d
000002d0: 0987 cabd 747d 30bd d3e0 3fbd 6577 3cb7
000002e0: 5578 2d3c d091 28be e366 a13e 7fa9 1a3e
000002f0: 57fc dabe 38c8 6e3c 923c bcbd 9cc2 493d
00000300: 8c4b 093e 8964 023e 5e36 b43c f015 fb3b
00000310: 84c8 093e 5618 b4bd 62e1 73bd c02c 99bd
00000320: d080 70bf 458e 9bbe efb3 c0be 701e 98be
00000330: 8699 f83d d871 593c a5f4 c03c 977c 5abb
00000340: 4531 90bd b7d2 a43c 52ea babc dcaf 383d
00000350: f28f a93b ce22 c5bc 1f52 7e3d 8d0c 8c3c
00000360: e3b3 36be f17f abbe 9b5d 693e 4ab4 d8be
00000370: 8004 43bd 6e6f cdbc 6e51 36bc 9e5b 50be
00000380: dc4f 3f3c 577d 1c3e 54ed f6bc a866 17bd
00000390: 2645 cc3d 4e8c e2bc 640b bfbc 6f88 21bd
000003a0: 2aa3 5e3c 7f9b a93d 10a4 a5bc 5d60 b1bd
000003b0: 2660 08be 1d60 90bd b705 3f3d 69a1 e9bd
000003c0: 0e6d 2ebe a28e 03be 4a27 41bd c834 083d
000003d0: c81b 2abe 19f4 1f3d 8f99 e7bd 8f97 d3bc
000003e0: 40f4 febd 79a9 25bb 890b 05bd 6bf4 02be
000003f0: ddf9 663c f191 18be 4ab3 7e3b d94d 11be
-0.13491446 0.07314159 -0.10880032 -0.034165334 -0.01264932 0.06574846 -0.08614531 0.07944122
-0.075177684 -0.13980687 -0.050170045 -0.06007584 -0.12511732 -0.032690447 -0.039364908 -0.071723536
0.07742704 -0.13020813 0.07733501 0.082582705 -0.1312675 -0.003335931 0.053435452 -0.06947898
-0.109968364 -0.10534285 -0.06579006 -0.0051887706 -0.0810685 -0.0093371095 -0.03519318 0.002505025
-0.110619366 -0.0902503 0.06692093 -0.039474264 0.03057213 0.03306997 -0.054022897 -0.016448606
-0.0029524153 -0.12442469 -0.11276288 -0.11599042 -0.094837576 -0.032181222 0.033123128 0.045344237
-0.054080665 -0.0692743 -0.05790614 0.028779354 -0.124135986 -0.13043362 0.040635355 -0.064731665
-0.01130844 0.00804336 -0.03373692 -0.02047389 -0.0020321496 0.008204615 0.020800792 0.061845034
0.15191123 0.051067848 -0.036560155 -0.0401902 0.12021143 0.0019957498 0.06312244 -0.09080712
0.010602108 0.049747214 0.009092862 0.017056815 0.052512925 -0.094539 0.026238853 0.040971637
-0.24800982 0.016576706 -0.3713899 0.14072344 0.37921876 0.30924684 -0.5661229 -0.08396384
0.17490894 -0.14578877 -0.089637205 -0.04094434 -0.11516859 -0.16897474 -0.16315936 0.018522274
0.57114273 -0.011418042 0.0046882425 -0.32749766 0.13258709 -0.20434591 -0.08477398 0.24122873
-0.5531415 -0.0977303 -0.2080935 -0.04121107 0.05508723 0.10208759 -0.04041965 0.098347515
-0.100838915 -0.07866061 -0.060376868 0.12622723 -0.027967963 0.07479681 0.03940874 -0.057096016
-3.876409 1.21422 0.3126699 -0.3101923 0.32340205 0.1026093 -0.10310978 -0.09644045
-0.07231515 0.04511051 -0.24883671 -0.28358844 -0.085066326 0.2912719 0.07757749 0.08079177
-0.06277998 0.045382958 -0.27320173 -0.5023157 -0.16138278 -0.15017469 -0.041974515 0.018118823
-0.035241283 0.055147868 -0.0023635365 -0.09174445 -0.0036974237 0.14363164 -0.11100769 -0.14143975
-0.070929654 -0.07139882 -0.060885794 -0.06710339 -0.06980964 -0.028153267 -0.09118926 -0.0625532
0.30853876 0.32867214 0.18945448 0.31367624 0.3146689 -0.06639206 0.11084761 -0.2543221
0.021624234 0.016960837 -0.10387889 0.04108618 -0.06934017 0.05207039 -0.018063838 0.001309849
-0.008056074 -0.05506168 -0.10037235 0.07952914 -0.09889037 -0.04308839 -0.04684527 -1.1233472e-05
0.010587771 -0.16461873 0.3152381 0.1510372 -0.42770645 0.014574103 -0.0919124 0.04925786
0.13407725 0.12733664 0.02199858 0.0076625273 0.13455397 -0.08793704 -0.059541114 -0.074792385
-0.9394655 -0.3038198 -0.37637278 -0.29710722 0.12138657 0.013271771 0.023554156 -0.0033338421
-0.070406474 0.020120008 -0.02281681 0.045089588 0.0051746303 -0.024064448 0.062090036 0.017095828
-0.17842059 -0.3349605 0.22789614 -0.4232505 -0.047611713 -0.025077548 -0.011127813 -0.20347449
0.011676755 0.15282188 -0.030142464 -0.036963135 0.099741265 -0.027654793 -0.023320861 -0.039436754
0.013588706 0.08281612 -0.020219833 -0.08660958 -0.13317928 -0.07049582 0.04663631 -0.1140774
-0.17033789 -0.12847379 -0.04715661 0.03325346 -0.1661216 0.03905115 -0.11308586 -0.025829105
-0.12448931 -0.0025278016 -0.032481704 -0.1278855 0.014097658 -0.14899422 0.0038864189 -0.14189853

bias f4 [16]
00000000: 56ff 08be 5b11 cfbd 2f01 073d 01bd 48bf
00000010: 6023 eabd 30fa 11be 95a1 213e 8763 a6be
00000020: 1a23 963d ec83 cabf 4483 f03e 8136 d4be
00000030: 6f0d c5be 9a02 c3be 3724 8abe b438 94be
-0.13378653 -0.10110732 0.032960113 -0.784134 -0.114325285 -0.14255595 0.15784295 -0.32497808
0.07330914 -1.5821509 0.46975148 -0.41447833 -0.38486812 -0.38087922 -0.26980755 -0.2894951

weight f4 [16, 16, 5]
00000000: 7e80 16be c6cc 263e fcfd 10be 8f2a cc3d
00000010: 3db3 c5bc 5186 73be b9d0 83be eb72 0abe
00000020: 4040 c73d a61a 413e 813b 75be e045 2abf
00000030: 7a41 5f3e e8ec 443e 01f7 073e 34ed c8bd
00000040: 834e d3bc 2122 983c 752e 3bbd c3b1 09be
00000050: 22e6 efbd 1ae0 ddbe 2f99 0fbe 580c 2ebc
00000060: 43d4 0abe 359e 17be 6773 d7bc bd05 babd
00000070: 0cda 01be 0f19 1fbe 523d 57be b5ff 01bf
00000080: 6557 563e 1e97 a9bd 980f 06be 7bf6 4c3d
00000090: 4989 23be 67ff 2bbe c091 28be 57ae aebd
000000a0: 2e62 9ebe 96ef d2be 53ae 5bbe 1891 d3be
000000b0: 95fa d1be 15ce cdbe b5c8 e7be 4cbf 5b3c
000000c0: e7db 17bd d664 21bd 1cc6 78be 5766 c5be
000000d0: 8cdf 523e e8f0 5c3e b75d 893d 4b4c edbc
000000e0: 2747 ef3c bddd aa3c 8cc5 67bd 7774 a5bd
000000f0: 0616 8abd d68a 1c3d 928d 0ebe 9544 10be
00000100: 82a7 ca3c d7e8 e1be 1aae c3be b8eb 81be
00000110: 8ff9 8cbe 335c c1be 5778 e5be eb98 8ebe
00000120: d41c d5be d14d b9be e369 97be 95b1 94bd
00000130: fe24 84bd b5de 223e 0785 0a3e 401d a63d
00000140: 20d3 b3bc 7d4c 69bc 799f 503c 9ca0 cdbc
00000150: aa77 8e3d 8256 9c3c af09 313d 8266 303e
00000160: 1ca6 6bbf 81f7 f0be 7715 283e 3db4 013f
00000170: e751 b83e 1db6 593e 81f1 5d3e 16ba 0f3f
00000180: 5741 7fbe dc5f 0fbf 8930 d33d 57d3 81be
00000190: 6971 153d ab39 6b3d 6011 a3bd 20bb ecbc
000001a0: 242e 35bc eef6 8f3d 0460 53bd 372f 00be
000001b0: ba76 e23a 327b 423d fc32 143e ec11 37be
000001c0: c522 f6be f997 1fbf 1a6b aabe 2ad5 86bd
000001d0: 7b80 1abb 1e97 3a3e cbba 0dbe f0e2 163e
000001e0: dc10 3fbd 00de c03e 71e6 f73e 4e62 f9ba
000001f0: e066 a8bb 0bcd 333e e7e2 88bf fd6e ab3e
00000200: 8b3f a93e 11f5 0bbf 489b d23d e061 4dbe
00000210: 7558 2b3d 59ce 7cbe 0a8d aebe f187 513d
00000220: 6cb4 a53c c318 b0be d28f c0be e449 413c
00000230: 0a53 4ebd a17c 043e 2c59 393d e82f 803d
00000240: 3a46 8d3d 4890 ad3d 59a8 c63e ceb0 283d
00000250: b15f 5cbe c7ef eb3d ebba 8dbe 9dad ab3e
00000260: c9c1 8f3e d0b3 3bbe d4fa 3fbe ac6e 753c
00000270: 8ce4 713e cf66 c6bd f7cd 4b3e b0e3 3dbe
00000280: 2860 ed3c 0128 66bd 3402 dc3c 4390 7a3c
00000290: 49c8 10bd 7097 373f caf6 893d a448 1d3d
000002a0: 605b 043e 3531 883d 1fe9 63bb ca37 d1bd
000002b0: 3e92 abbc e566 413e 60de 473e 8a4d 433e
000002c0: ff92 4bbd fe30 8fbe 0551 803e 4ac1 063e
000002d0: 2d64 02be 20fb 813d 6867 5c3d 753f c03c
000002e0: 61e8 02bd aba4 8dbd d3ab 4d3d 38ca 1fbc
000002f0: 5051 7c3d 5061 86bd c872 4d3e f94c ec3e
00000300: be1a 153f b0ac db3e c98d 023e 66c7 533e
00000310: 2142 09bf 09fc 0b3e dd7d 31be f8f8 5abe
00000320: 7a7e 2c3e e962 173e 3e2d 30bc cf4c 9d3d
00000330: 6bbf 993b 6c0e 50bc ba62 e4be 0908 3dbf
00000340: 8cc7 85be 84dd c5be d09d bbbd 3862 5e3e
00000350: 0a68 d83e 7abe ec3e 805b 763e 2784 c03e
00000360: 846a 27bc 3a96 1fbe 2bd0 8f3e ed79 c4bd
00000370: d17c 47bd b68a 6ebe c44b 423e aa98 60be
00000380: 3117 153e 5967 f03d 7bb5 fabd d88c 8dbd
00000390: a7d0 3ebd 9c45 a7bd 6dc5 173e 9966 8c3d
000003a0: 08e2 0fbe 2c6c 32be b0d9 febc dab1 153d
000003b0: 97f2 64be 137f fcbd 62ac 08bd 9b30 5cbd
000003c0: db09 10bc 60f2 60bd 2395 fa3c 7927 0bbd
000003d0: c904 cc3d 9a02 49be c07d b2be 74c8 9dbe
000003e0: 1061 d2be e08e 3dbe d6fa f2be 9602 cabe
000003f0: 1558 92be 7e1b 06bf 9fa6 ffbe 8356 3abd
-0.14697453 0.16289052 -0.14159387 0.09969055 -0.024133319 -0.23781706 -0.2574518 -0.135204
0.097290516 0.18857822 -0.2394848 -0.6651287 0.21802321 0.19230998 0.13277818 -0.09810868
-0.025794273 0.018570961 -0.0456986 -0.13446717 -0.11713816 -0.43335038 -0.14023279 -0.01062306
-0.13557534 -0.14806445 -0.026300145 -0.09083126 -0.12680835 -0.15536903 -0.21019486 -0.507808
0.20931776 -0.082807764 -0.13091886 0.05003975 -0.15970339 -0.16796647 -0.16461849 -0.085293464
-0.3093428 -0.41198415 -0.21453218 -0.41321635 -0.4101149 -0.4019629 -0.45270315 0.013412308
-0.03707495 -0.039402805 -0.24294323 -0.38554642 0.20593089 0.21576273 0.06707328 -0.028967043
0.029208733 0.020857686 -0.05658488 -0.080788545 -0.06742482 0.03821834 -0.13921192 -0.14088662
0.024738077 -0.44122955 -0.38218766 -0.25375152 -0.27534148 -0.37765655 -0.44818375 -0.27851042
-0.41623557 -0.36192182 -0.29572973 -0.072604336 -0.06452368 0.15905268 0.13527308 0.08111048
-0.021951258 -0.014239428 0.012733334 -0.025100999 0.06956418 0.019084219 0.043222126 0.17226604
-0.9205034 -0.4706383 0.16414438 0.50665647 0.35999987 0.21260877 0.21674158 0.5614332
-0.24927269 -0.56005645 0.10311992 -0.25356552 0.03648511 0.057428043 -0.079622984 -0.028897822
-0.011058364 0.0702952 -0.05160524 -0.12518011 0.0017277815 0.04748077 0.14472574 -0.1787793
-0.48073402 -0.62341267 -0.33284837 -0.065836266 -0.0023575115 0.18221709 -0.13840787 0.14735007
-0.046646938 0.37669373 0.48418 -0.001902649 -0.005139217 0.17558686 -1.0694245 0.33483115
0.33056292 -0.54670817 0.10283524 -0.20056868 0.041832406 -0.2468809 -0.3409198 0.051155034
0.020227633 -0.34393892 -0.37609726 0.011797402 -0.05037216 0.12938167 0.045251057 0.062591374
0.0689816 0.08474785 0.38800314 0.04118424 -0.21520878 0.11520343 -0.2768167 0.33530894
0.28077534 -0.18330312 -0.18748027 0.0149799995 0.2362234 -0.09687578 0.19902788 -0.18543887
0.028976515 -0.056190494 0.02685652 0.015293184 -0.035347257 0.7171545 0.067365244 0.038399354
0.12925482 0.066500105 -0.0034776402 -0.10215719 -0.020943757 0.18886907 0.19518423 0.19072548
-0.049700733 -0.27967066 0.25061813 0.13159671 -0.12733527 0.063467264 0.053809553 0.023467759
-0.031959895 -0.069161735 0.050212692 -0.009752803 0.061600983 -0.0656153 0.20063317 0.46152475
0.5824393 0.42905188 0.12749399 0.20681533 -0.5361653 0.13670363 -0.1733317 -0.21384037
0.16845122 0.14783825 -0.010752974 0.07680666 0.0046920083 -0.012698751 -0.44606572 -0.73840386
-0.26128805 -0.38645566 -0.0916096 0.21717155 0.42266876 0.46239072 0.24058342 0.37600824
-0.010218266 -0.1558465 0.28088507 -0.09593568 -0.04870302 -0.23295102 0.18974215 -0.21933237
0.14559628 0.11738462 -0.12241646 -0.069116294 -0.046585705 -0.08167574 0.14821406 0.068555064
-0.14051068 -0.17424077 -0.03110966 0.036546566 -0.22358166 -0.12328925 -0.033367522 -0.05375729
-0.008791412 -0.054918647 0.030588692 -0.03397319 0.0996185 -0.19629899 -0.34861565 -0.30816996
-0.41089678 -0.18511534 -0.47456998 -0.39455098 -0.28582826 -0.523857 -0.4993181 -0.04549266

bias f4 [16]
00000000: ce70 06bf 969b ef3c 1526 9e3d 4c2e d0be
00000010: ca84 883d fe94 e9be 95db 49be 2722 38bf
00000020: ea69 05bf ca29 19be 8da6 ff3c 524e 3fbf
00000030: 14b9 14be 6f0d 2ebe 5a7c aebe c9e0 14bf
-0.52515876 0.029248994 0.07722107 -0.40660322 0.066659525 -0.45621485 -0.1971267 -0.7192711
-0.5211474 -0.14957348 0.031207347 -0.7472888 -0.14523727 -0.16997312 -0.34079248 -0.58155495

weight f4 [64, 112]
00000000: 3690 6dbd 84f8 28bd 14ef 753d 9da2 adbd
00000010: 37d6 163c 4af3 12bc ae10 0b3d 55f3 8ebd
00000020: 7fc0 b8ba 2da2 3fbd f6c8 49bd fdff 05be
00000030: 4400 b9bd 7e34 b8bd 58db fabd 7be5 ed3c
00000040: 5daf c1bc b56b d6bd 13e0 e3bd 1381 9bbd
00000050: ea7a 193d 64d0 b23b 57eb 333c 5a3e 1dbd
00000060: a5c5 e83c 5c48 92bd 5a84 933c a09a c8bd
00000070: e27b bb3c c279 b6bd 6fa4 2b3c 1c3f 50bd
00000080: a79e c93c 8098 8c3b f2c2 0abe aa0d eabd
00000090: 2e1b c93c 78f3 8cbd f557 a1ba d8fc 14bd
000000a0: 8e6a edbd b7e8 59bc 85f9 03be 66ca 3a3c
000000b0: 495c 2dbd 4b22 b7bc b75c 083c 6c7a acbd
000000c0: a1ab 87bd cee4 203c 40c1 97bd c7f1 6cba
000000d0: e7c8 a8bd ba63 0abd a2bf 333c b4b3 9cbd
000000e0: 94e0 983c a2d4 003b 06eb d9bd 345a 18bd
000000f0: 134a 4d3d e10b 24bd 3777 37bd 3faa 9e3d
00000100: e037 9a3c 74a5 d2bc 3570 16bd 26a6 0bbe
00000110: d0ba e63c b618 85bb b3e6 b9bd e636 29be
00000120: 1800 fdbd 9e91 bcbd b079 94bd c8a4 6ebd
00000130: a133 7fbc 3ee3 b33c a762 23be 942a 4d3d
00000140: cce7 fabd a077 aabd 81f0 f93a 4e87 5a3c
00000150: 496f e6bd c701 babd 5684 0dbe 986b d1bd
00000160: 1e57 2e3b 82b5 18bd 21d2 86bc 1bf5 c5bd
00000170: d1a1 fabd 434a 9bbb 975c e33c 7890 e0bd
00000180: d88b 7abd 0c36 a7bd 7297 a8bd b11c adbd
00000190: c678 19be 1c88 cdbd 3eb3 d3bd 0cd0 1cbe
000001a0: 354c 14be 6563 fc3c 3a63 dcbb 63ee 8139
000001b0: 3a82 e2bd fccc 413c bc5e 14bd 6db3 a13c
000001c0: dce2 aabc 394f 17bd 1e6f 38bd d4bf 75ba
000001d0: a565 1c3c cd39 e23c 8d3f 1bbc 2fc8 80be
000001e0: 2a50 58bd b6f5 c5bd 7dd6 0dbe 000f fbbd
000001f0: 7f21 96bd 8491 a7bd 04b3 94be ea95 9cbe
00000200: 3392 dcbe a438 b0be 9864 c6be 8dc3 cfbe
00000210: fa0d afbe aa70 c0bd 94af 3fbd 83a4 a0bd
00000220: b503 f2bd 45b2 4cbd de24 99bd 12a4 d8bb
00000230: 35b5 18be 9816 00be 110a 8ebe d88e d1be
00000240: be86 cabe b1e4 8fbe 2211 a0be 3c76 033d
00000250: de0b 1b3e 79b7 2bbd 1eeb ffbc 1566 0fbe
00000260: a399 0bbe 2809 e2bc d13a 583d 3e2b 313d
00000270: 1ee4 11bc eade 17be dbfa 87bd 55a0 a8bd
00000280: 39a6 febc 172e 873d 0f50 60bd 71ca 07be
00000290: 1195 063d 8ffc eabd 412b 97bd 2908 163c
000002a0: a036 1abe 75a7 083d c213 fc3c 00bb 05be
000002b0: bb1a c8bc e297 0d3b 52ec 1cbe bb34 813a
000002c0: b1a8 9abd 29a6 e7bd 3ead e9bd 4563 543c
000002d0: 5ee0 06be 160a 98bd ca26 83be fb66 553c
000002e0: 5545 40bd b85a 08be c6b2 31bd 4eb2 0cbe
000002f0: 0126 98bd 88c9 6e3a b2b6 423c ce0f b03b
00000300: d408 5abd 4aff 81bd ad95 05be 1096 c1bd
00000310: e3df a9bd a9c1 c7bd 0416 2e3b 470b 9cbd
00000320: e125 e8bd 3dd6 e7bd 8c94 3bbd c243 79bd
00000330: a86a a9bc 2924 70bd 45a6 7dbd 7a70 debd
00000340: f7c9 bebd 8a9b 13bb 5866 093c aace 3ebd
00000350: b212 63bb fed6 dabd e1de a2bc 8c0e babd
00000360: eca3 73bd 785a c4bd d043 67bd c382 bdbd
00000370: 2f7b 07be b4a0 31bd 6c96 11be 84e3 14be
00000380: 894e a7be e710 b8be 119d 20bd 1b7d 8bbe
00000390: c9b7 66bd d5f3 96be 4110 5bbd 58b9 1dbf
000003a0: 620d 8b3e d230 6d3e d128 c0be 6b99 9a3e
000003b0: 1c12 e33d 8bb7 15bd 6b06 d53d 9a4f 093f
000003c0: 275e 3c3f 8abb 353f 5e43 6f3f 0639 433f
000003d0: 8581 aa3e 8c7a f1be e3e1 a13c 67a5 743e
000003e0: 882e a83e ee1d 843e 41d7 ad3e d068 a0be
000003f0: e7c1 7d3f b751 773e 37db adbd e08f b73d
-0.05799886 -0.041252628 0.060042456 -0.08478282 0.009206346 -0.008969137 0.033951454 -0.06980006
-0.0014095454 -0.046785522 -0.049263917 -0.13085933 -0.09033254 -0.08994387 -0.12248868 0.029040089
-0.02364319 -0.10469762 -0.11126723 -0.07592978 0.037470736 0.005456971 0.010981402 -0.03838954
0.028414557 -0.07142708 0.018007446 -0.097951174 0.02288622 -0.08909942 0.010476216 -0.050841436
0.024611784 0.0042906404 -0.13550928 -0.114283875 0.024549093 -0.068823755 -0.0012309538 -0.036373943
-0.11592589 -0.013300112 -0.12888153 0.011400795 -0.042324338 -0.02235522 0.008322886 -0.084217876
-0.066245325 0.009820176 -0.074099064 -0.0009038713 -0.08241444 -0.033786513 0.010970982 -0.07651463
0.018661775 0.001965799 -0.1064053 -0.0371954 0.05011947 -0.04005039 -0.044791427 0.077473156
0.018825471 -0.02571366 -0.036728103 -0.136376 0.028165251 -0.0040617837 -0.090772055 -0.16524848
-0.123535335 -0.09207462 -0.072497725 -0.058262616 -0.015576274 0.021958943 -0.15955602 0.050089434
-0.12251243 -0.08323598 0.0019068868 0.013337923 -0.11251695 -0.0908237 -0.13820013 -0.102256
0.002660222 -0.037282474 -0.01645762 -0.09665891 -0.12237895 -0.0047390773 0.027754111 -0.10965055
-0.06116852 -0.081646055 -0.08232011 -0.08452738 -0.14987478 -0.100357264 -0.10336922 -0.15313739
-0.14482196 0.030809114 -0.006725696 0.0002478241 -0.11059995 0.011828657 -0.03622316 0.019738877
-0.020860128 -0.036940787 -0.045027845 -0.0009374593 0.009545718 0.027615452 -0.009475601 -0.25152728
-0.052810825 -0.09666006 -0.13851352 -0.122587204 -0.073306076 -0.08182052 -0.29042828 -0.30583125
-0.4308029 -0.34418213 -0.38748622 -0.4057888 -0.3419035 -0.09396489 -0.046798304 -0.07843878
-0.11817113 -0.0499747 -0.07477735 -0.0066113556 -0.14912875 -0.12508619 -0.27742055 -0.40929294
-0.39555925 -0.28104165 -0.3126307 0.03209518 0.15141246 -0.04192302 -0.031240042 -0.14003785
-0.13632827 -0.027592257 0.052790467 0.04325413 -0.008904485 -0.14831129 -0.06639644 -0.08233706
-0.03108512 0.06600588 -0.05476385 -0.13260819 0.032857005 -0.11473953 -0.07381297 0.009157219
-0.150599 0.033362824 0.03077114 -0.13059616 -0.024426809 0.0021605422 -0.15324524 0.0009857634
-0.075517066 -0.113109894 -0.114099964 0.012963121 -0.13171527 -0.07423799 -0.2561553 0.013025041
-0.04694112 -0.13315856 -0.043383382 -0.13739893 -0.07429124 0.000910901 0.011884378 0.005372978
-0.053231075 -0.06347521 -0.13045378 -0.0945245 -0.08294656 -0.097537346 0.0026563415 -0.076193385
-0.1133535 -0.113201596 -0.045795962 -0.060855635 -0.02068074 -0.058628235 -0.061926145 -0.10861297
-0.093158655 -0.0022523128 0.008386217 -0.04658381 -0.0034648594 -0.10685538 -0.019881668 -0.09084806
-0.0594825 -0.09587568 -0.056461155 -0.092534564 -0.13230585 -0.04336615 -0.14217538 -0.14539915
-0.32677105 -0.35950395 -0.03921229 -0.27243885 -0.056327615 -0.29482904 -0.053482298 -0.6161094
0.27158648 0.23163155 -0.3753114 0.30195174 0.110874385 -0.036551993 0.10401615 0.5363709
0.73581165 0.70989287 0.9346217 0.76258886 0.3330194 -0.47163808 0.019761031 0.23891221
0.32848 0.25804085 0.33953288 -0.31329966 0.99123996 0.24152265 -0.084890775 0.08962989

bias f4 [64]
00000000: e738 fdbd a1e0 99be 8779 c33f d43f 01be
00000010: 77c1 d0bd aaee 45bd 4779 90bf f10f 903f
00000020: a333 073f 165d a0bd 2af1 38bd 8201 833f
00000030: 92be acbe a46f 943e 0838 e1bd e2ef 6fbd
00000040: d6d2 32be 3e37 14be bc5d cebe dddd 663f
00000050: f1d8 74bd 5400 d1bd 026a 5ebd c1c5 71bf
00000060: 83d9 7a3c ceac b8be 3b4d b7bb 84a9 bfbf
00000070: 3262 7abe 1c44 c0bc 4b26 ddbd a720 a1bd
00000080: 5310 0dbf 1355 82ba 3d73 0dbe 9c30 99bd
00000090: 18a7 88bf eabb 9c3f be42 aebe 16cc ddbe
000000a0: f448 d9be e27f acbd 5092 22bb 873d 8ebc
000000b0: a89e 30be 402c e4bc 9e5a b3bd a2f7 11bf
000000c0: c8f2 42ba 598e afbd 4c58 d8bd f79b 8fbd
000000d0: 8841 7dbd 77c3 0cbe 8522 b3be 6afd 2ebe
000000e0: 93a2 b6be 1c7b 82be 5249 00bd 1989 fcbd
000000f0: d4e0 0dbe 9974 15be d2d7 a2bf 00c0 0abe
-0.12364369 -0.3005419 1.5271462 -0.12622005 -0.101931505 -0.04832331 -1.1287011 1.1254865
0.52813166 -0.07830255 -0.045151867 1.0234835 -0.33739144 0.28991425 -0.10997015 -0.05857838
-0.1746324 -0.14474198 -0.4030589 0.90182287 -0.059777204 -0.10205141 -0.054300316 -0.94442374
0.015310648 -0.3606934 -0.0055939234 -1.4973607 -0.24451521 -0.023469977 -0.107983194 -0.07867556
-0.55103034 -0.0009943567 -0.13813491 -0.07479975 -1.0675993 1.2244847 -0.34035295 -0.43319768
-0.4243847 -0.08422829 -0.0024806447 -0.017363323 -0.17248023 -0.027853131 -0.08757518 -0.5701848
-0.000743669 -0.085720725 -0.10563716 -0.0701217 -0.061830074 -0.13746439 -0.34987274 -0.17088857
-0.3567091 -0.2548455 -0.031319924 -0.12330837 -0.13855296 -0.1459526 -1.2722113 -0.13549805

weight f4 [32, 64]
00000000: c53e e1bc 22fb 67bd 2339 77be 4ad7 4bbd
00000010: 13b3 223d 38d7 febc eeee f83c d81b 24bd
00000020: 9c10 51be afb6 40be 23f3 313d e00d 4abe
00000030: b35e e8bc e640 fc3c 93c7 10be 7876 7d3d
00000040: 3d5b 83bd 976e 15be f668 943d 4190 37be
00000050: d8ff 503d 9d6c 06be 71f6 82bd a416 4abc
00000060: 17a2 c6bd b609 2ebd 90aa 75bd 62ce 9ebd
00000070: 3ab9 b5bd 7803 13be b25f f3bd 035c 09be
00000080: d544 f1bc 8044 153d 1c17 e13b be1e e33d
00000090: 984f 3e3d 0f1f 17bd 547e f7bd f99b bdbd
000000a0: 10d7 223d 6e11 04be 104a e33c 10f9 f3bc
000000b0: 0fb5 9cbc 9415 6abd 6230 93bd 1151 54bd
000000c0: c655 2abe 3a1f 05be 4aea bfbd c087 1f3c
000000d0: 3da8 0abc 7b36 333d 500c 353d 4026 94bd
000000e0: 1c1e cc3d 47c7 2d3d 3997 92bd a213 9fbc
000000f0: bcab 773d a804 19bd 23d8 febb f0c6 773c
00000100: b0a0 2dbd 6952 1ebe 4ae8 cbbe d101 513d
00000110: 1adc b53d f7d8 01bd 8d0c 4f3e a8c5 20be
00000120: 87a5 e3bd ba69 d0bc fec3 99bd 2102 7abb
00000130: 3480 5d3d b377 f6bd b050 053e 6b25 21bd
00000140: 4351 4a3d cd2d 82bd e5b5 1e3d 4264 b0be
00000150: 53f9 2c3e 3c69 93bc d205 ba3c 2913 0bbd
00000160: 3b39 94be 2de5 12be 4b32 8dbd 59dc 92be
00000170: 6d83 44bc fafc 1abd 866f 57bd 6dbc 39bd
00000180: da38 42bd 3274 b0bc 7d96 a0ba 9c82 adbc
00000190: b46a 72bd faa6 3bbd 84c7 ecbb f5fa f6bd
000001a0: 7b6a 91bd 9d45 1cbe 4e9f a3bc 9ab6 f83d
000001b0: 582a bebd 9a23 da3a 8c95 63bd 8bda 9e3d
000001c0: 7c62 263e dee8 e0bd d374 0e3d 4c62 273d
000001d0: a8f0 853d be9d 24bd 3785 7b3d e72a d43c
000001e0: e6e9 d0bd 941b f5bd 0092 72bd 0fc6 b73d
000001f0: 5f2c c2bd 2698 15be 7c89 f7be 3c45 8a3d
00000200: fc2a c1bc 6670 28be c1d6 16be b4e1 a33c
00000210: 50b5 d83c 0d70 2d3d bbd3 cbbc 8698 35be
00000220: e08b 8dbe 12a3 123c 67dc 35bc 4e36 3abe
00000230: a2c3 ee3c c293 2bbb 6d07 8fbc 576e 7d3d
00000240: 8071 dabc 5b5c 04bd ae89 123d 3475 50be
00000250: a063 4b3c 4eb8 efbd 30b4 d3bd ccf4 2cbe
00000260: d17c 41bd ede6 4cbe 66b5 21bd f03e 57be
00000270: 909e d9bd 5058 51bb 3cac 333d 8ec5 79bd
00000280: eaa6 b6bd 7526 4dbd e9dc 39be 9871 86bd
00000290: de54 d3bc fe41 babe 60ba c63c 142e 6abd
000002a0: 8f30 0b3d b4d2 c7bd ef15 d3bc a491 b7bd
000002b0: 1de3 2abe fc64 433d f891 1bbe 705a b3bd
000002c0: 919e a33b 9357 04be 7206 a1bd 2e04 c9bd
000002d0: 259b 9cbd d915 d7bd 995b 08be 58fa 19bc
000002e0: 5f9c 0b3c ca3a 98bc 9328 0dbe 6be8 23be
000002f0: f47a a0bc ad69 7abd 3ed8 43be 8c80 81bc
00000300: 300d d4bd 8964 54bb 30ad 90be 64a3 1dbe
00000310: c46c aebd 34d6 623d 9711 28be c0f2 fdbd
00000320: e0d5 58be e6b6 28be 9092 15be 907f 18be
00000330: 8394 b0bd aecb 27be 8052 4f3c 93ae 8abd
00000340: 4882 a1bc f8a0 61bd c5da 8bbd 9f05 b6bd
00000350: b87a b3bc a5da 1bbe 9498 dfbc bdf6 bdbd
00000360: effc 02bd 2c00 28be b50f 8db9 a17b 96bd
00000370: 31d6 14be d6b1 66bd 552d e0bc dc95 33bd
00000380: 7a50 9dbd fa0a 0339 59a5 94bd f6ab cebc
00000390: f588 d03c 86fe dfbe 12a2 7a3d dd6c a4bd
000003a0: 2b72 09be 8038 833c bdff 063d e43c 973d
000003b0: ad07 a0bd 6aaa de3d 69b7 093d 56f8 a2bd
000003c0: ef95 2abe 0879 b7bd 2233 83bc 26d5 4b3d
000003d0: a509 0bbe adce 413d 5ffb a3bd d44c 313d
000003e0: 2fb5 a9bd 7577 d0bc 9b01 9cbd 5393 6fbd
000003f0: 0de1 813d 85ac 8ebd 1a39 c8bd c6bc 2a3d
-0.027495751 -0.056635983 -0.2414289 -0.049765863 0.03972156 -0.031108484 0.030387368 -0.040065616
-0.20416492 -0.18819688 0.043444764 -0.19731855 -0.028365469 0.030792665 -0.14138632 0.06188056
-0.06413887 -0.14592968 0.07246582 -0.17926122 0.05102524 -0.1312737 -0.06394661 -0.0123344995
-0.09698885 -0.04248973 -0.059977114 -0.07754208 -0.0887322 -0.14356792 -0.11883487 -0.13414006
-0.029451767 0.03644228 0.00686921 0.11089848 0.046462625 -0.036894854 -0.12084642 -0.09258265
0.03975588 -0.12897274 0.027745277 -0.029781848 -0.019129304 -0.057149485 -0.07186963 -0.051835123
-0.16634282 -0.13000193 -0.09370859 0.009736955 -0.008462963 0.04375313 0.044201195 -0.07233858
0.099666804 0.042426374 -0.0715775 -0.019418541 0.060466513 -0.037357956 -0.0077772303 0.015123114
-0.04238957 -0.15461124 -0.3982566 0.051027123 0.08879872 -0.031701054 0.20219631 -0.157004
-0.11115556 -0.02544104 -0.07508086 -0.0038148242 0.054077342 -0.120345496 0.13019061 -0.039342325
0.049393903 -0.06356392 0.038747687 -0.3445149 0.16891985 -0.017994516 0.022707853 -0.03395382
-0.28949913 -0.14345236 -0.06894358 -0.28683737 -0.011994225 -0.037838914 -0.05259659 -0.045345712
-0.0474175 -0.021539781 -0.001225188 -0.021180443 -0.05918379 -0.045813538 -0.0072259326 -0.12059585
-0.07100388 -0.1526093 -0.019973423 0.121442035 -0.0928542 0.001664269 -0.05556254 0.077565275
0.16248506 -0.10981916 0.03477938 0.040865228 0.06540042 -0.040189497 0.06140634 0.025899364
-0.102008626 -0.11968151 -0.059221268 0.089733236 -0.09481119 -0.14608821 -0.4834708 0.06751487
-0.023580067 -0.16449127 -0.1473036 0.020005085 0.026453644 0.042343188 -0.024881234 -0.17733964
-0.2764578 0.008950012 -0.011099911 -0.18184778 0.02914602 -0.00261806 -0.017459596 0.061872806
-0.02666545 -0.03231464 0.035775833 -0.2035721 0.012413889 -0.11705075 -0.103371024 -0.16890258
-0.047238175 -0.20009966 -0.039479636 -0.21020103 -0.106259465 -0.0031943507 0.043865427 -0.06097942
-0.08918555 -0.050085504 -0.18150677 -0.06564635 -0.025797304 -0.36378473 0.024258792 -0.05717285
0.033981856 -0.09756985 -0.025767295 -0.089633256 -0.166882 0.047703728 -0.15192401 -0.08757484
0.004993268 -0.12924032 -0.078625575 -0.0981525 -0.07646779 -0.10502214 -0.13316192 -0.0093980655
0.0085211685 -0.01858272 -0.13785009 -0.16006629 -0.019589879 -0.061135937 -0.19125459 -0.015808366
-0.10354078 -0.0032408556 -0.28257132 -0.1539436 -0.08516839 0.05538006 -0.1641296 -0.123998165
-0.21175337 -0.1647602 -0.1460669 -0.14892411 -0.08622076 -0.16386291 0.012653947 -0.06771579
-0.019715443 -0.055085152 -0.06828836 -0.08887791 -0.021909103 -0.15220125 -0.027294435 -0.09275577
-0.031979498 -0.16406316 -0.00026905318 -0.07347799 -0.14534833 -0.05632194 -0.027365366 -0.04384409
-0.07681365 0.00012497223 -0.072581 -0.025228482 0.025455931 -0.43748873 0.06118972 -0.080285765
-0.13422458 0.016018152 0.032958735 0.07384661 -0.07813964 0.10872348 0.03362218 -0.079575226
-0.16658758 -0.08958632 -0.016015593 0.04976382 -0.13577898 0.047316242 -0.080069296 0.04328616
-0.08286511 -0.025447587 -0.07617494 -0.05849011 0.06341753 -0.06966499 -0.09776516 0.041683935

bias f4 [32]
00000000: 47da 62be 33ee 64be a586 30be 8bca e0bd
00000010: e68b 81be c7e5 e23e bddf 883e eb53 ccbe
00000020: 1465 1dbf 9f5b cfbe e06d 89be f6de 85be
00000030: 3fdd 80be 0850 b9be 840f b6bd 7a23 b4be
00000040: e1e7 a9be 77fc 9fbe ec28 d2bd fb50 dabe
00000050: 152a d1be 32e9 0ebf 6a99 bdbd 0de1 9b3e
00000060: 3fbb 8bbe 40be a6be 9488 b13e 9505 5ebe
00000070: 9d1e 93be d1c2 dfbe c3b1 b1be 5b46 adbe
-0.22153579 -0.22356491 -0.17238863 -0.10976132 -0.25302047 0.4431593 0.267332 -0.39907774
-0.6148236 -0.4049959 -0.2684164 -0.26146668 -0.25168797 -0.36193871 -0.08889678 -0.35183316
-0.33184722 -0.31247303 -0.102617115 -0.42639908 -0.4085242 -0.5582458 -0.09257777 0.30445138
-0.27291295 -0.32567024 0.34674513 -0.21681817 -0.28734294 -0.4370332 -0.34705934 -0.3384274

weight f4 [12, 32]
00000000: 1c4c f63d fcd2 83be 9b3b 03be cfe2 9abc
00000010: 3aaa 813e 875f 7f3e 1e5f 6b3d 655f 91be
00000020: ad36 5a3d 68b4 813e 3ffe ad3e 6179 cd3e
00000030: 7925 adbe f94b 7f3e 472b 42be 630a 143e
00000040: 78a4 cfbe daa8 81bd f18e df3d 92c9 a6bd
00000050: 7992 c5bd 8475 213f 6b3b 21be 095e 19bf
00000060: 5c17 03be fe10 123a 6693 c0be 969f 2abe
00000070: 6433 4b3e bf14 17bd fc8a 7e3c 1789 9bbe
00000080: 913d 093e ca81 2bbc b37b 0ebd be81 af3d
00000090: 6662 9bbe 7e14 80be 28df b1be 0edb a63e
000000a0: 4e22 b3bc 5c21 483e a222 0ebe a4c6 613c
000000b0: b730 583e 10a9 92be b148 0e3e b35d 843e
000000c0: 789b 7e3e ffe0 d3bd 783f 823b 696d 983d
000000d0: 5d72 84be b7aa 02be f2a1 693d 8b07 10bf
000000e0: 9044 cf3d 166c b63c 0dba 193f 48af 17be
000000f0: ea95 14be 2a10 98be af1d 8dbe dd21 0cbe
00000100: 623c 833c 5176 34be 1a0e 433d cf67 0e3e
00000110: 30bf c4be 697d cf3e 1bd6 293d 4edb ad3e
00000120: 6420 80bd be04 953d 1bfb f53d f0a9 7bbe
00000130: 0119 573c 9dfb 1ebf ae0b 07be 0d32 023e
00000140: d71d 2d3e c006 abbb 4869 023d 53cd 773d
00000150: a507 7cbe 5af5 73be f922 313e 66ac 54bd
00000160: 4992 f43e 5b83 0f3e 999f b2be 9190 48be
00000170: 7880 4d3d 81ed 933e b93d 0cbd c07b 0d3d
00000180: 72f7 70bd 02d7 1cbe 767d 1abe d385 bebc
00000190: c6a7 553e 93c4 8dbd 0c1b e6be ea39 013f
000001a0: 2b42 173d f544 013e e117 2abe 575d 583e
000001b0: 9df7 e33b 6e96 b8bd d69a d53d e830 693e
000001c0: 7fe0 843e a9b7 07bd c30b 1abc 5c22 303d
000001d0: 3120 003f 2924 ef3e 2b32 b73d 9bbb 1bbe
000001e0: 7730 673d 434c 183e 254b 16bd 383c 98be
000001f0: 27c3 dbbe dbed fd3e 8e83 b63e 47c6 10be
00000200: 55d0 0b3e bbd6 acbe 189f 783d 2a47 2b3d
00000210: 1844 743e 3858 053e dd71 bf3d 3100 fd3d
00000220: 3a55 5cbe 8344 c53e 4a57 793e c992 8bbe
00000230: a927 fb3e 27b5 e6be df32 8bbd f304 a63e
00000240: 4fb3 d2be 19f3 c0bd 38dd 5ebc 4c48 473e
00000250: a1a8 a13e 49be b93e 96ed 1a3e 2aba 1f3e
00000260: 1b73 2bbf 5ffa a03d 3c59 b9bd 1a7a dfbd
00000270: e374 c4bb 2b6b c0bd 56f4 85bd 8513 b3be
00000280: 39c2 513c 9e8b 32be 6a75 503d a5bf 27be
00000290: e02a cb3e 0d4b c93d d90e a5bd d42d 793e
000002a0: 8a5e fa3c a0dd 2d3e 1f9c 2f3e 3932 41bd
000002b0: 8bfe 953e 9b20 97bc 3720 4f3d 3c25 e33d
000002c0: d5b2 4a3e 6ae3 703d 8ea9 cfbc 41d6 eb3d
000002d0: ea04 bbbe e695 59be 3d68 08be 04bc 66be
000002e0: 37dc c03e b218 a73d 0b17 12be 08b0 99be
000002f0: c5b0 c1be 2a43 32be 4e12 55bd b69c 9ebe
00000300: a469 a13c b15b 7e3e 2c66 073d cece 193d
00000310: b872 ccbe 0f8a 703c ce67 e7bb 3d4d 603e
00000320: eab0 27be 916b 51bd 15d6 fabc 24e3 67be
00000330: 65e9 a9be 525d 87bb 47b8 623e 5eb0 963d
00000340: eef8 913e 1633 9bbd 7ff9 64be 14f5 ab3c
00000350: 8115 c23e 60b4 0e3a ea2f f1bc b18f 393d
00000360: edd7 e03c 2548 20bc b43f 0fbd 48ac 9dbe
00000370: bd8c 3d3e 545e cd3c 41c1 833c a12e 85be
00000380: 6406 c7bd 8015 abbe 51ac ff3c f035 b33a
00000390: fac2 a83e 0d53 6c3b 0d0b d0bd 9240 e7bd
000003a0: 4402 8ebd 0e98 673e 5b5e 0d3d 6ddb 283e
000003b0: c18f b33e a207 163d a2c9 6dbc 7a33 9c3e
000003c0: 331c e5be e71c ff3d 91dd 283d 94d5 1c3d
000003d0: 9348 3cbe 8196 cd3e 566d e53d e267 b6bd
000003e0: cf10 86bc 112a 0e3e 5490 92bd 509e ae3e
000003f0: ee35 0dbe 0cf8 39bf 28c7 063e 11fa ffbe
0.120262355 -0.25746906 -0.12815706 -0.018906979 0.25325185 0.24938785 0.057463758 -0.28393093
0.0532748 0.25332952 0.33983037 0.40131667 -0.33817652 0.24931325 -0.18961821 0.14457087
-0.40555167 -0.06331034 0.10915936 -0.08143915 -0.09647078 0.6306994 -0.15745322 -0.5990911
-0.1280188 0.000557199 -0.37612456 -0.1666244 0.19843823 -0.03688502 0.015536066 -0.3037803
0.13402392 -0.010467956 -0.034785938 0.08569668 -0.3034851 -0.25015634 -0.34740567 0.32589
-0.021866944 0.19543976 -0.13880399 0.01378027 0.21112333 -0.2864461 0.13894917 0.25852737
0.24863994 -0.10345649 0.003974851 0.07442743 -0.25868502 -0.12760435 0.05703921 -0.5626151
0.10120499 0.022268336 0.60049516 -0.14812958 -0.14510313 -0.29699832 -0.2756171 -0.13684793
0.016020004 -0.17623259 0.04762087 0.13906787 -0.38427114 0.40525368 0.041463953 0.3395638
-0.06256178 0.07276295 0.12010785 -0.24576545 0.01312852 -0.6210268 -0.13188049 0.12714405
0.16905914 -0.0052193105 0.031838685 0.060498547 -0.24612291 -0.23824063 0.17298497 -0.051922224
0.47767857 0.14014952 -0.34887388 -0.19586398 0.050171345 0.2889214 -0.03423855 0.034541845
-0.058829732 -0.15316394 -0.15086922 -0.023257172 0.20864782 -0.06922259 -0.4494251 0.50478995
0.036928337 0.12623961 -0.16610672 0.21129356 0.006957008 -0.09013067 0.10429923 0.22772563
0.25952527 -0.033134136 -0.009402218 0.043001518 0.5004912 0.46707276 0.08945116 -0.15208285
0.056442704 0.14872842 -0.036692757 -0.29733443 -0.42922327 0.49595532 0.35647243 -0.14138137
0.13653691 -0.33757576 0.0606986 0.041815914 0.238541 0.13021934 0.093478896 0.12353552
-0.21516886 0.38528833 0.24349704 -0.27260426 0.49053696 -0.45060083 -0.06796812 0.3242565
-0.41152427 -0.09421367 -0.013602547 0.19461173 0.31573966 0.3627799 0.15129694 0.1559836
-0.6697251 0.078602545 -0.09050223 -0.10911961 -0.0059953793 -0.09395441 -0.06540744 -0.3497583
0.012802654 -0.17436072 0.050893225 -0.163817 0.3968115 0.09828768 -0.080594726 0.24333888
0.030562658 0.16979074 0.17149399 -0.047167037 0.29295763 -0.018448165 0.05056783 0.11091086
0.19794782 0.05881063 -0.025349405 0.11515475 -0.36527187 -0.21248588 -0.13321014 -0.2253266
0.3766801 0.08159007 -0.14266603 -0.30017114 -0.37830177 -0.17408434 -0.05201941 -0.30978936
0.019703694 0.24839665 0.033056423 0.03755074 -0.39931273 0.014681353 -0.007061935 0.21904464
-0.16376081 -0.051127974 -0.03061966 -0.22645241 -0.33185878 -0.0041309977 0.22140609 0.07357858
0.2851023 -0.07578103 -0.223608 0.020990886 0.3790703 0.0005443748 -0.029441793 0.04530305
0.027446711 -0.009782826 -0.03497286 -0.30795503 0.18510719 0.025069393 0.016083362 -0.26012138
-0.09718016 -0.3341484 0.031210097 0.0013672691 0.32961255 0.0036060244 -0.10158358 -0.11291613
-0.06934026 0.22616598 0.034513813 0.16489954 0.35070613 0.036628373 -0.014513405 0.30508024
-0.44748077 0.124566846 0.041226927 0.03828962 -0.1838706 0.40153888 0.11202495 -0.08906533
-0.016365437 0.13883235 -0.07156435 0.34105158 -0.13790104 -0.72644114 0.1316191 -0.49995473

bias f4 [12]
00000000: 93ab c7be 6edf 833f 9fad 2e3e 75d8 253f
00000010: 3e99 873f 8d3b ba3e 790b 13bc 0408 48be
00000020: f006 a13f a2e0 683e 552f 85bc a89f a93e
-0.38998088 1.030256 0.17058419 0.6478341 1.0593641 0.3637356 -0.008974903 -0.19534308
1.2580242 0.2274194 -0.016257921 0.3312962

weight f4 [32, 12]
00000000: b974 543e 9f4f 453f f0ea 0d3c d1b1 fc3d
00000010: 575c 223e ee07 e4be 5f6a c3be 61ad 00bf
00000020: 8d7e 1e3f 77a4 313f c18f 5d3d f3a8 f63d
00000030: 90e4 463f 959d 853f 53fd 9f3e 1039 0ebf
00000040: 5cbd b03e 170c e7be a860 943f fcf0 4bbf
00000050: 4103 763f 68c2 513f 2e0c 053f 6724 fd3b
00000060: 2ec3 25be c408 133f ff3c 05be 9cf5 7f3d
00000070: 0b7b 973e 138c bc3e f043 473d db52 89be
00000080: 38e2 253f 9cb2 123e 3e50 343e 9d0c 2e3e
00000090: b9f5 653e 1e57 0e3f 0dae de3e 5160 c6be
000000a0: 2575 a33e bd18 5bbe 34e9 853f a7f1 44bf
000000b0: fa8a 9e3f 478e 243f 4275 463e 52e9 dabe
000000c0: 1838 ea3c 1336 993e 0d51 593d 851e 9bbe
000000d0: c821 fabb 5555 82be 95f0 4fbd ff7b 3a3e
000000e0: 6cde a33e 5dcb a53e ac69 a13d 196d d2bb
000000f0: cf37 2dbf 25d0 9cbe f1d8 12bf 9596 12bf
00000100: 0997 183e 3d02 d8bd d2df 34bd de41 65bd
00000110: aba5 89be 4803 3b3f 8dd5 4c3d 7a6c 0c3f
00000120: deda aa3e 459f 5abf 812d 94be 225a 95be
00000130: 9761 263e 58ed 7abd ab65 2b3c e35c 49bd
00000140: 8d62 21bf cb6c 01c0 cc31 943c ad0c 183f
00000150: 41f5 b23e 0ba5 9ebf fa3b e83d 89ee cdbe
00000160: 27fb e6be e14b b43d 5af5 123d b28e 243d
00000170: acb3 85bf c5a1 9c3e 9cb0 943c 8216 ae3f
00000180: 6bd9 f33e 4bbd 673f e843 a13e dd46 373d
00000190: 5df1 b73e 35dc 3cbf 50cc 183c 55d7 45bf
000001a0: c339 373f 19f5 fb3e 3bb0 863e c4be 223e
000001b0: 7d60 b93e b38d e5bd cc0d b3bf 3ea8 103f
000001c0: e2cf a9bf 74b9 8639 fe21 31bd cd35 453e
000001d0: 98b5 403f a42b b33e 4070 9dbd bea5 81be
000001e0: a2b0 583f 4f82 053f acc0 933f 66f1 4f3f
000001f0: 3c5b 92be 4581 fc3e b824 bfbd cbf7 963e
00000200: ac57 7dbf b346 b1be 5f1b 0d3d 9ab5 073f
00000210: c9ce e8bc 95ac cc3e 322e 67bd feac 6d3e
00000220: f155 a23e 682d 97bc 71c6 4abd a9f4 72be
00000230: 4eb7 bc3e 6e90 30bc 8c1d cb3e 391b 9f3d
00000240: 95ff d4be efe6 913e 95df fa3f 7e54 41bf
00000250: ca1d e43f 7cb7 62be a77e 433c 9711 f1be
00000260: ed3a 86bf 01b1 fdbe f48d 7f3b 1a93 543e
00000270: 4a15 f83e fa87 383f 6d8b 7f3e 8618 163e
00000280: aa34 d03e 1042 2d3f 91c2 773d 6055 3d3e
00000290: 7b9e 0740 8212 633f fa1a f33d 1de6 c83e
000002a0: cdb2 12bf 2582 973f 7ba0 613e 6e85 183f
000002b0: 8991 63be 3bd3 dd3e e690 733c 6863 b23e
000002c0: bd88 8b3f 041d 4740 50ba 0bbd c14b 4fbf
000002d0: b8c0 46bf 4d0c 143e 5bcd 023f e5fc eebe
000002e0: 8e6d 9ebf 3502 d73e a743 67bd 0123 3cbf
000002f0: 8cc9 e03e 7f53 77bd c3bc c0bc 706d 763e
00000300: 7b88 fdbe 7122 593e 0e7e 43bf a475 2abe
00000310: 223f 8a3e 345b a4be 532d dfbd 844d 93bb
00000320: feac efbe 10e4 1a3f 066a 123d bcc2 3c3d
00000330: 922e 3abf 2db9 f83d bd4e 5fbf 328d 1f3e
00000340: 164c 54be e7d4 26be 683d 13bd 27d9 ad3b
00000350: 2819 c0bf 99b4 dbbe 3466 b83b 2261 753f
00000360: d8b8 333f e07e 503e 4b9e 093f 6a74 2b3f
00000370: cff9 023f f069 c6bd 66ff 323d f046 053f
00000380: 3935 633f 5ff3 653f 16ec 98be f703 7bbf
00000390: b030 2e3f 512d 3e3f fbbc 5fbb 6d7e b63f
000003a0: e08c 96bf 98fe 843f 5715 a9bc 6f36 893e
000003b0: 643d 993e 4bbc 363f 6bdb e83d c2eb 88bf
000003c0: 63bb 903e bc47 923e 0b2b 59bf b308 8e3e
000003d0: 47a1 a13f 03cd 05be 3c50 2fbe d8e3 e23e
000003e0: f641 833f c6e8 823e 91a2 16be 6715 bd3e
000003f0: b871 e93d 15ba 2e3f 3f04 523e a25a 8abe
0.20747651 0.7707462 0.0086619705 0.12338603 0.15855537 -0.445373 -0.38167092 -0.50264555
0.6191185 0.6939158 0.054092173 0.12043943 0.7769251 1.0438715 0.3124796 -0.5555582
0.3451947 -0.4512641 1.1591997 -0.7966459 0.96098715 0.81937265 0.5197171 0.0077252868
-0.16187736 0.5743525 -0.1301155 0.06249009 0.29586062 0.36825618 0.048648775 -0.26821026
0.6479831 0.14325947 0.17608735 0.16996999 0.22457017 0.5560168 0.43492165 -0.3874536
0.31925312 -0.21396156 1.0461793 -0.7693123 1.2386162 0.642796 0.19380668 -0.42756134
0.0285912 0.29924068 0.05305581 -0.30296722 -0.0076334216 -0.25455728 -0.050766546 0.18211363
0.32005632 0.32381716 0.078814834 -0.006421697 -0.6766328 -0.30627552 -0.57362276 -0.5726102
0.14901365 -0.10547302 -0.044158764 -0.05597102 -0.26884207 0.7305188 0.050008345 0.5485302
0.33370107 -0.85399276 -0.28940967 -0.29170328 0.16248165 -0.061261505 0.010461251 -0.04916085
-0.63041 -2.0222652 0.018090151 0.5939434 0.3495274 -1.2394117 0.113395646 -0.4022105
-0.4511349 0.08803535 0.035878517 0.040175147 -1.0445457 0.3059217 0.01815062 1.3600619
0.47626814 0.90523213 0.3149712 0.044745315 0.35926333 -0.7377351 0.009326056 -0.77281696
0.7157251 0.49210432 0.26306328 0.15893084 0.36206427 -0.112086676 -1.3988585 0.5650672
-1.3266566 0.00025696645 -0.043245308 0.19258805 0.7527709 0.34994233 -0.076874256 -0.25321764
0.8464452 0.5215196 1.1543174 0.8122772 -0.2858523 0.49317375 -0.093331754 0.29485926
-0.989619 -0.34624252 0.03444993 0.53011477 -0.028418915 0.3997542 -0.05644054 0.23210523
0.31706193 -0.018454269 -0.049505655 -0.23726143 0.368586 -0.010776622 0.3967098 0.07768864
-0.41601244 0.284965 1.9599482 -0.7551955 1.7821591 -0.22140306 0.011932052 -0.47083732
-1.0486733 -0.49549106 0.0038994523 0.2075924 0.48453742 0.72082484 0.2495553 0.14657792
0.4066518 0.6767893 0.060488287 0.18489599 2.1190479 0.88700116 0.1187038 0.39238063
-0.5730408 1.1836592 0.22033875 0.595786 -0.22223486 0.4332522 0.014866089 0.34841466
1.0901104 3.111146 -0.03411323 -0.80974966 -0.77637815 0.14457817 0.510946 -0.46677318
-1.2377183 0.4199387 -0.056461003 -0.7349091 0.43903768 -0.060382362 -0.023527509 0.24065185
-0.4951819 0.21204545 -0.7636422 -0.16646439 0.27001292 -0.32100832 -0.10897317 -0.0044953246
-0.4681167 0.60504246 0.035745643 0.04608415 -0.7272731 0.121446945 -0.8722952 0.15581205
-0.2073215 -0.16292153 -0.035947233 0.0053054276 -1.5007677 -0.42911223 0.005627418 0.9585134
0.70203924 0.20360899 0.5375716 0.6697451 0.5116243 -0.09688175 0.0437006 0.5206137
0.88753086 0.8982448 -0.2986762 -0.98052925 0.6804304 0.742879 -0.003413974 1.4257332
-1.1761742 1.0390196 -0.020640058 0.26799342 0.2992965 0.7138106 0.11369976 -1.0696948
0.28267965 0.28570354 -0.84831303 0.27741012 1.2627343 -0.13066487 -0.1712045 0.44314456
1.0254505 0.25568217 -0.14710452 0.3693039 0.11398643 0.6825269 0.20509432 -0.27022272
