MultiModal/16loss24.56776362657547.pth (torch, 513464 bytes, 41 tensors)

weight f4 [16, 1, 4]
000000 34 ff 24 bf 81 75 33 3e 6f 54 59 bf 32 e9 4e 3d
       -0.6445191 0.17525293 -0.8489446 0.05051536
000010 13 5f 49 bf e7 ac c3 be e3 3f 19 be 20 de 47 be
       -0.78660697 -0.38217852 -0.14965777 -0.19518328
000020 3f e3 a2 3e 0b f9 c0 3d f7 ef 44 3f e1 f4 b0 c0
       0.31814 0.09422501 0.7692866 -5.5298924
000030 7a d3 14 bf 13 22 ef 3e b3 ef 62 bf 22 e9 45 be
       -0.5813519 0.46705684 -0.88647 -0.19327214
000040 27 0b c7 3d d4 7b 5b bf bc 65 9c 3e 22 e2 3b bf
       0.09718924 -0.8573582 0.30546367 -0.73391926
000050 5e 5b 9e 3e 99 6b 67 3f 3f 4d de 3e 58 f5 54 bf
       0.30929083 0.90398556 0.4341831 -0.83186865
000060 22 b8 5c c1 1a aa 03 c0 78 bf ea be ad b3 2e bd
       -13.794954 -2.0572572 -0.45849204 -0.04265182
000070 0b 99 d2 3e 09 4e e0 3e 53 5b 8b 3e 82 0d 56 3e
       0.41132388 0.43809536 0.27218112 0.2090359
000080 6f d7 df 3e 11 00 82 3f 36 59 21 3f ab cf 92 3e
       0.4371905 1.015627 0.6302675 0.28674063
000090 40 37 b7 be 35 46 3b bf 78 0d 21 3e 85 d3 d3 3d
       -0.3578434 -0.73154 0.15727794 0.103430785
0000a0 60 47 6a bf 61 e5 04 be 17 bf cf be 84 91 19 3e
       -0.9151516 -0.12978126 -0.40575477 0.14996916
0000b0 3c a5 08 3f 6e 29 a6 3e 05 9d 67 3e 22 cc 00 3f
       0.5337713 0.32453483 0.22618492 0.5031148
0000c0 28 fb b0 3e 4b ac 79 be 21 ad 81 bf 11 00 54 ba
       0.34566617 -0.24382131 -1.013096 -0.0008087168
0000d0 00 7c 17 3f 11 9b 8f 3e 47 bc 0b 3f fc 32 1e 3f
       0.59173584 0.28047994 0.54584163 0.61796546
0000e0 7e c3 e4 3d c3 8b e9 bd 69 cf 16 3f c3 4f ec bf
       0.111701 -0.114036106 0.5891023 -1.8461841
0000f0 35 9f c0 bf 63 a0 90 bf 74 e2 f3 be 02 21 2f be
       -1.5048586 -1.1298946 -0.47633708 -0.17102435

bias f4 [16]
000000 ad d2 94 be 83 3f 7f 3f 03 69 96 3e 8d 3d 97 be
       -0.29066983 0.99706286 0.29376993 -0.29539147
000010 86 7d 7e bf c1 4c bd bd b5 5b 83 bd b4 2e 2b 3f
       -0.99410284 -0.09243155 -0.06413976 0.6686814
000020 0d de 62 bf 47 97 86 be 78 a8 a4 bf 75 87 24 bd
       -0.8862007 -0.2628729 -1.2863913 -0.040168244
000030 8a d0 26 3f 2f 9b e1 be c1 7a 3e bd 63 59 a4 3e
       0.65161955 -0.44063708 -0.046503786 0.32099447

weight f4 [16, 16, 4]
000000 0f 92 63 be 69 7c da 3d e1 e1 54 be 1f 13 9c 3e
       -0.22223686 0.106682606 -0.20789291 0.30483338
000010 48 53 b1 3e a4 2d 1e 3f d1 cb 55 3f 23 57 cc 3e
       0.3463385 0.6178839 0.83514124 0.3991023
000020 2d da 1d 3f 2c aa 7d 3f 04 aa ad 3f c3 53 a2 3f
       0.61661035 0.99087787 1.356751 1.2681812
000030 71 ef a2 bf 00 fc 08 c0 36 8b c1 bf 3b 84 d0 be
       -1.2729322 -2.1403809 -1.5120609 -0.40725884
000040 28 1b ef be 5e 2f 17 3f 84 b2 9c 3c 3b bd d1 be
       -0.46700406 0.5905665 0.019128092 -0.40964684
000050 ef 42 e5 3e 1d 71 bf 3c 1e 7e 5e be be 0d cf bd
       0.4477763 0.023369366 -0.21727797 -0.10110043
000060 ab 25 23 3e b4 09 67 bf a7 93 64 3c e1 9d 83 3e
       0.15932338 -0.9024918 0.013951219 0.2570639
000070 7d 3e 55 3e cb 5a 29 3e c0 92 ba 3e 50 53 f5 3e
       0.20824619 0.16538541 0.36440086 0.47915125
000080 7e 77 bc be ce 6c 48 be 63 58 ae be 61 94 0c bf
       -0.36809915 -0.19572756 -0.3405181 -0.5491391
000090 f5 76 68 3e b7 b3 28 3d 06 70 e1 3e 9e 55 96 3e
       0.22701629 0.041187014 0.4403078 0.29362196
0000a0 84 33 b3 3d 9b 2a eb bc f5 d4 26 bf 19 b3 13 be
       0.0875006 -0.02870684 -0.65168697 -0.14423789
0000b0 71 0f 08 bd d0 8f e5 3d a9 72 b1 3d f3 74 02 3f
       -0.03321785 0.11209071 0.08664448 0.509597
0000c0 4b 96 0e 3f 27 56 d4 3e 2c 08 17 be 32 75 97 be
       0.5569808 0.4147198 -0.14749211 -0.295816
0000d0 31 dd be be e7 54 08 bf a2 bb 77 be ed 30 c7 3c
       -0.3727813 -0.5325455 -0.2419267 0.024315322
0000e0 4e 8f 21 3f b0 45 c6 3e e1 10 51 bf 40 2e 1a bb
       0.6310929 0.38725042 -0.8166638 -0.0023526102
0000f0 43 97 15 be 9a df 14 3d 74 1e c1 bb f7 9d 25 3f
       -0.14608483 0.036346056 -0.005893523 0.6469416
000100 1f 12 b7 3e b1 30 bf 3e 22 c6 93 3c e8 f2 29 bf
       0.35756013 0.37341836 0.018038813 -0.6638627
000110 90 b7 8f be 89 0c 1d bf 06 63 85 3e 9c ca cd 3e
       -0.28069735 -0.6134725 0.2605211 0.4019364
000120 4a d3 74 bc 96 c9 cf be a4 be 0f 40 a1 6f 97 be
       -0.014942953 -0.40583485 2.2460108 -0.29577354
000130 f3 1a 7d 3e 4f b8 52 3e 9b e8 a0 3e 7f 0c 8f 3e
       0.24717312 0.2057812 0.31427464 0.2793922
000140 af d8 b8 3e 89 9b 04 3c 28 7c 8b 3e 59 3c ec 3e
       0.36102816 0.008093723 0.2724316 0.46139792
000150 60 8f c2 3c 55 2c fb 3d 55 1c 92 3e 0a 23 ae 3d
       0.023750007 0.12264315 0.2853724 0.08502777
000160 d4 f8 a4 bf bf 4e 06 c0 7c db 85 c0 af e1 9c c0
       -1.2888436 -2.0985563 -4.1830425 -4.9025493
000170 72 24 a0 3e d1 91 64 3e 0d 55 02 3e 91 c5 49 be
       0.31277806 0.2232125 0.12727757 -0.19704272
000180 a8 61 3f bf d9 7d 32 bf 61 0e cd be 33 88 0f bf
       -0.74758387 -0.6972328 -0.40050033 -0.560672
000190 1a b7 85 3e 4b a6 e1 bc 37 2e 97 be 64 e9 f1 be
       0.26116258 -0.027545115 -0.29527447 -0.47248375
0001a0 24 e6 c9 3d 14 41 96 3c 92 bd 15 be 14 55 42 3f
       0.09858349 0.018341579 -0.14623097 0.7591107
0001b0 49 be e4 3e 10 c7 b0 3d 5d 01 43 3e ac 4b 51 be
       0.44676426 0.08631718 0.19043489 -0.20439023
0001c0 b2 d4 98 be 15 06 cd be c8 18 3e bf a2 6e 1e bf
       -0.29849774 -0.40043703 -0.74256563 -0.6188756
0001d0 0a c4 ef be 54 f6 a0 be b5 e4 fd be 72 a5 23 bf
       -0.46829253 -0.31437933 -0.49588552 -0.63924325
0001e0 42 9a ba be 2c e3 be be 2d c2 b5 3a 21 e6 9f 3e
       -0.36445814 -0.37282693 0.0013867073 0.31230262
0001f0 e6 66 3d 3f 11 10 ad 3f 8a 9a 07 40 e9 fb 3f 3f
       0.73985136 1.3520528 2.1188073 0.7499376
000200 7b bb 1a 3d 0c 88 3b be df ce 34 3d 11 b8 af bd
       0.03777645 -0.18313617 0.0441426 -0.0858003
000210 52 7c 89 bd f9 af 17 bf 1d a9 58 be 42 b4 62 bf
       -0.06713165 -0.5925289 -0.21158262 -0.885563
000220 2b b9 ad 3e ad 76 52 3e db a8 a0 3e 0a c8 74 be
       0.33930334 0.20553084 0.31378826 -0.23904434
000230 96 9a 84 3d 12 1f 2f be ba be e5 3b 06 97 4e bd
       0.064747974 -0.17101696 0.007011262 -0.050436996
000240 cb d1 40 be cc f3 27 be 0d a8 c9 be 4a 62 96 3d
       -0.1883003 -0.16401595 -0.39386025 0.07342966
000250 d5 96 0e be 56 2f f7 bd 22 25 0c bd ec aa 19 be
       -0.13924725 -0.120695755 -0.0342151 -0.15006608
000260 b8 57 1d be d7 04 14 be 67 69 f1 bd f3 27 8b be
       -0.15365493 -0.14454971 -0.11787682 -0.27178916
000270 a4 49 b4 bd 74 e9 29 3d b2 20 e0 3c 49 54 cf bd
       -0.08803108 0.041482404 0.02735934 -0.10123498
000280 f2 67 6e bd 55 7f 10 be bd bf b4 3d 29 27 85 3d
       -0.0582046 -0.14111073 0.08825634 0.0650161
000290 19 24 40 bd fe 92 0d 3d df 0f 76 3d f3 1c ec bc
       -0.046909425 0.03456401 0.06007373 -0.028822398
0002a0 a7 e3 b4 bc f7 0a 28 3c 8f 36 27 bd c2 09 44 3c
       -0.02208121 0.0102565205 -0.040823516 0.011965217
0002b0 cb 71 db bd eb 4d 3f bd f1 7a 62 bd da f6 98 bd
       -0.10715064 -0.046705168 -0.055293027 -0.07468958
0002c0 e6 d4 cb 3c 48 e1 96 bd 0a 0b 0b bd 0c 94 07 be
       0.024881791 -0.07367188 -0.033946075 -0.13240069
0002d0 51 11 59 bd a4 3e 16 be 96 1a 05 bd e5 46 1f bc
       -0.05299503 -0.14672333 -0.032496057 -0.009721492
0002e0 bb bb 8d 3d 66 18 5c be 92 34 df be b5 9c 75 bf
       0.06920572 -0.21493682 -0.43594795 -0.9594224
0002f0 b4 d6 cf bd d1 77 0b be 26 c3 94 be 5b be 6b be
       -0.10148373 -0.13619925 -0.29055136 -0.23021834
000300 12 ad 7d bd 26 56 72 bd 18 3c 34 bb f9 ef e0 bd
       -0.06193263 -0.05916419 -0.002750164 -0.10983271
000310 22 89 d2 be cb c1 d2 be 88 ef e6 be dd 6c 07 be
       -0.4112025 -0.41163477 -0.45104623 -0.13225122
000320 49 8d 80 bd fb 1f e4 3c 33 34 dc 3b b7 d3 c4 bb
       -0.06276948 0.02784728 0.00672009 -0.0060066837
000330 23 f0 1b be 24 62 c2 bd 1b df 0a be 13 32 71 bd
       -0.15228324 -0.09491375 -0.1356167 -0.058885645
000340 82 75 29 be ab 7a 02 bd 97 2c 15 bb 68 98 9f bd
       -0.16548732 -0.031855267 -0.0022762173 -0.07792741
000350 e4 a0 f7 bd dd 91 bc 3d 49 26 05 bc 7b b9 3d bd
       -0.12091234 0.09207509 -0.008126804 -0.046319466
000360 82 75 48 bd 40 3d 02 bd 92 05 d1 bd 1f e5 f8 bd
       -0.04894019 -0.031796694 -0.102061406 -0.121530764
000370 c2 16 e2 bd b6 ba b5 bd 23 0a fa bd 02 91 fc 3b
       -0.11039497 -0.08873503 -0.12208965 0.007707716
000380 a9 af 12 be f7 97 70 bd 77 bc 67 bd e6 63 85 3d
       -0.14324822 -0.058738675 -0.05657622 0.06513195
000390 ba 12 e0 bd c0 31 10 be db bd 5f bc 2b ee d8 bd
       -0.10941072 -0.14081478 -0.013656105 -0.10592302
0003a0 af 7d a2 3d a4 7f d4 bb 6f 76 c8 bd 75 5c 68 3c
       0.079341285 -0.0064849425 -0.097882144 0.0141822
0003b0 2a d3 c4 3c fb 5c 76 3d 6b 46 8f bd 4d ed 76 3b
       0.024026472 0.060147267 -0.06995853 0.0037678063
0003c0 30 6c 12 bd bb 84 9e 3c 0a 62 d6 3c f0 51 db bd
       -0.035747707 0.0193504 0.026169796 -0.10708988
0003d0 cd 40 68 ba 32 b5 a8 bd 3f d8 05 bd 92 53 d5 bd
       -0.0008859754 -0.08237685 -0.03267693 -0.104163304
0003e0 aa c3 af bc f2 96 2c be 01 a0 24 bd f4 03 21 bd
       -0.021455605 -0.16854456 -0.040191654 -0.03931041
0003f0 57 2d dd bd 46 0e 06 bd fb 6b a1 bd 15 99 09 bb
       -0.107996635 -0.032728456 -0.07881924 -0.0020995785

bias f4 [16]
000000 65 d0 9e 3f 1f eb 94 3e 30 97 86 bc 86 6a d0 3c
       1.2407347 0.29085633 -0.016429514 0.02544142
000010 e8 25 0b bf ee e6 78 be 12 08 5b bd 97 85 e2 bd
       -0.54354715 -0.24306843 -0.053474493 -0.110606365
000020 9c d8 ad 3b 12 5c e5 bc 5e c2 ee bc 89 58 0e 3f
       0.005305363 -0.027998004 -0.029145416 0.55603844
000030 9a a1 af bd 92 0e 2d be 08 08 41 be d7 61 0d 3f
       -0.08575745 -0.1690009 -0.1885072 0.55227417

weight f4 [16, 16, 5]
000000 a7 8f 1d be 8e 3f 8b bd 6c af 69 bc 1b d9 c9 bc
       -0.1538683 -0.067992315 -0.014263015 -0.024639657
000010 bf d7 45 be db 1a 31 3e b8 dc 65 3e 80 16 26 3e
       -0.19320582 0.17295401 0.22447479 0.1621952
000020 2f 9b e0 3e 68 4f 8a bd 42 af 92 3e 73 23 b2 3e
       0.43868396 -0.06753427 0.28649336 0.3479267
000030 b9 a5 19 be a9 f8 c4 bc 04 9d 44 3f 3e 07 13 bf
       -0.15004624 -0.024044352 0.76802087 -0.57432926
000040 43 e7 c8 be 5e db 26 bf 54 63 58 3e e8 8e 1c 3e
       -0.3923894 -0.6517848 0.2113164 0.1528889
000050 8d dd a2 3f 16 9b 53 bf 44 b4 00 be f3 ab f7 3d
       1.2723862 -0.8265852 -0.12568766 0.120933436
000060 83 c9 16 3d 55 c5 95 3d 55 b9 87 3d a6 bb 32 3e
       0.03681327 0.07313029 0.06627146 0.17454395
000070 83 50 91 bd ec 79 b3 bd ef 97 76 3f a8 0e ef be
       -0.070954345 -0.08763489 0.9632558 -0.4669087
000080 f7 49 4d bf e8 38 17 3f 06 fc 4d be 5e ee 76 3c
       -0.80190986 0.5907121 -0.2011567 0.01507148
000090 0c 0e 7d bd 86 53 59 bd 53 62 6b 3d 3e 34 de bd
       -0.061780974 -0.05305817 0.057466816 -0.10849808
0000a0 30 f4 6b bd ad a1 78 bb 3d db c9 bd 28 30 3d 3d
       -0.057605922 -0.0037938163 -0.098562695 0.046188504
0000b0 97 08 37 3d 72 62 b9 3c 07 1f 92 bd 3e 80 ab bd
       0.044685926 0.02262995 -0.07134824 -0.0837407
0000c0 e6 a6 9e 3d b0 4e 85 bd b9 3f 2c 3d fd 7d dd bc
       0.07746677 -0.06509149 0.04205296 -0.027037615
0000d0 ad ab 38 3c 6b f4 bf 3d ad 10 c9 bd 93 eb 8d be
       0.011271399 0.09372791 -0.09817634 -0.2771879
0000e0 65 99 90 bf 2b b9 d2 bf 4a e3 58 3f 6b aa 49 c0
       -1.1296812 -1.6462759 0.84721816 -3.1510265
0000f0 77 b2 02 bf 11 c6 eb bd 84 2a f5 be 60 40 09 3d
       -0.51053566 -0.115123875 -0.47884 0.03350866
000100 0e 34 82 be 20 c2 1d 3c 4c bc 2b 3d e5 02 29 3d
       -0.2543034 0.009628803 0.04192762 0.041262526
000110 10 f3 95 bd 27 2c d1 bd bd a4 1a 40 ac f5 87 3f
       -0.07321751 -0.102134995 2.4163048 1.0621848
000120 ee 09 a9 3e a2 f0 89 3e 09 bf 87 3f 3c 60 be bd
       0.33015388 0.269414 1.0605174 -0.09295699
000130 a1 ff bf bc 82 86 11 bd f3 37 e5 bd 0e 15 b6 bd
       -0.023437323 -0.035528667 -0.11192312 -0.088907346
000140 95 e9 b3 bf 1d 7c 0c bf 4a 6b 28 bf 95 d6 92 3c
       -1.4055659 -0.5487688 -0.6578871 0.017924586
000150 09 6a 7c bd d3 53 a3 be 36 e5 bd be 15 e3 a6 be
       -0.06162456 -0.3189989 -0.37088937 -0.32595125
000160 fa 39 41 be 38 ac 02 bf 2c 49 a0 bd c8 e8 e5 bd
       -0.18869773 -0.51044035 -0.078264564 -0.1122604
000170 42 b1 7e 3d 10 94 94 bd 9f 68 93 bd 89 80 0b bc
       0.062180765 -0.07254803 -0.07197689 -0.008514532
000180 cc 01 83 3d 55 c0 b5 bd 20 a1 ea bd db aa 98 bd
       0.06396827 -0.08874575 -0.114565134 -0.07454463
000190 10 8d 02 bf 38 90 3a be 8a 56 0a be 42 e8 02 be
       -0.50996494 -0.18219078 -0.13509575 -0.12783912
0001a0 d0 dc 84 be 97 59 91 bd 10 7a a4 3d 92 24 0b 3e
       -0.25949717 -0.07097166 0.08031094 0.13588169
0001b0 7b a7 3f 3d 4d 3c ae bc 3a 07 6e bd 69 94 5d be
       0.04679058 -0.021268988 -0.05811236 -0.21638645
0001c0 2d db f8 3d ad 73 10 3e 28 1e da bd 70 1b 06 be
       0.121511795 0.14106627 -0.10650283 -0.13096404
0001d0 d2 57 1a 3d 88 31 70 3b 07 9e a4 bb c3 8e 0a bd
       0.03768141 0.0036650617 -0.005023721 -0.033827554
0001e0 28 e9 5a 3d a1 43 33 bd 43 1f 90 bd a0 57 63 3d
       0.05344501 -0.043765668 -0.07037213 0.055503488
0001f0 6d 16 e1 bd ce 04 fe bd 85 96 0c be 63 f1 3f 3b
       -0.109906055 -0.1240326 -0.13729294 0.0029288165
000200 e6 18 c4 bd a2 33 06 be c0 07 33 bd 4f 6b 95 3d
       -0.095750615 -0.13105634 -0.043708563 0.07295858
000210 94 71 b0 bd 34 95 c9 3a 95 87 83 bd 04 9f ae 3c
       -0.08615413 0.0015379549 -0.064223446 0.021316059
000220 df 86 8b bd d2 ee 76 bd 1b b4 32 3e b6 ad a0 3b
       -0.06812834 -0.06028635 0.17451517 0.0049035205
000230 ae 38 b8 be 4c cb 6d be 8e be 1e be 4b c3 d5 be
       -0.35980743 -0.23222083 -0.15502378 -0.4175056
000240 66 9b 3a ba e3 05 c8 bd 6c 81 d7 bd b1 01 9e 3d
       -0.0007118493 -0.09766748 -0.10522732 0.07715166
000250 9e df f2 bc ed 2a 9c 3d 64 f4 6d be 07 30 af be
       -0.029647645 0.07625375 -0.23237759 -0.3421633
000260 0d fc 1e 3d 55 42 0b 3e e7 72 0c 3d c8 61 ba be
       0.038814593 0.13599522 0.034289267 -0.36402726
000270 03 87 1c be 3a f4 99 be 91 bf 26 be bb 51 7b be
       -0.15285878 -0.30069143 -0.16284014 -0.24542896
000280 53 c2 68 be 64 f7 5e bd 4b d4 b1 bd 4e a3 0b be
       -0.22730379 -0.05443515 -0.0868307 -0.13636515
000290 32 68 c1 bd 30 21 eb bd e2 12 7c be 1a b7 9a be
       -0.09443702 -0.114809394 -0.24616578 -0.3021782
0002a0 54 ae 7f bd 75 f4 b6 bd 32 c3 2d be a9 a7 c0 bd
       -0.06242211 -0.08933345 -0.16968992 -0.09406979
0002b0 70 16 c2 bd a4 ea 17 be 4d 3c 39 3d 15 9b 40 be
       -0.09476936 -0.14835602 0.045223523 -0.18809159
0002c0 5d 87 0e be 49 f9 c5 bd f0 3d 44 3d 89 46 49 3c
       -0.13918824 -0.09666688 0.04791063 0.012284883
0002d0 12 26 63 bd 1b 55 55 bd 6d b6 7b bc ae 88 48 be
       -0.05545623 -0.052083116 -0.015363318 -0.19583389
0002e0 10 5e 32 bd 24 95 96 3b 19 9c 5a 3d 37 b8 e1 3d
       -0.043546736 0.0045954157 0.053371523 0.11021464
0002f0 f7 c2 16 bd 63 8a 87 bd ac 3b 6c be 8a 92 2b be
       -0.036807027 -0.06618192 -0.23069638 -0.16755119
000300 47 52 8f bd df 7f c4 bc 31 87 8e bd 84 42 04 bd
       -0.06998115 -0.023986755 -0.069593795 -0.032289997
000310 07 b1 35 3d 44 43 28 bd 38 2e 6a 3c 85 4f 75 3b
       0.04435828 -0.041079774 0.014293246 0.003743143
000320 a6 f5 1b bc 03 75 ae bd d3 7f 45 be 53 c9 08 bd
       -0.009519016 -0.08518412 -0.19287042 -0.033395123
000330 dc 68 38 bc 27 6f 3a bd 61 63 1d be 14 d1 ef bd
       -0.011255469 -0.04551616 -0.15369941 -0.117098
000340 02 d8 68 3d fa 05 5a 3d 2a 75 c0 bd 4b f9 40 be
       0.056846626 0.053228356 -0.09397347 -0.18845098
000350 03 38 d9 bd 02 e1 31 be 27 be 88 bd b1 2d 24 be
       -0.106063865 -0.1737099 -0.06676894 -0.16033055
000360 7e 77 64 3b c2 30 42 bd 2b 48 b2 bd df 83 dd bd
       0.0034861262 -0.04740978 -0.08705171 -0.10816168
000370 1b 14 7e bc 29 09 4f bd 56 71 3e be 17 d8 56 3c
       -0.015507723 -0.050545845 -0.18597922 0.013113043
000380 8c ad 11 be d8 79 06 be ff 7b 30 bd fb 25 eb 3a
       -0.14226359 -0.13132417 -0.043087002 0.0017940396
000390 d6 91 cf bd ab 38 8b bb d8 e5 52 be bd 20 97 bc
       -0.10135238 -0.0042486987 -0.20595491 -0.018448228
0003a0 67 2e 91 bd e7 ba 0f be 8c 25 18 3b 3f a0 0c be
       -0.07088929 -0.14036141 0.002321574 -0.13733004
0003b0 3a e1 bc bd 04 91 88 be 42 3f 0d be 0e f6 b6 bd
       -0.09222646 -0.26673138 -0.13793662 -0.0893365
0003c0 65 a2 9b bd c5 a6 44 be 2a 01 3a 3c 62 1e b8 bd
       -0.07599334 -0.19204243 0.011352817 -0.0899017
0003d0 5c 59 4c bd 02 8d 1b be d2 54 a6 bd 69 e7 3f be
       -0.049889907 -0.15190509 -0.08121647 -0.1874062
0003e0 82 40 86 be 4a bb b0 bd de a9 83 3b 4f 5b 2f be
       -0.2622109 -0.086294726 0.0040180525 -0.17124675
0003f0 ae b4 7c bd 08 be ab bd 1d 76 4d bc 8e 34 19 bc
       -0.061695747 -0.08385855 -0.012540367 -0.009350909

bias f4 [16]
000000 60 35 38 bb 8e 58 51 be e1 89 a9 be e2 0f 56 be
       -0.0028107986 -0.20443937 -0.33113006 -0.20904496
000010 88 32 82 bd 33 32 0c be 9a 7d 7e 3f 38 8c cf be
       -0.06357294 -0.13691024 0.994104 -0.40536666
000020 c6 e6 b0 be 26 03 b8 3c 4e 82 5a 3f 1d 01 f9 be
       -0.34551066 0.022462439 0.8535508 -0.48633662
000030 cf 89 8e 3e ff 43 3f be 2b ab 1a be a3 22 cd bd
       0.27839515 -0.18678282 -0.15104358 -0.10016372

weight f4 [16, 16, 5]
000000 e9 86 30 bf b8 54 56 3e e0 d5 b5 be 64 1f 7b bf
       -0.68955857 0.20930755 -0.35514736 -0.98094773
000010 10 4c 6b be 56 4d be be fc 5c 85 be 9e 59 fa bd
       -0.22978234 -0.37168378 -0.26047504 -0.12224124
000020 6d 40 25 bd 2f d9 30 be 82 18 ff bc 23 2e b3 bd
       -0.040344644 -0.17270349 -0.031139616 -0.08749034
000030 76 82 b8 3d 4c 8e 1f bd d3 14 63 bd 0e 34 27 3d
       0.090092584 -0.038954064 -0.05543978 0.040821128
000040 f3 09 1f 3e 3f 7f b5 bc 61 36 e7 3d 15 32 9a bc
       0.15531139 -0.022155402 0.11289669 -0.01882271
000050 a2 12 8e 3d 53 48 83 3d 54 6d 07 3e 59 ee ee 3d
       0.06937148 0.06410279 0.13225299 0.11666555
000060 73 72 b6 bd 6b bf 99 be b0 9f a3 be 22 62 76 be
       -0.08908548 -0.30028853 -0.3195777 -0.24060872
000070 ae a3 64 be fb 4e c0 be 74 59 0a be 5d 60 2a be
       -0.22328064 -0.37560257 -0.13510686 -0.16638322
000080 f9 84 a9 bf b1 e5 30 3e 14 81 b6 bd d4 27 28 be
       -1.3243705 0.1727512 -0.089113384 -0.16421443
000090 be 48 8a be 5a 24 52 be 0d 63 50 be 87 d9 cf bd
       -0.27008623 -0.2052168 -0.20350285 -0.10148912
0000a0 4d 4c 18 be 87 53 44 be 1e de 2e be d9 18 16 be
       -0.14872856 -0.19172488 -0.17076918 -0.14657916
0000b0 1e 50 25 be b4 20 6d bf 29 96 84 bf ef cf 50 bf
       -0.16143844 -0.92628026 -1.0358325 -0.8156728
0000c0 ea 08 40 bf 24 c5 ab be 91 a9 be bf d0 04 99 bf
       -0.750136 -0.33548844 -1.4895498 -1.1954594
0000d0 67 da ca bf 5e 93 b5 bf 29 d9 e5 3e 44 43 04 be
       -1.5847901 -1.4185598 0.44892243 -0.12916285
0000e0 05 79 59 bd bd 22 13 3d b8 b0 91 3d 2c a9 5b 3d
       -0.05309393 0.0359218 0.071137846 0.05362813
0000f0 3f 84 e4 be 50 89 c3 be 76 13 47 be 26 5c 48 be
       -0.44632146 -0.381907 -0.19441018 -0.19566402
000100 9c c2 b1 be 71 ed 07 be e0 cc 14 bc cd d0 d5 3c
       -0.34718788 -0.1327417 -0.009082049 0.02610054
000110 9b c6 d1 bd c7 55 47 3d 4d 2f f1 bd 51 ae d8 bd
       -0.10242959 0.048665788 -0.117766 -0.10580123
000120 93 a6 07 be 1e a2 3e 3d bb 24 26 bd c7 d5 d6 3c
       -0.13247137 0.046541326 -0.040562373 0.026224984
000130 92 cb 1f 3c fa d3 ae bd b7 1e 7c b8 85 28 3a bd
       0.009753125 -0.08536525 -6.0110087e-05 -0.0454488
000140 d7 a0 0b bf 8d 19 28 bf 5f 3b 1a bf 8b f0 c4 be
       -0.545423 -0.6566399 -0.60246843 -0.3846477
000150 63 b3 16 bf ec 59 92 be f1 1b 4a bf c9 5e ce 3e
       -0.5886747 -0.2858423 -0.78948885 0.4030669
000160 f4 c8 d4 be eb ed 89 bf 90 11 79 be d9 73 bf 3e
       -0.41559565 -1.0775732 -0.24323106 0.37393072
000170 e5 1f 87 bd a0 c9 c9 be 5c 6f ae be 1f 09 a2 be
       -0.0659788 -0.3941164 -0.34069335 -0.31647584
000180 c8 d7 7d be 7d 24 61 3d e9 e3 1b 3e 8f 7d 1e 3e
       -0.24789345 0.05496644 0.1522366 0.15477584
000190 d6 77 03 3d 17 24 2a be 18 4d 90 bd 40 96 12 3c
       0.032096706 -0.1661533 -0.070459545 0.008946955
0001a0 42 e5 9c 3b 87 6f 5f 3e d4 d2 e2 3d 15 d1 22 3f
       0.004788072 0.21819888 0.110753685 0.63600284
0001b0 7f 35 0a bf 13 d5 16 bf 59 b1 9c be 61 a3 20 3e
       -0.5398788 -0.58918875 -0.30604056 0.15687324
0001c0 fb 08 84 bd 39 49 1d be 76 79 ce be 21 e5 13 bf
       -0.064470254 -0.15359963 -0.40327042 -0.577715
0001d0 b5 3a d7 be 8f f9 02 bf 09 fa 5b be ab c5 1f be
       -0.42036977 -0.51162046 -0.214821 -0.15602748
0001e0 9e 41 4b 3f 78 a5 8d be 5c b8 9a 3e cb 29 0f 3f
       0.79397 -0.27665305 0.3021878 0.55923146
0001f0 1c dd 1d c0 33 a5 06 bf 5e e3 54 be 1a c9 8a be
       -2.4666204 -0.52595824 -0.20789859 -0.27106553
000200 7d 78 22 bf d9 fe ec be de 3c 16 bf 7d 0d 38 bf
       -0.634651 -0.46288183 -0.58686626 -0.7189558
000210 19 2c db bb 55 76 dc bd 28 af d8 bb 07 06 03 3f
       -0.0066886065 -0.107647575 -0.006612677 0.5118107
000220 c0 41 54 3f 40 c1 4e 3f e7 13 f0 3e 01 74 26 3f
       0.82912827 0.80763626 0.46890184 0.6502076
000230 77 fd 71 bf 82 be d2 be 7d 86 96 be 15 e8 82 bc
       -0.9452738 -0.4116097 -0.2939948 -0.015979806
000240 aa ec 95 be ce 6d b2 3e 44 8b 66 3f 76 24 13 3f
       -0.29282123 0.348494 0.9005625 0.5747751
000250 a4 ee 54 bf c5 ad 06 3f 9d 9c 83 bd 08 32 15 3f
       -0.83176637 0.526089 -0.06426356 0.58279467
000260 21 46 a1 bd 58 2f 60 bf 05 03 3d bf 19 4e f6 be
       -0.07874704 -0.8757224 -0.7383273 -0.4810646
000270 bb 95 3b 3f 7d 65 21 bf 54 a0 b5 be 9b 90 18 bf
       0.73275346 -0.63045484 -0.35473883 -0.5959565
000280 6c 42 d4 bd 32 99 1d bc eb ba 37 be ce a4 b7 bd
       -0.103642315 -0.009619044 -0.17942397 -0.08966981
000290 93 df 46 bd 55 12 fc 3c 11 e2 c1 3c 22 d4 33 3d
       -0.04855306 0.03077046 0.023667367 0.043903477
0002a0 5c be 1c be 9b ff 24 be e5 38 9f bb 18 30 29 3e
       -0.15306991 -0.16113131 -0.0048590773 0.16522253
0002b0 32 24 a6 3c 8a df e2 bd 7f 77 96 bb 8c 1b 83 bd
       0.020280931 -0.11077793 -0.0045918818 -0.064017385
0002c0 9c d3 5b be 9c 78 7f bd eb 09 be bd 57 4c 9a bd
       -0.21467441 -0.06237088 -0.092792355 -0.07534092
0002d0 cc bc e5 ba a6 dd f5 bd 17 3d fb bc 3e 35 e7 bd
       -0.0017527579 -0.12005167 -0.030668778 -0.11289452
0002e0 86 fe 12 3d 03 5e 55 3c 1d ab 90 3c e1 99 20 3b
       0.035887264 0.013022902 0.017659718 0.0024505781
0002f0 da 89 c8 bb da eb 2c 3c cc 94 cf bd 66 a8 03 be
       -0.006119949 0.010554278 -0.101358026 -0.12857208
000300 c0 8e d4 bd c6 c0 4a 3c b6 e3 ea bd 4b dc dd bd
       -0.1037879 0.012375062 -0.11469214 -0.10833033
000310 59 3c f4 bd 6c 54 86 3b 91 2f 29 3d fe 5d 23 be
       -0.11925573 0.0040994193 0.04130513 -0.15953824
000320 c4 0f 43 3d db b6 a7 3c 3c 57 a3 3c 80 50 92 3b
       0.047622457 0.020472934 0.019939058 0.0044651628
000330 cf 32 30 bc f5 b0 9f bd d7 8c 9e bd f2 4f ac bd
       -0.010754301 -0.07797424 -0.07741707 -0.08413686
000340 47 42 29 be c6 1f c8 bc 70 04 1c bd 32 ac 20 be
       -0.16529189 -0.024429213 -0.03809017 -0.15690687
000350 da 1a 22 be f1 58 5a 3c fd 48 e5 bd 48 b1 c1 bd
       -0.15830556 0.013326869 -0.11195562 -0.09457642
000360 3c 84 e2 bd 62 e0 c8 bd f9 85 18 be 9a 66 ed bc
       -0.11060378 -0.098084226 -0.14894857 -0.028979588
000370 da 84 d9 bd 5c 7c 1c be 36 7b 93 bd 84 e5 fb bc
       -0.106210425 -0.15281814 -0.07201235 -0.03074909
000380 fd 3f d7 bd 15 ed cd bd ca 4b 22 be eb fc 8e 3d
       -0.10510252 -0.100549854 -0.15849224 0.06981834
000390 98 64 0c 3d d7 b6 c7 bc d5 ad ab bd 04 71 bc bd
       0.03427562 -0.024379177 -0.08382765 -0.092012435
0003a0 79 62 ad bc b4 1c 10 3d 0c aa 15 bd 13 6f 2a 3d
       -0.02116512 0.035183623 -0.036539122 0.041609835
0003b0 1c 2b 20 be 33 c2 ec bd a9 f2 e5 bd 26 0c fb 3c
       -0.15641445 -0.11560478 -0.112279244 0.030645441
0003c0 72 00 9a be 02 c6 a5 bd 33 47 ed be 92 c1 9c be
       -0.30078465 -0.080944076 -0.46343383 -0.30616432
0003d0 74 03 92 be b7 8c 2c bf a9 92 11 bf de 14 a4 be
       -0.2851826 -0.67402214 -0.5686441 -0.3204717
0003e0 d7 f2 5c be ea 23 b5 be a4 28 75 be 34 e0 e0 3d
       -0.21577011 -0.35378963 -0.23941284 0.10980263
0003f0 73 c0 ee 3d a4 a9 3a 3e 33 b8 18 bc dd 88 99 bd
       0.116578005 0.18228775 -0.00932126 -0.07496808

bias f4 [16]
000000 70 89 9f be ca 94 af 3e ed 1e 43 bd f2 9e 27 bf
       -0.31159544 0.34293205 -0.047636915 -0.65476906
000010 de e9 18 bf 21 be 06 be 26 a1 7f 3e 12 c1 93 3e
       -0.59731853 -0.13158466 0.24963817 0.28858238
000020 50 b1 d4 be 77 3b 18 bf 63 34 ed be 7b 06 45 be
       -0.4154153 -0.59465736 -0.4632903 -0.19240753
000030 a9 9f a2 3e 1b 7a b4 bd 50 b6 9a be e3 89 ce be
       0.31762436 -0.08812352 -0.30217218 -0.40339574

weight f4 [64, 112]
000000 c5 76 f7 bd 83 d5 4c bd b9 05 12 be 59 ee 13 be
       -0.120832 -0.05000831 -0.14259996 -0.14446391
000010 e3 c6 c7 bd 87 da e9 bd f8 8c b1 ba 7f ee 5b 3d
       -0.097547315 -0.11418634 -0.001354604 0.053694244
000020 cb f1 e4 bc 7b 14 31 bd 64 ba 94 bc f7 21 9a 3d
       -0.027947327 -0.043232422 -0.018155284 0.075260095
000030 4a 1d a9 bd 2d 27 81 bd 36 c9 b5 bd 7c e9 8f bd
       -0.082575396 -0.063063 -0.088762686 -0.070269555
000040 a7 8b 6f 3c c6 9f 13 be c8 2b 8c bd 64 70 2d 3c
       0.014620698 -0.14416417 -0.06844288 0.010585878
000050 bb 1a bf 3c ad 96 f9 bd 4e fa b2 3b 98 95 a4 bd
       0.023328176 -0.12186942 0.0054619676 -0.08036345
000060 25 a6 18 bd 20 38 b5 3d e9 54 d6 bd 00 0a da 3c
       -0.037267823 0.088485956 -0.10465414 0.026616096
000070 2a 1c 14 be 87 e4 9d bd 4c 6d c7 bd 35 23 d9 bd
       -0.14463869 -0.07709604 -0.097376436 -0.10602418
000080 73 7d ff bd 87 9e 90 bd c6 49 51 bc 6c 2a ba 3c
       -0.124750994 -0.07061487 -0.012773937 0.022725306
000090 18 e1 91 3c cc 20 a3 3c 51 b6 03 bd fd d4 c6 bc
       0.017807528 0.0199131 -0.032156292 -0.024271483
0000a0 d2 7d 7b bd df 2e 66 bd bf 4d d3 bc 7e 3b aa bd
       -0.06139929 -0.056197044 -0.025793908 -0.083121285
0000b0 3d 71 0c bd 10 f2 f8 bd d6 a4 04 bd af 5b 8b bd
       -0.03428768 -0.12155545 -0.032383762 -0.06804597
0000c0 c8 e1 93 3c e8 39 58 3a de f8 e1 bc 7a 90 d4 bd
       0.018051997 0.0008248375 -0.02758449 -0.10379119
0000d0 d0 36 a4 bd 7d f4 04 be d6 47 0d be 0c 12 c8 bc
       -0.08018267 -0.1298389 -0.13796934 -0.024422668
0000e0 6b 29 8f bc cb 34 fb bd ec 8f 11 be d5 ec c1 bc
       -0.017475804 -0.12265929 -0.14215058 -0.0236725
0000f0 81 ea 07 be 6a b5 97 bd ad 47 d5 bd 2d 1b c3 bd
       -0.1327305 -0.07407649 -0.10414062 -0.09526668
000100 69 ec 18 be 0a 67 91 3c 81 d9 c9 3c 6b f7 10 be
       -0.14933933 0.017749328 0.024639847 -0.14156882
000110 28 bf 03 be 94 ed f9 bd 1e 51 06 be 4c 06 32 bd
       -0.12865889 -0.122035176 -0.13116881 -0.043463036
000120 e3 b4 b0 bd 7f 82 1a be 38 5f 02 be 82 4c 1a 3c
       -0.086282514 -0.15088843 -0.12731636 0.009417655
000130 5d f0 80 bd 1e a7 70 bd 8c 51 03 be e5 b1 0e be
       -0.06295846 -0.058753125 -0.12824076 -0.13935049
000140 38 83 e0 bc 64 62 15 be 62 44 17 be 40 27 a4 bd
       -0.02740632 -0.14588314 -0.1477218 -0.08015299
000150 3a 47 cd 3c 48 e9 0c 3d d5 0b 03 be 28 7b 11 be
       0.025058378 0.03440216 -0.12797482 -0.14207137
000160 00 47 cd bd 63 04 fb bc 2f cb 81 bb fd 1d 0c be
       -0.10023308 -0.03064174 -0.003960989 -0.13683315
000170 2f 20 7c 3c f7 00 80 bd 03 bb d8 bb 93 20 4b bd
       0.015388533 -0.06250184 -0.0066140904 -0.049591612
000180 1a a4 5d bd 97 98 77 bd e4 3c 23 bc 22 4d 16 be
       -0.054111578 -0.060448255 -0.009963248 -0.14677861
000190 07 1e a8 bd 4f 42 b9 bd 77 c5 91 bc 0f e0 e5 3c
       -0.08208852 -0.090458505 -0.017794354 0.028060941
0001a0 6b 54 88 bc 1c 0f 77 bd 10 ac e1 3c f7 d4 75 3c
       -0.016641816 -0.060317144 0.027547866 0.015004388
0001b0 ad 2e 04 bd f3 0b 99 bc 9c d6 3c bd a6 e5 50 3b
       -0.032271076 -0.018682456 -0.046103105 0.0031875162
0001c0 6f 02 d0 3e 2c 83 4d 3e a5 b5 58 3d d7 c1 c4 3e
       0.40626857 0.2006957 0.052907605 0.38429138
0001d0 34 da 93 3e b9 c4 ba 3d a6 bf 48 3e 30 69 d9 bf
       0.28877413 0.09119553 0.19604358 -1.6985226
0001e0 16 76 cf 3e ed ec e3 3e 41 1a 23 bf 4c 22 a0 be
       0.4051978 0.44516698 -0.63711935 -0.31276166
0001f0 3b e0 fa 3d f6 46 6e 3f bc 42 65 bc 67 85 4f bc
       0.122498 0.9307703 -0.0139929615 -0.012666083
000200 e6 20 b1 bd 62 d8 aa bc 69 07 3c bd ad c4 97 3c
       -0.08648853 -0.020855132 -0.045905504 0.0185264
000210 74 c3 1f bd 96 ef ad be 99 07 ad 3d 33 29 1e 3f
       -0.039004758 -0.33971852 0.08448715 0.61781615
000220 52 61 d9 3d f7 1a bb 3e 1c 96 a9 be 2a 73 7d 3f
       0.106142655 0.3654401 -0.33122337 0.9900385
000230 44 7c 64 bf 2b 83 66 3d 2c fa 02 be be e4 59 3d
       -0.89252114 0.056277435 -0.12790745 0.05319666
000240 2b 6d 82 be fa f5 10 3f a1 a5 45 3e 4e c9 f3 3b
       -0.25473914 0.5662533 0.19301464 0.007439769
000250 e0 1a 82 3e 41 99 44 3c d8 9c 82 bd a8 85 39 be
       0.2541113 0.011999429 -0.06377572 -0.18117392
000260 95 9a c6 be f5 b1 8d 3e f1 83 8c 3d eb 9f 84 be
       -0.38789812 0.27674833 0.06861103 -0.25903258
000270 5f 63 75 3e e5 23 1e be f0 7f b4 3e 4d 19 3c 3e
       0.23963688 -0.1544338 0.3525386 0.18369026
000280 d7 ee 03 3e 74 cb a8 3e a6 59 fb bd af 08 00 3e
       0.12884079 0.32967722 -0.122729585 0.12503313
000290 36 c1 3e 3e 72 fd ce 3d 8d 56 8c 3e cb 0a 8c 3e
       0.18628392 0.101069346 0.27409783 0.27351984
0002a0 55 a3 1b 3f 03 bd 39 3e e9 58 6d 3e 35 08 75 3e
       0.607961 0.18138508 0.23178448 0.23928912
0002b0 33 7c ea 3e f8 7f bd 3e 5d a5 58 3e 14 56 76 3d
       0.4579788 0.37011695 0.21156831 0.060140684
0002c0 4d 01 41 be 2b c3 56 3d 79 3d eb bd a6 38 8f 3e
       -0.18848152 0.05243222 -0.11486334 0.27972907
0002d0 ac 8d f9 bc 2d 87 83 bd 97 88 3e bf 92 ce 01 bf
       -0.030463062 -0.06422267 -0.7442717 -0.50705826
0002e0 21 49 15 bf 0c 91 19 bf 95 1a 09 bf f9 a6 36 be
       -0.5831471 -0.5998695 -0.53556186 -0.17837133
0002f0 df 70 20 3e 3c 67 02 3e 47 34 6f 3d 4a c1 4a 3e
       0.15668057 0.12734693 0.058399465 0.19800296
000300 b9 0d b6 3e 72 b4 0e 3e 38 f2 c4 3c 49 30 a9 3c
       0.35557345 0.13936022 0.02404128 0.020652907
000310 b7 7b d7 3e 77 a9 92 be 95 ef d6 3c 45 0c 81 3e
       0.42086574 -0.28644916 0.026237288 0.25204673
000320 6e 31 15 3e 61 49 8a 3e 49 43 7b 3e f1 a7 3b 3d
       0.14569637 0.2700911 0.24537386 0.04581446
000330 07 b4 af bd 06 b5 33 bc bb 81 bc bd 1f ef 2d 3d
       -0.08579259 -0.010968452 -0.092044316 0.04246437
000340 50 83 1b bd 6a 14 10 bd 64 b2 08 be 89 04 c0 bd
       -0.037967026 -0.03517572 -0.133493 -0.09375865
000350 d2 0d 1c bd 08 40 86 3e 1e 87 a2 3d 02 b2 16 3f
       -0.038099118 0.26220727 0.07935928 0.5886537
000360 0c aa c3 3e a8 a5 fa bc 54 7a a4 3c 12 0a 80 3e
       0.38215673 -0.03059657 0.020077862 0.25007683
000370 e6 59 67 3e d4 e9 e0 bd b8 f7 c8 bd 8d 45 69 3d
       0.22592887 -0.10982099 -0.098128736 0.056951094
000380 56 11 80 bd 9a 2b 07 3d d8 83 e8 bd 77 07 19 3d
       -0.062533066 0.033000566 -0.11353272 0.037360635
000390 bd 6f f9 bc c3 f6 c1 bd 63 d1 df bc 52 c4 98 be
       -0.030448789 -0.09470894 -0.027321523 -0.2983728
0003a0 aa 64 7b be 15 be 80 be c6 c9 83 be 98 ca a9 be
       -0.24550119 -0.2514502 -0.25739878 -0.3316238
0003b0 cf dd 73 be 84 71 b0 be 48 e3 cb bd ad 85 07 be
       -0.23815082 -0.34461606 -0.0995546 -0.13234587
0003c0 7d 3f f5 bd 84 97 2a 3c cb 40 12 3d 24 d8 09 3d
       -0.11975 0.010412101 0.035706323 0.033653393
0003d0 46 20 bb bd 65 33 ad bd 4b 67 3f bd b8 9a d0 bd
       -0.09137015 -0.08457068 -0.046729367 -0.1018576
0003e0 98 61 da bc e1 23 08 be 8e b9 e6 bc 97 5c 9a bd
       -0.026657864 -0.13294937 -0.028164651 -0.07537191
0003f0 c1 92 6b bd a8 03 1f 3d 48 67 0e be 2c f3 44 bd
       -0.057513002 0.038821846 -0.13906586 -0.04808347

bias f4 [64]
000000 f9 1f c4 bc 03 b3 47 3f 05 21 56 bb 60 a6 2d be
       -0.023941027 0.78007525 -0.003267349 -0.16957998
000010 21 05 b9 bd 20 56 f0 be e9 ee 16 bf 8c 16 f8 bd
       -0.090341814 -0.46940708 -0.589583 -0.121136755
000020 14 35 34 bd 68 07 f1 3c 8b 9e 05 3d 88 79 56 bd
       -0.04399593 0.029422477 0.0326219 -0.052361995
000030 ee 69 bc bd 89 0a d8 be 19 47 31 bf c6 f2 ce bd
       -0.09199892 -0.42195538 -0.6924911 -0.10104899
000040 6f 2c 0b bf 9a e4 ad be 4b 06 96 bd 3b b1 c2 be
       -0.54364675 -0.33963472 -0.07325419 -0.3802584
000050 3d 5e 2b 3c 23 5a 30 be 9a bb 21 3b 1c f5 a5 be
       0.01045948 -0.17221884 0.002467847 -0.32413566
000060 ed 43 f0 bd 7b 88 9a 3e 99 16 8b bd cb b2 63 bf
       -0.11731706 0.3018225 -0.067914195 -0.8894469
000070 48 3a 89 3e a4 e6 90 bd fa 38 bf bf 8d 29 c2 bd
       0.26802278 -0.07075241 -1.4939263 -0.094805814
000080 85 d9 b6 3d a2 fc 03 3d 4b a5 9b 3d f7 a3 1c be
       0.08928207 0.03222335 0.075998865 -0.15296923
000090 db bf 0c be 43 d6 35 3e 4d f0 bf bd e3 d5 89 bd
       -0.13745062 0.17757516 -0.093720056 -0.06730249
0000a0 08 c7 3e bd db b2 bb bd 82 49 16 bd 11 6f ee bd
       -0.04657653 -0.09164973 -0.036691196 -0.11642278
0000b0 71 27 03 bd 10 01 55 be 1f ff 30 bc 08 8b 10 3e
       -0.032020036 -0.20801187 -0.010803013 0.14115536
0000c0 7e a7 81 bc e2 bd e7 bd 68 52 b3 bd 84 cf 3d be
       -0.015826937 -0.11315514 -0.08755952 -0.18536192
0000d0 cc d5 cf 3b 02 e8 37 3d f7 aa 96 bf 00 b0 b6 be
       0.0063426252 0.044898994 -1.1770924 -0.35681152
0000e0 6b 5b 2e bd f5 69 cf bd a5 26 26 3d c3 96 8b be
       -0.04256765 -0.101276316 0.040564198 -0.2726346
0000f0 d3 7e 9b bc b1 7c ee bc 45 b0 28 be a3 9d 0f 3f
       -0.018981373 -0.029112192 -0.16473491 0.5609991

weight f4 [32, 64]
000000 a6 35 ea bd ee 2f d7 be fc db 57 3d 0c 72 8b bd
       -0.11436014 -0.42028755 0.052700028 -0.06808862
000010 c8 f9 e8 3d 24 9f ba 3d 3c 20 83 bd 00 38 8a bb
       0.11375767 0.09112385 -0.064026326 -0.0042181015
000020 c0 45 a1 3c 50 7e 63 3d a0 1b b3 3b 9c 14 7b bd
       0.01968658 0.055540383 0.0054659396 -0.06129895
000030 04 d1 e1 bd 60 e4 6d bd 1f fd 46 be 98 6c 08 bd
       -0.11026195 -0.058079123 -0.19432496 -0.033306688
000040 24 7d 89 3d 96 66 d3 3d b0 d0 81 bc 3e 24 a2 3d
       0.06713322 0.10322301 -0.01584658 0.07917069
000050 ec de d4 bd 66 73 a8 bd 70 89 82 bd 7c ed 4b bd
       -0.103940815 -0.082251355 -0.063738704 -0.04978703
000060 fc 8d 0d bd 7f f1 89 be fc 65 56 bd ec d6 64 be
       -0.034559235 -0.2694206 -0.052343354 -0.22347611
000070 f1 2a b3 be 66 f3 9d bd a8 ee a8 bc 24 2f cd bd
       -0.349937 -0.0771244 -0.020621613 -0.10018757
000080 b5 82 b9 be d4 ab 1c 3d d1 88 bd be 10 ec 85 3d
       -0.36232534 0.038249806 -0.37018445 0.06539166
000090 6c 38 ee bd 56 f1 9e bd 24 c5 d5 3d 1a 76 d7 bd
       -0.11631855 -0.07760875 0.10437992 -0.10520573
0000a0 80 64 20 3c 96 d1 86 bd ce 70 d6 bd 10 20 a9 3c
       0.009789586 -0.06582944 -0.104707345 0.020645171
0000b0 c6 a1 97 3d e2 0b af bd 68 e4 c7 bc 34 2c 74 3d
       0.07403903 -0.08547188 -0.024400905 0.059612468
0000c0 b2 23 fb bd 00 47 9d 3b e8 3b c3 3c 96 c8 c9 bd
       -0.12262668 0.0047997236 0.023832276 -0.09852712
0000d0 a4 35 4e bd e0 8a a0 3c 3a fd 97 be aa 01 9e be
       -0.050344124 0.01959747 -0.29685384 -0.30860645
0000e0 2e 61 9c bd 50 cb 43 bc b0 02 59 bc d6 2e de bd
       -0.07635723 -0.011950329 -0.01324527 -0.10848777
0000f0 1c ca e6 3d 60 3f ad bd 48 89 4a bd ee 2a bb be
       0.11269018 -0.084593534 -0.049447328 -0.3655619
000100 a8 a2 60 3d 0d b6 cd be 6c 2b 2e 3d 00 cb 26 bd
       0.05484262 -0.40177956 0.04252188 -0.04072094
000110 ed 1e 09 3d 84 9f 57 bd e0 97 0a 3d f0 d6 1e 3c
       0.03347676 -0.05264236 0.033836246 0.0096948
000120 28 07 84 3d 5b e3 84 3d 35 66 34 be 4d 86 db bd
       0.064466774 0.06488677 -0.17617114 -0.10718975
000130 a9 5f 09 bc c0 ee e0 bd c8 e1 bf bd 7e fd 22 be
       -0.008384624 -0.10983038 -0.09369236 -0.15917012
000140 ce 95 ab be 32 7e 2e be 54 3b ef 3c 96 dc 99 bd
       -0.3351273 -0.17040327 0.029203095 -0.075127766
000150 59 41 75 bc d2 f4 75 3d 5c 9d 78 bd 08 bf cd 3d
       -0.014969193 0.060047932 -0.060696945 0.10046202
000160 0e a5 80 bd 66 b7 a4 be a6 1c b8 bd 20 37 66 bd
       -0.06281482 -0.32171172 -0.08989839 -0.056204915
000170 5e 88 2b be c7 9d fa be 23 fa bb be 96 59 21 bb
       -0.16751239 -0.489485 -0.36714277 -0.0024620048
000180 39 01 5f be 00 c1 7f 3d 33 a7 2b bd ea 9b 25 3d
       -0.2177781 0.06243992 -0.0419075 0.040431894
000190 de a2 23 3c 99 39 ee be 09 6c 7f bd 3e d2 55 bd
       0.009987561 -0.4652832 -0.06235889 -0.052202456
0001a0 af 52 e7 bd ea 71 25 3d ac f9 b1 bc 86 9e 9f bd
       -0.112950675 0.04039184 -0.021725498 -0.07793908
0001b0 3c a1 c1 bd 76 64 16 bd c0 79 73 bc fc e0 83 be
       -0.09454581 -0.0367169 -0.01486057 -0.25757587
0001c0 ae 87 12 be 1d 4b 90 bc ac 7b 92 3c 98 7b 71 3d
       -0.1430957 -0.017613942 0.017881237 0.05895576
0001d0 e9 b2 b8 bd 84 5e 7c bd 60 d8 d7 be 27 12 a8 be
       -0.090184994 -0.061613575 -0.4215727 -0.3282635
0001e0 28 6e 8b bc 54 9d df 3d 30 1c 25 bd c1 c0 77 3c
       -0.0170203 0.1091868 -0.040310085 0.01512164
0001f0 56 ef f1 bc 89 4f 90 bd 0b 04 d5 bd 4e a7 8b be
       -0.02953307 -0.0704642 -0.10401162 -0.2727608
000200 89 8c 9d bd aa dd 95 be 38 3b 11 bd be 98 f0 bd
       -0.076928206 -0.2927068 -0.035456866 -0.11747883
000210 6a 58 97 3c ca c9 38 3d 3a 45 c9 3d 1c 30 84 bd
       0.018474776 0.045114316 0.09827657 -0.06454489
000220 2a 72 b4 bd 83 e0 90 bd 44 e8 31 be 27 1b 6f bd
       -0.088108376 -0.07074072 -0.17373759 -0.058375504
000230 78 d5 32 3d ad 16 95 bd 61 a2 6c 3c 20 79 57 3c
       0.04366061 -0.07279716 0.014443011 0.013151437
000240 c0 22 e0 bd 3b ba 01 bc 4b d6 01 be 41 56 b6 bd
       -0.10944128 -0.007917936 -0.12679403 -0.089031704
000250 14 36 c2 3c 8c 5b 09 bb e5 f9 c2 bd e2 f6 ce bd
       0.023707427 -0.0020959107 -0.0952032 -0.10105683
000260 5f 82 da bd 1e 73 0b bd 31 81 ac bd ad 54 34 be
       -0.106693976 -0.03404533 -0.08423079 -0.17610426
000270 e9 39 27 be 04 dc 20 3d 54 8b e9 bd 08 39 4f 3c
       -0.16330685 0.039272323 -0.11403528 0.012647875
000280 d8 98 db bd 86 97 a8 bc 96 fd b3 bd de 0d b5 bd
       -0.10722512 -0.020580065 -0.08788602 -0.088405356
000290 fb 4b 00 bd 16 8d c7 be 43 0c ea bd 5d 90 8b bb
       -0.03132246 -0.38974828 -0.1142812 -0.004259153
0002a0 f1 a4 ab bd 56 e8 44 bd b2 d6 1a be f8 42 20 3d
       -0.083810695 -0.048073135 -0.15120962 0.039126366
0002b0 6a d2 29 be 77 1f 01 be 4f 81 4f 3c 0c 7d 80 be
       -0.16584173 -0.12609659 0.012665107 -0.25095403
0002c0 83 1a 10 3d fe a0 18 be ed 76 ff bd 98 ea 6b 3d
       0.035181534 -0.14905164 -0.12473855 0.057596773
0002d0 f2 ed e4 bd 59 40 45 bd 17 13 b9 be 48 3d 40 bd
       -0.11178197 -0.04815707 -0.36147377 -0.046933442
0002e0 c8 85 cb bc e0 f4 a7 bc 0a 6b ce bd bb df 19 be
       -0.024844065 -0.020502508 -0.1007901 -0.15026753
0002f0 9d ca fc 3c 32 18 1d be 98 1a 1a be 45 f7 1e be
       0.030858332 -0.15341261 -0.15049207 -0.15524013
000300 44 ba 7f bd 2b fb cc be 13 2e f5 3d 43 a7 d7 be
       -0.062433496 -0.40035376 0.119716786 -0.42119798
000310 e8 d9 4b 3e 73 ff ef 3c 7e d0 e0 be 70 b1 77 bc
       0.19907343 0.029296612 -0.43909067 -0.015117988
000320 d6 51 b4 bd d6 3e 32 be 56 60 f6 bb d4 b2 3a bd
       -0.088046715 -0.17406783 -0.0075188084 -0.0455807
000330 40 49 b5 bc 9a 8f b6 bd c7 2a 93 be 88 72 ac bd
       -0.022129655 -0.089141086 -0.28743574 -0.084202826
000340 1a f7 10 be 8c 84 2a 3e 94 f0 a5 bd 69 d8 5d 3e
       -0.14156762 0.16652125 -0.08102527 0.21664585
000350 c3 51 ba bc 08 0f 91 bc cd 8c 12 bd 25 c9 d3 bd
       -0.022744065 -0.017707363 -0.03577881 -0.103411
000360 5e 6d dc bd d9 04 0a bf f2 01 71 3e c4 71 de be
       -0.10763048 -0.53913647 0.23535898 -0.4344617
000370 ce 07 73 3d cb e2 8f be 10 f4 50 be d4 3d 8b 3d
       0.059333615 -0.28102717 -0.20405602 0.06798902
000380 67 a1 a9 be e6 05 be bd 7e c0 0c be 54 eb 09 3d
       -0.33130953 -0.09278469 -0.13745305 0.033671692
000390 e4 bb 41 bd 7f 12 43 3e c6 5d ab bd ba 7e eb bd
       -0.047298327 0.19050024 -0.08367495 -0.114987805
0003a0 02 63 f0 bd 02 e6 e2 bd c0 5e 52 3b fe ef da bd
       -0.11737634 -0.11079027 0.0032099932 -0.10690306
0003b0 bc dc 34 3d e0 3e c3 bc 2d 12 e3 bd 2c ee 40 be
       0.04415582 -0.023833692 -0.11087451 -0.18840855
0003c0 c0 01 1f bd c0 aa 63 3d 78 0e 1d bd a8 01 e4 bd
       -0.03882003 0.05558276 -0.038343877 -0.111331284
0003d0 a8 42 7d 3d a0 de 0c be 8a 49 ac be 48 1a 77 be
       0.061831146 -0.137568 -0.33649856 -0.24131119
0003e0 d4 bd 34 be eb b2 f8 be 60 bf 55 3e 7d cb d7 be
       -0.17650539 -0.48574004 0.20873785 -0.42147437
0003f0 b1 28 0e be 8a 05 1b 3e c5 78 82 3c 06 45 90 be
       -0.1388271 0.15138832 0.015926728 -0.2817766

bias f4 [32]
000000 f8 3c 33 bf 18 1f b5 be e7 0e f9 bd ff 5e ba be
       -0.70014906 -0.35375285 -0.121610455 -0.364006
000010 9b 98 96 be b5 4d d4 bc 94 16 8d bf a1 23 86 be
       -0.29413304 -0.02591596 -1.1022515 -0.26199058
000020 d1 ff 20 be 75 31 5d be c2 15 80 bd 6a ba 1b be
       -0.15722586 -0.21600898 -0.0625415 -0.1520783
000030 e1 d3 59 be d9 44 01 bf 46 32 89 be ee 51 09 3f
       -0.21272232 -0.5049568 -0.26796168 0.5364064
000040 6b 9f cc be f7 11 36 be 81 43 b0 3e 3b 47 e0 bd
       -0.39965376 -0.1778029 0.344265 -0.10951086
000050 29 a2 5d be 2e 0b ca be ad 37 fa be 42 70 26 be
       -0.2164389 -0.39461654 -0.48870602 -0.1625376
000060 0e 4b 8b be 6b 4c f0 be 8f 43 54 be b9 af 2d be
       -0.272057 -0.46933302 -0.20728897 -0.16961564
000070 bb ba e2 be 97 21 0f be 08 27 83 bf 88 c7 0d bd
       -0.4428309 -0.13977657 -1.0246286 -0.034614116

weight f4 [16, 32]
000000 ea c6 05 3f 19 b6 a5 be fd 60 54 3d e9 ef 02 bf
       0.52256644 -0.32365492 0.051850308 -0.51147324
000010 cc ac 90 bd fc 75 0c 3c b0 89 e4 bd 3a 55 ac be
       -0.070642084 0.008573052 -0.11159074 -0.33658773
000020 e6 77 89 be b9 f9 b5 be e1 3b b7 be 34 ea fd bd
       -0.26849288 -0.35542086 -0.3578787 -0.12398186
000030 f0 b2 9b bd e4 cf 84 be e8 c8 5d 3e 7a 03 93 be
       -0.07602489 -0.25939858 0.21658671 -0.2871359
000040 03 5f 70 be f7 5a 4c 3d 99 97 1f bd 01 ed d9 bd
       -0.23473744 0.04989144 -0.038962934 -0.10640908
000050 f6 65 87 be 73 12 3b be 23 19 af be bd 91 8d bd
       -0.26444978 -0.18268757 -0.34198865 -0.06912563
000060 55 55 06 be f3 70 9a be 39 99 9c 3e 73 1d bc 3c
       -0.13118489 -0.30164298 0.3058565 0.022963261
000070 fc c3 c9 3e e6 2e 95 bc 22 e7 95 bd 21 66 6e 3e
       0.39407337 -0.01821084 -0.07319476 0.23281147
000080 79 c2 18 3f 57 8c 94 be fc 8e 2d be 2a 98 2f be
       0.5967174 -0.2901332 -0.16949075 -0.1714789
000090 7e 01 d3 be 18 33 fe 3d 37 14 02 bf 86 ac 1c be
       -0.41212076 0.12412089 -0.50812095 -0.15300187
0000a0 7b e2 72 be 4e 0a c5 3e 69 75 bc 3d 27 0c a7 3e
       -0.23719208 0.38484424 0.09202082 0.3262646
0000b0 33 a8 b2 bc 14 0b c6 be 73 b6 ae 3e 7b 13 ee 3d
       -0.02180872 -0.38680327 0.34123573 0.11624809
0000c0 77 26 c0 bd 5b 67 a8 bd 39 a8 d8 3e 6a 98 38 bd
       -0.093823366 -0.082228385 0.42315844 -0.04506723
0000d0 4d b5 80 bd 32 0a a8 be 0c 85 83 be e4 fb be 3d
       -0.062845804 -0.32820278 -0.25687444 0.09325388
0000e0 5d c6 b9 bd 29 28 8c be d4 91 d2 bb 2e 4b a1 3d
       -0.09071038 -0.2737439 -0.0064260755 0.078756675
0000f0 ff e3 6b 3e da 31 ca be 41 49 ea bd 82 b0 58 3e
       0.23036192 -0.3949116 -0.11439753 0.21161082
000100 84 11 a7 bd 98 62 a2 be 44 65 e2 3d a2 ae 0c be
       -0.08157638 -0.31715846 0.11054471 -0.13738492
000110 79 16 db bd 88 1a 0b 3e f8 78 94 bd 05 51 01 3e
       -0.10697646 0.1358434 -0.072496355 0.12628563
000120 6e 9a d0 be 23 55 b2 be da fb 10 bf 71 dc 3c bd
       -0.4074282 -0.3483058 -0.56634295 -0.046108667
000130 ec d8 07 be 6c d1 d0 be b1 11 96 3e d4 b5 8e be
       -0.13266343 -0.40784776 0.29310372 -0.278731
000140 e0 57 74 3e 94 bb 28 be a2 4a 3f be 61 d8 6f 3e
       0.23861647 -0.16477805 -0.18680814 0.23422386
000150 26 73 3d be 88 39 ab be c4 ce c8 be 36 99 dc 3d
       -0.18500957 -0.3344233 -0.3922025 0.1077141
000160 95 9c 99 3c 3b 6b c1 be d5 73 9e 3d 3d 1c a4 bb
       0.018751422 -0.37777123 0.07736937 -0.005008249
000170 22 51 b1 be f5 2e 19 bf 01 d6 76 be 0e 52 68 be
       -0.34632212 -0.59837276 -0.24105074 -0.22687551
000180 8e c4 7d 3d a8 b8 2e be 93 76 b0 be f8 37 9a be
       0.061955027 -0.17062628 -0.34465465 -0.30120826
000190 c0 13 3e be 7f 1e e1 bd 18 71 bc 3e d7 3b bd be
       -0.18562222 -0.10992145 0.36805034 -0.36959717
0001a0 82 e1 fc bd 25 aa 88 3e 0b 39 7d bd 6c 9d 5e 3e
       -0.123477 0.2669231 -0.06182198 0.21739739
0001b0 ac d5 e5 bc 2f fc e3 3d 4c 79 cd 3c e5 40 eb 3d
       -0.028055988 0.111320846 0.025082253 0.11486987
0001c0 a1 b5 8e be b6 37 31 3d 96 e8 bb 3e ca ff 10 3e
       -0.27872947 0.04326602 0.36700886 0.14160076
0001d0 0f b4 9c be d8 f0 75 3d 84 a3 90 be 32 41 0a bd
       -0.30606124 0.06004414 -0.28249753 -0.03375358
0001e0 4b b2 33 be 76 74 4e 3e ec 22 f1 3c a0 02 60 3e
       -0.17548482 0.20161614 0.029435597 0.21876001
0001f0 86 0c cc 3e 6d 57 80 3e 32 ca 30 be 2e 8b 94 3e
       0.39853305 0.250667 -0.17264631 0.29012436
000200 d3 78 4b bd ec 1b 3e 3e 70 18 9f 3e 37 b1 8a be
       -0.049675774 0.18565339 0.31073332 -0.2708833
000210 0f 41 52 be 7e 10 4f be 97 05 4a bd 30 d7 2b be
       -0.2053263 -0.20221135 -0.049321737 -0.16781306
000220 4e 7e 7a be ff ec 64 be 9d c5 f5 3c 86 49 24 3e
       -0.24462244 -0.22356032 0.030001456 0.16043672
000230 73 44 8f 3d 39 04 59 be a7 4f 48 be 6d 0c 83 be
       0.069954775 -0.21193017 -0.19561635 -0.25595418
000240 21 f1 fb be 4d c2 1e 3d fb c0 0d 3d 44 0f b1 3d
       -0.49207404 0.03875952 0.03460787 0.0864549
000250 22 fd d1 be 45 52 4e be de a8 82 be 1c 7a 0c be
       -0.41013438 -0.20148571 -0.2551946 -0.13718456
000260 0b ad ae 3d ce b8 e5 bb f7 11 d4 bd 20 6c a2 be
       0.08529099 -0.007010556 -0.10354989 -0.31723118
000270 a4 59 0c 3e 25 e3 cd be 2a 6e ca be f0 5f c7 3e
       0.1370607 -0.4021236 -0.39537174 0.38940382
000280 ac bc ea bc 5d f4 1f 3e d3 73 1c 3e c1 65 2c 3e
       -0.028654419 0.15620561 0.15278558 0.16835691
000290 9e 7e b6 3e 79 dc 96 3b c2 d9 b7 3e 47 c5 1e be
       0.35643476 0.004603919 0.35908324 -0.15504943
0002a0 4a 99 a4 3e 01 cb a3 be f1 70 0e 3f c8 a6 15 bd
       0.321482 -0.31990817 0.55641085 -0.036536008
0002b0 1f 9e 30 be 32 38 8e 3e 1e 2f 14 be dd f9 b9 3e
       -0.17247818 0.2777725 -0.14471099 0.36323443
0002c0 9b ba fe be bb 47 48 3e 4b a8 71 be eb 43 3f be
       -0.49751744 0.19558613 -0.23599355 -0.18678252
0002d0 2e d5 9e 3e d2 77 20 3e 0f cb cf 3e 56 1d 93 bd
       0.31022018 0.15670708 0.4058461 -0.0718333
0002e0 46 03 07 be 59 4d e3 3e bd ab 6a 3e ad 44 0a 3e
       -0.13184842 0.4439495 0.22917075 0.1350276
0002f0 fe 40 83 3e 89 65 e1 3e c9 7c aa 3e d8 4a 5b 3e
       0.25635523 0.44022778 0.3329833 0.2141527
000300 19 e5 cf 3e 6c 6c 8a be d2 40 84 3d 8b dc e2 3e
       0.40604475 -0.27035844 0.06457676 0.44308886
000310 e5 d0 22 3e 4a 3e c1 bd 10 57 e1 3e dc e7 a9 3e
       0.159 -0.09435709 0.44011736 0.33184707
000320 21 8d bb 3e 65 29 dd be 4a 4c 1e bd bc 91 67 3e
       0.3663111 -0.43195644 -0.038646974 0.22614187
000330 cc 3c 90 bd 72 38 ad bd a8 28 27 3d e1 44 c3 3e
       -0.07042846 -0.08458032 0.040810257 0.38138488
000340 f2 09 25 3e 54 58 23 3e cf ca 6c 3e 82 0e c7 3c
       0.16117075 0.15951663 0.2312424 0.02429891
000350 b8 c7 d0 be 15 6e 93 be d1 df 73 3e ae 72 15 3e
       -0.40777373 -0.28794923 0.23815848 0.14594528
000360 78 da 98 3d 5b 1a 6e be 88 df 2e be ad 24 ad 3d
       0.074635446 -0.23252241 -0.17077458 0.08454261
000370 bb ef 9c be 5f 4d 74 3e 06 1e e2 bc b2 62 b1 be
       -0.3065165 0.2385764 -0.027602207 -0.3464561
000380 38 76 38 be de 8a f0 bd 17 fa ee 3d c9 2d f5 3c
       -0.18013847 -0.11745237 0.116687946 0.029929059
000390 95 45 b1 3e ca 9c 44 bd 79 44 f0 3e 2e 75 05 3e
       0.346234 -0.04800109 0.4692724 0.13032982
0003a0 a3 aa b4 3e cc d3 45 3e 1e f7 ac 3e a5 ac 7c bd
       0.35286435 0.19319075 0.33782285 -0.061688084
0003b0 6e e8 21 3d 90 68 b7 3e c2 c2 e5 3d c5 8a 51 3e
       0.039528303 0.35821962 0.11218788 0.20463093
0003c0 67 49 24 3e a5 84 c6 3c a3 62 56 3d 6e b1 89 bd
       0.16043626 0.024233172 0.05234016 -0.06723295
0003d0 81 8e b6 3e aa b2 20 3e 7d 45 39 3e 1b 00 b4 bd
       0.35655597 0.15693155 0.18092914 -0.087890826
0003e0 d5 e7 a3 3c 00 9a 2f 3e 2d 90 92 bd 20 d6 65 3d
       0.020008007 0.1714859 -0.071564056 0.05611241
0003f0 86 bb 9f 3e da b7 85 3e e4 a6 98 3e 0d a9 f3 be
       0.31197757 0.2611683 0.29814827 -0.47589913

bias f4 [16]
000000 5a 57 5e 3c 15 e1 7c be 3d df 2c 3e 61 ed c4 3d
       0.013570631 -0.24695237 0.16882034 0.09615589
000010 61 ad c9 3e 28 9f 14 3e 1a f6 94 3e 9f 8d 08 3f
       0.3939009 0.14513838 0.2909401 0.53341097
000020 cd 55 bb 3d cc 33 3b 3f 81 c7 cd 3d ae 79 c1 bd
       0.091472246 0.7312591 0.10047818 -0.09447037
000030 fb 2f a2 bd 38 ec 15 be ff 4b 90 bd 1f 6e f5 3e
       -0.07919308 -0.14640892 -0.07045745 0.47935578
