MultiModal/18loss13.58111435174942.pth (torch, 516344 bytes, 41 tensors)

weight f4 [16, 1, 4]
000000 53 3d 57 bf ad ef 0a 3d 92 be 14 bf 46 37 73 bd
       -0.8407795 0.03391998 -0.5810329 -0.059378885
000010 a9 eb 38 bf c6 5d 26 3b 0c 12 ba be 6e f8 30 bf
       -0.7223459 0.0025385483 -0.36341894 -0.69129074
000020 ff c0 35 3d 4a d5 35 3d e8 22 05 3d 34 84 28 3d
       0.04437351 0.04439286 0.032503992 0.041141704
000030 10 b4 8f 3e d1 65 2d bf 90 7c 2e 3f bb f1 97 be
       0.28067064 -0.67733485 0.6815882 -0.29676613
000040 dd 2c 32 bf 57 11 3f bf 5e a2 29 bf 37 57 66 bd
       -0.69599706 -0.74635834 -0.6626338 -0.05623552
000050 90 f0 ff bf de b4 df bf fb 74 a7 c0 93 62 0e c0
       -1.9995289 -1.7477071 -5.23303 -2.2247665
000060 e8 a3 3f be de a8 48 bf 77 4f 7c bd 1f 35 cf be
       -0.18714869 -0.7838267 -0.06159922 -0.40470216
000070 98 fd 62 be 7a 75 84 3e 3f 7f 36 c0 f8 81 ef bd
       -0.22167051 0.25870878 -2.8515165 -0.116947114
000080 1f 5d e5 be a9 cb 60 be 96 28 bc be e5 76 39 be
       -0.44797608 -0.2195269 -0.36749715 -0.18111761
000090 dc 0d 10 bb fc e7 61 ba b1 3b 2a 3e 7e d3 4e c1
       -0.0021980917 -0.0008617637 0.16624333 -12.926634
0000a0 7a 14 0d bf f2 08 f7 be e7 55 e5 bd b0 41 1b be
       -0.5510937 -0.48249012 -0.11198025 -0.15161777
0000b0 83 e6 13 bf cf 3b 54 be fe 4b 0d bf 28 d9 33 3c
       -0.5777361 -0.2072594 -0.5519408 0.010977067
0000c0 12 b3 30 be a6 87 90 be ce f5 20 3d 17 ae 55 bf
       -0.1725581 -0.28228492 0.039296918 -0.83468765
0000d0 6f 3f 34 be 2b 72 35 be be 07 11 bf d5 20 99 bf
       -0.17602323 -0.17719333 -0.5665244 -1.1963145
0000e0 0f dc 22 c1 09 5c 8a bf 85 be af be 14 9a 83 bd
       -10.178725 -1.0809337 -0.34325042 -0.064258724
0000f0 4f b1 01 bf 31 ce c0 be b2 bb 06 3d 10 4c 8b be
       -0.50661176 -0.37657312 0.032893844 -0.2720647

bias f4 [16]
000000 03 e1 f5 be f8 01 7b bf 78 9e dc bd 26 cf c9 3b
       -0.48023233 -0.9804988 -0.10772413 0.006158727
000010 0b a5 61 bc 95 5f 1b be d9 d6 11 be f3 b3 18 3e
       -0.0137722595 -0.1517318 -0.14242114 0.14912395
000020 06 b4 e1 bc dc 87 91 3d 1a d4 cb ba bf 11 c5 be
       -0.027551662 0.07105991 -0.0015550882 -0.38490102
000030 ec b4 0f bf 17 f4 ad 3e bf 26 db 3e 95 46 a3 be
       -0.5613544 0.33975288 0.42802998 -0.31889787

weight f4 [16, 16, 4]
000000 45 a9 7a bd 4d fa 32 bc 07 8e 24 be 44 f8 80 bd
       -0.061196584 -0.010923934 -0.16069804 -0.06297353
000010 88 90 89 3d 14 10 f8 bd fc 8c 0b be d4 f1 00 3d
       0.0671702 -0.12112442 -0.13628 0.031480625
000020 75 90 ae be 03 f7 5e be ab af 1b be f0 2c d0 bc
       -0.34094587 -0.21773915 -0.15203731 -0.025412053
000030 6f 07 1d be b4 6b d0 bd c5 71 7c be 4c ba c7 bd
       -0.15334867 -0.10176793 -0.24652775 -0.0975233
000040 93 db 73 3a 9a 5d 1c be 60 31 07 be 48 c5 24 bd
       0.00093024335 -0.15270081 -0.13202429 -0.040227205
000050 61 ca 91 bd 5c 90 9b bb 9d c7 d2 bd d8 5d 5b 3d
       -0.07118679 -0.0047474336 -0.102919795 0.053556293
000060 f7 13 86 be 1f 8d 99 be ae 1a 02 be 20 c7 71 bc
       -0.26187107 -0.2999048 -0.1270549 -0.014756948
000070 fa 99 74 be 60 0f f9 bd b3 bd a1 bd d0 83 70 bc
       -0.23886862 -0.12161136 -0.078975104 -0.014679864
000080 7d fc 05 3d 6b d5 2b be 7d ba fd bd fe 9b 82 bd
       0.032711495 -0.16780631 -0.123890854 -0.063774094
000090 53 c0 20 be f0 24 1f be 18 47 65 bd 10 3e e5 bd
       -0.15698366 -0.15541434 -0.055976003 -0.11193478
0000a0 c8 5d e5 3d e2 41 ec bd 3c de 07 3d dc a9 51 3d
       0.11199528 -0.11536004 0.033170924 0.05118738
0000b0 70 2c cf bd 40 05 33 bc 7f e6 11 3d 2a 80 ab bd
       -0.10115898 -0.010926545 0.03562021 -0.08374055
0000c0 ea a1 e1 3d 40 7b b4 bd 42 93 1a 3d 10 46 5b 3d
       0.11017211 -0.088125706 0.037738092 0.053533614
0000d0 af f7 33 be c6 47 1d be fb ed 67 3d 14 29 93 3d
       -0.17574953 -0.1535941 0.05662344 0.071855694
0000e0 de 89 7b 3d fe da 9f bd 30 9e 62 3c e0 e2 db bb
       0.061410777 -0.07805441 0.01383166 -0.006710395
0000f0 68 89 1e 3d 44 25 e8 3d df e5 3e bd b4 d2 3c 3d
       0.03870526 0.11335233 -0.04660594 0.04609938
000100 65 ba 1e be 51 c6 e4 bd 60 a0 a0 be 68 48 9f bd
       -0.15500791 -0.11170638 -0.31372356 -0.07777482
000110 e3 47 d5 be 8c 8b 93 be ad 66 f1 bd 68 fa 5b be
       -0.41656408 -0.28817403 -0.11787162 -0.21482241
000120 ca 9e 8c 3d 92 c7 16 3e 67 23 1f 3e ac 3e 4d 3e
       0.06866224 0.14724568 0.15540849 0.20043439
000130 9e 21 81 3b 8a 7e 65 3c e9 79 95 bc 62 6c 18 bc
       0.003940775 0.01400722 -0.018246608 -0.009303184
000140 ea f5 ed bd 56 a8 c8 bb c8 83 43 ba 27 bc 27 3c
       -0.1161917 -0.006123583 -0.00074582966 0.01023773
000150 9d 22 05 c0 50 b7 bc 3d 2b 3a ae bf 7d 49 a6 3e
       -2.0802376 0.092146516 -1.3611501 0.32477942
000160 67 15 54 be 07 fa 9d be 9b a8 f1 3d 6a 4f 78 be
       -0.2071129 -0.30854818 0.11799737 -0.24249044
000170 91 ce 73 be 9d 51 3c 3d d5 9a cf be 53 be 81 bd
       -0.23809268 0.04597627 -0.40547815 -0.063351296
000180 1b a9 60 be 59 89 92 3d 9b 38 1c be 69 ba 00 bd
       -0.21939509 0.07155103 -0.15255968 -0.031427775
000190 9e 35 96 bf 67 a3 2d 3d 68 c7 01 be 14 9e 2f 3e
       -1.1735113 0.04239216 -0.12673724 0.17150146
0001a0 b3 af 6c bc 7e fb 13 be 15 b3 0d be b4 4c 80 3c
       -0.014446187 -0.14451405 -0.13837846 0.015661575
0001b0 55 2e e5 bd 9e 3e 8b be b6 a7 b4 3d eb 26 85 39
       -0.11190478 -0.2719621 0.08821051 0.00025396733
0001c0 47 80 46 be 6e d1 25 bd 6c 8b 13 3d 71 13 70 bc
       -0.19384871 -0.04048293 0.036021635 -0.014653073
0001d0 ad d6 78 bf 2d 95 b4 be d8 c4 a9 be 86 fa 8f be
       -0.9720257 -0.35270062 -0.33157992 -0.28120822
0001e0 af 89 82 bd 79 87 5b 3f 54 4e 1c bf 10 b7 26 bf
       -0.06373917 0.8575359 -0.6105702 -0.6512308
0001f0 95 5d 10 be 47 8e 49 be 2d 98 18 be 2f 0d 4f be
       -0.14098199 -0.19683181 -0.149018 -0.20219873
000200 23 93 33 be 62 b2 03 3d 32 0a 8e be 58 b7 00 3e
       -0.17536597 0.03215254 -0.27742153 0.1256994
000210 f7 72 31 3e 82 7e 3e 3e e4 af 66 bd f3 9e d3 bd
       0.17329012 0.18602946 -0.056320086 -0.103330515
000220 e0 b8 ad 3d 6a f5 cb bd a8 d7 1d be 79 e2 1d 3e
       0.08482528 -0.099589184 -0.15414298 0.15418424
000230 b9 7f d6 3d 0d 8d 22 3e 8d d5 08 3e b9 fe 8c 3d
       0.1047358 0.15874119 0.13362713 0.06884522
000240 60 3a dc bf 5f 16 92 3e e5 c1 82 be ea 52 cd be
       -1.7205315 0.28532693 -0.25538555 -0.4010232
000250 f5 20 aa bf 0d 37 9e bc 68 7b 1a bf 0c 26 32 bf
       -1.3291308 -0.01931336 -0.60344553 -0.69589305
000260 d8 f2 96 be 32 dd 52 be 32 49 9c be 9b 2a 9d 3e
       -0.2948215 -0.20592192 -0.30524594 0.30696568
000270 85 58 d0 3d 73 97 fe bd b2 b2 8e 3d fc ff e0 bd
       0.10173134 -0.124312304 0.06967677 -0.10986325
000280 da 9c ef be 38 5d 87 3e c8 e1 fe 3d 47 20 58 be
       -0.46799356 0.26438308 0.12445408 -0.21106063
000290 fd d5 5c ba af ca d3 3d 17 49 8e be f9 3c 05 3e
       -0.0008424221 0.10341393 -0.27790138 0.1301154
0002a0 6e 3f 8e bc 5f 67 08 bc 88 02 15 3d 5e 88 a2 3d
       -0.01736423 -0.008325427 0.036379367 0.07936166
0002b0 17 f6 43 3c 71 6a 3b 3e 9d 4a 18 be 80 57 fe 3d
       0.011960528 0.18302323 -0.14872213 0.12419033
0002c0 31 f2 ab 3d 99 96 b8 be ea 5d 86 be 5a 74 73 3e
       0.08395804 -0.36052397 -0.26243526 0.23774853
0002d0 2a c9 b0 bf 7b 7e 26 3e b2 d9 9d 3e 75 a0 50 be
       -1.381139 0.16259186 0.3083015 -0.2037371
0002e0 2e 03 9d c0 63 ce ad 3f 09 35 e2 3d 19 5b df bf
       -4.906638 1.3578609 0.11045272 -1.7449676
0002f0 2d 23 7b bd b8 31 4e be 14 9e 21 3d 7f 22 28 3e
       -0.061312843 -0.20136154 0.039457396 0.16419409
000300 27 dd 24 3d 3e 81 d5 3b 86 de 38 bb 6a c4 1e be
       0.04024997 0.006515651 -0.0028208806 -0.15504614
000310 62 6d 82 bd 5a b6 e8 3c e4 5b a8 bc 88 61 54 3d
       -0.06368519 0.028407265 -0.02055163 0.051850826
000320 c3 f8 dc be c8 62 ec be c9 fc 91 be be 9f ef be
       -0.4315854 -0.46169114 -0.28513172 -0.4680156
000330 c5 80 bf be 1b 37 2c be bb 70 9f bc 20 0f 36 be
       -0.3740293 -0.16817896 -0.019462934 -0.17779207
000340 20 78 c0 bc eb d1 ce be 61 83 da be f6 86 ed be
       -0.02349478 -0.4039453 -0.4267836 -0.4639203
000350 fa c6 ff be 69 92 c3 be 1f 30 03 be c7 24 19 be
       -0.49956495 -0.3819764 -0.12811325 -0.14955436
000360 1f a0 8d be dd fd a9 be ff a7 cc be ba d8 dd be
       -0.27661225 -0.33201495 -0.3997192 -0.43329412
000370 97 cc df be 1a 78 c3 be e9 6d 98 be 67 a8 a3 be
       -0.43710777 -0.38177568 -0.29771355 -0.31964418
000380 d6 af f0 be ce ee 17 bc 10 ad cc bb ca 4a 4e bb
       -0.47009152 -0.009273244 -0.0062462166 -0.0031477683
000390 8d e1 f9 be c7 da 97 bd 0e 87 c7 bd f3 cf 3f be
       -0.48804894 -0.07414775 -0.097425565 -0.1873167
0003a0 2c 1f 2e bd ae 49 b5 bd f4 74 d4 bd 4d c4 2e be
       -0.042510197 -0.08851944 -0.103738695 -0.1706707
0003b0 ac 32 d9 bd 4a c4 7d 3d 2b 4c 97 3d f0 88 70 3d
       -0.10605368 0.061954774 0.07387575 0.058724344
0003c0 72 b5 b9 ba 81 bf 11 be 89 e1 09 be d7 4d 2a be
       -0.0014168455 -0.14233209 -0.13464941 -0.16631256
0003d0 1b c2 b4 be 3a ca 36 be 18 b5 54 bc d1 b2 e6 be
       -0.3530434 -0.17850581 -0.012982629 -0.450583
0003e0 18 64 a7 bd df 87 13 be 5a 4a 95 3d f1 73 0a bd
       -0.08173388 -0.144073 0.07289572 -0.033801977
0003f0 82 30 29 3c cd 6e 1a be d6 ad 37 3e 66 fd b2 3c
       0.010326507 -0.1508133 0.17937407 0.021849345

bias f4 [16]
000000 f7 63 90 be 9d 5b ae 3c 9c c6 3e 3a 8d 00 c0 be
       -0.28201267 0.021283919 0.000727752 -0.3750042
000010 ad 2d bb be af fc 92 be 22 3f 82 be a3 a2 08 bf
       -0.36558285 -0.28708407 -0.25438792 -0.53373164
000020 bd 4e 92 be 8b ef 81 be 40 46 fb be 96 39 45 be
       -0.28575698 -0.2537807 -0.49077034 -0.19260249
000030 18 06 fb be 8d 45 c6 3d 34 c4 f9 be 56 8e da be
       -0.49028087 0.096812345 -0.48782504 -0.4268672

weight f4 [16, 16, 5]
000000 af e1 0f 3c 12 a9 53 bd 56 04 9b 3d e9 33 7f 3d
       0.0087818345 -0.05167491 0.075691864 0.062305365
000010 11 98 47 bd fc 2d 0c bf 8b 33 04 bf ee c7 f1 be
       -0.048729006 -0.54757667 -0.5164115 -0.47222847
000020 39 96 17 bf a4 9e 01 bf 00 cc aa be 01 f4 b4 be
       -0.59213597 -0.5063269 -0.33358765 -0.3534241
000030 2f bf 37 bf 6c 47 09 bf 58 3c 12 bf b6 8f 01 be
       -0.717761 -0.53624606 -0.5712333 -0.12652478
000040 78 d0 15 3b 4c cc 13 3e 28 8e 26 bd 51 5b 91 3b
       0.0022859853 0.14433402 -0.040662915 0.0044359346
000050 51 ac a5 bd a5 98 da bd 0b 8f 32 bd 1f b2 23 bd
       -0.08089507 -0.10673646 -0.043593448 -0.03996479
000060 80 ab 40 bd 6b 9b 05 3e a4 0f 21 bd 35 7b 26 3e
       -0.047038555 0.13047569 -0.039321557 0.16257937
000070 d9 64 89 3c 43 aa 0a 3e f2 12 bb 3d 23 6a d4 3c
       0.01677172 0.13541512 0.09134473 0.025929516
000080 79 51 2d be 07 3c b6 3c 81 6f 9d 3d 3b e5 ec bd
       -0.1692561 0.02224542 0.07687283 -0.1156716
000090 e4 8f 2b be 1c c5 ac bd a2 f7 e1 bd 16 7b 3a 3c
       -0.16754109 -0.08436033 -0.1103356 0.011381885
0000a0 fa ad 4e bd 74 4e e1 bd eb 37 eb 3d ff fc 7b bb
       -0.050458886 -0.11001292 0.11485275 -0.0038450358
0000b0 56 a4 10 bd a5 6a a2 bd 04 c1 01 be 17 fe ad 3d
       -0.035312973 -0.07930497 -0.12671286 0.084957294
0000c0 2b c8 2c be 1e b3 ea bb 44 c3 14 3e 01 b7 89 bd
       -0.16873233 -0.0071624657 0.14527613 -0.06724358
0000d0 41 dc 2c bd 44 fa 19 3c e6 ee 5c bd c1 83 1f 3d
       -0.042202238 0.009398047 -0.05393877 0.03894401
0000e0 56 56 b2 bd e2 dc 2b be b9 86 dd 3c 42 90 dd bd
       -0.087078735 -0.16783479 0.02704178 -0.108185306
0000f0 64 9f 87 3d 47 0f 48 bd 17 8f 83 3d 78 7c 77 bc
       0.06622198 -0.048842695 0.064237766 -0.015105359
000100 83 34 42 bb 4f e4 c1 be 38 04 ab bd 8b 21 45 bf
       -0.002963335 -0.37869498 -0.08350414 -0.7700431
000110 ee e8 23 bf 35 d7 2b bf 9e 48 5b be bc 00 6e bd
       -0.640273 -0.67125255 -0.2141442 -0.05810617
000120 cd 59 3f bf 67 71 b5 be fe 5c 11 3e 01 19 7d 3d
       -0.747464 -0.35438082 0.1419563 0.061791424
000130 df 67 50 3d 89 1c 9a bd bd a7 d3 bd 39 fc 44 3d
       0.05088031 -0.07524974 -0.10334728 0.0480921
000140 d2 0d b3 3d f2 38 df bd de 81 8d bc a6 0c ed 3b
       0.087428704 -0.10899533 -0.01727384 0.007234174
000150 63 8e 7b 3c 57 13 8f be 8f e8 aa 3e c9 53 69 bf
       0.015353772 -0.27944443 0.33380553 -0.9114347
000160 62 96 51 bf 34 d4 4b bf 9f 8d 72 be 6f fa 34 be
       -0.8187009 -0.7962067 -0.23686837 -0.17673658
000170 4b 2d 5f be 4c 92 00 3e ca 4d 02 be 34 52 f5 3c
       -0.21794622 0.12555808 -0.12724987 0.029946424
000180 4f f0 ff bd 2c 9c ae 3d 82 6c 69 bd af d2 1d bd
       -0.12497007 0.08525881 -0.056988247 -0.038531
000190 fc b2 2f bd e2 ea 3c 3d a9 40 00 be 9c 75 1e 3c
       -0.042895302 0.04612244 -0.12524666 0.009671595
0001a0 36 58 b7 3c 1e 6f a4 3d d7 6b 7d 3e fc 81 70 3d
       0.02238093 0.080290064 0.24748169 0.058717713
0001b0 c9 4d d4 3e c5 a5 e5 be 9e 54 d1 3c 28 c8 ce bd
       0.41465595 -0.44853035 0.025553044 -0.100967705
0001c0 51 d8 a6 3d 15 c0 8f 3d 5a 53 8a 3e f5 34 b9 bc
       0.08146728 0.070190586 0.27016717 -0.02260826
0001d0 b0 71 0e 3d 72 67 c3 bd 5c f5 f1 3b bb f0 7a 3d
       0.03477639 -0.09541215 0.0073839854 0.061264735
0001e0 c6 8d 0a bc a6 ff 2c be c5 1a ea bd 36 00 98 3c
       -0.008456653 -0.16894397 -0.11430887 0.018554788
0001f0 40 d5 ce 3b 11 a3 e1 bc aa b0 4b bd 07 bf 10 3d
       0.0063120425 -0.027543576 -0.049729027 0.035338428
000200 56 6b 9d bb 3c 5a f1 bd 13 e7 ed 3d 53 40 7c bd
       -0.004804055 -0.11784789 0.116163395 -0.06158478
000210 03 05 2a 3d 46 98 1b 3e 62 13 91 3c 0e fb 82 bc
       0.041508686 0.15194806 0.017709438 -0.015988853
000220 2b 36 85 bd 59 46 59 bc 24 d4 c0 bc 10 78 18 be
       -0.06504472 -0.013261401 -0.023538657 -0.1488955
000230 87 d0 b0 bc 77 ce 69 3d c4 d1 c4 3d 6a 89 95 bd
       -0.021583809 0.057081666 0.09610322 -0.073016
000240 f8 e3 29 3c 2e a5 8f 3e 66 19 94 bd 2c d4 24 be
       0.010369293 0.2805571 -0.07231407 -0.16096562
000250 a6 84 eb be 56 92 a9 be dd c8 c8 3d 75 85 bc 3e
       -0.4599964 -0.33119458 0.09803937 0.3682057
000260 8b d6 41 bd b6 4d ab 3e 0f 1f 91 3d 03 aa 21 bb
       -0.047323745 0.33457726 0.07086002 -0.0024667985
000270 12 df 6c bd 55 1c 54 bd 1d 21 09 bc b0 1e 82 bd
       -0.057829924 -0.051784832 -0.008369711 -0.063535094
000280 0b 7d 50 bd 51 36 8e bd f7 0d 97 3d 07 8f 9e bd
       -0.0509005 -0.06943954 0.073757105 -0.07742124
000290 5d 2e b9 bd 10 1c 56 bf 19 a3 d6 bf b4 5b 02 3f
       -0.09042046 -0.8363657 -1.6768523 0.5092118
0002a0 d7 1b 13 3e e8 76 b5 3d 9b 28 c6 bf 4c b5 fa 3e
       0.14366089 0.0886057 -1.5481142 0.48966444
0002b0 9e 04 06 be a2 ab 51 3e b2 92 b5 bd 3f 42 59 3d
       -0.13087699 0.20475629 -0.088658705 0.053041693
0002c0 2d de 96 bd 3b 7e 98 3d 10 35 29 3a 80 81 a1 3c
       -0.073665954 0.074459516 0.00064547453 0.01971507
0002d0 80 d2 5e 3d 75 11 02 be 4b 19 07 bc 5c c3 38 3d
       0.054399967 -0.12701972 -0.008245776 0.045108184
0002e0 62 13 a7 ba 52 ae 16 be c4 ba 8b 3e 81 6b 67 be
       -0.0012746865 -0.14714935 0.27290928 -0.22599603
0002f0 1c 13 1e bf 4a 4f bf 3d 99 17 c6 3e 9c 42 2f 3e
       -0.6174791 0.09341295 0.3868988 0.17115253
000300 dc 1c aa bd f6 5d 9b b9 99 e9 a5 3d 0c 3c 47 3d
       -0.08306286 -0.0002963391 0.08101196 0.04864125
000310 df 01 0e be 2e f3 58 be ed f8 85 3d 0e aa 7d be
       -0.13867901 -0.21186516 0.065416194 -0.24771902
000320 87 43 b9 3c 36 71 d8 bc 15 b0 3a be 64 09 11 bd
       0.022615207 -0.02642117 -0.18231232 -0.035409346
000330 b3 81 1f be c9 47 e6 3b c9 5a 85 3d c4 95 95 3d
       -0.1557682 0.0070276004 0.065114565 0.07303956
000340 c6 ca ed bd 74 7d 06 be bc e4 fa bd 4f dd 39 be
       -0.116109416 -0.13133794 -0.12250659 -0.18150829
000350 24 00 0f be b1 5a a8 3e 9d c9 94 bd a0 49 0b bd
       -0.13964897 0.32881692 -0.07265017 -0.03400576
000360 27 53 20 be 2a 0a 16 be 5a 18 98 bc 27 c9 c4 bb
       -0.1565672 -0.14652315 -0.0185663 -0.0060054245
000370 af d9 31 3d 9c e5 86 3c c0 35 06 bf 1e 5f ef 3d
       0.04342049 0.016466908 -0.52425766 0.11688064
000380 55 f5 b0 be 29 9f 3f be e2 b8 18 be 60 e8 14 3f
       -0.34562173 -0.18713059 -0.14914277 0.58167076
000390 72 49 93 3d 50 b3 76 3e 18 66 a3 bf 4a 5e 87 3e
       0.07191743 0.2409184 -1.2765532 0.26439124
0003a0 88 05 a9 3d 73 fc 8f bd c8 86 d4 be 8b b6 bc bd
       0.08253008 -0.07030573 -0.4150908 -0.09214505
0003b0 21 1d 0f bd 21 fb 13 bc 66 bf bc bc c5 0b bc 3d
       -0.03493989 -0.009032042 -0.023040485 0.09181932
0003c0 6f 4d 07 bd f3 6f 89 bd 30 39 6d bd 0d 09 57 3d
       -0.03303283 -0.06710806 -0.057915866 0.052498866
0003d0 e1 cc 54 bd 61 b4 0b bf dc b2 cf 3e 78 cd 0b 3f
       -0.0519532 -0.5457211 0.40566146 0.54610395
0003e0 01 27 05 bf 94 9a 0d be 58 ae 41 bd 9c 6f 28 3d
       -0.5201264 -0.13828498 -0.047285408 0.041122064
0003f0 9b 5b af bd 58 1a a1 3b 37 fa fa bd 18 48 98 3d
       -0.08562394 0.0049164705 -0.12254756 0.07435626

bias f4 [16]
000000 b7 e8 58 bf 26 b5 4d 3e db 64 2e bc 99 65 25 3d
       -0.84730095 0.20088634 -0.010644163 0.040380094
000010 04 ac 39 3e e5 a1 69 3e 30 00 28 bf e3 f5 b3 bd
       0.18132025 0.22815664 -0.65625286 -0.087871335
000020 0a ff fa be 87 85 f5 bc 10 4f b2 be bd ed 13 be
       -0.49022704 -0.029970897 -0.34825945 -0.14446159
000030 2f bc bb be 85 28 8e bc 4d 83 e2 be 37 48 92 3e
       -0.3666701 -0.017353306 -0.442408 0.2857072

weight f4 [16, 16, 5]
000000 6c f0 14 bf c5 0a c2 bd 31 fc c3 bd 25 ad 91 3e
       -0.58179355 -0.094747104 -0.09569586 0.2845241
000010 53 83 56 be 2f 13 4e 3f b5 4f 8c bf 66 a6 98 3e
       -0.20948534 0.8049802 -1.0961825 0.29814452
000020 16 98 0a bf c5 d7 cf 3d 23 0f e5 bf 0e 2b c4 bf
       -0.54138315 0.10148577 -1.7895244 -1.5325639
000030 f0 55 64 3e cb a1 a1 be 28 2d d4 3b b1 35 5f 3e
       0.22298408 -0.3156875 0.0064751096 0.21797825
000040 4f 53 1f 3e 9c c0 4a 3e 93 cf a4 3e 32 7e 60 3e
       0.15559123 0.19800037 0.32189617 0.2192314
000050 a9 aa 30 bf 5e da f8 bd 0e 5c 04 3e 0e e8 0e 3f
       -0.69010407 -0.12151025 0.12925741 0.5582284
000060 7c 96 8a 3e 4a 30 05 c0 7b 66 07 c1 28 5d 63 c0
       0.27067935 -2.0810723 -8.46252 -3.5525608
000070 cd 54 ac be 5c 3d a9 be b6 04 3e be f1 ff 30 bf
       -0.33658448 -0.33054626 -0.18556485 -0.69140536
000080 b1 80 7a bf 22 8b bc bf 04 55 c4 3d 04 20 91 bd
       -0.9785262 -1.472996 0.09586528 -0.070861846
000090 21 9e 14 bf 03 aa 46 3e 1e 91 12 3d 3e ce c2 3d
       -0.58053786 0.19400792 0.035782926 0.09511994
0000a0 25 81 f2 bd f1 4a 01 bc 99 a0 42 3e a6 93 9e bd
       -0.118410386 -0.007891403 0.19006576 -0.077430055
0000b0 13 bf 9c be 05 81 29 bf 6f b0 9e 3e c6 e1 91 3c
       -0.30614528 -0.66212493 0.30993983 0.017807852
0000c0 9c fd 1d 3e c8 52 d2 3d c8 11 e9 bd 2a 40 1a bd
       0.15428776 0.102696955 -0.11380345 -0.037658848
0000d0 17 ee 02 bd 3b 03 15 be 95 3b b7 bd 85 91 e0 3d
       -0.03196534 -0.14552014 -0.08946911 0.10965256
0000e0 06 4b e1 3d cd 0c d2 3d e5 df 47 3d b4 b8 0f be
       0.11000638 0.10256348 0.048797507 -0.14035302
0000f0 4e 99 00 be 07 20 e2 bd be 54 d5 3c 8c f4 e3 bd
       -0.12558481 -0.11041265 0.026041385 -0.11130628
000100 d6 66 78 bc 63 ba 6b be 41 88 f6 3e b4 7d 04 bd
       -0.015161237 -0.2302032 0.48150828 -0.032346442
000110 ef bd 71 be bc 51 20 3e 94 3f d5 bd 77 2f 9c 3d
       -0.2360761 0.15656179 -0.10412517 0.07626241
000120 e8 35 b5 bd 04 3d 8c bd b2 c5 e4 3c 27 4f e5 bf
       -0.088481724 -0.06847575 0.0279263 -1.791478
000130 bf 99 77 3b bf f3 06 3f 5c 9d 4c 3f 12 f9 74 3e
       0.0037780849 0.5271568 0.7992761 0.23923138
000140 49 64 31 be c3 9f 87 be fa d2 fb 3e cf 99 2a be
       -0.17323412 -0.26489076 0.491844 -0.16660236
000150 ce a3 9d 3e db 75 0c c0 c3 8a 51 bf 56 eb 37 bf
       0.30789036 -2.1946933 -0.8185236 -0.7184347
000160 04 77 a6 3c 71 dd 6a be 0c cf d6 be 19 97 6d bf
       0.020320423 -0.22936036 -0.4195484 -0.9280868
000170 13 53 0f 3e aa 99 15 3f c2 b8 63 3e 2c 18 9c be
       0.13996534 0.584376 0.22238448 -0.30487192
000180 41 2f 3a 3f 41 a2 b5 3e 2b 20 7e 3f 06 13 5b 3d
       0.72728354 0.35475352 0.99267834 0.05348494
000190 c7 bb 5b 3c 19 71 8b be 3f 87 cc 3e a0 c7 2e 3d
       0.013411469 -0.27234724 0.39946935 0.042670846
0001a0 6b 4b 44 3e fd 21 15 3e 68 83 80 3f 42 17 6a 3f
       0.19169395 0.14563747 1.0040102 0.9144174
0001b0 04 29 02 3f b2 7b b8 3e 6f 7f 32 be 3f 13 fa be
       0.50843835 0.36031872 -0.17431425 -0.4884281
0001c0 bb 5c 4c 3e 57 31 46 3f 27 78 b7 be 48 2f e4 be
       0.19957249 0.77419037 -0.35833856 -0.44567323
0001d0 a9 15 3e 3e 46 88 16 be 13 d6 91 be 30 ab e7 bf
       0.1856295 -0.14700422 -0.28483638 -1.8099117
0001e0 c3 2d 61 3d 0e 6b 90 3d db 52 b6 3c 1f ff 86 be
       0.054975282 0.07051669 0.022256305 -0.26366517
0001f0 8f 73 38 be 45 ff a9 be 0b a0 62 3f 08 55 54 be
       -0.18012832 -0.33202568 0.88525456 -0.20735562
000200 32 b1 0b bf ec ce dd be 21 41 45 3d bd 54 52 bd
       -0.54567254 -0.4332193 0.048157815 -0.051350344
000210 55 90 09 be 1a 4f 08 3c 18 c1 b9 3c c2 b1 27 3d
       -0.13433965 0.0083196405 0.022675082 0.040941007
000220 22 eb 42 bd 8d 23 ed bc 0b fc f4 bc 6e 9c 4f 3d
       -0.04758752 -0.028947616 -0.02990534 0.050686292
000230 13 c8 5e 3d 9b 27 d9 bd 6b 6f 92 3d af 62 9c 3d
       0.054390024 -0.10603257 0.071501575 0.0763601
000240 12 08 b1 bd 90 c5 96 3f 09 87 a9 bf df f7 b7 bf
       -0.086441174 1.1779041 -1.3244334 -1.4372519
000250 83 c5 48 be 28 01 2c bf ef 4d 5b 3d eb e4 18 bd
       -0.19606595 -0.67189264 0.05354112 -0.03732769
000260 b9 68 68 3d 05 60 5d 3d c2 1d 89 bd 2d a9 ff bd
       0.056740496 0.05404665 -0.06695129 -0.124834396
000270 8f 96 93 be 46 a7 79 bd 34 c4 c7 bd 4a 54 e0 bd
       -0.28825805 -0.06095054 -0.0975422 -0.10953577
000280 a1 91 d1 3e 70 07 08 3e df a0 ba be e6 e8 7f bc
       0.4093142 0.13284087 -0.3645086 -0.015619492
000290 f7 e5 35 3d f7 d4 81 bc 87 78 7a bd e4 d8 0d bf
       0.044408765 -0.01584862 -0.0611501 -0.55409074
0002a0 cb 1f e2 be 79 5f bd be 0d 0c 3b 3b 44 86 62 3e
       -0.4416488 -0.36986902 0.0028541118 0.22121531
0002b0 b9 ec 06 3f 8f d9 04 3e 29 69 c2 3d 11 6e 2a 3e
       0.5270496 0.12973617 0.09492714 0.1664355
0002c0 55 db 10 3d 45 9c af 3e d4 05 35 3e fb bd f0 3d
       0.03536542 0.34298912 0.17678005 0.11754986
0002d0 3a 00 20 3d bb aa 61 bd f4 33 56 bc f7 0a b9 3c
       0.039062716 -0.055094462 -0.01307391 0.022588236
0002e0 80 a8 89 3b 0c 0a 19 3e 26 8a 4a 3d eb 9c 9b 3e
       0.004200995 0.14945239 0.049448155 0.30393156
0002f0 72 26 47 3e 20 c4 12 be 1d ff c6 3d 18 53 6a be
       0.1944826 -0.14332628 0.09716628 -0.2288326
000300 c4 a1 b5 be ff 8f ac be 91 24 b7 be 79 e0 69 bf
       -0.3547498 -0.3370361 -0.35770085 -0.91358143
000310 17 6a 47 bf 9c bb 8e 3e 65 ff d7 3c 7f ee 80 be
       -0.77896255 0.2787751 0.026366899 -0.25181958
000320 0a 2e ac 3d 70 db fd bd 78 a2 21 3b 17 65 a6 be
       0.08407219 -0.1239537 0.002466349 -0.32499
000330 65 1d 90 be 54 2b 7a bc f8 8e b7 bd 23 18 e1 3d
       -0.28147426 -0.015269119 -0.08962816 0.10990932
000340 38 13 4e 3c e9 23 36 be 11 9b ac bd e0 e1 65 be
       0.012577824 -0.17787136 -0.08428014 -0.22449446
000350 bd fd 1d 3e e8 c4 22 be fe 5e 70 3d 5f 91 1d be
       0.15428825 -0.15895426 0.05868434 -0.15387486
000360 f9 96 7f 3d 67 5f 87 3d e0 c4 a1 bb 44 c0 c1 bd
       0.062399838 0.066099934 -0.0049367994 -0.094605
000370 33 99 b7 3c 34 a4 ae bb d5 1c 10 be 5f 54 1a 3e
       0.022411918 -0.005329633 -0.14073499 0.15071248
000380 c9 2b 9e bd 54 6a 81 bf c0 4f 91 3f 4d 4e 1f 3f
       -0.07723195 -1.0110574 1.1352463 0.6222885
000390 34 c7 a8 be 37 e9 62 be 65 9d 31 3d 57 6f 0f bd
       -0.3296448 -0.22159277 0.043362994 -0.03501829
0003a0 5c ec da 3c b5 e5 33 3d 89 9a aa bd 49 2b 22 be
       0.026724033 0.043920238 -0.083302565 -0.15836824
0003b0 76 a3 77 bd 29 33 d4 3d 8f d9 06 3e 5a 2b 98 3d
       -0.060458623 0.103613205 0.1316893 0.07430144
0003c0 d6 89 1a 3e f1 c3 b9 be 3f 20 b3 bd e3 89 89 be
       0.15091643 -0.36282304 -0.08746385 -0.26863012
0003d0 51 fd 77 be 85 b1 82 bf 72 ba c2 3e 4d 4a a8 be
       -0.24217726 -1.0210425 0.3803287 -0.32869187
0003e0 23 8a bd 3d 1c 5f 0b bf 47 98 91 bf 2c fa 5b 3d
       0.09254863 -0.54442 -1.1374596 0.05370538
0003f0 cc 5f 4c 3f 4a f9 97 3e 73 31 35 3f cb b1 0a bf
       0.79833674 0.2968238 0.7077858 -0.5417754

bias f4 [16]
000000 61 df fe 3d 46 39 97 3c 83 c3 54 bd b5 6c 6d bb
       0.1244495 0.018459927 -0.051944267 -0.0036228125
000010 7f 81 a2 bd 76 7a 47 bb c5 00 af be f5 bd 20 be
       -0.07934856 -0.0030437983 -0.34180275 -0.15697463
000020 b9 b6 40 be 0b 62 1f be 21 b4 8b ba 16 22 fb bc
       -0.18819703 -0.15564744 -0.0010658541 -0.030655902
000030 5a fa ee bd 15 1c 1c bd bb fd f6 3e df 0f 06 3f
       -0.116688445 -0.03811272 0.48240456 0.5236797

weight f4 [64, 112]
000000 b8 f4 b5 bd 85 49 f4 3c e7 cc 6d bd 7c ea dc 3c
       -0.08884567 0.029820213 -0.05805674 0.02696728
000010 89 1e 6d bc 84 14 e0 bd 77 2f a8 bd a7 77 81 bc
       -0.014472612 -0.10941413 -0.08212178 -0.015804125
000020 1a 85 c3 bd a4 97 26 be 71 05 4f bb 6c 90 d4 bc
       -0.095468715 -0.16268784 -0.0031588937 -0.025947772
000030 36 4b 0a be 58 2f 62 bd da b9 9e bd 37 d7 8a 3c
       -0.13505253 -0.05522093 -0.07750292 0.016948326
000040 03 ba e3 bd 31 d9 3e bd be f9 dc bd 5b 0b 5a 3c
       -0.11119463 -0.04659385 -0.10789822 0.013308371
000050 db e6 15 be d1 77 f3 bd da 36 74 bc 1f b5 e3 3b
       -0.14638846 -0.118880875 -0.014905656 0.0069490816
000060 3a d2 27 be 52 15 0d be 3e bb f2 bd d4 5d a5 bd
       -0.16388789 -0.13777664 -0.1185212 -0.08074537
000070 4b eb 88 bd e1 ff 90 bd df 4f b8 bd ba a8 e4 bd
       -0.066855036 -0.07080055 -0.08999609 -0.111649945
000080 1c 03 9f 3c 7f 98 a0 bd 15 41 9f bc 33 5f 15 be
       0.019410662 -0.07841586 -0.019440213 -0.14587097
000090 44 fc d8 bd 30 92 80 bd 17 16 00 be be e4 40 bd
       -0.10594991 -0.06277883 -0.12508427 -0.047093146
0000a0 c0 9d ce bd cc e7 a8 bd 15 33 0c 3d 0b c1 31 3d
       -0.10088682 -0.08247337 0.034228403 0.04339699
0000b0 e3 36 24 3d 1e fb 18 3c 13 fa 77 bd 46 8f 71 3d
       0.040091407 0.009337215 -0.060541224 0.058974527
0000c0 1e dc 52 bd a1 0f 55 bc 84 1c bf bc f0 ab 0a be
       -0.05147945 -0.0130042145 -0.023329027 -0.13542151
0000d0 17 f0 55 3d 0a 57 ab bd ab 0b 1b be 9f ad 1a be
       0.05223092 -0.08366211 -0.1514117 -0.15105294
0000e0 0b 74 bc bc 03 b1 8c bc fe 6c c4 bd 28 7e 52 bc
       -0.023004552 -0.01717425 -0.09591101 -0.012847461
0000f0 23 5d b9 3d 2d 00 9f 3d 2d 5c bf 3d 82 c9 9d bd
       0.090509675 0.077637054 0.09343753 -0.0770445
000100 97 8e 3d bd c9 d1 19 be 1d 9c ff 3b 89 23 a6 bc
       -0.046278562 -0.15021433 0.0078005926 -0.020280616
000110 5c 7c c5 bd cf 51 55 bd 0e 84 f8 bd db 48 05 be
       -0.0964286 -0.052079972 -0.121345624 -0.13016073
000120 d7 ea 1c bd b0 5d 07 be e0 87 72 bd 9f ef 89 bc
       -0.0383099 -0.13219333 -0.05921161 -0.016837893
000130 1d 42 40 bd f0 16 f4 bd 1f a5 e5 bc 20 df 03 be
       -0.04693805 -0.119184375 -0.028032837 -0.12878084
000140 d4 0a 86 bd 5e 6e 73 bc f6 8e 70 bc 20 5c c7 bc
       -0.06545034 -0.014857857 -0.014682522 -0.02433592
000150 1c e0 12 be 20 22 00 be 91 ed 05 3d 4d 78 c7 3b
       -0.14343303 -0.12513018 0.032697264 0.006087339
000160 59 d3 07 be 4b 04 f4 bd ab e3 f0 3c cb cb 27 be
       -0.13264216 -0.11914881 0.029405436 -0.16386335
000170 24 25 1d be c8 54 b7 3c 1b 81 a7 3c 65 64 ec bd
       -0.153462 0.022379294 0.020447304 -0.11542586
000180 c6 11 c6 bd 65 4f 0c be aa 9c 65 bd ad 5d 24 bc
       -0.09671359 -0.13702162 -0.05605761 -0.0100321
000190 74 b0 e6 bd 42 fe b0 bb 20 9d 31 bc 8b c3 e3 bd
       -0.112641245 -0.0054014036 -0.010840684 -0.11121281
0001a0 1f 5e 1e be ad 26 41 bd 19 0c a4 bd 30 7d ae bd
       -0.15465592 -0.047156025 -0.0801012 -0.08519971
0001b0 bd 8a f9 bd bd ba 12 be 5f 54 88 bd f1 76 cf bd
       -0.12184665 -0.14329048 -0.066567175 -0.10130108
0001c0 67 62 44 be a6 9a d7 be 1c 7a 11 3c a9 f4 bc bd
       -0.19178163 -0.42110175 0.008879211 -0.09226353
0001d0 9a d3 a7 be b3 d4 a8 3e ae 98 84 3e 9e 3e cc 3e
       -0.32778627 0.32974777 0.25897735 0.39891523
0001e0 95 1c 31 bf c1 79 4a 3f f3 ed 38 bd 33 b0 3d 3e
       -0.6918424 0.7909203 -0.0451488 0.18524246
0001f0 f6 da 06 3e 0f c9 5c 3f d7 57 eb 3d 46 40 96 be
       0.13169464 0.8624429 0.114913635 -0.29345912
000200 01 82 cb 3e a2 c2 bc 3c e8 fd 7f be 6d b1 8b 3e
       0.39747623 0.023042027 -0.24999201 0.27283803
000210 9c 32 52 3e 0d c8 30 3f 1a 2a cf 3e 6e 9f 26 3f
       0.20527118 0.69055253 0.40461808 0.6508702
000220 64 17 4f bc 2d 6e 44 3f 4d 76 91 3f f3 b8 be 3c
       -0.012639854 0.76730615 1.1364228 0.02328155
000230 7d 07 e5 3e ff 64 3b 3f da 23 00 be 06 cb bc 3e
       0.44732276 0.7320098 -0.12513676 0.36873645
000240 77 52 f3 3d 26 6e d9 be ab e7 39 3d 74 1c 2c 3f
       0.11880963 -0.4246685 0.04538695 0.67230916
000250 89 ed 5a bf 9c a5 9a 3f e2 71 3d bf c3 04 fc 3e
       -0.855187 1.208179 -0.74001896 0.49222383
000260 cf 80 5c 3f 47 f5 37 bf ab 41 30 be f6 12 4c 3e
       0.86134046 -0.7185864 -0.1721255 0.19929108
000270 a7 2f ba bc ae ba 9d 3c 0b 94 14 be 0f d8 e1 bd
       -0.0227278 0.019254055 -0.14509599 -0.11027538
000280 48 fc a0 bd 4b 91 d0 bf 83 30 8a 3f 66 d5 63 bf
       -0.07860619 -1.629434 1.0796055 -0.88997495
000290 5e f7 61 3f 25 a1 2d bf 99 0e 0c 3f 5d 91 cc 3e
       0.8826808 -0.6782401 0.54709774 0.39954653
0002a0 e5 c4 9d 3d b0 1c 21 bb 58 ce 49 3d d0 3b 62 3d
       0.0770357 -0.002458375 0.04926905 0.055232823
0002b0 f3 62 a0 bd 78 6f be bd eb a9 c4 3d 87 f6 99 3f
       -0.07831373 -0.09298605 0.09602722 1.2028359
0002c0 10 d2 0f bf 3b 4c 6a 3f cb 28 5d be 9b 3d f8 be
       -0.56179905 0.9152257 -0.21597593 -0.484845
0002d0 b0 1c 34 3f 94 a0 9a 3e 78 52 a1 3e 71 b1 a5 be
       0.70356274 0.30200636 0.3150823 -0.3236194
0002e0 49 b9 fa 3f 21 2d 52 3f a9 c2 fd bd 44 03 6d bf
       1.9587795 0.8210011 -0.12390644 -0.9258311
0002f0 15 6c df 3e 93 73 82 bc bc 89 e9 3c 3f 09 ac bd
       0.43637148 -0.01592425 0.02850806 -0.08400201
000300 30 18 7c 3d cd e4 f6 bd 81 fc 04 bd 54 aa 47 3d
       0.061546504 -0.12055359 -0.03246737 0.048746422
000310 f6 42 04 bd a8 e8 f4 3c fb 70 b8 bd aa 2f f5 3c
       -0.03229042 0.029896095 -0.09005924 0.029929955
000320 19 8c 73 bd 5e b2 c0 3d a6 9c 90 3c e5 cf 78 be
       -0.05945978 0.09409021 0.01765282 -0.24298055
000330 7b a9 3d be a7 c8 88 bd 14 6a 0c bf 4f 3a 21 3d
       -0.18521683 -0.066788964 -0.5484936 0.039362248
000340 63 5a 31 3f ad 17 20 3f 15 4e e8 3c a1 3a da 3e
       0.69278544 0.62536126 0.028357545 0.42622855
000350 59 17 14 3f e6 c8 aa be 45 6b 8b 3e 63 76 5a 3e
       0.57848126 -0.33356398 0.27230278 0.21334223
000360 ac 19 af 3e bd 0b 0a 3d 75 24 42 be 08 7e af be
       0.34199274 0.0337026 -0.1895922 -0.34275842
000370 1a cd a9 3d 02 82 14 be 9e 58 c2 be 5a 89 04 3f
       0.08291073 -0.14502719 -0.37958235 0.5177208
000380 2d e8 e1 be c5 c1 4f be 50 bb b0 3c 19 a2 08 be
       -0.4412245 -0.20288761 0.021573693 -0.13343085
000390 37 1e 88 be 44 3c 8c 3e 07 b7 1a 3e bd 5f 29 3f
       -0.26585552 0.2738973 0.15108882 0.6616171
0003a0 fd d9 37 3f 27 24 a6 be 4d f2 3f 3f 98 4b 47 3f
       0.71817 -0.32449457 0.74979097 0.7784972
0003b0 e4 1d 66 bd 29 c4 3f 3f ca ca 9b 3e 39 80 0d 3f
       -0.05618085 0.7490869 0.30428153 0.5527378
0003c0 7c 38 39 bf 03 54 ca 3d b6 76 f1 3d 4e c5 16 bf
       -0.72351813 0.09879305 0.117902204 -0.58894813
0003d0 b3 ee 11 3e cc 5e 3c 3f b9 70 a4 3e c7 a9 00 3f
       0.14251213 0.7358215 0.3211725 0.5025906
0003e0 02 94 b2 3e f8 4e e4 3e 42 4e 88 3f 31 d8 b2 3d
       0.34878546 0.44591498 1.0648882 0.087326415
0003f0 2b 5d 05 3f 06 a1 0b 3f 95 c4 0a be 95 bd be 3e
       0.5209529 0.5454258 -0.13551553 0.37254015

bias f4 [64]
000000 a0 f8 5d bc 9a 19 56 3d ae 9f 44 3f 7e de fa be
       -0.013548046 0.05227051 0.7680615 -0.48997873
000010 b3 81 c8 bc d4 9b 2a 3d bd 45 0e be 98 d8 07 be
       -0.024475908 0.041652516 -0.1389379 -0.13266218
000020 1b 77 22 bf 16 b3 e6 bc 97 3d 07 be b1 b9 f0 be
       -0.6346299 -0.028161567 -0.13207088 -0.4701667
000030 54 42 a8 bd d9 b3 63 bd db d7 b1 bd 8f 63 c8 bd
       -0.08215776 -0.055591438 -0.08683749 -0.09784614
000040 2d 77 af bd 55 33 e3 3f e4 24 00 be 94 2f 22 3f
       -0.08567653 1.775004 -0.12514073 0.6335385
000050 6e 92 b5 bd 76 bc 99 bb 09 2b 4b 3b 44 9d bc be
       -0.0886582 -0.0046916557 0.0031000993 -0.36838734
000060 a3 42 d9 bd 64 a6 07 be 69 53 b4 3c be ab 92 bc
       -0.10608413 -0.13247067 0.02201243 -0.017904159
000070 b9 7b bc be b4 f8 d3 3f 0a 94 e5 bd ab 9a 04 be
       -0.36813143 1.6560273 -0.11209877 -0.12949626
000080 42 53 b4 3c ae 42 9d be a9 9f 5c 3f f1 e8 a7 3c
       0.022012357 -0.30714935 0.8618112 0.020496817
000090 e6 13 ff bd 04 07 ff be 9c 99 af be 5b 04 9b 3f
       -0.12454967 -0.4981004 -0.34296882 1.2110704
0000a0 dd 30 cd bc 52 bb 8f 3e da 78 89 3d 3f e1 c1 bd
       -0.025047714 0.28072602 0.06712504 -0.094667904
0000b0 b2 a7 f5 bc 55 da e5 bd 34 99 04 c0 8d ab f5 bd
       -0.02998719 -0.11223284 -2.0718508 -0.11995611
0000c0 ac 98 5c bd a3 a7 8d bc 2c 2e e8 3e 11 62 4a bd
       -0.053856537 -0.01729185 0.45347726 -0.04940993
0000d0 ab 75 19 3d b8 bc a0 be 2d d2 56 bd 50 59 5d bd
       0.037465733 -0.3139398 -0.052446533 -0.054040253
0000e0 26 bf ba be 91 87 ef be 5c 03 b1 bc 02 5b bc bc
       -0.3647396 -0.46783116 -0.021608047 -0.022992615
0000f0 ea 97 5b 3d c7 cc a9 bd ae 20 21 bd 14 bb 10 3f
       0.053611673 -0.08291011 -0.039337806 0.5653546

weight f4 [32, 64]
000000 b9 5c f6 3c 5e f1 b7 3e e1 7f d5 3d fd 90 3f be
       0.03007351 0.35926336 0.104247816 -0.18707652
000010 23 72 27 bd 5d a8 4f 3e 35 e4 03 be 1c 8b e7 3d
       -0.040880334 0.20279069 -0.12880023 0.1130583
000020 94 d4 b3 be 20 c4 e0 3c db bf c7 3d e8 dd 2e be
       -0.35123122 0.02743727 0.097533904 -0.17076838
000030 2c fe 1e 3d 0f be e3 3b f7 1e bb bb e4 93 ea bc
       0.038816616 0.006950147 -0.0057104784 -0.028634973
000040 c8 70 2a ba 0d af 6d bf 0a 87 18 be 07 6c aa 3c
       -0.0006501791 -0.9284523 -0.14895263 0.020803465
000050 ba 04 aa 3c a5 0d 1c be ee 07 59 bc cc e4 16 be
       0.020754207 -0.1523958 -0.0132465195 -0.14735717
000060 44 5c 9e 3e 08 b7 7e bd d7 51 98 3d f2 22 2d bc
       0.30929768 -0.06218627 0.07437485 -0.010567414
000070 c9 04 9f be 24 c0 5d 3d 36 c8 a7 3d 65 22 90 bd
       -0.31058338 0.054138318 0.08192484 -0.0703781
000080 9c b9 b1 3c 3c fe d1 bd 82 70 23 bf 06 fb 17 be
       0.02169495 -0.102535695 -0.6384355 -0.14841852
000090 f5 00 f7 3c b6 3d 84 be bc 50 25 3e 07 3f 74 3e
       0.030151824 -0.25828332 0.16144079 0.23852168
0000a0 5b 06 36 3d 96 55 98 3d 86 9c 93 bd 6d 9f c5 bd
       0.044439655 0.07438199 -0.07207589 -0.09649549
0000b0 7a 32 30 3e ae 89 57 3d d6 e8 87 3d d3 08 cd 3c
       0.17206755 0.052621536 0.06636207 0.025028622
0000c0 8a b9 12 3d 32 02 25 bd 71 14 c0 be 59 36 a2 3d
       0.035821475 -0.040285297 -0.37515596 0.07920522
0000d0 92 3d 6f 3e 6b 56 a6 be ec 19 0b bd eb 54 05 3e
       0.23363331 -0.32487807 -0.033960268 0.13020675
0000e0 2c 84 ca 3d e2 f2 1d bf 8e 62 28 be a1 06 e4 bd
       0.09888491 -0.61698735 -0.16443846 -0.11134077
0000f0 cb e0 10 bd 82 48 b1 bd 72 c9 f7 bd 6d 71 08 3f
       -0.03537063 -0.08656408 -0.120989695 0.53298074
000100 f0 93 bc 3d 17 a0 a7 be dd 6f dc be 90 91 15 3c
       0.09207904 -0.32739326 -0.43054095 0.009128943
000110 50 b2 e3 bc 1e 94 d6 bd 38 5e 8e 3d d8 64 42 bd
       -0.027794987 -0.1047747 0.069515646 -0.047459453
000120 04 22 de bd fc 22 cd 3d cc f5 a5 3d d2 f5 fb bd
       -0.10846332 0.10016438 0.08103523 -0.12302746
000130 cc 17 be 3d 0c da 51 bd e0 e1 f7 bd a2 06 d6 3d
       0.09281883 -0.051233336 -0.12103629 0.10450484
000140 0c d6 bf 3d c3 c6 8c be 80 a3 85 ba 1a 1d b9 be
       0.09366998 -0.27495393 -0.0010195822 -0.36155015
000150 62 f8 bb 3d 9c 5e c7 bd 64 03 58 3d 84 ce 81 bd
       0.09178235 -0.09734842 0.05273761 -0.06338218
000160 aa 4e 94 be 9a 0d e4 bd a0 f9 18 3d 08 70 fc bc
       -0.28966266 -0.11135407 0.037347436 -0.03081514
000170 42 79 d1 3d 6d f5 01 be 20 01 dc bc 70 84 04 bc
       0.10228206 -0.12691279 -0.026856005 -0.008088216
000180 c6 4e 82 bd 7a 5b a7 3d c0 da 43 bd 78 bb 84 3c
       -0.06362681 0.08171745 -0.047816038 0.016202673
000190 80 d4 69 3c 54 a3 00 bd 44 bc 94 3d 6e 0d f7 be
       0.014271855 -0.03140576 0.07262471 -0.48252434
0001a0 c8 0d e9 bd 64 1c 9f be 6a 42 95 bd f0 89 37 3d
       -0.11379582 -0.31076348 -0.07288058 0.04480928
0001b0 b6 1d ad bd ea 1d bc 3d d8 38 58 be dc ef 67 3d
       -0.084529325 0.09185393 -0.21115434 0.056625232
0001c0 10 a1 6f bc 7c da f8 bd 04 80 c1 bd b0 16 02 bc
       -0.014625803 -0.121510476 -0.09448245 -0.007939979
0001d0 70 62 b5 bc aa d3 80 bd 00 00 4b 39 c8 cc 31 3d
       -0.022141665 -0.06290372 0.00019359589 0.043408185
0001e0 78 27 4a bd 68 fb be bc 84 2c 06 bd 54 c6 59 3d
       -0.049354047 -0.02331324 -0.032757297 0.053167656
0001f0 60 13 94 bb c2 16 f2 bd 00 df cc 3c c0 f0 a6 be
       -0.0045189112 -0.11820747 0.025008678 -0.32605553
000200 1c f4 26 be 13 1e ea bb 1a 7e 31 be 18 e3 e0 3c
       -0.16304058 -0.0071446984 -0.1733326 0.027452037
000210 70 19 f3 bd a7 f4 ab bd 84 a7 8f bd 4d c3 41 3d
       -0.11870086 -0.08396273 -0.07014373 0.047305394
000220 b0 37 00 3c 01 8f 06 be b4 18 3f bd f8 47 f5 bd
       0.007825777 -0.13140489 -0.046654418 -0.119766176
000230 4c d8 a2 bd a0 c3 0b 3d 54 f2 4c bd be ee b0 bd
       -0.079514116 0.03412211 -0.05003579 -0.086392865
000240 74 3d 54 bd dd 37 02 bd 14 10 5a 3d 84 10 30 bd
       -0.05181642 -0.031791557 0.05323799 -0.0429845
000250 f0 e0 1e 3c 03 1c 7a bc e4 c3 97 bd 63 1d 0c be
       0.009697184 -0.015265468 -0.0741041 -0.13683085
000260 4b 98 48 bc fd af ab bd d7 24 3d 3d 09 d0 1a be
       -0.012243341 -0.083831765 0.04617771 -0.15118422
000270 3a 5f eb bd 25 d2 28 be ce f8 45 bd b2 20 29 be
       -0.114927724 -0.16486414 -0.04833298 -0.16516379
000280 64 a3 b4 bd 6a b4 cd bd d6 e1 ac bd c3 68 c6 bd
       -0.08820227 -0.10044177 -0.08441512 -0.096879505
000290 ca 13 e4 bd 75 3f b5 bd c0 00 84 bb 12 86 f8 bd
       -0.11136587 -0.08849994 -0.0040284097 -0.12134947
0002a0 e9 df a4 3c 90 48 e9 3c 3d 61 1a 3c 79 51 53 3c
       0.0201263 0.028476983 0.0094225975 0.012897843
0002b0 5d db 02 3c 64 38 61 bd 96 40 e6 bd 18 36 7b 3c
       0.007986871 -0.05498542 -0.112427875 0.015332721
0002c0 4f e5 30 bd 9b 42 8e bc 28 e3 74 bc 7e a8 12 3c
       -0.043187436 -0.017365744 -0.014946736 0.0089513045
0002d0 12 6e 7e bd 20 08 60 bc 07 0e a0 bd 7a 09 d0 3b
       -0.06211669 -0.013673812 -0.078151755 0.006348786
0002e0 da ef 83 bd ed ee 50 3d d0 04 60 3c 76 4a f1 bd
       -0.064422324 0.051009107 0.013673022 -0.117817804
0002f0 8e 74 54 bc fe 00 2a be e0 39 d9 3d 82 11 11 3d
       -0.012967242 -0.16601941 0.10606742 0.035417087
000300 a4 8e d7 bd f7 07 e3 bd c3 88 1f bd ff 83 ef bd
       -0.105252534 -0.110855035 -0.038948786 -0.11695098
000310 0b 85 52 3d 6b 39 92 bd 34 b5 e1 bd 51 49 3b bc
       0.05139641 -0.07139858 -0.1102089 -0.011431054
000320 90 4f 57 3c 67 06 96 bd fc 2b 1a bd 34 07 e7 bd
       0.013141528 -0.0732544 -0.037639603 -0.11280671
000330 4c c0 10 3d a7 b4 a9 bd 81 93 f0 3c 1c c9 79 3d
       0.03533964 -0.0828641 0.02936721 0.06098281
000340 32 53 90 bd d3 52 2e 3a eb bd da bc 58 49 08 3d
       -0.07047118 0.0006649915 -0.026701888 0.03327307
000350 75 22 43 bc 78 c1 d0 3d 58 81 e8 bd 3f ef 8a 3c
       -0.011910071 0.10193151 -0.11352795 0.016959785
000360 4b 36 72 bc ea cf da 3d e8 31 e7 bb 7d 58 14 be
       -0.014783452 0.10684188 -0.00705551 -0.1448688
000370 68 5c 80 3c 55 4b aa bc 3a db 37 be 8a 1b c6 3b
       0.015669063 -0.020787874 -0.17954722 0.0060457634
000380 20 a0 4f 3d de 23 87 3d fd 2c 23 be bf 47 2c 3d
       0.050689816 0.06598638 -0.1593513 0.04206061
000390 52 e8 ee bd 10 a8 ad 3c 38 f8 b0 bc f8 fd 81 bd
       -0.11665405 0.021198303 -0.021602735 -0.06347269
0003a0 ab ab 1b be e9 ec a3 bc 43 77 32 3d 4a 9e 6a bd
       -0.15202205 -0.020010429 0.043570768 -0.057279862
0003b0 3a 26 f3 bd 46 4c 19 be dd 3d 83 bb d6 a0 ef bd
       -0.118725255 -0.14970502 -0.0040051774 -0.11700599
0003c0 5c a8 2a be 8c 4a ab 3c c6 50 94 bd 40 b2 76 3b
       -0.16665787 0.02090957 -0.07241969 0.0037642866
0003d0 d8 1b b5 bd 3e a8 1f bd 35 0b 1d 3a ce 73 09 be
       -0.088432014 -0.038978808 0.00059907447 -0.13423082
0003e0 aa 66 d0 3d e3 48 1e be c0 8e 95 bd 2a 3d 8e bd
       0.101758316 -0.15457492 -0.07302618 -0.0694526
0003f0 bd 25 4f bd 6b 74 37 be 60 b2 d0 bb 0c 24 86 bc
       -0.0505731 -0.17915504 -0.00636892 -0.01637461

bias f4 [32]
000000 5b 0f 9b 3f 31 6c 00 bf fc 9b 26 be 46 a9 0e be
       1.2114061 -0.50165087 -0.16270441 -0.1393176
000010 2b 51 da be 75 19 a3 3e e1 ef 1e bf ae 5a 3c be
       -0.4264005 0.3185536 -0.62084776 -0.18393967
000020 73 f5 86 bd e5 7e 2b 3d 12 2d f2 bc 28 c8 f8 bb
       -0.065897845 0.041869063 -0.029562507 -0.00759222
000030 40 c2 53 be 27 fa 6f be 57 6c 73 be 9f f1 1c bf
       -0.20679569 -0.2343527 -0.23771797 -0.61306185
000040 21 b1 e4 bc 12 40 1d be 80 9c a9 bd a4 f5 1e 3f
       -0.027916493 -0.15356472 -0.08281803 0.6209357
000050 04 f5 8f 3b e3 17 66 3e c4 e5 9c be c7 a0 1a 3e
       0.004393222 0.2247005 -0.30644047 0.15100394
000060 58 7d e2 bd 30 eb 0a bd a3 d2 77 be a1 29 da be
       -0.11059064 -0.0339157 -0.24201445 -0.42609885
000070 b0 3d aa be 8e 7a a1 be b8 7a 1a be f4 0e 72 3e
       -0.3325019 -0.31538814 -0.15085876 0.23638517

weight f4 [18, 32]
000000 01 50 af bd 30 73 56 be 43 3f ab 3d a6 3b 8f bd
       -0.085601814 -0.20942378 0.083616756 -0.06993799
000010 80 10 99 be 00 d2 25 bd ea 27 61 3e 21 9f 6a 3d
       -0.298954 -0.040483475 0.21987882 0.057280663
000020 0d 42 fd 3c 40 71 74 3c 4a db 58 3d b2 c6 b8 bd
       0.030915285 0.014919579 0.052943505 -0.09022273
000030 b9 66 68 3d e9 bf 0c 3d 30 f0 fd bd 3d 6f 9f bc
       0.05673859 0.034362707 -0.12399328 -0.019462222
000040 cb 95 a4 3d 29 0e a8 bc a8 df 93 3d a7 3c c9 bc
       0.08036383 -0.020514565 0.072203934 -0.024565054
000050 da 99 00 3e 3a 6d 8b 3b c1 f0 aa bd 0e 9a 0b 3d
       0.1255869 0.004254964 -0.083467014 0.034082465
000060 69 9d 12 bd fa 5b bc 3d ae 21 f4 bb db 4b 5d bf
       -0.03579465 0.09197231 -0.007450304 -0.8644387
000070 b2 32 e3 3c 56 a2 08 3e d6 24 a3 3c 43 d8 d9 3c
       0.027734134 0.13343176 0.019915026 0.02659238
000080 4d 74 de 3d 4d ae 91 3e d5 c3 6f 3d a3 4c 61 3d
       0.10862026 0.28453293 0.05853637 0.055004727
000090 87 88 d0 3e 87 a7 b7 be 66 51 98 3e 23 13 eb bc
       0.40729162 -0.3587 0.29749602 -0.028695649
0000a0 bd d9 32 bd 8f 3f 29 3e 01 07 1e bd 17 00 34 be
       -0.043664683 0.16528152 -0.0385809 -0.1757816
0000b0 76 13 5a bd 11 f5 3a bf eb d3 1b bd be 41 93 3e
       -0.053241216 -0.7303019 -0.038043898 0.28761095
0000c0 7d f2 c0 3d 52 99 82 bd 00 d5 c4 bd 4a ae c4 3e
       0.09421251 -0.063769 -0.09610939 0.38414222
0000d0 a9 24 b8 3d b2 9b 78 3e d0 b5 a4 be cc cd ec 3d
       0.08991367 0.24278143 -0.32169962 0.1156269
0000e0 35 a6 ae bd 8f 26 2f be 3c 73 eb 3d 9a 42 16 3e
       -0.08527795 -0.17104553 0.114965886 0.14673844
0000f0 a6 26 9c be 87 46 ab be 8e df c2 be a3 03 91 3e
       -0.30498236 -0.33452246 -0.38061184 0.28323087
000100 d1 56 3d bd 46 a8 bb be f1 a2 52 3e 3b 04 bc 3d
       -0.046225373 -0.3665182 0.2056997 0.091804944
000110 8a 69 3f be ea 23 ce bb b2 e7 0c bf 7a 83 c5 3d
       -0.18692604 -0.0062909024 -0.5504104 0.09644218
000120 58 36 55 3d 61 44 a0 3d b4 a9 da 3d 4b 3c 01 3e
       0.05205378 0.07825542 0.106768996 0.12620656
000130 bb 34 13 be 11 f8 63 bc bd 05 78 3e 43 1e 1a 3e
       -0.14375584 -0.013914124 0.24220939 0.15050606
000140 99 0e 83 bd a6 a5 ac 3b 2f 8c fb bd 28 ad 53 bd
       -0.06399269 0.0052687703 -0.12282597 -0.051678807
000150 59 52 1d 3d 56 a5 d2 3b ec 14 ab 3e 0a 09 92 3c
       0.03840861 0.006428401 0.334144 0.017826576
000160 4d ac 60 3d d5 d9 0a 3e 61 1f e2 3c e7 66 2f 3f
       0.05485182 0.13559659 0.027602853 0.6851639
000170 2d d9 13 be d6 2d ff bc b9 a0 88 3d 6f a3 36 3c
       -0.14438315 -0.031149786 0.066712804 0.011147364
000180 e2 fe 93 3e f0 6a 42 be 14 c5 41 3d 32 8e 34 be
       0.28905398 -0.18986106 0.04730709 -0.17632368
000190 58 04 40 be c3 9d 0d 3f c3 53 74 3e 78 fb be bd
       -0.18751657 0.5531885 0.23860078 -0.093253076
0001a0 9f 6b 31 bd de ac e0 bb 8c f6 45 3e 25 c0 c5 3d
       -0.043315526 -0.006856545 0.19332331 0.09655789
0001b0 b0 eb 0b 3c fb e3 16 be 51 60 cb 3c 5e 57 02 3f
       0.008540079 -0.14735405 0.0248262 0.5091456
0001c0 d6 7b 2b 3e 94 4f d0 3d 09 3f ec bd 9f 97 4f 3b
       0.16746458 0.10171428 -0.115354605 0.0031676067
0001d0 be b5 ce 3c b4 c9 11 bf ab 99 fc 3d 38 87 19 3e
       0.025233146 -0.569484 0.12333997 0.14992988
0001e0 78 3d c6 3d ce ca 2e be 0d 5b fc bd 6a 11 08 bd
       0.09679693 -0.17069551 -0.12322054 -0.033219732
0001f0 23 17 cf be 26 ea f2 3d 67 45 80 3e 33 c3 8f 3e
       -0.4044734 0.118610665 0.2505295 0.28078613
000200 72 5c 02 bd 2f 8d 08 be 28 36 46 bb 31 57 86 3d
       -0.031826444 -0.13335107 -0.0030244682 0.06559599
000210 2d 25 2a be 61 c7 ac 3c 0a 69 6f bf 90 6b 1e be
       -0.16615744 0.021091165 -0.9351965 -0.1547072
000220 41 6d aa bd 3b f0 18 bd 8c fd 77 bd f4 a9 63 bd
       -0.0832162 -0.037338477 -0.060544536 -0.055582
000230 52 61 e8 3c c3 39 31 bf c1 f0 07 bd ba 86 43 be
       0.028366718 -0.6922876 -0.033188585 -0.19094363
000240 98 b3 bc 3c c7 11 b6 bd 2a 02 29 bd e9 4c 1c bf
       0.023034856 -0.088901095 -0.04126183 -0.61054856
000250 33 bd ed 3c 7b 76 90 3e 61 0b b8 3c 31 3d ad 3e
       0.029020881 0.28215393 0.022466363 0.33835748
000260 d2 5f 2f be d7 c9 9a 3e 34 35 36 3e 68 9a 7f be
       -0.17126396 0.30232117 0.17793733 -0.24961245
000270 0c 1b b3 3a 19 ad a8 3d 30 7a 14 3f 29 04 c0 bd
       0.0013664677 0.08236141 0.57998943 -0.093757935
000280 3d c6 c0 bd fb 81 70 3e b9 95 28 3e 34 f8 0f 3e
       -0.09412811 0.23487084 0.16463365 0.14059526
000290 58 0d 3b be a3 ab 87 bc d8 af c2 bd 3a e5 7d bd
       -0.18266809 -0.016561335 -0.09506196 -0.061986186
0002a0 ae bb e4 bd 4c 0d 6a bd 4c 97 45 be df 43 b2 3d
       -0.111686096 -0.057141587 -0.19295996 0.08704352
0002b0 e4 bd c8 bc f1 74 e1 bc a3 ae 7f bd 10 dd 04 bf
       -0.02450461 -0.027521582 -0.062422406 -0.51899815
0002c0 71 74 36 be e6 92 47 be a5 56 70 3d 47 83 0e bd
       -0.17817856 -0.19489631 0.05867638 -0.034793165
0002d0 9c b8 a2 3d d1 f5 7f bc bc 67 39 3d aa 5a eb bb
       0.07945368 -0.015622572 0.045264944 -0.007182439
0002e0 3c e4 30 be d1 61 d3 3d 65 33 0d bd ec 0c ba be
       -0.17274565 0.103213914 -0.03447284 -0.36337984
0002f0 87 30 65 3e 12 ec 25 bd 15 4b 9e 3c f9 37 58 3c
       0.22381793 -0.040508337 0.019322911 0.013196939
000300 c1 0c 98 3e 8a 78 e0 3d 97 6d 4e be bb 28 85 3c
       0.2969723 0.10960491 -0.20158993 0.016254773
000310 5b 3e ea bd 6a de 7a bb 74 5b 9c bd 40 35 5d 3c
       -0.114376746 -0.0038279542 -0.07634631 0.013501465
000320 dd 18 5b 3d 4f 94 1c 3d cf da cd 3d 32 ff 87 3d
       0.05349051 0.038227376 0.100515 0.066404715
000330 1e 49 85 3e 58 b2 09 3c 37 69 50 be cc c7 ca be
       0.26032346 0.008404337 -0.20352636 -0.39605558
000340 31 6d c2 bd a1 2c c9 3d db 58 9c 3d 08 f7 43 3d
       -0.09493483 0.098229654 0.07634135 0.04784301
000350 f8 65 8f 3d 5b 04 10 3e 82 d4 9b bc 8e 8a 9c be
       0.07001871 0.14064161 -0.01902223 -0.3057446
000360 ce b9 46 3e c4 ab 58 3f 15 31 48 3e de 36 e2 3e
       0.19406816 0.84637094 0.19549973 0.44182485
000370 0d f6 b0 3e fa 82 e0 be 02 f6 09 bf 55 ff 17 bd
       0.34562722 -0.43849927 -0.53891003 -0.037108738
000380 65 d6 7c 3b 48 90 36 be 15 5a a9 3d e2 ed d7 3c
       0.0038579938 -0.17828476 0.08269135 0.026358549
000390 12 cb ce 3e 56 74 c1 be df 3c 01 be e9 e3 33 3e
       0.40389305 -0.3778407 -0.12620877 0.1756741
0003a0 64 1d f2 bc d4 af 57 3e 9c 91 87 3b d7 da 1c bd
       -0.02955503 0.21063167 0.004137231 -0.03829464
0003b0 94 84 9b bd 1b af 0b be 5a 6e eb bd db 5d 23 bf
       -0.07593647 -0.13641016 -0.11495657 -0.6381509
0003c0 f1 6c 18 3c d8 f7 0a 3e ac 8f 92 3d 07 4b 3a 3e
       0.009303317 0.13571107 0.071563095 0.18192683
0003d0 a9 a6 39 be 6f 75 02 bf ad 34 29 be 95 6e 18 bf
       -0.18129982 -0.5096044 -0.16524 -0.59543735
0003e0 cf d1 84 bb bb 39 18 3b df d5 d6 3d ce 16 0a bd
       -0.0040533314 0.002322777 0.104900114 -0.033713154
0003f0 f0 bf 29 3e 93 1f 8f be a5 2d e4 3e fa 5e 09 bd
       0.16577125 -0.27953777 0.44566074 -0.033537842

bias f4 [18]
000000 fa 68 a9 bd e6 3f 50 3e 39 15 43 be 28 46 b8 bf
       -0.08271976 0.20336875 -0.19051065 -1.439641
000010 73 34 89 be 1e 2c 39 be a0 fe a1 bf 83 61 97 3f
       -0.26797828 -0.18083236 -1.265583 1.1826633
000020 20 e2 bd bf 31 ee 7d bc 6b b3 e7 be 9c 71 da 3d
       -1.4834633 -0.015498684 -0.45254073 0.106662005
000030 ce 9a 48 3f e9 e8 07 be b0 f4 35 3d 15 94 10 be
       0.78361213 -0.13272442 0.044422805 -0.14118989
000040 0d 2a 6e 3f 2b 5f 40 3f
       0.93032914 0.75145215
