MultiModal/22loss14.073974058032036.pth (torch, 522214 bytes, 41 tensors)

weight f4 [16, 1, 4]
-0.048216395 -0.58514434 -0.8586385 -0.48049197 -0.111939445 -0.13109125 -0.061897274 -0.16868842
-0.2651784 0.18479022 -0.47244427 0.44939408 -4.1490765 -5.735874 -3.7153592 -0.20224787
0.4919839 -0.9037918 0.3787632 0.041278847 -0.547465 0.15697077 -0.77212346 -0.32851067
-2.246855 0.08838562 -2.3045456 -0.5564801 -0.06914545 -0.28515399 -0.6102398 -0.26584548
-0.1078552 0.51280123 -0.7283855 0.47382256 -0.5686272 -0.88358694 0.035049997 -0.6981668
-15.328121 -1.8498846 -0.37706727 -0.05089491 0.10733159 0.089208946 0.09470491 0.096464865
-0.044253826 -0.056264736 0.0019969884 -2.3662927 -0.19020705 -0.2177993 -0.4710116 -0.0065748915
-0.001779693 0.076947175 0.13496324 -0.42178282 -0.16141708 0.47920918 -0.5467084 0.022303864
00000000: 8e7e 45bd 05cc 15bf bccf 5bbf 0b03 f6be
00000010: 8240 e5bd c93c 06be ff87 7dbd a8bc 2cbe
00000020: 77c5 87be a639 3d3e 37e4 f1be fb16 e63e
00000030: 3cc5 84c0 488c b7c0 72c8 6dc0 111a 4fbe
00000040: 50e5 fb3e e65e 67bf 40ed c13e 0214 293d
00000050: ab26 0cbf f2bc 203e e2a9 45bf 8d32 a8be
00000060: 79cc 0fc0 8503 b53d ad7d 13c0 7b75 0ebf
00000070: 219c 8dbd b4ff 91be ad38 1cbf e61c 88be
00000080: 30e3 dcbd f146 033f 7977 3abf df98 f23e
00000090: 8d91 11bf c132 62bf 9690 0f3d 0fbb 32bf
000000a0: fc3f 75c1 05c9 ecbf f60e c1be 2e77 50bd
000000b0: aad0 db3d 2eb3 b63d a6f4 c13d 5f8f c53d
000000c0: 8043 35bd da75 66bd e8df 023b 5771 17c0
000000d0: a3c5 42be c806 5fbe 6f28 f1be 3072 d7bb
000000e0: 9644 e9ba 7b96 9d3d ce33 0a3e ebf3 d7be
000000f0: 854a 25be e85a f53e 15f5 0bbf 98b6 b63c

bias f4 [16]
-1.9568999 0.6725797 -0.18987949 0.27746454 -0.021559369 0.31881502 0.30714625 -0.18394892
-0.13429831 -0.48822358 0.26970726 -1.0343529 -0.07198442 -0.41110778 0.51890624 -0.96007377
00000000: b27b fabf 2f2e 2c3f c56f 42be d50f 8e3e
00000010: 469d b0bc b93b a33e 4642 9d3e 1b5d 3cbe
00000020: 7f85 09be 71f8 f9be 1217 8a3e ad65 84bf
00000030: 916c 93bd b87c d2be 0ad7 043f 65c7 75bf

weight f4 [16, 16, 4]
-0.08653759 -0.010139908 -0.022333218 -0.013664366 -0.026276657 -0.074901864 -0.03337749 0.05478374
-0.15783015 0.0018403565 -0.05199555 -0.11439248 -0.122933246 0.014189359 -0.10496157 -0.072368786
-0.05408649 0.01558253 -0.0956936 -0.023728766 -0.2068289 -0.24059914 0.04540357 -0.32943925
0.010565731 0.07272825 -0.091304414 -0.13768837 -0.026479183 -0.03955293 -0.10292133 -0.046766847
-0.20765264 -0.16108373 0.06783789 -0.11711234 0.10604753 -0.21913901 -0.08289163 0.12520854
0.076692894 0.027633896 -0.0037267439 -0.11486292 -0.01787702 -0.04428843 -0.020508608 -0.027596457
-0.120559 -0.16183458 -0.028116986 -0.14974864 0.02150216 -0.042145506 -0.030517487 -0.103125304
-0.022271756 -0.08782107 -0.14289261 -0.12845919 0.07714324 -0.13408805 -0.1303542 0.031204797
-0.08452385 0.0854563 -0.0571493 -0.017430881 -0.3608067 -0.03806695 -0.24763326 -0.35772455
-0.18144785 0.076663576 -0.17640948 -0.22542965 0.024454612 -0.29523093 -0.18219976 -0.05738265
-0.41024238 -0.055946182 0.07142981 -0.29755652 -0.59817815 -0.04677877 -0.012148444 -0.25660914
0.05060658 0.08729701 0.22775725 -0.08345787 -0.09614334 0.05549919 0.08049963 -0.0145155005
-0.25766936 -0.09955005 -0.14306346 -0.41143757 -0.03263349 -0.17362721 -0.16676262 -0.09118603
-0.2600698 -0.17765653 -0.0224646 -0.15661335 -0.37531757 -0.20945041 -0.11108051 -0.3166299
-0.34928498 0.06711278 -0.10990116 -0.120473266 -0.050158564 -0.054886956 0.029872404 -0.1091433
-0.103742324 0.03336452 -0.14544562 -0.19239753 -0.0715901 0.34706035 0.16882683 -0.42166772
-0.14897275 0.06509171 -0.06260347 -0.076516345 0.021941004 0.014907139 0.07744052 0.005959987
0.025382452 -0.1588635 -0.06333751 0.04780757 -0.10629783 0.0022884738 -0.10984939 -0.09153642
0.0019546219 -0.20495841 -0.08930145 -0.00097125565 -0.17456028 -0.30796525 -0.40921074 -0.19285406
-0.033959523 -0.071793996 -0.12381404 0.037934247 0.008866752 0.042441174 -0.086270265 -0.13004522
-0.019966213 -0.034873597 -0.002328285 -0.08133507 -0.047524143 0.07797429 -0.089923546 -0.044372834
-0.19450994 -0.46451414 -0.62253886 -0.38863197 -0.13238662 -0.12272161 -0.042504292 -0.20882873
0.03105227 -0.11886961 -0.022952436 -0.10628032 -0.058984246 -0.081379876 0.014520217 -0.0068524713
-0.010000861 -0.10613197 -0.029768888 -0.033334114 -0.26875332 0.03551247 0.03384475 0.08811819
-0.262496 -0.120455876 -0.09783918 0.0589639 -0.03603973 -0.069730304 -0.05753774 -0.12253276
-0.15230969 -0.054145828 -0.08016896 -0.14864641 0.015414083 -0.114612415 -0.06810046 -0.1389747
-0.08734137 -0.058859758 -0.068772264 -0.01695508 -0.05535503 -0.017409565 -0.07015651 -0.35348603
-0.20497668 -0.012438718 -0.14235547 -0.013560434 0.07602586 -0.10818733 -0.15198007 -0.05185696
-0.041773666 0.013905668 -0.064994514 -0.008559914 -0.05179271 -0.039670065 -0.16000879 -0.03424953
-0.037005074 -0.350647 -0.36427474 -0.47551033 -0.039761942 -0.0974064 -0.004776178 -0.054332726
-0.11231256 -0.117914476 0.08099153 -0.17429578 0.017772203 -0.006202804 -0.0245871 -0.019781057
-0.12290012 -0.09710621 -0.018006373 0.03403008 -0.2535552 -0.1364917 -0.047276612 -0.08584293
00000000: 9f3a b1bd db21 26bc 27f4 b6bc 81e0 5fbc
00000010: 2542 d7bc 2666 99bd d6b6 08bd ea64 603d
00000020: 3a9e 21be 1e38 f13a 49f9 54bd 9b46 eabd
00000030: 6dc4 fbbd 7c7a 683c 17f6 d6bd 1636 94bd
00000040: cc89 5dbd de4d 7f3c 02fb c3bd d462 c2bc
00000050: f5ca 53be 9f5f 76be 18f9 393d 43ac a8be
00000060: e31b 2d3c 8cf2 943d cffd babd 2efe 0cbe
00000070: dfea d8bc 4102 22bd 6bc8 d2bd 988e 3fbd
00000080: e5a2 54be 22f3 24be 97ee 8a3d 98d8 efbd
00000090: 732f d93d fa65 60be 16c3 a9bd ab36 003e
000000a0: 2a11 9d3d 7b60 e23c 633c 74bb 403d ebbd
000000b0: d472 92bc c967 35bd ab01 a8bc f711 e2bc
000000c0: a3e7 f6bd f7b7 25be 9855 e6bc b557 19be
000000d0: 4c25 b03c c4a0 2cbd cfff f9bc 5c33 d3bd
000000e0: 4273 b6bc 88db b3bd 7152 12be ce8a 03be
000000f0: 46fd 9d3d 614e 09be 927b 05be 34a1 ff3c
00000100: d71a adbd b603 af3d 6215 6abd 35cb 8ebc
00000110: a8bb b8be 17ec 1bbd 9393 7dbe ac27 b7be
00000120: 77cd 39be cb01 9d3d b0a4 34be 08d7 66be
00000130: 0a55 c83c 8228 97be 9392 3abe 120a 6bbd
00000140: 4a0b d2be d327 65bd cb49 923d 5459 98be
00000150: 3422 19bf 189b 3fbd 440a 47bc 4662 83be
00000160: d848 4f3d c6c8 b23d 3239 693e f6eb aabd
00000170: cde6 c4bd 1e53 633d fddc a43d 6cd2 6dbc
00000180: 3ded 83be e6e0 cbbd 3a7f 12be f2a7 d2be
00000190: b2aa 05bd 55cb 31be d2c3 2abe bebf babd
000001a0: de27 85be 98eb 35be ae07 b8bc 405f 20be
000001b0: a029 c0be 2b7a 56be 2e7e e3bd 501d a2be
000001c0: 7bd5 b2be 6d72 893d dc13 e1bd b0ba f6bd
000001d0: 1173 4dbd 25d1 60bd f9b6 f43c 8686 dfbd
000001e0: db76 d4bd 3ca9 083d b2ef 14be dc03 45be
000001f0: d59d 92bd e5b1 b13e f1e0 2c3e d5e4 d7be
00000200: 508c 18be cd4e 853d 4036 80bd 9ab4 9cbd
00000210: 9fbd b33c 133d 743c 2399 9e3d ff4b c33b
00000220: dcee cf3c 1dad 22be 19b7 81bd dfd1 433d
00000230: adb2 d9bd 38fa 153b b8f8 e0bd 7277 bbbd
00000240: 1d19 003b 9ee0 51be aee3 b6bd dd9b 7eba
00000250: eebf 32be 9fad 9dbe 1284 d1be 897b 45be
00000260: 2419 0bbd bb08 93bd 3792 fdbd f160 1b3d
00000270: da45 113c ccd6 2d3d 77ae b0bd 932a 05be
00000280: 2f90 a3bc 9ed7 0ebd 2496 18bb 0093 a6bd
00000290: ada8 42bd fcb0 9f3d d629 b8bd 4ac0 35bd
000002a0: 9d2d 47be ccd4 edbe b55e 1fbf c5fa c6be
000002b0: 5c90 07be 7855 fbbd fb18 2ebd 33d7 55be
000002c0: 5561 fe3c e971 f3bd bf06 bcbc 7fa9 d9bd
000002d0: 7799 71bd 7eaa a6bd 34e6 6d3c b28a e0bb
000002e0: a7da 23bc b85b d9bd e2dd f3bc 5a89 08bd
000002f0: 099a 89be 8675 113d cba0 0a3d 4f77 b43d
00000300: e065 86be 92b1 f6bd e85f c8bd 2184 713d
00000310: 659e 13bd c3ce 8ebd b1ac 6bbd 75f2 fabd
00000320: 12f7 1bbe 04c8 5dbd a02f a4bd c436 18be
00000330: 5a8b 7c3c eab9 eabd 4178 8bbd 624f 0ebe
00000340: 08e0 b2bd ee16 71bd 79d8 8cbd 61e5 8abc
00000350: f5bb 62bd 819e 8ebc 37ae 8fbd 1ffc b4be
00000360: 68e5 51be c4cb 4bbc a2c5 11be 952c 5ebc
00000370: 72b3 9b3d 5291 ddbd aaa0 1bbe f767 54bd
00000380: dd1a 2bbd 99d4 633c d81b 85bd e23e 0cbc
00000390: 9824 54bd 147d 22bd 58d9 23be 3c49 0cbd
000003a0: a292 17bd 0188 b3be 3882 babe 1776 f3be
000003b0: 6bdd 22bd 027d c7bd 7c81 9cbb fe8b 5ebd
000003c0: 2104 e6bd 257d f1bd e3de a53d 987a 32be
000003d0: 0397 913c e440 cbbb e36a c9bc e20b a2bc
000003e0: 0fb3 fbbd 9fdf c6bd 1a82 93bc 2063 0b3d
000003f0: fdd1 81be 7bc4 0bbe 1fa5 41bd 6bce afbd

bias f4 [16]
-0.19316395 -0.32128584 -0.10625059 -0.14642134 -0.08640409 -0.17687167 0.30108756 -0.27389693
-0.1574798 -0.047013924 -0.15451646 -0.20374097 -1.0200253 -0.042869803 -0.15917726 -0.11651504
00000000: c5cc 45be 947f a4be e999 d9bd 7aef 15be
00000010: a1f4 b0bd d91d 35be 2628 9a3e 383c 8cbe
00000020: 6242 21be ac91 40bd 9039 1ebe 79a1 50be
00000030: 3090 82bf 3f98 2fbd 5dff 22be 709f eebd

weight f4 [16, 16, 5]
-0.08978397 -0.12284157 0.0061358185 -0.13875856 0.082594916 0.12168399 -0.33986214 -0.34447825
0.25988662 0.03427373 -0.07501365 -0.016598798 -0.085937396 -0.031744845 -0.04794928 0.057213265
-0.09758605 0.07198751 -0.012267948 0.029684369 -0.11446414 -0.03263871 -0.10003798 -0.13771257
-0.031336565 -0.22534567 -0.29369444 -0.26893896 -0.24067205 -0.18924855 0.091396384 0.10185147
0.04647019 0.3557228 -1.0515167 0.02291427 -0.04926889 0.04673697 -0.095872246 0.017975526
0.15448684 0.22964996 0.43176043 0.22019935 0.40651962 -0.0023199508 0.03168433 0.06877048
0.02825465 -0.056802686 -0.02837841 -0.12351315 -0.080901414 0.07504866 -0.047576826 -0.03758026
-0.02570586 0.031414866 -0.051785078 -0.09342118 -0.14099255 -0.0098383725 -0.03430579 0.06458415
-0.77610797 -0.037939426 0.09214021 -0.031591106 -0.009713644 0.04560916 -0.0034066439 -0.07723772
-0.01981041 -0.43536034 -0.10033058 -0.07909104 -0.1069999 -0.058260746 0.02777961 0.0489407
0.055624817 0.025911832 -0.12979141 -0.06299471 0.07544196 0.033322614 0.05587204 0.06419827
-0.064005 -0.10641329 -0.124064095 -0.11262817 -0.113750584 -0.12782882 0.060657963 -0.025826454
0.015349367 -0.043401442 0.05772524 0.03434821 -0.1387575 0.07466347 0.056290284 -0.12533271
0.033796698 -0.13393274 0.0039006737 -0.11343859 -0.13547409 0.010081028 -0.055949513 -0.11026048
-0.06333727 -0.11617756 -0.0028614406 0.00077520317 -0.12091846 -0.06386916 0.0037623267 -0.027705465
-0.07153147 -0.13890116 -0.03812682 0.024956472 -0.033418134 -0.04092392 -0.026785627 0.06799241
-0.07110531 -0.06104522 0.013384551 -0.116757825 -0.014113813 -0.060255814 0.06433715 -0.09054779
0.052178398 0.041229542 -0.12213807 0.025871906 -0.03303579 -0.09441187 -0.0012067858 -0.11692649
-0.03314353 0.14428446 -0.019501325 0.16917314 0.1463148 0.047112487 -0.026795778 -0.018429954
-0.13465014 -0.025365334 -0.07444842 -0.11877768 0.042177767 0.07904494 0.04229001 0.074884854
-0.11370724 0.072255045 -0.13513324 -0.1230773 0.038106535 0.019142166 -0.036934856 -0.05766481
-0.10180982 0.0012016938 0.0780806 0.041352596 -0.034426477 0.0775437 -0.13668512 -0.13447411
-0.07411336 -0.013875693 -0.044645943 0.07268672 0.07701731 0.0520391 -0.13265373 -0.07422603
-0.08668587 0.046507273 -0.12714055 -0.10576785 -0.09116464 -0.04057625 -0.109159164 -0.11004863
0.012145709 -0.11956115 -0.084271304 0.02202267 -0.099900186 0.0656015 -0.069834806 0.061377462
-0.07762304 -0.12524906 -0.04841059 0.032611873 -0.033163555 0.007783644 -0.08059941 -0.0739927
-0.09302029 0.00025939598 0.013862328 0.049672518 0.057517067 -0.12461018 0.04234811 -0.12966266
-0.028813124 -0.1283869 -0.0960879 0.030772457 -0.10982495 -0.096663155 -0.11606467 -0.07366043
-0.10077481 0.15854271 -0.016859138 0.018183183 -0.031577744 0.10875706 -0.009726965 0.031904384
-0.1310153 -0.050672196 -0.045937642 -0.014499426 -0.02753884 -0.058445398 0.074262336 -0.04157554
-0.3566096 -0.52727515 0.52792853 -0.19918011 0.11861286 -0.078982614 0.053884007 0.3865251
0.3014265 0.21540585 -0.49429467 -0.4588091 0.26687434 -0.2710907 -0.15777794 -0.8064376
00000000: a8e0 b7bd 5c94 fbbd fa0e c93b b916 0ebe
00000010: 8627 a93d 7535 f93d 6902 aebe 745f b0be
00000020: dc0f 853e 9c62 0c3d c2a0 99bd 34fa 87bc
00000030: f2ff afbd e206 02bd 7766 44bd 7558 6a3d
00000040: 32db c7bd 306e 933d 81ff 48bc a22c f33c
00000050: 2d6c eabd 2bb0 05bd b6e0 ccbd 8604 0dbe
00000060: c55a 00bd 04c1 66be 1e5f 96be 5eb2 89be
00000070: bc72 76be 5fca 41be 072e bb3d 8197 d03d
00000080: 8757 3e3d 4d21 b63e 1998 86bf b5b6 bb3c
00000090: 2dce 49bd 446f 3f3d ab58 c4bd 6941 933c
000000a0: cc31 1e3e 5c29 6b3e b40f dd3e f07b 613e
000000b0: 5723 d03e 510a 18bb 6ec7 013d 8ad7 8c3d
000000c0: 4c76 e73c efa9 68bd d779 e8bc 76f4 fcbd
000000d0: a4af a5bd 1db3 993d ebdf 42bd c2ed 19bd
000000e0: 1995 d2bc e0ac 003d 971c 54bd 9b53 bfbd
000000f0: 5a60 10be 2031 21bc 3a84 0cbd b244 843d
00000100: 03af 46bf 5f66 1bbd 02b4 bc3d ad65 01bd
00000110: fa25 1fbc acd0 3a3d 0042 5fbb cf2e 9ebd
00000120: 7149 a2bc 8de7 debe 1e7a cdbd 7cfa a1bd
00000130: c322 dbbd d2a2 6ebd 1192 e33c 0b76 483d
00000140: d9d6 633d 0d45 d43c 0ae8 04be 5f03 81bd
00000150: 5081 9a3d 4b7d 083d 15da 643d 627a 833d
00000160: 0e15 83bd 36ef d9bd 5115 febd 99a9 e6bd
00000170: 11f6 e8bd 8fe5 02be 7c74 783d 0092 d3bc
00000180: e97b 7b3c b6c5 31bd 4d71 6c3d b5b0 0c3d
00000190: 7216 0ebe 29e9 983d a490 663d 3857 00be
000001a0: 686e 0a3d aa25 09be 72a2 7f3b 7e52 e8bd
000001b0: b8b9 0abe e52a 253c 512b 65bd 3fd0 e1bd
000001c0: f8b6 81bd 80ee edbd 0287 3bbb 0137 4b3a
000001d0: 19a4 f7bd d6cd 82bd 5e91 763b 92f6 e2bc
000001e0: 177f 92bd 1b3c 0ebe de2a 1cbd 8471 cc3c
000001f0: 74e1 08bd d79f 27bd 886d dbbc 9b3f 8b3d
00000200: a99f 91bd 8d0a 7abd e04a 5b3c ba1e efbd
00000210: 9f3d 67bc cdce 76bd 32c3 833d 1f71 b9bd
00000220: 04b9 553d 4fe0 283d 8623 fabd 52f1 d33c
00000230: 8950 07bd 035b c1bd 032d 9eba 2877 efbd
00000240: 83c1 07bd 4ebf 133e 3ec1 9fbc b93b 2d3e
00000250: 8cd3 153e 06f9 403d d282 dbbc 6afa 96bc
00000260: bae1 09be f6ca cfbc 6a78 98bd b641 f3bd
00000270: 98c2 2c3d 50e2 a13d 4a38 2d3d 3b5d 993d
00000280: 57df e8bd 74fa 933d 5e60 0abe f40f fcbd
00000290: 9915 1c3d 08d0 9c3c 0149 17bd f031 6cbd
000002a0: ab81 d0bd 2782 9d3a b9e8 9f3d 5761 293d
000002b0: c702 0dbd 3bcf 9e3d 2ff7 0bbe 95b3 09be
000002c0: bfc8 97bd e056 63bc aade 36bd c6dc 943d
000002d0: 40bb 9d3d f426 553d 61d6 07be d103 98bd
000002e0: 5d88 b1bd 697e 3e3d 2231 02be d19c d8bd
000002f0: 87b4 babd 4833 26bd d78e dfbd 2d61 e1bd
00000300: ccfe 463c 7adc f4bd 6f96 acbd e368 b43c
00000310: 7898 ccbd 145a 863d 8d05 8fbd ef66 7b3d
00000320: d4f8 9ebd 4a41 00be 2f4a 46bd 0794 053d
00000330: 82d6 07bd f00d ff3b 4e11 a5bd 7c89 97bd
00000340: 6c81 bebd 8aff 8739 d11e 633c 6975 4b3d
00000350: 0497 6b3d 9f33 ffbd 3675 2d3d 4ac6 04be
00000360: 8009 ecbc db77 03be bcc9 c4bd 8516 fc3c
00000370: e7eb e0bd 55f7 c5bd 50b3 edbd 48db 96bd
00000380: 0663 cebd 0559 223e 2d1c 8abc e6f4 943c
00000390: aa57 01bd 05bc de3d d95d 1fbc 2cae 023d
000003a0: e028 06be a68d 4fbd 1c29 3cbd 008f 6dbc
000003b0: 2299 e1bc 7164 6fbd da16 983d 1d4b 2abd
000003c0: 8995 b6be 81fb 06bf 5326 073f dff5 4bbe
000003d0: 4deb f23d a3c1 a1bd 7ab5 5c3d 9ee6 c53e
000003e0: 9354 9a3e 5a93 5c3e 3114 fdbe 07e9 eabe
000003f0: c1a3 883e 66cc 8abe 8a90 21be b272 4ebf

bias f4 [16]
-0.18895654 -0.13316391 -0.17480688 -0.20949769 0.47805724 -0.011636328 -0.6489342 -0.97275805
-0.04304721 0.6005003 -0.12454106 -0.15173917 -0.5538925 -0.74450374 0.0011140527 0.5160674
00000000: d37d 41be 1f5c 08be 9300 33be 9086 56be
00000010: ebc3 f43e 4ca6 3ebc 8d20 26bf ac06 79bf
00000020: 4552 30bd 63ba 193f 620f ffbd 8361 1bbe
00000030: e6cb 0dbf cc97 3ebf 6805 923a fe1c 043f

weight f4 [16, 16, 5]
-0.1923802 -0.37848288 -0.19226578 -0.14112242 -0.15356137 -0.016345695 0.014382934 -0.108834915
-0.06685295 -0.20114367 -0.14058025 -0.10773134 0.06903438 -0.1056172 0.053868085 -0.040586207
-0.2787311 -0.3831983 -0.39705494 -0.31697297 -0.07410186 -0.15576684 -0.040932987 -0.061163355
-0.12514752 -0.10484389 -0.1271616 -0.077786766 -0.027532894 -0.054194845 -0.023749644 -0.07674299
-0.09793638 -0.08661729 -0.15724982 -0.16324247 -0.056999303 -0.038882338 -0.079547316 -0.14644484
-0.005843631 -0.11242131 -0.086927034 -0.06636068 -0.15700464 -0.06059332 -0.1975711 0.06510821
0.06204276 -0.19512367 -0.04280639 0.036074247 0.018303173 -0.08964298 -0.14079225 -0.084933795
-0.03246995 -0.06002396 -0.13863343 0.0029608617 -0.13473119 -0.03972089 -0.10142131 0.020579875
-0.027144197 0.07844145 -0.067841835 -0.13662396 -0.03930245 0.005902307 -0.098036304 -0.112248
-0.46090952 -0.12227111 -0.4592142 0.06340101 -0.021568816 -0.12640135 -0.06871344 -0.20222113
-0.083134614 -0.018151125 -0.13923255 -0.12103231 0.035680715 -0.050393526 -0.026027026 -0.062263712
-0.15903008 -0.012399578 -0.042183552 -0.04416565 -0.14637505 -0.12387523 -0.044110715 -0.06872579
-0.11814083 -0.04469493 -0.27054405 -0.22313394 -0.021588407 0.015285888 -0.06810782 -0.06717301
-0.041096687 -0.004587965 -0.12059826 -0.0051585753 -0.15009362 -0.1093517 0.076515384 -0.022822695
-0.09858116 -0.07663685 0.050309 0.027796257 -0.013715372 -0.018396964 -0.069669545 0.009908565
-0.04029536 0.02713463 0.08288747 -0.011530343 0.040098436 0.014777288 -0.09657915 -0.11896101
0.062697336 0.04505804 -0.0468312 -0.07387097 0.03470093 -0.033582464 -0.109071895 -0.078856036
-0.01966819 -0.04551042 -0.07618094 -0.07941166 0.013310526 -0.019580157 0.1212722 0.0032959217
-0.036976367 -0.01821878 -0.092674635 -0.14396662 -0.05201965 -0.13618629 -0.14930886 -0.13783306
0.01670471 -0.019445732 0.018740999 0.043006945 -0.04839397 -0.05955792 -0.09073932 0.01484189
-0.40314573 -0.8265752 -0.9523088 0.3081618 0.44410422 -0.13548355 -0.0013578396 -0.04965367
-0.05378635 -0.1074306 -0.14168563 -0.12419401 -0.11344278 -0.026549153 0.029079156 -0.0735001
-0.033113953 -0.2560742 -0.004068345 0.5259652 0.16507179 0.0671521 -0.101105936 -0.10755451
-0.50374043 -0.34637633 -0.23193155 -0.22525425 0.13236691 0.44077623 -0.480335 -0.32786176
0.040556327 0.18553194 0.24505131 -0.27883223 0.17190257 -0.6668526 0.33227807 -0.341977
-0.1390973 -0.32058927 0.06862912 0.18060951 0.23236184 0.012982806 -0.024999889 0.070238166
0.12195251 0.3191314 -0.07155922 -0.01435298 -0.1420683 -0.0077630063 -0.06424281 0.022061601
-0.051221713 -0.10764007 0.0011072975 -0.13891634 0.32074112 0.26769 0.32359722 -0.0635606
-0.3092912 -0.17469953 0.36537808 -0.05600388 -0.009792402 -0.014846798 0.10401077 0.14080983
0.16065186 -0.004883876 0.036683716 0.044701874 -0.31789514 -0.121919416 -0.0672283 0.08776344
0.06910387 -0.0006414852 -0.25181383 -0.22106808 -0.18994837 -0.1035363 -0.049603138 -0.009938489
0.025246521 0.052592576 0.0543267 -0.010733114 0.044214915 0.039920624 -0.0899436 -0.40073785
00000000: 51ff 44be 82c8 c1be 52e1 44be 6582 10be
00000010: 313f 1dbe 68e7 85bc 66a6 6b3c d7e4 debd
00000020: 33ea 88bd 9bf8 4dbe 45f4 0fbe 40a2 dcbd
00000030: e661 8d3d d54d d8bd c8a4 5c3d b93d 26bd
00000040: d8b5 8ebe 9132 c4be c94a cbbe 484a a2be
00000050: b7c2 97bd 5881 1fbe 59a9 27bd 6d86 7abd
00000060: ac26 00be 65b8 d6bd a736 02be ab4e 9fbd
00000070: aa8c e1bc 6afb 5dbd 9d8e c2bc 6e2b 9dbd
00000080: de92 c8bd 6864 b1bd 1906 21be 0929 27be
00000090: 1a78 69bd 1643 1fbd b4e9 a2bd a3f5 15be
000000a0: ee7b bfbb 253d e6bd cd06 b2bd 1ce8 87bd
000000b0: d3c5 20be b330 78bd 1450 4abe 7457 853d
000000c0: 8d20 7e3d 80ce 47be c155 2fbd 97c2 133d
000000d0: 89f0 953c bd96 b7bd d82b 10be c5f1 adbd
000000e0: 36ff 04bd afdb 75bd ecf5 0dbe 040b 423b
000000f0: f9f6 09be 5fb2 22bd fab5 cfbd 2097 a83c
00000100: 825d debc e9a5 a03d a9f0 8abd 27e7 0bbe
00000110: 9bfb 20bd 2468 c13b 42c7 c8bd 48e2 e5bd
00000120: 55fc ebbe 4769 fabd 201e ebbe 64d8 813d
00000130: 16b1 b0bc 5b6f 01be a2b9 8cbd 0e13 4fbe
00000140: 7b42 aabd abb1 94bc fa92 0ebe cadf f7bd
00000150: f125 123d 7169 4ebd a136 d5bc 3c08 7fbd
00000160: c8d8 22be 9927 4bbc a9c8 2cbd 0ae7 34bd
00000170: 57e3 15be 4cb2 fdbd 70ad 34bd 1bc0 8cbd
00000180: d2f3 f1bd 0812 37bd c084 8abe 397d 64be
00000190: 2cda b0bc a971 7a3c 1d7c 8bbd 0192 89bd
000001a0: 0055 28bd a456 96bb 38fc f6bd 4409 a9bb
000001b0: 24b2 19be c9f3 dfbd 19b4 9c3d a9f6 babc
000001c0: ebe4 c9bd c8f3 9cbd cf10 4e3d fab4 e33c
000001d0: 71b6 60bc 3bb5 96bc e8ae 8ebd 8957 223c
000001e0: bf0c 25bd 7249 de3c e8c0 a93d c4e9 3cbc
000001f0: 423e 243d 701c 723c 4acb c5bd d4a1 f3bd
00000200: 7667 803d c88e 383d 13d2 3fbd aa49 97bd
00000210: 9022 0e3d c48d 09bd 1661 dfbd 467f a1bd
00000220: 2f1f a1bc 2269 3abd c104 9cbd 95a2 a2bd
00000230: 6414 5a3c 9166 a0bc 8f5d f83d 6400 583b
00000240: 8874 17bd 8d3f 95bc 33cc bdbd fc6b 13be
00000250: 8e12 55bd 6b74 0bbe 6ce4 18be 1c24 0dbe
00000260: 51d8 883c a84c 9fbc b986 993c 0d28 303d
00000270: c138 46bd 01f3 73bd 89d5 b9bd 662b 733c
00000280: 1e69 cebe 6f9a 53bf 82ca 73bf 62c7 9d3e
00000290: a161 e33e 33bc 0abe 89f9 b1ba a661 4bbd
000002a0: 134f 5cbd 9304 dcbd 0a16 11be 6e59 febd
000002b0: b054 e8bd 9c7d d9bc 6937 ee3c 3887 96bd
000002c0: 7fa2 07bd 281c 83be c04f 85bb a8a5 063f
000002d0: 9408 293e 0a87 893d a110 cfbd 8a45 dcbd
000002e0: 22f5 00bf 3d58 b1be 777f 6dbe 0da9 66be
000002f0: 318b 073e 6cad e13e 78ee f5be 7fdd a7be
00000300: 641e 263d 16fc 3d3e bbee 7a3e 19c3 8ebe
00000310: 3a07 303e dab6 2abf 5a20 aa3e 9c17 afbe
00000320: 866f 0ebe 4724 a4be 6d8d 8c3d b3f1 383e
00000330: 43f0 6d3e d6b5 543c 91cc ccbc 07d9 8f3d
00000340: 3dc2 f93d 3165 a33e a48d 92bd c328 6bbc
00000350: 5a7a 11be d160 febb bc91 83bd 88ba b43c
00000360: dccd 51bd 6672 dcbd bd22 913a 1640 0ebe
00000370: 2e38 a43e aa0e 893e 89ae a53e 0f2c 82bd
00000380: 6b5b 9ebe 6fe4 32be d612 bb3e 5364 65bd
00000390: 5070 20bc fc3f 73bc 9903 d53d 7430 103e
000003a0: ec81 243e ec08 a0bb aa41 163d 5019 373d
000003b0: 27c3 a2be e3b0 f9bd feae 89bd 52bd b33d
000003c0: 5486 8d3d 5829 28ba beed 80be ac5f 62be
000003d0: d381 42be d70a d4bd a92c 4bbd 0bd5 22bc
000003e0: cbd1 ce3c 506b 573d ac85 5e3d f1d9 2fbc
000003f0: b31a 353d cf83 233d 5a34 b8bd 832d cdbe

bias f4 [16]
-0.32004878 -0.07049738 0.0041185287 -0.3678119 -0.18965717 -0.06362516 0.3905743 -0.05472561
-0.5790158 -0.20995125 0.1024491 0.7472262 0.2529207 -0.57034665 -0.24446386 -0.73588544
00000000: 6fdd a3be ee60 90bd b9f4 863b d751 bcbe
00000010: 7d35 42be e84d 82bd 5bf9 c73e f627 60bd
00000020: 613a 14bf 76fd 56be d5d0 d13d 374a 3f3f
00000030: d27e 813e 3d02 12bf bc54 7abe fd62 3cbf

weight f4 [64, 112]
-0.025549809 -0.03666055 -0.096204855 0.0008937758 -0.063972965 -0.016656054 -0.0785902 -0.018149737
-0.14047962 -0.0008603132 -0.10072874 -0.015192902 -0.12405382 -0.10287672 -0.07370746 -0.11400134
-0.14217447 -0.14682226 -0.019633582 -0.09320331 -0.14723869 -0.07368916 -0.061805602 -0.13110746
-0.11469828 0.012612444 -0.11966621 0.013981638 -0.07612619 -0.15393779 -0.16096659 -0.098457314
-0.11850003 -0.120810136 0.009559469 -0.06958139 -0.10519545 -0.11481687 -0.12354556 -0.084020145
-0.041650865 -0.02310217 -0.1519442 -0.0086161345 -0.04237611 -0.06898649 -0.018748026 0.0002916044
-0.07422064 -0.13762017 0.0018644168 -0.024670288 -0.055153448 -0.08651005 -0.018539105 -0.14160205
-0.12782879 -0.018811543 -0.13250181 -0.13013604 -0.019933084 -0.013060751 -0.13405989 -0.08730431
-0.014534149 -0.038680743 -0.10000682 -0.012373385 0.032390025 -0.11761194 -0.04986471 -0.046658102
-0.115994886 -0.11015473 -0.08008515 -0.05379405 -0.0017059275 -0.16320005 -0.15526797 -0.0061867028
-0.11603743 -0.004522735 -0.12233917 -0.08737308 -0.0222539 -0.13518666 -0.07725683 0.011104217
-0.0010768138 -0.0061431592 -0.044423364 0.011611049 -0.13773581 -0.097744025 -0.03533237 -0.060101263
-0.080822736 -0.05033634 -0.1640315 -0.06588393 -0.11223662 -0.08561647 -0.06443565 -0.15215029
0.021360375 -0.103636004 -0.05204576 -0.052331194 0.011803947 -0.043498885 0.004956653 -0.100768514
-0.28277743 0.115055725 0.113612756 0.08831744 -0.023914276 0.06148465 -0.011636562 -0.15294959
-0.046396714 -0.13856648 -0.11079218 0.041012894 -0.069420636 -0.11367598 0.30964446 0.6950024
-0.17531681 -0.6088372 0.6414536 -0.2029879 -0.57269466 -0.07632254 -0.014053903 0.024192173
0.12537515 0.292059 0.24813266 0.1992327 -0.071827985 0.08801256 0.98763907 0.114600286
-0.17958376 0.15036418 0.019634562 0.1754823 0.18196051 0.073911436 0.10310392 -0.026172275
0.092976004 0.15094629 0.8253726 0.34998095 -0.0852472 0.106909715 0.62118125 0.64195675
0.66615725 -0.14941305 -0.0070659146 -0.013494792 -0.027381204 -0.1394561 -0.08134153 -0.019402869
0.544036 -0.10410646 -0.8096566 -0.12499365 -0.23713256 0.1483627 0.3071859 -0.5278369
-0.4297917 0.86192715 0.23137444 -0.6901743 -0.1290879 -0.32139507 0.71038747 0.0076216916
1.4591585 0.012180828 -0.17127548 0.6931275 0.74938756 0.20502311 0.17500588 0.4521433
0.09521096 0.10952649 0.20003456 0.49491113 -0.14224054 0.11221218 0.7998884 0.32214475
0.14671853 0.68050075 0.6391863 -0.47001904 0.3109877 -0.54219306 -0.47106174 -0.5872437
-0.5695529 -0.11805716 -0.05816738 0.15682419 0.0886136 0.22295539 0.19975765 0.0021634111
-0.20107956 1.275141 0.28302243 -0.56118464 0.06875747 0.020562999 0.19500728 -0.26822305
-0.10799027 -0.02817346 -0.12103538 0.011325598 -0.08826686 0.027895104 -0.011597634 -0.06005841
-0.15057191 0.032904416 0.09658454 0.06474291 0.08857825 0.0661356 -0.043694492 -0.15823174
-0.15915845 -0.14653325 0.05462394 -0.096360974 -0.14807266 0.046525165 -0.048027765 0.05807535
0.08800562 0.015589758 0.009254164 -0.042531293 -0.12609087 -0.031304337 -0.046879966 0.014952851
00000000: d54d d1bc 5f29 16bd 0d07 c5bd 474c 6a3a
00000010: 4204 83bd 4772 88bc e6f3 a0bd c2ae 94bc
00000020: e4d9 0fbe a486 61ba df4a cebd a6eb 78bc
00000030: ee0f febd 08b1 d2bd f0f3 96bd 8979 e9bd
00000040: 2f96 11be 9358 16be 9bd6 a0bc 61e1 bebd
00000050: bdc5 16be 58ea 96bd df27 7dbd 0941 06be
00000060: efe6 eabd 6da4 4e3c 8f13 f5bd 3d13 653c
00000070: 0ce8 9bbd dea1 1dbe 6dd4 24be fda3 c9bd
00000080: 25b0 f2bd 4e6b f7bd 529f 1c3c b080 8ebd
00000090: b670 d7bd 1b25 ebbd 7405 fdbd c112 acbd
000000a0: 199a 2abd c340 bdbc 4397 1bbe b02a 0dbc
000000b0: 9292 2dbd ca48 8dbd 7695 99bc 7be2 9839
000000c0: fe00 98bd 4dec 0cbe 725f f43a 5819 cabc
000000d0: 95e8 61bd 2e2c b1bd 52df 97bc 2100 11be
000000e0: 8de5 02be aa1a 9abc 8eae 07be 6242 05be
000000f0: b54a a3bc c3fc 55bc ff46 09be 9acc b2bd
00000100: a420 6ebc b36f 1ebd 60d0 ccbd bdb9 4abc
00000110: 67ab 043d 87de f0bd f03e 4cbd 911c 3fbd
00000120: ba8e edbd ce98 e1bd af03 a4bd 2657 5cbd
00000130: 6e99 dfba ea1d 27be 91fe 1ebe d3b9 cabb
00000140: 08a5 edbd 7333 94bb f58c fabd a8f0 b2bd
00000150: d04d b6bc 5f6e 0abe d438 9ebd 76ee 353c
00000160: e023 8dba 8e4c c9bb 46f5 35bd 453c 3e3c
00000170: 9e0a 0dbe 052e c8bd adb8 10bd be2c 76bd
00000180: 6486 a5bd 7a2d 4ebd e0f7 27be 27ee 86bd
00000190: 50dc e5bd b057 afbd d7f6 83bd 49cd 1bbe
000001a0: f4fb ae3c 1d3f d4bd ef2d 55bd 3c59 56bd
000001b0: 5865 413c e32b 32bd 6b6b a23b b95f cebd
000001c0: 34c8 90be 56a2 eb3d cead e83d c6df b43d
000001d0: dfe7 c3bc 54d7 7b3d 47a7 3ebc d19e 1cbe
000001e0: 7b0a 3ebd 5fe4 0dbe 03e7 e2bd 23fd 273d
000001f0: 682c 8ebd f4ce e8bd b889 9e3e adeb 313f
00000200: 4086 33be c1dc 1bbf 4e36 243f 0fdc 4fbe
00000210: 1e9c 12bf fe4e 9cbd 5742 66bc aa2e c63c
00000220: 5862 003e c288 953e 7d16 7e3e a803 4c3e
00000230: 8d1a 93bd ee3f b43d ead5 7c3f 8eb3 ea3d
00000240: cee4 37be 11f9 193e a9d8 a03c a2b1 333e
00000250: db53 3a3e e15e 973d 2628 d33d 3d67 d6bc
00000260: 346a be3d aa91 1a3e 9e4b 533f b430 b33e
00000270: 1696 aebd 7bf3 da3d bc05 1f3f 4757 243f
00000280: 4889 2a3f bcff 18be 3089 e7bb 4319 5dbc
00000290: 8c4e e0bc 94cd 0ebe 6396 a6bd c4f2 9ebc
000002a0: f145 0b3f c535 d5bd a845 4fbf acfc ffbd
000002b0: e1d2 72be 64ec 173e 7847 9d3e 5220 07bf
000002c0: a80d dcbe 42a7 5c3f 6ced 6c3e 43af 30bf
000002d0: 9e2f 04be e58d a4be f4db 353f 62bf f93b
000002e0: b5c5 ba3f 1892 473c d762 2fbe ce70 313f
000002f0: ddd7 3f3f 94f1 513e be34 333e 547f e73e
00000300: f7fd c23d 6d4f e03d dcd5 4c3e fe64 fd3e
00000310: 81a7 11be 80cf e53d 7cc5 4c3f 28f0 a43e
00000320: 623d 163e 4c35 2e3f b7a1 233f 56a6 f0be
00000330: c839 9f3e 2acd 0abf 012f f1be 9a55 16bf
00000340: 38ce 11bf f4c7 f1bd eb40 6ebd 8596 203e
00000350: 0c7b b53d 6b4e 643e 458d 4c3e 04c8 0d3b
00000360: cde7 4dbe d237 a33f 51e8 903e cca9 0fbf
00000370: b7d0 8c3d bc73 a83c fdaf 473e 8854 89be
00000380: 012a ddbd 07cc e6bc 66e1 f7bd 008f 393c
00000390: 41c5 b4bd 4684 e43c 0104 3ebc cfff 75bd
000003a0: 862f 1abe c8c6 063d 1ece c53d ee97 843d
000003b0: 8368 b53d 1a72 873d fff8 32bd 8007 22be
000003c0: 6ffa 22be d00c 16be 5abd 5f3d e758 c5bd
000003d0: 5ca0 17be 2c91 3e3d c3b8 44bd 6be0 6d3d
000003e0: 4a3c b43d 2f6c 7f3c c79e 173c 4b35 2ebd
000003f0: f71d 01be fa38 00bd 3505 40bd cefc 743c

bias f4 [64]
0.0040290738 0.58180237 -0.14769812 -0.08263679 -0.14968668 -0.011363307 -0.11080086 -0.2606513
0.07388402 -0.051065903 1.044471 -0.03210065 -0.50153416 -0.15431087 -0.2926016 0.9410406
-0.22870162 0.7043944 -0.04490862 -0.08170221 -0.06746731 -0.07412035 -0.097390264 -0.32772285
-0.048983857 -0.100711346 -0.020707015 -0.008552643 -0.07990727 -0.09229446 -0.24581628 -0.015638042
0.9363793 -0.03601286 -0.10502182 -0.21348332 1.0426352 -0.10401779 -0.0905199 -0.06353549
-0.07601255 0.058169246 -0.021130495 -0.15900277 -0.039010175 -0.011126397 -0.2495102 -0.04790758
0.022026172 -0.40927556 -0.12978502 -0.13247982 -0.019607201 -0.11499497 0.0062021813 -0.11864281
-0.31515202 -0.41338748 -0.10434591 -0.046081167 1.8302932 -0.03535891 -0.20055175 -0.14293987
00000000: 5206 843b 00f1 143f 2d3e 17be 7a3d a9bd
00000010: 7747 19be 2a2d 3abc 90eb e2bd 1674 85be
00000020: 8150 973d 7b2a 51bd 3ab1 853f f97b 03bd
00000030: 8b64 00bf ab03 1ebe e0cf 95be 09e8 703f
00000040: c230 6abe 3153 343f 1af2 37bd 7d53 a7bd
00000050: 4d2c 8abd 69cc 97bd 8c74 c7bd 4acb a7be
00000060: 4ca3 48bd c041 cebd c2a1 a9bc 6220 0cbc
00000070: 6ca6 a3bd e104 bdbd 43b7 7bbe 5a1b 80bc
00000080: 8eb6 6f3f 3882 13bd ae15 d7bd 5f9b 5abe
00000090: 1275 853f 4707 d5bd 7f62 b9bd e51e 82bd
000000a0: 78ac 9bbd e042 6e3d dc19 adbc 9fd1 22be
000000b0: 22c9 1fbd 7e4b 36bc 9a7f 7fbe bd3a 44bd
000000c0: 3b70 b43c 918c d1be 5de6 04be caa8 07be
000000d0: 489f a0bc 7c82 ebbd ab3b cb3b 00fb f2bd
000000e0: 9b5b a1be 86a7 d3be 4fb3 d5bd 9bbf 3cbd
000000f0: 0c47 ea3f 81d4 10bd 705d 4dbe d45e 12be

weight f4 [32, 64]
-0.027712703 -0.41382286 -0.061291397 0.09578033 0.038383603 -0.03264782 0.06427646 -0.044601247
-0.07744482 -0.03828004 -0.32056832 0.0151005685 -0.10609007 -0.08413978 0.065372646 -0.31065157
0.027853936 -0.20987263 0.056970015 0.07217865 0.029997244 -0.1660861 0.1228918 -0.08480084
-0.099940985 0.04908532 0.0770008 0.02485086 -0.03161587 -0.048566774 -0.022050306 0.07542279
-0.27115086 0.071600586 0.008255079 0.08697985 -0.2740829 -0.012459561 -0.053264797 0.027240992
0.0075187236 0.05267644 0.014408886 0.01261422 -0.1063271 0.06981939 -0.05114697 -0.09133187
-0.090464845 0.008323833 -0.104059815 -0.07491872 -0.051289305 -0.055505976 -0.007817358 0.05431564
-0.052844048 0.07256311 -0.109764785 0.038777307 -0.57291746 0.057815745 0.027756587 -0.109957695
-0.102824 -0.13539357 -0.08162762 -0.02499491 -0.005796351 0.02041701 -0.010959014 0.03398417
-0.09583236 0.02728794 -0.01696547 0.00500156 -0.06727396 0.11292039 -0.08276576 -0.3136585
-0.07987984 -0.032174945 0.019703984 0.04451877 -0.0413599 -0.23547679 -0.026330873 0.04566116
-0.08620434 0.0019703656 -0.045399584 -0.18412125 0.0024353222 -0.10847001 -0.03361398 0.07432966
0.004640386 -0.07644367 -0.10214597 -0.022691485 -0.17821583 -0.13172738 -0.1244113 0.013166734
-0.11941761 -0.0888557 0.110899925 -0.12447482 -0.052976128 0.102371335 -0.121755704 0.0030759242
-0.16358393 -0.0806589 -0.04849808 -0.108499415 -0.106791504 -0.13691041 -0.13456652 -0.012986004
0.03430924 -0.031071916 -0.0948838 -0.0011781007 -0.18916309 -0.108415715 -0.057625584 0.025240028
0.060079847 -0.0865635 -0.089994684 0.018321052 -0.13707942 0.079996124 -0.12655073 -0.07131981
0.011038912 0.096981466 -0.062427778 0.042864397 -0.12573472 0.09173415 0.049408913 -0.106337234
-0.062015623 0.02031792 -0.08414678 -0.079032026 0.009848192 -0.016995937 -0.07556702 0.066720195
-0.08513284 0.072439976 -0.08075072 -0.102706306 0.070584804 -0.12744385 0.030803364 0.06776424
-0.10396301 0.08048499 0.15278116 0.026409997 0.02765585 -0.037438985 -0.09841638 0.053551182
0.0075855427 -0.12239958 -0.049398366 -0.16182514 0.040562127 0.08610691 0.016582869 -0.009148571
-0.118060276 0.029195834 -0.14218147 -0.036583357 -0.052089814 -0.05587643 0.09331651 -0.07742379
0.037103802 -0.07833366 -0.0102794 -0.10811504 0.010222793 -0.055484157 0.06545411 -0.054483525
-0.008806482 -5.0343847 -0.017583687 -0.05377526 -0.06201593 0.09845992 0.005507965 -0.078950755
0.08492545 0.0034699817 -0.6906175 -0.026929494 -0.08542414 0.04385271 0.015132949 0.6400786
0.07906324 -1.2479645 0.13020618 0.054121047 0.06654381 0.007815217 -0.054702874 0.06318421
0.095842525 -0.0711802 0.039887942 0.00709115 -0.10919014 -0.11155304 -0.07858178 -0.0067900554
-0.4052825 -0.0013307239 0.017364677 0.21374112 0.035530593 -0.05791492 -0.14129478 0.079968296
-0.0989883 0.06501957 -0.050325435 -0.046772122 -0.079496935 0.010710314 -0.11672439 0.08891095
-0.21484005 -0.15933947 -0.017713755 -0.14261003 0.056345426 -0.06940371 0.013930316 0.037467487
-0.023969572 -0.03790961 0.080707744 -0.034931906 -0.77902347 -0.04181327 0.010142553 -0.03358192
00000000: c005 e3bc 97e0 d3be b00c 7bbd 7a28 c43d
00000010: 2038 1d3d b8b9 05bd 60a3 833d ccaf 36bd
00000020: 649b 9ebd 88cb 1cbd 8821 a4be 6068 773c
00000030: c045 d9bd 7a51 acbd 18e2 853d b90d 9fbe
00000040: f02d e43c dae8 56be 6459 693d 66d2 933d
00000050: c8bc f53c 7912 2abe b2ae fb3d 10ac adbd
00000060: dcad ccbd b00d 493d 98b2 9d3d 0894 cb3c
00000070: a47f 01bd f4ed 46bd d8a2 b4bc 4477 9a3d
00000080: 49d4 8abe 54a3 923d 5040 073c 7e22 b23d
00000090: 9854 8cbe 3023 4cbc 302c 5abd 8028 df3c
000000a0: a05f f63b 40c3 573d 4013 6c3c e0ab 4e3c
000000b0: 06c2 d9bd 78fd 8e3d 7c7f 51bd 340c bbbd
000000c0: a245 b9bd b060 083c 501d d5bd fc6e 99bd
000000d0: bc14 52bd 3c5a 63bd 6014 00bc 147a 5e3d
000000e0: 0073 58bd f89b 943d 5ccc e0bd f4d4 1e3d
000000f0: b8aa 12bf 34d0 6c3d c861 e33c 8031 e1bd
00000100: 6495 d2bd 9da4 0abe 622c a7bd 20c2 ccbc
00000110: 51ef bdbb 9341 a73c 708d 33bc fc32 0b3d
00000120: c243 c4bd f58a df3c 2bfb 8abc 20e4 a33b
00000130: eec6 89bd ce42 e73d 1881 a9bd d997 a0be
00000140: 0b98 a3bd e0c9 03bd 406a a13c 5059 363d
00000150: 0069 29bd d420 71be d8b3 d7bc 3207 3b3d
00000160: e78b b0bd 4021 013b eaf4 39bd 488a 3cbe
00000170: ed99 1f3b 8625 debd d0ae 09bd 263a 983d
00000180: 610e 983b 808e 9cbd e831 d1bd 7ee3 b9bc
00000190: 367e 36be 8be3 06be 5acb febd 49b9 573c
000001a0: 3891 f4bd faf9 b5bd 801f e33d a8ec febd
000001b0: 7ffd 58bd 10a8 d13d 0e5b f9bd 7295 493b
000001c0: 8c82 27be 7e30 a5bd eca5 46bd f134 debd
000001d0: 81b5 dabd 3e32 0cbe cecb 09be 40c3 54bc
000001e0: d887 0c3d 888a febc 7052 c2bd 806a 9aba
000001f0: f8b3 41be 0f09 debd ce08 6cbd 2dc4 ce3c
00000200: 4916 763d 3448 b1bd 224f b8bd 0816 963c
00000210: 8c5e 0cbe 02d5 a33d 8496 01be 1f10 92bd
00000220: 8edc 343c 389e c63d 45b4 7fbd 9492 2f3d
00000230: 9ac0 00be 1ddf bb3d 0061 4a3d 56c7 d9bd
00000240: 1804 7ebd c471 a63c 2655 acbd 8bdb a1bd
00000250: 505a 213c 103b 8bbc e2c2 9abd 99a4 883d
00000260: 205a aebd 695b 943d a260 a5bd af57 d2bd
00000270: c48e 903d a480 02be 5657 fc3c fac7 8a3d
00000280: 8fea d4bd 50d5 a43d aa72 1c3e c759 d83c
00000290: 858e e23c 9f59 19bd 878e c9bd 7c58 5b3d
000002a0: 2590 f83b a2ac fabd f155 4abd 7db5 25be
000002b0: 7924 263d d258 b03d ccd8 873c e3e3 15bc
000002c0: 96c9 f1bd 1a2c ef3c 0598 11be 6ed8 15bd
000002d0: 215c 55bd afde 64bd ba1c bf3d 5d90 9ebd
000002e0: 28fa 173d 666d a0bd ee6a 28bc 6b6b ddbd
000002f0: 807d 273c 5b43 63bd ce0c 863d 1e2a 5fbd
00000300: 1049 10bc ae19 a1c0 aa0b 90bc 7243 5cbd
00000310: 6a04 7ebd 5ba5 c93d 297c b43b efb0 a1bd
00000320: 65ed ad3d a268 633b 4fcc 30bf 3e9b dcbc
00000330: daf2 aebd e69e 333d 30f0 773c 31dc 233f
00000340: e8eb a13d 4dbd 9fbf c554 053e 08ae 5d3d
00000350: 1f48 883d 650b 003c 1f10 60bd b966 813d
00000360: 1649 c43d edc6 91bd 8a61 233d e15c e83b
00000370: 159f dfbd ec75 e4bd 7cef a0bd 1d7f debb
00000380: 3081 cfbe af6b aeba 5e40 8e3c f4de 5a3e
00000390: 8788 113d 3238 6dbd 94af 10be 6bc6 a33d
000003a0: 61ba cabd fb28 853d 0b22 4ebd 2094 3fbd
000003b0: 4acf a2bd 507a 2f3c 320d efbd f216 b63d
000003c0: 08ff 5bbe e329 23be 701c 91bc 5d08 12be
000003d0: 76ca 663d 8823 8ebd fb3b 643c 8277 193d
000003e0: d65b c4bc 1b47 1bbd 1a4a a53d c214 0fbd
000003f0: 156e 47bf 6444 2bbd f32c 263c 328d 09bd

bias f4 [32]
-0.6100183 -0.27010712 -0.10955245 0.3588624 -0.45467082 -0.049616326 -0.47051898 -0.122093104
-0.09045463 -0.01712632 -0.44062042 0.2886603 -0.35251802 0.92316836 -0.07247917 1.055519
-0.2017078 -1.2721093 -0.26195467 -0.9129652 -0.050779592 -0.21714407 0.6298178 0.44900525
-0.214858 -0.13079335 -0.5867683 -0.28102425 -0.39982605 -0.008580206 -0.6800821 -0.5914828
00000000: 292a 1cbf 7b4b 8abe 095d e0bd d0bc b73e
00000010: 9dca e8be 7d3a 4bbd dde7 f0be f30b fabd
00000020: 4740 b9bd 7f4c 8cbc 0099 e1be 48cb 933e
00000030: 3e7d b4be c354 6c3f f66f 94bd 3f1b 873f
00000040: 7d8c 4ebe 7ad4 a2bf ec1e 86be 16b8 69bf
00000050: 43fe 4fbd 045b 5ebe bd3b 213f 04e4 e53e
00000060: bc03 5cbe b1ee 05be 7336 16bf 69e2 8fbe
00000070: 00b6 ccbe fe93 0cbc dc19 2ebf 6b6b 17bf

weight f4 [22, 32]
0.03288778 -0.009696959 -0.17889881 0.2566226 -0.22281045 -0.08180426 -0.40296227 0.0134823
-0.0016995061 0.28543034 0.12345528 0.46319526 -0.5001878 -0.10432653 -0.07539214 -0.5814812
0.16216443 -0.5045711 0.41857058 0.53299725 0.12823229 -1.0530893 -0.020912344 0.25319457
-0.13403101 0.013732151 -0.024081362 0.17898116 0.41947567 0.46536395 0.09378479 0.36488652
0.07916096 -0.26871744 0.12656818 -0.08237937 0.14406654 0.05930131 0.14297137 -0.12014224
-0.14481536 0.06360208 -0.36279538 -0.009139039 -0.059299607 -0.2727603 0.08409535 0.5534089
0.090560816 0.14858977 0.3365425 -0.40039015 -0.075643696 0.023322456 -0.04970528 -0.023731375
0.11817294 -0.04127407 -0.09110562 0.0010861245 0.16608523 0.089188755 -0.045049466 -0.06672927
-0.21957691 -0.11133196 0.12798141 -0.6031311 0.6867721 -0.07041268 0.10815135 -0.019196462
0.011545597 -0.1066719 -0.31903666 0.0025187104 -0.33193126 0.28784704 0.20974644 0.34790984
0.050109625 -0.22601335 -0.27217853 0.20987228 -0.07017424 0.066412486 -0.06896143 0.13090391
0.045547795 0.0067836307 0.21362057 -0.15552928 0.13270913 0.48919317 -0.0022738364 -0.15387027
-0.54230696 0.1496803 -0.11770818 -0.6084192 0.17782879 -0.006747007 0.36827284 0.082611494
0.06609648 0.25704676 0.30125678 0.089451484 0.4080652 -0.4958617 -0.13864791 -0.62869567
0.0030042606 0.2734759 -0.07118831 -0.16324903 -0.021840313 0.01979763 0.10893864 -0.123496816
-0.102364436 0.1825477 -0.25447273 0.16405821 -0.21865505 -0.16153848 0.14418371 0.38636097
0.072139606 0.013561062 -0.022512412 0.02835548 0.31695202 0.1642924 -0.25947517 0.019866865
-0.11666796 0.14280462 0.2604855 0.701047 -0.3847016 -0.048696727 0.000818288 0.17037852
-0.1095668 0.90450394 0.10244508 -0.38879275 -0.17176008 0.41163954 0.36612344 -0.56652933
-0.033746973 0.013006097 -0.88392335 0.39127848 -0.14145337 0.15410051 -0.10533717 0.723373
0.08837203 -0.21116935 0.11578047 0.56366944 0.21520707 -0.020129163 0.3551558 -0.13854018
-0.08023826 0.025912521 -0.2915315 -0.0015592356 -0.02465264 0.004507503 -0.11265099 -0.15082794
-0.0813525 -0.71838254 -0.049567487 0.36029136 0.08749066 0.041759476 -0.038025394 -0.028072797
-0.039655052 -0.017579678 0.0042526727 -0.01553432 -0.46871245 0.05460786 0.02678106 0.3292691
0.22694439 -0.22833216 0.029058205 -0.11680644 0.3360159 -0.06349703 -0.40658036 -0.006813746
0.11635914 0.009040254 0.11393876 0.009905423 -0.07937398 -0.2503407 -0.024688577 0.27476054
-0.17558543 -0.63132006 0.07033735 -0.36204624 -0.07309948 -0.03313126 -0.035516303 0.005699479
-0.062997565 -0.10320031 -0.03371126 0.05901665 -0.025116006 -5.4613774e-05 -0.35815877 -0.26977855
0.2231325 -0.0044854516 0.029123088 0.13827556 0.056001518 -0.10455045 -0.25010055 -0.09935124
0.14802983 -0.8776247 -0.18815447 0.52004325 -0.50323266 -0.07554416 -0.0023091834 0.1749893
0.18959612 -0.48748067 0.28844085 -0.6024527 0.117113575 -0.07983146 -0.3042933 -0.08811736
0.10883622 0.13646498 0.30805963 0.120629534 -0.23983862 -0.064195916 0.104215786 0.29655114
00000000: 56b5 063d fedf 1ebc 4031 37be 0a64 833e
00000010: 6c28 64be fe88 a7bd 1251 cebe dde4 5c3c
00000020: f6c1 deba ed23 923e 1fd6 fc3d ee27 ed3e
00000030: 4f0c 00bf 26a9 d5bd 3267 9abd f4db 14bf
00000040: 6f0e 263e 922b 01bf e24e d63e 8272 083f
00000050: 534f 033e a1cb 86bf 5d50 abbc b8a2 813e
00000060: 6d3f 09be d1fc 603c 4746 c5bc d646 373e
00000070: 84c5 d63e 2f44 ee3e 3d12 c03d 68d2 ba3e
00000080: 241f a23d 5595 89be 179b 013e 84b6 a8bd
00000090: 2e86 133e eee5 723d 1667 123e 220d f6bd
000000a0: 7a4a 14be cf41 823d 51c0 b9be e8bb 15bc
000000b0: 25e4 72bd 3da7 8bbe 2f3a ac3d 35ac 0d3f
000000c0: f377 b93d eb27 183e 4c4f ac3e f0ff ccbe
000000d0: 15eb 9abd bc0e bf3c c497 4bbd 4d68 c2bc
000000e0: a804 f23d 000f 29bd 9595 babd 4a5c 8e3a
000000f0: 3f12 2a3e 98a8 b63d ca85 38bd 5ba9 88bd
00000100: c5d8 60be 0302 e4bd 8f0d 033e cd66 1abf
00000110: 4cd0 2f3f 8634 90bd 747e dd3d e641 9dbc
00000120: be29 3d3c cc76 dabd c658 a3be f310 253b
00000130: e5f2 a9be b060 933e c5c7 563e 3d21 b23e
00000140: c03f 4d3d 0b70 67be fc5a 8bbe c2e8 563e
00000150: 83b7 8fbd 4503 883d a63b 8dbd ad0b 063e
00000160: 5390 3a3d 3849 de3b 5abf 5a3e 1143 1fbe
00000170: e7e4 073e 8777 fa3e a504 15bb 2b90 1dbe
00000180: a1d4 0abf cb45 193e fc10 f1bd 5cc1 1bbf
00000190: c018 363e ff15 ddbb 428e bc3e 3730 a93d
000001a0: 975d 873d a29b 833e 543e 9a3e 5732 b73d
000001b0: eced d03e 96e1 fdbe b8f9 0dbe 33f2 20bf
000001c0: 21e3 443b 0805 8c3e 2dcb 91bd c12a 27be
000001d0: 75ea b2bc a42e a23c 391b df3d e6eb fcbd
000001e0: 72a4 d1bd c9ed 3a3e 404a 82be e0fe 273e
000001f0: 1ce7 5fbe 586a 25be e5a4 133e 1bd1 c53e
00000200: eebd 933d 372f 5e3c f36b b8bc c049 e83c
00000210: 8947 a23e 443c 283e eed9 84be d6bf a23c
00000220: 9def eebd 603b 123e 5b5e 853e d177 333f
00000230: 9cf7 c4be 3876 47bd 6182 563a b577 2e3e
00000240: 8f64 e0bd 928d 673f bace d13d d80f c7be
00000250: e0e1 2fbe 6bc2 d23e 8874 bb3e 1108 11bf
00000260: 443a 0abd 8617 553c cd48 62bf a755 c83e
00000270: 27d9 10be 86cc 1d3e 04bb d7bd f92e 393f
00000280: 65fc b43d c73c 58be 501e ed3d a44c 103f
00000290: 3e5f 5c3e eae5 a4bc fbd6 b53e 7add 0dbe
000002a0: f553 a4bd 7f46 d43c 9e43 95be 445f ccba
000002b0: 55f4 c9bc adb3 933b 90b5 e6bd a472 1abe
000002c0: 249c a6bd ebe7 37bf 4707 4bbd 1c78 b83e
000002d0: 4e2e b33d fc0b 2b3d 84c0 1bbd ecf8 e5bc
000002e0: 566d 22bd 4203 90bc 015a 8b3b a983 7ebc
000002f0: 14fb efbe 7eac 5f3d f463 db3c f695 a83e
00000300: 1c64 683e e8cf 69be 790b ee3c 3738 efbd
00000310: 470a ac3e bb0a 82bd 4d2b d0be d845 dfbb
00000320: b34d ee3d 931d 143c b958 e93d 5b4a 223c
00000330: d38e a2bd a82c 80be b33f cabc 6aad 8c3e
00000340: abcc 33be 319e 21bf 070d 903d 205e b9be
00000350: 2eb5 95bd a5b4 07bd 8b79 11bd b2c2 ba3b
00000360: de04 81bd af5a d3bd d114 0abd 71bb 713d
00000370: 15c0 cdbc 1811 65b8 9660 b7be 6a20 8abe
00000380: d97c 643e b2fa 92bb 8b93 ee3c 1c98 0d3e
00000390: d961 653d 8c1e d6bd 2e0d 80be aa78 cbbd
000003a0: 2295 173e 03ac 60bf 91ab 40be 8e21 053f
000003b0: dbd3 00bf e6b6 9abd ab55 17bb 6530 333e
000003c0: 7c25 423e 1197 f9be 85ae 933e 573a 1abf
000003d0: 3ed9 ef3d ad7e a3bd 55cc 9bbe e076 b4bd
000003e0: 86e5 de3d 7abd 0b3e feb9 9d3e 9e0c f73d
000003f0: 4198 75be 2679 83bd 166f d53d 8dd5 973e

bias f4 [22]
0.06312195 -0.039630286 -0.8305778 -0.019803235 -1.0480646 -0.06638786 0.023565885 1.3918982
0.017629439 -0.054624867 0.474568 1.459703 0.13290922 -0.96651226 -0.103619345 -0.2355835
0.044513807 -0.13846688 0.69794023 0.61914676 -0.7124307 -1.1461794
00000000: 1546 813d 5e53 22bd bfa0 54bf 653a a2bc
00000010: fb26 86bf 5cf6 87bd 3e0d c13c b829 b23f
00000020: 9d6b 903c 53be 5fbd 94fa f23e 8cd7 ba3f
00000030: 5b19 083e 596d 77bf 6136 d4bd cd3c 71be
00000040: 1c54 363d 43ca 0dbe 36ac 323f 6780 1e3f
00000050: dc61 36bf 02b6 92bf

weight f4 [32, 22]
0.33193123 0.09895552 0.7789226 -0.4793617 -1.3582119 0.04295398 0.050296117 0.25699627
0.0049464363 -0.00036272904 -0.21693343 -1.2257968 -0.55403167 -1.598323 0.16555491 0.5256153
-0.06860187 0.19476305 -0.26499793 0.092400186 0.060312208 1.5613782 -0.02788493 0.19080345
-1.3448347 0.33749044 0.7056595 0.13737409 0.1034439 1.128891 -0.080279045 0.060878936
-0.32874295 -0.24352627 -0.15829638 0.16963436 0.26442406 1.0862385 0.12032227 0.12583597
0.36264893 0.678623 -0.694061 0.4099251 -0.04399977 0.086675555 -0.46182775 -0.12579945
0.33864725 -0.14115912 0.5752325 0.5788656 0.11873251 0.23551643 -0.3256839 -0.2124569
0.57678413 0.48732948 0.13013025 -0.5235626 -0.02866485 0.16252081 0.0210637 0.64738846
-0.11693756 -0.081251614 0.25067866 1.0214361 -0.41427353 0.32891202 0.8079902 -0.12051238
-0.52933544 1.1912521 0.5349661 -0.12502171 0.3080363 0.19595647 1.3305647 1.4125526
0.25801152 -0.3278723 -0.7920999 -0.4154454 0.1652858 0.5413743 -0.5069439 0.0047111944
0.38047495 0.077653974 0.4208205 -0.11239445 0.04394183 -0.12885773 -0.06827684 0.56864995
0.085462704 -0.16360305 0.39931804 -0.3690795 0.032745194 0.39455947 -0.021831388 -0.1810703
-0.16887556 0.18797156 0.021205489 -0.038869496 -0.21549302 -1.1696075 1.2224723 -0.064426154
-0.5300654 0.11490829 0.6248586 0.00019998831 -0.023136288 1.8996304 -0.05920418 0.0906684
-0.12715149 0.27313772 -0.20859763 -1.5335406 0.04194989 0.7937695 0.039631233 0.0058379844
-0.22623518 0.039664205 -0.35704592 -0.0477123 -0.23618859 0.15427876 -0.78735167 0.2842354
1.0641568 0.35680082 -0.2325656 0.30934912 -0.3767936 0.28820777 0.50700176 -0.14813516
1.5807186 0.9948503 0.72407943 -0.63207287 -1.5227726 0.010733103 -0.14101434 0.2378999
-0.8127887 0.5055004 -0.3177312 -0.063538514 0.85181946 -0.44975337 -0.1013164 0.048834354
0.09124768 -0.3169286 0.00052049995 0.09718459 -0.1315388 -0.32572827 -0.5079124 -0.06967667
-0.04925923 1.7234504 0.022685893 -0.043002002 -0.025958821 -0.04785547 1.5170393 -0.27429917
0.23359689 0.042222697 0.035137333 0.008605668 -0.6662722 0.064650014 0.076269485 -1.6878916
-0.04448859 0.004980955 0.009155798 0.26790935 -0.28166398 -1.8595122 0.0911791 1.0944483
0.043376785 0.06577011 0.86490566 -0.26313463 0.049429663 -0.008377843 0.16278988 0.16867527
-0.042578608 0.12087155 0.66478443 -0.27990592 0.2250056 0.38519093 -0.336975 -0.041472908
-0.2138642 0.124258995 0.69888407 0.90748185 0.4694527 -0.027115919 0.38481176 -0.4769963
-0.1299378 0.22341193 -0.6814425 0.073844455 -0.41733074 0.12084084 -0.9371444 0.2687552
0.4616678 -0.19573334 0.7392304 0.76680255 0.092515655 0.40109113 -0.013938311 0.4962239
1.4223015 0.89264953 0.52444327 -0.79167116 -0.5172856 -0.40959027 -0.2480708 -0.18357949
-0.4306201 -0.2431931 -0.16868019 0.13781497 -0.9944816 0.452283 0.5520628 -0.3107328
-0.12406982 0.3801936 0.038160536 0.19381943 -0.330169 0.0974153 0.5613963 1.1684307
00000000: e4f2 a93e 31a9 ca3d 7967 473f e66e f5be
00000010: e3d9 adbf 83f0 2f3d 4d03 4e3d 0495 833e
00000020: b715 a23b ab2c beb9 cc23 5ebe e9e6 9cbf
00000030: 05d5 0dbf d995 ccbf 3a87 293e b98e 063f
00000040: 237f 8cbd f76f 473e cfad 87be 4f3c bd3d
00000050: ef09 773d 3edb c73f f06e e4bc fb61 433e
00000060: 8b23 acbf 8ccb ac3e 1aa6 343f cbab 0c3e
00000070: 65da d33d 807f 903f 5769 a4bd 315c 793d
00000080: ff50 a8be f35e 79be 7218 22be a1b4 2d3e
00000090: 9762 873e dd09 8b3f 866b f63d 25db 003e
000000a0: 1fad b93e 3dba 2d3f fbad 31bf b4e1 d13e
000000b0: 1a39 34bd f482 b13d b074 ecbe 92d1 00be
000000c0: 2c63 ad3e 048c 10be 7042 133f 8930 143f
000000d0: 082a f33d 382b 713e 0ac0 a6be 4d8e 59be
000000e0: 20a8 133f 4083 f93e dd40 053e 3308 06bf
000000f0: 8cd2 eabc db6b 263e c88d ac3c 40bb 253f
00000100: f67c efbd 3f67 a6bd f458 803e 6bbe 823f
00000110: a91b d4be 2867 a83e 72d8 4e3f 32cf f6bd
00000120: 8782 07bf f37a 983f 8af3 083f b105 00be
00000130: efb6 9d3e d0a8 483e f24f aa3f 86ce b43f
00000140: 161a 843e e1de a7be 0fc7 4abf 42b5 d4be
00000150: ae40 293e 8297 0a3f 13c7 01bf 5d60 9a3b
00000160: 9dcd c23e 0c09 9f3d c975 d73e 102f e6bd
00000170: 59fc 333d 48f3 03be bad4 8bbd 0b93 113f
00000180: 1207 af3d 8f87 27be 6a73 cc3e fdf7 bcbe
00000190: d31f 063d b303 ca3e bdd7 b2bc 7e6a 39be
000001a0: b7ed 2cbe 9e7b 403e 22b7 ad3c 9f35 1fbd
000001b0: 34aa 5cbe b3b5 95bf f979 9c3f dcf1 83bd
000001c0: 5eb2 07bf 0a55 eb3d bcf6 1f3f f4b3 5139
000001d0: 5088 bdbc 1727 f33f 1580 72bd 5bb0 b93d
000001e0: 0034 02be b5d8 8b3e 9e9a 55be 0f4b c4bf
000001f0: a6d3 2b3d 7a34 4b3f 5c54 223d 904c bf3b
00000200: 32aa 67be ef76 223d b9ce b6be f96d 43bd
00000210: 6cdb 71be 40fb 1d3e e18f 49bf 4d87 913e
00000220: 4a36 883f 99ae b63e ad25 6ebe 0263 9e3e
00000230: 17eb c0be f88f 933e deca 013f beb0 17be
00000240: fd54 ca3f 82ae 7e3f 455d 393f 87cf 21bf
00000250: 36ea c2bf e6d9 2f3c 1066 10be 089c 733e
00000260: ec12 50bf 7968 013f aaad a2be 7b20 82bd
00000270: d710 5a3f 1346 e6be f97e cfbd 8806 483d
00000280: 10e0 ba3d 7744 a2be 2972 083a b708 c73d
00000290: 1bb2 06be dbc5 a6be 8c06 02bf a4b2 8ebd
000002a0: 0cc4 49bd 069a dc3f c4d7 b93c de22 30bd
000002b0: 98a7 d4bc 1904 44bd 582e c23f f170 8cbe
000002c0: 0634 6f3e b5f1 2c3d 2aec 0f3d cafe 0c3c
000002d0: d190 2abf 3a67 843d 2d33 9c3d d50c d8bf
000002e0: ab39 36bd 4737 a33b 3302 163c 6a2b 893e
000002f0: 4336 90be 7f04 eebf 1cbc ba3d e216 8c3f
00000300: dbab 313d 7bb2 863d 756a 5d3f 95b9 86be
00000310: c276 4a3d 3843 09bc 64b2 263e 36b9 2c3e
00000320: e866 2ebd 818b f73d 502f 2a3f d44f 8fbe
00000330: de67 663e bf37 c53e fd87 acbe 7fdf 29bd
00000340: 38ff 5abe 807b fe3d 11ea 323f bb50 683f
00000350: 1b5c f03e 3422 debc 0c06 c53e dc38 f4be
00000360: 6a0e 05be 19c6 643e 0473 2ebf c33b 973d
00000370: 60ac d5be 677b f73d b2e8 6fbf 489a 893e
00000380: b95f ec3e 526e 48be 343e 3d3f 2c4d 443f
00000390: d978 bd3d d15b cd3e 835d 64bc 0f11 fe3e
000003a0: fa0d b63f ae84 643f ea41 063f f6aa 4abf
000003b0: d46c 04bf d1b5 d1be 4606 7ebe 43fc 3bbe
000003c0: 3d7a dcbe 9d07 79be 80ba 2cbe 5e1f 0d3e
000003d0: 5996 7ebf a391 e73e fd53 0d3f 5f18 9fbe
000003e0: 5118 febd bca8 c23e 394e 1c3d 9a78 463e
000003f0: e90b a9be ac81 c73d abb7 0f3f 238f 953f
