MultiModal/24loss14.370328024029732.pth (torch, 525158 bytes, 41 tensors)

weight f4 [16, 1, 4]
000000 f0 86 43 c1 71 da f6 c0 d4 6b 65 c0 ce 3c a6 bf
       -12.220444 -7.714165 -3.5847063 -1.2987306
000010 62 65 51 bf de f8 15 c0 bd 21 12 bc a0 bb 96 bf
       -0.8179532 -2.3433146 -0.008919177 -1.1776009
000020 d7 d7 a1 bd 1b 0c 46 3c 8d 65 49 bd a7 57 bc bb
       -0.07902496 0.012087847 -0.049169112 -0.0057477537
000030 85 fa 48 c1 bc b1 8f c1 cf 54 92 c0 3c ab b1 be
       -12.561162 -17.961784 -4.5728526 -0.34700954
000040 06 b6 9e be 06 6a 46 bd 5f d4 6a bc dc 88 8f bd
       -0.30998248 -0.048440956 -0.01433286 -0.07008526
000050 32 f2 0f bf 16 13 d2 be cb 69 d8 bd f7 05 a2 be
       -0.56228936 -0.41030186 -0.105670534 -0.31645176
000060 de 56 9a 3d 93 1b 3d 3d a3 23 30 3d bc cd 92 3d
       0.075361 0.046168875 0.043002736 0.07168147
000070 cc 00 68 be 22 4e ba bd f8 4b f8 bd 4c c5 2b 3c
       -0.22656554 -0.09096934 -0.12123865 0.010484051
000080 71 ef 19 bf 4c d3 6f 3e 07 99 8b bf eb 69 69 be
       -0.60130984 0.23420447 -1.0906075 -0.22794311
000090 bf 1c 4e bf 62 6b b6 bd 1c 6c 02 bf fc e9 5e 3b
       -0.80512613 -0.089072004 -0.5094621 0.0034013977
0000a0 ee df ba bd a4 f3 1e be 97 19 09 bb a3 ea 92 c0
       -0.091247424 -0.15522629 -0.0020919794 -4.591142
0000b0 1f 0a 84 3e 2f ad 18 bf 14 13 13 3f 52 d8 87 be
       0.25788972 -0.5963926 0.57450986 -0.26532227
0000c0 82 84 cd c0 12 9a 25 3d 26 5a b1 bf d5 02 84 be
       -6.4224253 0.040430136 -1.3855636 -0.2578341
0000d0 bc 56 53 be 06 ad 1b bd d5 74 da be b6 d4 61 be
       -0.20638555 -0.038006805 -0.4266726 -0.22053799
0000e0 85 7a aa bf 9a c2 98 bf ad 6d 5d bf bd 61 e2 c1
       -1.331864 -1.1934388 -0.86495477 -28.297724
0000f0 a9 72 1a bf 8f a0 5a bc 00 56 48 be 34 71 eb be
       -0.6033121 -0.013343944 -0.19564056 -0.45984805

bias f4 [16]
000000 04 4d 6b 3e 40 2f d5 bd a0 8f fb 3e c6 33 aa bb
       0.22978598 -0.10409403 0.49133015 -0.00519416
000010 1a 28 74 bd be c5 c8 bb c7 ea 3d be c3 2a 29 bf
       -0.059608556 -0.0061270883 -0.18546592 -0.66080874
000020 2d 9d dc bd 03 da b0 3e 94 17 93 bc 7e fb 02 3e
       -0.107721664 0.3454133 -0.017955579 0.12791249
000030 4e cc a2 3e fb ea 44 bf 82 87 d6 3d 90 d6 e8 bd
       0.31796497 -0.7692105 0.10475065 -0.113690495

weight f4 [16, 16, 4]
000000 7c f5 c3 bd f7 69 9c 3d ef 56 09 3d 17 65 c2 bc
       -0.09568307 0.07637399 0.033530172 -0.023729844
000010 9e f9 b4 bd a2 b0 35 3d 1c af 8d bd 0f 17 82 be
       -0.08836673 0.044357903 -0.06918165 -0.25408217
000020 b5 e0 13 be 50 30 0a 3d 6d 0b c0 bd 83 c3 94 be
       -0.14441188 0.03373748 -0.09377179 -0.29055414
000030 41 22 d6 bd ad ff c9 bd e2 31 d9 bc c4 d3 a3 bd
       -0.10455752 -0.098632194 -0.026513044 -0.079993755
000040 66 da 57 bd 10 26 0a be 8f fd 4f bc 42 38 88 bd
       -0.052698515 -0.13491082 -0.01269473 -0.06651355
000050 85 24 d4 bd 83 9f 99 bc a8 0d 55 3c e0 db 48 bc
       -0.10358528 -0.018752819 0.013003744 -0.012259454
000060 be 35 b0 bd 94 ee 8e 3d 35 1f aa bd b7 50 36 bc
       -0.086040005 0.06979099 -0.083067335 -0.011127642
000070 7c 81 45 3d c5 b4 23 be 0a 86 28 3c ef 51 8f bd
       0.04821919 -0.15986927 0.010285864 -0.069980495
000080 ac 09 8f bd f9 ee 89 bd 7e cf 71 bd 04 e4 84 be
       -0.06984267 -0.067350335 -0.05903577 -0.25955212
000090 e2 b3 2a bd ec 11 52 bc 2d 48 c6 3c f9 d1 04 be
       -0.041675456 -0.012821656 0.024204338 -0.12970723
0000a0 f9 d9 2e 3b fa 2d ab bd 1d b4 11 be e5 14 44 be
       0.0026680215 -0.08358379 -0.14228864 -0.19148596
0000b0 8c 77 93 bd aa 33 0c be b4 58 bf bd 43 85 a2 be
       -0.07200536 -0.13691583 -0.09343091 -0.31742296
0000c0 3b 2c 1b be ec 96 c2 3d 48 a9 bc bd 80 a3 4f be
       -0.15153591 0.09501442 -0.09211975 -0.20277214
0000d0 be 39 98 3b 85 50 fe 3c dc c6 e3 bc b8 c1 10 be
       0.0046455553 0.031044254 -0.027804784 -0.14136398
0000e0 05 76 cf bd 4f e6 34 bd c4 ca 93 bd 63 78 df bd
       -0.10129932 -0.044164952 -0.07216409 -0.10911634
0000f0 43 e1 85 bd 63 b0 be 3c f5 9c 04 3c 7a 67 95 3d
       -0.06537106 0.023277467 0.008094062 0.07295127
000100 3e ce c5 3d 57 ea 62 bd 50 d1 fc be 12 fa 61 bf
       0.09658478 -0.055399265 -0.49378443 -0.882722
000110 d7 28 96 3d ed a9 27 bd d3 98 a0 bd e2 85 68 be
       0.07332008 -0.04093354 -0.07841649 -0.22707322
000120 84 2a b8 bd c5 31 c2 bc 4d 39 89 be dd 8c 56 be
       -0.08992484 -0.023705373 -0.2680153 -0.20952173
000130 0b ed 8f bd 6d 79 23 be 1e 51 45 be c6 46 0f be
       -0.07027634 -0.15964289 -0.19269225 -0.13991842
000140 12 51 0e 3d 34 a7 08 3d 6d db 82 bc 9d 07 79 bd
       0.034745283 0.033362582 -0.015973771 -0.060798276
000150 40 d3 09 be d4 59 a5 bd 52 8e 1d bd e9 47 78 3d
       -0.13459492 -0.08073774 -0.038465805 0.060615454
000160 45 6b ab bd 3e 8c 48 be 5c a3 e9 bd e1 ff 29 bd
       -0.083700694 -0.19584748 -0.114081115 -0.04150379
000170 3e 8c f1 bb 43 b4 7c 3c 5c 3c c7 bd 7d 23 21 3d
       -0.0073714545 0.015423837 -0.097283095 0.039340485
000180 01 dd c1 bd 59 e4 71 be 66 25 76 be 26 1b 3a be
       -0.09465981 -0.23622264 -0.24037704 -0.18174419
000190 d5 d9 04 bd 50 80 89 3d b9 7c f8 bd a0 fa fe bd
       -0.032434303 0.06713927 -0.12133164 -0.12450147
0001a0 86 70 3b be 4e 68 1d 3e f9 f0 33 be d5 89 a1 ba
       -0.18304643 0.1537182 -0.17572393 -0.0012324402
0001b0 de ce f0 bd b6 8e 3e be e0 2a 0d be 6c 90 9c bb
       -0.11758207 -0.18609127 -0.13785887 -0.0047779586
0001c0 c3 47 b7 3d a6 9e 59 3d ba f5 1c 3d 8d 12 94 3d
       0.08949234 0.053129815 0.03832028 0.07230101
0001d0 a8 d6 83 3d 83 1f bf 3d f0 f5 cf 3d 0a be 3d 3c
       0.06437427 0.09332182 0.10154331 0.011580953
0001e0 15 2b 2b 3b 4d 0a 4e be 71 96 c7 bd 34 d5 3f bd
       0.0026118208 -0.20121117 -0.09745491 -0.046834186
0001f0 d4 79 d2 bd 80 9b b5 bb 58 9d 1e be e4 92 9f bd
       -0.10277143 -0.0055422187 -0.1548971 -0.07791689
000200 7f 28 4c be 3f 77 cf be 45 55 b4 be 8c e9 c8 be
       -0.19937323 -0.40520665 -0.35221305 -0.39240682
000210 bf 4c ed bd 62 d9 c5 bd 13 e8 67 be a2 c3 1c be
       -0.11586904 -0.09660603 -0.22647123 -0.15309003
000220 cd b0 82 be da 9c 92 3d b0 f9 ca bd 54 2d 94 be
       -0.25525513 0.07158823 -0.09910905 -0.28940833
000230 6a 0b c2 bd 41 ea ed 3c c4 a6 b9 bd 4f 05 34 bc
       -0.09474833 0.029042365 -0.09065011 -0.010987594
000240 f4 f7 7c bd e2 52 0c be 63 8f 06 be 59 a1 50 bd
       -0.061759904 -0.13703492 -0.13140635 -0.050935123
000250 18 b5 be bd aa d6 5a 3d 3e 5a f0 bc a0 53 16 be
       -0.09311885 0.053427376 -0.029339906 -0.14680338
000260 e1 4f b6 bd 79 df 49 3c 33 d0 e4 bd 2f f3 17 be
       -0.089019544 0.012321346 -0.11172523 -0.14838861
000270 60 46 ae bc a5 19 f4 bd ae e7 af bc 64 99 84 3d
       -0.021273792 -0.11918954 -0.021472778 0.064745694
000280 a8 23 db bd 80 6c 5a bd 50 04 2e be fa a6 33 be
       -0.1070016 -0.05332613 -0.16993833 -0.17544165
000290 ed 7b e3 bb 66 cb 77 3d a6 59 f3 bc 15 d0 65 bd
       -0.0069422633 0.06049671 -0.029705834 -0.056106646
0002a0 5e 22 bd be a8 68 4f be dc 8a 69 3d ed 62 79 be
       -0.36940283 -0.20254767 0.057017192 -0.24354143
0002b0 90 ff fb bd a0 30 09 be b1 a0 07 be 09 f4 be 3c
       -0.12304604 -0.13397455 -0.13244893 0.023309724
0002c0 7b a5 02 be ab 89 ee bc 25 a5 fd bd bc 74 57 be
       -0.12758438 -0.02911838 -0.123850144 -0.21040624
0002d0 e4 23 94 be b9 5f 03 be 0c f4 f1 3c e1 e0 bb 3c
       -0.28933632 -0.12829484 0.029535316 0.022934379
0002e0 d7 40 92 3e a3 c9 8f 3c 57 b3 a4 ba f4 10 6c be
       0.28565094 0.017552203 -0.0012565654 -0.23053342
0002f0 a6 65 38 bc 46 7f 58 3d 35 6d 1b be 46 bf 8b bd
       -0.011254704 0.052855752 -0.15178378 -0.06823592
000300 c5 6e 1f 3c 1c 52 22 3e ef 63 ca 3c 45 a9 20 be
       0.009730999 0.15851635 0.024705855 -0.15689571
000310 e5 4d a4 bd 51 00 55 be 0f 9e 07 be 42 f0 15 be
       -0.0802267 -0.20800902 -0.13243888 -0.14642432
000320 46 71 4d be ed 1b 14 be d4 13 97 3d 70 b7 25 be
       -0.20062742 -0.14463778 0.07376829 -0.16183257
000330 c0 ba 2b be bf 59 a0 bd f6 3e 3f be 0a a7 7c bc
       -0.16770458 -0.07829618 -0.18676361 -0.015420685
000340 8d e6 c5 3d f4 0c b9 bd 06 76 56 bc c8 4b 40 bd
       0.09663115 -0.09035674 -0.013089662 -0.04694727
000350 cb 47 52 bb 11 87 2f be b3 91 3a be 52 46 56 3d
       -0.003208625 -0.17141367 -0.18219642 0.052313156
000360 24 ad 16 bc 9e fd e9 bd 4d 09 1e bd c8 b3 5a bb
       -0.009196553 -0.11425327 -0.03858309 -0.0033371318
000370 0c 0e e5 bd ff b5 4f bd 14 53 11 be 23 db 26 be
       -0.1118432 -0.050710674 -0.14191848 -0.16294532
000380 e3 9d 9d bd 78 92 37 be 56 97 17 bb e3 d5 c4 3a
       -0.0769613 -0.17926967 -0.0023130975 0.0015017356
000390 2b c0 5d bd 83 e7 b2 bc cb ad 9f bd 03 b7 c8 bb
       -0.054138344 -0.021838909 -0.0779682 -0.0061253323
0003a0 cc 14 fc bd 82 b4 da bd be 80 5e bd 00 78 31 ba
       -0.12308654 -0.106789604 -0.054321997 -0.00067698956
0003b0 99 a1 b3 bd b4 0e fe bd dc 8b 4c bd 98 af c1 bd
       -0.08771057 -0.12405148 -0.049938068 -0.0945732
0003c0 de 2c 00 be 1e 5d 22 bd b3 ea 4f 3d c0 a7 38 be
       -0.12517115 -0.039639585 0.050760936 -0.18032742
0003d0 29 ff 45 3b 89 51 06 be 3b e5 ca bc 26 e9 0c be
       0.0030211902 -0.1311704 -0.024767509 -0.13760814
0003e0 ad 7a 14 be eb b2 2a 3c 1b 03 b9 bc ec 0a 85 bd
       -0.14499922 0.010418634 -0.022584489 -0.06496224
0003f0 5c 3e 73 bd a2 51 da 3c 9c e4 38 be 00 67 ff bd
       -0.059385642 0.026650254 -0.18055958 -0.124708176

bias f4 [16]
000000 78 5c 16 be a1 2e b4 be 4a 58 cb bd 6d 8a bd bd
       -0.14683712 -0.35191825 -0.09928949 -0.09254918
000010 77 19 67 3d 23 ac 02 bc 81 46 d0 bd 56 5a ff bb
       0.05642077 -0.007975611 -0.101696976 -0.0077927513
000020 ed bc d8 3d b6 52 ce bc e6 dc 27 bd 05 ed 48 3f
       0.1058291 -0.025185924 -0.04098215 0.78486663
000030 11 a5 e5 bd d6 e7 2b be cf 7c a3 be 39 be fa be
       -0.112131245 -0.16787657 -0.3193116 -0.48973253

weight f4 [16, 16, 5]
000000 80 a6 ff bd ab 56 94 bd a2 3d d0 bd 9c d3 a6 bd
       -0.12482929 -0.07243093 -0.101680055 -0.0814583
000010 a7 23 76 3d b7 5a 35 bd 5f cd 7a bc 5d 28 61 3c
       0.060092594 -0.044275966 -0.015307753 0.0137425335
000020 8c 6a ac bd 99 0c 19 be bb 56 d9 bb da 78 b6 bc
       -0.0841876 -0.14946212 -0.0066326535 -0.022274423
000030 ec dd ec bc 87 9b 5a bd 65 2a 0f be 45 28 6f bc
       -0.028914414 -0.05337098 -0.13981016 -0.014597003
000040 8a b1 1c 3e ee e4 a5 bd 0e fb bd 3a 2c 24 8a 3d
       0.15302101 -0.081003055 0.0014494376 0.067451805
000050 f8 83 da bf ff dd 8b bf 4e 9b 4d bf 94 8f 9e 3d
       -1.7071524 -1.0927123 -0.803151 0.07742229
000060 d2 0e e3 bd 0c d0 86 bf 1d bb 1b 3f b8 4d 0f bf
       -0.11086811 -1.0532241 0.6083239 -0.55977964
000070 a9 bb 72 3e 96 70 52 be e4 64 6e 3d 56 33 c2 bd
       0.23704399 -0.2055076 0.058201686 -0.09482448
000080 f0 b8 b0 bd 35 03 ff bc 82 16 8d 3c e8 53 57 be
       -0.08629024 -0.031129459 0.017222647 -0.21028101
000090 bb cc 79 bf 31 ec 50 bf 0c e4 97 bf 64 f1 02 bf
       -0.9757802 -0.816104 -1.1866469 -0.5114958
0000a0 d9 ec 96 be 43 79 19 bf 0e 95 cc bd c4 dc 69 bd
       -0.29477575 -0.59950656 -0.099893674 -0.057095304
0000b0 57 7f 12 be 92 6d 4f 3c d2 50 2a bd a2 18 9d bc
       -0.14306389 0.012660401 -0.041580983 -0.019176785
0000c0 c5 b4 96 bc c6 08 28 3e ef a5 08 3c 99 4f a8 3c
       -0.018396745 0.16409597 0.008340343 0.020545768
0000d0 c9 4d 2c be 82 ca 64 3d de 0d fa 3c 36 88 47 bf
       -0.16826548 0.05585719 0.03052419 -0.77942216
0000e0 aa 6e 8b bf 0f cc 50 3f bf 1f ad bf 64 eb 7d be
       -1.0893147 0.8156137 -1.3525313 -0.24796826
0000f0 f2 33 10 be b7 92 6c 3d c0 6d fe 3c a1 78 93 3b
       -0.14082316 0.057757106 0.031058192 0.004500464
000100 b7 6d 07 bd 76 dc 74 3d 3f 88 9e 3d c2 2b 07 3d
       -0.033063617 0.05978056 0.07740831 0.033000715
000110 7b 47 13 3e d8 68 ab 3d 79 3e 44 bd f1 84 09 be
       0.14382736 0.08369607 -0.04791114 -0.1342962
000120 c1 8f d9 bd e0 d1 2a 3d 9c 42 f0 3c 12 36 89 3e
       -0.10623122 0.04170406 0.029328637 0.26799065
000130 a9 e0 00 3e e3 ec 64 3e cd 95 84 3e da 1f 29 3e
       0.12585701 0.2235599 0.2589554 0.16516057
000140 6a 69 80 3b 29 a5 d5 bd c8 e1 30 bd e9 df 00 be
       0.0039188163 -0.104318924 -0.04318407 -0.12585415
000150 43 e5 2e be 7c 0d 14 be 20 87 2d bd 13 d4 90 bc
       -0.17079644 -0.14458269 -0.042365193 -0.01767925
000160 d0 81 b2 bd 5d 9b 5e bd 14 81 3c be 89 8a db bd
       -0.08716166 -0.054347385 -0.18408614 -0.10719783
000170 3f e2 19 be 90 c2 0e bc 21 ad fc bd 5d b7 0c be
       -0.15027712 -0.0087133795 -0.12337709 -0.13741823
000180 76 cc 85 bd 56 a5 e3 bd 46 22 06 be 64 eb b7 bc
       -0.065331385 -0.1111552 -0.13099012 -0.02245111
000190 1e 77 b1 bd 2e 58 95 be 0f 57 86 be ce d7 be be
       -0.08665298 -0.29168838 -0.26238295 -0.3727402
0001a0 f4 d8 9c be 35 91 9c bd 0d 36 ee be 73 c5 b7 be
       -0.30634272 -0.076448835 -0.46525612 -0.3589283
0001b0 22 8c 8a 3d 44 6e 36 bd 9f 8f a2 bd 2e 34 26 3c
       0.067650095 -0.04453875 -0.0793755 0.010144277
0001c0 5c d0 66 3d f7 d3 21 3d b7 bf 21 3d 03 7b af bd
       0.05635105 0.039508786 0.039489474 -0.085683845
0001d0 87 52 db be 83 74 bd be f7 28 f1 be 5a c2 2a be
       -0.428364 -0.37002954 -0.47101566 -0.16675702
0001e0 7c d7 25 be 81 d0 a0 be fe 7a 2c bd 37 05 a5 be
       -0.16195482 -0.31409076 -0.042109482 -0.3223054
0001f0 da 77 0b be 1a 57 33 bd 4b 76 09 bb 90 1c ba 3c
       -0.13619938 -0.04378424 -0.002097505 0.022718698
000200 5c 06 38 3d d2 7f f1 bc 8b 64 02 3d 93 e0 19 bd
       0.04492794 -0.029479895 0.031834166 -0.037567686
000210 5a 01 3d 3d 3f ff 3c bd 9c 56 2f 3d e7 85 85 be
       0.046143867 -0.04614186 0.042807207 -0.26078722
000220 33 62 f9 bd 72 54 c3 bc 93 f5 ef 3c 03 c3 70 bc
       -0.12176933 -0.023843978 0.029291904 -0.014694932
000230 3f 7c 1c bd 19 60 e2 bd d4 cf 31 bd 9a 89 91 bc
       -0.038204428 -0.110534854 -0.04341109 -0.017765809
000240 3e 4e 1e be 88 a5 b3 3a ac 87 d8 3c 12 ed 94 bd
       -0.15459535 0.0013705948 0.02643188 -0.0727178
000250 70 20 14 3c f5 23 12 be 3e fc ef 3c 16 fb f2 39
       0.009040937 -0.14271529 0.029295083 0.0004634491
000260 65 56 2e be 08 6b 74 3c a4 8b ae bd 2a 31 95 bd
       -0.17025144 0.014918096 -0.08522728 -0.07284768
000270 80 c4 ce 3d f7 47 a4 ba 5b 20 5f 3c c3 ea db bd
       0.10096073 -0.0012533654 0.013618554 -0.107381366
000280 09 a4 df bd 74 ac 9f bd 3b b4 0a be 8f 58 1c be
       -0.10919959 -0.07796565 -0.13545315 -0.15268157
000290 0c 16 ef bc 0a 91 84 bd c7 ee bc 3b 68 ac d1 bd
       -0.029185317 -0.064729765 0.005765769 -0.10237962
0002a0 dd 4e 12 bd b6 74 a5 bd 6f a0 2b 3b d9 6e 0a bd
       -0.03571974 -0.080789015 0.0026188155 -0.03379712
0002b0 0e 42 45 3d f7 1d 2a be 78 fd a5 bc aa 7f 1b 3d
       0.048158698 -0.16612993 -0.020262465 0.037963547
0002c0 b6 f0 ac bd c4 b8 22 be 8f 84 12 be 47 d8 3e 3d
       -0.084443495 -0.15890795 -0.1430838 0.046592977
0002d0 82 85 40 bd f4 26 2d be 07 f0 d9 be ae 64 01 bf
       -0.047002323 -0.1690939 -0.4256594 -0.5054425
0002e0 a4 15 01 bf d5 9f 68 bd e6 1e 5e 3d 9e e1 95 3d
       -0.50423646 -0.056793053 0.054228686 0.07318424
0002f0 10 ec 15 bd 76 04 d2 bd a3 3d 85 3d c1 0f 58 3d
       -0.03660208 -0.10254757 0.06505897 0.0527494
000300 fe 7c 79 3d d3 af da 3d 99 72 c7 bb e9 db 28 be
       0.060910217 0.10678067 -0.006086659 -0.16490139
000310 35 37 24 bd 99 51 b6 be 5f cb a3 be 02 cc 92 bd
       -0.040091712 -0.3560913 -0.31991097 -0.07167818
000320 f4 bd 84 bd 33 2c 55 be cc 8e fa bb f9 99 81 be
       -0.06481543 -0.20817642 -0.0076464172 -0.25312784
000330 0e 30 b6 be 70 33 0e be 30 d2 db bd 12 ae 52 bd
       -0.35583538 -0.1388681 -0.107334495 -0.051435538
000340 4c ce aa 3d 43 70 0a 3e 47 7f 4c 3d 19 cc 50 bd
       0.08340129 0.13519387 0.04992607 -0.050975893
000350 9a 12 4c 3c b1 15 88 bd 3c ae be 3c 92 3b 2e be
       0.012455607 -0.06644762 0.02327644 -0.17014912
000360 4c 3f 24 bd 0c 64 83 3d 26 2f f5 bd 04 56 1a be
       -0.040099427 0.06415567 -0.119718835 -0.15071875
000370 90 dc 55 bc 96 80 1b bd 5e 53 e3 bc b9 b1 0e bd
       -0.0130530745 -0.037964426 -0.027749714 -0.03483746
000380 af 44 bc bd 44 de 07 be 14 75 2d 3e 0f 66 f9 bd
       -0.09192788 -0.13268381 0.16939193 -0.12177669
000390 a6 e5 16 be e3 35 69 bd 7c 7f 45 3d bc 25 9c bd
       -0.14736041 -0.056936156 0.04821728 -0.07624385
0003a0 76 8c 32 bc 82 14 c9 3c ae a2 a3 bd 31 f6 b8 bb
       -0.010897746 0.024545912 -0.07990013 -0.0056445827
0003b0 14 f0 a6 bd 07 53 11 bc 8c 42 93 bd 18 48 7a bd
       -0.0815126 -0.008869893 -0.07190427 -0.06110391
0003c0 c4 bd 03 bd 0d 01 b4 3d af bf b1 3d ff e1 13 bd
       -0.032163396 0.08789263 0.08679139 -0.0361042
0003d0 db 19 f8 bc de 58 1a 3d 58 69 15 3d 5f a3 9a bd
       -0.030285766 0.037682407 0.036477417 -0.07550692
0003e0 a3 64 9b bd e3 4c 73 3c a2 66 53 bd 92 4c c4 3c
       -0.07587554 0.014849874 -0.05161155 0.023962293
0003f0 81 56 b9 bd ff 81 6f bd 45 f9 c3 bd dc 09 95 bc
       -0.090497024 -0.058473583 -0.09569029 -0.018193178

bias f4 [16]
000000 59 c0 12 3e 14 82 cb be 73 64 14 bf 55 77 78 be
       0.14331187 -0.3974768 -0.57965773 -0.24264272
000010 c7 99 51 bd 52 80 b4 bc e7 c1 25 be 4c c0 3f bf
       -0.051172044 -0.022033844 -0.16187249 -0.74902797
000020 f2 6f bf 3e 32 25 8c 3e 00 da 04 3d 79 46 bd be
       0.37390095 0.27372128 0.032434464 -0.3696783
000030 3e 3e 69 bf 43 a0 57 be bc 6b f7 3e 16 3d b4 3c
       -0.911106 -0.21057229 0.48324382 0.022001784

weight f4 [16, 16, 5]
000000 66 25 26 bf 8f b7 5c 3f c5 c8 c0 be 42 fe 6f be
       -0.64900815 0.8621759 -0.37653175 -0.23436835
000010 dc bd b8 3d 1d ae 9c 3d 62 ee 5e bb cf 91 c9 3e
       0.09020588 0.07650397 -0.00340166 0.39369056
000020 44 fc 1c be f1 48 fa bc c1 2b e8 bd e9 93 5f bd
       -0.15330607 -0.03055236 -0.113364704 -0.054584417
000030 f1 45 34 3e 46 40 91 3b b2 c2 84 3c 5a 39 59 be
       0.17604806 0.004432711 0.01620612 -0.21213284
000040 ff dd a0 3e e8 2f 83 3c fb f0 21 3c 2d f5 84 bd
       0.3141937 0.016014054 0.009884114 -0.06492076
000050 d8 2e cf be b5 9e 4f 3e 2e 61 97 3f 66 01 35 be
       -0.40465426 0.20275386 1.1826532 -0.17676315
000060 74 bc 99 be bc 4c 46 be de 53 07 bf 4b ba 15 3e
       -0.3002659 -0.1936521 -0.52862346 0.14621846
000070 0a 8e de 3e 43 6b 73 3d 7a e6 8d 3c 57 21 8e 3d
       0.43467742 0.059428465 0.017321814 0.06939953
000080 ae 24 07 bd c0 a7 35 3e ca ed a9 3d 7d 50 85 3d
       -0.032993965 0.17739773 0.08297308 0.065094925
000090 6b a7 2b 3c 53 ad 87 3d d7 6a 1f 3d 68 c0 3c bd
       0.010476927 0.06624856 0.03892025 -0.04608193
0000a0 37 57 b1 3e 35 30 01 bf 87 06 1b c0 51 3f eb 3d
       0.34636852 -0.50464183 -2.4222734 0.11486686
0000b0 62 e8 c6 be 2c b4 df bd 03 37 84 3e 4f 05 5a 3e
       -0.3884917 -0.10923037 0.2582322 0.21291088
0000c0 54 a6 93 3c 7b 47 2d 3d 3d b3 29 be e0 09 64 3c
       0.018023647 0.042304497 -0.1657228 0.01391837
0000d0 0b a0 1d 3e 71 27 4d bc 26 ca ca bd e5 85 f6 be
       0.15393083 -0.012521611 -0.09901838 -0.48149028
0000e0 02 48 9e 3c 12 ea b5 be 59 8e 83 be 46 c7 6c 3e
       0.019321445 -0.35530144 -0.2569454 0.23122892
0000f0 36 b2 4c be e6 eb 5b 3e aa a8 94 3e a8 4f f0 3e
       -0.19989857 0.21476707 0.2903493 0.46935773
000100 9c 85 1f bf a4 08 f7 bd 2c c6 cb 3c c3 0a a5 3c
       -0.62313247 -0.12062195 0.02487477 0.020146733
000110 df 19 0b be 39 cf 9d 3c 9a ac 96 bd e8 a6 53 3d
       -0.13584088 0.01926385 -0.0735714 0.051672846
000120 2e 91 5c bd 42 88 4e 3b 67 1a a2 3d 26 89 2a bf
       -0.05384939 0.0031514321 0.07915192 -0.6661552
000130 bf 84 39 bd 77 be 0f 3f c2 e2 55 3d 38 51 a7 be
       -0.045292612 0.5615 0.052218206 -0.32679152
000140 95 d0 82 3e 61 37 af 3e b6 77 9c bf f4 7f 65 bf
       0.2554976 0.34221938 -1.2224033 -0.89648366
000150 9c 70 14 bf bc 04 1a bd a0 84 28 bd 59 aa 22 be
       -0.5798433 -0.03760217 -0.041142106 -0.15885295
000160 87 2e 28 3c 08 d2 8f 3d 35 24 c9 3e fe c4 5d bd
       0.010264999 0.07022482 0.39285436 -0.054142945
000170 48 0b a6 3b c0 f9 ee 3d 24 c1 0b 3d a7 65 a4 be
       0.005067263 0.1166873 0.03411974 -0.32108805
000180 ab 61 7e 3e a3 c9 4c be af b3 dc be c2 3b 8d be
       0.24841945 -0.19998793 -0.43105838 -0.27584654
000190 9d 1b 9a be 54 00 aa be f6 50 d3 3e 93 0f 64 be
       -0.30099192 -0.33203375 0.41272706 -0.22271566
0001a0 3e 55 58 3e 5d 3f 6c be 5c 83 8a 3d a6 72 ba be
       0.21126267 -0.23071046 0.06763336 -0.36415595
0001b0 c2 75 26 be 23 4a 41 be 49 14 ec 3c cb fd f2 bc
       -0.16255859 -0.18875937 0.028818266 -0.029662034
0001c0 4a 18 0d 3d c6 3d 1c bc 6f 93 1e bd d3 07 f6 bd
       0.034446992 -0.009536212 -0.038714822 -0.12013211
0001d0 e8 32 1a bf 15 e4 38 3e 08 1e de 3c 46 0c 78 3e
       -0.60233927 0.18055756 0.02711393 0.24223432
0001e0 02 f5 05 be be af b3 3e 42 e2 2b bd 7a 46 c3 be
       -0.13081744 0.35095018 -0.041963823 -0.38139707
0001f0 5e db 95 bc 5e 11 3f bf 4c f4 46 be 7f fe 85 3b
       -0.018293079 -0.74635875 -0.1942913 0.004089176
000200 93 4a 5d 3d f9 ec 6f 3d c8 ad c4 bf be b8 bd bf
       0.054026198 0.058575604 -1.5365534 -1.4822004
000210 10 08 49 be 40 1f 6d 3e 75 c1 6c 3e 24 4f d3 3e
       -0.19631982 0.23156452 0.23120673 0.41271317
000220 11 c1 25 3e 9b 56 f5 3e e3 c0 90 3e ec d2 8f 3e
       0.1618693 0.47917637 0.2827216 0.28090608
000230 94 a9 98 3d f1 0b f7 be fb fe ab be 62 32 65 be
       0.074542195 -0.48251298 -0.33592972 -0.22382501
000240 c2 3d a1 be 3a 91 1f be 89 a4 0a bd 9e bf 26 bd
       -0.3149243 -0.15582743 -0.03384832 -0.040710084
000250 fb 16 fc bd d5 25 10 bd 4c 3d b3 bf 14 7d 0c 3e
       -0.12309071 -0.03519233 -1.4003081 0.13719589
000260 33 6d c4 3e 42 76 19 3f 0c 9a 6f 3e ed 53 d6 be
       0.38364562 0.5994607 0.23398608 -0.41860905
000270 3d 76 49 bd f0 e0 bb be 7a 4a 93 be 92 94 51 3d
       -0.049185026 -0.3669505 -0.2876776 0.05116708
000280 0c 1a 93 be 02 69 a0 3d c2 68 8e bd 65 8b 73 3c
       -0.2873081 0.07832529 -0.06953575 0.014864777
000290 f8 33 0b bd b8 0c 16 3d 2c b0 c3 be 65 cc e3 bd
       -0.033985108 0.036633223 -0.38220346 -0.111229695
0002a0 9a 33 22 be 7c a8 19 bd e3 85 8b be 95 97 00 be
       -0.15839997 -0.037514195 -0.27250585 -0.12557824
0002b0 96 72 5b 3d 44 b2 28 3e ac ad b1 bc 63 ad 6f bd
       0.053576075 0.16474253 -0.021689259 -0.058514964
0002c0 1c 1f a0 bc 3b 96 4d be d8 80 92 be 34 db bb be
       -0.019546084 -0.2007684 -0.28613925 -0.36690676
0002d0 99 21 8b be 3f f7 87 be 84 41 91 bd 66 15 b7 bd
       -0.2717407 -0.2655582 -0.07092574 -0.08939628
0002e0 7b 0c 12 bd 10 ee af be 79 be d8 be 36 c1 38 be
       -0.035656434 -0.34361315 -0.4233282 -0.18042454
0002f0 a0 aa c6 be 59 48 71 be 4d 33 9b 3d 59 c3 cf 3d
       -0.38802052 -0.23562755 0.07578144 0.101446815
000300 2f a6 0a be 23 58 f6 3b 2c dd 09 be c6 f8 83 be
       -0.13539957 0.007517831 -0.13463277 -0.25775737
000310 52 2c 99 bd 7a a7 66 bd c0 16 61 bd 20 bd 4f 3d
       -0.074791566 -0.05631206 -0.054953337 0.050717473
000320 ee a1 5e be 06 1d 84 be 30 99 c3 be d4 6c a1 be
       -0.21741459 -0.25803393 -0.3820281 -0.31528342
000330 f7 9d 66 be 5c 08 8f be a7 eb aa be d3 41 75 be
       -0.22521196 -0.27936065 -0.33382913 -0.23950891
000340 99 6b 73 be 38 79 83 be 6b 15 26 bd 4c 3d fc 3c
       -0.23771514 -0.2567842 -0.04054777 0.030790947
000350 a5 ab 2d bd 23 dd 62 3d cb e6 7e 3d 2f 26 94 be
       -0.04240002 0.055386674 0.06223182 -0.28935382
000360 72 df 5f bd 66 23 82 3d 0c 37 d9 bc 9f b5 05 3d
       -0.054656453 0.06354408 -0.026515506 0.03264391
000370 63 3e 1c bd 1d 81 85 3d 2c c1 f2 bc 8b fb 2f 3c
       -0.038145434 0.06518767 -0.029633127 0.010741125
000380 87 dc 9f bd 74 73 e0 3c cb eb aa bc 9b fe fe bd
       -0.07805734 0.027398802 -0.020864388 -0.12450906
000390 b5 a0 69 3d 5b 4c 98 bd ba 83 d9 bd 82 b1 0e bd
       0.057038028 -0.07436439 -0.10620828 -0.034837253
0003a0 f3 c4 74 be 95 41 9a bc c9 2a 15 bd ad 88 df bd
       -0.23903255 -0.0188301 -0.036417756 -0.10914741
0003b0 3e 52 45 bf 09 82 b2 be 52 b9 4d be 19 f1 85 be
       -0.77078617 -0.34864834 -0.20090225 -0.26160505
0003c0 80 bc 44 bf 7f f6 f9 be 34 4e ec bd 87 d5 24 bd
       -0.7685013 -0.48820874 -0.115383536 -0.040242698
0003d0 a1 92 c5 3d 6a af ec bb b3 65 c9 bc 39 6b f6 bd
       0.09647108 -0.0072230594 -0.024584627 -0.1203217
0003e0 fa 94 05 be 30 1d 1e be aa 4e e1 be 08 cd 2b be
       -0.13045111 -0.15440822 -0.44005328 -0.16777432
0003f0 08 27 14 3c 6a 83 e1 ba bd 40 f3 3c 99 dc 3d be
       0.009042509 -0.0017205302 0.029693956 -0.18541183

bias f4 [16]
000000 08 0b 5f be b5 ec 39 3e 09 fe d0 be 79 f2 a6 bd
       -0.21781552 0.18156703 -0.40818813 -0.08151717
000010 c0 96 45 b8 02 6d ce be c6 ed 81 be 3c d1 4c bc
       -4.7108857e-05 -0.4031754 -0.2537672 -0.012501057
000020 1d 8b ed bd 5e d3 ef be 3c 97 89 be d6 5d 3d be
       -0.115987994 -0.46840948 -0.26873195 -0.18492827
000030 15 7d 9a 3d 7d 17 b7 be a0 f9 21 bf c0 3f 8e bd
       0.07543389 -0.35760108 -0.6327152 -0.06945753

weight f4 [64, 112]
000000 95 a9 fb bd 2d 95 33 3d 21 3d fc bd 06 31 a4 bd
       -0.122882046 0.043843437 -0.12316347 -0.08017163
000010 f8 68 e6 bd ef 9b 99 bd aa 1d d4 be a2 b8 ec be
       -0.1125049 -0.07500445 -0.41428882 -0.46234614
000020 2b 71 d6 be cf 17 ca be 3c 7d a5 be c7 95 b4 be
       -0.41883215 -0.3947129 -0.3232211 -0.3527052
000030 a6 6e a9 be 28 f0 9e be d0 43 f8 ba 3a 5f f4 bc
       -0.3309223 -0.310426 -0.0018941108 -0.029830564
000040 87 ea 4c 39 0a 86 e7 bc 23 e4 4c bd 30 71 00 3d
       0.00019542324 -0.028262157 -0.050022256 0.031357944
000050 6b 10 26 3d 47 a8 9a be 38 ec ec bd 11 e4 ba be
       0.040543 -0.3020651 -0.11568493 -0.36502126
000060 98 06 aa be 63 79 16 3d f5 86 d3 3c de 7d ab be
       -0.33208156 0.036736857 0.025821188 -0.33494467
000070 86 22 69 bd 1d f9 31 bc d1 05 6c bd 17 b6 0e 3e
       -0.05691769 -0.010862616 -0.057622734 0.1393665
000080 48 73 23 3d 9b bf cf 3c 9b 24 2d be ca f4 4b bd
       0.039904863 0.02535992 -0.16908495 -0.049793996
000090 a8 3d a4 bd 23 73 1b be 10 15 08 be 3e 34 9c bc
       -0.080195725 -0.1518064 -0.13289285 -0.01906788
0000a0 c1 74 8f bd e6 b0 bd bd c5 2e cc bb b3 8e 07 be
       -0.07004691 -0.09262256 -0.0062311613 -0.13238029
0000b0 6d 0b 85 bd e8 3f 9e be e7 7b a3 be c4 95 95 be
       -0.0649632 -0.30908132 -0.31930467 -0.29215825
0000c0 08 c3 99 be 4e 12 62 bd 8c 08 8d bc e4 33 70 3c
       -0.3003161 -0.055193238 -0.01721599 0.014660809
0000d0 9f 0e 0f bd 00 32 39 bd f2 91 fb bd 2d 54 0b bd
       -0.034926053 -0.0452137 -0.12283696 -0.034015823
0000e0 f9 b5 d0 bd ed c4 0b 3d dc 90 d4 bd 8b f2 0c 3d
       -0.101909585 0.03412335 -0.10379192 0.034410994
0000f0 37 ec 91 bc 8d 63 1c 3e 46 de 08 3e 67 1b d0 bc
       -0.017812831 0.1527235 0.1336604 -0.025403691
000100 0e f2 d1 bd 10 40 e8 bc ec 63 12 be 24 d2 27 be
       -0.102512464 -0.02835086 -0.1429593 -0.16388756
000110 c0 5e f4 3d 03 e6 86 bc 0d 58 f7 bd f0 dd 98 bc
       0.11932135 -0.0164671 -0.12077341 -0.018660516
000120 a3 92 d8 bd 31 ee 7a bd 02 a6 75 3d 71 bc 11 3e
       -0.10574844 -0.061262313 0.05997277 0.14232041
000130 fa eb 39 3c f5 c9 14 bd 4f 9c be bd a9 97 0c be
       0.011347765 -0.036325414 -0.09307157 -0.13729729
000140 5f 2b c7 bd e6 5a 0e be b3 65 20 bc 61 d3 37 bd
       -0.09725069 -0.13901863 -0.009789872 -0.04487932
000150 61 2d cf bd a0 88 5f bd 41 c4 b6 bd 62 24 11 be
       -0.10116077 -0.054573655 -0.08924151 -0.14174035
000160 72 29 a9 bd 83 02 40 bd 60 be 70 be fc 57 f4 3a
       -0.08259858 -0.046877395 -0.23510122 0.0018641944
000170 b3 fe a1 bd 4b be 2e 3d 1a 52 71 bc 09 32 9b 3d
       -0.07909908 0.042661946 -0.014729047 0.07577903
000180 9e 9c 17 3d 5e 33 38 3c 1d a2 dd bd 71 37 7c bb
       0.037014596 0.011242716 -0.10821936 -0.0038485194
000190 4d a1 9e bd b2 a6 d0 bc c6 11 a5 bd 43 c5 66 bd
       -0.077456094 -0.025470112 -0.08060031 -0.056340467
0001a0 32 84 d9 bd e8 0d c4 be 27 29 c4 be 54 04 e6 be
       -0.106209174 -0.3829186 -0.38312647 -0.44925177
0001b0 aa a7 f9 be 1a f6 a5 be a8 7b f5 be 0b 52 3b bd
       -0.4876073 -0.32414323 -0.47945905 -0.04573254
0001c0 2c 43 72 bc 81 1e 1f 3e 47 ee 98 bd 6a 8f f6 bd
       -0.014786523 0.1553898 -0.07467323 -0.12039073
0001d0 d2 8b d3 bc 34 cc 50 bd a9 a9 a8 bd 21 23 98 be
       -0.025823507 -0.050975993 -0.08235485 -0.297143
0001e0 27 f7 2c 3c 85 1b 09 3e 6b ce 4c be 3e 17 5d be
       0.010556973 0.13389404 -0.20000617 -0.21590897
0001f0 f0 52 30 be ee 9d 8f be 3d 18 ac bd 92 da 43 bd
       -0.17219138 -0.28050178 -0.084030606 -0.047815867
000200 39 12 cb bd ba ab 96 3c 3d ed 8a bc ee a0 ee bc
       -0.09915585 0.018392432 -0.016958827 -0.029129472
000210 8e 39 1c bd db ea a4 be 83 c7 eb bd 15 43 c8 3d
       -0.038140826 -0.3221043 -0.11512663 0.0977842
000220 65 7a 8f bd 5d 78 2e bd 70 a3 07 3c ec 36 db bd
       -0.07005767 -0.042595256 0.008278713 -0.10703835
000230 0d 1e ee bd f2 1d e2 be 5d e9 c2 bb fe de 2d be
       -0.116268255 -0.4416347 -0.005948229 -0.16979596
000240 51 4a 8a bc 74 93 73 bc 37 d2 b0 bd 38 dd d8 3d
       -0.01688114 -0.0148666985 -0.08633845 0.10589069
000250 e8 38 69 bc 4d c7 d9 3d d3 fb ad ba e5 af 26 3d
       -0.014234759 0.10633717 -0.0013273902 0.04069509
000260 46 e6 d6 bc 7c 52 92 bb cb 50 43 be a8 f5 12 bd
       -0.02623285 -0.0044653993 -0.19073789 -0.035878807
000270 2e 07 a0 3c 6b ef f2 bc a9 9a 29 be 3b e7 33 bb
       0.019534674 -0.029655179 -0.16562904 -0.0027451057
000280 64 34 18 ba 9d 0f ee 3d c0 a8 c8 3c 00 6a aa 3d
       -0.00058061467 0.11624072 0.024494529 0.08320999
000290 37 21 04 3e 97 2a 6b 3d d0 15 17 3e 2a 99 df 3c
       0.12903295 0.057413664 0.14754415 0.027294714
0002a0 3c 9e 55 3d 77 29 9c 3d c0 f4 bc bc 6e d1 05 3e
       0.052152857 0.07625096 -0.023065925 0.13068172
0002b0 5d 48 0d bc 56 1a 41 3d fb 2d 06 3e e0 ee 4c bc
       -0.00862321 0.047144257 0.13103478 -0.012508124
0002c0 0e 76 cc bc b3 f7 22 3d 4b 75 97 3c 5f 88 28 3c
       -0.024958637 0.039787006 0.018488547 0.01028642
0002d0 63 23 4e 3d 4a c2 7d 3d fc ff 1e 3e 76 da 9f bd
       0.050326716 0.061952867 0.15527338 -0.0780534
0002e0 db 50 c1 3d 23 99 63 3d e5 e2 2a 3e 2e a3 9f 3d
       0.0943925 0.055565964 0.16688116 0.07794796
0002f0 68 32 1f 3c 2f 41 a4 bc b2 e7 17 3e 89 ec cf 3d
       0.009716608 -0.020050613 0.14834478 0.101525374
000300 9e 90 13 3e 2e 0e 62 3d a5 37 7d 3d 44 5d 28 3e
       0.14410636 0.055189304 0.061820645 0.16441828
000310 4e 41 6f be 3c 53 e0 3b f1 40 1e be 8a da 2a bd
       -0.23364756 0.00684586 -0.1545446 -0.04171232
000320 79 17 b4 bd a3 b0 e1 3c f4 ab 6e be bc d3 a2 3d
       -0.087935396 0.027550047 -0.23307782 0.079505414
000330 bf d5 92 3d e9 fa 4d 3d 8c 89 69 3d f1 35 c1 ba
       0.07169675 0.050288115 0.05701594 -0.0014740807
000340 c8 e0 ab 3c fb 59 65 3d f3 01 ee be 81 e8 a9 3d
       0.020981207 0.055994015 -0.46485862 0.082963
000350 43 42 9d be cb 09 7b bd f4 ed 00 3c 4b dc 64 bd
       -0.30714616 -0.061288636 0.007869232 -0.05587415
000360 90 80 ad bd 9d d6 14 bd 29 ab 28 3d 41 3b 52 3d
       -0.08471787 -0.036337484 0.041178856 0.05132604
000370 37 2d e0 bd 41 e0 af bd ba 8d 29 3c d0 0d de b9
       -0.10946124 -0.08587695 0.010348732 -0.0004235343
000380 f0 03 47 be ea 94 b5 bc 35 f7 82 3e 34 c2 64 3e
       -0.19435096 -0.022165734 0.2557923 0.22339708
000390 09 a1 17 be 04 97 5a be 01 49 93 3e 1d 61 1e bf
       -0.14807524 -0.2134667 0.28766635 -0.61866933
0003a0 18 c7 f3 be 91 2a 91 3e 27 4d ca 3d 82 5c 38 bf
       -0.47612834 0.28352788 0.09877997 -0.72016156
0003b0 8c 21 4d 3d 2d 9e b5 3e 21 34 32 3d 8c a3 0b bc
       0.05008082 0.3547224 0.043506745 -0.008522879
0003c0 67 76 09 be 97 ce b3 bd bb 77 e7 bd 23 55 18 3d
       -0.13424073 -0.08779638 -0.11302134 0.037190568
0003d0 6d 26 dd bd 8c 4a 0c 3f 03 a8 5d be 6c 88 1d 3f
       -0.10798345 0.5480125 -0.21646123 0.6153629
0003e0 fc de 12 3f b1 fc 63 be 4f c5 5f 3f 36 bc 05 3f
       0.573715 -0.22264363 0.87410444 0.5224031
0003f0 72 e1 db 3e 50 0d 6c bd f9 94 c5 be 70 26 63 be
       0.4294544 -0.057629883 -0.3859022 -0.22182631

bias f4 [64]
000000 7f 22 ef be e5 0c 0c bf e4 4d cf 3e 7b 49 8c bd
       -0.46706006 -0.54707175 0.40489113 -0.06849953
000010 1b 5c 84 bd 12 ad b1 3c 4d 72 fd 3e 0d fd b9 3b
       -0.0646288 0.021688972 0.49501267 0.005675918
000020 86 f5 18 bd 20 2a 23 be 3c 1e a4 be d2 9e 2c 3c
       -0.037343524 -0.15934038 -0.32054317 0.010535913
000030 e9 a8 9a bd e9 17 9c 3e a4 eb a6 bd 77 a7 20 be
       -0.07551748 0.30486992 -0.08150414 -0.15688883
000040 a1 0b 97 3e ec 16 5e bb 24 e8 56 3f f3 96 2d bf
       0.2950106 -0.0033888174 0.8394797 -0.67808455
000050 7b bc 76 bf 04 4a 05 3f 13 71 93 be f7 2a 1e 3f
       -0.9638135 0.52066064 -0.28797206 0.6178431
000060 3a a2 87 be d3 42 f3 3c ac 55 c1 bd 47 0e 39 be
       -0.26490957 0.02969495 -0.09440169 -0.18071853
000070 bd 67 6a bd 69 c5 f5 bd 9c b7 cb bd 2d 6c a5 be
       -0.05722784 -0.120005436 -0.0994713 -0.32309094
000080 eb dd c8 bd 68 bd d3 be 7f c6 15 be ed 02 a0 be
       -0.098079525 -0.41355443 -0.14626502 -0.31252232
000090 21 4d 9f be c9 c0 ce bd 55 e6 49 bc 3f 0b 04 bf
       -0.31113532 -0.100953646 -0.012322982 -0.5157966
0000a0 00 28 21 bf bd ca 22 bd 4d 0f 27 be f1 34 b8 bd
       -0.6295166 -0.039744128 -0.1631443 -0.08994473
0000b0 b1 3b 09 bd 44 f4 2c ba f5 74 05 be 60 f9 b4 bd
       -0.03350419 -0.0006597678 -0.13032897 -0.08836627
0000c0 1b c3 18 bd 6e 12 b4 bd d4 37 84 bc 93 e3 bf bd
       -0.037295442 -0.08792578 -0.016139902 -0.09369578
0000d0 9f af 3c bd 8a 4a 78 be e4 6c 16 be c1 8f 57 bb
       -0.046065923 -0.24247184 -0.14689976 -0.003289208
0000e0 6c a4 4b 3f 6c d2 45 bc 06 a5 44 bd fd 87 fc bd
       0.7954776 -0.012074094 -0.04800894 -0.12330625
0000f0 74 eb 24 be 63 f8 d5 be 17 7c 03 be 77 e5 2d bd
       -0.16105443 -0.41791067 -0.12840305 -0.042455163

weight f4 [32, 64]
000000 c0 ec cc bd a0 be 42 be 9d 21 8f be 74 3e 0b bd
       -0.10006094 -0.1901803 -0.27955332 -0.033995107
000010 f8 41 f0 bd 06 60 92 3d cf 41 fc be 78 40 c1 3c
       -0.117313325 0.07147221 -0.49268958 0.023590311
000020 18 31 18 3d 48 73 82 3d 2c b5 82 3d 10 32 2f 3c
       0.037156194 0.063696444 0.06382212 0.010693088
000030 a0 f5 94 bb 5c 81 c1 be c4 12 96 3d 72 17 b6 3d
       -0.0045458823 -0.37794006 0.07327798 0.088911906
000040 59 a2 c2 be dc 81 52 3d 20 cd 78 be 21 c5 c7 be
       -0.38014486 0.051393375 -0.24296999 -0.39017585
000050 48 ae 4c bd 9b 46 cb be 50 5b 08 3c ff 12 43 be
       -0.049970895 -0.39702305 0.008322552 -0.19050215
000060 2c e8 03 bd 9c da 1e bd f0 10 03 bc a8 41 9a bd
       -0.03220384 -0.0387827 -0.007999644 -0.07532054
000070 00 ac 3f 3a 86 06 db bd 1e 48 b9 bd 3c 45 84 bd
       0.0007311702 -0.106946036 -0.090469584 -0.06458518
000080 40 ce 2b 3b 84 c5 e5 3d 2e a5 87 3d e4 4c 15 bd
       0.0026215464 0.11219314 0.066233024 -0.03645028
000090 28 62 d1 3c 00 d7 5b ba 5a 8d d8 3d 48 c7 b0 bd
       0.0255595 -0.00083862245 0.10573836 -0.0863176
0000a0 d4 b5 8e bd f8 8d 71 bd fc 34 d3 3d 16 f4 e5 bd
       -0.06968275 -0.058973283 0.1031284 -0.11228196
0000b0 b0 f9 c2 3c 36 f4 cc bd 04 d5 6a 3d 50 d0 2c 3c
       0.0238007 -0.10007517 0.057332054 0.010547712
0000c0 50 3e 92 3d 86 77 f9 bd b4 9e 85 3d 9a 45 83 bd
       0.071407914 -0.121810004 0.06524411 -0.0640976
0000d0 78 ab 23 3d 37 ac 10 be 00 17 36 3c 9e 2a fc bd
       0.039958447 -0.14128195 0.011113882 -0.12312816
0000e0 e4 ba 9f be 54 db e7 bd 30 c9 20 bd 2c 09 97 3d
       -0.31197274 -0.113211304 -0.039254367 0.07374796
0000f0 e8 cc d6 3c 44 65 d4 3d 38 c9 aa bd b0 b8 a3 3d
       0.026220754 0.103708774 -0.08339161 0.07994211
000100 aa 3b 42 be 48 0d 13 3d 5f 23 44 3d a4 40 f6 3d
       -0.18968073 0.035901338 0.047885295 0.12024048
000110 9e ae aa 3c f7 ad 0d 3e 0b f4 e9 be df 23 48 3d
       0.020835217 0.13835894 -0.45694003 0.048862334
000120 b1 93 3c 3d 22 f2 77 3d 06 4a 7f 3e 61 09 05 3e
       0.046039287 0.06053365 0.24930581 0.12991859
000130 3b bf e3 3d c9 5a f2 bd 82 f4 ce b7 27 78 68 bd
       0.11120459 -0.11833722 -2.4670971e-05 -0.05675521
000140 69 f2 fc be 47 7d f5 bc 7c 2e 7e 3e 01 cd a2 3e
       -0.49403694 -0.029966963 0.2482242 0.3179703
000150 5b 06 ce bd f5 4f f6 be 86 9c fe 3d 45 71 3b 3e
       -0.10059806 -0.48107877 0.12432198 0.18304928
000160 d0 07 2a bd 63 cd 29 bc 5b 6b 43 3c 16 c8 b6 3d
       -0.041511357 -0.010363909 0.011927451 0.08924882
000170 ac a5 8b 3d 87 4c 3f 3e f5 16 7b 3d c0 6a 96 3d
       0.06818709 0.18681537 0.06130119 0.0734458
000180 3f a5 9d 3d f4 5f b1 be c6 c5 00 3e 59 ad 9b 3d
       0.07697534 -0.3464352 0.12575445 0.07601423
000190 60 f8 e1 3b 75 a8 9c 3d 24 f7 21 bd c5 fb be be
       0.0068960637 0.07649318 -0.039542332 -0.3730146
0001a0 83 3f b4 3c 78 6e bf 3d 1a 5f 90 3e 28 73 76 3d
       0.022002941 0.09347242 0.28197557 0.060168415
0001b0 c9 02 bd 3d e8 96 27 3b 13 1b 0c 3e 21 fc 29 3e
       0.09229047 0.0025572125 0.13682203 0.16600086
0001c0 29 bd 77 3d 78 c9 07 bd a0 58 15 bd a7 44 dc bc
       0.06048313 -0.03315112 -0.036461473 -0.026888205
0001d0 60 df c9 bd d7 7d fb 3c b9 f5 28 3e ce 9c 19 3d
       -0.098570585 0.030699654 0.16499986 0.037503056
0001e0 d3 2f 16 bf 28 8e 48 3e 4f fc 78 bd b8 0a 6e bd
       -0.58666724 0.19585478 -0.060787495 -0.05811569
0001f0 a2 4e 21 3d 85 f0 c2 3e 2d 33 cf bb 5d 34 36 3e
       0.03938163 0.38074127 -0.0063232393 0.17793413
000200 fb a3 df 3d 3a ec 0b bc 36 76 a6 bd 19 a5 7e 3d
       0.10919949 -0.0085402075 -0.08128016 0.06216917
000210 d0 fc 37 bd 14 6a 31 3e ed 09 f6 bd 5b 8c d8 3d
       -0.044918835 0.17325622 -0.12013612 0.10573646
000220 9e 48 a1 3d f3 4e 52 3c e4 0d 8a bd b1 44 01 3e
       0.07875179 0.012836206 -0.06740931 0.1262386
000230 19 cd 3c 3e 48 6c 0d 3d 44 b0 c4 3c d3 a7 e6 bd
       0.18437614 0.034527093 0.024009831 -0.11262479
000240 a4 28 94 3c 5e 8f 09 3d 2a 5a d8 bc a8 1d 2d bc
       0.018085785 0.03358399 -0.026410181 -0.010566153
000250 95 0d a6 bd 11 d8 d4 be 4c 84 65 bd 0b e8 76 bd
       -0.08108059 -0.41571096 -0.05603437 -0.060279887
000260 e5 05 f1 bd 66 28 b4 bd f4 ca c4 bd 50 14 f9 bc
       -0.117687024 -0.08796768 -0.09609023 -0.030405194
000270 38 78 51 bd 76 f2 d2 3b 66 ef 64 bc d3 4b 81 bd
       -0.05114004 0.006437595 -0.013973093 -0.063132904
000280 d5 68 c3 3c 40 77 52 3d ba e3 e8 bb 91 7b f6 bd
       0.023853699 0.051383257 -0.0071072252 -0.12035287
000290 79 68 8f bd 81 9c b8 3c 65 e5 52 3c 84 f9 77 bd
       -0.070023485 0.022535564 0.012872075 -0.06054069
0002a0 96 ef 3b 3d b6 3c db 3d 0b 27 2f 3e ed 2f 1f 3c
       0.045882784 0.10704939 0.17104737 0.009716016
0002b0 6a f0 a2 3c c4 a1 88 bd ae 2e 48 bd 31 89 ab bb
       0.019890029 -0.06671479 -0.048872642 -0.0052348603
0002c0 76 b5 b7 3d 04 ba 0e 3d 3c 71 fd 3d e7 46 d3 bd
       0.08970158 0.034845367 0.12375113 -0.10316258
0002d0 b4 37 87 bd 99 7a 6d 3d 6f 4a 87 bd 9e ba 09 3e
       -0.066024214 0.057978246 -0.06605994 0.13450095
0002e0 e1 cc 82 bd b6 1e 5d bd 4f f9 7b 3c 7a 6c d2 bd
       -0.06386734 -0.053984366 0.015379264 -0.102745965
0002f0 3e 3f 95 bd 26 a8 1e bd c1 2b ff 3b e8 cf 41 3d
       -0.07287453 -0.038734578 0.0077871983 0.047317415
000300 62 d2 55 3e d2 aa ac be 78 8e 08 bf cb 5a 16 3d
       0.20881036 -0.33724076 -0.5334239 0.03670768
000310 61 f8 9c bd c3 59 d6 3c 61 28 9f 3e 25 47 57 3d
       -0.07664562 0.026165849 0.31085494 0.052558083
000320 9c 9f a6 bd b1 07 b8 bd e4 70 22 3e fb 07 81 3d
       -0.08135912 -0.08985842 0.15863377 0.0630035
000330 05 91 10 bd 00 a4 62 be f0 dd 3f 3d d5 6d d1 be
       -0.03529455 -0.22132874 0.046842515 -0.40904108
000340 3d 1d 02 bf 05 0d c0 bc 8b e3 94 be 13 4e b0 be
       -0.50825864 -0.023443708 -0.29079852 -0.34434566
000350 d1 6f cb 3e 22 4c ae be 3e d0 7c 3e 68 ab ae be
       0.39733747 -0.3404246 0.24688813 -0.34115148
000360 bc 6f 06 3f d6 6b ca bd 00 32 00 3a 4a 5e 42 be
       0.52514243 -0.09883849 0.0004890263 -0.18981281
000370 56 13 2f 3d 23 ac 3b be 38 a5 85 3c 86 bf 2b 3e
       0.04274305 -0.18327384 0.016314134 0.16772279
000380 1d a3 0e 3d 71 5d 92 3d a0 6a b0 bc 6f 68 b0 3d
       0.034823526 0.07146729 -0.021535218 0.08613669
000390 02 a3 8e bc 7f 9c ae be 6e 41 11 be 30 e3 41 3f
       -0.017411713 -0.34103772 -0.14185116 0.75737286
0003a0 be 96 0e 3f 9d 38 bb bd d0 40 c2 bc af a7 0a be
       0.55698764 -0.091416575 -0.023712546 -0.13540529
0003b0 b4 ad 7c bb c3 ee 3b be ed a0 ab bd 0e a4 83 bd
       -0.0038555684 -0.18352799 -0.083803035 -0.06427775
0003c0 84 ca ce 3c 6e 13 77 bd c3 fe 28 be 87 2d 90 bd
       0.025243051 -0.060321264 -0.16503434 -0.07039934
0003d0 ad 56 b2 3c fb b4 6f be a0 2c d6 bd 1a 68 29 3c
       0.021769846 -0.23408882 -0.1045773 0.010339761
0003e0 02 01 1b bf 1e d8 aa bb 5f 5a 5d 3e f6 95 d1 3d
       -0.6054841 -0.0052137515 0.21616505 0.10233681
0003f0 cc 7b f9 be 43 19 0e 3f 48 c5 c3 bd 97 fa fd bc
       -0.48727262 0.55507296 -0.09559113 -0.03100328

bias f4 [32]
000000 7f 0a 09 bf 1e 2e 4f bf cd 26 5a be fd 63 00 bf
       -0.5353164 -0.80929744 -0.21303864 -0.5015257
000010 d7 59 87 be b4 42 86 3f 20 a4 c5 be 92 6b 0f 3e
       -0.2643573 1.0489106 -0.3860178 0.14005879
000020 10 3a 9b be ea 88 f3 bd 67 79 3f be 32 4d 34 be
       -0.30317736 -0.11891349 -0.18698655 -0.17607573
000030 33 7b ee be 3d 00 0b be cb cd 83 bf ee 9c 2b 3e
       -0.4657837 -0.1357431 -1.0297178 0.16759083
000040 9e 91 ba 3d e5 e2 1c bd fb 3c f8 be 57 2c 23 bf
       0.091098055 -0.03830232 -0.48484024 -0.6373953
000050 23 94 52 be 9b b9 c2 be e9 86 9a be 59 97 51 bd
       -0.20564322 -0.3803223 -0.30181053 -0.051169727
000060 4b 69 85 be 8e 3b 17 be 59 b4 ca bd ed 68 86 3f
       -0.26056895 -0.14768812 -0.0989768 1.0500771
000070 90 e0 a5 be 1a b4 30 be 37 39 8f bd 92 fe 40 bf
       -0.3239789 -0.17256203 -0.06993335 -0.75388443

weight f4 [24, 32]
000000 0a c1 1f 3e 0d 83 34 be 49 c9 19 bd 63 79 3e 3f
       0.15600982 -0.17628117 -0.037545476 0.7440397
000010 34 e1 e0 3d 99 63 6a be 46 2e c7 be a0 0d db be
       0.10980454 -0.22889556 -0.3890249 -0.42783833
000020 42 5f 8e 3e 3d 3a 25 3e 0d b7 cd bc 30 93 7c 3e
       0.2780705 0.16135497 -0.0251117 0.24665523
000030 2a 2d 8b bd 2a e7 b8 bc 8a 2c a6 3e ab 1e 19 3f
       -0.06795724 -0.022571165 0.32455856 0.5981242
000040 59 1d eb 3e 42 64 e8 3b e7 bf c3 bb a3 d9 af be
       0.45920828 0.00709203 -0.0059738043 -0.3434573
000050 6d 8e 4b 3d 9f fa 82 3e bd 8a 98 3e b4 d6 ec be
       0.049696375 0.25581834 0.2979335 -0.46257555
000060 03 54 31 bd 5e 2f 4b bd fc d7 70 bb 64 d5 bd 3e
       -0.04329301 -0.04960572 -0.003674983 0.37076867
000070 46 e1 26 bd b5 f6 1d bc 51 9b 14 3c 38 2b 7c 3e
       -0.04074218 -0.009641339 0.009070233 0.24625862
000080 82 39 b5 be 26 1d 92 3e 86 81 bc 3c 82 79 5b 3f
       -0.35395437 0.28537863 0.02301098 0.8573228
000090 a6 32 e9 be 32 d2 7e be 0b 45 f4 bd 9d bb 3d bd
       -0.45546454 -0.2488487 -0.119272314 -0.0463215
0000a0 7e 56 b1 3c 01 25 b2 3e 56 11 22 3d 53 41 11 be
       0.021647688 0.34793857 0.039567314 -0.14185075
0000b0 b8 fa c1 3d 69 84 e9 3c 03 20 c1 bd 2e c0 11 3e
       0.09471649 0.02850552 -0.09429934 0.14233467
0000c0 c0 c8 66 be 02 95 cb 3e d3 39 3b be 58 04 7f 3e
       -0.22537518 0.3976212 -0.18283777 0.24904001
0000d0 bb fe 5f 3e 1b 9c 51 3e 23 4f fa 3e 28 d6 97 be
       0.21874516 0.20469706 0.48888502 -0.29655576
0000e0 e6 6f 10 3e 4d d4 f2 3f 8c 65 ae 3c 10 f2 49 bd
       0.14105186 1.8971039 0.021288656 -0.049303114
0000f0 9b 14 19 3e ab 30 d5 3b 6b 4a 0d bc 27 2b 88 bd
       0.14949267 0.006506046 -0.0086237 -0.06648856
000100 b5 0a 93 3e 78 43 10 3e 4e 7d fe bd 69 90 ff bd
       0.28719106 0.14088237 -0.12426244 -0.12478716
000110 73 9a 40 3e b1 f8 28 3f 08 c4 2d 3e 59 96 0b 3e
       0.18808918 0.6600447 0.16969311 0.13631572
000120 d1 5b b1 3e bc d5 0d bd e7 bf a4 bd 9e 4f d7 3c
       0.34640363 -0.03462766 -0.08044415 0.026283082
000130 a8 4e 1d 3d 85 ff 52 3e 49 0e 04 3f 20 fb e7 bc
       0.03840509 0.20605285 0.515843 -0.028317988
000140 e1 6e 43 be c8 d6 3c be e1 dc 82 3e d2 5b 40 be
       -0.19085266 -0.18441308 0.25559142 -0.18785027
000150 b6 eb 48 3d 50 c8 68 3e cf 3e c9 be 45 f3 a1 bd
       0.049052916 0.22732663 -0.39305732 -0.07907728
000160 e5 39 65 be e3 9e 33 3f dc 4c 14 be 03 53 b4 3d
       -0.22385366 0.70164317 -0.14482445 0.08804896
000170 78 b2 1a be b8 67 d5 bc 99 8e 03 bd 93 e3 cc 3e
       -0.15107143 -0.026050434 -0.032118414 0.40017375
000180 8e 79 e5 be 63 a3 8f bd 98 a1 3f be 42 6d d8 be
       -0.448193 -0.070135854 -0.18713987 -0.42270857
000190 14 b7 20 3f 04 57 7c bf f5 89 c7 3d 1d 4b 51 3e
       0.62779355 -0.98570275 0.0974311 0.2043881
0001a0 1a 06 40 be 3f a3 17 bc 80 67 1c 3e c8 de ae 3d
       -0.18752328 -0.0092552295 0.15273857 0.08538586
0001b0 02 4e 35 3e 08 c7 02 be 5d 4d a7 3d b9 c2 35 3e
       0.17705539 -0.12771237 0.08169053 0.17750062
0001c0 f1 87 1d 3e a8 cc 53 3e e2 60 b5 ba 3c 2a e0 3d
       0.15383889 0.20683539 -0.0013838077 0.109455556
0001d0 4a 45 b5 be bd 86 b6 3e 9e 5c 63 be fa 2e 87 bf
       -0.35404426 0.35649672 -0.222033 -1.0561211
0001e0 1b 4b 62 bd d8 b4 d6 3d b2 17 17 3e 24 3c ec be
       -0.055247407 0.10483712 0.14755133 -0.46139634
0001f0 a6 99 c2 3d 7a 76 55 3e 1e 11 95 bd 8a 95 e9 3d
       0.09501962 0.20845976 -0.072786555 0.114054754
000200 7d f2 83 be c7 d8 88 3c 42 5c d1 bd f0 90 6f be
       -0.2577094 0.01670493 -0.10222675 -0.23395133
000210 f2 e2 82 3e c7 9a a1 3e 25 f4 28 3e 23 0b 06 bf
       0.2556377 0.31563398 0.16499384 -0.52360743
000220 f3 a2 18 be db 54 99 be 9e ca 34 bf 32 c6 d8 bd
       -0.1490591 -0.29947552 -0.7062167 -0.10584678
000230 25 9a 1c 3d fc 85 cb 3c 47 ad 6e 3e 06 2f 9d bd
       0.03823294 0.024844162 0.23308288 -0.07674985
000240 a1 1f 2a 3f 3b 3d 31 3f cd c9 cf bd 59 7f 98 be
       0.6645451 0.69234055 -0.10145912 -0.2978466
000250 73 5b 11 bf b1 85 a6 3e 6c e2 02 bf 56 5e 32 bf
       -0.56780165 0.32523873 -0.5112674 -0.69675195
000260 ef 23 1a 3e be 62 cd be d8 30 dd 3d 43 2a 86 be
       0.1505277 -0.40114397 0.10800332 -0.26204118
000270 22 0b 32 3b 97 50 02 bd 37 02 1b be 77 bf fc 3e
       0.002716728 -0.031815138 -0.15137564 0.49364826
000280 93 71 c9 3e 42 2a 92 bc 24 30 b9 3c b7 66 ab be
       0.39344463 -0.017842416 0.022605963 -0.33476803
000290 8b f6 22 be 46 b9 31 3d 78 d0 d0 3e 0f ea aa 3e
       -0.15914361 0.04338958 0.4078405 0.33381698
0002a0 52 dc bb 3e 1e b3 57 3e 33 bb 2e be a0 81 42 bd
       0.3669153 0.21064422 -0.17063598 -0.0474869
0002b0 37 72 85 bd fb 1f 3d bd 62 fe ca be 01 3a 18 bd
       -0.065159254 -0.046173077 -0.39647204 -0.03716469
0002c0 e2 e2 bd 3e 1d 84 c1 be 6f 87 90 3e 47 b5 cb be
       0.3708716 -0.37796107 0.28228328 -0.3978674
0002d0 12 3c bd 3d 28 41 be be 76 2b 55 3e 5c 07 80 bd
       0.09239973 -0.37159085 0.2081736 -0.06251404
0002e0 e7 84 9c 3e 50 29 a4 be 2e 26 93 bd 51 05 b9 3e
       0.30570146 -0.3206277 -0.071850166 0.3613687
0002f0 61 a9 20 be fd 8a 98 bd 6e 79 ce bc 77 a9 ab bd
       -0.15689613 -0.07448385 -0.025204387 -0.08381932
000300 7e e6 7c be 52 ed dc be c2 02 3d 3e 1c 19 84 be
       -0.24697301 -0.4314981 0.18458083 -0.25800407
000310 7f 78 1f be 68 a6 31 bf 27 2e ca bd 53 e5 ea bd
       -0.1557331 -0.6939454 -0.09872084 -0.114695214
000320 6b 47 96 3e 14 e1 b1 be 1f 2d 66 3e 50 02 e6 3e
       0.29351363 -0.34742033 0.2247815 0.4492364
000330 0e 04 5b be ee d4 3e bd 0a d4 bd be 2d 92 de bd
       -0.21388265 -0.046589784 -0.37075835 -0.108677246
000340 c0 7c 0f 3f 1a f2 26 3f d8 79 04 3f 69 8b 74 be
       0.5604973 0.6521317 0.5174842 -0.23881306
000350 d8 bd 61 bf 1f 6d 71 3e 34 6b 1e 3e f7 c9 18 be
       -0.88180304 0.23576783 0.15470582 -0.14920793
000360 29 6b a0 bd 69 ce 83 be 17 11 5e 3d d4 e8 35 3f
       -0.07832939 -0.25743416 0.054215517 0.7105839
000370 b1 86 b7 3b bd 12 f5 bd 41 26 01 3e 19 ca d5 bc
       0.0056007733 -0.11966465 0.12612249 -0.026097344
000380 83 e3 5f be c5 77 35 3e 7b 7f 40 be dc 95 e1 3e
       -0.21864133 0.1772147 -0.1879863 0.44059646
000390 c7 b9 ea 3d ad 6d 7c 3f bf a9 52 be 67 15 f0 bd
       0.114612155 0.9860485 -0.20572565 -0.11722832
0003a0 3c ad ae be 68 18 0e 3e 10 bd b1 be fe ee 16 3e
       -0.34116542 0.13876498 -0.34714556 0.14739606
0003b0 ab 3b 80 3d 7a 98 c9 3c 6f b3 23 3f 64 70 b0 3e
       0.06261381 0.02460884 0.6394567 0.34460747
0003c0 45 5a 0f bf f6 19 67 bf 56 15 b6 3c 27 aa 1e 3e
       -0.55997115 -0.9027399 0.02222697 0.15494595
0003d0 70 9f 48 3d 4b 7c d5 be 8b cf 80 3d 0a 5d c1 be
       0.048980176 -0.4169639 0.06289586 -0.37766296
0003e0 3a e8 9b be 56 34 cb 3e 14 7c af bd 02 20 39 3f
       -0.30450612 0.39688367 -0.08568588 0.72314465
0003f0 7d d4 f4 3d 44 a4 b7 bc bd d2 be bc 9a 34 96 be
       0.119545914 -0.022417195 -0.023293847 -0.29337007

bias f4 [24]
000000 b5 75 90 3e 66 ae 03 3f cb dc 2a bf 96 e9 65 3f
       0.28214803 0.51437986 -0.66743153 0.8980955
000010 f3 ad a5 3f fe df c1 bf 39 25 69 bf 5f 35 57 3f
       1.294371 -1.5146482 -0.9107242 0.8406581
000020 ad c0 b1 bf 68 42 0e 3f ac 03 a4 bf 5f 62 59 3d
       -1.3886925 0.5557008 -1.281362 0.05307233
000030 0c 4e 68 3c 1f 70 e2 3d 0d fe 0b bf f3 2a 2a 40
       0.014178764 0.11056542 -0.54684526 2.6588714
000040 78 43 b4 be 4b 80 ce 3d 56 e3 4a 3f 36 e8 63 3f
       -0.35207725 0.10083064 0.7925314 0.890262
000050 b5 d3 0c 3f 58 2e 53 bf 09 53 8d bf 35 8c 46 3f
       0.5501054 -0.8249259 -1.1040965 0.7755769
