MultiModal/26loss13.805386394262314.pth (torch, 528038 bytes, 41 tensors)

weight f4 [16, 1, 4]
000000 9f 66 88 be 81 6e 92 3b 57 35 61 bf b8 c6 0c bd
       -0.26640794 0.0044687395 -0.87972015 -0.0343692
000010 df 40 b8 be 85 1d 6c 3f 42 11 49 bf f2 ff 49 3e
       -0.35986993 0.92232543 -0.7854196 0.19726542
000020 81 78 2c c1 ca b8 6b be 05 a7 27 bf c7 64 db be
       -10.77942 -0.2301971 -0.65489227 -0.42850325
000030 37 75 b5 bf 32 f7 89 bf a9 c9 f9 3e 87 b2 08 c0
       -1.4176396 -1.0778563 0.48786667 -2.1358964
000040 dd 29 be be d1 ff 28 3b 5c 8c 1f bf a2 01 0c bd
       -0.37141314 0.0025787244 -0.62323546 -0.034181245
000050 fe a6 12 bf 64 74 39 be cb ba b5 be b1 1d 19 3b
       -0.5728606 -0.18110806 -0.35494074 0.0023363645
000060 df 20 bc 3e 6a 9f 10 bf 28 44 18 3f dd bc d0 be
       0.3674383 -0.56493247 0.59479 -0.4076909
000070 98 f4 63 3d ae 4f a9 3b a0 23 49 3e d2 94 47 c1
       0.055653185 0.0051669693 0.19642496 -12.473833
000080 f5 23 88 3e 96 6e 40 bf 25 8a ba be 4b 94 f7 be
       0.26589933 -0.7516874 -0.3643352 -0.48355326
000090 93 89 27 c0 56 96 0c c0 6c a9 75 bf 56 73 e1 3c
       -2.6177719 -2.1966758 -0.9596164 0.027520817
0000a0 da a6 1a bd f9 04 4b be 2f 1b 66 bd 7f d8 c3 be
       -0.03775678 -0.19826116 -0.056178268 -0.3825111
0000b0 3d 0d 9c be 1b 66 2c be ed b2 45 bd e0 35 5e bf
       -0.3047885 -0.16835825 -0.04826634 -0.86800957
0000c0 c4 c1 51 3d 8b 42 93 3d 6d 90 05 3d 5e 1b de 3d
       0.05121018 0.071904264 0.03260844 0.108450636
0000d0 aa 40 29 be 3f 8d cb c1 9a d3 fb c0 a8 57 99 bd
       -0.16528574 -25.443968 -7.8695803 -0.07487422
0000e0 c7 bd 82 be 70 1a 3a be e9 36 17 bf e2 99 14 3c
       -0.25535414 -0.18174148 -0.5906816 0.009069892
0000f0 2d 5c 74 be d3 82 58 bd c3 44 8b be 69 fa a5 bc
       -0.23863287 -0.05285914 -0.272009 -0.020261006

bias f4 [16]
000000 e0 3c 44 bf 91 81 40 3a 1c 97 b6 3e 28 95 00 c0
       -0.7665539 0.00073435256 0.35662162 -2.0091038
000010 4f 71 3a bc 9a f2 8e bf b1 b9 ca 3c c4 31 1e 3e
       -0.011379554 -1.1167786 0.024746748 0.15448672
000020 ff c0 fa 3d 52 36 09 3f e2 76 b5 bf 28 c8 7e bd
       0.12243842 0.5359851 -1.4176905 -0.062202603
000030 98 52 2e be 62 7f 38 3e 2d e2 e3 be 36 a1 bb 3e
       -0.17023695 0.18017343 -0.44508496 0.36646432

weight f4 [16, 16, 4]
000000 25 b1 24 be 6d 0d 1a bf ab f5 f5 be c9 2d 33 bf
       -0.160832 -0.60176736 -0.48038992 -0.6999174
000010 c9 b6 d3 3d f2 f6 0f 3e d9 09 0c 3e d4 c5 7c 3d
       0.10337598 0.14059046 0.13675632 0.0617121
000020 9b 3c 13 c0 25 51 9b 3f 27 15 ef 3f 9c 8f 84 3f
       -2.300574 1.2134138 1.867833 1.0356326
000030 db 29 d9 be af 22 c8 bf 78 08 67 c0 47 19 34 bf
       -0.42414746 -1.5635585 -3.609892 -0.7035107
000040 22 82 3b be 7b f6 e0 3d c2 21 b4 3d 60 ea a8 bb
       -0.1831136 0.109845124 0.08795501 -0.005154893
000050 55 16 aa bf e8 85 1c c0 f8 73 3f bf 5c ce ab be
       -1.3288065 -2.445673 -0.7478633 -0.33555877
000060 77 8f fb 3c e3 a6 0d 3e 11 80 4a 3d a0 11 94 bc
       0.030708058 0.13833193 0.04943854 -0.01807481
000070 91 d0 37 c0 0d 50 06 3d 3b 85 4e 3f 60 c4 78 3e
       -2.872105 0.032791186 0.80672044 0.24293661
000080 af c9 8a c0 2f ad bd bf cc f7 38 bf e5 f0 b1 be
       -4.3371196 -1.4818476 -0.7225311 -0.347541
000090 0e 33 07 c0 62 f6 81 be 09 9c 9e 3e d4 d1 8b 3e
       -2.1124911 -0.25383288 0.3097842 0.27308524
0000a0 b0 a0 82 be 6c 9c 89 bd 0a cb 29 be 9d 87 c5 be
       -0.2551322 -0.06719288 -0.1658136 -0.38580027
0000b0 6c 76 34 be 7d 21 6e be 0f 6f f9 be 07 80 4f be
       -0.176233 -0.23254962 -0.48717543 -0.20263682
0000c0 40 3a 23 bf 3f 63 14 bf ce 75 b6 be 64 2f a0 3d
       -0.6376076 -0.5796394 -0.35636753 0.07821539
0000d0 1d cb a0 3f 98 eb d2 3e 8a 61 5f 3f 3d ab 76 3e
       1.2561985 0.4119537 0.8725821 0.2408876
0000e0 31 75 d8 3c df cf 26 be 0f cf 97 3d ee c5 a3 bd
       0.026423069 -0.16290234 0.0741254 -0.079967365
0000f0 82 9a 1a bf b8 36 f3 3e 6e 48 b3 be 2e fe dc 3d
       -0.6039201 0.47502685 -0.35016197 0.107906684
000100 03 6c e4 bc 82 16 ee bd 49 79 0c be 10 eb 19 be
       -0.027883535 -0.11625387 -0.13718142 -0.15031075
000110 71 d7 fb bc 91 c7 d0 bd 89 19 2b be 61 56 1c be
       -0.030742379 -0.10194314 -0.1670896 -0.15267326
000120 36 1b 58 bc 03 0b 4d 3c 07 4d 8d bd ab f5 1c be
       -0.013190081 0.012514832 -0.068994574 -0.1532809
000130 c8 a1 7b 3b f3 12 6c 3d 62 75 9a 3c 33 c9 d4 bc
       0.003839599 0.05763526 0.0188548 -0.025974846
000140 d8 20 ce bd 94 a5 18 be 16 17 6d bb 70 20 7d bd
       -0.10064858 -0.14906913 -0.003617709 -0.061798513
000150 b1 a5 0b 3d 85 ed f1 bd c9 c6 ea bd 86 a0 83 bd
       0.034093563 -0.118128814 -0.114636965 -0.06427102
000160 d6 6e 3b be 0c b9 9c bd c7 8a f5 3c d2 5d e1 3c
       -0.18304 -0.076524824 0.0299734 0.027510557
000170 7e af 3a 3c c9 0c c9 3a ab 70 31 bd 32 11 82 3d
       0.01139438 0.0015338893 -0.04332034 0.06350936
000180 80 1b 07 3a b0 d2 f8 bd a9 66 21 be f9 88 52 bd
       0.0005153939 -0.121495605 -0.15761818 -0.05140016
000190 19 96 23 be eb fb 26 be 2e 2c 23 bc ef dc f2 bd
       -0.15975226 -0.16307037 -0.009959264 -0.11858546
0001a0 9c 72 25 be be ce 1d be 5a e1 61 3c e2 2d 27 be
       -0.16157001 -0.15410897 0.013786638 -0.16326097
0001b0 bd 50 da bd 54 ad 97 bd a0 37 db bd 23 fa c0 3c
       -0.10659931 -0.074061066 -0.10703969 0.023556774
0001c0 71 92 fb bd 8a 3d c2 bc 8e a7 aa bc 98 5a 26 be
       -0.12283791 -0.023710985 -0.02083185 -0.16245496
0001d0 6b ff 3a bd 8e b1 6f 3d de 26 5c bd 19 cf 1c be
       -0.04565374 0.05851894 -0.053748004 -0.15313376
0001e0 7a 00 15 bd a6 b6 5f 3d 93 b6 46 3d 40 11 87 3c
       -0.036377408 0.054617546 0.04851396 0.016487718
0001f0 8f 34 49 3d a5 39 b8 bd e6 f0 38 be a7 87 8c bd
       0.04912239 -0.0899537 -0.18060645 -0.06861811
000200 3b 0f 1e bd 3b 2f 02 3e af 49 88 bd 1b 44 2a 3c
       -0.038588744 0.1271333 -0.06654679 0.010392214
000210 e1 80 9f be 64 40 ac bd d7 a6 db be d8 54 d1 bc
       -0.31153014 -0.08410719 -0.42900726 -0.025553152
000220 5c b0 d2 bd 2a 94 a9 bc a1 bf 97 bc 39 09 ab bc
       -0.10287544 -0.020700533 -0.018523993 -0.020878421
000230 5f 4d a7 bc 1a 9e 42 bc 1a 6f 2e bd 4c ee 12 be
       -0.020422636 -0.011878515 -0.042586423 -0.14348716
000240 ea 06 d4 bd f5 9c ca bd d6 aa 5f bd fa 97 73 bd
       -0.10352881 -0.098932184 -0.05460628 -0.059471108
000250 c6 d3 de ba 1a 00 dc bd 9e 98 20 3d b1 19 c5 bd
       -0.0017000369 -0.10742207 0.039208047 -0.09624041
000260 27 01 cb bc bd 32 b4 be 38 45 3a 3d d6 0c 97 be
       -0.024780823 -0.3519496 0.04547617 -0.2950198
000270 a1 cb d3 bd 1b 53 ca bd a3 5c cf bd a2 cc 8b bd
       -0.103415735 -0.09879132 -0.10125091 -0.0682614
000280 08 fc 35 3d e3 40 90 bd 11 e3 9d bd 10 d7 ac bd
       0.04442981 -0.07043626 -0.07709325 -0.084394574
000290 e7 e2 3f 3b a2 d8 25 bd 88 38 c8 bd 50 27 a9 bd
       0.0029279531 -0.0404898 -0.097764075 -0.082594514
0002a0 20 e6 f8 bd a8 df fe 3c 2b 2e 09 bd 05 18 c6 bc
       -0.12153268 0.031112507 -0.033491295 -0.024181375
0002b0 f1 73 f8 ba 53 69 56 bd 94 30 f5 bd c8 ba 91 bd
       -0.0018955452 -0.05234654 -0.11972156 -0.07115704
0002c0 80 b7 3f be 50 40 95 bc 32 57 fa be d8 e8 98 be
       -0.18722343 -0.018219143 -0.4889465 -0.29865146
0002d0 a9 23 27 be bc d4 19 be 56 33 23 be f8 a3 fd bd
       -0.16322197 -0.15022558 -0.15937552 -0.1238479
0002e0 1f 00 5b 3c c3 aa 1f 3c 18 20 66 bc 46 4f 44 bd
       0.013366728 0.009745303 -0.014045738 -0.047927164
0002f0 ac 3d 97 bc 58 6a b6 be 03 66 a7 be 40 39 27 be
       -0.018462025 -0.3562801 -0.32695016 -0.16330433
000300 0f f7 14 bd 5b e0 94 3c cc 86 c7 3b 97 f4 54 bd
       -0.036368426 0.018173387 0.006089067 -0.05199107
000310 03 4e 3e bf 09 b1 f3 be 65 88 ab bd 78 51 04 bf
       -0.74337786 -0.47596005 -0.083756246 -0.5168681
000320 d2 5e 95 be f6 4f 44 be cd 6c 70 be 14 b9 be be
       -0.29173905 -0.19171128 -0.23479004 -0.37250578
000330 d1 96 c0 3e 1b 8e 0e 3e f6 42 de bd 21 0b c1 3e
       0.37615064 0.13921396 -0.108526155 0.37703803
000340 4e bd 6f 3d c5 e6 be bb 8c 6b aa bd 05 a3 fb bc
       0.058530144 -0.0058258497 -0.08321294 -0.030717382
000350 a2 bd 8b 3e c4 47 c2 3e ba 6b 97 3e 69 fc c5 be
       0.27293116 0.37945378 0.29574376 -0.38669136
000360 ad 69 01 bf d7 0c 30 be ba a5 64 be 27 5b 6b bf
       -0.50551873 -0.17192398 -0.22328845 -0.9193596
000370 0d d9 5f be fa 91 e1 bd a7 ef ac be 8b 0c a4 3d
       -0.21860142 -0.11014171 -0.3377659 0.08010205
000380 72 e8 15 be 11 7e ec be 11 8b 54 3e f7 2c 01 be
       -0.14639452 -0.4618993 0.20756175 -0.12614809
000390 7c 68 66 bd ef dd 01 bd 57 55 38 be ea 8b 8c be
       -0.056251988 -0.031705793 -0.18001305 -0.27450496
0003a0 d8 5e e9 bd 35 5a 7d 3d a8 74 30 bd 2e e3 13 3d
       -0.11395043 0.061853606 -0.043080002 0.036105327
0003b0 d1 86 aa bd e4 28 6b 3d dc e1 33 3d 45 5a 88 bd
       -0.083264954 0.057412043 0.04391657 -0.066578425
0003c0 ae de 18 bf 4c f9 00 bf 23 12 1a bf 70 be 74 bf
       -0.5971478 -0.50380397 -0.60183924 -0.95603085
0003d0 e6 d1 80 be 6d 65 50 bf 73 eb 44 bf 4a e2 86 bf
       -0.2516014 -0.81404763 -0.76921767 -1.0537808
0003e0 65 e7 2a 3e d0 bb 80 3d a8 9e a5 3c 34 3d 6a 3d
       0.16689833 0.062858224 0.020217255 0.057187274
0003f0 cb 02 95 be 98 b3 5d be 0a 61 be be 4a e4 93 be
       -0.29103693 -0.21650541 -0.3718341 -0.28885108

bias f4 [16]
000000 2e f3 40 3e 1a 42 85 bd 2a af ac be 8a dc a8 be
       0.18842766 -0.065067485 -0.3372739 -0.32980758
000010 11 14 9c 3e 19 20 b2 be 7d 2e d4 bc 54 7e d1 be
       0.3048406 -0.34790114 -0.025901074 -0.40916693
000020 dd e8 0f bf fe 9c b4 bd b6 26 34 bf 5f 98 9e be
       -0.56214696 -0.088190064 -0.7037157 -0.30975625
000030 3a bc 02 3f 99 dc d7 be 59 85 44 be ba cb 85 3e
       0.5106846 -0.4216049 -0.19191493 0.26131994

weight f4 [16, 16, 5]
000000 1d 2f 1a be 44 9e da 3c 9d 29 7b be 66 d5 8e bd
       -0.15057035 0.026686795 -0.24527593 -0.06974296
000010 ee c4 e3 bd 0c 8a 29 3e 95 bb b4 bc 81 04 ae 3c
       -0.11121546 0.16556567 -0.022062102 0.021242382
000020 f3 30 b6 3d da e8 8e 3d 96 68 4a 3d 72 cb 53 bc
       0.08896055 0.06978007 0.049416147 -0.012926923
000030 b7 52 1f ba 24 e0 55 be a3 c0 0b be 13 2f 73 3e
       -0.0006077694 -0.20886284 -0.13647704 0.23748426
000040 91 73 8b 3e 74 be 89 3e 12 e4 31 3e e3 73 35 3e
       0.27236608 0.26903117 0.17372158 0.17719989
000050 c6 46 42 3e 33 40 80 3e e1 d9 37 3e 68 25 47 3e
       0.1897231 0.2504898 0.17954208 0.19447863
000060 4b a4 2f 3e 88 d0 8a 3e 28 4e 37 be 07 65 09 3e
       0.17152517 0.27112222 -0.17900908 0.13417445
000070 9c ea d1 3c 1f 58 74 3e f8 56 3f 3e 97 bd 91 3e
       0.025624566 0.2386174 0.1868552 0.28464958
000080 57 5d c6 be 61 bb 25 bf cc a3 bc 3e 07 d8 6b be
       -0.38743088 -0.6473904 0.36843717 -0.23031627
000090 85 b3 ef 3a 80 07 c7 3d 2d b0 67 3d 2b c9 b1 bd
       0.0018287754 0.097182274 0.0565645 -0.08680948
0000a0 7c 62 49 be 81 07 c7 be 8d ec 09 be 04 71 5c bd
       -0.19666475 -0.38872913 -0.13469143 -0.053818718
0000b0 e8 23 75 bd 88 da 16 bf e8 74 1b 3f b8 51 82 bd
       -0.059848696 -0.589272 0.6072526 -0.06363243
0000c0 d1 4d fe bd bf 8f d4 3c 55 fc 14 be 6d 82 72 3e
       -0.12417186 0.02594745 -0.14549382 0.23682566
0000d0 38 57 14 3e 5e af 1a be 47 9e 9b bd e5 35 27 3c
       0.14486396 -0.1510596 -0.075985484 0.010205721
0000e0 57 81 0d bd f8 73 b7 3d 28 8a 58 be 9b ee d6 bc
       -0.034547176 0.08957666 -0.21146452 -0.026236823
0000f0 93 96 89 bd 44 8a 8d bb f6 38 af 3c a3 9d 0f 3d
       -0.06718173 -0.004319461 0.021389466 0.035062443
000100 e9 b2 46 bd a1 e4 69 be 62 f9 f3 3d a9 cf ed bc
       -0.048510466 -0.22841121 0.119128 -0.029029684
000110 65 c2 ce 3e 00 50 8d 3d af 29 e0 bc 07 97 96 3d
       0.40382686 0.069000244 -0.027363626 0.07353025
000120 a5 97 b9 bb 93 fc 03 3e ae 01 f2 bb ae 16 64 3e
       -0.0056638294 0.12889318 -0.007385454 0.22274277
000130 5d 19 82 3e 0b 15 04 3f 9b 9e 96 3e 4a e3 45 3e
       0.25409976 0.5159461 0.2941788 0.19324985
000140 6e 4b 45 3d 03 1d dc 3d 67 d5 9c 3b 6a 7a 3e 3e
       0.04816764 0.10747721 0.0047861817 0.18601385
000150 48 3f 62 3d 5f a6 29 3e a4 0d 6b bd a7 82 90 bc
       0.05523613 0.16567372 -0.057386056 -0.017640425
000160 df 8d ce bc b1 b7 1d 3d 3d eb 8d 3d 6d fd 6c 3c
       -0.025214134 0.03850526 0.06929634 0.014464718
000170 5a 30 b0 bc 16 b4 36 3c f0 2c 90 3d f8 d8 73 be
       -0.02150743 0.011151334 0.07039821 -0.23813236
000180 00 c1 56 3d b0 15 0a 3e 5c e9 57 3e 73 90 10 be
       0.052430153 0.13484836 0.21085113 -0.14117603
000190 23 2a c7 bd 9e d5 96 bd fd 11 21 be 9e ac 08 be
       -0.09724834 -0.07364963 -0.15729518 -0.13347098
0001a0 13 fb a8 bd 46 2b 18 be af d9 13 be 80 9f 73 be
       -0.082510136 -0.14860258 -0.14438508 -0.23791313
0001b0 73 59 0b bf 50 cb 07 bd 12 5a 07 3e d8 5e 47 3e
       -0.54433364 -0.03315288 0.13217953 0.19469774
0001c0 6d d3 b1 3d e4 34 87 bd 20 fc 7f 3d 59 9e da 3c
       0.086829044 -0.06601885 0.062496305 0.026686834
0001d0 6a 0d a4 3e 7a dd a8 be 6b 7f 32 3d 89 6f 9a be
       0.32041484 -0.32981473 0.043578546 -0.3016322
0001e0 b3 86 fb be 9c a6 55 be ad c1 d1 3e a1 fc fa be
       -0.49126205 -0.20864338 0.40968075 -0.49020866
0001f0 0a ac 36 3e d7 e5 90 be e6 c8 ad be c6 35 33 3e
       0.17839065 -0.28300354 -0.33942336 0.17500982
000200 ae f6 86 bd 38 28 ce be ed c5 5c be c4 97 ff be
       -0.06590019 -0.4026506 -0.21559878 -0.49920475
000210 46 e5 96 3e e4 3d 95 be 2b 50 2d be 0b 02 02 be
       0.29471797 -0.2914878 -0.16925113 -0.12696092
000220 43 df 7f 3d e1 53 b7 3d 0e cd 2c be 68 ac 92 3d
       0.06246878 0.089515455 -0.16875097 0.0716179
000230 b0 b3 5d be da 0d 69 be 35 f2 30 be 8d f5 70 be
       -0.21650577 -0.2275919 -0.17279895 -0.2353117
000240 41 5e af bd 08 c9 93 be 46 0d 06 3e 9b 99 26 be
       -0.085628994 -0.28864312 0.13091001 -0.16269533
000250 c3 a3 2d 3e b3 29 21 3d bf 54 41 3e f4 d2 31 3d
       0.16957001 0.039346408 0.18879984 0.04341407
000260 dc e0 01 bd 55 57 8d bc 9b 01 fd 3d 6e 7f 69 be
       -0.031708583 -0.017253557 0.12353822 -0.22802517
000270 25 ae 3b be fc 5d e2 3b 02 57 56 be d5 a2 42 be
       -0.1832815 0.0069081765 -0.20931628 -0.19007428
000280 8d 19 d8 bd e1 71 ef be 07 8c 01 be c0 41 c2 be
       -0.105517484 -0.4676657 -0.12651072 -0.37940788
000290 6a 48 cc be c2 b6 c6 3c 6d de 8b bc 72 be 27 be
       -0.39898998 0.024257068 -0.017073834 -0.16381243
0002a0 ef 31 99 bd 86 c4 c3 bd 43 57 22 3d 65 b8 39 bb
       -0.07480227 -0.09558968 0.039634 -0.0028338667
0002b0 48 4c 93 bc d8 1e 4b bd dc c1 a6 bd 75 6e 43 3b
       -0.01798071 -0.04958996 -0.081424445 0.0029820476
0002c0 7f 2f f7 3d ff c8 87 3c cf 20 b9 bd 90 b5 ee 3c
       0.12069606 0.016575335 -0.09039461 0.02913931
0002d0 a8 85 e6 bd ba db c5 be 35 22 a6 be 09 59 85 be
       -0.11255962 -0.386442 -0.32447973 -0.2604449
0002e0 c0 bb 53 be 8f aa fe 3a bf 26 32 bd 13 aa 07 be
       -0.2067709 0.0019429493 -0.043493982 -0.13248472
0002f0 ce 0f ce bd 15 b9 ef bc 5d 48 17 be 6f 6b 10 bf
       -0.10061608 -0.029263059 -0.14773698 -0.5641393
000300 fc 50 f5 be 86 db 06 bf 94 2b d1 be e2 d7 b2 3c
       -0.4791335 -0.52678716 -0.4085356 0.021831457
000310 12 8f bd bd e4 98 5d bd 4a 8a 80 bd f2 10 b4 3d
       -0.09255804 -0.054100886 -0.062763765 0.087922946
000320 28 d1 f8 bd 06 f4 d1 3c 34 21 61 3d 26 c3 98 bd
       -0.121492684 0.025629055 0.054963306 -0.074590966
000330 d1 2c d4 bd 60 c8 f7 be 8a 93 10 bf 78 f2 f7 bd
       -0.103601106 -0.48395061 -0.56475127 -0.12106794
000340 78 07 1e bf 42 82 eb be 1a 7c f7 bd 2a ba d5 bd
       -0.61730146 -0.45997816 -0.12084217 -0.104358986
000350 40 4f 96 bd dc 61 1a be a7 5a fd bb e8 54 98 3a
       -0.073393345 -0.15076393 -0.007731754 0.0011621984
000360 00 71 cd bd b2 25 e5 bc 19 1d 16 3d 61 f3 a7 bd
       -0.10031319 -0.027972076 0.036648843 -0.08200718
000370 32 52 9e be b9 c0 89 be 49 2f 8a be ee 52 50 be
       -0.30922085 -0.26904848 -0.269892 -0.20344135
000380 e1 b3 d0 be 85 db 21 3c 4b b2 2e be bf fa 31 bc
       -0.40762237 0.009878998 -0.17060201 -0.010863005
000390 d0 6c 23 bd e1 8f bd bd 63 6e a1 3d 62 32 61 bc
       -0.039898694 -0.09255958 0.07882383 -0.013744922
0003a0 2d 92 b3 3b 39 ec cd bd ee 9b 4d bd 69 39 54 be
       0.005480072 -0.100548215 -0.050197534 -0.20725025
0003b0 f4 e9 67 be 77 6f f3 bd aa 40 e4 bd 5d c3 cc be
       -0.2264784 -0.118864946 -0.11145146 -0.399928
0003c0 a4 f7 11 3b 8e d0 c9 bc 7f cd bf bc 46 41 1d bc
       0.002227285 -0.02463558 -0.023413418 -0.009598082
0003d0 79 5f ed bd 62 2c b7 3c 43 49 40 bd f4 db 9e 3d
       -0.115904756 0.02236003 -0.046944868 0.077567965
0003e0 2f 5c 00 bb 99 7d b7 3c 47 02 df bc 4a d5 24 bc
       -0.0019586196 0.022398757 -0.027222766 -0.010060618
0003f0 0d 0e 95 be 20 28 9c 3d e7 d6 d6 bd a9 17 56 be
       -0.29112282 0.07624841 -0.10490208 -0.20907463

bias f4 [16]
000000 84 1c 65 3d a5 9c f9 3e 9a c7 d1 be 6f 79 9d bd
       0.055935398 0.48752323 -0.40972596 -0.07689177
000010 e9 af 3e bf d9 59 98 bf 17 83 60 be dd f8 0e bf
       -0.7448717 -1.1902419 -0.21925007 -0.55848485
000020 42 e9 92 bf 73 63 96 bf 10 b0 e1 be 58 ca 82 be
       -1.1477435 -1.17491 -0.44079638 -0.25545
000030 b7 96 22 bf a7 13 02 bf d3 08 e1 bf d3 12 09 bf
       -0.6351122 -0.5081124 -1.7580818 -0.5354435

weight f4 [16, 16, 5]
000000 07 7c cc 3e 61 9a 0a bf 5d 89 3e be e1 82 85 be
       0.39938375 -0.54141814 -0.18607087 -0.26076415
000010 25 f6 58 3d 9e 17 75 3e c6 a9 14 bf 52 03 80 be
       0.052969117 0.2393479 -0.58071554 -0.25002533
000020 65 bb 71 3c 0a 5c 17 be 08 6a 56 be 17 b7 6f 3d
       0.014754151 -0.14781204 -0.20938885 0.058524217
000030 99 ae 75 be 60 89 15 3f 3f e4 c0 be c2 0f 82 bd
       -0.23992385 0.5841274 -0.37674138 -0.06350662
000040 e4 f8 99 bf 65 96 80 3c 01 43 ad be 31 fb 8e be
       -1.202908 0.015696714 -0.33840182 -0.2792602
000050 6d a6 80 3e d4 55 35 be 83 3f c0 3d f1 6d 37 3e
       0.25126973 -0.17708522 0.09387114 0.17913033
000060 08 1d 29 3e 93 08 0f 3f ad 90 f1 bd c8 30 f2 bc
       0.16514981 0.5587246 -0.11795173 -0.029564276
000070 0d f7 0d 3f 63 ce 2b be 86 8e 9f 3d e7 dd f8 bd
       0.55455095 -0.16777949 0.07790856 -0.121516995
000080 3f 02 96 3e c9 31 a9 3c 9e e2 70 3c 30 5b 69 be
       0.2929859 0.020653622 0.014702467 -0.22788692
000090 b4 92 7e 3e cc 41 dd be b7 05 1f bf 5e de 7b be
       0.2486065 -0.43214262 -0.62118095 -0.24596545
0000a0 a6 4c f6 bc 26 07 31 3d 7b 3c e9 3e e5 ea 40 be
       -0.030065846 0.043219708 0.45553955 -0.18839605
0000b0 79 fc b6 be 87 21 27 3e 6e fe e3 3d 46 93 e0 be
       -0.35739496 0.16321383 0.11132513 -0.4386236
0000c0 24 3c dc be f9 16 dc 3e ab 07 01 be d9 63 75 be
       -0.43014634 0.42986277 -0.12600581 -0.2396387
0000d0 67 ea 9f be 45 12 c5 be a4 af 5b bd f5 29 80 3f
       -0.31233522 -0.384905 -0.0536343 1.0012804
0000e0 46 14 c5 3e 8f 98 80 3d a9 e3 7a 3e d2 02 69 3f
       0.3849203 0.06279098 0.24500908 0.9101993
0000f0 ca 89 78 be cc 31 97 3d 62 5b 89 be 2d 32 cf be
       -0.24271312 0.07382545 -0.26827532 -0.4046797
000100 15 38 f9 bd 56 2e 46 3e 76 7c 1b bd 10 ea a8 be
       -0.121689 0.19353613 -0.037960492 -0.32991076
000110 80 7e b9 bd da b9 ef bd 65 9a 74 bf e7 3d f5 bc
       -0.09057331 -0.1170537 -0.9554809 -0.029936744
000120 01 c7 c5 be b1 5c fd bd 1a 04 ce be 2e 2c c1 3e
       -0.3862839 -0.12371195 -0.40237504 0.3772902
000130 30 e3 be be 6a 14 19 3e 2a 92 a4 3c a0 26 a6 bb
       -0.37282705 0.14949194 0.020089228 -0.0050705224
000140 f1 81 fd be d3 f5 a4 bb d2 5b 44 bd 64 01 7d bc
       -0.495132 -0.0050341873 -0.04793913 -0.015442226
000150 60 9e 3e 3c 42 ce 80 3f 3b 3c 61 3e 4c 23 52 be
       0.011634439 1.0062945 0.21995632 -0.20521277
000160 35 26 e4 be a0 2c 81 be 05 7e 90 bc 5f da 53 3e
       -0.445604 -0.2522936 -0.017638216 0.2068877
000170 10 9f b3 3e 55 a9 0d 3f 8e 65 12 be 5a 8f 89 bf
       0.35082293 0.55336505 -0.14296553 -1.0746872
000180 d7 82 d9 3b 39 15 cd 3e 8c b2 41 3e ac 8b b2 3d
       0.006637912 0.40055254 0.18915766 0.087180465
000190 0b 17 d8 3d 99 c0 ab bd ff 81 c2 3e a4 cc 0e 3d
       0.1055127 -0.083863445 0.37989804 0.03486313
0001a0 6d a3 96 be 43 ae c3 be ca c2 a1 be b2 2c 22 bd
       -0.2942156 -0.3821889 -0.31593925 -0.039593406
0001b0 7e 21 2e bf 49 27 32 bf d9 70 82 c0 e1 49 9e bf
       -0.68019855 -0.69591194 -4.0762753 -1.2366296
0001c0 69 00 2b bf 7f 8a e6 be 75 76 88 be ff 77 e6 bc
       -0.667975 -0.4502754 -0.26652876 -0.02813339
0001d0 2b 97 c7 3e 62 c0 df bd 9f fa 29 3e de c5 5f bd
       0.3898252 -0.10925366 0.1659951 -0.05463206
0001e0 6c d6 d4 be dd 55 47 bd 83 40 ff 3e b6 61 ea 3e
       -0.4156984 -0.04866587 0.49853906 0.45777673
0001f0 f2 50 d5 be bd 77 03 bf 66 9f dd be 50 03 39 be
       -0.4166332 -0.5135458 -0.43285674 -0.1806767
000200 91 3a b2 3e 24 c8 92 bd 6f e1 89 3e 8f 02 0a 3e
       0.34810308 -0.0716708 0.26929805 0.13477539
000210 e2 68 68 3e 75 f4 aa be 5a 21 a8 be 40 8b 90 bd
       0.2269626 -0.3338963 -0.32837945 -0.0705781
000220 8e be 12 bf 61 7c 26 be 3a 88 a1 be 03 c6 0a bf
       -0.57322013 -0.16258384 -0.31549245 -0.5420839
000230 42 70 33 bd c9 63 0c be a7 1c a2 3c ab a0 30 bd
       -0.04380823 -0.1370994 0.019789053 -0.043121975
000240 68 03 06 be 62 59 20 bc e7 1e b2 bd 0c 15 5f 3e
       -0.13087237 -0.0097869355 -0.086973004 0.21785372
000250 b1 1f 8b 3e 76 cd dc be 6c b8 e6 bd 97 dd 0c 3d
       0.27172616 -0.43125504 -0.112656444 0.034391012
000260 35 46 d3 bd 83 5b 13 bd 6b 74 b4 3e 5d 81 a1 3e
       -0.10316125 -0.035975944 0.3524507 0.3154401
000270 0e 87 87 bd 22 67 2c 3e 5c ba a8 3e c4 0a a6 be
       -0.066175565 0.16836217 0.3295468 -0.3243009
000280 46 58 e5 bd 69 63 03 be 9d 40 ee bd 09 9f 4d bd
       -0.111984774 -0.1283089 -0.11633418 -0.050200496
000290 ce cc 2b be 14 7f d0 3c d9 7b 72 bd 0a 23 97 bd
       -0.16777346 0.02545122 -0.05920014 -0.0737973
0002a0 b5 c8 13 3d 72 28 71 bd 5e c4 73 bd 32 22 4c 3d
       0.03608008 -0.058876462 -0.059513442 0.0498373
0002b0 fc a1 a9 bd 60 c2 c9 bc bf b5 4c bc 55 fc d7 bd
       -0.08282849 -0.024628818 -0.0124945035 -0.105461754
0002c0 18 1e cd bd 87 76 47 bd 4a e3 98 bd 19 5a 3a bd
       -0.100155056 -0.04869702 -0.07465227 -0.04549608
0002d0 f4 57 c8 bd d0 93 5a 3d 62 41 6f 3d 2a 64 92 bb
       -0.09782401 0.05336362 0.058411963 -0.004467507
0002e0 36 ec 67 3b f6 99 d9 bd fc 4c e0 bd d3 4f 73 bd
       0.0035388595 -0.10625069 -0.109521836 -0.0594023
0002f0 82 39 02 be 24 e3 4a bd 8b f8 32 bd df 38 84 bd
       -0.1271725 -0.049533024 -0.04369406 -0.0645616
000300 36 bb 9f bc 47 86 20 be 2b 45 a2 3d 29 41 03 be
       -0.019498449 -0.15676223 0.07923349 -0.12817825
000310 7b ed 1f be f9 d0 3b 3d 30 c2 9f bc 4a dd b8 bd
       -0.15617935 0.04585359 -0.019501776 -0.090265825
000320 81 48 47 3d cb cd 22 bd 41 56 54 3c 4b 72 6d bd
       0.04865313 -0.03974704 0.012960018 -0.057970326
000330 fa 1a 98 3d fc 29 0d 3d f1 56 82 3b 74 34 92 bd
       0.0742702 0.034463868 0.0039776494 -0.07138911
000340 c1 29 da 3c 31 54 41 b9 7b 6e 8d 3d 46 a5 92 3d
       0.026631238 -0.00018437278 0.06905838 0.0716043
000350 6b 0e 9b 3d 48 ea b2 3d c7 99 78 3d 82 65 85 3c
       0.075711094 0.08736092 0.06069353 0.016283754
000360 03 f9 88 3b b8 a9 d2 3d 4f ca 96 3d 3c 92 63 3c
       0.004180075 0.102862775 0.07362806 0.013889845
000370 c0 08 c3 bd 6d 90 68 bb be bb f3 3c 3a 5c a1 3b
       -0.09523153 -0.0035486475 0.029752608 0.0049243243
000380 49 c6 e7 bb 14 55 2e be 8b 50 eb bd 9a 80 47 3d
       -0.007073198 -0.17024642 -0.11489972 0.04870663
000390 53 5a af bd e1 b9 4e bd 67 d3 0a be f9 59 fb bd
       -0.0856215 -0.050470237 -0.13557206 -0.1227302
0003a0 a9 7a 26 be 51 2d a7 bc 77 d7 10 be a1 25 91 bd
       -0.16257729 -0.02040735 -0.14144693 -0.07087255
0003b0 fb 8b 87 3d 74 ad 94 b9 7e 49 db 3c fc 6a 97 bd
       0.06618496 -0.00028357992 0.026768442 -0.073934525
0003c0 fc 2a 04 3f 39 06 39 3e e6 3a dd 3d ed 49 2c 3e
       0.5162809 0.1806878 0.108022496 0.16825075
0003d0 d2 81 1e be 32 7a 32 bf 64 62 8c be c8 81 b5 be
       -0.1547921 -0.69717705 -0.27418816 -0.35450578
0003e0 fd 0a 9f be b9 b1 b2 bd dd 54 13 be 74 20 84 be
       -0.3106307 -0.08725304 -0.14387842 -0.2580601
0003f0 f7 ac d9 be be 2e 66 3e 2f 70 96 be 73 8d 51 3e
       -0.42514774 0.22478768 -0.29382464 0.20464115

bias f4 [16]
000000 3d 7b 3a 3f 5d d3 7a 3e 0b 18 1f be 58 22 53 bd
       0.72844297 0.24494691 -0.15536515 -0.051546425
000010 ca 8c d3 be 59 a7 da be ea a1 bd be 53 25 ed bd
       -0.4131835 -0.427058 -0.37037593 -0.11579385
000020 35 a2 c8 be 8e 60 b2 be d4 e1 f5 3e fa eb 9e be
       -0.39186254 -0.3483929 0.48023856 -0.3103941
000030 7f 57 c2 be 57 ab 49 be 50 f7 3d 3f 8b bd 6a 3f
       -0.3795738 -0.19694267 0.74205494 0.9169547

weight f4 [64, 112]
000000 1c e1 6e bd 8d bb 90 bd a6 92 1b bd 18 9d 0c 3c
       -0.05832015 -0.070670225 -0.03798165 0.008582376
000010 2e 55 c7 bd b9 33 1b be 43 c3 39 bc 13 e9 21 bd
       -0.097330436 -0.1515645 -0.011338058 -0.039528918
000020 86 cb 85 bc 27 ec e3 bd 2f b6 f8 3a 0b a7 03 bd
       -0.0163324 -0.11129027 0.0018975193 -0.032141726
000030 37 94 95 bc 42 91 a2 bd 48 3e b1 bd fc 21 7e 3d
       -0.01825915 -0.07937862 -0.08654457 0.06204413
000040 1d 64 43 3d a4 1a b5 bd 80 37 ac 3d 72 c2 05 3c
       0.047702897 -0.08842972 0.08409023 0.008164035
000050 26 d6 87 3c 9d b7 ef bc ec 42 2e bd ce 3d 28 bb
       0.016581606 -0.029262358 -0.04254429 -0.0025671604
000060 f5 1e 06 3c 9b a7 a8 bc e4 3f ca bd a2 34 bd 3c
       0.008186092 -0.020587733 -0.098754674 0.023096386
000070 3d 1f 89 3c eb 7a 87 3c 61 03 60 bd 19 6d 83 bd
       0.016738528 0.016538104 -0.054690722 -0.06417293
000080 8f ab a5 bd f9 8f fc 3b 61 ed b5 bc 6c 0c 90 bd
       -0.08089363 0.0077075926 -0.022207918 -0.07033619
000090 e8 f1 14 bd 49 4c 0c be b8 29 b3 bb 60 00 32 bd
       -0.036363512 -0.13700975 -0.0054676197 -0.04345739
0000a0 52 21 dd bc bd b0 bc bd b1 49 ad bd 29 0f 5e 3b
       -0.026993427 -0.09213398 -0.08461321 0.0033883548
0000b0 70 56 7e bb f2 af 6b 3c 2b 6d 06 bd f9 ef a6 bd
       -0.0038808845 0.01438521 -0.032818954 -0.0815124
0000c0 a0 ec 4c 3c 29 2f 1b be c4 0d 05 be d3 c2 e4 bd
       0.012507588 -0.15154709 -0.12993532 -0.11169972
0000d0 29 60 0b be 0a 92 38 b9 05 c6 16 be 0f 5d 77 bd
       -0.13610901 -0.00017602011 -0.14723976 -0.060391482
0000e0 06 21 8d bd 97 54 b1 3d 52 e4 83 bb 0e 60 bf 3d
       -0.06891064 0.08658712 -0.0040250206 0.09344493
0000f0 43 9f 19 bd 7b 70 b7 3b 65 58 2f bd f0 4b 12 be
       -0.0375054 0.0055981255 -0.04280891 -0.1428678
000100 0a ba 13 bd 37 90 5d 3b 3c 9f 5e bb 3f c5 e1 bd
       -0.036066093 0.0033807883 -0.0033969423 -0.1102395
000110 b1 17 45 bc 23 96 bb bd 16 3c b8 bd f4 e8 b8 3c
       -0.012029574 -0.09159496 -0.089958355 0.022572018
000120 ee 6d bd 3c 59 06 65 bd dd f5 7a 3c c3 af e7 bd
       0.023123708 -0.055914257 0.015317407 -0.11312821
000130 4a f6 79 3c e2 3d 8d bd 5d e3 86 bd ce c5 23 3d
       0.015256474 -0.06896569 -0.06586335 0.039983563
000140 ef 1e 63 3d c8 36 af bd d8 f6 13 3d 76 d6 79 bd
       0.055449422 -0.085553706 0.03612408 -0.06099554
000150 e5 f7 04 be f1 1b ff bb de b6 93 bd fb 19 f3 3c
       -0.1298519 -0.0077853133 -0.072126135 0.029675474
000160 3a 93 89 bd 6d 3e 62 bc 74 13 67 bc e6 a0 ab bd
       -0.06717534 -0.013808829 -0.014103759 -0.08380298
000170 1d 8b 04 be b6 7e b1 bd 2c f5 0b be 49 ab b6 bd
       -0.12943693 -0.08666746 -0.13667744 -0.08919389
000180 ee 9e 86 bc 42 62 b2 bd d0 f8 f2 3c 10 55 c6 3c
       -0.016433205 -0.087101474 0.029659659 0.024210483
000190 59 02 ee bd fe 59 d8 bd bc b3 56 bc 84 f2 83 3c
       -0.116215415 -0.1056404 -0.013104375 0.016106851
0001a0 8c fc 02 be bd c1 86 bd 12 d0 5e bd b8 c5 16 be
       -0.12791651 -0.065799214 -0.05439765 -0.14723861
0001b0 12 13 01 bc 1b 6c 07 3d a0 1b c0 3c 89 66 f1 3c
       -0.007878082 0.03306208 0.023450673 0.029467838
0001c0 5a 8b 28 3d 22 66 bb bd 13 6f da bc 02 09 92 bd
       0.04114852 -0.0915034 -0.026664292 -0.07130624
0001d0 63 29 3b bc e5 bb 05 be 97 f2 ed bd fb c8 1f 3d
       -0.011423442 -0.13059957 -0.11618536 0.03901003
0001e0 04 e6 9b bc 44 f4 87 bd 5f 54 1e bd b4 f7 3a 3d
       -0.019030578 -0.06638387 -0.03865468 0.045646384
0001f0 59 2e 10 be 99 94 41 3d fe 62 83 3d b3 f2 2b 3d
       -0.1408018 0.047260854 0.06415366 0.041979503
000200 2e 83 66 bd 6e 19 df bc e7 6a 1e 3d 5c f8 6a bd
       -0.056277446 -0.027233806 0.03867617 -0.05736576
000210 17 43 6c 3d 77 e9 da bd 63 c6 ae bd b5 e2 09 be
       0.05768117 -0.10689061 -0.08533933 -0.13465388
000220 de 99 f9 bd 0b ed a0 bd 39 6a 2e 3d b7 04 2d bd
       -0.12187551 -0.07857712 0.04258177 -0.042240825
000230 c1 e3 8e 3d 48 bb b4 3c 69 99 cb bd 88 e7 ff bd
       0.06977034 0.022061959 -0.0994137 -0.12495333
000240 03 65 6b bc 65 7c 86 3a eb 7e 27 bd 5c af 15 3e
       -0.014367345 0.0010260461 -0.040892523 0.14617676
000250 90 0f bc bd 55 83 0b be 12 29 eb bd b3 72 81 3b
       -0.09182656 -0.13624318 -0.11482443 0.003950441
000260 27 f9 f2 3c 64 e5 4c bd c9 f0 03 bd 56 46 5c 3d
       0.02965982 -0.05002345 -0.032212052 0.053778015
000270 93 2f b9 bc 3d 56 bb 3b 61 82 89 3d 78 bd 06 3d
       -0.022605693 0.0057170675 0.06714321 0.032895535
000280 e9 ba 50 3b 80 dd d0 bd 87 17 b7 bd 78 0d b8 bd
       0.0031849688 -0.10198498 -0.08940034 -0.08986944
000290 09 f7 3a bd 17 7c bb bc a7 1f 48 bd c5 ef 12 bd
       -0.045645747 -0.02288632 -0.04885831 -0.035873193
0002a0 61 45 b1 be 30 ee ee 3d ab 12 0b be fd fb ee bd
       -0.34623244 0.116665244 -0.1358134 -0.11669157
0002b0 a7 53 27 be c2 aa bd bc 22 11 b3 3d c3 c6 38 3d
       -0.16340505 -0.023152713 0.08743502 0.04511143
0002c0 26 df b2 bb 6b 83 5f bd ca 83 c7 bd be 46 6f bc
       -0.0054587303 -0.05456869 -0.09741934 -0.014604269
0002d0 21 ea ec 3c e7 01 4f bd 59 67 8d bb 09 4a 94 bc
       0.028920235 -0.050538924 -0.0043152985 -0.018101709
0002e0 b9 61 8b bc 36 fa 4e 3c 23 29 df 3c 4a d2 9c bd
       -0.017014371 0.012632897 0.027241295 -0.07657297
0002f0 e3 8c de bd c9 38 e7 3d 74 d7 88 3d 8d b4 89 3d
       -0.10866716 0.11290128 0.066817194 0.067238905
000300 28 e2 af 3d 24 f5 19 bd 9f 99 79 3d 67 7a cc 3c
       0.08588058 -0.0375873 0.06093752 0.02496071
000310 a8 cc 5b bd 6c bf 0a 3d 79 19 62 3d 43 c8 4b bd
       -0.053661972 0.03387396 0.055200074 -0.04975153
000320 70 c4 02 be 38 54 a2 bd d4 11 75 bc f0 b4 d8 bd
       -0.12770247 -0.0792622 -0.014957864 -0.10581386
000330 57 9c 80 3c 67 46 ff bd e0 98 30 bd 46 de c2 bd
       0.015699549 -0.124646 -0.043114543 -0.095150515
000340 66 44 af 3a 62 fa af 3b 7f e5 84 be 62 30 90 be
       0.0013371825 0.005370424 -0.25956342 -0.28161913
000350 cd 0f 9e bd fd 16 81 bd a1 bf 8d be a7 14 39 be
       -0.077178575 -0.06303213 -0.27685264 -0.18074284
000360 37 60 bb bd 84 85 6a 3d 92 0c 02 3e 12 ce 9b bc
       -0.09149211 0.057256237 0.12700108 -0.01901916
000370 d5 a6 91 3c 91 6c 18 3d 9e 51 2e 3c e5 8f 50 bd
       0.017779747 0.037212912 0.010639576 -0.05091848
000380 c5 2e 9c bf ce 8a 81 bf 90 28 1f 3e 81 5a 8f 3f
       -1.2201773 -1.0120485 0.15542817 1.1199495
000390 1e 44 cb be 72 43 3e bd be ad 8e be 37 34 eb 3e
       -0.39700407 -0.04645104 -0.2786693 0.45938274
0003a0 d2 2c a3 3f 0d 62 ba be fa 16 fb bc 14 0b 6a 3f
       1.2748053 -0.36402932 -0.030650605 0.91423154
0003b0 b5 7a 97 be 47 1e a8 be 90 60 94 3d 49 83 da 3c
       -0.29585806 -0.328356 0.0724498 0.02667393
0003c0 2f d2 40 3d da 67 84 b8 7d d5 be bd 40 57 c7 bc
       0.047075447 -6.313594e-05 -0.093180634 -0.024333596
0003d0 70 f6 bb 3d d9 d7 49 bf 14 e0 f1 bd 72 fe 1a bf
       0.091778636 -0.7884498 -0.11810318 -0.605445
0003e0 98 b2 e8 3d 24 d1 ef be de c1 68 bf 3c 61 80 bf
       0.11362189 -0.4683925 -0.9092082 -1.0029674
0003f0 91 7a 9a be 57 01 d1 3d aa df 87 3c 1c 5f 73 be
       -0.30171636 0.10205334 0.016586144 -0.2376675

bias f4 [64]
000000 41 a4 df bd f0 4a 45 bb 9f bf 82 3f 7f 89 f3 be
       -0.10920001 -0.003010448 1.0214728 -0.4756584
000010 e0 34 ce 3e 83 d7 95 3f 37 51 ab 3e 4d 41 e3 be
       0.40274715 1.1706394 0.334604 -0.44385758
000020 e9 63 92 3f 24 0d 0d be d9 76 0a be 48 e0 09 be
       1.143674 -0.13774544 -0.135219 -0.13464463
000030 6d 0a 39 3f 49 01 7a be 9e 1e 90 bd 31 be f5 3f
       0.72281533 -0.24414553 -0.0703709 1.9198667
000040 8b 90 91 bc 8d d6 6a 3f bf 76 18 be 0d 4e d3 bd
       -0.017769119 0.9173363 -0.14889048 -0.103176214
000050 cf d5 9a 3e 2f 09 2b bd 81 78 c4 be d2 cf 91 3e
       0.30241248 -0.041756805 -0.38373187 0.28478867
000060 1b 07 a3 be b2 c2 7e 3f e9 18 68 be 6a c4 2e bc
       -0.3184136 0.9951583 -0.22665752 -0.010666946
000070 5b 33 08 bc e5 22 65 3c 97 72 02 be a9 66 dd be
       -0.008313025 0.01398537 -0.12739025 -0.43242386
000080 73 f4 1b be 64 ce e4 bd 5f a1 13 be dd 8d 5f bd
       -0.15229969 -0.111721784 -0.14417027 -0.05457865
000090 7b 97 71 3e 21 4f 0a be 6c 4e b9 bd 8b fa 8e bd
       0.23592941 -0.13506748 -0.09048161 -0.06981381
0000a0 df cf a5 be 69 7c b5 be 83 29 61 bf 08 9e 25 bf
       -0.32385156 -0.3544648 -0.87953967 -0.6469426
0000b0 4d f2 97 be 54 4b 55 bd b6 74 cd be cf 55 6b be
       -0.29677048 -0.05207379 -0.40128106 -0.22981952
0000c0 9a 8f e4 3b e9 7b ee bd 82 09 61 bd 60 8b 84 bd
       0.0069751265 -0.11644728 -0.054940708 -0.06471896
0000d0 74 b8 e2 be 99 53 54 bf e4 68 03 be 0f 04 b4 3e
       -0.44281352 -0.8294006 -0.12832981 0.35159346
0000e0 de b9 06 c0 6b f0 65 be 82 4b 48 bc 7f 1b 2d bd
       -2.1050944 -0.22454993 -0.012225034 -0.04226255
0000f0 7a 1b ee be 84 58 af bd 67 26 b8 be 88 86 0c 3f
       -0.46505338 -0.08561805 -0.359668 0.5489278

weight f4 [32, 64]
000000 3b a8 00 be 09 92 e2 bd 59 4c 00 be c1 00 e2 bd
       -0.12564175 -0.1106301 -0.12529124 -0.110353
000010 1f 12 14 3d 38 1d fe bd 7e 40 1a be 44 bd fb bd
       0.036150094 -0.12407917 -0.15063664 -0.12291959
000020 0c fc 12 bd 29 72 33 be 11 69 11 be 54 db 2f bd
       -0.035884902 -0.17524017 -0.14200236 -0.042933777
000030 3c 6e 0c 3d 0f f6 05 3c d0 3a 33 be 7e fb 1e be
       0.034284815 0.008176341 -0.17502904 -0.15525624
000040 ab 30 d9 bd 71 29 10 3d 8c de 60 3d 26 61 19 be
       -0.10604986 0.03519577 0.054899737 -0.14978465
000050 4d ff 19 bd 8b 9d be 3a 4e e5 d8 3d 6c 4a 38 be
       -0.03759699 0.0014542801 0.105906114 -0.1799714
000060 0f 29 b4 bd c6 af 48 bd 3d dd 18 bd 3e 18 f1 bd
       -0.08796894 -0.048995756 -0.037320364 -0.11772202
000070 24 01 cb bc 2e b1 7f bc ab d8 34 be 6b b3 df 3c
       -0.024780817 -0.015606208 -0.17660777 0.027307233
000080 7c 4d c8 3d 09 1e 28 be 67 9f d2 3b dd a4 40 3d
       0.09780404 -0.16417708 0.0064276936 0.047032226
000090 b4 b0 43 3d e2 8b ec 3c f0 36 57 bc 50 d6 66 bc
       0.04777594 0.028875295 -0.013135657 -0.014089182
0000a0 64 7f af bd 01 a8 41 3d bf ba 91 bb 35 96 99 bd
       -0.0856922 0.04727936 -0.0044473107 -0.07499353
0000b0 46 af a0 bd 2a 23 9d bd ee f4 da 3c e4 ce 0f be
       -0.07845931 -0.07672723 0.02672812 -0.14043766
0000c0 e5 1e f2 3b 50 91 ce 3c f8 66 11 be 2c 82 e8 bd
       0.007388937 0.025215775 -0.14199436 -0.11352953
0000d0 a7 5e fe 3c f9 22 73 bd 9c 94 e8 3d fa e7 93 bd
       0.031050993 -0.059359524 0.1135647 -0.072219804
0000e0 9d 66 da bd 0f 49 f6 3c 84 52 3a be 8e 9f 93 bd
       -0.10664103 0.030064134 -0.1819554 -0.07208167
0000f0 f8 19 16 3d 43 f6 84 bd 62 04 48 3d 26 99 19 be
       0.03664586 -0.06492283 0.048832305 -0.14999828
000100 30 2c 4a bc 07 af 82 bc 6c 1c b0 be dd 50 be be
       -0.012339637 -0.0159526 -0.34396684 -0.3717107
000110 71 fc db bd d4 75 db bd d1 f2 a0 be 28 4f 18 be
       -0.10741509 -0.10715833 -0.31435254 -0.14873946
000120 f0 f9 91 be d8 2b fe 3c dc 01 01 3d 90 0a 55 3c
       -0.28511 0.031026766 0.031495914 0.013003007
000130 c4 1c 9f bc be d1 66 bc 28 84 ce 3c 2a 95 ee bd
       -0.019422896 -0.014088092 0.025209501 -0.116495445
000140 38 24 ec 3c 68 23 b2 bd 38 b0 b4 3d a6 fe d0 bd
       0.028825864 -0.086981595 0.088226736 -0.1020482
000150 4f 10 8c bd 5c 0f 94 bd 00 b8 0c 3c 12 44 9b bd
       -0.06839048 -0.07229492 0.008588791 -0.07581343
000160 f0 28 88 bd 5d 02 ce be e0 c0 9d 3b 84 cb c5 bd
       -0.06648433 -0.40236178 0.0048142523 -0.09657958
000170 48 c5 fc bc d5 68 e0 bd a8 65 69 3d e0 4c 7b bd
       -0.03085579 -0.10957495 0.056981713 -0.06135261
000180 ec ff 8a bd 0b e3 b9 be f0 77 ba 3c 8f 74 80 bd
       -0.067870945 -0.36306033 0.022762269 -0.06272232
000190 23 77 ed bd 78 97 bf bc 34 2f 74 bd 84 43 3f bd
       -0.11594989 -0.023387656 -0.05961533 -0.046695247
0001a0 44 38 b0 bd 8d be 9f be 20 23 f4 bd c0 ba fd bd
       -0.08604482 -0.31200066 -0.11920762 -0.12389135
0001b0 92 7e 9c 3d b8 63 d5 bd c2 9f bf bd 80 12 a5 3d
       0.07641329 -0.104194105 -0.09356643 0.08060169
0001c0 00 d8 ff 3d 78 f1 e3 bc e8 36 9c 3c 06 73 c5 3d
       0.124923706 -0.027825102 0.01906915 0.096410796
0001d0 ee 3b ec 3d 3e bb b0 be 00 21 fa 3b dc 99 8c be
       0.11534868 -0.34517854 0.0076333284 -0.27461135
0001e0 a4 b0 b9 be 44 d7 0e bd 50 2e 95 3c fe 05 d0 3d
       -0.3626758 -0.034873262 0.01821056 0.10157393
0001f0 80 15 f7 bc 77 2e 19 bc fc 95 82 be 56 8c b0 bd
       -0.03016162 -0.009349457 -0.25505054 -0.08620517
000200 14 bc a1 3d e6 70 f0 bd 05 bf df 3b a2 d9 f3 bb
       0.07897201 -0.11740284 0.006828191 -0.0074417153
000210 71 11 f7 bd a6 3c 21 3d a6 d5 91 bd db 1b 35 bd
       -0.120638736 0.03936448 -0.07120828 -0.04421602
000220 78 f9 a5 bc e1 04 9e bc 80 d9 18 bb de 02 ff bd
       -0.020260558 -0.019289436 -0.0023323 -0.12451719
000230 72 82 39 be 20 37 e7 3c a5 55 f2 3d 29 55 0b be
       -0.18116167 0.028224528 0.11832742 -0.13606705
000240 8c 94 a1 bd ea a0 15 be a9 4b 65 bc 26 38 ce 3d
       -0.07889661 -0.14612165 -0.01399509 0.10069303
000250 f6 cf 2f bd c9 d3 e1 bd 30 04 76 bd d2 b7 04 be
       -0.042922936 -0.11026723 -0.060062587 -0.12960747
000260 6b d8 a8 bd 71 29 64 3c 07 20 24 be 5d 3c 01 be
       -0.082444035 0.013925896 -0.16027842 -0.12620683
000270 17 fe 0e be 49 76 7d 3c 39 52 dd bb 3d 06 4d 3d
       -0.13964115 0.015470096 -0.0067541865 0.050054777
000280 1d 2b f6 bc ce bc 11 be c6 57 af 3c 4a ef 2d be
       -0.030049855 -0.1423218 0.021404158 -0.16985813
000290 4c 94 4b be a4 9f 54 3d 28 e2 b1 3b 58 c8 7f 3d
       -0.1988079 0.051910058 0.0054285713 0.062446922
0002a0 b6 af e9 3d 55 71 b7 3c ed b0 12 be d2 43 b7 3c
       0.11410467 0.022392908 -0.14325304 0.022371206
0002b0 b1 ca 99 bd 4d 25 44 bd 17 6e 0c be bb 2c c3 3d
       -0.075093634 -0.047887135 -0.13713871 0.09530016
0002c0 80 9e d9 3d be 7a 96 bd 6c 0c 8b bd f4 a1 17 3d
       0.106259346 -0.0734763 -0.06789479 0.037019685
0002d0 25 e5 62 3b 30 47 0f be 38 01 2c 3e c1 4e cc bc
       0.0034621444 -0.13992 0.1679734 -0.024939897
0002e0 87 cd 83 bd e3 d4 d6 3d 97 bc 96 bd c4 65 d5 bd
       -0.064356856 0.10489824 -0.073601894 -0.10419801
0002f0 98 50 38 3d c9 d1 4a bd da 88 d6 bc 81 7d 2c be
       0.044998735 -0.049516473 -0.026188303 -0.16844751
000300 c3 e1 eb bd 34 75 07 3c 6d d6 39 be 3d 1b e3 bd
       -0.1151767 0.0082676895 -0.18148203 -0.1108918
000310 e0 ad 31 bd 72 5a 3d bc 14 37 7f bd 66 28 23 be
       -0.04337871 -0.011557208 -0.062308386 -0.1593338
000320 d7 4c 32 be 69 11 b1 3c 8d 1f 2a 3d 42 b6 73 bd
       -0.17412125 0.021614747 0.041533995 -0.059499986
000330 ce a1 4a 3c 62 0d 07 be 8c f3 11 3d 77 0d dd 3a
       0.012367679 -0.13188699 0.035632655 0.0016864975
000340 d3 a9 cc bd f6 6a aa bd 80 54 6b bb ba 50 12 bd
       -0.09993329 -0.083211824 -0.003590852 -0.035721518
000350 af 5f f0 bd cb 27 28 be b0 2b 86 3d 4a 47 92 3a
       -0.11737 -0.1642143 0.065513015 0.0011160162
000360 b5 41 7a bd be 57 4c bd 2d 98 89 bd db 8e f8 bd
       -0.06109782 -0.049888365 -0.06718478 -0.121366225
000370 ba 65 8a bc 7c c1 32 bc a7 2f 6d 3c 27 ed af bd
       -0.01689421 -0.010910388 0.014476693 -0.08590155
000380 d1 d0 36 be 18 04 c3 3c 9d eb 8f bd 4d 85 f4 bd
       -0.17853095 0.023805663 -0.070273615 -0.119394876
000390 92 5d c2 bd 56 33 60 3c 62 94 0b 3d 35 55 85 bd
       -0.09490503 0.013684114 0.034077056 -0.065103926
0003a0 aa dd 90 bd a3 cc c7 bc 05 f9 28 be a8 c2 31 bd
       -0.07073529 -0.02438957 -0.16501243 -0.04339853
0003b0 ba 53 32 3b b0 70 f6 bd 26 f0 28 bd c4 7f ed bc
       0.002721055 -0.12033212 -0.04124465 -0.028991587
0003c0 80 21 17 be c4 ab c5 3d 4d 5c 1c be 70 09 b5 bc
       -0.14758873 0.09651902 -0.15269585 -0.022099227
0003d0 ae 28 f4 bd 50 76 48 be 43 fd bf bd 2a f6 24 bd
       -0.119218215 -0.19576383 -0.09374478 -0.040273823
0003e0 8a dc 1a be 94 9e 1e be 19 02 4f 3d 18 e9 4e 3c
       -0.15123191 -0.1549018 0.05053911 0.012628816
0003f0 a9 6e 44 3d f8 bf e7 bd 5f 30 66 3d 50 04 24 be
       0.047957096 -0.11315912 0.056198474 -0.1601727

bias f4 [32]
000000 13 e3 06 be 41 93 f6 be 9b 52 fe bd f0 cc bc bd
       -0.1317256 -0.4815922 -0.124180995 -0.09218776
000010 68 15 76 be 3e b9 93 3f df ef a3 be b2 ce 10 3d
       -0.24031603 1.1540906 -0.32018945 0.03535337
000020 08 c1 88 be c8 a3 e8 be e0 51 96 be 7d 83 a1 be
       -0.2670977 -0.45437455 -0.2935934 -0.3154563
000030 c6 93 b2 be 59 9d 30 3f f3 27 a0 be 96 37 90 be
       -0.34878367 0.68990093 -0.3128048 -0.2816741
000040 d8 40 db be 26 8d c7 3e fe ad 19 3d cb 88 28 be
       -0.4282291 0.38974875 0.037519448 -0.16458432
000050 1e 36 29 bd e9 9b 87 be 66 21 b6 be 6c 3a d2 3e
       -0.041311376 -0.26486138 -0.35572356 0.41060197
000060 df 4f a6 be 8a 5f 39 be 54 cf 3b be e1 02 18 be
       -0.32482812 -0.18102852 -0.18340808 -0.14844848
000070 b8 fb 4a 3f 10 fe 1f bc 8e 26 b5 bc 01 84 27 be
       0.7929034 -0.009765163 -0.02211311 -0.16358949

weight f4 [26, 32]
000000 2e df f2 bc 5f bf 96 3e 2b fd ba bd 0f 25 d9 bc
       -0.029647436 0.2944288 -0.09130319 -0.026506929
000010 d3 b9 93 3d 68 08 10 bf 45 d9 80 be d4 c9 78 3d
       0.072131775 -0.56262827 -0.25165763 0.060739353
000020 d7 ea ce be d9 33 8e bc 59 5a c2 3d c8 28 b9 3c
       -0.40413544 -0.017358707 0.09489889 0.022602454
000030 99 12 22 be 62 7e 8b 3d 82 da 07 bf 5b ef 97 3d
       -0.15827407 0.06811215 -0.5306779 0.074187
000040 0b c0 4b be 6b 44 00 3f ed da 4c 3c d9 04 a6 bd
       -0.19897477 0.501044 0.012503368 -0.08106393
000050 79 75 0e 3e 1c 01 1f be aa fb d8 bb d0 86 04 3f
       0.13912 -0.15527767 -0.0066217976 0.5176821
000060 bd 7e 30 be 14 08 0c 3e 79 93 f7 bd f7 12 96 be
       -0.17235847 0.13674957 -0.12088675 -0.29311344
000070 7b 08 3f be f3 b1 b5 bd 0d 41 29 3e 58 07 79 3d
       -0.18655579 -0.08871832 0.16528721 0.06079802
000080 55 45 46 3c 4e e3 b0 3e 49 b5 b1 bd 04 d7 4a be
       0.012101491 0.3454842 -0.086771555 -0.19808584
000090 8c 0a b6 bd 7c 3a 0e bb 37 a6 b2 3e 01 2b 98 bd
       -0.088887304 -0.002170234 0.34892437 -0.07430077
0000a0 98 a9 de bd 4f 99 94 be e3 8c a7 be 70 c8 00 be
       -0.10872191 -0.29023215 -0.32724676 -0.12576461
0000b0 ab a0 21 3e 74 7f ca 3c b8 ef ba be 02 d2 26 bf
       0.15783946 0.024718978 -0.36511016 -0.65164196
0000c0 f3 41 39 be cd 61 88 bc 14 b6 86 bd 12 74 de 3d
       -0.18091564 -0.016648198 -0.065776974 0.108619824
0000d0 af c8 04 3e 46 35 89 3d bb f4 4d 3e d0 cf 14 bc
       0.1296718 0.06699614 0.20112889 -0.0090827495
0000e0 cb 63 d6 3e 86 4a 84 3e f7 bb 83 be 42 e3 98 bd
       0.4187301 0.25838107 -0.25729343 -0.07465221
0000f0 f6 94 4f bd ef 37 07 3d ed 7d 31 3e 3c 76 d6 3c
       -0.05067917 0.033012327 0.17333193 0.026179425
000100 59 ed 84 3d a8 8e 82 be ab 2e 5e bd 43 ad 01 3d
       0.06490583 -0.25499463 -0.054243725 0.031659376
000110 fa 2a 07 3e 7c 14 e0 3b be 19 d1 bd 20 43 0f be
       0.13199988 0.0068383794 -0.10209988 -0.1399045
000120 44 ac ab be 77 64 42 bd 0e 4d 67 3e f4 6f 88 3d
       -0.33529866 -0.047459092 0.22587988 0.06661978
000130 00 23 64 be 6c 8e 07 3f 2e d5 98 be 87 b7 20 be
       -0.22278976 0.52951694 -0.29850143 -0.1569501
000140 88 65 d2 3d 1d b1 a5 3d 52 22 94 3d 19 c1 45 3c
       0.10273272 0.08090422 0.072331086 0.012069964
000150 42 c5 98 3c 45 9d 41 bb 79 6d 88 be 11 20 ff be
       0.018648747 -0.0029543203 -0.2664602 -0.49829152
000160 b7 bc 40 be bb 20 ef bc 16 ae df 3d 6f f1 59 be
       -0.18821989 -0.029190412 0.10921876 -0.21283506
000170 18 33 e8 3c 91 94 21 bc a3 03 40 bc 3b 03 1d be
       0.028344676 -0.009862081 -0.011719617 -0.15333264
000180 f2 fe 90 bd 58 30 86 3e 49 07 94 3c e8 db a7 bd
       -0.07079877 0.26208758 0.01806988 -0.08196241
000190 47 27 f7 bd 38 50 df bc f1 72 de be e8 c6 63 3c
       -0.120680384 -0.027259931 -0.43447068 0.013902403
0001a0 e2 d0 a3 3c 34 b3 4f be 15 01 8c 3e 17 a1 74 3d
       0.019997064 -0.20283204 0.27344576 0.05972394
0001b0 e1 04 93 3e 78 b9 80 3c 80 75 c7 bd 14 42 dd be
       0.2871466 0.015713438 -0.09739208 -0.43214476
0001c0 14 20 83 be cb d0 2c bc bc f4 19 3e 5b 3c 84 bd
       -0.2561041 -0.010547827 0.15034765 -0.064568244
0001d0 ff 15 90 bc 88 9a 91 bc d6 f3 91 be 32 43 4f bc
       -0.017588614 -0.017773882 -0.28506345 -0.012650298
0001e0 7e ac 8d be 84 4e ab bd af 96 05 be 0d d1 a3 bd
       -0.27670664 -0.08364585 -0.13045762 -0.07998858
0001f0 10 0d 1f bc 98 67 fe bc ed 11 b5 bd 91 8a 13 3c
       -0.009707704 -0.031055257 -0.0884131 0.009005205
000200 68 90 92 3d fb 03 d0 3d ad 3e f0 3d c8 7e f3 bd
       0.071564496 0.10157009 0.117307045 -0.11889416
000210 f2 5b 0f 3d 27 69 8d be 79 fe 8e be 8d 47 97 bd
       0.034999795 -0.27619287 -0.27928522 -0.07386694
000220 bd 58 40 3e e7 34 14 be f5 13 6b 3e 4b e2 61 be
       0.18783851 -0.14473306 0.22956832 -0.2205898
000230 34 a3 43 be b6 f2 a4 3e cf c5 c7 bd 45 52 7e be
       -0.19105226 0.32216424 -0.09754526 -0.24836071
000240 94 93 88 be 92 75 19 3f 26 df de bc 87 57 98 bd
       -0.26675093 0.59945023 -0.027206015 -0.074385695
000250 71 41 17 3e 24 6b 1c 3d 48 6f a3 3e fd bb 86 be
       0.14771058 0.038188115 0.31920838 -0.263153
000260 d2 b4 3e be bd 37 26 3e 71 64 ac 3d 94 00 5e 3d
       -0.18623665 0.162322 0.08417595 0.05419977
000270 73 01 3c be 90 86 cf 3d b6 af 43 be 23 18 18 bf
       -0.18359928 0.10133088 -0.19109997 -0.5941183
000280 cd d4 14 bd b4 1c eb be 7a 4c e9 3d 97 ae ac bd
       -0.036335755 -0.45920336 0.1139154 -0.08431738
000290 1c b4 ec bd b9 f1 43 3c f1 a1 f5 bd fa a0 8f 3c
       -0.11557791 0.011959487 -0.119937785 0.017532814
0002a0 01 b5 a0 3e 87 bc c9 3e 5d 44 60 3d 70 ff a7 3b
       0.31388095 0.39401647 0.054752696 0.005126886
0002b0 91 ec 6c be 20 be 5d 3b 2c 5f b5 3e b1 30 ef be
       -0.23137118 0.0033835247 0.35424173 -0.46716836
0002c0 0a 40 96 3e aa 19 ea 3b 99 95 1a bc 77 0b ff 3d
       0.29345733 0.0071441727 -0.009435081 0.124533586
0002d0 aa 73 09 be 0e 7b cf 3c 05 f1 8b 3d 10 9a a3 3c
       -0.13423029 0.025327232 0.0683308 0.019970924
0002e0 e8 15 31 be 75 e4 7f be 35 df 42 3e 5e 67 52 be
       -0.17293513 -0.24989493 0.19030459 -0.20547244
0002f0 4d 71 61 3c 30 b6 a5 3d 65 72 9d bd 6b fe a2 3c
       0.013759923 0.0809139 -0.07687835 0.019896707
000300 f9 66 f0 3d 7b da 97 be 6a ba f0 bd 83 ec 32 be
       0.117383905 -0.29658875 -0.11754306 -0.17473035
000310 9e 2d ca bd ef b7 b3 3d b2 6d 96 be f9 89 1f 3c
       -0.09871982 0.08775317 -0.29380566 0.009737485
000320 b0 b2 70 3e b0 2f 65 3e c1 5f 68 be 83 4a a1 be
       0.23505664 0.22381473 -0.22692777 -0.3150216
000330 4b dc 8d 3e 43 a3 fe 3d 2b cf 78 be 64 89 80 be
       0.27707133 0.124334835 -0.24297778 -0.2510482
000340 7a e5 8d be 2d 5e 11 bd 7a f1 1f be ba fd 40 be
       -0.2771414 -0.035490204 -0.1561946 -0.18846789
000350 a0 3c 94 bc a9 d5 a9 be 17 c7 4c be e7 98 10 3d
       -0.018095315 -0.33170822 -0.19997822 0.03530207
000360 a8 f8 4d be 73 f8 53 be 15 7b 7c 3e 4c 41 8c 3d
       -0.20114386 -0.20700245 0.24656327 0.06848392
000370 64 04 5c be 14 bd ea 3d 8b a8 15 be ce dd a8 bd
       -0.2148605 0.11461845 -0.14615075 -0.08245431
000380 81 50 24 3e 61 89 b5 3e 21 2e 17 3e 1d 00 14 3d
       0.16046335 0.35456374 0.1476369 0.03613292
000390 d9 33 0c be d3 37 53 3c f0 e0 57 3e c1 a9 5b 3e
       -0.13691653 0.0128917275 0.210819 0.21451475
0003a0 f0 07 0e 3f af 8e 7a be 77 1a 8d 3e 80 92 1f 3e
       0.5548086 -0.24468492 0.27559254 0.15583229
0003b0 61 c4 03 3e a8 0d a2 bb 4e 94 5e bc 64 1d a0 bd
       0.12867881 -0.0049454756 -0.013585163 -0.07818106
0003c0 7f a9 a8 be e4 0a 8d bb ec b9 14 3e d4 62 63 3b
       -0.32941815 -0.004304277 0.14524049 0.0034696357
0003d0 c2 07 1b 3e 57 e9 a3 be eb 0f c5 3d 64 d8 f6 3c
       0.15139678 -0.32013962 0.09622177 0.03013248
0003e0 75 d4 e6 be d8 cf 98 bd f4 b2 cb bc e2 43 b0 3c
       -0.45083967 -0.07461518 -0.024865605 0.021516744
0003f0 a8 ca 5a 3d 02 ab 31 3d 81 46 9d 3d 00 8f 82 bb
       0.053415924 0.043375976 0.07679463 -0.003984332

bias f4 [26]
000000 26 04 26 3e 5d e4 c5 3d e5 8f 01 3e 94 5b 4e bd
       0.1621252 0.096626975 0.12652548 -0.050380304
000010 47 2a 94 3f b2 19 af bd d8 ec 27 3e 3b b3 2a 3e
       1.1575402 -0.08549823 0.16398942 0.16669933
000020 2a a8 99 3d 18 83 c7 be 6a 6e 07 c0 85 45 b9 bf
       0.07502778 -0.38967204 -2.1161141 -1.4474341
000030 de 72 5e 3d c5 e2 9a bc f9 db 6c bd d5 01 0e be
       0.054308765 -0.01890696 -0.05782697 -0.13867886
000040 91 6f 26 3c e8 09 28 be ab 0d c0 bc 88 b6 75 3e
       0.010158435 -0.16410029 -0.023444017 0.23995411
000050 63 58 88 3d 8d e9 85 bd b6 93 ec bf 34 1e ce 3e
       0.066574834 -0.06538687 -1.8482578 0.40257418
000060 11 69 02 3c 0e b1 ab bd
       0.00795962 -0.0838338
