MultiModal/28loss14.002231419086456.pth (torch, 531046 bytes, 41 tensors)

weight f4 [16, 1, 4]
-7.3832326 -1.6975534 -0.50689924 0.019909823 0.00097312464 -0.28306565 -0.3907448 -0.078235336
-0.21297044 -0.55780256 -0.30542836 -0.55489314 -0.0019005156 -0.6233166 -0.21477385 -0.46311972
-0.049843244 -0.4646339 -0.5049547 -0.0011889839 0.04389253 0.041791875 0.032020483 0.059511375
-0.69483423 -0.07433072 -6.6358275 0.09747981 -0.3370618 -0.037996896 -0.030209318 -0.068758525
-0.039554045 -0.679006 -0.18951832 -0.8979636 0.22663924 -0.634981 0.67007905 -0.277611
-1.4939228 -0.2073461 -0.30012453 -0.17122665 -0.09258524 -11.985503 0.0052407943 -0.24040894
-0.09357541 -0.51156676 0.041454267 -0.49744457 -0.09271037 -0.10190011 -0.9668373 -0.6345974
-0.17914589 -0.1932799 -1.061619 -0.17033476 0.0009067072 -0.05363942 -0.30578536 -0.039956454
00000000: 7143 ecc0 6e49 d9bf 26c4 01bf ed19 a33c
00000010: 4a19 7f3a fbed 90be b40f c8be d939 a0bd
00000020: ec14 5abe 26cc 0ebf 1b61 9cbe 7a0d 0ebf
00000030: b91a f9ba ad91 1fbf aded 5bbe 071e edbe
00000040: 6e28 4cbd 7fe4 edbe b644 01bf aed7 9bba
00000050: a7c8 333d f52d 2b3d e927 033d 33c2 733d
00000060: a8e0 31bf b43a 98bd b358 d4c0 7fa3 c73d
00000070: 5d93 acbe a2a2 1bbd 8879 f7bc 45d1 8cbd
00000080: 6c03 22bd 56d3 2dbf 1711 42be f1e0 65bf
00000090: 1e14 683e 1d8e 22bf 4d8a 2b3f 0723 8ebe
000000a0: dd38 bfbf 8952 54be eca9 99be 0a56 2fbe
000000b0: 559d bdbd 9fc4 3fc1 f8ba ab3b c32d 76be
000000c0: 77a4 bfbd 0af6 02bf f3cb 293d 0eb1 febe
000000d0: efde bdbd 01b1 d0bd a682 77bf fa74 22bf
000000e0: 0572 37be 2beb 45be 22e3 87bf 3c6c 2ebe
000000f0: 17b0 6d3a 02b5 5bbd e68f 9cbe 61a9 23bd

bias f4 [16]
0.2392487 -0.08114082 -0.24350375 -0.20004784 -0.012528664 0.0015901658 0.13011345 -0.5391559
-0.8287479 -0.0016303794 0.29171178 0.117266886 -0.40175328 0.28018406 -0.11575817 -0.08606238
00000000: 9cfd 743e 292d a6bd 0c59 79be 57d9 4cbe
00000010: 0745 4dbc 1c6d d03a 763c 053e 1f06 0abf
00000020: d328 54bf 74b2 d5ba 3f5b 953e 9f29 f03d
00000030: 9bb2 cdbe 4974 8f3e 9f12 edbd 7941 b0bd

weight f4 [16, 16, 4]
0.044404738 0.05595323 0.016116949 0.004106772 0.021307202 -0.10595905 -0.006365872 0.005346222
-0.21550803 -0.06378841 -0.005069245 -0.06761548 -0.028163953 0.076777 -0.05301042 -0.178502
-0.123714596 -0.072588116 -0.18726778 -0.14124168 -0.19029275 -0.1810775 -0.052522894 -0.06747405
0.044578455 -0.15361515 -0.116962574 -0.030643215 -0.08750541 0.043242704 0.013927086 -0.020815087
-0.062736034 -0.014181374 -0.05231814 -0.09637835 -0.19340542 -0.12481647 -0.05442651 -0.23452054
-0.078984536 -0.12579535 -0.054287028 0.031527225 -0.040638898 0.038464338 -0.14568147 -0.11127268
0.08384535 0.009319395 0.0051565752 0.027631836 -0.14949968 -0.13884006 -0.013509126 -0.14131735
0.04939975 -0.13360927 -0.18482034 -0.15077662 -0.030706462 -0.18142104 -0.0639878 -0.09231977
-0.29393747 -0.23642507 -0.10541058 -0.092398904 -0.011849641 -0.17926584 -0.16716376 -0.14811656
-0.11493801 -0.13174802 0.055895198 0.048543077 0.042964447 -0.057754043 0.038578413 -0.08361391
-0.0694123 0.015623035 -0.12737086 -0.040152542 -0.0037313576 -0.15879281 0.053746395 -0.057502005
-0.015178655 -0.09176923 -0.7112359 -0.08931038 0.06341627 -0.063121244 0.06407489 0.05832497
-0.09693545 -0.07532301 0.01853264 0.02595229 -0.010630184 -0.15397006 4.962878e-06 -0.089858755
-0.20757732 -0.22614543 -0.0707098 -0.64867014 -0.2160586 -0.19033088 -0.04753924 -0.14910549
0.073138714 0.11842179 0.024386957 0.16636445 -0.20321883 -0.16272546 -0.55357677 -0.35317478
-0.100358225 -0.045044947 -0.13095506 -0.11102882 -0.007576903 -0.06016081 -0.019365503 -0.06358146
-0.08181772 -0.18022104 -0.05530525 0.43296632 0.122113444 -0.06166594 -0.15665022 0.09787206
0.0384002 0.16117054 -0.1774243 -0.386753 -0.30904993 -0.18925165 -0.18438789 -0.030762473
0.03214583 -0.13470627 -0.10251949 -0.0014793597 0.19474436 0.17628282 0.19043167 0.19581163
-0.23539913 -0.029997947 0.04931675 0.3676502 -0.09915003 0.06029258 -0.16469969 -0.17550291
-0.51321554 0.039468426 -0.07831588 0.044221506 -0.0066182395 -0.018061507 -0.01676108 -0.015309815
0.28688353 0.10465207 -0.18065344 -0.033575874 -0.28593093 -0.0620306 -0.11716584 -0.18314323
0.0017571523 -0.13638243 -0.015521809 -0.11560364 -0.5457743 -0.25450584 0.03838395 0.3835963
0.1288063 -0.02466638 -0.10501964 0.11717236 -0.03734818 0.008150918 0.014168935 0.023025455
0.6148719 0.6317658 0.60147655 -1.4277698 0.034860358 -0.20194052 -0.1115606 -0.1291726
-0.22332487 0.044328526 -0.5931027 -0.4360439 0.094173454 -0.91554344 -0.8308604 -0.4212663
0.14041862 0.07511109 -0.17738818 -0.20777342 0.25264227 -0.18643105 -0.29256812 0.23902534
0.25323704 -0.33898535 -0.44533885 1.1065669 0.055970732 0.07544003 0.026303722 -0.0649605
0.02948764 -0.28340906 -0.3730797 -0.043621242 0.06869638 0.22057225 0.2177124 0.1527439
-0.118270844 -2.1353192 0.38280776 0.6841423 -0.05661622 -0.48583633 -0.7579239 1.2225142
-0.0058891145 -0.082102224 -0.02368361 0.0074221995 0.1426084 -0.25012612 -0.300423 0.18305078
0.25729436 -0.51449704 -0.478934 -0.24217233 0.06398405 -0.07592671 -0.11142155 -0.0022685186
00000000: bee1 353d 372f 653d b107 843c 1a92 863b
00000010: 718c ae3c 0f01 d9bd ce98 d0bb 5c2f af3b
00000020: 23ae 5cbe 7fa3 82bd e91b a6bb fc79 8abd
00000030: 17b8 e6bc 433d 9d3d 7421 59bd 3ac9 36be
00000040: 145e fdbd 14a9 94bd 20c3 3fbe a9a1 10be
00000050: 1adc 42be 616c 39be 3f22 57bd d62f 8abd
00000060: e697 363d 4a4d 1dbe 138a efbd 7b07 fbbc
00000070: 0936 b3bd 431f 313d 6f2e 643c 6784 aabc
00000080: c07b 80bd fe58 68bc 8c4b 56bd 0362 c5bd
00000090: 120c 46be c79f ffbd 55ee 5ebd 2726 70be
000000a0: a5c2 a1bd 7fd0 00be 135c 5ebd b122 013d
000000b0: f974 26bd c88c 1d3d 862d 15be eee2 e3bd
000000c0: 1cb7 ab3d 60b0 183c 7df8 a83b 295c e23c
000000d0: 7216 19be 172c 0ebe 6255 5dbc 7fb5 10be
000000e0: 6457 4a3d ded0 08be 8b41 3dbe 3065 1abe
000000f0: 1e8c fbbc 70c6 39be 090c 83bd 2612 bdbd
00000100: f97e 96be 6a19 72be 81e1 d7bd a33b bdbd
00000110: ff24 42bc 7791 37be fa2c 2bbe deab 17be
00000120: 9f64 ebbd f4e8 06be 5df2 643d 1bd5 463d
00000130: 7dfb 2f3d 818f 6cbd 6604 1e3d c53d abbd
00000140: 0928 8ebd c2f7 7f3c 826d 02be fe76 24bd
00000150: cb89 74bb 959a 22be 2e25 5c3d 3987 6bbd
00000160: e5af 78bc 82f1 bbbd 8e13 36bf 5ce8 b6bd
00000170: 64e0 813d b645 81bd b239 833d 2ae6 6e3d
00000180: 1886 c6bd f342 9abd c3d1 973c e699 d43c
00000190: 392a 2ebc 54aa 1dbe cc86 a636 de07 b8bd
000001a0: 268f 54be ab92 67be 4dd0 90bd 3f0f 26bf
000001b0: 773e 5dbe 19e6 42be 82b8 42bd 1caf 18be
000001c0: c0c9 953d 2087 f23d 28c7 c73c 715b 2a3e
000001d0: 9918 50be 81a1 26be 35b7 0dbf 53d3 b4be
000001e0: 9d88 cdbd 0d81 38bd 1519 06be 1463 e3bd
000001f0: ab47 f8bb 2e6b 76bd 67a4 9ebc ff36 82bd
00000200: 0c90 a7bd dd8b 38be c287 62bd c3ad dd3e
00000210: 9d16 fa3d 6d95 7cbd ea68 20be 2671 c83d
00000220: 8749 1d3d e409 253e b7ae 35be 7d04 c6be
00000230: cb3b 9ebe 2fcb 41be 2ed0 3cbe 9501 fcbc
00000240: 59ab 033d 71f0 09be bdf5 d1bd 13e7 c1ba
00000250: 116b 473e 7c83 343e 8500 433e d882 483e
00000260: 780c 71be 41be f5bc 5c00 4a3d a63c bc3e
00000270: 2c0f cbbd 5af5 763d 09a7 28be 09b7 33be
00000280: 1862 03bf a5a9 213d 1364 a0bd 9c21 353d
00000290: d1dd d8bb baf5 93bc 884e 89bc 05d6 7abc
000002a0: 66e2 923e d353 d63d 37fd 38be db86 09bd
000002b0: 8a65 92be cc13 7ebd a5f4 efbd e689 3bbe
000002c0: 3f50 e63a d6a7 0bbe 304f 7ebc 9ac1 ecbd
000002d0: ddb7 0bbf 974e 82be 7d38 1d3d bc66 c43e
000002e0: cce5 033e 2611 cabc 8914 d7bd 10f8 ef3d
000002f0: 68fa 18bd 6e8b 053c d224 683c e19f bc3c
00000300: 3f68 1d3f 67bb 213f 5efa 193f 29c1 b6bf
00000310: bcc9 0e3d 7fc9 4ebe e279 e4bd d245 04be
00000320: 46af 64be d491 353d 94d5 17bf 2541 dfbe
00000330: 03de c03d 0e61 6abf 44b3 54bf 37b0 d7be
00000340: e6c9 0f3e d8d3 993d 3fa5 35be 8ec2 54be
00000350: 545a 813e c8e7 3ebe 7dcb 95be 0fc3 743e
00000360: 49a8 813e 7d8f adbe 7403 e4be fca3 8d3f
00000370: 9141 653d 4d80 9a3d e77a d73c 030a 85bd
00000380: 1090 f13c fe1a 91be 4d04 bfbe 30ac 32bd
00000390: b0b0 8c3d b1dd 613e 00f0 5e3e e668 1c3e
000003a0: fc37 f2bd 12a9 08c0 61ff c33e f323 2f3f
000003b0: 69e6 67bd 8abf f8be 4d07 42bf 587b 9c3f
000003c0: 79f9 c0bb 3625 a8bd 2104 c2bc ec35 f33b
000003d0: f007 123e 8810 80be 0bd1 99be aa71 3b3e
000003e0: 16bc 833e 14b6 03bf d636 f5be 06fc 77be
000003f0: 120a 833d 777f 9bbd fb30 e4bd 6dab 14bb

bias f4 [16]
-0.12533122 -0.09865424 -0.31903878 0.0041024177 0.2532494 -0.33112013 0.058759417 0.23527779
-0.41353104 -0.6571017 -0.2340466 -0.0073564732 -0.1536473 -0.39962834 0.4009773 -0.16200681
00000000: d456 00be 3c0b cabd 0d59 a3be 936d 863b
00000010: e8a9 813e 9488 a9be b7ad 703d a9ec 703e
00000020: 57ba d3be d137 28bf e9a9 6fbe 920e f1bb
00000030: b855 1dbe 169c ccbe e64c cd3e 1de5 25be

weight f4 [16, 16, 5]
0.015626948 -0.07641117 -0.094842575 -0.075010136 -0.030790443 0.018155135 0.03283877 0.024563273
-0.12985879 -0.012040218 -0.16761741 -0.04069919 0.016935771 -0.022439092 -0.17781585 -0.043185774
-0.13708311 -0.15112118 -0.11628363 -0.007942764 -0.05221051 -0.07744863 -0.16870505 -0.10641028
0.0015759357 0.06893876 -0.008347795 0.067978166 -0.052735124 -0.058612615 -0.13154757 -0.112291485
-0.052953444 -0.09469198 -0.049705904 -0.107780255 -0.1893369 -0.038317773 0.013145232 -0.00028032387
-0.14763056 -0.011101257 0.035404988 -0.17597464 -0.017294701 -0.03449311 -0.16205049 0.004264539
0.03592223 0.0067308955 -0.15547697 -0.019543542 -0.12238307 -0.18531784 -0.06575241 0.037995905
-0.15626533 -0.11393158 -0.041635983 -0.13181779 0.046347488 0.025879066 -0.053142328 -0.14509763
-0.0059588463 -0.16695988 -0.038696423 -0.0007583449 -0.10113352 -0.07361419 -0.116851054 -0.12725034
-0.15204534 0.013921359 0.03974267 -0.07572446 0.0179376 -0.15929767 -0.12600835 -0.15107873
-0.074248046 -0.029215824 0.036454715 0.18581472 -0.08642807 -0.14411111 -0.06112846 -0.043326713
0.020540837 -0.11474348 -0.20517333 -0.24527569 -0.25875297 -0.3684447 -0.40869275 -0.24132083
-0.30235052 -0.4874954 -0.5107185 -0.40813217 -0.5357804 -0.3763969 -0.36125815 -0.4005275
-0.51515615 0.0094086025 -0.12021878 -0.035440706 0.07033368 -0.1091185 -0.23094177 0.36320558
-0.017978102 -0.36888433 -0.0077890167 -0.50896496 -0.42631185 -0.35614803 -0.24631532 -0.46734735
-0.100829184 -0.13181879 -0.114690036 0.045921076 -0.13425453 -0.081452884 -0.1260843 -0.09016263
0.06198846 -0.12625659 0.07636989 0.13798179 -0.16410872 -0.47501314 -0.41042247 -0.08984572
-0.14882173 -0.00982008 0.11462882 -0.11593219 -0.14053331 -0.08639692 -0.119655885 -0.043295693
-0.12959747 0.058995366 -0.15927532 0.0532903 -0.050622545 -0.1186195 -0.19970948 -0.20922057
-0.43151394 -0.49169078 -0.41978565 -0.12009665 -0.11248043 -0.054752707 -0.08539157 0.023322457
0.065334044 -0.037646446 -0.04775469 -0.11873935 -0.036766294 0.028005907 -0.049384467 0.0043126233
-0.14425217 -0.04287185 -0.003101833 0.033798926 0.03308999 -0.098855875 -0.08143978 -0.14483763
-0.05268591 -0.05782853 -0.07588208 -0.0626627 -0.14329617 -0.07934167 0.009626675 0.040224746
-0.07828321 -0.009692724 -0.012098637 -0.03194985 0.15419033 0.06090326 0.016319836 0.033208914
-0.036603175 -0.056589916 -0.14863516 -0.10748598 -0.112731144 -0.14580785 -0.15429644 -0.054688867
-0.13915233 -0.032325 0.007216636 -0.080348454 -0.08554256 -0.09434221 0.06271178 -0.017330157
0.06345379 -0.034240913 -0.116904296 -0.16657506 -0.3293958 -0.27182993 -0.10053471 0.03371576
-0.060053848 -0.057144973 -0.09051957 -0.018809225 -0.11379309 0.11410145 0.08274912 0.016294524
0.005773451 -0.07603248 -0.026683757 -0.018020306 0.012359936 -0.17436735 -0.25052088 -0.18958806
-0.22403498 -0.089994736 0.000985679 -0.17154823 -0.09582321 -0.10550613 0.031197386 -0.1729168
-0.04652479 0.056683447 -0.12791255 0.042355534 0.008515485 -0.07563072 0.028678434 0.013346673
0.022880679 -0.05462711 0.5121543 -0.1696566 -0.14960337 0.3285779 0.13288973 -0.6605401
00000000: 1604 803c 767d 9cbd d33c c2bd ea9e 99bd
00000010: 3d3c fcbc 14ba 943c f281 063d eb38 c93c
00000020: b4f9 04be 5644 45bc e6a3 2bbe 32b4 26bd
00000030: e3bc 8a3c 30d2 b7bc 5c15 36be 91e3 30bd
00000040: 845f 0cbe 83bf 1abe 1d26 eebd 5e22 02bc
00000050: b0da 55bd 639d 9ebd 04c1 2cbe a2ed d9bd
00000060: a18f ce3a c42f 8d3d 31c5 08bc 2338 8b3d
00000070: c900 58bd c813 70bd 68b4 06be 14f9 e5bd
00000080: b6e5 58bd deed c1bd 6b98 4bbd e5bb dcbd
00000090: 88e1 41be 19f3 1cbd 195f 573c 6ff8 92b9
000000a0: 772c 17be 0ce2 35bc d204 113d b232 34be
000000b0: 9ead 8dbc a648 0dbd 90f0 25be 8cbd 8b3b
000000c0: 3023 133d d88e dc3b 5b35 1fbe c719 a0bc
000000d0: faa3 fabd f6c3 3dbe 33a9 86bd 98a1 1b3d
000000e0: 0504 20be f654 e9bd 7e8a 2abd 3efb 06be
000000f0: ddd6 3d3d 5600 d43c c5ab 59bd 7994 14be
00000100: 6d42 c3bb 88f7 2abe 2480 1ebd aacb 46ba
00000110: 171f cfbd 09c3 96bd 9b4f efbd ea4d 02be
00000120: c6b1 1bbe 6916 643c 36c9 223d 6d15 9bbd
00000130: e0f1 923c ee1e 23be 5508 01be 62b4 1abe
00000140: 5c0f 98bd 0656 efbc 8a51 153d 3746 3e3e
00000150: 3301 b1bd dd91 13be d661 7abd 5a77 31bd
00000160: 4245 a83c a1fe eabd f518 52be 8d29 7bbe
00000170: 457b 84be c9a4 bcbe 2d40 d1be cf1c 77be
00000180: b0cd 9abe ff98 f9be 73be 02bf b3f6 d0be
00000190: e728 09bf 18b7 c0be d4f6 b8be f111 cdbe
000001a0: 46e1 03bf 8a26 1a3c 4435 f6bd 462a 11bd
000001b0: 1b0b 903d 8579 dfbd 007c 6cbe 15f6 b93e
000001c0: d046 93bc 68de bcbe 023b ffbb 874b 02bf
000001d0: 8c45 dabe 0959 b6be 153a 7cbe 2748 efbe
000001e0: 887f cebd 81fb 06be 9ce2 eabd bd17 3c3d
000001f0: 057a 09be c5d0 a6bd 3e1c 01be 2fa7 b8bd
00000200: 9de7 7d3d 6849 01be d167 9c3d 194b 0d3e
00000210: 1e0c 28be ec34 f3be e522 d2be 0801 b8bd
00000220: b964 18be 67e4 20bc 84c2 ea3d db6d edbd
00000230: f7e7 0fbe def0 b0bd 250e f5bd d356 31bd
00000240: 33b5 04be 20a5 713d 1219 23be ee46 5a3d
00000250: 9659 4fbd c8ee f2bd a480 4cbe eb3d 56be
00000260: 65ef dcbe e5be fbbe 25ee d6be 3cf5 f5bd
00000270: 245c e6bd 6044 60bd c7e1 aebd bd0e bf3c
00000280: dbcd 853d 2933 1abd 6c9a 43bd 9e2d f3bd
00000290: 4198 16bd a56c e53c 5e47 4abd e850 8d3b
000002a0: d7b6 13be 659a 2fbd 1f48 4bbb be70 0a3d
000002b0: 5f89 073d f374 cabd e6c9 a6bd 5150 14be
000002c0: 2ecd 57bd 9cdd 6cbd 1068 9bbd 4d55 80bd
000002d0: 3bbc 12be e37d a2bd 34b9 1d3c b4c2 243d
000002e0: f352 a0bd 3bce 1ebc 5d39 46bc d9dd 02bd
000002f0: 12e4 1d3e b275 793d 2db1 853c 1206 083d
00000300: 36ed 15bd d4ca 67bd d133 18be 9c21 dcbd
00000310: 96df e6bd a74e 15be e3ff 1dbe 6f01 60bd
00000320: f37d 0ebe 3867 04bd 8879 ec3b bb8d a4bd
00000330: f030 afbd 7d36 c1bd 096f 803d f9f7 8dbc
00000340: 10f4 813d 3340 0cbd 856b efbd a792 2abe
00000350: 91a6 a8be 4b2d 8bbe 24e5 cdbd 8919 0a3d
00000360: 06fb 75bd d910 6abd 5362 b9bd ce15 9abc
00000370: 5a0c e9bd 05ae e93d 5f78 a93d 187c 853c
00000380: 382f bd3b ebb6 9bbd e597 dabc 529f 93bc
00000390: 5481 4a3c 5b8d 32be 4644 80be 5f23 42be
000003a0: 6d69 65be 294f b8bd e631 813a 57aa 2fbe
000003b0: f63e c4bd 9913 d8bd a991 ff3c 1a11 31be
000003c0: c790 3ebd e72c 683d 82fb 02be ff7c 2d3d
000003d0: 8884 0b3c 47e4 9abd 09ef ea3c 01ac 5a3c
000003e0: 4370 bb3c adc0 5fbd 8b1c 033f 76ba 2dbe
000003f0: a031 19be 5d3b a83e 3f14 083e 2819 29bf

bias f4 [16]
-0.1844374 -0.3143154 -0.4006998 0.118604206 0.0072592236 -0.031186149 -0.12067834 -0.1707532
-0.17825171 -0.045023516 -0.10696488 -0.08318545 -0.0021320188 0.1738711 -0.3980703 -0.52836734
00000000: 28dd 3cbe f3ed a0be 8628 cdbe c3e6 f23d
00000010: c8de ed3b 187a ffbc 3526 f7bd edd9 2ebe
00000020: 9e87 36be 946a 38bd 6710 dbbd 225d aabd
00000030: 57b9 0bbb 440b 323e dfcf cbbe 1543 07bf

weight f4 [16, 16, 5]
-0.020759663 -0.08661996 -0.16530888 -0.034638282 -0.0064724027 -0.113171846 0.3098636 -0.41993615
0.16340363 0.064338535 -0.12860413 -0.05518265 -0.10844651 -0.05407668 -0.08281973 -0.019238507
-0.013409855 -0.011140035 -0.006563931 0.033575837 0.0750822 0.06526369 0.27323535 -0.1380575
0.058991525 -0.056380324 -0.15985347 0.022213766 -0.025051912 -0.10081653 0.32985157 0.41347328
-0.27343372 -0.10093749 -0.16280343 -0.11349797 0.5024836 0.07953019 0.13589387 0.09296128
0.032521807 -0.03345436 -0.014218606 -0.16499649 -0.028294744 0.036881767 -0.12948593 0.0016767234
-0.14682135 0.025391301 0.1694473 -1.3873285 0.07953796 0.2662054 -0.15322152 -0.09640381
0.7283611 0.54378176 -0.8248543 -0.21579595 0.0009987076 -0.047053378 -0.017338248 0.055386584
-0.073061705 -0.17089646 -0.48581588 0.21066144 0.046409726 -0.009547236 -0.33221442 0.045424893
-0.106441215 0.026585208 -0.021909177 0.3395936 0.16453485 -0.069630794 -0.38648623 -0.06461655
0.014142633 0.06643529 -0.030177666 0.056084145 0.114847764 -0.108030036 -0.112491906 -0.19972944
-0.05137667 -0.27381557 -0.1363378 -0.123840086 -0.10899763 0.07283995 0.054548427 0.10223768
0.1199816 0.019216636 0.050975457 -0.018548068 -0.029707007 -0.15839662 -0.20717528 0.1675021
-0.15906483 0.016492503 0.061496176 0.090039656 0.0049332664 0.056188684 -0.23577438 -0.15532172
0.027250202 -0.5421118 -0.15063047 -0.14213984 -0.32964322 -0.3515607 0.017587572 -0.2737516
-0.015466935 -0.036627993 0.0346379 0.11980635 0.03351506 -0.12210528 0.0021898486 -0.055299226
-0.10770569 0.18446133 -0.039136235 0.081384204 -0.24720438 -0.2270821 -0.113687806 0.10279223
-0.08354481 0.7177732 0.3766544 -0.44710484 -0.037966352 -0.016671686 0.04085894 -0.05783445
-0.022376204 -0.022843398 -0.32662612 -0.3080734 0.46273595 0.34852627 -0.3069851 0.09868851
0.0034451738 -0.016391106 0.09339898 -0.1389372 0.13871968 -0.12924239 0.07605133 -0.17915389
0.08618041 0.10975911 -0.14488769 -0.10367937 -0.02811008 -0.08513157 -0.013648709 0.006563411
-0.034295484 -0.14059043 -0.07046171 -0.043824594 0.16178556 -0.041619636 -0.11113255 -0.082767405
-0.09058338 -0.102745935 0.021764325 -0.15870166 0.00078540575 -0.33856255 -0.22975878 -0.46801397
-0.7883482 -0.0134703275 -0.09440115 0.036624275 -0.0416822 -0.11942726 -0.32380465 -0.27798113
-0.13218589 -0.07383417 -0.4170603 -0.14311457 -0.25128672 -0.09751305 -0.30237094 0.11620346
0.13356708 0.002752686 0.01736075 -0.05609309 0.08099393 -0.022358742 -0.07582809 -0.02362906
-0.0689908 0.0054213093 -0.19168873 -0.05240748 -0.030528408 -0.3890831 -0.38028136 0.0080965515
-0.22955613 -0.35452354 -0.1490885 0.0076782615 -0.11965701 -0.21561682 -0.22207916 -0.4949561
-0.27476853 -0.36318123 -0.06292022 -0.15861867 -0.24362282 -0.53569096 -0.026250396 0.14066707
-0.1682559 -0.10138315 -0.06734247 -0.043038025 0.052993353 0.062075287 -0.13008401 -0.004246458
-0.012765042 -0.024648191 0.006388779 -0.08320501 -0.16121897 -0.052934088 0.042944916 -0.119502954
-0.08847148 -0.009586459 -0.117471755 0.04544356 0.042159624 0.06767228 0.005888231 -0.1575166
00000000: 2b10 aabc ce65 b1bd bb46 29be dfe0 0dbd
00000010: 7316 d4bb a4c6 e7bd 71a6 9e3e df01 d7be
00000020: 4853 273e ecc3 833d cdb0 03be 3407 62bd
00000030: 3419 debd 827f 5dbd 649d a9bd 139a 9dbc
00000040: 02b5 5bbc b284 36bc 3e16 d7bb d186 093d
00000050: b2c4 993d f8a8 853d 81e5 8b3e f25e 0dbe
00000060: 19a1 713d 0eef 66bd a1b0 23be a5f9 b53c
00000070: ab39 cdbc e678 cebd 4ee2 a83e c5b2 d33e
00000080: 81ff 8bbe 51b8 cebd f1b5 26be a071 e8bd
00000090: c4a2 003f b9e0 a23d c327 0b3e 7c62 be3d
000000a0: 9635 053d 7007 09bd 28f5 68bc d7f4 28be
000000b0: 61ca e7bc 5611 173d f697 04be 80c5 db3a
000000c0: 5658 16be 6b01 d03c 9883 2d3e fb93 b1bf
000000d0: cce4 a23d 134c 883e 1ae6 1cbe 5c6f c5bd
000000e0: e075 3a3f 4835 0b3f a729 53bf 9df9 5cbe
000000f0: 11e7 823a 0bbb 40bd f108 8ebc 0bdd 623d
00000100: 60a1 95bd 7bff 2ebe dcbc f8be a2b7 573e
00000110: 2018 3e3d 036c 1cbc 0218 aabe 740f 3a3d
00000120: dafd d9bd 39c9 d93c e07a b3bc 36df ad3e
00000130: d37b 283e 979a 8ebd 86e1 c5be af55 84bd
00000140: 81b6 673c 3a0f 883d 2737 f7bc 7db8 653d
00000150: 4e35 eb3d da3e ddbd 2862 e6bd e085 4cbe
00000160: 5870 52bd 8e31 8cbe 239c 0bbe df9f fdbd
00000170: 263a dfbd 1d2d 953d 2c6e 5f3d fd61 d13d
00000180: eab8 f53d 356c 9d3c a4cb 503d 1ef2 97bc
00000190: 1c5c f3bc b932 22be c225 54be ac85 2b3e
000001a0: e4e1 22be 491b 873c 6ae3 7b3d b666 b83d
000001b0: 3da7 a13b 1b26 663d d76e 71be a80c 1fbe
000001c0: d13b df3c d7c7 0abf e03e 1abe 1b8d 11be
000001d0: ffc6 a8be c4ff b3be d013 903c 2b29 8cbe
000001e0: 0769 7dbc 3c07 16bd 78e0 0d3d 085d f53d
000001f0: 1647 093d 5512 fabd 9083 0f3b 7181 62bd
00000200: cd94 dcbd 6ee3 3c3e 514d 20bd c3ac a63d
00000210: 2523 7dbe 3688 68be 27d5 e8bd bc84 d23d
00000220: 8b19 abbd fcbf 373f d8d8 c03e edea e4be
00000230: 9b82 1bbd 0f93 88bc b45b 273d d1e3 6cbd
00000240: 4d4e b7bc 1422 bbbc 8a3b a7be ccbb 9dbe
00000250: baeb ec3e 0972 b23e 272d 9dbe 341d ca3d
00000260: 6dc8 613b a446 86bc f747 bf3d 8e45 0ebe
00000270: 880c 0e3e 1e58 04be cdc0 9b3d 1e74 37be
00000280: 5b7f b03d 62c9 e03d 705d 14be d955 d4bd
00000290: 1c47 e6bc 7659 aebd d69e 5fbc e211 d73b
000002a0: 6c79 0cbd f0f6 0fbe 3b4e 90bd 6b81 33bd
000002b0: 1dab 253e 5a79 2abd 7699 e3bd f581 a9bd
000002c0: c783 b9bd 766c d2bd 194b b23c b082 22be
000002d0: b0e3 4d3a 1258 adbe e345 6bbe 879f efbe
000002e0: 30d1 49bf a6b2 5cbc 6455 c1bd 5603 163d
000002f0: f4ba 2abd 4796 f4bd b9c9 a5be 8b53 8ebe
00000300: bd5b 07be 5f36 97bd ed88 d5be a08c 12be
00000310: a7a8 80be ecb4 c7bd 5dd0 9abe 14fc ed3d
00000320: cfc5 083e 6866 343b 2238 8e3c dec1 65bd
00000330: 25e0 a53d ae29 b7bc c24b 9bbd bb91 c1bc
00000340: 0c4b 8dbd 3da5 b13b 0d4a 44be 3aa9 56bd
00000350: b616 fabc e635 c7be 3db4 c2be 66a7 043c
00000360: c310 6bbe 1c84 b5be a8aa 18be ed99 fb3b
00000370: bc0e f5bd a8ca 5cbe b868 63be e36a fdbe
00000380: 76ae 8cbe e4f2 b9be 51dc 80bd ef6c 22be
00000390: 4378 79be 0b23 09bf 120b d7bc 070b 103e
000003a0: 464b 2cbe f8a1 cfbd d9ea 89bd a448 30bd
000003b0: 8f0f 593d a842 7e3d be34 05be df25 8bbb
000003c0: 7724 51bc 01eb c9bc f658 d13b 6367 aabd
000003d0: 9616 25be 6ad1 58bd 02e7 2f3d f7bd f4bd
000003e0: 8930 b5bd 8610 1dbc 0895 f0bd 0723 3a3d
000003f0: 92af 2c3d c497 8a3d 10f2 c03b 084c 21be

bias f4 [16]
0.07062297 -0.14371099 -0.33156788 -0.17385775 -0.10091448 -0.019307932 0.1901591 -0.32327446
-0.12048367 0.01784106 -0.0038605358 0.22209297 0.030001977 -0.15190686 -0.06817256 0.3369348
00000000: c7a2 903d f928 13be 44c3 a9be c407 32be
00000010: 40ac cebd ab2b 9ebc 11b9 423e 3b84 a5be
00000020: 24c0 f6bd 6a27 923c 0b01 7dbb 576c 633e
00000030: b5c6 f53c 798d 1bbe 0e9e 8bbd b882 ac3e

weight f4 [64, 112]
0.7386065 -0.014667761 0.4825951 0.2991317 0.13496357 0.32315177 -0.11023395 0.5040857
-0.3449151 0.5234827 -0.023288833 0.13430585 0.16378349 -0.15550336 0.11676974 -0.09950544
0.24777524 0.060617305 0.012262956 -0.36616835 -0.15872665 -0.19689402 0.07963951 0.043377843
0.14298269 0.08118901 0.04120415 0.0880674 0.11477072 -0.05922032 0.13137315 0.00016716184
0.04009094 0.012022954 0.14301348 -0.022566704 0.058071032 0.06535606 0.051806673 0.06728344
0.027297327 0.078605324 0.06602418 0.7168797 0.40556183 0.4361079 0.51186657 0.17867658
0.2788063 0.1149983 -0.14960164 -0.1370344 0.22919467 -0.123905934 0.020270078 -0.16075563
0.0409949 -0.007725015 0.06428065 0.028573321 -0.00079259754 0.050877288 -0.0066565494 -0.009626291
-0.5731857 0.54942054 -0.016868876 0.1449217 0.33504996 0.2496986 -0.11877879 -0.026257815
-0.11264115 0.05569325 -0.124765754 0.13083273 0.09030897 -0.25459534 -0.044414867 0.06569687
-0.1094654 0.28560913 0.16515537 -0.24499705 1.6084117 0.11939958 0.59324026 0.7494101
0.68630064 1.0876276 0.8481033 -0.11936296 -0.036195017 0.06841282 0.12859832 0.020994326
0.086362116 0.146664 -0.1934177 0.21189421 -0.08133912 -0.28047526 -0.4380213 -0.29421487
-0.255068 -0.051243342 0.44892868 0.33720264 0.044086535 0.34202024 0.077807926 -0.17974758
-0.018815732 0.041448247 -0.024690393 -0.042817634 0.04078514 0.06673192 0.021559533 -0.11963538
-0.061148793 -0.07308204 -0.07257025 -0.05635179 0.013896152 -0.091554 -0.041026134 0.08378569
0.057070255 0.14323841 0.07027932 -0.0051952153 0.010069581 0.06317863 0.13547432 0.076201186
0.153611 -0.009438386 0.014413694 0.038947992 -0.10889467 0.049879793 0.061502285 -0.09177725
0.024021218 -0.10944491 -0.13347155 -0.005377649 -0.0146319615 -0.0033016077 -0.018993607 0.13733305
0.080099806 0.1312035 -0.054382887 -0.0779265 0.024975123 0.033496417 0.01933666 -0.06417202
-0.056167733 -0.041961376 -0.04731521 -0.06806824 -0.0317694 -0.13041446 -0.054261845 -0.026213521
-0.101879366 -0.14522298 -0.05458118 0.014789625 0.034917835 -0.020906284 -0.008745499 -0.060528316
0.02974639 -0.13094936 -0.03752674 -0.041501302 0.016388247 0.039650183 -0.036906872 -0.042617265
-0.12569037 -0.087630525 -0.024390997 0.03219503 0.061937056 -0.12353662 -0.10684407 -0.06166071
-0.0428669 -0.12305116 -0.11708817 -0.04828604 -0.12875132 0.018451314 -0.09503669 0.02622718
-0.059831936 0.043680985 0.031855036 0.05443292 0.11828522 0.079189375 0.0038406781 -0.0267137
0.102902316 0.005049373 -0.12053656 -0.055921275 -0.08838961 -0.11150746 0.0300291 0.01115588
-0.11513618 -0.11999157 -0.12888265 0.04501017 -0.051574215 -0.097455524 -0.11027822 0.024352808
0.015612457 0.012527387 -0.043270797 0.015519369 0.0056782532 -0.019574534 0.03142704 -0.120224416
-0.10869017 -0.098642446 -0.036010854 -0.067301236 0.0036035639 0.00016944484 -0.091905124 -0.02494147
-0.041039634 -0.0061471807 -0.06265223 0.051842418 -0.13325955 -0.03518799 -0.13448003 -0.044972163
-0.074195795 -0.052597687 -0.14189474 -0.007676376 -0.04341465 -0.011294077 3.74548e-05 -0.016247049
00000000: 5115 3d3f 0c51 70bc b416 f73e ca27 993e
00000010: e433 0a3e 2674 a53e 56c2 e1bd c30b 013f
00000020: b698 b0be f602 063f 39c8 bebc 7987 093e
00000030: dcb6 273e 463c 1fbe f924 ef3d 82c9 cbbd
00000040: cbb8 7d3e da49 783d 91ea 483c 6b7a bbbe
00000050: 3d89 22be 969e 49be 0a1a a33d f7ac 313d
00000060: 0e6a 123e 6c46 a63d afc5 283d ae5c b43d
00000070: e90c eb3d 0291 72bd af86 063e 2a48 2f39
00000080: 6636 243d edfb 443c 2072 123e cfdd b8bc
00000090: e4db 6d3d 66d9 853d 3c33 543d e6cb 893d
000000a0: a59e df3c d4fb a03d af37 873d 6e85 373f
000000b0: cda5 cf3e 8949 df3e b009 033f fef6 363e
000000c0: b3bf 8e3e 3b84 eb3d 2c31 19be bf52 0cbe
000000d0: 02b2 6a3e 65c2 fdbd 6f0d a63c 209d 24be
000000e0: 45ea 273d 1f22 fdbb 93a5 833d 9912 ea3c
000000f0: 52c6 4fba b464 503d 2f1f dabb 97b7 1dbc
00000100: 4cbc 12bf d3a6 0c3f 9930 8abc 5b66 143e
00000110: ab8b ab3e fdb0 7f3e 4b42 f3bd a11a d7bc
00000120: 67b0 e6bd 9b1e 643d 3085 ffbd 04f9 053e
00000130: e9f3 b83d 525a 82be 5dec 35bd 158c 863d
00000140: 652f e0bd 5c3b 923e 7d1e 293e 82e0 7abe
00000150: 6fe0 cd3f c487 f43d 98de 173f 57d9 3f3f
00000160: 66b1 2f3f 6237 8b3f 4c1d 593f 9174 f4bd
00000170: 3a41 14bd 051c 8c3d 47af 033e 4bfc ab3c
00000180: 9fde b03d 162f 163e 4a0f 46be ccfa 583e
00000190: 2095 a6bd 749a 8fbe 5444 e0be 55a3 96be
000001a0: 4698 82be 8ae4 51bd fbd9 e53e d3a5 ac3e
000001b0: 1594 343d 471d af3e c359 9f3d c00f 38be
000001c0: 7323 9abc a3c5 293d 8243 cabc 8b61 2fbd
000001d0: 520e 273d bfaa 883d 9e9d b03c 6503 f5bd
000001e0: 2877 7abd 09ac 95bd b69f 94bd 22d1 66bd
000001f0: b0ac 633c aa80 bbbd 050b 28bd d597 ab3d
00000200: 80c2 693d 17ad 123e 9bee 8f3d a03c aabb
00000210: e2fa 243c cc63 813d c8b9 0a3e 5e0f 9c3d
00000220: 344c 1d3e 76a3 1abc 6a27 6c3c ee87 1f3d
00000230: 2b04 dfbd c14e 4c3d d2e9 7b3d b6f5 bbbd
00000240: 25c8 c43c a724 e0bd c4ac 08be fd36 b0bb
00000250: e5ba 6fbc c95f 58bb 7b98 9bbc 09a1 0c3e
00000260: 5e0b a43d 365a 063e 97c0 5ebd ee97 9fbd
00000270: a198 cc3c 8a33 093d ea67 9e3c 9f6c 83bd
00000280: 2310 66bd b1df 2bbd 98cd 41bd 5d67 8bbd
00000290: a120 02bd 5e8b 05be ab41 5ebd bdbd d6bc
000002a0: 21a6 d0bd 55b5 14be 8490 5fbd 2f50 723c
000002b0: 0106 0f3d a843 abbc 4849 0fbc 8aec 77bd
000002c0: b4ae f33c 9717 06be a4b5 19bd 45fd 29bd
000002d0: a540 863c 3b68 223d a92b 17bd 718f 2ebd
000002e0: fab4 00be a277 b3bd a1cf c7bc f0de 033d
000002f0: b6b1 7d3d c400 fdbd 10d1 dabd f18f 7cbd
00000300: 3495 2fbd 3f02 fcbd eccb efbd 95c7 45bd
00000310: 63d7 03be 3627 973c 99a2 c2bd 62da d63c
00000320: 5512 75bd d5ea 323d 6d7a 023d 0ef5 5e3d
00000330: 853f f23d 0a2e a23d e3b3 7b3b b0d6 dabc
00000340: 73be d23d 3675 a53b dfdb f6bd b50d 65bd
00000350: 9d05 b5bd 065e e4bd 96ff f53c 27c7 363c
00000360: 84cc ebbd 24be f5bd d0f9 03be 965c 383d
00000370: 7c3f 53bd c396 c7bd 8cd9 e1bd 8a7f c73c
00000380: 64cb 7f3c ab3f 4d3c b83c 31bd f444 7e3c
00000390: a410 ba3b c65a a0bc a4b9 003d 3838 f6bd
000003a0: f498 debd 0d05 cabd 1e80 13bd 3bd5 89bd
000003b0: c529 6c3b 01ad 3139 c138 bcbd 0e52 ccbc
000003c0: 2d19 28bd 4a6e c9bb d04f 80bd b758 543d
000003d0: 3175 08be 4821 10bd 22b5 09be bb34 38bd
000003e0: f7f3 97bd ac70 57bd db4c 11be 1c8a fbbb
000003f0: 8fd3 31bd cb0a 39bc c918 1d38 8818 85bc

bias f4 [64]
0.65999264 -0.06299642 -0.04568313 0.061178435 -0.09856651 -0.03330458 -0.021373114 -0.41285065
0.23238203 -0.28052965 -0.042856522 0.2802676 -0.11086652 -0.20157064 0.003553366 -0.047020856
-0.24325903 0.0024468384 -0.10631975 -0.018122269 -0.11877734 -0.18436915 -0.06280548 -0.010382943
-0.058136698 -0.03991169 -0.11434096 -0.07443788 -0.10080732 -0.08598625 0.5575145 0.5241601
-0.02463333 0.015624924 -0.07228138 -0.086993165 -0.038541768 -0.0032626893 -0.6954082 0.68296117
0.35163382 -0.06358047 -0.122550786 -0.19729003 1.5870391 -0.097774886 -0.123432115 -0.13146202
-0.05707259 -0.017355427 -0.051605716 -0.16579244 -0.05970429 -0.034835555 0.094841264 -0.030590897
-0.029832019 -0.088451944 -0.05966561 -0.15966235 -0.00015255572 -0.5980993 1.4074543 0.04849016
00000000: 47f5 283f 4404 81bd 3c1e 3bbd 3d96 7a3d
00000010: 3ddd c9bd 626a 08bd ab16 afbc 2961 d3be
00000020: 8ef5 6d3e 95a1 8fbe 528a 2fbd 3c7f 8f3e
00000030: fc0d e3bd 8968 4ebe 97df 683b f198 40bd
00000040: e518 79be 235b 203b 2bbe d9bd 2775 94bc
00000050: 8941 f3bd 44cb 3cbe 29a0 80bd 381d 2abc
00000060: bf20 6ebd 717a 23bd 982b eabd e372 98bd
00000070: 1174 cebd 8f19 b0bd 45b9 0e3f 5b2f 063f
00000080: d6cb c9bc aeff 7f3c 4308 94bd 7929 b2bd
00000090: f9dd 1dbd d8d2 55bb 4606 32bf 8bd6 2e3f
000000a0: 5909 b43e 7a36 82bd e8fb fabd 6606 4abe
000000b0: 1924 cb3f 333e c8bd fac9 fcbd fb9d 06be
000000c0: f3c4 69bd f82c 8ebc 8460 53bd 7ec5 29be
000000d0: 7c8c 74bd baaf 0ebd 233c c23d c399 fabc
000000e0: 4762 f4bc 4b26 b5bd ed63 74bd 877e 23be
000000f0: 5df7 1fb9 091d 19bf 7627 b43f 9e9d 463d

weight f4 [32, 64]
-0.23915237 -0.031937316 -0.07811846 0.030845677 -0.022102753 -0.0197656 -0.114090696 -0.05686134
-0.44057932 -0.2662652 -0.0498022 -0.37008643 -0.0020168496 0.0864868 -0.08127691 0.03594984
-0.09360255 -0.06644949 0.024496362 -0.016823664 -0.027764171 -0.14797634 -0.1000478 -0.124958426
-0.07032505 -0.16940579 -0.06648657 0.0833216 -0.09692338 -0.118986934 -0.30415457 -0.5055063
0.11449452 0.044959366 -0.11023402 -0.024413735 0.07115799 -0.11139716 -0.17785451 -0.20352174
-0.30783284 -0.016236588 -0.09968151 -0.06938623 -0.47102952 -0.033062503 -0.034177527 0.009670958
-0.022802733 -0.09934717 -0.13341828 0.056984723 -0.113449454 -0.066709325 -0.2526247 -0.11654137
-0.03959001 -0.06970641 -0.12538436 -0.104547456 0.004288882 0.033138774 -0.10983449 -0.058775574
0.1484127 -0.0058648414 0.031077977 -0.015857471 0.011605293 -0.13692793 -0.043323144 -0.15949129
0.53315055 -0.025483117 -0.031612933 0.049183067 -0.0737918 -0.24378982 -0.08022053 -0.020750599
0.043003518 -0.05423889 -0.083021715 -0.056963734 -0.1295947 -0.26600224 -0.047021806 -0.014183144
-0.18337905 0.010399814 0.06154926 0.060759544 -0.031201554 -0.06444582 -0.14144194 0.081499435
0.059156008 -0.027870128 -0.0865591 -0.13764413 -0.17586859 -0.09030885 -0.122914225 -0.107164636
0.101890735 0.035996728 -0.073514044 0.05543985 0.0602533 -0.10495175 -0.08755388 0.055729575
-0.15316117 -0.12784933 0.031908263 0.15697712 0.040691428 0.028618995 0.8059899 0.019387092
-0.050912954 0.032654557 0.008540187 0.15696906 0.046858903 0.30026248 -0.07270243 -0.0010535028
0.06468253 -0.044691727 -0.15916932 0.039824605 0.34185785 -0.000571344 -0.17406954 0.19554242
-0.32810602 -0.09361787 0.06427195 0.109341055 -0.10319715 0.068180986 -0.094772816 -0.14345597
-0.05624776 0.035711747 -0.0584992 0.064766414 0.024795055 0.39847896 -0.16181132 -0.17147145
0.009121127 -0.14131218 -0.16926865 0.045275096 0.02069223 -0.1144219 -0.08585471 0.20371677
-0.124636605 0.009210898 -0.04830627 0.029828843 0.03565898 0.022141632 0.46995577 0.84865576
0.50806767 -0.08423461 0.007947787 0.040893286 0.018037848 -0.062047724 0.049141973 -0.09034291
0.029252945 -0.11094004 -0.20919207 0.05755064 -0.14723626 -0.063669525 0.34109274 -0.11005781
-0.08597106 -0.16580185 0.5424791 -0.04020106 -0.018934725 -0.41380465 0.0031208901 -0.030619023
0.103507705 -0.086095944 -0.09714995 0.06802072 -0.21037202 -0.11532247 -0.12051614 -0.26269072
-0.17023158 0.16212182 -0.026115447 -0.09353391 -0.10983877 -0.08509628 0.064098746 0.102705896
-0.028692046 -0.050088704 0.024325326 -0.06007974 0.0075954944 -0.2242888 -0.091379836 -0.10567996
-0.16075549 -0.08208269 -0.1247395 0.076649755 -0.08814657 0.123736694 0.8642387 -0.1012738
-0.08271311 -0.116166696 0.008105561 0.11094807 0.088085726 0.09396413 -0.1541876 0.06650718
-0.32638466 -0.014895111 0.09584087 -0.03312379 -0.025497673 -0.065057665 -0.054196224 0.08434346
-0.10127589 -0.023250073 0.13928968 0.055655032 -0.12064259 -0.051992208 0.34902126 -0.054753706
-0.09663166 0.07113539 0.02232818 0.115914986 -0.09540556 0.072950184 0.25183216 0.21059367
00000000: 5ce4 74be b4d0 02bd 92fc 9fbd 13b0 fc3c
00000010: d510 b5bc 78eb a1bc 62a8 e9bd 70e7 68bd
00000020: 9d93 e1be ea53 88be 64fd 4bbd f87b bdbe
00000030: 1f2d 04bb fe1f b13d 8274 a6bd 2440 133d
00000040: b2b2 bfbd ac16 88bd 98ac c83c c8d1 89bc
00000050: b071 e3bc 1c87 17be dce5 ccbd 34ea ffbd
00000060: 9406 90bd b678 2dbe 1c2a 88bd 84a4 aa3d
00000070: c47f c6bd 6caf f3bd 26ba 9bbe dc68 01bf
00000080: 1a7c ea3d 5027 383d 60c2 e1bd 50ff c7bc
00000090: 48bb 913d 3224 e4bd 7e1f 36be 0168 50be
000000a0: 449c 9dbe 9802 85bc d225 ccbd 5e1a 8ebd
000000b0: c82a f1be 8c6c 07bd bcfd 0bbd f072 1e3c
000000c0: cccc babc 8776 cbbd cd9e 08be d068 693d
000000d0: 3058 e8bd e69e 88bd 0658 81be 3ead eebd
000000e0: 2229 22bd 3cc2 8ebd c264 00be fa1c d6bd
000000f0: c089 8c3b 86bc 073d e8f0 e0bd a8be 70bd
00000100: 80f9 173e db2d c0bb 3e97 fe3c 87e7 81bc
00000110: 2024 3e3c d636 0cbe 9c73 31bd af51 23be
00000120: 8e7c 083f f8c1 d0bc 907c 01bd 2f74 493d
00000130: 2820 97bd 0aa4 79be a94a a4bd 29fd a9bc
00000140: 7524 303d 9929 5ebd 4a07 aabd ce52 69bd
00000150: 79b4 04be 7231 88be f099 40bd 6b60 68bc
00000160: b8c7 3bbe fb63 2a3c 141b 7c3d 00df 783d
00000170: 679a ffbc 2cfc 83bd 28d6 10be 2de9 a63d
00000180: 924d 723d e54f e4bc e645 b1bd 95f2 0cbe
00000190: e516 34be d9f3 b8bd 74ba fbbd 2279 dbbd
000001a0: 17ac d03d 4e71 133d 888e 96bd e514 633d
000001b0: 2acc 763d f1f0 d6bd 734f b3bd b244 643d
000001c0: 48d6 1cbe efea 02be 3db2 023d 9cbe 203e
000001d0: 0eac 263d 6272 ea3c 5b55 4e3f aed1 9e3c
000001e0: 1a8a 50bd c9c0 053d 24ec 0b3c 7fbc 203e
000001f0: 1fef 3f3d 01bc 993e 03e5 94bd b015 8aba
00000200: 4678 843d ac0e 37bd 48fd 22be 201f 233d
00000210: fe07 af3e 3fc6 15ba 493f 32be 463c 483e
00000220: 83fd a7be baba bfbd 03a1 833d 34ee df3d
00000230: 0759 d3bd 79a2 8b3d 4018 c2bd 1fe6 12be
00000240: 0d64 66bd 7b46 123d db9c 6fbd 41a4 843d
00000250: 001f cb3c 6f05 cc3e deb1 25be 3696 2fbe
00000260: c870 153c 24b4 10be c354 2dbe 6172 393d
00000270: c082 a93c 0756 eabd 98d4 afbd 219b 503e
00000280: 7a41 ffbd 4ee9 163c ccdc 45bd 9e5b f43c
00000290: 270f 123d 5e62 b53c 0b9e f03e 8141 593f
000002a0: b910 023f 3283 acbd 6f37 023c b87f 273d
000002b0: 1cc4 933c c125 7ebd 1849 493d b405 b9bd
000002c0: dfa3 ef3c 8834 e3bd 7236 56be 38ba 6b3d
000002d0: 1ac5 16be 2b65 82bd b5a3 ae3e fd65 e1bd
000002e0: 9811 b0bd f6c7 29be e9df 0a3f dea9 24bd
000002f0: ff1c 9bbc 34de d3be d987 4c3b bfd4 fabc
00000300: d9fb d33d 1253 b0bd 8ef6 c6bd 724e 8b3d
00000310: c36b 57be 302e ecbd 2ad1 f6bd 667f 86be
00000320: 3051 2ebe 4303 263e 10f0 d5bc b58e bfbd
00000330: 26f3 e0bd f546 aebd 3446 833d 7857 d23d
00000340: 950b ebbc d029 4dbd e845 c73c 2c16 76bd
00000350: a0e3 f83b f7ab 65be 5a25 bbbd bc6e d8bd
00000360: 169d 24be f81a a8bd 6c77 ffbd 8cfa 9c3d
00000370: 3086 b4bd aa69 fd3d bf3e 5d3f a368 cfbd
00000380: 7e65 a9bd cee8 edbd 30cd 043c be38 e33d
00000390: 4a66 b43d 4470 c03d 5be3 1dbe eb34 883d
000003a0: e41b a7be a00a 74bc 3848 c43d d0ac 07bd
000003b0: 7fe0 d0bc f43c 85bd dcfc 5dbd 44bc ac3d
000003c0: bc69 cfbd f076 bebc f4a1 0e3e 88f6 633d
000003d0: 7613 f7bd c8f5 54bd eab2 b23e 6c45 60bd
000003e0: d2e6 c5bd 6eaf 913d 96e9 b63c d664 ed3d
000003f0: fe63 c3bd e866 953d 25f0 803e dea5 573e

bias f4 [32]
-0.38764325 -0.14905816 -0.123592384 0.4132138 -0.19022909 -0.3523894 -0.15119454 0.056662794
-0.8038024 -0.616742 -0.0935023 -0.1536709 -0.028867172 -0.22917521 0.11355718 0.008226435
-0.17053543 0.65238374 -0.22478867 -0.40624294 -0.43449906 -0.32049748 -0.19861068 -0.13903551
0.025170447 -0.70226735 -0.80209494 -0.4150289 -0.009244652 -0.24869162 0.0015610639 -0.17142862
00000000: 2d79 c6be b4a2 18be 011e fdbd c290 d33e
00000010: 6acb 42be 626c b4be bed2 1abe 3f17 683d
00000020: fec5 4dbf cee2 1dbf 227e bfbd e85b 1dbe
00000030: d97a ecbc e8ac 6abe ab90 e83d 2bc8 063c
00000040: d7a0 2ebe 9f02 273f 002f 66be 13ff cfbe
00000050: a976 debe 3f18 a4be 9960 4bbe 535f 0ebe
00000060: 4132 ce3c cbc7 33bf 1856 4dbf ab7e d4be
00000070: e276 17bc 04a9 7ebe 9d9c cc3a fc8a 2fbe

weight f4 [28, 32]
-0.38377568 -0.580832 -0.0027001337 0.6748208 -0.0602339 0.70777553 -0.18582691 -0.36574382
0.060503114 -0.3552982 -0.3569951 -0.002304695 0.23405896 0.041306183 -0.08737791 -0.01427003
-0.03652069 0.123431206 0.40361172 -0.29052845 -0.15475887 -0.23878004 -0.14173034 -0.29086336
0.23483302 0.05229971 0.38616517 -0.033340883 -0.08506892 0.14654537 0.073838286 0.062864006
-0.29873148 0.22899044 0.14557113 0.70384127 0.08170885 -0.22858952 0.6018029 0.25575206
0.17499886 0.061931144 -0.20383419 0.12711127 0.031885058 0.019921372 -0.5768376 0.027868379
0.19701247 -0.34876552 -0.26785594 -0.31730768 -0.28174832 0.0774769 0.10248086 -0.79464257
-0.42756906 -0.16488266 -0.25830263 0.39548206 0.22528769 0.21261111 0.031198371 -0.19226752
0.09112063 0.19206631 0.33004242 -0.018159311 0.13655697 0.30675688 0.110047184 0.1373675
-0.26788616 -0.3304317 -0.23337288 0.009209525 -0.062180348 0.21603869 -0.15031439 0.17363548
-0.014042135 -0.07939852 -0.25756946 0.5422991 0.41371292 0.0006617752 0.051855236 0.09969899
-0.44404417 0.024426125 -0.18102698 0.36685577 0.21172383 0.04136631 0.048583828 0.13832912
-0.38624862 0.23935391 -0.12985519 0.62455755 -0.15177198 -0.062288392 -0.16307251 0.9088966
0.32482663 -0.10882373 0.14062367 -0.13025984 -0.10450277 0.16491014 -0.015110938 0.08628793
0.05613311 -0.18611617 -0.15935309 -0.13487111 0.24018152 -0.15063164 -0.014307028 0.31237727
-0.50059915 -0.15376133 -0.20813675 0.005873192 -0.0857547 -0.14967 -0.1928255 -0.051109295
0.5683796 0.021439752 -0.013697931 0.010928392 0.16155988 -0.0031589791 0.013851965 -0.011838168
0.00047836587 -0.27901915 -0.18362904 0.1515484 0.06842843 -0.055881463 -0.031258676 -0.01042518
0.06343898 0.002937633 -0.057268776 0.14699782 0.09496877 0.35447 0.118635006 0.032729298
-0.14532638 -0.054766893 0.11182873 -0.4458983 0.109494984 -0.21164097 0.18487702 -0.1010812
0.27836075 0.38602528 -0.27085048 -0.24017859 -0.027136236 0.15497792 -0.08847715 0.8614574
-0.5800064 -0.22099985 0.3008156 -0.0681225 0.00062131626 0.119333 0.38782728 -0.018574925
-0.06541529 -0.16686052 0.060729384 -0.29108155 0.3704177 -0.06428346 -0.06627195 -0.031978782
-0.39442202 0.49999902 0.3470004 0.25962028 0.10935592 0.0018794376 -0.022918249 0.18295607
-0.08227075 0.5015356 -0.37478417 -0.15383193 0.12983115 0.9684252 0.06565344 -0.048923712
0.42655808 0.15835977 -0.47595322 0.095020786 -0.037793282 -0.04914808 -0.23023653 0.10573013
-0.0081128115 -0.8357246 -0.42366242 0.396692 0.24085212 0.13770461 0.011814455 0.01498718
-0.22037362 0.39874914 0.22061999 -0.013547299 -0.214497 -0.025868602 0.04343741 -0.0715387
0.21482486 0.031253826 -0.43105486 -0.049280208 -0.16882882 -0.0058089085 0.16759501 0.056460697
-0.07004579 -0.023279121 0.051074225 -0.0018359607 -0.13935147 0.0589813 0.1928916 -0.022361418
-0.04507635 -0.19719063 0.20023084 0.24147955 -0.22843328 0.14271137 0.076378174 -0.059990615
0.21684697 0.2216411 -0.35411862 0.15580542 -0.21902959 0.09590342 -0.052030277 -0.003349596
00000000: 3f7e c4be 68b1 14bf baf4 30bb 0ec1 2c3f
00000010: d2b7 76bd c730 353f 6949 3ebe c642 bbbe
00000020: 1dd2 773d a5e9 b5be 10c8 b6be 5e0a 17bb
00000030: 27ad 6f3e ac30 293d 31f3 b2bd d8cc 69bc
00000040: b896 15bd 80c9 fc3d 32a6 ce3e 25c0 94be
00000050: 1c79 1ebe c182 74be c221 11be 0bec 94be
00000060: 1178 703e 3938 563d 71b7 c53e 7390 08bd
00000070: 9d38 aebd fd0f 163e 8738 973d d8be 803d
00000080: 55f3 98be 787c 6a3e 9910 153e f12e 343f
00000090: f856 a73d 5f13 6abe c10f 1a3f eff1 823e
000000a0: e732 333e 83ab 7d3d e9b9 50be 7529 023e
000000b0: e899 023d 2532 a33c a1ab 13bf 3a4c e43c
000000c0: a3bd 493e 6591 b2be 6a24 89be 2776 a2be
000000d0: 5141 90be 35ac 9e3d 7ce1 d13d b26d 4bbf
000000e0: 55ea dabe 00d7 28be 3e40 84be a07c ca3e
000000f0: d1b1 663e bab6 593e ba93 ff3c c7e1 44be
00000100: 749d ba3d 08ad 443e 52fb a83e d6c2 94bc
00000110: 97d5 0b3e 3d0f 9d3e 6b60 e13d 11aa 0c3e
00000120: 6028 89be 582e a9be 4df9 6ebe 8ce3 163c
00000130: d2b0 7ebd 3f39 5d3e 04ec 19be 80cd 313e
00000140: fc10 66bc b19b a2bd 25e0 83be 1dd4 0a3f
00000150: 2ed2 d33e fb7a 2d3a 2866 543d fc2e cc3d
00000160: c259 e3be 4c19 c83c 235f 39be 85d4 bb3e
00000170: 22ce 583e b86f 293d d6ff 463d 26a6 0d3e
00000180: 61c2 c5be 3119 753e c2f8 04be 01e3 1f3f
00000190: 1d6a 1bbe 1d22 7fbd 7bfc 26be 73ad 683f
000001a0: ad4f a63e fade debd a7ff 0f3e d662 05be
000001b0: 8c05 d6bd 34de 283e de93 77bc bab7 b03d
000001c0: d5eb 653d 3d95 3ebe 752d 23be a71b 0abe
000001d0: 25f2 753e 2e3f 1abe 0668 6abc eaef 9f3e
000001e0: 4427 00bf 9c73 1dbe cd21 55be e873 c03b
000001f0: 29a0 afbd 1843 19be 0c74 45be fb57 51bd
00000200: 5381 113f 6ba2 af3c 496d 60bc 000d 333c
00000210: f46f 253e e006 4fbb 5af3 623c e0f4 41bc
00000220: 2ecd fa39 99db 8ebe 4009 3cbe 812f 1b3e
00000230: 3424 8c3d f6e3 64bd 1909 00bd 60ce 2abc
00000240: 4cec 813d 4e85 403b aa92 6abd 9986 163e
00000250: fd7e c23d 187d b53e e9f6 f23d 280f 063d
00000260: 70d0 14be 4053 60bd 7606 e53d c84c e4be
00000270: e83e e03d 69b8 58be 6750 3d3e a903 cfbd
00000280: 4d85 8e3e 1ba5 c53e eaac 8abe 60f1 75be
00000290: d04c debc 88b2 1e3e 8233 b5bd 7988 5c3f
000002a0: 4d7b 14bf c94d 62be 8104 9a3e cf83 8bbd
000002b0: d4df 223a dc64 f43d 4c91 c63e 712a 98bc
000002c0: 74f8 85bd 7cdd 2abe 60bf 783d a408 95be
000002d0: 64a7 bd3e 0ca7 83bd 97b9 87bd 2ffc 02bd
000002e0: aff1 c9be dfff ff3e 09aa b13e f3ec 843e
000002f0: fff5 df3d 7657 f63a 0dbf bbbc d658 3b3e
00000300: 917d a8bd a364 003f b6e3 bfbe 1e86 1dbe
00000310: 75f2 043e b7ea 773f 5075 863d 3b64 48bd
00000320: d265 da3e 1029 223e 24b0 f3be 429a c23d
00000330: 21cd 1abd 7f4f 49bd 20c3 6bbe 0a89 d83d
00000340: 99eb 04bc 0cf2 55bf 48ea d8be 371b cb3e
00000350: f0a1 763e 7002 0d3e 6a91 413c ca8c 753c
00000360: 9fa9 61be d928 cc3e 35ea 613e 7ef5 5dbc
00000370: 1aa5 5bbe 64ea d3bc 6deb 313d e282 92bd
00000380: 0cfb 5b3e 0304 003d 39b3 dcbe 0bda 49bd
00000390: 76e1 2cbe a858 bebb 079e 2b3e 5543 673d
000003a0: 2b74 8fbd dbb3 bebc 3533 513d 9ea4 f0ba
000003b0: 27b2 0ebe 6096 713d 6085 453e 4b2f b7bc
000003c0: fba1 38bd 57ec 49be 5009 4d3e 6a46 773e
000003d0: 6aea 69be ee22 123e 296c 9c3d b8b8 75bd
000003e0: 220d 5e3e e2f5 623e 094f b5be 758b 1f3e
000003f0: 4b49 60be 0369 c43d b31d 55bd e584 5bbb

bias f4 [28]
-2.361619 0.42157736 -1.6624787 -1.4764781 -0.017745787 -1.1959286 0.7978133 1.0257683
0.32130992 -0.5334173 1.5738016 -0.44226953 -1.2576708 0.017306123 0.07233643 -0.086100675
0.2538799 0.6769785 0.08208548 -1.8122709 -0.7195735 0.09254614 0.0122361975 1.2200928
1.6909331 -0.09054821 0.13127127 0.0022086147
00000000: c424 17c0 fdd8 d73e 1acc d4bf 3cfd bcbf
00000010: 9d5f 91bc 3014 99bf 7e3d 4c3f 604c 833f
00000020: bc82 a43e 098e 08bf 5572 c93f 2771 e2be
00000030: 5bfb a0bf 92c5 8d3c 1f25 943d 8d55 b0bd
00000040: 8cfc 813e 774e 2d3f 6f1c a83d 7ef8 e7bf
00000050: f835 38bf d588 bd3d 557a 483c 002c 9c3f
00000060: 7f70 d83f 5771 b9bd fa6b 063e 68be 103b

weight f4 [32, 28]
0.36034548 0.008585649 0.6700885 -0.7000516 0.030742114 0.31485775 -0.1292189 -0.21536902
-0.33927435 -0.94097745 -0.32267025 -0.016927524 0.45519438 0.49670872 0.54128647 -0.18013279
-1.0625527 -0.34807426 0.10589096 -0.039331388 -0.81677794 -0.36602837 -0.55306345 0.34074098
-0.5776957 0.40822595 0.7747059 0.1454715 -1.9130671 -1.4021404 -0.019280713 -0.86499894
0.0074804993 0.16977589 1.5175197 0.34094387 0.15301643 0.83028626 -1.1443428 0.22235917
-0.43222404 0.038299136 -0.7483025 0.009896947 -0.13582036 0.5260674 0.074370906 0.29649726
-2.1417918 -0.067647 0.03050431 -0.6143737 0.10438502 0.010464642 1.5677425 -0.07174393
-0.06674971 0.26278967 -0.6230334 0.20914085 -0.036333513 -1.3916475 -0.50042313 -0.3846363
0.7681462 0.6998636 -0.13420853 1.4075371 -0.13225421 0.057909157 0.19269018 0.008810268
1.3016399 0.26811054 0.019047998 0.173143 -0.32320365 -0.025797008 -0.03569369 -0.93818223
0.97600853 -0.051988743 -0.36224332 0.100006975 -0.19136314 -0.8067866 1.1881198 -0.6730466
0.2129144 0.4232263 0.39318728 -0.65879595 -0.05804012 0.16402464 -1.2727277 -0.1979181
0.6842703 -0.1716777 -0.5962239 0.088381484 -1.185455 -0.006051531 -0.13164431 1.4528041
-2.1922429 0.21682157 0.15756044 -0.7911275 -0.74046814 0.06009856 0.017821066 -0.08364991
-0.55432403 0.31674412 -0.19537337 0.322297 -0.030393401 -0.11862325 0.80144626 0.4119593
-0.08712068 0.9757087 0.43979472 -0.081858344 -0.09202643 -0.05079739 0.13181955 -0.011727526
0.083637476 -0.014134521 0.03616225 -0.3133273 0.75162834 0.04209911 0.052215464 -0.04940539
0.08209345 0.053859103 -0.698993 -0.014603401 0.2254505 0.18165809 -0.18706906 0.60428333
-0.021986417 -0.2600119 -0.32187665 -0.3323126 -0.24322526 0.25734457 0.08119224 -0.51608855
0.24421781 -0.042458143 -1.1999115 -0.005655997 -0.0601917 0.14133567 -0.0653119 0.21447705
-0.04321163 -0.0135335615 0.00982651 -1.2894216 0.12560552 -0.03289347 -1.3604269 -0.04767803
0.2292563 -0.20853308 0.6214509 -0.9599395 0.0022108865 -0.18341498 0.3028481 0.067601584
-0.20774083 -0.4910736 -0.59493196 -0.3669499 0.013592969 0.17150559 -0.30294105 -0.16972399
-0.64022374 -0.12583692 -0.7453202 0.5047741 -0.50123554 0.35983807 0.22533247 0.71073407
-0.036178794 -0.14223278 0.37313664 0.28430042 -0.035407342 -0.17636853 0.14921458 -0.9723061
-0.12921962 0.0064054574 0.2933242 0.07438645 0.12954643 -0.60907924 -0.6195585 -0.31392327
0.07624363 -0.15934345 0.31864935 -0.4405013 -0.82307416 -0.06506146 -0.15216088 0.001515145
-0.12009146 0.3445399 0.18856712 0.7747273 0.16071239 0.5843676 0.5945157 -0.35568765
0.1804318 0.059022732 -0.70964926 0.99543875 -0.068733886 0.501847 -0.35042042 0.6327671
-1.5244368 -0.046680674 0.114512146 0.8554299 -0.40438458 -0.067389265 -1.114971 -0.009686633
0.84257805 0.5651536 -0.002871628 -0.07169788 -0.50999737 0.025092673 -0.028594837 -0.17386803
0.76628065 0.042587236 -0.3285833 -0.03836024 0.12599693 -0.6018198 0.020872496 0.21685623
00000000: 347f b83e d2aa 0c3c ec8a 2b3f 9536 33bf
00000010: e3d6 fb3c 0935 a13e f651 04be b289 5cbe
00000020: 5eb5 adbe e6e3 70bf 0935 a5be 97ab 8abc
00000030: 3d0f e93e 9b50 fe3e c091 0a3f bb74 38be
00000040: ba01 88bf ca36 b2be 5cdd d83d f319 21bd
00000050: 5c18 51bf 1268 bbbe 9195 0dbf 9a75 ae3e
00000060: dee3 13bf fe02 d13e 2053 463f 7bf6 143e
00000070: 62df f4bf 5679 b3bf 96f2 9dbc 9270 5dbf
00000080: fa1e f53b bbd9 2d3e 163e c23f 3290 ae3e
00000090: 57b0 1c3e a48d 543f d379 92bf 1fb2 633e
000000a0: 784c ddbe 8edf 1c3d c190 3fbf ce26 223c
000000b0: 7e14 0bbe 5aac 063f c64f 983d 7dce 973e
000000c0: 1e13 09c0 838a 8abd 2de4 f93c 9847 1dbf
000000d0: d0c7 d53d e473 2b3c c9ab c83f 7bee 92bd
000000e0: 12b4 88bd 5e8c 863e 1e7f 1fbf 0529 563e
000000f0: 73d2 14bd 8121 b2bf bb1b 00bf 0def c4be
00000100: 3ba5 443f 432a 333f f66d 09be 2d2a b43f
00000110: a66d 07be 2732 6d3d 9350 453e f158 103c
00000120: 239c a63f c945 893e 8c0a 9c3c 664c 313e
00000130: f37a a5be 3f54 d3bc 8c33 12bd b62c 70bf
00000140: b2db 793f 26f2 54bd f577 b9be 75d0 cc3d
00000150: b3f4 43be 9189 4ebf 4f14 983f c84c 2cbf
00000160: 3c06 5a3e 1eb1 d83e d84f c93e daa6 28bf
00000170: 7abb 6dbd 13f6 273e bee8 a2bf 0bab 4abe
00000180: 572c 2f3f 47cc 2fbe 21a2 18bf 5a01 b53d
00000190: fdbc 97bf ec4b c6bb c4cd 06be 7cf5 b93f
000001a0: b54d 0cc0 7906 5e3e 8657 213e 5587 4abf
000001b0: 528f 3dbf e829 763d 7cfd 913c a550 abbd
000001c0: 2ee8 0dbf 492c a23e f50f 48be 1d04 a53e
000001d0: 95fb f8bc bff0 f2bd 952b 4d3f 54ec d23e
000001e0: 546c b2bd 0cc8 793f c62c e13e 59a5 a7bd
000001f0: 5a78 bcbd ed10 50bd b4fb 063e cf24 40bc
00000200: 204a ab3d 7a94 67bc de1e 143d 706c a0be
00000210: b76a 403f 1e70 2c3d e2df 553d 4e5d 4abd
00000220: 9c20 a83d 5d9b 5c3d 35f1 32bf 1a43 6fbc
00000230: 7fdc 663e 9404 3a3e 088f 3fbe 50b2 1a3f
00000240: dc1c b4bc 4820 85be 04cd a4be e124 aabe
00000250: 0b10 79be abc2 833e 1e48 a63d 611e 04bf
00000260: 3c14 7a3e 97e8 2dbd b396 99bf f155 b9bb
00000270: 928b 76bd 4cba 103e 3fc2 85bd df9f 5b3e
00000280: aefe 30bd dfbb 5dbc 5fff 203c c40b a5bf
00000290: bc9e 003e 4ebb 06bd 7822 aebf 0a4a 43bd
000002a0: 2ac2 6a3e b289 55be 6817 1f3f 98be 75bf
000002b0: 85e4 103b 23d1 3bbe e80e 9b3e b372 8a3d
000002c0: 03ba 54be 006e fbbe 764d 18bf dbe0 bbbe
000002d0: 0bb5 5e3c 299f 2f3e 171b 9bbe 20cc 2dbe
000002e0: b4e5 23bf 65db 00be 4ecd 3ebf e038 013f
000002f0: f950 00bf b23c b83e 8ebd 663e abf2 353f
00000300: 3730 14bd 78a5 11be c40b bf3e d38f 913e
00000310: 4a07 11bd f499 34be b5cb 183e 0de9 78bf
00000320: 2652 04be dfe4 d13b 972e 963e ec57 983d
00000330: d2a7 043e 9eec 1bbf 639b 1ebf 8dba a0be
00000340: 9f25 9c3d ee2a 23be 0226 a33e 6389 e1be
00000350: fdb4 52bf f13e 85bd 10d0 1bbe d497 c63a
00000360: 83f2 f5bd 8967 b03e bd17 413e 8754 463f
00000370: ca91 243e 1d99 153f 2e32 183f b11c b6be
00000380: 1dc3 383e d2c1 713d 93ab 35bf 13d5 7e3f
00000390: 5ac4 8cbd 0c79 003f 4e6a b3be 06fd 213f
000003a0: bf20 c3bf 3c34 3fbd 5885 ea3d 74fd 5a3f
000003b0: 7f0b cfbe 6203 8abd 5fb7 8ebf afb4 1ebc
000003c0: 32b3 573f e8ad 103f ec31 3cbb 57d6 92bd
000003d0: 308f 02bf 268f cd3c b83f eabc 760a 32be
000003e0: f82a 443f f46f 2e3d 123c a8be a11f 1dbd
000003f0: 5705 013e dd10 1abf ccfc aa3c 8f0f 5e3e
