MultiModal/2loss13.478884071111679.pth (torch, 492984 bytes, 41 tensors)

weight f4 [16, 1, 4]
0	0x3ea63054	0.32458746
1	0x3d40b512	0.047047682
2	0x3df0f1f7	0.11764901
3	0x3ebe0d5a	0.3711956
4	0xbec5dcda	-0.3864506
5	0xbe370a4a	-0.17875019
6	0xbe28a250	-0.16468167
7	0xbecc276e	-0.39873832
8	0xbe2f90ef	-0.17145132
9	0x3c072ce7	0.008250452
10	0xbd946c85	-0.07247261
11	0xbe95030a	-0.2910388
12	0xbca9539b	-0.020669749
13	0xbf29b62d	-0.66293603
14	0xbe8ef4b5	-0.27921072
15	0xbe788211	-0.24268366
16	0x39d2a729	0.00040178865
17	0xbef3193f	-0.474802
18	0xbebfe76b	-0.37481245
19	0xbee248cf	-0.44196174
20	0xbef393ff	-0.4757385
21	0xb9932e2b	-0.00028072423
22	0xbec35f4b	-0.3815864
23	0xbe6de39c	-0.23231357
24	0xbcd56b29	-0.026052075
25	0xbf0e8381	-0.5566941
26	0xbe1cc477	-0.1530932
27	0xbe7ec9b5	-0.24881633
28	0xbf8acb3c	-1.0843272
29	0xbf85d770	-1.0456371
30	0xbe884d1b	-0.26621327
31	0x3c280a49	0.010256358
32	0x3d0942df	0.03351104
33	0x3d9d73fb	0.07688137
34	0x3e572073	0.21008472
35	0xc08b350b	-4.350225
36	0xbc130ded	-0.008975488
37	0xbf2f8cb8	-0.68574095
38	0xbecc521e	-0.399064
39	0xbc13a9ce	-0.009012653
40	0x3f23932f	0.6389646
41	0xbfc1f5e2	-1.5153162
42	0x3ea1fbf3	0.31637534
43	0x3f1fedeb	0.6247241
44	0xc12a43d3	-10.641559
45	0xc01932f8	-2.393736
46	0xbf9e5e46	-1.237252
47	0xbedd8a15	-0.4326941
48	0xbf351bdf	-0.7074565
49	0xbf47269d	-0.77793294
50	0xbce87775	-0.028377274
51	0xbed04ba0	-0.40682697
52	0xbf893a88	-1.0720987
53	0xbf5bc524	-0.8584769
54	0xbec8b5a7	-0.3920109
55	0xbe6848f6	-0.22684082
56	0xbea332ee	-0.31874794
57	0xbfbbf7d3	-1.4685005
58	0x3f77f3e0	0.968565
59	0xbf95d57e	-1.1705778
60	0xbea125f0	-0.31474257
61	0xbcd751e2	-0.026284162
62	0xc06d4e48	-3.707903
63	0xc14c4d28	-12.768837

bias f4 [16]
0	0xc03a14d5	-2.9075215
1	0x401a1477	2.407499
2	0xbe94f03a	-0.29089528
3	0xc0000549	-2.0003226
4	0xbecde1e7	-0.40211412
5	0xbecbe9e7	-0.3982689
6	0xbebd7567	-0.37003633
7	0xbeebcd02	-0.46054846
8	0xbeda3712	-0.4262014
9	0xbe7116be	-0.23543832
10	0xbe39c529	-0.18141617
11	0x3feb4073	1.8379043
12	0xbeee937e	-0.46596903
13	0x3fbd9605	1.4811407
14	0x3ee3bb87	0.4447901
15	0x3f31b8aa	0.694224

weight f4 [16, 16, 4]
0	0xbe9e838a	-0.3095973
1	0xbc9ba033	-0.018997287
2	0xbe95cf79	-0.29259852
3	0xbe632b53	-0.22184496
4	0xbec9a919	-0.39386824
5	0xbf11bac8	-0.5692563
6	0xbe4782d4	-0.194835
7	0x3da2fb79	0.07958121
8	0xbca78d80	-0.020453215
9	0xbde3a904	-0.111162215
10	0x3d9dc69e	0.07703899
11	0x3b061840	0.0020461231
12	0xbd98bf98	-0.074584186
13	0xbddc4e28	-0.107570946
14	0xbe12042f	-0.14259408
15	0x3d8d0b8d	0.06886969
16	0x3d7f048d	0.0622602
17	0x3d9f25fb	0.07770916
18	0x3cc77389	0.024347084
19	0xbdcda058	-0.10040349
20	0xbd04beac	-0.0324084
21	0xbcd59f68	-0.026076987
22	0xbc2ab9f0	-0.0104203075
23	0x3dbc3a98	0.09190863
24	0x3c88aa63	0.01668281
25	0xbdcd9dad	-0.1003984
26	0xbd789480	-0.060688496
27	0xbc80c898	-0.01572065
28	0xbd9a3aae	-0.075307235
29	0xbdd88053	-0.10571351
30	0x3ce6b28f	0.028161315
31	0xbdfd5239	-0.12369198
32	0xbc311ac5	-0.010809605
33	0xbbbafb0d	-0.005706197
34	0xbe02448e	-0.12721464
35	0xbe001e42	-0.12511542
36	0xbd0454e8	-0.032307535
37	0xbda11191	-0.07864679
38	0xbb969fca	-0.004596685
39	0xbd85471f	-0.06507706
40	0xbe03e126	-0.12878856
41	0xbe44f186	-0.19232759
42	0xbe8163b2	-0.25271374
43	0xbe80a1ef	-0.25123546
44	0xbd994a45	-0.07484869
45	0xbe14724d	-0.14496727
46	0x3e6e2f61	0.23260261
47	0x3e8b1349	0.2716315
48	0xbdacc1da	-0.08435412
49	0x3d0f1d0e	0.034939818
50	0xbddd8f59	-0.10818357
51	0x3d7bbc21	0.06145871
52	0xbe944c66	-0.28964537
53	0xbd86b7fb	-0.0657806
54	0x3d5ef82c	0.054435894
55	0x3c6fbf60	0.01463303
56	0x3d4f6483	0.050632965
57	0xbd65f5d5	-0.056142647
58	0xbc365352	-0.011128264
59	0xb9715301	-0.00023014472
60	0xbdb0d072	-0.08633508
61	0xbc49abee	-0.012309058
62	0x3dc8572c	0.09782252
63	0xbe79efde	-0.24407908
64	0xbdfa01c1	-0.12207366
65	0xbcbf4e83	-0.023352867
66	0xbd2ce080	-0.042206287
67	0xbddcd057	-0.10781925
68	0xbe5bfccc	-0.21483153
69	0xbd5095b6	-0.050924025
70	0xbdbcf2c9	-0.09225995
71	0xbde5714a	-0.11203249
72	0x3d31a924	0.043374196
73	0x3dce29ce	0.10066567
74	0x3d4fbffc	0.0507202
75	0xbdb6e56c	-0.089304775
76	0xbe1b10ba	-0.151431
77	0xbdf77b77	-0.12084096
78	0xbda119f5	-0.07866279
79	0xbd51981d	-0.051170457
80	0x3cbad79c	0.022807889
81	0x3c37a145	0.011207883
82	0xbcf0c4d9	-0.02939074
83	0x3c9b6bc9	0.018972294
84	0xbdf14f5d	-0.117827155
85	0xbd0f786c	-0.035026953
86	0xbd1c65e7	-0.03818312
87	0x3d57f038	0.052719325
88	0x3d155522	0.036458142
89	0x3cc80ebf	0.024421094
90	0x3c88e964	0.016712852
91	0xbcc9b708	-0.024623409
92	0xbe179d29	-0.14806046
93	0xbdd389a1	-0.10328985
94	0xbe1c88eb	-0.15286605
95	0x3d31b8a7	0.04338899
96	0xbe43e99c	-0.19132084
97	0xbde0ff41	-0.10986186
98	0xbd9077dd	-0.07054112
99	0xbe19bc17	-0.15013157
100	0x3d8862b3	0.066594504
101	0xbd839e65	-0.06426696
102	0x3d96992a	0.073534325
103	0x3c861963	0.016369527
104	0xbda00eca	-0.07815321
105	0xbdbd19c6	-0.092334315
106	0xbdb9dc53	-0.09075227
107	0xbc3a0fd3	-0.011356312
108	0xbdee3a56	-0.116322204
109	0xbe5ccec3	-0.21563248
110	0xbe4ca228	-0.19983733
111	0xbcf3a518	-0.029741809
112	0xbd850fd6	-0.06497161
113	0xbd724d1e	-0.059155576
114	0x3c3c30b8	0.011486225
115	0xbce30598	-0.027712628
116	0xbe228936	-0.15872654
117	0xbd0c4fe7	-0.03425589
118	0x3cd8e5e0	0.0264768
119	0xbca5e5af	-0.020251123
120	0xbe03e107	-0.1287881
121	0x3db8a886	0.09016518
122	0x3bf2eef0	0.0074137375
123	0x3bc42afa	0.0059865685
124	0x3dcf68c4	0.10127404
125	0x3d642317	0.055697527
126	0xbd837c47	-0.064201884
127	0xbd38a1a7	-0.04507604
128	0xbdbd107e	-0.09231661
129	0xbe47d815	-0.19516023
130	0xbd3bd50a	-0.045857467
131	0xbd9a5ef2	-0.07537641
132	0xbe3a9cf4	-0.18223935
133	0xbd43878e	-0.047736697
134	0xbe2f9b53	-0.17149095
135	0xbd8149c9	-0.063129015
136	0x3dcd3f36	0.10021822
137	0x3d88190e	0.06645404
138	0xbceb8850	-0.028751522
139	0x3de7b4ba	0.11313768
140	0xbe2c9ac0	-0.16855907
141	0xbe025408	-0.12727368
142	0xbe4a5710	-0.19759774
143	0x3cf66a12	0.030079875
144	0xbd63e324	-0.05563654
145	0xbe237363	-0.15961985
146	0x3dd7a598	0.105296314
147	0xbc9964c0	-0.0187248
148	0x3d8ae80a	0.06782539
149	0x3b252b80	0.002520293
150	0x3dbc0f3c	0.09182593
151	0xbdc4f732	-0.09617461
152	0xbda672de	-0.08127378
153	0xbe280bbb	-0.16410725
154	0xbc2e3667	-0.010633088
155	0xbdbd811f	-0.092531435
156	0x3d18b6af	0.037283596
157	0x3c77e0e3	0.015129301
158	0x3d10a9af	0.035318073
159	0xbd40fc67	-0.04711571
160	0xbc7afdf7	-0.015319339
161	0xbc839e68	-0.016066745
162	0xbe299831	-0.16561963
163	0xbd77fe3c	-0.06054519
164	0xbe0c9008	-0.13726819
165	0x3c40ce73	0.011767971
166	0xbd4c64e6	-0.04990091
167	0x3c8fcd30	0.017553896
168	0xbdf29b21	-0.11845995
169	0xbe4a656e	-0.19765255
170	0xbe0a67a7	-0.13516103
171	0xbce1bd52	-0.027556095
172	0x3d8b8548	0.06812531
173	0xbe2bd6bb	-0.16781132
174	0xbdfeb3d2	-0.12436642
175	0x3d161628	0.036642224
176	0x3d2fc468	0.042911917
177	0xbd74b008	-0.05973819
178	0x3cde1721	0.027110638
179	0xba3c68a2	-0.00071872224
180	0xbe2fccde	-0.17167994
181	0xbde5e614	-0.112255245
182	0xbcd80e69	-0.026374059
183	0x3cdfde4f	0.027327685
184	0x3c915373	0.017739987
185	0xbde23435	-0.11045114
186	0xbe0337b0	-0.12814212
187	0xbdfa8745	-0.12232832
188	0xbdf6b4e3	-0.1204622
189	0x3d8c1d79	0.06841559
190	0xbe29b33c	-0.16572279
191	0xbdb1b3a0	-0.08676839
192	0xbe308189	-0.17236914
193	0xbd95eead	-0.073209144
194	0xbdd7632a	-0.10516961
195	0xbd9b1c3a	-0.07573743
196	0xbe06ad79	-0.13152112
197	0xbe3cb5bc	-0.18428701
198	0xbdb6806b	-0.089112125
199	0xbe4f59be	-0.20249078
200	0xbd83cd66	-0.06435661
201	0xbd50a0d8	-0.050934643
202	0x3da0f32a	0.0785888
203	0xbd933f4c	-0.07189807
204	0xbe0a0939	-0.1348008
205	0xbe450d9d	-0.19243474
206	0xbdc332ea	-0.095311955
207	0xbd852f0f	-0.06503116
208	0x3c97affa	0.01851653
209	0x3dfd134b	0.123571955
210	0xbca84653	-0.020541346
211	0x3d44b715	0.048026163
212	0x3c4c08a0	0.012453228
213	0xbd96680c	-0.07344064
214	0xbd904fb1	-0.0704645
215	0xbd864bc8	-0.06557423
216	0xbe391776	-0.18075356
217	0xbdf303c3	-0.11865952
218	0xbd2fdaec	-0.04293339
219	0xbdc7abb9	-0.0974955
220	0xbdf2c4f9	-0.11853976
221	0xbc45d62a	-0.0120749865
222	0xbdb2d973	-0.087328814
223	0xbd74343d	-0.05962013
224	0xbbbbf0ec	-0.0057355072
225	0x3c1417a9	0.009038844
226	0xbe1392e9	-0.1441151
227	0xbcef6645	-0.02922357
228	0xbdf654ad	-0.120278694
229	0xbdac257b	-0.08405586
230	0xbdad1658	-0.08451527
231	0xbae721fb	-0.0017634028
232	0xbe6e2f8c	-0.23260325
233	0xbe650f35	-0.22369082
234	0xbe05101a	-0.12994424
235	0xbd1fc847	-0.03900936
236	0x3bfb5d45	0.0076710307
237	0xbe43ead2	-0.19132546
238	0x3d10628e	0.03525024
239	0xbe4f7411	-0.2025912
240	0x3c70dd25	0.014701162
241	0xbdb3de04	-0.087825805
242	0xbd44f56c	-0.048085615
243	0x3d101c4c	0.035183236
244	0x3d23caf0	0.03998846
245	0xbe44cece	-0.19219515
246	0xbdbd0b56	-0.09230678
247	0xbd92a6ef	-0.07160746
248	0xbe460a75	-0.19339927
249	0x3c6dedc9	0.014522024
250	0xbe1a5581	-0.1507168
251	0xbd7cd5cf	-0.06172734
252	0xbd1ae6fe	-0.037817948
253	0x3c8006db	0.015628269
254	0xbc89071f	-0.016727028
255	0xbda87dac	-0.08227095

bias f4 [16]
0	0xbeae2280	-0.34010696
1	0xbe8d1035	-0.27551427
2	0xbda75e5a	-0.08172293
3	0xbe75c4e8	-0.24000895
4	0xbe603c44	-0.2189799
5	0xbe5fcba9	-0.21855034
6	0x3f1b586a	0.60681784
7	0xbfa4731e	-1.2847631
8	0x3e9dabd7	0.30795166
9	0xbf14dbda	-0.58147967
10	0xc08e7604	-4.451906
11	0xbe9f4229	-0.31105164
12	0x3ec543d6	0.38528317
13	0xbf1b6993	-0.6070797
14	0xbdd6d186	-0.10489182
15	0xc0f15282	-7.5413218

weight f4 [16, 16, 5]
0	0xbd583081	-0.052780632
1	0x3d3eee27	0.04661384
2	0x3d317d98	0.043332666
3	0x3b90e4de	0.0044218143
4	0x3c178850	0.009248808
5	0x3bc97a1d	0.0061485902
6	0xbd3084c7	-0.043095376
7	0xbd003436	-0.031299792
8	0x3d856c95	0.06514851
9	0x3d196094	0.03744562
10	0x3d672a10	0.0564366
11	0xbde17613	-0.11008849
12	0xbc22eea3	-0.009944591
13	0xbd92c83d	-0.07167099
14	0xbde57f84	-0.11205962
15	0x3ddbaeb1	0.10726679
16	0xbd079f41	-0.03311086
17	0xb93c1355	-0.00017936279
18	0xbd2f7a36	-0.04284116
19	0x3d96a5e9	0.073558636
20	0xbccb13cd	-0.024789715
21	0xbb8d3b70	-0.004310064
22	0xbe0251db	-0.12726538
23	0xbd9e7d10	-0.077386975
24	0xbd577f4b	-0.05261163
25	0xbd679088	-0.05653432
26	0x3d436204	0.047700897
27	0xbd5a8f07	-0.053359058
28	0xbd9a5f32	-0.07537688
29	0xbc9dadda	-0.019247938
30	0xbd524ee9	-0.051344786
31	0xbe43d26b	-0.19123237
32	0xbe993703	-0.29924783
33	0x3d431723	0.047629487
34	0xbc62773d	-0.013822374
35	0xbe6d35db	-0.23165075
36	0xbda7d809	-0.08195502
37	0xbe6c7907	-0.23093043
38	0xbe076e52	-0.13225678
39	0xbdedd721	-0.11613298
40	0xbe83c2b0	-0.25734472
41	0xbdba4956	-0.09096019
42	0xbe2e62a3	-0.17029814
43	0xbeac08ca	-0.33600456
44	0xbe9f7c96	-0.3114974
45	0xbe07a419	-0.13246192
46	0xbdd29d85	-0.10283951
47	0xbdd798d2	-0.10527195
48	0xbcfc41f7	-0.030793173
49	0xbdb969d0	-0.09053385
50	0xbf1b65e5	-0.60702354
51	0xbdb990d2	-0.090608254
52	0xbd1444e2	-0.036198504
53	0xbdf01290	-0.117222905
54	0xbcc2d167	-0.023781491
55	0xbb913f82	-0.0044326195
56	0xbd3d909a	-0.04628048
57	0x38cbc557	9.716552e-05
58	0xbdd29f05	-0.10284237
59	0x3bcc416a	0.006233384
60	0xbf053531	-0.5203429
61	0xbf6550b0	-0.89576244
62	0xbe04736a	-0.12934652
63	0x3d25fb60	0.040522933
64	0xbd73e5f6	-0.05954548
65	0xbef1b583	-0.47208795
66	0xbdf1c954	-0.118059784
67	0xbe9cdd50	-0.30637598
68	0xbe1dc5c6	-0.15407476
69	0xbe24b113	-0.16083173
70	0xbcc4df14	-0.024032153
71	0xbe1fcfab	-0.15606563
72	0xbc3d1735	-0.0115411775
73	0xbbeb3683	-0.007178129
74	0x3daa942a	0.08329041
75	0x3c5840e8	0.013199069
76	0xbdae8a1b	-0.08522435
77	0xbc97e037	-0.018539531
78	0xbe9f1c4c	-0.31076276
79	0xbdcc826c	-0.099858135
80	0xbe094b16	-0.1340755
81	0xbcc10789	-0.023563163
82	0xbdb460e4	-0.08807543
83	0xbc35559d	-0.011067775
84	0xbd81fbb5	-0.063468374
85	0xbc18b62e	-0.009320779
86	0x3d7e29ba	0.062051512
87	0x3d554324	0.052065983
88	0x3d30bc55	0.043148357
89	0x3d402924	0.046914235
90	0xbd632b59	-0.05546126
91	0xbdd63f34	-0.10461274
92	0xbd0949a3	-0.03351749
93	0xbdf69416	-0.12039964
94	0x3d4106ad	0.047125507
95	0x3dd8bb33	0.105825804
96	0x3da351ed	0.079746105
97	0x3dbf8bc3	0.09352829
98	0xbc866e0a	-0.016409893
99	0x3e13e03c	0.14441007
100	0xbe0b2e67	-0.1359192
101	0xbd2c28ad	-0.04203098
102	0xbb56e97b	-0.0032792974
103	0xbd8b7054	-0.06808534
104	0x3d522f40	0.051314592
105	0x3d902c34	0.07039681
106	0x3c2b3383	0.010449293
107	0xbd79ff6a	-0.061034597
108	0xbd558f01	-0.052138332
109	0x3d19023a	0.03735564
110	0xbf0c4cc2	-0.54804623
111	0xbe075a18	-0.13217962
112	0xbf2a0a1a	-0.66421664
113	0xbefaac4a	-0.4895957
114	0xbf80b22a	-1.0054371
115	0xbe8d380e	-0.2758183
116	0xbd90fa42	-0.07078983
117	0xbcf2eebd	-0.029654855
118	0xbe43ab98	-0.19108427
119	0xbe80f165	-0.2518417
120	0xbf5b99c7	-0.8578152
121	0xbf5ee4a9	-0.8706766
122	0xbd41ebf1	-0.047344152
123	0xbf1123d3	-0.5669529
124	0xbe6956b0	-0.22786975
125	0xbd3e44ac	-0.04645221
126	0xbe00226b	-0.1251313
127	0xbc2b5dd4	-0.010459382
128	0xbdcdc4c5	-0.100472964
129	0xbc3a2b3c	-0.011362847
130	0xbeb40953	-0.35163364
131	0xbebf2e72	-0.37340122
132	0xbf342a3d	-0.7037695
133	0xbf079953	-0.5296833
134	0xbf377ad7	-0.71671814
135	0x3e07ac59	0.13249339
136	0xbca416a6	-0.02003033
137	0xbd50b0eb	-0.050949972
138	0xbd1d5d0d	-0.03841882
139	0x3de31b9a	0.11089249
140	0xbf06ea0b	-0.5270087
141	0xbe8a2bfc	-0.26986682
142	0x3d76eeb1	0.060286228
143	0xbefc0fa5	-0.49230686
144	0xbf4f6914	-0.8101971
145	0xbdade7a7	-0.0849145
146	0xbe7a8fb8	-0.24468887
147	0xbe873f8e	-0.26415676
148	0x3dd02163	0.10162618
149	0x3b257e6a	0.002525235
150	0xbe00d347	-0.12580596
151	0x3c5a4428	0.013321914
152	0x3cc55baa	0.02409156
153	0xbdf59cb2	-0.11992778
154	0x3d2bfbb5	0.041988093
155	0xbf1a669a	-0.6031281
156	0x3e024eaa	0.1272532
157	0x3d8b5f24	0.06805256
158	0xbef67ecf	-0.48143622
159	0x3d245035	0.040115554
160	0xbca56fbb	-0.020194879
161	0x3d00af9e	0.03141748
162	0xbd264e47	-0.040601995
163	0xbd8a93fa	-0.067665055
164	0xbd090f18	-0.03346166
165	0xbc5d99ff	-0.013525485
166	0xbdf8fc8f	-0.12157547
167	0xbe307e49	-0.17235674
168	0xbddcbaa7	-0.107777886
169	0xbe13443e	-0.14381501
170	0xbdb63d42	-0.08898403
171	0x3c3e95ef	0.011632427
172	0xbd52fea4	-0.051512375
173	0xbd287c8c	-0.041134402
174	0xbdb7f37e	-0.08981989
175	0x3e076624	0.13222557
176	0xbd0d1678	-0.034445256
177	0xbd4eb949	-0.05046967
178	0x3c90cf0b	0.01767685
179	0xbca612b9	-0.0202726
180	0xbdd0e55a	-0.10199995
181	0x3c4a5592	0.012349503
182	0xbb7b6d49	-0.00383647
183	0xbdae5bc8	-0.085136
184	0xbda342ff	-0.07971763
185	0xbd82ea1c	-0.06392309
186	0xbe25a787	-0.16177188
187	0xbd006abd	-0.031351794
188	0xbd97db01	-0.074148186
189	0xbe0bee02	-0.13665012
190	0xbf1dc0e0	-0.6162243
191	0xbf28425c	-0.65726256
192	0x3d6b7d64	0.05749263
193	0x3e3fd91e	0.18735167
194	0xc01a4e75	-2.4110386
195	0xc08593fd	-4.174315
196	0xbf994ed5	-1.1977183
197	0x3a40ed5b	0.00073595875
198	0xbfff9035	-1.9965883
199	0xbd8d6712	-0.06904425
200	0xbff72ce6	-1.9310577
201	0x3ee97334	0.45595706
202	0xbb1cb7ae	-0.0023913193
203	0x3eca7e6d	0.3954958
204	0xc083fc0e	-4.1245184
205	0x3d902562	0.0703838
206	0x3cc111a3	0.02356798
207	0xbcad4ff8	-0.021156296
208	0xbc674882	-0.014116408
209	0x3da2028c	0.07910642
210	0xc0752f90	-3.831028
211	0xbe25d13a	-0.16193095
212	0xbe784daf	-0.24248384
213	0x3eaa06a9	0.33208206
214	0xbec729d3	-0.38899097
215	0x3d342d8f	0.04398876
216	0x3ca46a3c	0.020070188
217	0xbc335d1e	-0.010947494
218	0xbcdf5c66	-0.027265739
219	0xbde2de7b	-0.11077591
220	0xbf99c5b3	-1.2013458
221	0xbe86006c	-0.26172197
222	0xbf9c3238	-1.2202826
223	0xbebce32f	-0.36892077
224	0xc0011e7e	-2.017486
225	0xbe144ce8	-0.14482462
226	0x3d97e2db	0.07416316
227	0xbc14f375	-0.009091248
228	0xbf3d3976	-0.73915803
229	0xbf57b931	-0.84266955
230	0xbcab4c1b	-0.020910313
231	0x3d1d05f8	0.03833577
232	0xbe0a00f7	-0.1347693
233	0x3ce18b0e	0.027532127
234	0xbcdbed95	-0.026846686
235	0xbf1ea603	-0.61972064
236	0xbba2a139	-0.004963067
237	0xc0019503	-2.02472
238	0xbfa9a280	-1.3252716
239	0xbffb7e21	-1.9647866
240	0xbcc7b337	-0.024377448
241	0xbda8791e	-0.08226226
242	0xbe140367	-0.14454423
243	0x3d162653	0.036657643
244	0x3d16a313	0.036776613
245	0xbdebafec	-0.11508164
246	0xbc5cc571	-0.013474808
247	0xbc78b14e	-0.0151789915
248	0x3d45c8d0	0.048287213
249	0x3d36fc08	0.04467395
250	0x3c8b9641	0.01703942
251	0xbd02d171	-0.03193802
252	0x3d3758f5	0.04476257
253	0x3cee4cd6	0.029089373
254	0xbdf4d011	-0.11953748
255	0x3d81389a	0.06309624

bias f4 [16]
0	0xbf7902b1	-0.9726973
1	0xbf95dbff	-1.1707762
2	0xc0182bb9	-2.3776686
3	0xbf68f5bb	-0.90999955
4	0xbe2a08fd	-0.16604991
5	0xbf9f84b9	-1.2462379
6	0xbf1fb71e	-0.6238879
7	0xbed3947b	-0.4132422
8	0xbeaf2b1d	-0.3421258
9	0x3ebd3625	0.36955371
10	0xbfeb10f9	-1.8364555
11	0xbf071335	-0.5276368
12	0xbf3f933c	-0.74834037
13	0xbde8b393	-0.11362376
14	0x3f615ab0	0.88029003
15	0xbfdb5e3a	-1.7138131

weight f4 [16, 16, 5]
0	0xbdcb643d	-0.09931228
1	0xbbc3477a	-0.0059594484
2	0xbdb5317a	-0.088473275
3	0xbe6f3e7f	-0.23363684
4	0xbe4e82a3	-0.20167021
5	0xbea57b96	-0.3232085
6	0xbe5ba27c	-0.21448702
7	0x3c1500d0	0.009094432
8	0xbe90d5c6	-0.28288096
9	0xbeb2e874	-0.34942973
10	0xbf91e3f7	-1.1397694
11	0x3d4e4dc5	0.050367136
12	0x3f0315de	0.5120524
13	0xbdb10de7	-0.0864523
14	0x3f160c30	0.58612347
15	0xbed21c6b	-0.41037306
16	0x3e117341	0.14204122
17	0xbe4fcae8	-0.20292246
18	0x3e51ec7f	0.20500372
19	0x3d9e6b1c	0.07735273
20	0xbd80165d	-0.062542655
21	0xbf007b18	-0.50187826
22	0x3dff2fc3	0.12460282
23	0xbe596abc	-0.21232122
24	0xbf314289	-0.6924215
25	0xbf98bb67	-1.1932191
26	0xbe27d9e0	-0.16391706
27	0xbf723917	-0.9461836
28	0xbe5595dc	-0.20857948
29	0x3fb96c06	1.4486091
30	0xbdc068b3	-0.0939497
31	0x3e9bf0ff	0.30457303
32	0xbe5f368b	-0.2179815
33	0xbd414a5d	-0.04719006
34	0xbe6e3145	-0.23260982
35	0x3cd5d1d7	0.026101036
36	0xba2c9491	-0.00065834174
37	0x3b61e32b	0.0034467678
38	0xbda3c891	-0.079972394
39	0xbd4dec89	-0.050274406
40	0xbe54a62c	-0.20766515
41	0xbe11bfee	-0.14233372
42	0x3dcb5358	0.09928006
43	0x3cfb1664	0.030650325
44	0xbe81980e	-0.2531132
45	0xbc8f5801	-0.017498018
46	0xbf808abb	-1.0042337
47	0xbe50bb6f	-0.20384
48	0xbf097887	-0.53699535
49	0x3e71dc6f	0.23619245
50	0x3e137e60	0.14403677
51	0x3e1059be	0.14096734
52	0x3f3e403b	0.7431676
53	0xbe583a51	-0.21115996
54	0xbf0cdda8	-0.5502572
55	0xbdf76a66	-0.12080841
56	0xbe2c1195	-0.16803582
57	0xbd2ee243	-0.04269625
58	0xbc9e2958	-0.019306824
59	0x3e0829c3	0.13297181
60	0xbf2a465f	-0.6651363
61	0xbebb53d7	-0.36587402
62	0xbd919695	-0.07108799
63	0xbeb03e63	-0.34422597
64	0x3e2cb710	0.16866708
65	0x3eedae2d	0.46421948
66	0x3f366a68	0.71256113
67	0xbea72912	-0.32648522
68	0xbf07242a	-0.52789557
69	0x3f67273f	0.9029426
70	0x3ed0dff2	0.40795857
71	0xbf40c6a4	-0.753031
72	0x3ec90cf5	0.39267698
73	0xbe2aa0df	-0.1666293
74	0xbf93f156	-1.1558025
75	0xbefc62f9	-0.4929426
76	0x3edf5102	0.43616492
77	0xbe67cb63	-0.2263618
78	0x3e282838	0.16421592
79	0x3e6cfe65	0.23143919
80	0xbe3034f0	-0.17207694
81	0xbd1bb556	-0.038014732
82	0xbd0bdda6	-0.034146927
83	0xbe67edff	-0.22649382
84	0x3dee84e4	0.116464406
85	0xbfa301c2	-1.2734911
86	0x3e22baf9	0.15891637
87	0xbef1b5d2	-0.4720903
88	0xbf0c8455	-0.5488942
89	0x3db9ea70	0.090779185
90	0xbf0c6f28	-0.5485711
91	0xbe0e6264	-0.1390472
92	0x3f2635c3	0.64925784
93	0xbeeaa232	-0.4582687
94	0x3f1e654d	0.6187332
95	0xbf95fa71	-1.1717054
96	0xbf1d2720	-0.61387825
97	0x3dcbabfd	0.099449135
98	0x3ed3deff	0.4138107
99	0x3eb542f4	0.35402644
100	0xbec99d17	-0.39377663
101	0x3e94efbb	0.2908915
102	0x3ec70735	0.38872686
103	0x3c7d47d7	0.0154590225
104	0x3f56e754	0.8394673
105	0x3f538471	0.82623965
106	0xbe094798	-0.13406217
107	0xbdd202ba	-0.10254426
108	0xbe5e0662	-0.21682122
109	0x3db363ac	0.08759245
110	0x3e290db2	0.1650913
111	0x3cec7167	0.028862668
112	0xbc8c4f5c	-0.017127685
113	0xbe02f012	-0.12786892
114	0xbc3e8dc8	-0.011630483
115	0x3de1d31d	0.11026595
116	0xbbc3da6e	-0.0059769666
117	0xbd727720	-0.059195638
118	0xbd117307	-0.03551009
119	0xbe0c165c	-0.13680404
120	0x3f115c18	0.5678115
121	0xbc3ce321	-0.011528761
122	0x3e1d7742	0.15377524
123	0x3e733afa	0.23752967
124	0xbe67f2f7	-0.22651277
125	0xbfc36cb7	-1.5267552
126	0xbf9ac092	-1.2090018
127	0x3e31a0f7	0.1734656
128	0x3f1ee54d	0.62068635
129	0x3f79fcdf	0.97651476
130	0xbe800a95	-0.25008073
131	0xbf8f4d86	-1.1195533
132	0x3e8dec67	0.27719423
133	0xbe987c03	-0.29782113
134	0xbed06da0	-0.40708637
135	0x3e827b86	0.25484866
136	0x3e130fc5	0.14361484
137	0x3c88d67d	0.016703838
138	0x3e755998	0.23959959
139	0xbdf493f9	-0.11942286
140	0x3e27f189	0.16400732
141	0x3d950ee7	0.07278233
142	0x3df56767	0.11982613
143	0xbe22ebb4	-0.15910226
144	0x3d21f2a1	0.03953803
145	0x3e870b41	0.26375774
146	0xbf422d7d	-0.7585066
147	0xc015fb42	-2.3434606
148	0x3df0d718	0.11759776
149	0x3e1f0a0a	0.15531173
150	0xbe0d6676	-0.13808617
151	0x3da6642e	0.081245765
152	0xbe1f0427	-0.15528928
153	0x3ebd5385	0.36977783
154	0xbea03f83	-0.31298456
155	0xbf1742c4	-0.5908625
156	0xbf23f8d2	-0.64051545
157	0x3dfa284c	0.12214717
158	0x3f0b0a23	0.5431234
159	0x3e5cca3d	0.21561523
160	0xbe9be614	-0.30448973
161	0x3ebbdbda	0.3669117
162	0xbe406615	-0.18788941
163	0xbe821c6f	-0.25412318
164	0x3e5da359	0.21644343
165	0x3d732fd5	0.059371788
166	0xbf3cca56	-0.7374624
167	0x3e8dd319	0.27700117
168	0xbe2726a2	-0.16323331
169	0x3ea1ffae	0.3164038
170	0xbf28f847	-0.6600384
171	0xbe70c940	-0.23514271
172	0xbf88fc5f	-1.0702018
173	0x3f3642ec	0.71195865
174	0xbdf67fc9	-0.12036092
175	0xbdb3b7be	-0.087752804
176	0xbf0ffce1	-0.5624524
177	0x3bcdf59e	0.0062853834
178	0x3e8b346e	0.27188438
179	0xbd49df00	-0.049284935
180	0x3de26e91	0.11056245
181	0x3ed3a4f3	0.41336784
182	0x3a8a25f1	0.0010539872
183	0x3eb27e86	0.34862155
184	0xbe612afa	-0.2198905
185	0x3e6aff4f	0.22948955
186	0xbdc2d705	-0.09513668
187	0x3f038d9f	0.5138797
188	0x3f074f74	0.5285561
189	0xbdbdb872	-0.09263696
190	0xbd622d6d	-0.055219103
191	0x3dfad30a	0.12247284
192	0xbd7aaac4	-0.06119801
193	0x3e400dfb	0.18755333
194	0x3d46e091	0.048554007
195	0x3ce501ea	0.027955014
196	0x3e924983	0.2857171
197	0x3babccef	0.005242936
198	0xbe39fc47	-0.18162642
199	0xbdc9dbab	-0.098563515
200	0x3e70c3dc	0.23512214
201	0x3c9af894	0.01891736
202	0x3c580193	0.013183969
203	0x3dfeeebc	0.12447879
204	0x3df1c0fd	0.11804388
205	0xbf158ba0	-0.58416176
206	0x3e5e34ea	0.21699873
207	0xbe6eac20	-0.23307848
208	0xbe86ecb9	-0.2635248
209	0xbeb4e70a	-0.3533252
210	0x3f3fd609	0.74935967
211	0x3e16b39d	0.14716955
212	0xbe8921d1	-0.26783612
213	0xbce281cc	-0.027649783
214	0xbeb7f5af	-0.3592963
215	0xbdb8cdeb	-0.09023651
216	0xbcdf3599	-0.027247237
217	0xbe1dd8c6	-0.15414724
218	0x3e939503	0.28824624
219	0xbe91f919	-0.2851036
220	0xbe477aee	-0.19480488
221	0xbe35e05b	-0.17761366
222	0xbdb559cd	-0.08855019
223	0x3d891896	0.066941425
224	0x3c8c5a91	0.01713303
225	0xbe5c65d6	-0.21523222
226	0xbfdb24d8	-1.7120619
227	0xbf206e0f	-0.62667936
228	0x3e0b500d	0.13604756
229	0x3ec4e40e	0.38455242
230	0xbebe6f92	-0.37194496
231	0xbe5596d8	-0.20858324
232	0xbe650678	-0.22365749
233	0xbeebbf4b	-0.46044382
234	0xbeb08cf9	-0.34482554
235	0xbf0d2f5b	-0.55150384
236	0xbfa87c57	-1.3162946
237	0xbf295015	-0.6613782
238	0x3f130d20	0.574419
239	0x3f459ee1	0.77195555
240	0x3af05180	0.0018334836
241	0x3b9161eb	0.0044367216
242	0x3d0249fc	0.03180884
243	0xbd6dc237	-0.058046546
244	0xbdc0b3d9	-0.09409303
245	0xbd18352c	-0.037160084
246	0xbd8d16a2	-0.068890825
247	0x3b60bf5f	0.0034293754
248	0x3d20bf1c	0.039244756
249	0xb97a79d2	-0.0002388724
250	0xbe86f7bb	-0.26360878
251	0x3bbd82bd	0.0057834075
252	0x3d24b802	0.040214546
253	0xbb6a54f8	-0.0035756212
254	0x3e02e712	0.12783459
255	0xbd847789	-0.06468112

bias f4 [16]
0	0xc07581cb	-3.836047
1	0x3d963de2	0.07336022
2	0x3fc0032e	1.500097
3	0xbec3f17f	-0.38270184
4	0xbf14d026	-0.5813011
5	0xbf83ec27	-1.0306443
6	0xbfe20db2	-1.766043
7	0xbfb6afcb	-1.4272398
8	0xbf1d160e	-0.6136178
9	0xbe71aaa9	-0.23600258
10	0xbf5a4729	-0.8526483
11	0xbf1acde9	-0.60470444
12	0x3ea76f65	0.32702175
13	0xbf70d860	-0.9408016
14	0xc023197a	-2.54843
15	0x40032368	2.049036

weight f4 [64, 112]
0	0x3ca558fc	0.020184033
1	0xbe8df1a8	-0.27723432
2	0xbe9f3d8f	-0.31101653
3	0x3d349f76	0.044097386
4	0x3cc872e0	0.02446884
5	0xbd79772b	-0.060904663
6	0xbddea2bf	-0.10870885
7	0xbecf21ea	-0.40455562
8	0xbeb59afa	-0.354698
9	0xbdc38f72	-0.095488444
10	0xbeb8a78c	-0.36065328
11	0xbe96f6d3	-0.29485187
12	0xbedabf2f	-0.42723987
13	0xbeb071a5	-0.34461704
14	0xbddc4170	-0.10754669
15	0xbeeff3ea	-0.4686578
16	0xbeb886f7	-0.3604047
17	0xbe698fc0	-0.22808743
18	0xbda4ba65	-0.080433644
19	0xbe9c10f0	-0.30481672
20	0xbedd8d18	-0.43271708
21	0xbd1e2420	-0.03860867
22	0x3dde3878	0.10850614
23	0x3d5ad869	0.05342904
24	0x3a8986ad	0.0010492407
25	0x3dc3b799	0.09556503
26	0xbd58cc9f	-0.052929517
27	0xbdbf96fa	-0.09354968
28	0xbdbb275d	-0.09138367
29	0xbdc969f8	-0.09834665
30	0xbdeddca1	-0.11614347
31	0x3cea1803	0.028575903
32	0xbbb72957	-0.005589645
33	0xbd923973	-0.07139864
34	0xbc36f64f	-0.011167123
35	0xbd3fe9f9	-0.046853993
36	0x3d88e907	0.066850714
37	0x3c99fbd4	0.018796839
38	0xbdc11521	-0.09427858
39	0xbcbed7c8	-0.023296252
40	0x3da378c3	0.07982018
41	0x3d828bd2	0.06374325
42	0xbceae43c	-0.028673284
43	0xbea9c4d7	-0.3315799
44	0xbe6ad0f9	-0.22931279
45	0xbe814d61	-0.25254348
46	0xbe95e023	-0.29272565
47	0xbd74cb5d	-0.059764255
48	0x3cca6554	0.02470652
49	0xbde6c2bc	-0.112676114
50	0xbd3ea718	-0.04654607
51	0xbcad5b08	-0.021161571
52	0x3d714b48	0.058909684
53	0xbe13a4b2	-0.14418295
54	0xbe062e7d	-0.13103671
55	0xbd69f176	-0.05711504
56	0x3d9d65ca	0.0768543
57	0x3cbe12f5	0.023202399
58	0xbc685299	-0.014179849
59	0x3d9c4d67	0.07631951
60	0x3d584368	0.05279866
61	0x3db3c406	0.08777623
62	0xbda178aa	-0.07884343
63	0xbceff873	-0.029293275
64	0xbde5517b	-0.11197182
65	0x3da322b3	0.07965603
66	0x3d41131a	0.047137357
67	0x3c2eb2db	0.01066276
68	0xbc008e91	-0.0078464905
69	0x3d370ec5	0.04469182
70	0xbd8d7584	-0.0690718
71	0xbe0032e0	-0.12519407
72	0x3d636cc6	0.055523656
73	0x3cbb5f9c	0.022872739
74	0x3b2d8d14	0.0026481794
75	0xbd2a480b	-0.04157261
76	0xbd095cc9	-0.033535752
77	0xbb8afd67	-0.0042416337
78	0x3c84d450	0.01621452
79	0xbce24da6	-0.027624916
80	0x3de6c7c5	0.11268572
81	0xbd48c566	-0.04901638
82	0xbc75035c	-0.014954414
83	0xbd7677f5	-0.060172994
84	0xbecc87ce	-0.3994736
85	0xbef10966	-0.47077483
86	0xbcf69fff	-0.030105589
87	0x3d9dc164	0.07702902
88	0xbcb101e6	-0.02160735
89	0xbed277b9	-0.41106966
90	0xbe927c78	-0.28610587
91	0xbc7dd501	-0.015492679
92	0xbe0a1234	-0.13483506
93	0xbd3f7a0c	-0.046747252
94	0xbe13fcdf	-0.14451931
95	0x3de3e099	0.11126823
96	0x3dfd6b5f	0.12373995
97	0xbdc6067b	-0.09669205
98	0xbdad66dd	-0.08466885
99	0xbd977ed8	-0.073972404
100	0xbccba7eb	-0.024860343
101	0xbea9a55d	-0.33133975
102	0xbed5ad1d	-0.41733637
103	0x3e04a544	0.12953669
104	0xbd33c0dd	-0.0438851
105	0xbd611d56	-0.054959618
106	0xbd8616e1	-0.065473326
107	0xbeca04f9	-0.3945692
108	0xbe464712	-0.19363049
109	0xbecce6cb	-0.4001983
110	0xbd2fa1e7	-0.04287901
111	0xbd28e9e8	-0.041238695
112	0xbef2a034	-0.4738785
113	0xc0b8235d	-5.754317
114	0xbf24735a	-0.6423851
115	0x3f5d3e72	0.8642341
116	0x3da752f8	0.08170122
117	0x3fd71c04	1.6805425
118	0x4024bbe3	2.5739677
119	0x3f7ad8df	0.9798717
120	0x3e2e23f4	0.17005903
121	0x3ec6dd50	0.38840723
122	0x3f2855a6	0.6575569
123	0x3ea22fa8	0.31676984
124	0x3e5151fb	0.2044143
125	0xbc1e3eb3	-0.009658503
126	0x3f80c1b9	1.005912
127	0xbf2df442	-0.6795083
128	0x3e73d5c6	0.23812017
129	0xbd5a180b	-0.053245585
130	0x3e96a7fe	0.29425043
131	0x3f062a97	0.52408737
132	0x3fd350c3	1.6509022
133	0x3e92e867	0.28692934
134	0xbd9384b2	-0.07203044
135	0xbe167445	-0.14692791
136	0x3e5713d5	0.21003659
137	0xbdc208ad	-0.09474311
138	0x3d08c623	0.033392083
139	0xbc6d0bcd	-0.014468146
140	0xbd69ba88	-0.057062656
141	0x3e9c0e06	0.3047945
142	0xbdc45e45	-0.09588293
143	0xbd0ed5a9	-0.03487173
144	0xbb8d0399	-0.0043034074
145	0x3c015c21	0.0078955
146	0xbdd04c53	-0.10170808
147	0x3dceac2c	0.10091433
148	0xbeba15da	-0.36344796
149	0x3ea8e763	0.32989034
150	0xbd7c1f84	-0.061553493
151	0xbe9dff8f	-0.30859038
152	0x3cc04c72	0.023473952
153	0xbf198109	-0.5996252
154	0x3f73b4e3	0.95197886
155	0xbf0e408b	-0.55567235
156	0x3f16c8cf	0.5890016
157	0x3ed0f825	0.4081432
158	0x3f2789cd	0.6544464
159	0xbf25e9fe	-0.6481017
160	0x3ef67f6b	0.48144087
161	0xbf2cb9c7	-0.67470974
162	0x3ef604bd	0.4805049
163	0x3e711bef	0.23545812
164	0xbdef6bb3	-0.11690464
165	0xbcff0665	-0.031130979
166	0xbf6958b3	-0.9115097
167	0x3dc141f3	0.09436407
168	0x3e807f44	0.25097096
169	0xbe68816e	-0.22705624
170	0x3f5ee1da	0.8706337
171	0xbee0c8c9	-0.43903187
172	0xbf3c247e	-0.7349318
173	0xbed9d22a	-0.42543155
174	0x3e3c1fba	0.18371478
175	0xbf15c612	-0.58505356
176	0xbec84d91	-0.39121678
177	0x3dd8b354	0.10581079
178	0x3f8d7827	1.1052293
179	0x3e4a8c26	0.19780025
180	0x3da3e515	0.08002678
181	0x3e4e5272	0.20148638
182	0x3e49430f	0.19654487
183	0xbe54b13b	-0.20770733
184	0x3e7ebaf7	0.24876009
185	0xbeb256b3	-0.3483177
186	0xbeb0e146	-0.3454687
187	0xbec5ddbd	-0.38645735
188	0xbeb17554	-0.34659827
189	0x3f4b03c5	0.79302627
190	0x3f02c2c5	0.51078445
191	0xbead9e71	-0.33909944
192	0x3f2ed893	0.68299216
193	0xbd5a6491	-0.053318564
194	0xbe807cc1	-0.2509518
195	0xbe87e11e	-0.26538938
196	0x3e8d7db3	0.27634963
197	0x3e25f48e	0.16206571
198	0xbd195f2a	-0.03744427
199	0xbc69beea	-0.014266709
200	0x3c70f898	0.014707707
201	0x3d0a2b84	0.033732906
202	0xbe227398	-0.15864408
203	0x3e6a9eca	0.22912136
204	0x3d07b862	0.033134826
205	0xbc64d8e2	-0.0139677245
206	0xbf26b03d	-0.6511267
207	0x3d8beb4a	0.06831987
208	0xbe172e2d	-0.14763708
209	0x3ec5838b	0.38576922
210	0x40214f5e	2.5204692
211	0x3f4a0559	0.7891441
212	0xbeb64fe9	-0.35607842
213	0xbe327c3c	-0.17430204
214	0xbe8bd175	-0.2730824
215	0x3f8de33c	1.1084971
216	0xbf40acc7	-0.7526364
217	0x3f0c40d4	0.5478642
218	0xbe6f56a8	-0.233729
219	0xbe121ba4	-0.14268357
220	0xbdcc5201	-0.099765785
221	0xbe6fcab9	-0.23417176
222	0xbf00c95e	-0.5030726
223	0xbed01e88	-0.40648293
224	0x3ae702be	0.0017624719
225	0xbe0ccd90	-0.13750291
226	0xbdcc2053	-0.09967103
227	0x3e5ed312	0.21760204
228	0xbdf9d935	-0.12199632
229	0xbeac3e08	-0.33641076
230	0xbdc17d23	-0.09447696
231	0xbe860382	-0.2617455
232	0xbe5df26f	-0.21674512
233	0x3bea5f21	0.0071524535
234	0xbf1008f8	-0.56263685
235	0xbe550db5	-0.2080601
236	0xbe83b60f	-0.25724837
237	0xbf2c6316	-0.67338693
238	0xbeb39b5d	-0.3507947
239	0xbf364167	-0.71193546
240	0xbef9d4b8	-0.48795104
241	0xbf43a785	-0.7642749
242	0xbecf59f2	-0.4049831
243	0xbf024b5c	-0.5089624
244	0xbde42826	-0.1114047
245	0x3cc51037	0.024055583
246	0xbd9d68d8	-0.07686013
247	0x3a7febf5	0.00097626384
248	0x3c799b05	0.015234713
249	0xbdd0f0e9	-0.102022
250	0xbe1bdbf1	-0.1522062
251	0xbdef0f96	-0.11672895
252	0x3cd44b6d	0.025914872
253	0xbd593772	-0.053031392
254	0xbc796a69	-0.015223124
255	0xbd9a6e3a	-0.07540555

bias f4 [64]
0	0xbed04da4	-0.40684235
1	0x3fd2705d	1.644054
2	0xbf1797c8	-0.59215975
3	0xbe0b50af	-0.13604997
4	0xbe8d28c0	-0.27570152
5	0xbee825ea	-0.45341426
6	0xbe91d1b4	-0.28480303
7	0xbebb62b7	-0.3659875
8	0xbd02ec1b	-0.03196345
9	0xbe1dfc6b	-0.15428321
10	0xbf171216	-0.5901197
11	0xbebcd7ec	-0.36883485
12	0xbe7a5e27	-0.24449979
13	0xbba09360	-0.004900381
14	0xbd3c1543	-0.045918714
15	0xbe81ddd1	-0.25364545
16	0xbe6abf9c	-0.22924656
17	0xbe964a1e	-0.29353422
18	0xbedb6315	-0.4284903
19	0xbe98ab30	-0.29818106
20	0xbdd6e93a	-0.10493703
21	0xbe0d6fed	-0.13812228
22	0xbe992add	-0.29915515
23	0xbe0b7f18	-0.13622701
24	0x3ff473b8	1.9097815
25	0xbc7d023b	-0.015442426
26	0xbedebb6f	-0.43502375
27	0xbc9713e8	-0.01844211
28	0xbe11b268	-0.14228213
29	0xbead6e12	-0.3387304
30	0xbf061b3f	-0.52385324
31	0xbf1a2c3c	-0.60223746
32	0x3c011b7e	0.00788009
33	0xbf2db870	-0.67859554
34	0xbf8a6b2e	-1.0813959
35	0xbe99e292	-0.30055672
36	0xbe9f6e6d	-0.31138936
37	0x4074c0cd	3.8242676
38	0xbe45d2a7	-0.19318639
39	0xbdd6b6a5	-0.104840554
40	0xbf03f5ea	-0.5154711
41	0xbee14a34	-0.44001925
42	0xbdb85ca1	-0.090020426
43	0xbf81f18b	-1.0151838
44	0xbe4aaaf3	-0.19791774
45	0xbe643a2f	-0.2228782
46	0xbec6264d	-0.38701096
47	0xbf7ff4ac	-0.99982715
48	0xbf48dd61	-0.784628
49	0xbe0f5734	-0.13998109
50	0xbd678666	-0.056524657
51	0x404acc9c	3.1687384
52	0xbe4a6e55	-0.19768651
53	0xbecd5a93	-0.40108165
54	0xbd591daa	-0.053006805
55	0xbe86db12	-0.26339012
56	0xbce310ea	-0.027718026
57	0xbe89b2a0	-0.26894093
58	0xbeba2b2b	-0.3636106
59	0xbec99375	-0.39370313
60	0xbdbd2689	-0.092358656
61	0xbe7666c6	-0.24062642
62	0xbebc191c	-0.36737907
63	0xbe5e7ef3	-0.21728115

weight f4 [32, 64]
0	0xbc81ddff	-0.015852926
1	0x3ecdd5f8	0.40202308
2	0xbe3fd26e	-0.18732616
3	0x3c9e01f2	0.019288037
4	0x3e96068f	0.2930188
5	0x3e9558b5	0.2916924
6	0x3e356146	0.17712888
7	0xbec7e2ae	-0.3904013
8	0xbd7cb486	-0.061695598
9	0xbd8c553f	-0.06852197
10	0xbed9de4f	-0.4255242
11	0x3d8a5f7f	0.06756496
12	0x3bd5247f	0.006504595
13	0xbe175e5b	-0.14782088
14	0x3dfbf5fc	0.12302777
15	0xbdfd28b7	-0.12361281
16	0x3d1ec68c	0.038763568
17	0xbe6475aa	-0.2231051
18	0x3e8dc75e	0.27691168
19	0xbe8dc2ca	-0.27687675
20	0xbda4a9d6	-0.08040206
21	0xbd447ef7	-0.047972646
22	0xbe6d8d0d	-0.23198338
23	0x3ce92d17	0.028463883
24	0x3b94db27	0.0045427266
25	0x3d379ecb	0.04482917
26	0x3e73eff8	0.2382201
27	0xbdae1591	-0.08500207
28	0xbe2114cb	-0.15730588
29	0x3cd2c13d	0.025726909
30	0xbdcc4307	-0.09973722
31	0xbd8fec44	-0.07027486
32	0xbe288009	-0.16455092
33	0x3df2adf3	0.118495844
34	0x3d2fbaec	0.042902872
35	0xbdfe0ffd	-0.12405393
36	0x3e503123	0.20331244
37	0x403917ea	2.8920846
38	0x3d2d608e	0.04232841
39	0xbe2a2388	-0.16615117
40	0x3da1d7f0	0.07902515
41	0xbe4a7b7b	-0.19773667
42	0xbc619cec	-0.013770323
43	0x3e8b352b	0.27189
44	0x3cb00988	0.02148892
45	0x3d76318e	0.060105853
46	0xbdd9360a	-0.1060601
47	0xbf1fc6de	-0.6241282
48	0xbe1d74ae	-0.15376541
49	0x3d94a843	0.07258656
50	0xbca1c0e3	-0.019745296
51	0xbd1eefb3	-0.038802814
52	0xbe1886d6	-0.14895186
53	0xbe559961	-0.2085929
54	0xbc9ffd28	-0.019529894
55	0xbcdf22df	-0.027238308
56	0xbe0cdfe7	-0.13757287
57	0x3d32b7b7	0.043632235
58	0x3f14dfb1	0.58153826
59	0x3de061dd	0.10956166
60	0x3d10c2f0	0.035342157
61	0x3ef08238	0.4697435
62	0xbddf65b0	-0.10908067
63	0xbdbfccfc	-0.093652695
64	0x3d72e2d0	0.059298337
65	0xbde1913b	-0.11014029
66	0xbd881ff6	-0.06646721
67	0x3debc930	0.11512983
68	0xbe01e7d7	-0.12686096
69	0xbd4b037c	-0.04956387
70	0xbe371403	-0.17878728
71	0xbdcc051a	-0.099619105
72	0xbdb36d1c	-0.08761045
73	0xbcd5601a	-0.026046801
74	0xbdfd0122	-0.12353732
75	0xbde3dd9c	-0.11126253
76	0x3c6eb401	0.014569283
77	0xbdc307d0	-0.095229745
78	0xbe079037	-0.13238607
79	0xbd8ff492	-0.0702907
80	0xbe32bda3	-0.17455153
81	0x3c2ab31b	0.010418679
82	0x3dbaf6f2	0.09129132
83	0xbdde1abc	-0.10844943
84	0x3d2652c4	0.040606275
85	0xbde9ddd5	-0.11419264
86	0x3dd620dc	0.10455486
87	0xbda6850a	-0.08130844
88	0xbe8ec4ec	-0.27884614
89	0xbdd657d0	-0.10465968
90	0xbd7f53c0	-0.06233573
91	0x3dc2b222	0.095066324
92	0xbdc1edb8	-0.094691694
93	0x3bf0fb75	0.0073541948
94	0xbdac77f2	-0.08421315
95	0x3cb566e7	0.022143794
96	0x3dc8cefa	0.09805103
97	0xbbbeb280	-0.0058196187
98	0xbdc061e6	-0.09393673
99	0x3d34b2e4	0.044115916
100	0xbde4e882	-0.1117716
101	0xbe757cf6	-0.2397345
102	0x3e1e429b	0.15455095
103	0xbd8229c8	-0.063556254
104	0xbe1483c4	-0.1450339
105	0xbd686f71	-0.056746904
106	0x3d0619db	0.0327395
107	0xbca54798	-0.02017574
108	0xbd3663b3	-0.044528674
109	0xbd4aa069	-0.049469385
110	0xbdc2476a	-0.094862774
111	0x3b64d1ac	0.0034915013
112	0xbe2122ad	-0.15735884
113	0x3dd959b2	0.10612811
114	0x3ca78930	0.020451158
115	0xbe537308	-0.2064935
116	0xbdbe2063	-0.09283521
117	0x3aa2ae1d	0.0012411509
118	0x3ba8324a	0.005132948
119	0x3d1191c7	0.035539415
120	0x3d8d3246	0.068943545
121	0xbddc1aa0	-0.10747266
122	0xbc893458	-0.016748592
123	0x3df3a78e	0.11897193
124	0xbd4de434	-0.05026646
125	0xbd21c89c	-0.039497957
126	0xbd6c7e61	-0.05773771
127	0xbddb3db0	-0.10705125
128	0x3d71664f	0.05893546
129	0xbd829e6b	-0.06377872
130	0x3e0d5d3a	0.13805094
131	0x3ddeb53c	0.108744115
132	0xbc6a0f4a	-0.014285872
133	0xbd2bd352	-0.041949578
134	0x3c9d19a7	0.019177271
135	0x3d85977d	0.06523035
136	0x3d942441	0.072334774
137	0xbc0ce746	-0.008600062
138	0x3cb02fe7	0.021507217
139	0xbde81186	-0.11331467
140	0xbd3f2e75	-0.046675164
141	0x3de29988	0.1106444
142	0x3d2e051e	0.04248535
143	0x3d2e7e60	0.04260099
144	0x3cdf2253	0.027238047
145	0xbd978509	-0.07398421
146	0x3c5b0805	0.013368611
147	0xbe04925f	-0.12946461
148	0x3dd87205	0.105686225
149	0x3d17a207	0.037019756
150	0x3ada7689	0.0016667406
151	0x3d705585	0.058675308
152	0xc08ed07c	-4.4629498
153	0x3dde87e9	0.108657666
154	0x3d4e071c	0.05029975
155	0x3dd25a53	0.10271134
156	0x3e3be422	0.18348745
157	0xbe0e8484	-0.13917738
158	0x3db8d3a5	0.09024743
159	0xbd497735	-0.04918595
160	0x3e055c11	0.13023402
161	0x3ed55293	0.41664562
162	0xbd45428a	-0.04815916
163	0xbcbe5d41	-0.023237826
164	0x3e2422e8	0.1602894
165	0xbcd0fcc3	-0.025511151
166	0xbd6422a6	-0.055697106
167	0xbdea2882	-0.114335075
168	0x3d173465	0.0369152
169	0x3cdf6fad	0.02727493
170	0x3d93c6db	0.07215663
171	0x3eff7ee5	0.499015
172	0xbe0e5381	-0.13899042
173	0xbd933bc8	-0.07189137
174	0xbd5f4c69	-0.05451623
175	0xbdd904fa	-0.10596652
176	0xbb494ab4	-0.0030714693
177	0x3cc02d63	0.023459142
178	0x3e149c63	0.14512782
179	0xbca2c12b	-0.0198675
180	0xbe02f995	-0.1279052
181	0xbd37d2e0	-0.04487884
182	0x3d4cd098	0.050003618
183	0xbe0472ff	-0.12934493
184	0x3cfc2b4e	0.030782368
185	0xbd84d8db	-0.064866744
186	0xbe07192c	-0.13193196
187	0x3e2015a3	0.15633254
188	0x3dc556f1	0.096357234
189	0xbe014719	-0.12624778
190	0xbda52429	-0.080635376
191	0x3db415ac	0.08793196
192	0x3dedf1ae	0.11618362
193	0x3e8f28e4	0.27960885
194	0xbdd9f8a3	-0.10643127
195	0x3d90ff69	0.070799656
196	0xbd8c1a28	-0.068409264
197	0x3c4d95e3	0.012547943
198	0x3e4034ee	0.18770191
199	0xbd31c112	-0.043397017
200	0xbd8d717c	-0.06906411
201	0xbe07c2c1	-0.13257886
202	0xbeb8232a	-0.35964328
203	0xbcfa6496	-0.030565541
204	0x3da8eeb3	0.08248653
205	0x3dd9607e	0.106141075
206	0xbaa25747	-0.001238563
207	0x3b21cdb5	0.0024689261
208	0x3d8cee04	0.068813354
209	0x3cc267f5	0.023731211
210	0xbd00d14f	-0.031449612
211	0x3d47a68d	0.04874282
212	0xbd235c51	-0.03988296
213	0x3dc16c1f	0.094444506
214	0x3df3e217	0.119083576
215	0x3d888192	0.066653386
216	0xbecec4eb	-0.4038461
217	0x3e3ec7a0	0.18630838
218	0x3dbbe5ce	0.09174691
219	0x3db14a84	0.08656791
220	0x3ddd57f0	0.10807788
221	0x3d841da3	0.06450965
222	0xbc07b50b	-0.00828291
223	0xbe5daa12	-0.21646908
224	0x3dcb07d0	0.099135995
225	0x3e1650dc	0.14679283
226	0xbd864de4	-0.06557825
227	0x3e60146b	0.21882789
228	0xbbc843a6	-0.00611158
229	0xc014f951	-2.327717
230	0xbd98ffff	-0.074707024
231	0x3da29f52	0.07940544
232	0x3d106aa8	0.035257965
233	0xbd92bfd0	-0.071654916
234	0xbcdc5355	-0.026895205
235	0x3dba710f	0.091035955
236	0xbe8caed7	-0.27477142
237	0x3d88f5d4	0.06687513
238	0xbe9443de	-0.2895803
239	0x3e99b06d	0.30017415
240	0x3c07198f	0.00824584
241	0xbbbc38fd	-0.005744098
242	0x3d9d26b3	0.07673397
243	0xbccb71da	-0.024834562
244	0xbb8998c3	-0.004199119
245	0x3dbf7bcf	0.093497865
246	0xba7b2d6a	-0.00095816574
247	0xbdf10abe	-0.11769627
248	0x3df8897a	0.121355966
249	0x3ae19eaf	0.0017213429
250	0x3cd9eba2	0.026601616
251	0xbdf36f63	-0.1188648
252	0xbdd2fc85	-0.103020705
253	0xbe155b8b	-0.14585702
254	0xbdc059aa	-0.09392102
255	0xbe2581c8	-0.16162789

bias f4 [32]
0	0x3f3e7ddd	0.744108
1	0xbeaaf502	-0.3339005
2	0xbeb3be16	-0.35105962
3	0x3f2ca90a	0.67445433
4	0xbda1dbe2	-0.079032674
5	0xbe073a5a	-0.13205853
6	0xbe7e021b	-0.2480549
7	0xbeef91cb	-0.4679092
8	0xbdfa1acc	-0.12212142
9	0xbe2f96fa	-0.17147437
10	0xbe8c9ed4	-0.27464926
11	0xbf7c56ad	-0.98569757
12	0xbcd3623a	-0.025803674
13	0xbf850862	-1.0393183
14	0xbf0bc52d	-0.5459774
15	0xbf1dc8ed	-0.61634713
16	0xbe0310b0	-0.12799335
17	0xbed380ce	-0.41309208
18	0xbed9fa44	-0.4257375
19	0xbebc03e6	-0.36721724
20	0xbeca5d77	-0.39524433
21	0x3e3072c5	0.17231281
22	0x3fb7299b	1.4309572
23	0xbd94b8ad	-0.072617866
24	0xbdc0aeb5	-0.09408323
25	0xbecd3966	-0.40082854
26	0x3e176a2b	0.14786594
27	0x3fbb6147	1.4639062
28	0xbe8290dd	-0.25501147
29	0xbe85eae7	-0.2615578
30	0xbdfd920d	-0.123813726
31	0xbe98786d	-0.29779378

weight f4 [2, 32]
0	0x3e992467	0.29910585
1	0xbe567e66	-0.20946655
2	0x3d951c86	0.07280831
3	0x3d12f4dc	0.035878047
4	0x3de17279	0.11008162
5	0xbdae6ae6	-0.08516483
6	0x3ead4383	0.3384057
7	0xbe68f018	-0.22747838
8	0x3d044cda	0.032299854
9	0x3e0b98cd	0.13632508
10	0x3e835d16	0.25656956
11	0x3bdaaf10	0.006673701
12	0xbe58f55d	-0.21187349
13	0xbd999d45	-0.075007
14	0xbce95ff3	-0.028488135
15	0x3e411a22	0.18857625
16	0xbc95ac3b	-0.018270602
17	0xbe90d889	-0.28290203
18	0xbe8b9012	-0.27258354
19	0xbe940f46	-0.28917903
20	0x3e05a5d3	0.13051538
21	0xbd13ea67	-0.036112215
22	0x3ef67ac2	0.48140532
23	0xbbbf6865	-0.005841302
24	0xbe142f65	-0.14471205
25	0xbec037c6	-0.37542552
26	0xbe486517	-0.19569813
27	0x3d16a738	0.036780566
28	0x3e88c08e	0.26709408
29	0xbdb3e6a2	-0.08784224
30	0xbd3af708	-0.045645744
31	0x3ea68831	0.3252578
32	0x3d71e18e	0.059052996
33	0x3e80166e	0.25017112
34	0xbd9d719a	-0.076876834
35	0xbe85f409	-0.26162747
36	0x3e2279f0	0.15866828
37	0x3d4a6936	0.049416743
38	0x3eef69d9	0.46760443
39	0xbdba0631	-0.09083212
40	0x3defb86d	0.11705098
41	0x3c2850f1	0.010273204
42	0xbb8b8fe4	-0.0042590965
43	0xbe14d7d4	-0.14535457
44	0xbd7a1168	-0.061051756
45	0xbea15086	-0.31506747
46	0xbe012266	-0.12610778
47	0xbe883279	-0.26601008
48	0x3d52564c	0.05135183
49	0x3dbed559	0.093180366
50	0xbe02ef3a	-0.1278657
51	0xbe659be7	-0.22422753
52	0x3ca5b0a0	0.020225823
53	0xbc96c63b	-0.01840507
54	0xbf327034	-0.6970246
55	0x3e067a3e	0.13132569
56	0xbd1937a5	-0.037406582
57	0xbe5c6780	-0.21523857
58	0x3e9da842	0.30792433
59	0x3d13075a	0.035895683
60	0xbd161954	-0.03664525
61	0xbd6cf787	-0.057853248
62	0xbc5fe5a6	-0.013665592
63	0x3d68ba4f	0.056818303

bias f4 [2]
0	0xbd9979ce	-0.074939355
1	0xbf5a15d3	-0.8518955

weight f4 [32, 2]
0	0xbf3db7ff	-0.7410888
1	0xbf10ed83	-0.56612414
2	0x3c94288f	0.018085746
3	0xbd1140a5	-0.03546204
4	0xbb350cdf	-0.002762608
5	0xbd0247e0	-0.031806827
6	0xbefbdae0	-0.49190426
7	0xbdfe791c	-0.124254435
8	0xbe2176be	-0.15767953
9	0xbf386e15	-0.7204297
10	0x3c0590ad	0.008152169
11	0xbc63f32c	-0.013912957
12	0x3e9246ff	0.2856979
13	0xbf5095de	-0.8147868
14	0x3c3f5e4d	0.011680198
15	0xbd39f7e7	-0.045402434
16	0x3d1aeb1c	0.037821874
17	0xbf9ba9e0	-1.2161217
18	0xbec382c5	-0.38185707
19	0x3f49819c	0.78713393
20	0xbe939fd2	-0.2883287
21	0x3b749200	0.0037318468
22	0xbfbf458e	-1.4943101
23	0xbedf3449	-0.43594578
24	0x3c696b66	0.014246797
25	0xbd819c88	-0.06328684
26	0x3f683df7	0.9071955
27	0xbfb8bbee	-1.4432352
28	0x3f3583b6	0.709041
29	0x3e08b624	0.13350731
30	0xbc9446b1	-0.018100115
31	0xbdae6a50	-0.08516371
32	0xbc335405	-0.010945325
33	0xbeaab066	-0.33337706
34	0xbac5782b	-0.001506572
35	0x3b32849f	0.0027239693
36	0x3c526b62	0.012842985
37	0x3eaa4ab8	0.3326013
38	0x3b443771	0.0029940272
39	0x3b1f63ff	0.0024321077
40	0x3cd492b3	0.025948858
41	0xbd410f7a	-0.0471339
42	0xbd021675	-0.031759698
43	0x3baa27cd	0.005192733
44	0xbb857ea0	-0.0040739328
45	0xbc922c9c	-0.017843537
46	0xbe0b1497	-0.13582073
47	0x3edc2d17	0.4300315
48	0x3d1b4f79	0.037917588
49	0xbd8355b6	-0.064128324
50	0x3af924c2	0.0019008147
51	0xbc69bf8a	-0.014266858
52	0xbea4b27a	-0.32167417
53	0x3dab052d	0.083505966
54	0x3f0724a3	0.5279028
55	0x3e8e3002	0.27771002
56	0x3c280ae7	0.010256506
57	0xbd7e5b34	-0.062098697
58	0xbca8577d	-0.02054953
59	0xbba1a638	-0.004933145
60	0xbd98ff80	-0.07470608
61	0x3e1ca2b2	0.15296438
62	0xbe253b11	-0.16135813
63	0x3efa19d9	0.48847845

bias f4 [32]
0	0x3f6bc400	0.9209595
1	0xc0324973	-2.785733
2	0xc005ccdc	-2.0906286
3	0xc0bf9b63	-5.987718
4	0x39fa6f60	0.00047766697
5	0xbf585e7a	-0.8451916
6	0x3f91cf42	1.1391375
7	0xc057a022	-3.3691487
8	0xc01c7740	-2.4447784
9	0x3eb8596d	0.36005726
10	0xbeeb4fce	-0.45959324
11	0xbf34ef9f	-0.7067813
12	0xc0a5767b	-5.170713
13	0xbf82ba83	-1.0213169
14	0xc02bd7e5	-2.6850522
15	0xbfe2ca00	-1.7717896
16	0xc0c20082	-6.062562
17	0xbef5bf54	-0.47997534
18	0xc10d4e80	-8.831665
19	0xbfcce64a	-1.6007779
20	0xc07119f0	-3.767208
21	0xc078b3c3	-3.8859718
22	0xc0288e09	-2.6336691
23	0xc0c85c56	-6.2612715
24	0xc0a763b9	-5.230923
25	0xc04391dc	-3.0557775
26	0x3f6a9f1b	0.91649026
27	0x3f44940c	0.767884
28	0xc056c5c8	-3.3558216
29	0xc01d3bed	-2.4567826
30	0xbfb442a9	-1.4082843
31	0xbf032b29	-0.5123773
