MultiModal/30loss14.488341674208641.pth (torch, 533926 bytes, 41 tensors)

weight f4 [16, 1, 4]
000000 83 a8 5f be 3c d3 b9 bd 40 32 20 bf 66 a8 57 be
       -0.21841626 -0.09073493 -0.62576675 -0.21060333
000010 29 d3 e1 bb e8 54 5f b9 7f 8a eb 3e 8d b2 55 c0
       -0.0068916273 -0.00021298567 0.46004102 -3.3390229
000020 c1 19 b4 be 55 5b 89 bd 20 67 81 bf d8 69 50 bf
       -0.351759 -0.06706873 -1.0109596 -0.81411505
000030 88 f8 2f 3e 9a 89 35 bf 31 35 38 3f cf 48 41 be
       0.17184651 -0.7091309 0.71956164 -0.1887543
000040 ca 61 dc be 09 06 25 3f 8f 00 a6 be 66 e9 d4 3d
       -0.43043357 0.64462334 -0.324223 0.1039608
000050 c1 43 73 bd 82 06 f0 3e 47 c4 c4 be 65 51 8c 3e
       -0.059390787 0.46879965 -0.38430998 0.2740585
000060 df 76 3a be d4 34 3c bd 37 3f 03 c0 4b 19 1f 3e
       -0.18209408 -0.04594882 -2.0507333 0.15536992
000070 2b 8a 65 3e 56 1f 56 bf bb 23 88 be 0a 07 b2 be
       0.22415988 -0.83641565 -0.2658976 -0.34770995
000080 ce fb 2f 3e d8 c8 50 3e 9a 07 3c 3e 19 16 0c 3e
       0.171859 0.20389116 0.18362275 0.13680305
000090 a1 23 86 3e a7 b5 33 bf 25 d9 28 3e 84 3a ab bd
       0.26199058 -0.70199054 0.16489084 -0.0836077
0000a0 e5 92 c5 bd fd 1a 0a be a4 bf ef bd af 5a 10 be
       -0.096471585 -0.13486858 -0.117064744 -0.14097093
0000b0 67 e5 15 bf ae 09 34 3f 09 e1 a9 be 5c 46 48 3e
       -0.58553165 0.7032727 -0.331795 0.1955809
0000c0 35 de c8 c1 8c 6a 33 c0 d9 ad 8b bf e6 b7 9e 3e
       -25.1085 -2.803378 -1.0912429 0.30999678
0000d0 7f ac f9 bd 32 a3 0e bf 5d 8f fb bd 19 fa dd c1
       -0.12191104 -0.55717766 -0.12283204 -27.747118
0000e0 5d 58 a1 3e 11 ff 23 be ae 37 72 3e 43 6e f7 be
       0.31512728 -0.16015269 0.23654053 -0.4832631
0000f0 d0 23 8a be 10 f7 81 bd 40 61 7e be 80 87 12 be
       -0.26980448 -0.063459516 -0.24841785 -0.14309502

bias f4 [16]
000000 92 1c fa 3e d3 94 d7 bc b9 12 83 be ce e4 a1 3c
       0.48849922 -0.026316082 -0.25600222 0.019762423
000010 bd 26 83 bf b6 c1 f7 bf d1 d0 86 3d 91 f8 1f 3e
       -1.0246197 -1.9355991 0.06582797 0.15622164
000020 6f fc cc be 1b 8a 89 3d 50 c9 37 3f 3e 34 6e 3d
       -0.40036342 0.06715795 0.71791553 0.05815529
000030 44 1f 8f 3e 04 67 b7 3d 9f 2a 8b 3e 82 b4 c1 be
       0.2795354 0.089551955 0.27180955 -0.3783303

weight f4 [16, 16, 4]
000000 c2 e4 48 3f 7d ec 5d 3f 2d 99 07 3f 0b 21 00 bf
       0.78474057 0.8668898 0.529681 -0.5005042
000010 08 ea 79 bf d4 76 0a 3f 90 d4 04 3f 62 9a cc 3d
       -0.9762273 0.5408757 0.51886845 0.09990384
000020 85 27 c2 bd da f1 2c be 73 21 32 bd c5 a3 b9 3e
       -0.09480194 -0.16889134 -0.04348893 0.3625776
000030 9c e6 5a bf 1f 34 01 bf eb 19 66 be 97 d5 c0 bd
       -0.8550813 -0.50470155 -0.22470824 -0.09415739
000040 4c 72 37 bd a1 ff be be 63 1f 0a be b8 3c 80 3e
       -0.044786736 -0.37304404 -0.13488536 0.25046325
000050 cf 24 8e bf cb 8c 97 3e 3c a1 4f bf be 9f e2 be
       -1.1104983 0.29599604 -0.811054 -0.442625
000060 c5 a6 5d bc 08 22 8a 3e f5 f5 03 bf e1 df 8f be
       -0.0135285305 0.2697909 -0.51547176 -0.28100494
000070 a2 10 f5 be d4 18 47 3f b8 49 2a 3e b3 db 46 3e
       -0.47864252 0.7777226 0.16629684 0.19419746
000080 a7 0e 44 bf 90 7b 98 bf 84 06 2c bf e0 8d 9f 3e
       -0.7658486 -1.1912708 -0.6719744 0.3116293
000090 63 44 9f bc fe 96 23 3e 71 d4 be 3c b6 37 01 be
       -0.019441789 0.15975568 0.02329466 -0.12618908
0000a0 a9 90 04 3f 39 9a 38 be 34 13 66 3e e8 35 30 bf
       0.51783234 -0.18027581 0.22468263 -0.68832254
0000b0 d4 78 00 be 8d 75 6b be 0c 22 d2 bd bf 75 b8 3d
       -0.12546092 -0.22994061 -0.102604 0.09006833
0000c0 8e 49 09 3f f7 74 d0 3e b3 1b b0 3e 6e cb c7 3e
       0.5362786 0.40714237 0.34396133 0.39022392
0000d0 cf 7d 21 3f 1b a0 0a bf 51 d4 d2 bf 24 79 a0 bf
       0.63082594 -0.5415055 -1.6471044 -1.2536969
0000e0 ec f7 b0 3e 95 18 88 3e 30 06 aa 3e 29 6a 6c bc
       0.3456415 0.26581255 0.33207846 -0.014429607
0000f0 4c d4 30 bd 4e 20 d5 bd e2 4f a3 bd d4 93 58 bd
       -0.043171212 -0.10406552 -0.07974221 -0.052875355
000100 37 53 b2 3e 6d 69 b8 be 31 ab 9b be 9e 28 a6 be
       0.34829113 -0.36017933 -0.30404046 -0.32452863
000110 1e 7b b8 be 2a 45 00 be 4d 16 d6 be 9d 3e 27 be
       -0.3603143 -0.12526384 -0.4181389 -0.16332479
000120 4f 9f 28 bd 19 1c 82 3d 4b 39 11 be f2 24 fb bd
       -0.041167554 0.063530155 -0.14182012 -0.12262906
000130 03 51 09 bf 78 2c a2 be a9 11 dd 3d 27 1c d8 be
       -0.5363924 -0.31674552 0.10794384 -0.4220898
000140 d4 ba 3f bd d5 19 68 be 7a a6 02 be 35 f4 70 3d
       -0.046809033 -0.22666104 -0.12758818 0.058826644
000150 c9 6e fa bd e0 00 a8 be b7 3a bf be 0d 5a b6 3d
       -0.12228162 -0.32813168 -0.37349483 0.089038946
000160 03 40 45 3e 68 e3 32 3d 18 75 6c 3e 4f 82 bb be
       0.192627 0.043673903 0.23091543 -0.36622855
000170 0c 0f 29 3d 48 3a 3d be 99 6d 99 be 35 65 bc be
       0.041274115 -0.18479264 -0.2996643 -0.36795965
000180 c4 52 18 bf ca 71 17 bf f0 13 e0 be 7e 55 8f be
       -0.5950129 -0.59158003 -0.4376521 -0.27994913
000190 a5 f9 07 be 9a d9 e2 be da 42 39 bf 66 d6 ed be
       -0.13278826 -0.44306642 -0.7236763 -0.46452636
0001a0 3c 93 26 3e 05 f7 a5 be 3e 91 e1 be 27 b1 78 be
       0.16267103 -0.32415023 -0.44056123 -0.24286328
0001b0 ef df 0d 3e 3d fb ba be 45 1e 5e be 91 61 85 be
       0.13854955 -0.36519805 -0.21691234 -0.26051
0001c0 75 6c 2a 3e 00 12 7f be 3d ce 61 be 30 1c 80 be
       0.16642936 -0.2490921 -0.2205133 -0.25021505
0001d0 57 30 4e 3e 41 38 d2 be 1d c9 81 be c2 55 7b be
       0.20135628 -0.41058543 -0.2534875 -0.24544433
0001e0 26 9f 7b bd 1d 94 85 be df 08 14 bf e8 76 e8 be
       -0.061431073 -0.26089564 -0.57826036 -0.45403218
0001f0 e0 59 51 3d 56 9a ea 3d 08 3c bc 3d 0e b9 cc 3d
       0.051111102 0.114552185 0.091911376 0.09996234
000200 a8 12 5e be 99 b6 97 bd 10 9c 3b be b6 00 d5 bd
       -0.21686804 -0.074078746 -0.18321252 -0.10400526
000210 fa 1e 27 be ba 0f 44 3d d7 10 00 be a2 5f 04 bb
       -0.1632041 0.04786656 -0.12506424 -0.0020198603
000220 be 00 1a bd 1b e0 9b 3c 3b 90 81 bd 86 ef c2 bd
       -0.037598364 0.01902776 -0.06326338 -0.09518342
000230 81 17 80 be 47 c9 1a be 0a a2 83 be e2 1f 5c bd
       -0.25017932 -0.15115844 -0.25709563 -0.053741343
000240 c2 99 47 be a5 a3 57 be 5e 1d 10 be 42 bf 82 be
       -0.19492248 -0.21058519 -0.14073703 -0.25536543
000250 64 fa 8a bd e0 36 f1 bd 61 97 5e be e4 82 2b be
       -0.067860395 -0.11778045 -0.21737434 -0.1674915
000260 2e 3b 56 be e1 b2 29 be 44 85 25 be c2 b0 ca bd
       -0.20921013 -0.16572143 -0.16164118 -0.09896995
000270 b5 8f 6b bd d0 6b d3 bd 16 85 51 bd 73 2a 7b bc
       -0.057510097 -0.10323298 -0.05115231 -0.015329945
000280 72 a9 54 be a3 b4 03 be 13 0c 99 bd 99 0e d4 bd
       -0.20767763 -0.12861876 -0.07473006 -0.10354347
000290 79 8c 07 be 3d 31 cc bd d6 3b d5 bc f9 71 81 be
       -0.1323718 -0.09970329 -0.026029509 -0.25282267
0002a0 18 80 92 be cc 36 36 3c 79 8f c1 bb b4 ec 10 bd
       -0.28613353 0.011121463 -0.005906996 -0.035381988
0002b0 8b e2 87 be 4a 46 ff bd ac 1b 01 be 6e 6e 0e bd
       -0.26540026 -0.124645784 -0.12608212 -0.034773283
0002c0 18 b7 36 be 91 5e 29 be 2b 54 4b bc 03 3f c7 3c
       -0.17843282 -0.1653998 -0.012410204 0.024322039
0002d0 e2 4a df 3d d7 9a e9 3c a6 ea a5 3d 30 ba d7 bd
       0.10902955 0.028516216 0.08101396 -0.10533559
0002e0 16 e4 8d be dd 52 d5 3b 05 b9 f2 bd 79 09 d6 bd
       -0.27713078 0.006510122 -0.11851696 -0.104510255
0002f0 30 d3 76 bc e4 f9 87 3d 1a 9d d4 3d 1e 84 b4 bd
       -0.015064999 0.0663946 0.10381527 -0.08814262
000300 dd 01 9a be 2f 96 ce 3d 19 82 a1 3d ca 80 84 b9
       -0.30079547 0.10087239 0.07886142 -0.00025272957
000310 60 fd dc 3b 33 29 63 bd f8 71 9d be da bc 9b be
       0.006744072 -0.055459213 -0.30751014 -0.3041752
000320 f7 5a 17 bc c2 1e f4 bd 58 c4 16 bc b5 66 d2 3c
       -0.009237996 -0.11919929 -0.009202085 0.02568374
000330 da d2 cf be 3c a8 45 be 65 11 7a be f7 9d d0 bd
       -0.40590554 -0.19302458 -0.24420698 -0.101863794
000340 33 a5 79 be 09 f6 95 bc 46 3e 7a be a5 9c ef 3d
       -0.24379425 -0.018305795 -0.24437818 0.116997994
000350 77 45 4d be cf 1d ac be da 00 85 be bb e9 74 3e
       -0.2004603 -0.33616492 -0.25977212 0.23917286
000360 d8 5b 08 be 89 f7 66 3b bb ac 69 3d 33 3f 09 be
       -0.13316286 0.0035242757 0.057049494 -0.13403015
000370 2b 91 24 be 9e 24 d1 bc 50 ff 83 3e 00 65 81 3e
       -0.16071002 -0.025530156 0.25780725 0.2527237
000380 6d 5d cb be c6 32 a8 be 42 01 84 be ea 05 74 be
       -0.39719716 -0.32851237 -0.2578221 -0.23830381
000390 03 cb 62 be fa 01 99 3e 41 d1 3e be 6c c2 89 be
       -0.22147755 0.2988432 -0.18634512 -0.26906145
0003a0 83 2d 01 bf e1 bc b4 bd f0 cc 9c be 71 86 c9 3c
       -0.5046007 -0.08825088 -0.30625105 0.02460024
0003b0 4d 2b 72 be 39 cd da be 45 bb dd be ab 90 bb be
       -0.2364933 -0.42734697 -0.43306938 -0.3663381
0003c0 4f 2a 4b be f5 5e 0e be b9 36 18 be 28 01 a9 bc
       -0.19840358 -0.1390341 -0.14864625 -0.020630434
0003d0 85 9b c6 be 37 71 66 be 94 79 14 be 5e 53 68 be
       -0.38790527 -0.22504126 -0.14499503 -0.22688052
0003e0 3f 2c 41 3e 7e 49 7e be 53 5d 87 be 82 53 40 be
       0.18864535 -0.24832723 -0.26438388 -0.18781856
0003f0 60 e2 94 bd ac f4 1f bd d0 4d dc 3d 10 eb ae 3c
       -0.0726974 -0.039051697 0.10757029 0.02135232

bias f4 [16]
000000 aa 18 f1 be 5f 6f b2 be dd 62 3a bd f7 f5 9c be
       -0.4708913 -0.34850594 -0.04550444 -0.30656406
000010 e7 89 c3 be fc 7d 14 bd 6d 61 3e be d0 f8 ad be
       -0.3819115 -0.03625296 -0.18591852 -0.3397889
000020 1c ea c5 3b dd a9 0d be 90 c3 a5 bc 67 60 b8 bd
       0.006039871 -0.13834329 -0.020234853 -0.09002762
000030 c7 d2 90 be c3 a8 38 bf 93 ca b5 be a4 bb 10 3e
       -0.2828581 -0.7213251 -0.35506114 0.14134079

weight f4 [16, 16, 5]
000000 3c bb 4a bc 7d ab 0a bd f4 c5 10 bc 4c 2f cb 3d
       -0.012373742 -0.03385495 -0.008836258 0.099211305
000010 f1 31 b6 3e cb 26 0f 3e 38 e5 bc be b6 16 8d 3e
       0.35584977 0.13979642 -0.3689363 0.2755639
000020 6a 5e 8e 3e dc 6e 67 3e 57 e4 e9 bc f6 74 38 be
       0.27806407 0.22600883 -0.028551264 -0.18013367
000030 42 f5 f6 3c 78 1e 01 bd 23 c0 80 3d a2 fa 9e 3e
       0.030146245 -0.031523198 0.06286647 0.31050593
000040 5d 66 2a 3e 18 35 92 be eb a4 98 be 1b f0 b0 be
       0.16640611 -0.28556132 -0.29813322 -0.34558186
000050 50 38 cc be 89 11 3a 3e f0 5a 3c be e9 dc 4a be
       -0.39886713 0.18170752 -0.18394065 -0.19810833
000060 6c 8e b9 bd 39 69 a6 bd 29 4f 16 bd 06 9c 11 bd
       -0.09060368 -0.081255384 -0.036696587 -0.035549186
000070 af 02 e6 bd 0e c9 a2 3c a9 75 45 be 23 55 2c 3d
       -0.112309806 0.019871261 -0.19283165 0.04207338
000080 17 a4 cc bc 34 b9 09 be 49 87 72 bd 39 c1 50 3e
       -0.024980588 -0.13449556 -0.05921105 0.20386209
000090 69 da 39 3e 6b d2 89 3e 33 dc 92 3e 1c eb 8c 3e
       0.18149723 0.2691835 0.28683624 0.27523124
0000a0 ac 19 ba bc 4b 33 23 bd a2 45 e6 3c 1a 31 8f bc
       -0.02271732 -0.03984384 0.028109375 -0.017479468
0000b0 22 bc b2 ba 5d d8 fe bc 38 a7 72 3d 64 d9 96 bd
       -0.001363639 -0.03110903 0.059241503 -0.07365683
0000c0 43 b9 c4 bd 9d e1 18 be c3 58 c8 3c 2a aa 16 be
       -0.09605648 -0.14929815 0.024456387 -0.1471335
0000d0 4b 34 3d 3d 66 49 32 be 87 47 b8 3b 37 47 25 be
       0.04619245 -0.17410812 0.005623761 -0.16140448
0000e0 b9 1f ac bd 73 ec 17 be 45 a4 cb bd 6e 93 82 3c
       -0.08404488 -0.14836292 -0.09943441 0.01593944
0000f0 c9 28 22 bd ff ff b4 3d 3a 1f 1b 3f a3 e4 b5 3e
       -0.039589677 0.0883789 0.6059452 0.35525998
000100 b9 fe f5 3d f9 97 27 bd 16 fa 86 3c 90 12 8e bd
       0.12011475 -0.040916417 0.016476672 -0.06937134
000110 e9 5c 13 3e dd fc 11 bf 69 de 01 3e ec 1e 0c 3f
       0.14390911 -0.57026464 0.12682499 0.54734683
000120 f9 cb 40 3e 58 45 b7 be b3 e4 71 3e cd ed 85 3e
       0.1882781 -0.35795093 0.23622398 0.2615799
000130 a2 82 02 3e e1 8d a8 be eb c2 ad bd 5a cf f8 bd
       0.12745145 -0.32920745 -0.08484443 -0.12148924
000140 0a 9e de bc 2f 97 ff bf aa 8a 97 3d 3e ee c9 bd
       -0.027174968 -1.9968013 0.07399495 -0.09859894
000150 26 fb 88 bc 98 5b 96 bd da cc 73 bd f7 48 a4 bd
       -0.01672132 -0.07341689 -0.059521534 -0.080217294
000160 10 a0 d2 bd 6a 6a ff 3c f8 8b 10 3b 00 c4 e2 3d
       -0.10284436 0.031178672 0.0022056084 0.1107254
000170 95 fe 1f bd 94 75 c9 3c 83 d4 09 be 26 61 9b 3c
       -0.039061148 0.024592198 -0.13459973 0.018967222
000180 5b 01 82 ba 26 91 84 bd d8 c8 36 3d 04 91 d1 bc
       -0.0009918617 -0.06472997 0.044625133 -0.025581844
000190 f7 54 70 bc 12 4c ef bd 83 b6 0b 3d fe f5 ec 3c
       -0.014668695 -0.11684431 0.034109604 0.028925892
0001a0 41 59 c1 3b ae 7f 91 3b 5d 82 00 3c 02 e1 8f bd
       0.0059005325 0.0044402694 0.007843581 -0.07025339
0001b0 3b cf 14 be 30 cd e5 3c 27 d6 b0 bd 10 3b 84 bd
       -0.14532177 0.028051943 -0.08634596 -0.06456578
0001c0 3a ab 28 3d 31 be a9 bd 3a 03 91 bd f5 06 ae bd
       0.04117892 -0.08288229 -0.070806935 -0.08497421
0001d0 26 8a 05 be ca 3f 68 bd 66 33 68 3d 60 fd 09 3d
       -0.1304098 -0.05670146 0.056689642 0.033688903
0001e0 17 8a a0 3b a9 78 de bd e4 b1 c2 3c 79 fa 14 be
       0.004899274 -0.10862858 0.023766465 -0.14548673
0001f0 08 be cd bd 42 23 41 3c fb 07 38 3c 9a 30 0c be
       -0.10046011 0.011788191 0.011232371 -0.13690415
000200 61 39 94 3d fe 61 26 bd 30 22 05 be 06 41 29 bd
       0.07237507 -0.040620796 -0.13001323 -0.041321777
000210 dd a8 ec ba 57 17 78 bd 18 5d 74 bd 9b f5 a8 b9
       -0.0018055696 -0.060569134 -0.059659094 -0.00032226447
000220 17 88 36 bc e2 3a a6 bd ac d3 26 bd 34 71 16 bc
       -0.011140845 -0.081167 -0.04072921 -0.009182263
000230 f2 78 07 be 09 74 0d 3e da f0 5f bd 68 9a eb bb
       -0.1322973 0.13813795 -0.054673053 -0.0071900375
000240 e4 65 16 be 24 97 d7 3d 33 b4 ee 3b 48 4d fe bd
       -0.14687306 0.10526875 0.007284665 -0.12417084
000250 9d 13 81 3c 1d 8f e9 bd cf 4c ae bd 5c 9d 2e 3d
       0.015756423 -0.1140425 -0.08510744 0.04263054
000260 ae 0f 01 be 6a 5c 84 be b9 86 dd bd fc 45 e7 be
       -0.12603638 -0.25851756 -0.10816712 -0.4517058
000270 98 d7 6e bf 80 f3 ce bc 3f 2e 51 bf a0 98 88 bf
       -0.9329772 -0.025262594 -0.8171119 -1.0671577
000280 51 b7 11 c0 39 21 9c bd 0d 2b 05 3e 0c c8 88 bd
       -2.2768137 -0.07623524 0.13004704 -0.06678781
000290 7d 95 68 3c a6 ef ca bd b0 53 80 be 3c f1 94 be
       0.014195797 -0.099089906 -0.25063848 -0.29090297
0002a0 05 b8 a0 be 0b fe 57 be 5b 73 b7 3d fc 5b dc 3d
       -0.31390396 -0.21093003 0.08957549 0.10759732
0002b0 1e 31 47 3e 53 23 8c 3e 41 3a 2d 3e 79 1b 33 3d
       0.1945233 0.273707 0.16916753 0.04372737
0002c0 98 91 d0 3d 79 ae 87 bd 36 30 ac 3d 60 58 19 3e
       0.1018402 -0.06625075 0.08407633 0.14975119
0002d0 64 86 06 3e 48 7c 24 bd e6 b2 73 3d 7b 38 a7 3a
       0.13137203 -0.040157586 0.059496783 0.0012757921
0002e0 e4 f4 5f bd 20 85 01 be 84 a2 f6 bc 60 d2 a9 3c
       -0.054676905 -0.1264844 -0.03010679 0.020730197
0002f0 a2 97 01 bd 16 e6 c1 3c 9a f0 cd bd 7c 5d 90 3d
       -0.03163875 0.023669284 -0.10055657 0.07049081
000300 c4 f9 93 bd b0 33 b1 bc 32 b3 73 bd db 26 32 be
       -0.072253734 -0.021631092 -0.059497066 -0.17397635
000310 d3 72 80 3e 2d 45 81 be 3a a5 a6 be d3 f3 90 be
       0.25087604 -0.2524809 -0.32547933 -0.28311023
000320 3b 0e ae bd 98 65 e0 3c 7c 60 ad bc 80 7e a8 3c
       -0.08498808 0.027392194 -0.021164171 0.020568132
000330 8b 39 53 3d af 19 31 bc 8d 86 c1 bb 42 16 08 bd
       0.05156855 -0.010809346 -0.0059059323 -0.03322435
000340 90 35 95 bd 3b 4d cd bd ab 91 ee bc 2a 48 a2 bd
       -0.07285607 -0.10024496 -0.029122194 -0.079239205
000350 82 69 97 3c 21 5a 2d bd 64 13 65 bd dd 56 43 bd
       0.018482927 -0.04232228 -0.055926695 -0.04769026
000360 18 31 e2 3d 2b 1f 9e 3d 06 1d c2 bd 40 57 28 bd
       0.1104452 0.077207886 -0.09478192 -0.041098833
000370 0b 1d 99 be 15 96 08 c0 01 1b c1 be f9 53 ce bf
       -0.2990497 -2.1341603 -0.37715915 -1.6119376
000380 5d d9 17 be f3 1e 0f be fa c8 8f bd d4 8f ba 3c
       -0.14829011 -0.1397665 -0.07020755 0.02277366
000390 c4 01 a7 be 3e d9 56 be ea 42 ae 3e 74 5e c5 3e
       -0.32618535 -0.20981309 0.34035426 0.38548625
0003a0 53 4c 70 be e3 0b cf be 5d c4 99 be 06 7d 5c 3e
       -0.23466615 -0.40438756 -0.30032626 0.21532068
0003b0 0c 0e f7 bc a2 fa e2 be 48 d8 3e bd c7 2d 49 be
       -0.030158065 -0.44331843 -0.04659298 -0.19646369
0003c0 25 d5 6c 3f e1 9c 04 bd 90 50 c7 bf a3 db e5 bf
       0.9251273 -0.032376174 -1.5571461 -1.7957653
0003d0 1f 71 ed 3e 8b 76 84 be 18 b3 e2 be ea 0e d1 3b
       0.46375367 -0.2587169 -0.44277263 0.0063799517
0003e0 d5 f4 e6 bd 1a de 83 bd 01 64 a2 bd 06 d2 93 bd
       -0.11277167 -0.06438847 -0.079292305 -0.07217793
0003f0 99 b0 7b bd 32 e7 53 3c a1 79 06 bd c8 42 ef bd
       -0.061447714 0.012933539 -0.032830838 -0.116826594

bias f4 [16]
000000 20 40 11 3e c6 a5 f9 bf 77 fc cb 3c d2 a8 08 bf
       0.14184618 -1.9503715 0.024900658 -0.533826
000010 8c ab 73 bf a3 d8 93 bf fd c2 a6 3d 71 cd 8b 3d
       -0.95183635 -1.1550487 0.0814266 0.06826294
000020 e2 db 2e bf 01 97 e0 be 32 24 23 c0 c6 34 45 c0
       -0.68304265 -0.43865207 -2.5490842 -3.081346
000030 ca 9f 74 3e a8 01 9b 3e 8a de cf bb 4c 2b 1e bd
       0.2388908 0.302747 -0.0063436674 -0.03861551

weight f4 [16, 16, 5]
000000 63 ce 1a be f1 17 96 bc f8 9c 73 3d a2 8e 11 be
       -0.15117793 -0.018321963 0.05947587 -0.14214566
000010 c7 6f e2 bd 3d 7c c6 3c b0 79 07 be e2 f6 bf bd
       -0.11056476 0.024229163 -0.13230014 -0.09373261
000020 07 6d e1 bd e3 c2 84 bd ce 12 54 bc 61 fb 48 3d
       -0.110071234 -0.06482484 -0.0129439365 0.04906786
000030 c1 18 0b be fa a8 26 bd 26 cc f7 bd f6 53 a2 3c
       -0.13583662 -0.040688492 -0.12099485 0.019815426
000040 ca 80 1f be ea 7d 84 3d c5 37 32 bd 9e a2 20 be
       -0.15576473 0.06469329 -0.043510217 -0.15687034
000050 2b 2a 12 be b9 5c 1f 3d b4 2f 9c 3b 3d dd 2e be
       -0.14273898 0.038906787 0.004766429 -0.17076583
000060 3d a7 c1 bd 8b e8 29 bd 33 6f 95 3b 81 d9 16 be
       -0.09455726 -0.041481536 0.004560375 -0.14731409
000070 31 2b e5 bd a8 64 bd bd e8 1e c2 bd 5a 40 8e bd
       -0.11189879 -0.09247714 -0.09478551 -0.06945868
000080 12 d9 d2 bb de f8 7e bd d7 4e 7a bb 50 90 70 3d
       -0.006434568 -0.062249057 -0.0038193965 0.058731377
000090 f6 21 a0 3c ba ab 5e 3d 5a 80 ac bd 6b 9b fc bd
       0.019547444 0.05436299 -0.084229186 -0.12334331
0000a0 d3 5c aa ba c0 cc 3e bd f7 49 90 3d d8 f2 60 3c
       -0.0012997634 -0.046581984 0.07045358 0.013729773
0000b0 45 55 77 3e 54 3c 94 bd 3d 90 81 be 21 d2 92 bc
       0.24153621 -0.07238069 -0.25305358 -0.017922463
0000c0 7e a9 b0 bd d3 21 02 be 73 c8 3f bd eb 5a 4a bd
       -0.08626078 -0.12708215 -0.046822023 -0.049403112
0000d0 5d 28 3a 3d 2a c4 e0 bc 83 5c 95 bd 63 ad 81 bd
       0.04544865 -0.027437288 -0.07293036 -0.06331899
0000e0 3a 25 ee bd e9 3e 70 bd 66 7f 0b be 96 db 22 be
       -0.11628194 -0.058653746 -0.13622817 -0.15904078
0000f0 41 58 1e bd a0 e6 62 3c 3e f2 0f 3d 41 f8 9e bd
       -0.038658384 0.013848931 0.03514313 -0.077621944
000100 dd 23 89 bd 86 df a6 3c 9b d7 0c be cc 6c 52 3c
       -0.066962935 0.020370256 -0.13754122 0.012843322
000110 eb 33 d0 bc f2 da 8c bd cf fa 16 be bd c0 80 bd
       -0.025415381 -0.06877698 -0.14744113 -0.06286762
000120 30 93 62 be 73 a7 17 be ce 33 a2 be 7a 1a 55 bd
       -0.2212646 -0.1480997 -0.3168015 -0.052027203
000130 a8 9d a6 bc 99 61 a9 bc 0e c2 09 be 3f 1e 05 be
       -0.020338848 -0.020676421 -0.13452932 -0.12999819
000140 fd 41 ba 3c d4 88 b8 bd 35 ed 6c be f2 2e cd be
       0.022736544 -0.09010473 -0.23137362 -0.4007488
000150 6a 94 91 be ce 37 5d bd 67 4e a5 be b2 b9 02 be
       -0.28433543 -0.054008298 -0.3228638 -0.1276615
000160 1c 78 de bd fb 3a 19 be 07 0d 97 bd ea 64 6e bd
       -0.10862753 -0.14963906 -0.07375532 -0.058201708
000170 2e 9f c4 be 71 6c 0a bd f9 93 10 be 3d f5 f2 bd
       -0.38402694 -0.033794824 -0.14118947 -0.11863182
000180 a3 e5 95 be 44 2c 00 be cc 72 14 3d 03 9a 86 bd
       -0.2927676 -0.12516886 0.03624229 -0.06572344
000190 91 15 fa bd 9d 14 01 be d4 ad 65 bd 9e 90 5e bc
       -0.12211145 -0.1260552 -0.05607398 -0.013584284
0001a0 43 dc a4 bd 18 f7 85 3d e2 c2 9b bd 12 4e 09 3c
       -0.08049824 0.0654127 -0.0760553 0.00838043
0001b0 1d 7e bb bc 7d e6 41 bd 6f 14 fa bd 95 23 a9 be
       -0.022887284 -0.04733895 -0.12210929 -0.3303496
0001c0 1e 27 4a bd e1 51 f0 bc 60 35 98 bd 04 62 4b bd
       -0.04935371 -0.029335918 -0.074320555 -0.04965402
0001d0 cc f6 b0 bd 60 0e 0f bd a0 ca 86 be 44 b6 a9 be
       -0.08640823 -0.03492582 -0.26326466 -0.3314687
0001e0 ad ca d5 bd 40 72 21 bd f3 92 fb 3c 47 db f5 3c
       -0.10439048 -0.039415598 0.03070972 0.030011786
0001f0 77 dd e3 bd 52 0d 04 be 35 a9 9b be 7e b3 d0 bd
       -0.111262254 -0.12895706 -0.30402532 -0.101904854
000200 f7 27 4e 3d 87 5f 9f bd 6c 62 0c be b3 3a 8f be
       0.050331082 -0.07781892 -0.1370942 -0.2797447
000210 84 a0 bf bc 14 8d 17 3d 37 1d 0b be c7 93 ec bd
       -0.02339197 0.036999777 -0.13585363 -0.11551624
000220 dc ee 87 be 49 92 1b be ad ba 25 3d 2a f9 0b be
       -0.26549423 -0.15192522 0.04046123 -0.13669267
000230 f6 2d 1c 3d 8e d2 73 be 3e 1d 1d be d8 99 cd bc
       0.03812977 -0.23810789 -0.15343186 -0.025097772
000240 f5 19 9a bd eb 85 f0 bc 9f 12 e4 be b9 1e ef bd
       -0.07524482 -0.029360732 -0.44545457 -0.11675782
000250 cd d7 bd bd 31 b2 c6 bb 91 87 00 be 83 24 09 3c
       -0.09269676 -0.0060637225 -0.12551714 0.0083705215
000260 f0 51 bf be a7 52 6a be b0 97 dc be 86 9b 2c 3d
       -0.373672 -0.22883092 -0.43084478 0.042140506
000270 88 46 ae be 91 19 50 bd d2 de 85 3c a9 18 f3 bd
       -0.34038186 -0.050805632 0.0163416 -0.11869938
000280 ca 6a 0a be f1 e4 fd bd e2 39 0a be 4b 63 fd bc
       -0.135173 -0.12397183 -0.13498643 -0.030931136
000290 5e 18 21 bb a3 bf 9e bd b5 bd b9 bd 0d e9 76 bd
       -0.0024581174 -0.077513956 -0.09069387 -0.06028085
0002a0 55 89 e7 bd c4 87 8b bc bf 57 6e 39 18 16 26 3d
       -0.11305491 -0.017032512 0.00022730137 0.040548414
0002b0 67 c7 9e bd 8e 74 64 3c e8 1b 9f bd d5 42 12 be
       -0.07752877 0.013943804 -0.077689946 -0.14283307
0002c0 e7 a9 90 3c 4f b1 e2 bd 03 1e fe 3b ee 93 bb 3c
       0.01765914 -0.11068975 0.0077550425 0.022897687
0002d0 17 da 2b 3d 87 74 19 be 2b 89 04 be 43 fa cd bd
       0.041956034 -0.14985858 -0.1294295 -0.10057499
0002e0 f9 b0 0d bd 2f fd 95 3b ad 89 bc 3c d3 91 8d bc
       -0.034592602 0.004577301 0.023014868 -0.017281448
0002f0 df ae 63 3d 01 cd 6b bc 37 3d db bc f6 75 71 bd
       0.055586692 -0.014392138 -0.026762588 -0.058950387
000300 e1 e9 7b bc 15 7b 59 3d b8 35 45 bc c4 fc 1f bc
       -0.015375585 0.053095896 -0.012036733 -0.009764854
000310 2f fe b6 bc 10 0b fd bc ed 3c f4 bb 90 fe 75 bc
       -0.022338001 -0.030889064 -0.007453552 -0.015014306
000320 5c c4 4e bc 6a 05 f1 bd c1 e4 0d be e6 65 c9 bd
       -0.012620058 -0.11768611 -0.13856794 -0.09833889
000330 75 07 08 bd 9e 11 87 bd fd ec 0b be bf 47 ee 3c
       -0.033210237 -0.06595157 -0.13664623 0.029086946
000340 88 a5 5a bd de ff a6 bd ae a0 fa bb e0 c6 da bd
       -0.05338052 -0.081542715 -0.007648549 -0.10682464
000350 0a 74 82 bd 48 c7 4b bc 6b de ed 3c 70 d3 27 be
       -0.06369789 -0.012437649 0.029036721 -0.16389251
000360 d0 21 91 bd 6f 6c ba bc 6e b2 25 3d da fa 27 bd
       -0.07086527 -0.022756783 0.040453367 -0.041010715
000370 09 1c 4a ba c8 5b 1c be b4 f2 60 3d 21 61 53 3d
       -0.0007709866 -0.15269387 0.05491896 0.0516063
000380 da 6c b5 bd 97 43 20 be 14 51 93 3c d2 92 4c bc
       -0.088586524 -0.15650783 0.017982997 -0.012486177
000390 79 40 1b be 40 f6 83 bd 8b 3d ad be dd 71 e0 be
       -0.15161313 -0.06443453 -0.33836016 -0.4383687
0003a0 11 06 6d bf 3f b4 2b bf 47 db ee be 08 6d 6d 3c
       -0.9258738 -0.6707191 -0.4665167 0.014491327
0003b0 0d ca a5 bd 6e 18 01 3d 92 99 a5 bd 12 56 32 3c
       -0.08095179 0.03151744 -0.08085932 0.010884779
0003c0 da 17 39 bd 6c f1 29 be 74 da 7c bd 87 4d de bd
       -0.045188762 -0.16596001 -0.06173177 -0.10854631
0003d0 b3 ca 5c be 2e b8 a4 bd df 14 c7 bc 35 86 83 bd
       -0.21561699 -0.08042942 -0.024301944 -0.06422082
0003e0 45 c2 f0 ba 41 48 1e bd 18 9d 60 be 19 90 0b be
       -0.0018368444 -0.038643125 -0.21934927 -0.13629188
0003f0 3f ae 49 3d fa 2e ad 3b 06 85 85 bc 62 8a ad be
       0.04923844 0.005285141 -0.016298782 -0.3389464

bias f4 [16]
000000 b3 82 79 bd dc b3 c2 be 72 59 c5 bb 87 40 8a be
       -0.06091566 -0.38027847 -0.0060226256 -0.27002355
000010 76 b6 ee bd 03 b9 3b bf 1a 96 86 be 4f b0 fa bd
       -0.116558954 -0.7332918 -0.26286393 -0.122406594
000020 13 08 eb bd 1c 8b bd bd 7e 48 08 3f ac c8 02 be
       -0.114761494 -0.09255049 0.53235614 -0.12771863
000030 9c 39 28 bf 04 a3 07 be 17 09 82 3f b5 7a 9a bd
       -0.65712905 -0.1324578 1.0159024 -0.07542936

weight f4 [64, 112]
000000 48 22 90 bc 3c 72 e5 bc fd 76 4f 3d 68 c9 df bd
       -0.017594472 -0.028008573 0.050650585 -0.10927087
000010 06 d1 8d bb ee 3b a5 bc 45 1e e9 bd de 54 56 3e
       -0.004327896 -0.020170178 -0.113827266 0.20930812
000020 84 9a 0d bd b8 df 13 bd d8 1e cd bd ae b5 eb 3b
       -0.034571186 -0.036102027 -0.100156486 0.0071932888
000030 8a 29 24 bd c9 ef 24 3d 3d 5b 77 bd 0c f5 9a bd
       -0.040078677 0.04026774 -0.060389746 -0.0756627
000040 00 5c 63 ba aa 4b b1 bd eb 87 d1 bd a3 ff 04 bc
       -0.0008673072 -0.0865701 -0.102310024 -0.008117589
000050 82 63 ca bd d5 73 e0 be 1b 73 e0 3d 79 11 21 3f
       -0.09882261 -0.43838373 0.109594546 0.62917286
000060 82 de df be d1 24 bc 3d c5 67 cf be 65 75 fb bd
       -0.43724447 0.0918671 -0.40508857 -0.122782506
000070 da 73 ec 3c bd 1a f5 3b 77 33 38 bc bb 79 e2 3d
       0.028863836 0.007479994 -0.011242739 0.110583745
000080 54 91 07 3e 09 99 12 3e ab 3f 0f 3e 8b 60 d7 3e
       0.13239032 0.14316191 0.13989131 0.42065844
000090 8e 9b aa bd 71 72 b8 be 94 c4 90 bd a4 50 66 3c
       -0.08330451 -0.36024812 -0.07068744 0.014057312
0000a0 b6 18 1d 3d 71 7f 93 3d 59 57 a0 bd e5 99 3e bd
       0.038353644 0.07202042 -0.0782916 -0.046533484
0000b0 a3 08 08 3d 56 8f ea bd d0 9d ce bd 51 2b 72 3d
       0.03321136 -0.114531204 -0.10088694 0.05912334
0000c0 7d f9 ce bc db 8e af 3c e6 5f aa bd d1 80 46 bd
       -0.02526545 0.021430423 -0.083190724 -0.048462693
0000d0 da ab d8 3b c7 7c 45 3d 94 8b 29 3c 64 f6 bb 3c
       0.006612283 0.0482147 0.010348219 0.022944637
0000e0 52 17 ac 3c ac e1 3a 3d b3 be 81 bd 8f cb 7c 3d
       0.021007214 0.045625374 -0.06335201 0.061717566
0000f0 09 bd 14 3c d5 c3 cc bc 7d 69 c8 bd 96 a4 bd bd
       0.009078273 -0.024995724 -0.09785745 -0.09259908
000100 71 ea b7 bc f0 86 82 3c b9 68 f7 bd 31 0a d1 bd
       -0.022450658 0.015933484 -0.12080521 -0.10207022
000110 bf cd 0d 3d a1 0c dc bd 65 62 ff 3e ac 7f 1a 3d
       0.034620043 -0.10744596 0.49879757 0.037719414
000120 60 ba 8c be 4b f7 ba 3e 80 5b c2 3e 8b ff 4d 3e
       -0.27485943 0.36516795 0.37960434 0.20117013
000130 d8 f6 bd 3e 57 50 28 bd 75 aa 08 3d 35 d4 3c bd
       0.3710239 -0.041092243 0.033365685 -0.046100814
000140 e1 eb 06 bd 11 ec c5 bd c1 f3 ab bd 39 94 ab bb
       -0.032939795 -0.09664167 -0.08396102 -0.0052361754
000150 a4 09 8e 3e 11 16 83 bc d8 ee 6a be e9 b4 c1 3c
       0.2774173 -0.016001733 -0.22942674 0.023645835
000160 49 b3 5d 3d 95 20 9f bd 86 33 d2 3d 30 36 02 3e
       0.054126058 -0.077698864 0.102637336 0.12715983
000170 08 87 f6 3d 1f 7b 1b 3d 4c b1 e7 3c f4 55 5c 3d
       0.12037474 0.037959214 0.028282784 0.05379291
000180 5f 5b 69 bd 35 90 be 3d 0d d4 0b be 03 c3 f3 3c
       -0.056971904 0.09304849 -0.1365511 0.029756075
000190 14 e3 1c 3e c3 7d 43 3d b6 39 30 3e 96 13 a1 3d
       0.15320998 0.047727358 0.17209515 0.07865064
0001a0 fa d5 03 3c b1 d2 07 3f 36 0a 05 bf 9f 5d ab 3f
       0.008046621 0.53055865 -0.51968706 1.3387946
0001b0 58 81 9a bd 8c 5f 5e 3e ed 1b 7b be f6 8b f6 3e
       -0.075442016 0.21716136 -0.24522372 0.48153657
0001c0 30 4e c5 3b bd 49 09 be 45 84 3b 3c 4a 4f cd bd
       0.0060212836 -0.13407035 0.01144511 -0.10024889
0001d0 c9 00 b5 bd d7 05 87 bd a9 89 19 be 83 f8 bf bd
       -0.088380404 -0.06592911 -0.1499392 -0.09373572
0001e0 a2 b9 6e bd d1 b9 dd bd 5d 75 92 bd 4f c9 7e 3a
       -0.058282502 -0.10826457 -0.071512915 0.00097193284
0001f0 cf 3d 3f bd 58 17 17 be e8 c2 05 be 28 04 b1 bd
       -0.046689805 -0.14754999 -0.13062632 -0.08643371
000200 d9 7f e2 bd 49 a8 28 bd d1 30 85 3c 01 55 ed bd
       -0.11059541 -0.041176114 0.016258629 -0.11588479
000210 97 b3 f5 bd 08 68 16 bd 41 80 d6 3c 93 4f 1d 3d
       -0.11997145 -0.036720306 0.026184203 0.038405966
000220 35 b7 df bd be 86 0e 3d b2 b5 96 bc ea 3f bc bd
       -0.10923616 0.03479647 -0.018397186 -0.09191878
000230 57 76 f7 bd c9 94 22 bd 38 08 05 3c d2 8d 32 bb
       -0.120831184 -0.039692674 0.008119635 -0.0027245176
000240 e6 14 16 3e 7b 61 9a 3d c5 18 df bc 8d 38 b2 bd
       0.1465641 0.07538124 -0.02723349 -0.087021925
000250 d0 c4 12 be 27 b6 7e bd 63 3a 62 bc 4e a2 22 be
       -0.1433289 -0.062185433 -0.013807866 -0.15882227
000260 fe a0 60 bd 02 37 cb 3c 79 75 1a 3c 42 19 81 bb
       -0.054841034 0.024806503 0.009427422 -0.0039397785
000270 9a 31 66 bd 63 c5 bd bd 7d 95 e9 3c b4 17 e9 bd
       -0.056199647 -0.09266164 0.028513664 -0.11381474
000280 e5 d1 dc bd 55 bf b6 bd 2a 66 b0 3c 86 09 39 bd
       -0.10782222 -0.089232124 0.02153309 -0.045175098
000290 0b 63 eb bc 7d ab cd bd 83 5b 82 bd 1d 2d b0 bd
       -0.02873375 -0.100424744 -0.06365111 -0.08602355
0002a0 95 d0 76 3c b4 55 7e bd 52 07 f2 bd 75 67 0d 3d
       0.015064378 -0.06209345 -0.118178025 0.034522492
0002b0 a2 07 49 3c 86 f5 f7 bd 30 58 f0 bd fc 3f 45 bd
       0.012269886 -0.12107377 -0.117355704 -0.048156723
0002c0 62 7c 97 bd d8 76 cf 3c 4d 54 97 bc b4 56 84 bd
       -0.07396771 0.025325224 -0.018472815 -0.0646185
0002d0 92 01 1b 3c 6e 75 f6 3a 1a 52 f3 bd c9 aa 9c bd
       0.009460824 0.0018803307 -0.11880894 -0.07649762
0002e0 7d 5c ca bd a1 34 8a 3c b7 ee 60 bd c7 0e 95 bc
       -0.09880922 0.016870799 -0.054915156 -0.018195523
0002f0 56 6b 26 3c ee af ac bd b4 11 87 3c da f1 7d bc
       0.010157427 -0.084319934 0.016487934 -0.015499556
000300 ec b9 a4 bc a2 79 02 be 91 0f 51 3c fa 8a 0d bd
       -0.020108186 -0.12741712 0.012760059 -0.034556367
000310 ec af b4 bd 11 76 cc ba 61 51 c1 bd 1b c2 8f bd
       -0.08822617 -0.0015599151 -0.0943935 -0.070194446
000320 59 06 04 be 00 3b a9 bb dc 48 53 bd 1f fa 42 be
       -0.12893046 -0.005164504 -0.051583156 -0.19040726
000330 56 f5 03 be 29 10 bf 3d 42 34 46 3d b5 14 ee bc
       -0.12886557 0.09329254 0.04838968 -0.029062608
000340 53 6b 97 3d 01 3d 8f 3c fe a1 9f bc 16 38 12 bd
       0.07393517 0.017485144 -0.019486424 -0.03569802
000350 e5 c8 7c bd a6 3a d2 bd 7f a0 3e 3d 21 60 8f bc
       -0.061715025 -0.102650926 0.04653978 -0.017501893
000360 a8 b0 1b bd 7c f5 b8 bd a4 a7 f1 bd 02 a8 b1 bb
       -0.03801027 -0.090311974 -0.11799553 -0.0054216394
000370 e0 b7 c2 bd 03 4f 44 bd 65 62 07 3d 0d 8a 61 bd
       -0.095077276 -0.047926914 0.03305282 -0.055063296
000380 10 32 cb 38 ed a0 32 bd 80 5d f2 3a 48 99 0c be
       9.689119e-05 -0.043610502 0.0018491 -0.13730347
000390 32 69 23 be 2f 94 02 be 22 66 0d bd 72 ea 5e bc
       -0.15958098 -0.1275184 -0.03452123 -0.013605701
0003a0 35 d2 2e bc f7 6b 16 3d 8f 48 75 3c f5 5c 63 bd
       -0.010670234 0.036724057 0.014970913 -0.055508573
0003b0 9d a1 c7 bc da 74 cc bc a3 49 19 be c1 7a e4 bd
       -0.024369055 -0.024958063 -0.14969496 -0.11156226
0003c0 5a 2a 46 bd 6e fb 9a bc dc e0 fc bd 6d 3c 8d 3c
       -0.048380233 -0.01891872 -0.12347576 0.017240727
0003d0 e5 d9 10 be a6 cc f9 bd 26 8d af bd da 98 13 bd
       -0.1414562 -0.12197237 -0.08571844 -0.036034442
0003e0 72 70 d9 bd 49 56 cf bc b0 32 e3 bd 09 cb 11 be
       -0.1061715 -0.025309699 -0.11093652 -0.14237608
0003f0 35 6e d6 bd b6 fb b7 bd a6 90 10 be fc 9f fa bd
       -0.10470239 -0.08983557 -0.14117679 -0.12237546

bias f4 [64]
000000 c3 c4 15 3d 20 cb 99 bd 88 10 07 bc d4 73 67 bd
       0.0365646 -0.07509446 -0.008243687 -0.056506947
000010 a4 41 87 bf 9b c0 92 be 28 b4 ed be 59 be 37 be
       -1.0566907 -0.2866257 -0.4642651 -0.17943706
000020 38 78 3b be 35 e8 e3 be 5a ae 34 bf 97 d9 a6 3f
       -0.18307579 -0.44513097 -0.7057854 1.3035153
000030 c9 be 05 be dd 78 e9 bd e5 21 b9 be 93 e7 af be
       -0.1306106 -0.11400006 -0.36158672 -0.34356365
000040 42 ba 91 bd 5e 53 39 bf 9f 50 84 bf 9c 67 e8 bd
       -0.07115604 -0.72392833 -1.0337104 -0.11347887
000050 96 68 c4 be 3e 8e 01 be 3c a8 07 bc 54 43 09 3c
       -0.38361043 -0.12651917 -0.008279856 0.008377869
000060 f3 0e f6 bd cc 68 ed 3c 22 14 dc 3e 84 16 ce be
       -0.1201457 0.028980635 0.4298411 -0.40251553
000070 1c 78 ad ba 89 16 08 be 74 ca 46 be 73 8a 99 bd
       -0.0013234648 -0.13289846 -0.19413167 -0.0749711
000080 cf 96 c3 bc 52 16 3f 3f 29 00 b8 be 4a 3d f8 bd
       -0.023875622 0.74643433 -0.35937622 -0.12121065
000090 00 0f b0 bd 8a 2b 99 bd 90 b6 d0 bd f5 30 b7 be
       -0.08596611 -0.074790075 -0.10191071 -0.3577954
0000a0 a0 6f cc be 8b 6d 75 bd 83 b0 20 be 85 ac 87 bd
       -0.39928913 -0.05991892 -0.15692334 -0.06624702
0000b0 4c b6 d9 bd 12 6c d8 3c d7 c3 79 bc 63 03 1c be
       -0.106304735 0.02641872 -0.015244446 -0.15235667
0000c0 3e a6 83 bd fc 31 f3 be 3f 68 c0 be d1 6a 06 bf
       -0.064281926 -0.47499073 -0.37579533 -0.5250674
0000d0 1a 12 80 bd ac 75 2e be 71 51 37 be 91 c5 1b be
       -0.062534526 -0.17037076 -0.17902161 -0.15212084
0000e0 9b 28 c4 bc e7 f8 87 be 5a 8b e7 be bc 77 fc bc
       -0.023945143 -0.26557085 -0.45223504 -0.030818813
0000f0 fb 76 37 bd ff 05 20 be ed 00 d0 be e3 cd ce be
       -0.044791203 -0.15627287 -0.40625706 -0.40391454

weight f4 [32, 64]
000000 1c 9c c1 3c 75 30 3b be bc e8 b7 bd 90 55 f3 bd
       0.023634009 -0.18280204 -0.089799374 -0.11881554
000010 12 42 99 3b c0 4e 57 bc 98 bc a5 bd c2 cd 2a be
       0.0046770656 -0.013141334 -0.08092612 -0.16680053
000020 6c 1f 14 be 18 e0 09 3d 50 e8 98 3d 92 40 4d bd
       -0.14465111 0.033660978 0.07466185 -0.050110407
000030 81 ca 86 bc 3f 5b 20 3d 73 18 5c 3d 70 9a 60 bd
       -0.016453983 0.03914952 0.053734254 -0.054834783
000040 14 70 b9 bd d7 57 cc bc 74 a0 07 be 0e 3c 5d 3c
       -0.0905458 -0.024944229 -0.13244802 0.013503088
000050 2e 25 b4 3d bf d0 85 bc 70 24 31 bd 87 1c 6a 3d
       0.08796154 -0.01633489 -0.04324764 0.057156112
000060 af bb d9 bd cb 9f 26 be 7a f0 cf be 2f 4c 10 bd
       -0.10631501 -0.16271894 -0.40613157 -0.035228904
000070 75 18 64 3d 14 ee e7 bd 7f 2c cb bd a4 ae 78 3d
       0.055687387 -0.11324707 -0.09920596 0.060713425
000080 79 e9 4c 3d 02 95 29 be fc 9e 85 bd 59 21 e0 bb
       0.050027344 -0.16560748 -0.065244645 -0.006839913
000090 43 13 a1 bb a2 6a 99 3c 1a 28 2d be a4 f6 2b bd
       -0.0049156263 0.018727604 -0.16909829 -0.04198326
0000a0 60 2a 76 bd e3 5b 29 be 7b 22 4e bd 43 23 d8 bc
       -0.060099006 -0.16538958 -0.050325852 -0.026384002
0000b0 17 7c cd 3c 20 dd e5 bb 09 b6 e2 bd 73 a2 1a 3d
       0.025083585 -0.0070148855 -0.11069877 0.03775258
0000c0 b8 c4 43 bd 28 04 b8 bb 8a 41 63 bd fe ac b2 be
       -0.047795027 -0.00561573 -0.055482425 -0.34897608
0000d0 ec 6a 62 bd 15 42 b4 bd e2 dd 73 bc cc e1 19 bd
       -0.05527775 -0.08801667 -0.014884444 -0.037568852
0000e0 cd eb 31 be b7 46 78 be 98 6e 0f 3e 63 2e 5e 3d
       -0.17375107 -0.24245726 0.14007032 0.054243457
0000f0 18 9c 50 3d c4 61 d6 bd 4d bf e9 3c e6 42 85 bd
       0.050930113 -0.10467866 0.028533602 -0.065069005
000100 90 6f 41 3e f7 6e fa bd e2 45 e4 bc 76 83 6d bf
       0.18890214 -0.12228196 -0.027865354 -0.9277872
000110 78 b0 ca bd bb f5 c1 3d 8f c6 ae bd b3 c3 69 bd
       -0.0989694 0.094706975 -0.08533966 -0.0570714
000120 43 78 19 bd ec 1a 73 3d b8 92 26 3c 43 e0 22 c0
       -0.037468206 0.059351847 0.010166816 -2.5449378
000130 2c 97 4e bd e6 e5 18 3d b0 08 82 3d 1c 21 77 bd
       -0.050437137 0.037328623 0.06349313 -0.06033431
000140 94 8c c8 3d bb aa ef bd 39 24 25 bf fb 68 2b bd
       0.09792438 -0.11702486 -0.64508396 -0.041848164
000150 a0 fb 1e bf 3f e2 69 bd 3f 1e 68 bd 07 8b bf bc
       -0.621027 -0.05710053 -0.05666947 -0.023381723
000160 7c a4 9f 3d 57 25 22 3e a0 f1 63 bc c0 3c ab bb
       0.07795045 0.15834557 -0.013912588 -0.005225748
000170 ef 75 2c bd c8 b3 d5 3d 36 77 dd bc 66 6c 9a 3d
       -0.042104658 0.10434681 -0.027034383 0.075402066
000180 fb 1c ad bd 79 9e cf bd fc 0e 02 3d cb ad 1b bd
       -0.08452793 -0.10137648 0.03175257 -0.03800754
000190 f0 1b c0 3d a3 86 1a 3e ae 04 e9 be c6 c8 5f 3d
       0.09380329 0.15090422 -0.45511383 0.05463483
0001a0 12 a5 ad bd 63 39 dc 3c 6d 0c 4c 3d 2d 35 af bc
       -0.0847875 0.026882833 0.049816538 -0.02138766
0001b0 12 9a 3b 3e 89 ff 37 3d 8f 38 02 3d df 5e 1d 3d
       0.18320492 0.04492143 0.03179222 0.038420554
0001c0 0d 94 f8 bb 79 50 f3 3c 9a 05 ee 3d 8e d2 c3 bf
       -0.0075860084 0.029701458 0.11622162 -1.5298631
0001d0 5c 51 14 3d 3b b1 41 3d ed b3 f9 3d f0 b1 15 3d
       0.036210403 0.04728816 0.12192521 0.036546648
0001e0 04 b2 8a bd e4 f4 93 3e 5e 05 0d 3e d7 4e 18 bb
       -0.06772235 0.28897774 0.13771579 -0.0023240352
0001f0 3e f4 d5 be 2a d9 0f 3d 79 82 2d bc 58 7a ad 39
       -0.41787905 0.035119213 -0.010590189 0.00033088285
000200 36 11 31 3f ac eb 8f 3b ca 00 80 3d 55 06 84 3e
       0.69166887 0.004392108 0.062501505 0.2578608
000210 ba b0 b9 be ab a6 09 bd 65 a5 83 bd 50 d1 e1 3c
       -0.36267644 -0.033606213 -0.06428031 0.027565628
000220 d8 79 93 3c 00 e5 d7 3c 9b 2b 5f be e2 97 ef bd
       0.018002436 0.026354313 -0.21793978 -0.11698891
000230 7e 9b 34 bc cf f3 a3 3d 1d 1d f8 bd aa ad 2e 3e
       -0.0110234 0.08005487 -0.12114928 0.17058435
000240 f1 fb 9c 3d 67 ff 02 3e 5b 68 98 be 68 2e ac 3d
       0.076652415 0.12792741 -0.29767117 0.08407289
000250 04 34 fb 3c e1 c0 a4 3d 08 56 17 3d 74 58 81 3d
       0.030664451 0.08044601 0.03694728 0.06315699
000260 13 b9 00 bd 37 ad 1d 3e 15 a9 bf 3e d1 17 84 bb
       -0.0314265 0.15398107 0.37433687 -0.0040311594
000270 da 72 cd 3d 7a 39 80 bd 5f 5b 0d bd 72 2f 6c bd
       0.10031672 -0.06260963 -0.034510966 -0.057662435
000280 d0 93 0e be 13 46 b5 3d 0b 2b a2 be 54 7e 82 3d
       -0.13923573 0.08851256 -0.31673464 0.063717514
000290 ff 79 4e bd a9 bc 4d bd c3 8f 08 bf d5 af 78 be
       -0.050409313 -0.05022875 -0.5334436 -0.24285825
0002a0 bf 5c 08 3f 6e 67 0c 3e 7f 71 17 3e 6a 9f 42 3d
       0.5326652 0.1371133 0.14789389 0.04751531
0002b0 79 4b 23 bd 65 e2 23 3d dd 42 3d bd 66 62 e3 3d
       -0.0398669 0.04001083 -0.046206344 0.111027524
0002c0 7a a9 6c bd 1c 30 02 be ec dc 7c 3d c8 71 e9 b8
       -0.057778813 -0.12713665 0.061734125 -0.00011131499
0002d0 95 ea 46 bd d7 15 ca 3d 0b 30 9e 3e 6c 7d e5 bc
       -0.04856356 0.09867447 0.3089603 -0.028013907
0002e0 32 bc e8 3b ba 10 b7 3d bf 1c bd 3d 40 cb af 3d
       0.0071025128 0.08938737 0.092339985 0.08583689
0002f0 46 66 a5 3d a9 6f 8a bd d1 7b c9 bc b2 68 06 3e
       0.08076148 -0.06759579 -0.024595173 0.13125876
000300 99 2f a7 bc 48 12 30 3d f0 fd f7 3d a3 4a be bc
       -0.020408439 0.042986184 0.121089816 -0.023228949
000310 0c 4c 02 bd c8 ca da bd 25 cd 13 3b e6 97 9e bd
       -0.031810805 -0.10683209 0.0022552696 -0.07743816
000320 73 b4 ef 3c 58 98 c8 bd 40 0d 9b bd 10 38 4e bc
       0.02926085 -0.09794682 -0.075708866 -0.0125866085
000330 74 04 a5 bd ba 87 97 3d 25 aa 1b be 48 90 7d bd
       -0.0805749 0.07398935 -0.15201624 -0.061905175
000340 f2 de ba bd 77 0b 18 be 7f ab d1 bd 07 1c 04 bc
       -0.09124555 -0.14848123 -0.102377884 -0.008063323
000350 2c 00 16 bd dc b1 cc bd 10 3b fb bc 50 63 16 be
       -0.036621258 -0.099948615 -0.030667812 -0.14686322
000360 b6 7d 93 bc ce e2 df 3d fc 7c ea bc cf 13 c9 bc
       -0.01800428 0.109319314 -0.02862405 -0.024545578
000370 bc 8d cd 3d e8 d3 45 3d 46 50 14 3d 24 5d a4 bd
       0.10036799 0.048297793 0.036209367 -0.08025578
000380 68 d6 5f 3a ea c7 06 be 9f 15 08 be f8 fd 9e bd
       0.0008538724 -0.13162199 -0.13289498 -0.077632844
000390 40 bc bc 3c e0 c0 f8 bb f1 b7 dd bd fc 22 b9 bd
       0.023038983 -0.007591352 -0.108261 -0.09039876
0003a0 30 43 63 3c 40 01 b9 bc 50 68 06 3c 2a 26 a1 bd
       0.013870999 -0.022583604 0.008203581 -0.07868607
0003b0 f8 99 b2 bd 36 af e5 bd 04 31 9c 3d 74 96 ee bd
       -0.087207735 -0.112150595 0.076265365 -0.116497904
0003c0 10 1d a0 bd b9 34 53 3d 30 8b 09 bd e3 45 c5 bc
       -0.07818043 0.051563952 -0.033580005 -0.024081176
0003d0 c8 6c a6 bd 29 81 12 be c4 c7 62 3d dc 7b 85 bd
       -0.08126217 -0.14307083 0.055366293 -0.06517765
0003e0 28 68 be bb f5 6f 16 3d be f7 ec bd dd 78 ea bd
       -0.0058107562 0.036727864 -0.115706906 -0.11448834
0003f0 fb 21 94 bd d2 e6 ad bd 60 87 a7 3c 4f fc 7b bd
       -0.07233044 -0.08491291 0.020450294 -0.061519917

bias f4 [32]
000000 26 0d ab be ef da 19 bf 3d bf 85 3f 6b 78 23 be
       -0.3340847 -0.6009969 1.0448986 -0.15963905
000010 fa 88 15 be 37 ce 7b bc 75 a6 22 bf 96 64 59 be
       -0.14603034 -0.01536899 -0.63535243 -0.21229777
000020 8f aa d6 be 55 ec f1 be 11 d1 09 bf fa a2 db be
       -0.41927 -0.4725062 -0.53834635 -0.4289778
000030 1a 68 ae be 58 65 fb be 8c 83 a9 be a0 5f d1 be
       -0.34063798 -0.49100757 -0.33108175 -0.4089327
000040 01 3e 51 3e 82 d1 da be 8f 7f a5 3c 12 7d db bd
       0.20433809 -0.42737967 0.020202426 -0.10717215
000050 7c 90 92 bd 3c 1f 05 bf c5 20 69 be fa b0 76 bd
       -0.071564645 -0.52000785 -0.22766407 -0.06022737
000060 76 f8 0f bf c8 a0 98 bd 63 3d 35 be ee 22 e9 be
       -0.56238496 -0.074525416 -0.17699198 -0.45534462
000070 15 82 56 3f 98 0c f2 bf d1 06 88 be 2f 43 af be
       0.8379224 -1.8910093 -0.265677 -0.34230945

weight f4 [30, 32]
000000 41 0c 1a be 05 78 7c bc 82 52 30 b9 a3 bf b0 bd
       -0.15043737 -0.015409474 -0.00016815405 -0.08630302
000010 00 a2 5e 3c 9b 2c 81 bd 59 e4 86 3c 41 82 93 39
       0.0135884285 -0.06307336 0.016466307 0.00028135072
000020 fc c6 59 be d8 b4 20 be 89 d7 cf 3c 8f 95 a9 be
       -0.21267313 -0.15693986 0.02537133 -0.33121917
000030 f8 c1 5f 3c ba 94 23 bc 36 d8 4a 3e 7f 3b 22 3d
       0.013657086 -0.00998419 0.1980904 0.03960752
000040 fa 68 76 bd 0c 4d c6 3e d5 2b 1b 3d 80 62 d1 3d
       -0.060158707 0.38730657 0.0378836 0.102238655
000050 25 fd 9d bd b3 05 3c bf fe a7 b4 3c 91 35 11 3e
       -0.07714299 -0.73446196 0.022052761 0.1418059
000060 58 2c 2b bc 79 eb a4 3d 99 5e 3e 3c ca 90 9b 3e
       -0.010447584 0.08052725 0.0116192335 0.30383903
000070 f3 b9 37 bc bb 62 cd be 39 11 c6 3d 2a 15 8a 3b
       -0.011213767 -0.40114388 0.09671254 0.0042139487
000080 dc 13 a9 bd 21 79 67 3e 23 45 87 3b d0 b1 dd 3d
       -0.08255741 0.22604801 0.004128115 0.10824931
000090 47 4c 29 3b bc 8c 35 3e 06 ee 22 3d 50 fb 02 3c
       0.0025832818 0.17729467 0.039777778 0.007994488
0000a0 ac 42 3f be c1 54 73 3d 18 69 d8 3b b8 90 70 3e
       -0.18677777 0.059407 0.006604325 0.23492706
0000b0 99 8b 00 bd b5 12 00 bd f1 52 d3 3e ea 08 11 be
       -0.03138313 -0.03126784 0.41274217 -0.14163557
0000c0 ec 30 ea bb 2a 32 a3 bd 90 55 fe 3c 66 ec 12 3e
       -0.007146945 -0.079685524 0.031046659 0.14347991
0000d0 8a f9 73 bd 49 26 86 bb 51 43 08 bb d7 f3 ac bd
       -0.05956415 -0.0040939194 -0.0020792077 -0.08444946
0000e0 29 35 57 3d 2d 69 9c 3d f3 98 16 3d db ac 10 be
       0.05254093 0.07637248 0.036766957 -0.14128439
0000f0 de 41 50 bc 75 f1 72 3e cc 15 25 3d c8 a3 86 3e
       -0.012711016 0.23724921 0.04030399 0.2629683
000100 36 c3 03 3e 10 a2 be 3e 2f 9b 9b 3e 9a 30 6e bd
       0.12867436 0.3723302 0.30391833 -0.05815182
000110 18 c1 51 3e 55 d6 40 3e 2f d2 09 bf 74 8f 36 bd
       0.20483816 0.18831761 -0.5383634 -0.0445704
000120 58 fb c7 be 67 ef e0 3d aa 38 28 3e 3d 28 1c 3e
       -0.39058948 0.109831624 0.16427866 0.15249725
000130 dd 88 38 3e 53 25 9a be 50 fb d2 3e 85 20 e7 3c
       0.18020959 -0.301066 0.4120736 0.028213749
000140 56 7d 9d 3e 5a 2e c3 3e 88 35 85 3e b2 0b d3 3d
       0.30759686 0.381213 0.26017404 0.10304965
000150 f3 c4 e5 bd 64 19 0f bf f9 70 c7 3e ca a2 0c 3d
       -0.11219206 -0.5589812 0.3895338 0.034334935
000160 d3 80 88 3e 1b 6a b4 3d eb 04 34 be bf 6f a0 be
       0.26660785 0.088093005 -0.17580001 -0.31335256
000170 21 ac 46 bf 68 bd 5a 3f aa 3b 25 3e a2 89 5d 3d
       -0.776064 0.8544526 0.16136041 0.054086335
000180 70 b9 d6 3d 53 ae 9d 3e 38 2d 0f 3d 9f 1c 26 be
       0.10484588 0.3079706 0.034955233 -0.16221856
000190 63 88 91 bd 66 4e 83 3d 66 91 78 3c 70 05 1d be
       -0.07106092 0.06411438 0.015171384 -0.15334105
0001a0 78 eb 3d 3e 9e 94 2b 3e 31 08 3b 3d 2f 82 46 be
       0.18546855 0.16755912 0.04566211 -0.19385599
0001b0 d8 b3 c7 3c da 40 e3 bb ef ed 73 be 38 de 8e 3c
       0.024377748 -0.006935221 -0.23821233 0.017439947
0001c0 a1 c4 d0 3d 73 10 9f be ee 22 8f bc 09 e8 b9 3d
       0.10193754 -0.31067237 -0.01747271 0.0907746
0001d0 36 fe a4 39 8a 71 69 be 2a 8e ea 3b 17 b1 12 be
       0.0003146992 -0.22797218 0.0071580606 -0.14325367
0001e0 d8 dd be 3c f0 d4 71 bc 3a af 85 3b ba 5e 08 be
       0.023299143 -0.014760241 0.0040797265 -0.13317385
0001f0 34 5f 0a bd e1 34 d5 3e 27 f9 04 3e 1a 2a 23 bd
       -0.0337822 0.41641906 0.12985669 -0.039835073
000200 63 1e 31 bd bc ec 4e be f3 f3 73 bd ad b0 82 3d
       -0.04324187 -0.20207494 -0.05955882 0.063813545
000210 f4 8e 7f bd fb e9 2c 3d a2 66 e0 bc 4d c1 4d be
       -0.06239219 0.04221533 -0.02739269 -0.2009327
000220 3e 9f ac 3e 0c 6a 1f be 54 20 e1 3c 96 04 8e 3d
       0.33715242 -0.15567797 0.027481236 0.069344684
000230 8d 9f 54 bc b3 4a a3 bc 79 95 3f be 1e f7 cd 3d
       -0.012977493 -0.01993308 -0.18709363 0.100568995
000240 3e 3a b9 bd 36 c1 4f 3c 6a 0d 4e 3c 6b bb 84 3e
       -0.09044312 0.012680342 0.01257644 0.2592424
000250 bd 0c d1 3c a3 a9 9b bd 55 30 85 3c 29 e2 18 3e
       0.02551877 -0.07600715 0.016258398 0.14930023
000260 fb a9 02 3c 25 bf 2b be 36 88 24 bd 21 e0 97 3e
       0.007975097 -0.16772135 -0.040168963 0.29663184
000270 54 ec 18 3d db 74 9b bd de 6b b9 3d 3a 75 b1 3d
       0.037334755 -0.07590648 0.09053777 0.08664937
000280 9f 90 0f be ed f9 2f bc f9 57 a0 be dd 65 c6 bb
       -0.14020012 -0.010740739 -0.31317118 -0.0060546235
000290 48 25 96 3d fa ba f4 bd ec 8e 05 bf 88 72 c7 3b
       0.073313296 -0.119497254 -0.52171206 0.0060866512
0002a0 ed a5 c7 be 10 44 00 3e 9a c7 25 3e 58 81 4b be
       -0.3899378 0.12525964 0.16189423 -0.1987356
0002b0 08 ed 07 be 7e e9 72 3f 2d 44 31 be 1c b7 1e 3e
       -0.13274014 0.9488753 -0.17311163 0.15499538
0002c0 a1 22 8d 3e 56 84 8b be 01 91 90 3e ce 9b 17 3d
       0.27565482 -0.27249402 0.2823563 0.03701382
0002d0 bd 0c 23 bd 84 bd 39 bd 6e 36 2b 3e 71 b6 ef 3b
       -0.03980707 -0.04534675 0.16719982 0.00731545
0002e0 b4 b4 e2 be 44 c9 29 3c 7c 71 b6 be 3c d3 89 be
       -0.4427849 0.010362927 -0.35633457 -0.26918972
0002f0 01 2d 4d be d2 a6 02 bd 06 6d 34 bd 92 5f 3e be
       -0.20036699 -0.031897373 -0.044049285 -0.18591145
000300 cb a8 99 3c a2 19 16 be 97 f5 34 bc 40 ce 49 3c
       0.018757245 -0.14658216 -0.011044881 0.01231724
000310 d8 b6 bf bc 7e b4 05 bd 69 d1 a6 ba ed e2 b3 bd
       -0.023402616 -0.032642834 -0.0012727204 -0.08783517
000320 69 2d 5a be 06 67 e6 3d a4 17 d7 3b ab 5a 7d 3e
       -0.21306385 0.11250119 0.0065640975 0.24741618
000330 d6 a9 8f 3c 07 5a 97 bb 17 2a 63 3d 28 5d 19 3e
       0.017537039 -0.0046188864 0.055460062 0.14976943
000340 12 c2 0e be 8d 47 6f 3e 7f 6b 89 3c 56 ee 3c 3d
       -0.1394122 0.23367138 0.016774891 0.046125732
000350 84 47 40 bd aa ee 14 bf 30 49 86 39 66 b8 31 be
       -0.046943203 -0.5817667 0.00025613 -0.17355499
000360 ba f1 c7 bb 99 6f 84 bd 3b 69 84 3c 59 22 25 3e
       -0.006101814 -0.06466598 0.016163459 0.16126384
000370 2f 52 21 3d 5e 8f a3 bd 5c c8 2e be af 00 7a 3d
       0.039385017 -0.079863295 -0.17068619 0.06103581
000380 c4 90 dc be 35 37 d5 3e 1a 7b 5d be 0f ce 14 bd
       -0.43079197 0.41643682 -0.21628991 -0.036329325
000390 00 0a ab 3d 69 71 e9 bd 21 63 f7 3d 5f 3e 98 bd
       0.08351517 -0.113985844 0.12079454 -0.07433771
0003a0 44 ff 46 3e 0e e7 03 be e9 f2 73 3d 94 b2 ba 3e
       0.19433314 -0.12881109 0.05955783 0.3646437
0003b0 73 19 ba bb 41 6f df bd 2a 27 ad 3b dd 79 d8 be
       -0.0056793033 -0.10909892 0.0052842097 -0.42280474
0003c0 8d 9f 36 3f 98 c9 c7 3e 62 92 1e 3e 8a f0 91 bc
       0.71337205 0.3902099 0.15485528 -0.017814893
0003d0 a1 88 9c bd f9 e6 15 bf bd f2 ce 3e 60 5c 98 3d
       -0.076432474 -0.5855556 0.4041957 0.07439494
0003e0 81 b2 85 3c 98 42 a1 3d 0b 7d 1d bf b1 15 21 3e
       0.016320469 0.0787403 -0.61518925 0.15730931
0003f0 d4 88 6f 3d e2 ad 60 3e c9 98 6c 3d 2b 7b 5c 3e
       0.0584801 0.21941331 0.057762895 0.2153136

bias f4 [30]
000000 92 60 64 3c aa 1c c9 bc 85 f5 27 3e 10 07 2c 3d
       0.01393904 -0.0245498 0.16402252 0.041998923
000010 ec 57 b6 bc e6 d8 b6 3e cb 96 2e bd af f3 33 3d
       -0.022258721 0.35712355 -0.042624276 0.043933567
000020 58 5a b6 bf 36 28 35 bf 61 2b 31 be 9f a5 50 be
       -1.4246321 -0.7076448 -0.17301704 -0.2037568
000030 f7 0a c8 bc b6 02 b8 bb 29 69 8a bd 0f b8 ab 3e
       -0.024419291 -0.0056155575 -0.06758339 0.33538863
000040 2b 29 b4 3c 6e 29 1f 3d de f8 87 bf ab 19 36 3e
       0.021992287 0.03885787 -1.0622823 0.17783229
000050 5b e1 29 bf 30 e5 33 3d 34 92 ae 3f 60 d6 30 3f
       -0.6635949 0.043919742 1.3638368 0.6907711
000060 bb c7 2b bf d1 4c 89 3b c8 7e f5 bc c7 0a f7 be
       -0.6710164 0.0041900654 -0.02996768 -0.4825041
000070 1a 4c 8c be b2 fc a3 bd
       -0.2740181 -0.08007182
