MultiModal/4loss13.43114686012268.pth (torch, 495882 bytes, 41 tensors)

weight f4 [16, 1, 4]
0	0xc0091d28	-2.1424046
1	0xbffba321	-1.9659158
2	0xbe7be72e	-0.24599907
3	0xbbda6245	-0.0066645467
4	0xbde90797	-0.11378401
5	0xbfe96df0	-1.8236675
6	0x3e27f649	0.16402544
7	0xbf84cb0f	-1.0374469
8	0xbf0db523	-0.5535452
9	0xc0224bc2	-2.535874
10	0x3db8798a	0.09007557
11	0xbfdc2773	-1.7199539
12	0xbe94d153	-0.29065952
13	0x3cbbbf5f	0.022918401
14	0xbc5b808e	-0.013397349
15	0xc03e1373	-2.969937
16	0xbefd9b77	-0.49532673
17	0xbf19746d	-0.59943277
18	0xbf11538a	-0.56768095
19	0xbde56bfb	-0.11202236
20	0xbf9c936b	-1.2232488
21	0xbf57dc59	-0.843206
22	0xbf635ef2	-0.8881675
23	0xbc0963c1	-0.0083856
24	0xc18f50e1	-17.914492
25	0xc15c159d	-13.755277
26	0xbe1c4d2d	-0.15263815
27	0x3a9add64	0.0011815247
28	0xbd80c020	-0.06286645
29	0xbe418924	-0.18899971
30	0xbedf3268	-0.43593144
31	0xbedcbb62	-0.43111712
32	0xc00d10f1	-2.204159
33	0xbfd9a453	-1.7003273
34	0xbf8abe03	-1.0839237
35	0xbe69f60a	-0.22847763
36	0xbfdc14e2	-1.7193873
37	0x3d0c1d76	0.034207784
38	0xbf7f8a66	-0.99820554
39	0xbf5e2b83	-0.86785144
40	0xbd5cb4b0	-0.053883255
41	0xbf3726ed	-0.7154377
42	0x3db3f90e	0.08787738
43	0xbf943100	-1.1577454
44	0x3eb9b006	0.36267108
45	0xbf6621c2	-0.8989526
46	0x3f617646	0.88071096
47	0xbec12dbf	-0.37730214
48	0xbef31b35	-0.47481695
49	0xbf86141c	-1.0474887
50	0x3e02797c	0.12741655
51	0xbf0d6747	-0.55235714
52	0x3dba8961	0.09108234
53	0x3d2e9ae4	0.042628184
54	0x3d329991	0.043603484
55	0x3dcc254b	0.099680506
56	0xbe8210b0	-0.25403357
57	0x3d6b13ec	0.057392046
58	0xc0aa73ea	-5.3266497
59	0x3ddef8bf	0.10887288
60	0xbf88fc58	-1.0702009
61	0xbea7dd62	-0.3278609
62	0xbe40bded	-0.18822451
63	0x3ad83c05	0.0016497379

bias f4 [16]
0	0xbec4bd79	-0.38425806
1	0xc024f2e0	-2.577324
2	0xbe86993f	-0.26288792
3	0xbfa62f51	-1.298319
4	0xbf1ea3d2	-0.6196872
5	0xbda37b01	-0.079824455
6	0x3e1e8690	0.15481019
7	0xbe9fbeb4	-0.31200182
8	0x3f217c7f	0.6308059
9	0xbe3734b8	-0.17891204
10	0x3e6e2a46	0.23258314
11	0xbbb6dcfe	-0.0055805435
12	0xc0664771	-3.5981104
13	0xbd87bbbf	-0.066276066
14	0x3e541423	0.20710807
15	0xbd4a8808	-0.049446136

weight f4 [16, 16, 4]
0	0xbe0478e2	-0.12936738
1	0xbf835cf1	-1.0262738
2	0xc0709882	-3.7593083
3	0xbf938fa5	-1.1528212
4	0xbe6eb190	-0.23309922
5	0xbfcf7154	-1.620646
6	0xbf78f26c	-0.97244906
7	0xc021fe4c	-2.531146
8	0x3e772594	0.24135429
9	0xbf610162	-0.87892735
10	0xbfa4a9dc	-1.2864337
11	0x3f501674	0.8128426
12	0xbf930d6e	-1.1488473
13	0xbd839968	-0.06425744
14	0xbeb554bb	-0.35416207
15	0xbfd9593e	-1.698036
16	0xbe4dc205	-0.20093544
17	0xbdb72daf	-0.0894426
18	0xbf922335	-1.1416994
19	0xbf16b5b4	-0.58871007
20	0x3e9c21b4	0.30494463
21	0x3da39473	0.07987299
22	0x3e843308	0.25820184
23	0xbf92bb6b	-1.1463445
24	0x3f7d99f6	0.9906305
25	0x3f2ef08b	0.6833579
26	0xbfaed583	-1.3658909
27	0xbf22f073	-0.63648146
28	0xbd80541a	-0.06266041
29	0xbd868310	-0.06567967
30	0xbdb5bb0e	-0.088735685
31	0x3cf58610	0.029971153
32	0x3f778e38	0.96701384
33	0xbf9aed92	-1.2103751
34	0x3e8e7ff6	0.27832
35	0xbf8b68d8	-1.0891371
36	0x3d239f35	0.039946754
37	0xbf143eea	-0.579085
38	0xbfdb6ab2	-1.7141936
39	0xbdd13192	-0.10214533
40	0x3dbc6469	0.09198839
41	0x3f1d5f6c	0.6147373
42	0x3f30377f	0.6883468
43	0xbf86c443	-1.0528644
44	0x3e1f3a85	0.15549667
45	0xbead191e	-0.33808225
46	0x3c6c9fe6	0.01444242
47	0xbdaba08b	-0.083802305
48	0xbf5bf9dd	-0.85928136
49	0xbf431345	-0.7620128
50	0xbf5d1dd3	-0.86373633
51	0xbe41d679	-0.18929471
52	0xbf433163	-0.76247233
53	0xbf5e3b0a	-0.86808836
54	0xbf9dfbf1	-1.2342511
55	0xbf9bfa1b	-1.2185701
56	0x3f0b2ccf	0.5436525
57	0xbd94b1f5	-0.07260505
58	0x3ebfce13	0.3746191
59	0x3ee7727e	0.45204538
60	0x3e9e263d	0.30888548
61	0xbdc23e4c	-0.094845384
62	0x3e087b97	0.13328396
63	0xbf162ec0	-0.58665085
64	0xbebf9cd7	-0.37424347
65	0xbf124512	-0.5713664
66	0xbe62a287	-0.22132312
67	0x3ed14a01	0.40876773
68	0x3ef715ea	0.48258907
69	0x3d67b349	0.056567464
70	0xbe6c4be9	-0.23075832
71	0xbeb89d80	-0.36057663
72	0x3d36fc2f	0.044674095
73	0xbe876f8e	-0.26452297
74	0xbf3ef2ad	-0.74589044
75	0xbf497df7	-0.7870783
76	0xbe3be323	-0.18348365
77	0xbf4b1e25	-0.7934287
78	0x3ef1ed9e	0.472516
79	0xbf2d4f72	-0.6769935
80	0xbe5c0a9d	-0.21488424
81	0xbe37349e	-0.17891166
82	0xbe86a8d7	-0.2630069
83	0xbe42010e	-0.18945715
84	0xbeb525c5	-0.35380378
85	0x3ddc9890	0.107712865
86	0x3e91e01d	0.28491297
87	0xbe687aa8	-0.2270304
88	0xbf8682cf	-1.050867
89	0x3dd9c9af	0.10634171
90	0x3f23f688	0.6404805
91	0xbe3c8f9f	-0.18414162
92	0xbb8834e0	-0.004156694
93	0x3dd1e58c	0.10248861
94	0xbcc183a0	-0.023622334
95	0xbc834450	-0.016023785
96	0x3d4eb184	0.05046226
97	0x3dfbe14c	0.12298831
98	0xbf0e9fee	-0.55712783
99	0x3f37bac5	0.7176936
100	0x3ef8b261	0.48573592
101	0xbf298aa1	-0.66227156
102	0xbe8231d3	-0.25428638
103	0xbf1a4998	-0.60268545
104	0x3e9d8b80	0.30770493
105	0x3f376b9b	0.7164857
106	0xbe00313d	-0.12518783
107	0x3d170e01	0.03687859
108	0x3dca643a	0.09882398
109	0x3e525c9b	0.20543139
110	0x3e3f70cc	0.18695372
111	0x3da06e5c	0.078335494
112	0xbefd4e8d	-0.49473992
113	0xbc0c09a4	-0.00854722
114	0xbed8cee8	-0.42345357
115	0xbef63adb	-0.48091778
116	0x3c278ef0	0.01022695
117	0xbe419206	-0.1890336
118	0xbd733606	-0.059377693
119	0x3db96bd4	0.0905377
120	0xbe4b8414	-0.19874603
121	0x3ed3bfb9	0.4135721
122	0xbdb6beea	-0.08923133
123	0xbebc17fd	-0.36737052
124	0x3e337b41	0.17527486
125	0x3e4060ae	0.1878688
126	0x3ad6760b	0.0016362084
127	0x3cdd7ba5	0.027036497
128	0xbefe3917	-0.4965293
129	0xbf0d7883	-0.5526201
130	0xbf9663ac	-1.1749167
131	0x3d81ba38	0.063343465
132	0xbd7247fe	-0.05915069
133	0xc00d0ed3	-2.2040298
134	0xbf8f60b8	-1.1201391
135	0x3e899243	0.268694
136	0xbe9f27b8	-0.3108499
137	0x3e770ff0	0.24127173
138	0xbea41e5d	-0.32054415
139	0x3f19e99e	0.60122097
140	0xbe89922d	-0.26869336
141	0xbfe04b50	-1.7522984
142	0xbe593107	-0.21210109
143	0xbdee701d	-0.11642478
144	0xbafdb003	-0.0019354824
145	0x3e031113	0.12799482
146	0xbe856fc2	-0.26061827
147	0x3c650c7e	0.013980029
148	0xbfa8ffca	-1.3203061
149	0xbfc52e2a	-1.5404713
150	0x3ea1f472	0.3163181
151	0x3f3165f4	0.69296193
152	0xbeed2f0c	-0.46324956
153	0xc0166b7b	-2.35031
154	0xc08260e8	-4.0743294
155	0x3da3d741	0.08000041
156	0x3d440ef0	0.047865808
157	0x3be18e20	0.0068833977
158	0xbd147f0c	-0.036253974
159	0xbdf07532	-0.11741103
160	0x3ee0d735	0.4391419
161	0x3f3ccb3c	0.7374761
162	0x3f7a71ec	0.9783008
163	0xbf306c39	-0.68915135
164	0x3e0ee231	0.13953473
165	0xbfa6190d	-1.2976395
166	0xbf0af6c4	-0.54282784
167	0xbef2e9ca	-0.47443992
168	0x3dc4cf8c	0.09609899
169	0x3e993161	0.29920486
170	0xbda1c304	-0.078985244
171	0xbef18844	-0.47174275
172	0xbeeae41a	-0.45877153
173	0xbf60b9b6	-0.8778337
174	0xbfa86e4b	-1.3158659
175	0x3d20e2e3	0.039278876
176	0x3ebffe81	0.3749886
177	0x3da0c77b	0.07850548
178	0xbda45f8e	-0.08026038
179	0xbf0d8b9a	-0.5529114
180	0x3f3238d8	0.69617987
181	0xbf034a33	-0.51285094
182	0xbf474c33	-0.77850646
183	0x3f0fa63d	0.56113034
184	0xbf93878e	-1.1525743
185	0xbfa9607e	-1.3232572
186	0xbf3c78ba	-0.73621714
187	0xbf1bb07d	-0.60816175
188	0xbd933c96	-0.0718929
189	0xbeab168b	-0.33415636
190	0xbcdf1fb9	-0.027236806
191	0x3ebd21c6	0.3693983
192	0x3e76661b	0.24062388
193	0x3ed375e1	0.41300872
194	0xbe48e1cd	-0.19617386
195	0xbeb5243a	-0.353792
196	0xbe2d01d5	-0.1689523
197	0x3ec2ec2a	0.38070804
198	0xbe0efc98	-0.13963544
199	0xbe5811c7	-0.21100532
200	0xbfd15036	-1.6352603
201	0xbecba458	-0.39773822
202	0xbc798c41	-0.015231193
203	0xbd554245	-0.052065153
204	0x3e00cfae	0.12579224
205	0xbd0c669e	-0.03427755
206	0xbd749505	-0.05971243
207	0xbdb4ddaf	-0.08831345
208	0xbec14f7d	-0.37755957
209	0xbe10233f	-0.14075945
210	0x3dd893b6	0.105750486
211	0x3e6fecb7	0.23430143
212	0x3e85e2a7	0.26149485
213	0xbedb6f42	-0.4285832
214	0x3e1e6c20	0.15470934
215	0xbe4c7f4c	-0.19970435
216	0xbecebdaa	-0.40379077
217	0xbffa2d75	-1.9545122
218	0x3ec8fa40	0.39253426
219	0x3d55f261	0.052233104
220	0xbb8b0740	-0.0042428076
221	0xbd5c51b0	-0.05378884
222	0x3c73c280	0.014877915
223	0x3d1f2a0c	0.03885846
224	0x3ecede8c	0.40404165
225	0xbe82c63b	-0.25541863
226	0xbd4d5426	-0.05012908
227	0x3e8f26f6	0.27959412
228	0xbfbd8fe7	-1.480954
229	0xbf8651f6	-1.0493762
230	0xbe19f585	-0.15035065
231	0xbf751fe5	-0.9575179
232	0xbf8ce848	-1.1008387
233	0xbe39fcb0	-0.18162799
234	0xbd68c67f	-0.056829926
235	0x38112e60	3.4613884e-05
236	0xbcd46dae	-0.025931206
237	0xbd17f5e2	-0.037099726
238	0xbc7dbd65	-0.01548705
239	0xbc8202c7	-0.015870465
240	0xbf47b1fb	-0.7800595
241	0x3deb0da7	0.11477213
242	0xbf62727d	-0.88455945
243	0xbf086321	-0.5327626
244	0x3e480d8b	0.19536416
245	0x3e10f34a	0.14155307
246	0x3e045fb3	0.12927131
247	0x3e7e76e9	0.24850048
248	0xbf17945d	-0.5921076
249	0xbe3d5f08	-0.18493283
250	0x3dad7472	0.08469476
251	0xbf242ea9	-0.641337
252	0x3daefba7	0.085440926
253	0xbe33e116	-0.17566332
254	0xbe0855d4	-0.13313991
255	0x3b6d81c3	0.0036240674

bias f4 [16]
0	0x3e1927d8	0.14956605
1	0x3e43e01a	0.19128457
2	0x3eb2de7c	0.34935367
3	0xbd995fd7	-0.07488983
4	0xbf12edec	-0.5739429
5	0xbf663b06	-0.8993381
6	0xbefb6688	-0.49101663
7	0xbee9eb97	-0.45687553
8	0xbe815056	-0.25256604
9	0xbec0f625	-0.37687793
10	0xbea8998f	-0.32929656
11	0xbf0732ad	-0.528117
12	0xbf32003f	-0.69531626
13	0xbd873f45	-0.066038646
14	0xbe4ec9f7	-0.20194231
15	0xbeff3981	-0.4984856

weight f4 [16, 16, 5]
0	0xbf06bd2d	-0.5263241
1	0xbf33a5a9	-0.7017465
2	0xbe058d84	-0.13042265
3	0x3e0b4b94	0.1360305
4	0xbeba98fb	-0.3644484
5	0xbcc220e1	-0.023697319
6	0x3e196d42	0.14983085
7	0xbe2c185d	-0.16806169
8	0xbc6eadb2	-0.014567779
9	0xbda3e55a	-0.0800273
10	0x3eb512e6	0.3536598
11	0x3e8e7ce7	0.27829668
12	0x3e8b10a8	0.27161145
13	0x3eab176b	0.33416304
14	0x3ebafb41	0.36519817
15	0x3f23d2d9	0.63993603
16	0x3d1cac25	0.038250107
17	0xbef0d82f	-0.47039935
18	0xbefec419	-0.49758986
19	0xbea97ee1	-0.33104613
20	0xbe05c282	-0.1306248
21	0xbd155139	-0.036454413
22	0x3e905e59	0.28196982
23	0xbcee209b	-0.029068282
24	0x3f83406b	1.0254034
25	0x3ec04e35	0.37559667
26	0x3df50d7e	0.11965464
27	0x3f26368d	0.6492699
28	0x3e05844e	0.13038751
29	0xbe895c2e	-0.2682814
30	0xbed6f069	-0.41980293
31	0x3d5ac4de	0.053410403
32	0xbe2fdbb3	-0.17173652
33	0x3da1b765	0.07896308
34	0x3c1d9fab	0.009620587
35	0xbe0b5e7c	-0.13610262
36	0xbe70c199	-0.23511352
37	0x3e14e39f	0.14539956
38	0x3e8f913f	0.280405
39	0xbd8f34fa	-0.06992526
40	0x3e1510aa	0.14557138
41	0x3dd5f840	0.104477406
42	0x3e911b9f	0.28341386
43	0x3db37d38	0.08764118
44	0x3dc3efce	0.095672235
45	0x3ed62af1	0.41829637
46	0x3eaf5b7d	0.34249488
47	0x3e8b3ed9	0.27196386
48	0xbe0af669	-0.1357056
49	0x3e4b1a8e	0.19834349
50	0xbcd37593	-0.0258129
51	0x3e3e09c9	0.1855842
52	0x3ea728fb	0.32648453
53	0xbd86e882	-0.06587316
54	0xbdef95ee	-0.11698519
55	0x3946da78	0.00018964137
56	0xbd70e728	-0.058814198
57	0x3ed1f815	0.41009584
58	0x3e4ccf4b	0.20000951
59	0xbf04aac5	-0.51823074
60	0x3d609692	0.054831095
61	0xbda4d064	-0.0804756
62	0x3cf38d05	0.02973033
63	0xbefd19fb	-0.49433884
64	0xbdf56ba6	-0.11983423
65	0x3d84e61e	0.06489204
66	0x3ddb6c48	0.107140124
67	0xbd12c813	-0.035835337
68	0xbcd70d89	-0.026251571
69	0xbc0655fd	-0.008199212
70	0x3ee82e21	0.45347694
71	0xbe1b63e1	-0.1517482
72	0x3eed33ce	0.46328586
73	0x3da5790b	0.08079728
74	0x3eb88761	0.36040786
75	0xbe4d2521	-0.20033695
76	0xbd9e885f	-0.077408545
77	0x3ec465e3	0.38358983
78	0xbe673dad	-0.22582121
79	0xbed1b601	-0.4095917
80	0xc0122e1d	-2.2840645
81	0xbe375c8f	-0.17906402
82	0xbe35b641	-0.17745306
83	0x3f01c57e	0.50691974
84	0xbf58710a	-0.84547484
85	0xbbe352d5	-0.0069373646
86	0x3e45ff09	0.1933557
87	0xbe177b66	-0.14793167
88	0xbebbe956	-0.3670146
89	0x3c5b0f44	0.013370339
90	0xbffbb246	-1.966378
91	0x3f004baa	0.50115454
92	0xbe90c6be	-0.28276628
93	0xbf3671c2	-0.7126733
94	0xbf0bd30f	-0.54618925
95	0x3efbdac4	0.49190342
96	0x3f300f53	0.6877338
97	0xbf87fbd1	-1.0623723
98	0xbf2a6979	-0.6656719
99	0xbea7326b	-0.32655653
100	0x3d4865cb	0.048925202
101	0x3cc551af	0.024086801
102	0x3cd28bc9	0.02570142
103	0x3d120568	0.035649687
104	0x3d809899	0.06279106
105	0xbd36e7b3	-0.04465456
106	0xbff18f5b	-1.8871874
107	0xbe85024a	-0.2597831
108	0xbf89ec5d	-1.0775257
109	0x3f813363	1.0093807
110	0xbe49b0fb	-0.19696419
111	0x3d720761	0.05908907
112	0xbc994822	-0.018711153
113	0xbdcf3771	-0.101179965
114	0x3e91eeef	0.28502604
115	0x3d4af8b1	0.049553577
116	0x3dcff0fb	0.10153385
117	0x3c77012f	0.015075966
118	0xbcf7b804	-0.030239113
119	0x3e743e86	0.23851976
120	0x3d0e181a	0.034690954
121	0x3c823a05	0.015896806
122	0x3cb65a31	0.022259803
123	0x3d56e401	0.052463535
124	0xbd7ec094	-0.062195376
125	0xbcdf253a	-0.02723943
126	0xbcc07eec	-0.023498021
127	0xbca883c2	-0.02057064
128	0x3d6905cd	0.056890298
129	0x3a51ee00	0.0008008182
130	0x3be10a95	0.0068677166
131	0xbde780a0	-0.1130383
132	0xbe8588a4	-0.2608081
133	0x3d6f08f0	0.058358133
134	0xbdce5267	-0.10074311
135	0xbddb92d1	-0.107213624
136	0xbec0c0f9	-0.37647226
137	0x3c76f267	0.015072442
138	0x3d135d31	0.035977546
139	0xbe090789	-0.1338178
140	0xbc3a32f4	-0.011364687
141	0xbb3f8661	-0.0029224383
142	0x3d257225	0.04039206
143	0xbd84bbbd	-0.06481121
144	0x3cb9b0c3	0.022667294
145	0x3de7da9e	0.11320995
146	0x3dcb3252	0.09921707
147	0x3d7a0189	0.06103662
148	0x3c9fef38	0.019523248
149	0x3d942b71	0.07234848
150	0xbe0e469a	-0.1389412
151	0x3eb6d77b	0.35711274
152	0x3ebe4ea8	0.37169385
153	0x3e8d4ca8	0.27597547
154	0xbbd4b2e6	-0.006491053
155	0xbf161dca	-0.58639205
156	0xbeba0623	-0.36332807
157	0xbec4157b	-0.38297638
158	0x3dc89372	0.09793748
159	0xbe6046c7	-0.21902
160	0xbf264159	-0.6494346
161	0xbf0a8832	-0.5411407
162	0xbe78f8b7	-0.24313627
163	0xbeb7dfc4	-0.35912907
164	0x3ec89622	0.39177042
165	0x3aa38008	0.0012474069
166	0x3e9bcb00	0.30428314
167	0x3f0c9225	0.549105
168	0x3e8ee043	0.27905473
169	0x3e7a3331	0.2443359
170	0xbef869af	-0.4851813
171	0xbf592d57	-0.8483481
172	0xbec67160	-0.38758373
173	0xbe8db6f8	-0.27678657
174	0xbd95ce5f	-0.07314753
175	0xbe05e4e8	-0.13075602
176	0xbe1ec460	-0.15504599
177	0xbe9138f9	-0.2836378
178	0xbe5a8fb4	-0.21343881
179	0xbeedc6a3	-0.4644061
180	0xbdb6799d	-0.08909915
181	0xbe0305de	-0.12795207
182	0xbd722aee	-0.059122972
183	0x3d12e170	0.035859525
184	0xbc26d71c	-0.010183122
185	0x3df30b0f	0.11867344
186	0xbd38c292	-0.04510743
187	0xbfc33dee	-1.5253274
188	0xbdbe65d2	-0.092967644
189	0xbf21f85b	-0.63269585
190	0xbede3429	-0.4339917
191	0xbebc2157	-0.36744186
192	0xbd9e1a3b	-0.07719847
193	0x3e3ffa66	0.18747863
194	0x3d09a211	0.033601824
195	0xbece4e12	-0.40293938
196	0xbea56815	-0.3230597
197	0x3e17111d	0.14752622
198	0x3f0b8c51	0.5451098
199	0xbd2ffcc5	-0.04296567
200	0x3d677311	0.05650622
201	0x3cf7b9f3	0.030240035
202	0xbd031926	-0.032006405
203	0x3d3fa055	0.046783764
204	0xbdee7269	-0.11642916
205	0xbcab606a	-0.020919997
206	0xbdc7e685	-0.09760765
207	0x3dad5799	0.084639736
208	0xbd5a5998	-0.0533081
209	0x3e39146e	0.180742
210	0xbc820d1e	-0.015875395
211	0xbd13862f	-0.03601664
212	0x3cfe409b	0.031036666
213	0xbd85ffec	-0.06542954
214	0xbd873d04	-0.06603435
215	0xbd68fb56	-0.056880318
216	0xbb176a03	-0.002310396
217	0xbe366a0c	-0.17813891
218	0xbdc31254	-0.0952498
219	0xbc9069c5	-0.01762856
220	0x3c8cb6e4	0.017177053
221	0x3ce29fe1	0.027664127
222	0xbdc7f608	-0.097637236
223	0x3babc9d3	0.005242565
224	0xbc1d5b88	-0.009604342
225	0x3cf03ae6	0.02932496
226	0xbc21807f	-0.009857296
227	0xbcb42cd0	-0.021994025
228	0x3e0e40a1	0.13891841
229	0x3e0a637d	0.13514514
230	0xbed2ac80	-0.41147232
231	0xbe51a5b3	-0.20473365
232	0xbe2afd14	-0.16698104
233	0xbeac342d	-0.33633557
234	0xbe8af923	-0.271432
235	0x3ef4b50a	0.47794372
236	0x3df0056a	0.11719783
237	0xbefc1663	-0.4923583
238	0xbdb6fa87	-0.08934503
239	0x3e75c50e	0.24000952
240	0xbe3b5466	-0.18293914
241	0x3ec1e481	0.37869647
242	0xbd2d3571	-0.042287294
243	0x3cbdb0a0	0.02315551
244	0xbfb0c4e7	-1.381009
245	0xc00afc94	-2.1716661
246	0xbf7997a6	-0.9749702
247	0x3e51ca4a	0.20487323
248	0x3eabbd87	0.33543035
249	0xbdd44c96	-0.1036617
250	0x3ed2b1e5	0.41151348
251	0x3f454692	0.77060807
252	0x3f14d4fa	0.58137476
253	0x3dfe5cd3	0.124200486
254	0x3efd46e5	0.4946815
255	0x3e0fd9fa	0.14047995

bias f4 [16]
0	0x3ef9227f	0.4865913
1	0xbee17e29	-0.44041565
2	0x3e01c470	0.12672591
3	0xbd4faa22	-0.05069936
4	0xbe12341d	-0.14277692
5	0x3f7dde63	0.9916746
6	0x3ebe3e20	0.37156773
7	0xbeef3c3d	-0.46725646
8	0xbf817898	-1.0114927
9	0xbed4f298	-0.41591334
10	0x3fdef365	1.7418028
11	0x3daecf02	0.08535577
12	0x3faeb90e	1.3650224
13	0x3f56fe74	0.83982015
14	0xbee5beb1	-0.44872048
15	0x3f15f08e	0.5857018

weight f4 [16, 16, 5]
0	0x3f325b4a	0.69670546
1	0xbecdef4a	-0.40221626
2	0x3e7ee597	0.24892269
3	0xbe42a1a8	-0.1900698
4	0xbc97d0fa	-0.018532265
5	0x3e9c223a	0.30494863
6	0xbd695d0e	-0.05697351
7	0xbe0384b3	-0.1284359
8	0xbe400c5c	-0.18754715
9	0xbe3d31e2	-0.1847606
10	0xbe91d550	-0.28483057
11	0x3e1bbfc1	0.15209867
12	0x3f86f086	1.0542152
13	0x3a4de350	0.00078540016
14	0xbf572408	-0.84039354
15	0x3dc8b976	0.09800999
16	0xbe46965c	-0.19393295
17	0x3df8fb6f	0.12157332
18	0x3d3bb31f	0.04582512
19	0xbd230fcc	-0.039809987
20	0x3d880b04	0.06642726
21	0x3af71905	0.0018852061
22	0xbe63f100	-0.22259903
23	0xbc3ea09e	-0.011634974
24	0xbe128420	-0.14308214
25	0x400e5fae	2.2245898
26	0xbde41aab	-0.11137899
27	0xbf1502c6	-0.58207357
28	0xbea79a45	-0.32734886
29	0x3eb3f214	0.35145628
30	0xbe9fedc8	-0.312361
31	0xbf5bbf18	-0.8583846
32	0x3fcce663	1.6007808
33	0xbe925015	-0.28576723
34	0xbd16c26f	-0.03680652
35	0xbf04de07	-0.51901287
36	0xbe8b683e	-0.27227968
37	0xbeeb1923	-0.45917615
38	0xbf10c1de	-0.5654582
39	0x3eadc7d5	0.33941522
40	0x3e488f43	0.195859
41	0x3dd92fc9	0.106048174
42	0x3c9754fe	0.018473145
43	0x3def9438	0.11698192
44	0x3d8a79ec	0.06761536
45	0xbea0b3e2	-0.3138724
46	0xbe4d6278	-0.20057094
47	0xbe5eaf53	-0.21746568
48	0xbe80b252	-0.25136048
49	0xbe86b001	-0.26306155
50	0x3f630d4b	0.8869216
51	0x3f84f306	1.0386665
52	0x3f033c65	0.5126403
53	0x3ceb8897	0.028751655
54	0xbf6dbadf	-0.9286327
55	0xbe712446	-0.23548993
56	0xbc4a3d51	-0.0123437205
57	0xbe56c88d	-0.20974942
58	0x3e1bed77	0.15227304
59	0xbc7941da	-0.015213454
60	0xbf8d3176	-1.1030719
61	0xbf1b0f4b	-0.6057021
62	0x3e40a0ef	0.18811391
63	0xbf43ade1	-0.76437193
64	0xbe71deb7	-0.23620115
65	0xbf90ef12	-1.1322958
66	0x3f37ab48	0.7174573
67	0xbf047302	-0.5173799
68	0x3d5dfdca	0.05419711
69	0xbd8e777f	-0.06956386
70	0x3fa84909	1.3147289
71	0xbeaf30c3	-0.3421689
72	0xbf7ffab2	-0.99991906
73	0x3e6539b2	0.2238529
74	0xbe9d5901	-0.30731967
75	0xbf288aff	-0.6583709
76	0xbd8644f6	-0.06556122
77	0x3f156545	0.5835765
78	0x3e29f396	0.16596827
79	0x3f0e6385	0.55620605
80	0xbc35cdad	-0.0110964
81	0x3f8f00ef	1.117216
82	0x3f5bafdf	0.85815233
83	0x3d07b1e0	0.03312862
84	0x3dcec8f9	0.10096926
85	0x3eb0ae3c	0.3450793
86	0x3edafa9a	0.4276932
87	0xbe7ad79a	-0.24496308
88	0xbeb9348e	-0.3617291
89	0x3ee0598d	0.43818322
90	0xbe9c5e54	-0.30540717
91	0x3f5c508c	0.86060405
92	0x3f3aa414	0.72906613
93	0x3e592359	0.2120489
94	0x3d055d97	0.032559957
95	0xbff30633	-1.8986267
96	0xbf1614eb	-0.5862567
97	0xbd80c83b	-0.06288191
98	0x3bf10118	0.0073548667
99	0x3d20381f	0.03911602
100	0xbcf21214	-0.029549636
101	0x3d90844a	0.07056482
102	0xbd993521	-0.07480837
103	0x3baff49c	0.005369736
104	0x3c945386	0.018106233
105	0xbf6d42e7	-0.9268021
106	0x3f18394e	0.5946244
107	0xbf49e20f	-0.78860563
108	0xbe228794	-0.15872031
109	0xbf665e2e	-0.89987457
110	0x3f0e2ae4	0.55534196
111	0xbf0955df	-0.53646654
112	0xc0144848	-2.3169117
113	0x3fdff72d	1.7497307
114	0x3f8c0040	1.0937576
115	0xbe917bec	-0.28414857
116	0xbdfaa7f8	-0.12239069
117	0xbda4678c	-0.080275625
118	0xbee608ec	-0.44928682
119	0xbea02eee	-0.31285805
120	0xbe309e11	-0.17247798
121	0xbe193ee9	-0.14965405
122	0xbf9c267c	-1.2199244
123	0xbea2b248	-0.31776643
124	0x3f3c6827	0.73596424
125	0xbee7200e	-0.45141643
126	0x3cedd9ad	0.02903446
127	0xbecc0d23	-0.39853773
128	0xbe7090ac	-0.23492688
129	0xbca37869	-0.019954877
130	0x3f87ecef	1.0619181
131	0xbc8edcff	-0.017439364
132	0xbf07bd49	-0.530232
133	0xbef5b4e3	-0.47989568
134	0xbf0e578c	-0.55602336
135	0x3f8c3518	1.0953703
136	0x3f2eab62	0.6823026
137	0x3e2c231a	0.16810265
138	0x3f2d9b63	0.67815226
139	0x3de72ad9	0.112874694
140	0xbb67e511	-0.0035384337
141	0x3e40c017	0.18823276
142	0x3f1a5c71	0.60297304
143	0xbec7dfb2	-0.39037853
144	0xbdd0d3fd	-0.101966836
145	0xbf81c6fc	-1.013885
146	0xbf89a6bc	-1.0754008
147	0xc00966f3	-2.1469085
148	0xbf7841b2	-0.96975243
149	0x3f872412	1.0557883
150	0xc004d435	-2.075452
151	0xc02b8258	-2.6798306
152	0xc01dc489	-2.4651206
153	0xc0b2bf93	-5.5858855
154	0xc04a8632	-3.1644406
155	0xbe92efaa	-0.28698474
156	0x3e53081f	0.20608567
157	0xbe8adeaa	-0.27123004
158	0x3eec81c1	0.46192744
159	0x3ee1c4a8	0.4409535
160	0xbfb8f054	-1.4448342
161	0xbf1d8d44	-0.6154368
162	0xbf290b65	-0.6603301
163	0xbf4d78a3	-0.802622
164	0xbeaa7190	-0.33289766
165	0xbc91a3f5	-0.017778376
166	0x3e8a131d	0.26967707
167	0xbfbf51ee	-1.4946878
168	0x3e9011dd	0.2813863
169	0x3e922059	0.28540304
170	0xbf243354	-0.6414082
171	0x3f58c6b5	0.846782
172	0x3d0077bd	0.03136419
173	0xbe21a395	-0.15785058
174	0xbe3b3626	-0.18282375
175	0x3e837db8	0.25681853
176	0xc0066d2e	-2.1004138
177	0x3e9845c2	0.2974072
178	0xbcd82208	-0.026383415
179	0x3e003d25	0.12523325
180	0xbd96565c	-0.073406905
181	0xbdbe7cdd	-0.093011595
182	0x3d75510b	0.05989174
183	0xbdecabfc	-0.11556241
184	0x3d816895	0.063187756
185	0xbf101e06	-0.5629581
186	0x3f947e01	1.1600953
187	0xbf457d9d	-0.77144796
188	0x3eb1f983	0.34760675
189	0xbebe3eea	-0.37157375
190	0x3f3cd5cb	0.7376372
191	0xbf0296a5	-0.51011115
192	0xbf243634	-0.6414521
193	0x3e9e8f66	0.3096878
194	0x3fe60170	1.7969189
195	0xbe8f044e	-0.27932972
196	0xbe945149	-0.28968266
197	0xbead5632	-0.33854824
198	0xbe68c2e5	-0.22730596
199	0xbe97e4be	-0.29666704
200	0x3f0496df	0.5179271
201	0x3f677077	0.9040598
202	0xbde94138	-0.113893926
203	0x3f02d390	0.5110407
204	0xbd76bdeb	-0.060239714
205	0x3db72946	0.08943419
206	0xbdd83bac	-0.105582565
207	0x3e182950	0.1485951
208	0x3e882ce1	0.2659674
209	0x3d38bc65	0.045101542
210	0xbefa3637	-0.48869488
211	0xbfed606a	-1.8545048
212	0xbf809d2b	-1.0047964
213	0x3f8dad1d	1.1068455
214	0x3e94b782	0.29046255
215	0x3f0735af	0.5281629
216	0xbe501ad6	-0.20322737
217	0xbfcd6e26	-1.604924
218	0xc00a8979	-2.1646407
219	0xbfb5236f	-1.4151438
220	0xc03ad6e1	-2.9193652
221	0x3f3e840d	0.74420244
222	0xbe530aa7	-0.20609532
223	0x3e922f2c	0.28551614
224	0xbf8edfbe	-1.1162031
225	0xbf5760de	-0.8413218
226	0xbf39f595	-0.72640353
227	0xbf130112	-0.5742351
228	0xbe18ce1e	-0.14922377
229	0x3f1967f2	0.5992423
230	0x3e69bf0d	0.22826786
231	0x3e276de7	0.16350518
232	0x3eace32c	0.33767068
233	0xbe90a553	-0.28251132
234	0x3f45fbea	0.77337515
235	0xbf8a52b6	-1.0806491
236	0x3fa38f88	1.2778177
237	0x3dd3612d	0.10321269
238	0x3e87f695	0.26555315
239	0xbe272ffa	-0.16326895
240	0xbecf534b	-0.40493235
241	0xbe1866fe	-0.14883038
242	0x3d97a287	0.074040465
243	0xbdb7a9b8	-0.08967918
244	0x3e9d5bf2	0.3073421
245	0x3e8754b1	0.26431802
246	0xbc6501de	-0.013977496
247	0x3f0298f2	0.51014626
248	0xbd8230dd	-0.06356976
249	0x3da84e1f	0.082180254
250	0x3dd2253e	0.1026101
251	0xbd1e0810	-0.038581908
252	0xbe63b3b7	-0.22236525
253	0x3de69d4c	0.11260471
254	0x3d8f82df	0.070073836
255	0x3e703b86	0.23460206

bias f4 [16]
0	0xbff6e5ff	-1.9288939
1	0x3c39127d	0.011295912
2	0x3f21298f	0.6295404
3	0xbdcc0b9c	-0.09963152
4	0xbfb3686a	-1.401624
5	0x3eda881a	0.42681962
6	0xbe71703d	-0.23577972
7	0x3fc1e0b0	1.5146694
8	0x40094c78	2.1452923
9	0xbf39ec95	-0.7262662
10	0x40090e2b	2.1414897
11	0xbf2a2c83	-0.6647417
12	0xbef50784	-0.47857296
13	0x3f1a17c4	0.60192513
14	0xc01d655a	-2.459311
15	0xbe36d7de	-0.17855784

weight f4 [64, 112]
0	0xbd731c01	-0.05935288
1	0xbc981dd1	-0.018568905
2	0xbe1575b6	-0.14595684
3	0xbe119125	-0.14215524
4	0xbda3ef72	-0.08004655
5	0xbd623276	-0.055223905
6	0xbe05f08f	-0.13080047
7	0xbde3b019	-0.11117572
8	0xbc4b88e9	-0.012422779
9	0xbe2ba50f	-0.16762184
10	0xbd733ef4	-0.05938621
11	0xbd06d386	-0.03291657
12	0xbd0ecab9	-0.0348613
13	0xbddb29d1	-0.10701335
14	0xbdc22e6e	-0.09481512
15	0x3c4b6eef	0.012416585
16	0xbe1f2ebe	-0.15545174
17	0xbd92207f	-0.071351044
18	0xbde29cc3	-0.11065056
19	0xbc34965e	-0.011022178
20	0xbd1820be	-0.0371406
21	0xbdb54b10	-0.08852208
22	0xbdc7a292	-0.09747805
23	0xbc35184a	-0.011053154
24	0xbdadc204	-0.08484271
25	0xbdc6104c	-0.09671077
26	0x3c99170c	0.018687747
27	0xbe151576	-0.14558968
28	0xbc3542f7	-0.011063329
29	0xbda8300b	-0.082122885
30	0xbe182b8f	-0.14860366
31	0xbd5dae23	-0.054121148
32	0xbdea9e60	-0.11455989
33	0xbe075a98	-0.13218153
34	0xbe1ef1cc	-0.15521926
35	0x3c1819bc	0.009283479
36	0xbcc64ce1	-0.02420658
37	0x3bdfba1e	0.006827607
38	0xbe23aac8	-0.15983117
39	0xbe225457	-0.15852486
40	0xbdda92bd	-0.10672519
41	0x3bc04928	0.005868096
42	0x3cd3d4af	0.025858251
43	0x3b834ee4	0.004007207
44	0xbe135f83	-0.14391904
45	0xbd0d563b	-0.034506064
46	0xbd907d02	-0.07055093
47	0xbe01ac50	-0.12663388
48	0x3c96458b	0.018343708
49	0x398df59e	0.00027076615
50	0xbd4bd5d3	-0.049764466
51	0xbd88a427	-0.066719346
52	0xbe147796	-0.14498743
53	0xbd8f020a	-0.06982811
54	0xbdef44f7	-0.11683076
55	0xbe0ae995	-0.13565667
56	0xbe21eb46	-0.15812406
57	0xbe0cff6b	-0.13769309
58	0x3b1e6bf0	0.0024173222
59	0xbd8eda1e	-0.06975196
60	0xbe296935	-0.1654404
61	0x3c6b045e	0.014344303
62	0xbc8115b7	-0.015757425
63	0xbda7353a	-0.08164449
64	0x3c8cc14a	0.017182011
65	0x3cb1fd0d	0.02172711
66	0xbd600b22	-0.054698117
67	0xbdd23db2	-0.10265674
68	0xbd1ca55e	-0.038243644
69	0x3d0123a6	0.031528138
70	0xbc57b1db	-0.013164963
71	0x3b9547de	0.0045556864
72	0xbda322ce	-0.07965623
73	0xbbc9068a	-0.0061348127
74	0xbd9cff42	-0.07665874
75	0xbd533989	-0.05156854
76	0xbce1fec4	-0.027587302
77	0xbe0ff76c	-0.14059228
78	0xbbff4d26	-0.007791179
79	0xbdbf494c	-0.09340152
80	0xbe0113fa	-0.12605277
81	0x3cd7c767	0.0263402
82	0xbdd13181	-0.1021452
83	0xbccee743	-0.025256759
84	0x3d5c2e38	0.053755015
85	0xbdbc1f1c	-0.09185621
86	0xbde0a1e5	-0.10968379
87	0xbe1769bc	-0.14786428
88	0x3bde6a0c	0.006787544
89	0xbab54b64	-0.0013831672
90	0x3c9136b2	0.017726276
91	0xbe0e8581	-0.13918115
92	0xbdb1f64f	-0.08689558
93	0xbdb2026e	-0.0869187
94	0xbdd75548	-0.10514313
95	0xbdfdfea4	-0.124020845
96	0xbdbe78f0	-0.09300411
97	0xbda1ec4c	-0.07906398
98	0xbc8c14e6	-0.017099809
99	0xbe108ba0	-0.14115763
100	0xbc998352	-0.018739376
101	0xbc905846	-0.017620217
102	0xbd68986b	-0.056785982
103	0xbd94e099	-0.07269401
104	0xbcb98c9b	-0.022650054
105	0xbc9f76d2	-0.019465838
106	0xbdeb26dc	-0.11482021
107	0xbca820a6	-0.02052338
108	0xbdf7e3dd	-0.12104008
109	0xbe1d71be	-0.1537542
110	0xbd56cdfa	-0.05244253
111	0xbdead27d	-0.11465929
112	0x3d2fb8f2	0.042900987
113	0xbd097be4	-0.033565417
114	0xbbe0015b	-0.006836099
115	0xbdb2bbfc	-0.087272614
116	0xbdfbb9e8	-0.12291318
117	0xbda66317	-0.08124369
118	0xbc95275f	-0.01820725
119	0xbe0652f7	-0.13117586
120	0xbdb828df	-0.089921705
121	0xbe124ee6	-0.1428791
122	0xbd49245a	-0.049106933
123	0xbd043ab9	-0.032282565
124	0xbd91a709	-0.071119376
125	0xbdd8dc8d	-0.10588942
126	0x3cf1887c	0.029484026
127	0xbb17476c	-0.0023083342
128	0xbdcb9c7e	-0.09941958
129	0xbd744796	-0.059638582
130	0xbd01f530	-0.03172797
131	0xbdcf0791	-0.10108865
132	0xbe0a69b8	-0.13516891
133	0xbe160016	-0.1464847
134	0x3c943fb8	0.01809679
135	0xbd0d40fd	-0.034485806
136	0xbe2b44b2	-0.16725424
137	0xbcb69bdb	-0.022291115
138	0xbe2a1d2c	-0.1661269
139	0x3c53c887	0.012926227
140	0xbdbe3872	-0.0928811
141	0xbcb7528e	-0.022378232
142	0xbe056613	-0.1302722
143	0xbda5dd35	-0.080988325
144	0xbc9d5537	-0.019205673
145	0xbdf0566b	-0.11735233
146	0xbde1639d	-0.11005328
147	0xbc6f9f9a	-0.014625454
148	0xbe125fef	-0.14294408
149	0xbde04e2a	-0.109524086
150	0xbe012cec	-0.12614793
151	0xbdaf85ec	-0.085704654
152	0xbdf9d28d	-0.121983625
153	0xbd88fc53	-0.06688752
154	0xbd3623b7	-0.044467654
155	0xbd7fea3c	-0.062479243
156	0xbd6e065a	-0.058111526
157	0xbb56f444	-0.0032799402
158	0xbcc11e0e	-0.023573902
159	0xbdbe8321	-0.093023546
160	0xbd02f3b1	-0.031970683
161	0xbd96b112	-0.07357992
162	0xbad97d42	-0.0016593116
163	0xbd687de5	-0.056760687
164	0xbdabbf6d	-0.08386121
165	0xbe1d38d7	-0.15353714
166	0x3caa6473	0.020799851
167	0xbe16ef4f	-0.14739726
168	0xbc89b766	-0.016811084
169	0xbbc0fc0f	-0.0058894227
170	0xbe222b22	-0.15836766
171	0x3c019e90	0.007911339
172	0xbe13ab09	-0.14420713
173	0xbbdab61f	-0.0066745426
174	0xbdde1c24	-0.10845211
175	0xbbf8e49d	-0.007595612
176	0xbdfdb4d3	-0.12388005
177	0xbbacbe9a	-0.005271745
178	0xbd933a21	-0.071888216
179	0x3cf9b021	0.030479493
180	0xbd404a00	-0.046945572
181	0x3cecfae2	0.028928224
182	0xbe18a600	-0.14907074
183	0xbdd98900	-0.10621834
184	0xbd6a8f6c	-0.057265684
185	0x3c6c67a6	0.014429009
186	0xbe055320	-0.13019991
187	0x3ca84a49	0.020543234
188	0xbb76d08a	-0.003766092
189	0xbe0aa6e8	-0.13540232
190	0xbe8b0034	-0.27148592
191	0xbe86400d	-0.26220742
192	0xbdb9e51f	-0.090769045
193	0xbd705225	-0.05867209
194	0xbe0aa2be	-0.13538644
195	0xbdeb3ce2	-0.11486222
196	0xbc1bac26	-0.009501493
197	0xbdd3aec5	-0.10336069
198	0xbde5e2a6	-0.112248704
199	0xbd6763a0	-0.056491494
200	0xbd2011f3	-0.039079618
201	0xbb4fc56b	-0.0031703364
202	0x3c8a6d3e	0.016897794
203	0xbd6fef05	-0.058577556
204	0xbe127d31	-0.14305569
205	0xbd7d383f	-0.06182122
206	0xbd892c3e	-0.06697892
207	0xbe1221e4	-0.14270741
208	0xbe0f3a1c	-0.1398701
209	0xbe0bf4e8	-0.13667643
210	0xbdb0d59d	-0.086344935
211	0xbd64ac76	-0.055828534
212	0xbdca3e89	-0.09875209
213	0xbda71749	-0.08158738
214	0xbddaa7f0	-0.10676563
215	0xbd99b281	-0.0750475
216	0xbe045b68	-0.12925494
217	0xbd52d07b	-0.051468354
218	0x3cfd0c6d	0.030889714
219	0xbe2800e2	-0.16406587
220	0xbd543080	-0.051804066
221	0xbc7b1890	-0.01532568
222	0xbde5bfe9	-0.112182446
223	0xbe25e5b5	-0.16200908
224	0xbca8fc94	-0.020628251
225	0x3d083d93	0.033261847
226	0xbc827784	-0.01592613
227	0x3b690f6d	0.0035562173
228	0xbdc9c1ef	-0.09851443
229	0xbd1817bf	-0.03713202
230	0xbd51ecb9	-0.051251147
231	0xbcfc2640	-0.030779958
232	0xbd902d5a	-0.070399
233	0xbd84423c	-0.06457946
234	0xbd37529a	-0.04475651
235	0x3d1a08da	0.037606098
236	0xbd2d9c1e	-0.042385213
237	0xbd0d96b2	-0.034567542
238	0xbd8af211	-0.06784452
239	0x3bcccf58	0.0062503032
240	0xba668be0	-0.0008794647
241	0xbd2fbbfa	-0.042903878
242	0xbdc00df1	-0.09377659
243	0xbcd235d5	-0.025660435
244	0xbda005e5	-0.07813624
245	0x3d6241ef	0.05523866
246	0xbdefe975	-0.1171445
247	0x3b923d2e	0.0044628596
248	0xbd9c3701	-0.07627679
249	0x3c4010a3	0.0117227165
250	0xbdc5589d	-0.09636042
251	0x3d1b433c	0.037905917
252	0xbda8dd41	-0.08245326
253	0xbd1d19fc	-0.03835486
254	0xbdbd590d	-0.09245501
255	0xbe0c050e	-0.13673803

bias f4 [64]
0	0xbc499e24	-0.01230577
1	0xbd3bd7b5	-0.04586001
2	0xbd93996e	-0.07206999
3	0xbd1d9bbb	-0.038478594
4	0xbeb65b0e	-0.35616344
5	0xbec4ea5e	-0.38460058
6	0xbe7ed01a	-0.24884072
7	0x3fe6e868	1.8039675
8	0xbd99a76c	-0.07502636
9	0xbcbc1273	-0.022958016
10	0xbd7362db	-0.059420448
11	0xbe8477cd	-0.2587265
12	0xbe052b82	-0.13004878
13	0xbdb6e825	-0.08930997
14	0xc028669c	-2.6312628
15	0xbd4181aa	-0.047242798
16	0xbdf092a8	-0.117467225
17	0xbdff730a	-0.12473114
18	0xbd791371	-0.060809556
19	0x3f1dfaf1	0.6171103
20	0xc010c0cd	-2.2617676
21	0xbdd917ad	-0.10600219
22	0xbc8e004a	-0.017334122
23	0x3de6ca99	0.11269111
24	0xbdae4019	-0.085083194
25	0xbf20a4b5	-0.62751323
26	0xc00f92b3	-2.2433288
27	0xbd907f3a	-0.070555165
28	0x3fb30cd1	1.3988286
29	0xbe88a680	-0.2668953
30	0xbf463da4	-0.77437806
31	0xbfe90688	-1.8205118
32	0xbf03cd6c	-0.51485324
33	0xbdad36e5	-0.08457736
34	0x3f8172b4	1.011313
35	0xbe2b6d6a	-0.16740957
36	0xbd8e41c1	-0.06946135
37	0x3c04cbdd	0.008105245
38	0xbdc911f9	-0.09817881
39	0x3e567926	0.20944652
40	0xbda38aa4	-0.07985428
41	0x3f92e006	1.1474617
42	0xbcf11eff	-0.029433725
43	0x3e2c871d	0.16848417
44	0xbed9893a	-0.42487508
45	0x3fc45f62	1.5341609
46	0x3c714803	0.014726642
47	0x3f13ccea	0.5773455
48	0xc01863c5	-2.3810894
49	0xbe9cee26	-0.30650443
50	0xbdfe5aca	-0.124196604
51	0xbe0942bb	-0.13404362
52	0x3c1a18ef	0.009405359
53	0xbca537d4	-0.020168222
54	0xbee98a67	-0.45613405
55	0x3c555811	0.013021485
56	0x3ee9d7db	0.45672497
57	0xbd0fc82d	-0.035103012
58	0xbc92c1a5	-0.017914603
59	0xbd77633c	-0.06039737
60	0xbe1ad5a0	-0.15120554
61	0xbe7903b1	-0.24317814
62	0xbe011c45	-0.1260844
63	0xc0170535	-2.3596928

weight f4 [32, 64]
0	0xbd42b642	-0.047537096
1	0x3d35fed7	0.044432487
2	0x3d2bef86	0.041976474
3	0x3d14c4b8	0.036320418
4	0x3e008830	0.12551951
5	0x3d91c0d0	0.07116854
6	0x3d351605	0.044210453
7	0xbe86d265	-0.26332393
8	0xbdb1a3dd	-0.086738326
9	0xbd58694c	-0.052834794
10	0x3d56fef0	0.05248922
11	0xbcb06240	-0.021531224
12	0xba6986ea	-0.00089083484
13	0x3b2a9275	0.0026027237
14	0xbfbbf92e	-1.4685419
15	0x3e07421b	0.13208811
16	0xbda0c8a6	-0.07850771
17	0x3e04d85d	0.12973161
18	0x3cf6d8c9	0.030132668
19	0xbea08473	-0.3135105
20	0xbf351974	-0.70741963
21	0x3e15cfd7	0.14630066
22	0xbd33ddcc	-0.043912694
23	0xbd95a100	-0.07306099
24	0xbd40730e	-0.046984725
25	0xbf63f3b9	-0.89043766
26	0xbeb70f71	-0.35753968
27	0x3d82c2bb	0.06384798
28	0xbeb1cf9c	-0.34728706
29	0x3e96aba0	0.29427814
30	0x3e2d3003	0.16912846
31	0xbe559c24	-0.20860344
32	0xbd9d3693	-0.07676425
33	0x3e30bc13	0.17259245
34	0xbfa5aea1	-1.2943918
35	0xbd1544cf	-0.036442574
36	0xbf632d17	-0.88740677
37	0x3e2a1c54	0.16612369
38	0x3dacbcc6	0.08434443
39	0xbe60dccd	-0.21959229
40	0xbcc77ab3	-0.0243505
41	0x3e188d90	0.14897752
42	0xbd9bcbaf	-0.07607209
43	0xbfa8bbc7	-1.3182305
44	0x3e3e6bbc	0.18595785
45	0xbe80c8bd	-0.2515315
46	0x3d708762	0.05872286
47	0xbf44aa92	-0.7682277
48	0xbe0717a7	-0.13192616
49	0x3d8a313d	0.06747673
50	0xbd7f9511	-0.06239802
51	0xbcd1ef09	-0.025626676
52	0x3dd665df	0.10468649
53	0xbb93e58a	-0.004513447
54	0x3e308b93	0.17240743
55	0x3bdcec3e	0.0067420295
56	0xbe3fb385	-0.18720825
57	0x3dc1e6e9	0.09467871
58	0x3cc8aae6	0.024495553
59	0x3e1adde5	0.15123709
60	0x3d9c24ad	0.07624183
61	0x3d8016b0	0.06254327
62	0xbd43c5f7	-0.047796216
63	0xbf0804e4	-0.5313246
64	0x3cd1d3e5	0.025613734
65	0xbde5a93d	-0.1121392
66	0xbddbfa38	-0.10741085
67	0xbcbe5835	-0.02323542
68	0xbe8e0645	-0.27739158
69	0x3e7d1d3a	0.2471818
70	0xbe14676b	-0.14492576
71	0x3cb24db0	0.02176556
72	0xbe1a68e8	-0.15079081
73	0x3cb064ea	0.021532495
74	0x3ccd9450	0.025095135
75	0xbe88a1f8	-0.26686072
76	0xbc1d2287	-0.0095907515
77	0x3d13d1e4	0.03608884
78	0xbd410eb7	-0.047133174
79	0x3e1734ef	0.14766286
80	0xbe186313	-0.14881544
81	0x3e275b82	0.16343501
82	0x3d86604b	0.06561335
83	0xc0a53b6f	-5.163505
84	0x3f101eb7	0.5629687
85	0x3e1bd8ab	0.15219371
86	0x3d99cd57	0.075098686
87	0x3e9d1681	0.30681232
88	0x3e2c5f6a	0.16833273
89	0x3cac7efa	0.02105664
90	0x3e904fb6	0.28185815
91	0x3d6d7812	0.057975836
92	0x3dddacc7	0.1082397
93	0xbe260208	-0.16211712
94	0xbf349e3c	-0.70553946
95	0xbd9d0d4b	-0.07668551
96	0x3da3a6c4	0.079907924
97	0x3e15b3e3	0.14619403
98	0x3cd3a4d4	0.025835432
99	0xbc3c1ee4	-0.011481974
100	0xbcf9f0a8	-0.030510262
101	0xbbce63c0	-0.006298512
102	0x3e32ff5d	0.17480226
103	0xbdb1437f	-0.08655452
104	0x3d6a1f91	0.05715901
105	0xbcdfda8b	-0.02732589
106	0xbd23181d	-0.039817918
107	0x3cf00c54	0.029302754
108	0x3e2df74f	0.16988872
109	0xbc9cb573	-0.01912949
110	0xbd6d8e2e	-0.05799692
111	0x3f17a073	0.592292
112	0xbebed9d0	-0.37275553
113	0xbd77b480	-0.060474873
114	0x3d5fc3d8	0.05463013
115	0xbde5995d	-0.11210892
116	0xbd1ebc5c	-0.038753852
117	0xbd06c558	-0.032903045
118	0x3eb2f084	0.34949124
119	0x3d090112	0.033448286
120	0x3c210415	0.009827633
121	0xbd235f10	-0.03988558
122	0xbdc1f0a3	-0.09469726
123	0x3cfec811	0.031101258
124	0x3de15e28	0.11004287
125	0xbe157e50	-0.14598966
126	0xbd705e51	-0.058683697
127	0xbc4116f4	-0.011785258
128	0xbc8442a8	-0.016145065
129	0xbc9c3623	-0.019068783
130	0x3d15ccb8	0.03657219
131	0xbd29ea26	-0.041483067
132	0xbf8b9d75	-1.0907427
133	0x3dcd4895	0.100236095
134	0x3e8a8282	0.27052695
135	0xbdc579f9	-0.09642405
136	0x3d58b36a	0.052905478
137	0xbda507fd	-0.08058164
138	0x3e202638	0.1563958
139	0xbe8f86b1	-0.2803245
140	0xbd7156c9	-0.058920655
141	0x3b245be7	0.0025079192
142	0xbea8aefa	-0.32945997
143	0xbd4d56b9	-0.050131533
144	0xbe0f4682	-0.1399174
145	0xbdb201fe	-0.08691786
146	0x3d79a0b2	0.060944267
147	0xbf1bbb1a	-0.6083237
148	0xbe368e26	-0.17827663
149	0xbda77d30	-0.081781745
150	0xbd8f69bd	-0.0700259
151	0xbf1ae22d	-0.60501367
152	0xbd296776	-0.041358434
153	0x3c869a9a	0.016431142
154	0xbf43c949	-0.7647901
155	0xbd5f4e77	-0.05451819
156	0xbd02a2a4	-0.031893387
157	0x3eac0466	0.33597106
158	0x3e5c741d	0.21528669
159	0xbe22ab35	-0.15885623
160	0xbe11e3d1	-0.14247061
161	0xbdc20e6f	-0.09475409
162	0xbe5da01f	-0.21643113
163	0xbe60b419	-0.21943702
164	0xbe530374	-0.20606786
165	0xbdff3bab	-0.12462553
166	0x3bf4e220	0.0074732453
167	0xbef41e5e	-0.47679418
168	0x3ccd6f4c	0.025077485
169	0x3ddd0353	0.1079165
170	0xbda986c5	-0.082776584
171	0xbf11f85f	-0.5701961
172	0x3dc33f96	0.095336124
173	0xbf0c7a0a	-0.54873717
174	0xbe0b4633	-0.13600998
175	0xbef76ce2	-0.48325258
176	0xbf0fba23	-0.561434
177	0x3c4e8157	0.012604079
178	0xbdfaeb5d	-0.12251923
179	0x3d29bfc8	0.041442662
180	0xbd2ac2c9	-0.041689668
181	0xbdb27f65	-0.08715705
182	0x3e19e495	0.15028603
183	0xbd19db6a	-0.037562765
184	0xbece8b44	-0.40340626
185	0xbd5d20ed	-0.05398648
186	0xbdcc4f63	-0.09976079
187	0xbe16e1c9	-0.14734568
188	0xbd4835d1	-0.04887945
189	0xbe02e2bc	-0.12781805
190	0xbdea58c3	-0.11442711
191	0x3e3d3a16	0.1847919
192	0xbd4bc565	-0.049748797
193	0xbd39c3f7	-0.045352902
194	0xbdea9104	-0.11453441
195	0x3df561c2	0.119815364
196	0xbe5b5c69	-0.2142197
197	0xbc2758cb	-0.010214041
198	0x3e28e3ce	0.1649315
199	0xbc96796d	-0.018368447
200	0x3d5e4884	0.054268375
201	0x3adf0dfc	0.0017017717
202	0x3e506d8f	0.20354293
203	0x3de6a08b	0.1126109
204	0x3e0a915d	0.13532014
205	0x3d391222	0.04518331
206	0xbf17539e	-0.59111965
207	0x3d5f4853	0.054512333
208	0xbc97076c	-0.018436156
209	0x3e072bdb	0.13200323
210	0x3da7e413	0.081977986
211	0xbee54703	-0.4478074
212	0xbe93838a	-0.28811294
213	0xbc1f3268	-0.009716608
214	0x3d32e74a	0.043677606
215	0xbf816743	-1.0109638
216	0xbd1dccaf	-0.03852528
217	0x3e1d7f08	0.1538049
218	0xbee73828	-0.4516003
219	0x3ce4ab1e	0.027913626
220	0xbef37ae5	-0.475547
221	0x3eac64ab	0.33670554
222	0x3e224f73	0.1585062
223	0xbdc43f3b	-0.09582373
224	0xbea238f0	-0.31684065
225	0xbca43403	-0.020044332
226	0x3c7d4bf8	0.015460007
227	0xbf483d8a	-0.782189
228	0xbe41bab3	-0.18918876
229	0x3e08ada7	0.13347493
230	0xbce4e9e2	-0.027943555
231	0x3e3f74f4	0.18696958
232	0xbd64f688	-0.055899173
233	0xbef44f68	-0.47716832
234	0x3d4636f4	0.04839225
235	0xbe4c6f6e	-0.19964382
236	0x3ee1a0ea	0.4406808
237	0xbe7db8ed	-0.24777575
238	0x3d8d0f3c	0.06887671
239	0xbfcc2f19	-1.5951873
240	0xbe84633a	-0.25856954
241	0xbd50f874	-0.051018193
242	0xbe0d2b2d	-0.13786002
243	0xbdd812db	-0.105504714
244	0x3de73a94	0.1129047
245	0xbcf4841a	-0.029848147
246	0x3d6d9e5b	0.058012348
247	0x3e4ce789	0.20010199
248	0x3d1caa3a	0.03824828
249	0x3d80533d	0.062658764
250	0xbdce240e	-0.10065471
251	0xbd6f30d4	-0.058396176
252	0x3d8a1ad4	0.06743398
253	0x3da91c93	0.08257403
254	0xbdbfd247	-0.09366279
255	0xbf353ba0	-0.70794106

bias f4 [32]
0	0xbac10ffa	-0.0014729493
1	0x3f88a131	1.0674192
2	0xbfc97ca7	-1.5741166
3	0xbf4d83bb	-0.8027913
4	0xbe748288	-0.23877919
5	0xbf6f607d	-0.93506604
6	0xbd068eba	-0.03285096
7	0xbece004b	-0.402346
8	0xbf019198	-0.50612783
9	0xbf24bc6b	-0.64350003
10	0xbe27e44b	-0.1639568
11	0x3f773fa6	0.96581495
12	0x3f7a47db	0.9776589
13	0xbf3ab50f	-0.72932523
14	0x3dcf9c42	0.10137226
15	0xbdda6f2e	-0.10665737
16	0xbf087b5c	-0.5331323
17	0xbf10f236	-0.56619585
18	0xbf0ed590	-0.5579462
19	0xbe22f3ed	-0.15913363
20	0xbf27599a	-0.65371096
21	0xbe8fa826	-0.28057975
22	0x3fe9fd58	1.8280439
23	0xbf2024af	-0.62555975
24	0xbea70cfc	-0.32627094
25	0xbf90c8e1	-1.1311303
26	0xbee4c2fe	-0.44680017
27	0xbecce73c	-0.40020168
28	0xbf1a06fd	-0.60166913
29	0xbf07dd04	-0.5307162
30	0xbf1ca2eb	-0.61186093
31	0xbf9d6002	-1.2294924

weight f4 [4, 32]
0	0x3c24cf77	0.010059229
1	0x3ece6cbb	0.4031733
2	0xbe5426ca	-0.20717922
3	0x3d95e317	0.073187046
4	0xbe411dff	-0.18859099
5	0xbdf7ca05	-0.12099079
6	0x3e44d82e	0.19223091
7	0x3c80b521	0.015711369
8	0xbe979286	-0.29603976
9	0xbf1747f6	-0.5909418
10	0x3df364f0	0.11884487
11	0xbe794e48	-0.24346268
12	0x3d94fb2d	0.072744705
13	0x3f039a34	0.5140717
14	0x3ddb4ab7	0.1070761
15	0xbce19b8d	-0.027539993
16	0x3e419d9a	0.18907776
17	0xbe58b46f	-0.2116258
18	0xbec0e467	-0.37674257
19	0x3e2191d8	0.15778291
20	0x3e44ce89	0.19219412
21	0x3d99ba9b	0.07506295
22	0x3e0338c4	0.12814623
23	0xbe424ae2	-0.18973878
24	0xbe2001a9	-0.15625633
25	0x3de68977	0.11256688
26	0xbe09fccc	-0.1347534
27	0xbe891e30	-0.26780844
28	0x3d88ed19	0.06685848
29	0x3e3b9782	0.18319514
30	0x3cecc1b1	0.028900953
31	0xbe3477a7	-0.17623769
32	0xbc39ac98	-0.011332653
33	0x3e4a263a	0.19741145
34	0xbec08480	-0.3760109
35	0xbd74039e	-0.059573762
36	0x3d4c5ece	0.0498951
37	0xbdb64769	-0.08900339
38	0x3e932d25	0.2874538
39	0x3e31b069	0.17352451
40	0xbecd7f1a	-0.40136033
41	0xbbce4342	-0.006294639
42	0xbd5ddf6e	-0.054168157
43	0x3ecb797b	0.3974112
44	0xbcf45496	-0.02982549
45	0xbeb403f2	-0.3515926
46	0xbe67fcc0	-0.2265501
47	0xbe667ef7	-0.2250937
48	0xbe39d802	-0.18148807
49	0x3e841976	0.25800675
50	0x3e20d6f9	0.15707006
51	0xbe7d7217	-0.24750553
52	0x3c9a6f72	0.01885197
53	0xbd87083e	-0.06593369
54	0xbe2685cb	-0.16261975
55	0xbe7f5916	-0.24936327
56	0x3e6d68fe	0.23184583
57	0xbd38975d	-0.045066226
58	0xbcc686eb	-0.024234256
59	0xbe66d77f	-0.22543143
60	0x3ec20282	0.37892538
61	0xbb94c22e	-0.0045397496
62	0xbc98939b	-0.018625071
63	0xbe3c3c09	-0.18382277
64	0xbe45b8c6	-0.19308767
65	0x3e0ce67a	0.13759795
66	0x3e69f794	0.2284835
67	0xbe78cdde	-0.24297282
68	0x3dd83713	0.105573796
69	0xbe3f29fe	-0.18668362
70	0xbe0a997a	-0.13535109
71	0x3e42ff0d	0.19042607
72	0xbdf7e45a	-0.121041015
73	0x3f0e1943	0.55507296
74	0x3d4ab49f	0.04948866
75	0xbdcf7071	-0.10128868
76	0xbe56d1df	-0.20978497
77	0xbe62e7ce	-0.22158739
78	0x3e2c48c3	0.16824631
79	0xbc940ded	-0.018073047
80	0xbead15bf	-0.33805653
81	0xbdde86d5	-0.10865561
82	0xbe0d22a8	-0.13782752
83	0x3d889552	0.066691056
84	0x3d60ce97	0.05488452
85	0x3ea98d3b	0.33115563
86	0xbec47761	-0.3837233
87	0xbe93d3a9	-0.2887242
88	0x3e943874	0.2894932
89	0x3e17e04a	0.14831653
90	0x3e6f40c8	0.23364556
91	0x3e9b5909	0.30341366
92	0xbe11bb81	-0.14231683
93	0xbcb556ac	-0.022136055
94	0xbe819235	-0.2530686
95	0xbda803c1	-0.08203841
96	0xbc102143	-0.008796993
97	0xbdec43db	-0.1153638
98	0x3d855252	0.06509842
99	0x3d9be649	0.07612283
100	0xbc9cdd3f	-0.019148467
101	0xbdf64bfa	-0.1202621
102	0xbcfd9161	-0.030953111
103	0x3ecc06c8	0.39848924
104	0x3e6ae418	0.22938573
105	0xbe6c8ed7	-0.23101364
106	0x3d765729	0.060141716
107	0xbd1111cb	-0.03541736
108	0xbe643d42	-0.22288993
109	0xbd179772	-0.037009664
110	0xbd0a11cc	-0.03370838
111	0x3e2d0dca	0.16899791
112	0xbe53377b	-0.20626633
113	0x3df145eb	0.11780914
114	0x3d2f825e	0.042848937
115	0xbdd72212	-0.10504545
116	0x3dfc71a7	0.12326365
117	0x3dd7397a	0.1050901
118	0x3e29cda6	0.16582355
119	0x3cea88ac	0.028629623
120	0x3ec3a21e	0.38209623
121	0x3e37bf13	0.17943983
122	0x3eb9091f	0.3613977
123	0x3e494cee	0.19658253
124	0x3db132ad	0.08652244
125	0x3dc81ece	0.097715005
126	0x3dcc640a	0.099800184
127	0xbd867215	-0.06564728

bias f4 [4]
0	0xbe662976	-0.22476754
1	0xbf53e969	-0.8277803
2	0x3f1de9fd	0.6168516
3	0xbf56735f	-0.8376979

weight f4 [32, 4]
0	0xbf6c7845	-0.92371017
1	0xbf12363a	-0.57113993
2	0xbeb29895	-0.34882036
3	0xbefd2b00	-0.4944687
4	0xbf122130	-0.5708189
5	0x3eafe999	0.34357908
6	0xbd6b29c5	-0.05741288
7	0xbdda221e	-0.106510386
8	0xbdf7df00	-0.12103081
9	0x3dbeee7f	0.09322833
10	0xbd029ac0	-0.031885862
11	0xbe9291e3	-0.28626928
12	0xbf2ede88	-0.68308306
13	0xbed9d5c4	-0.42545903
14	0xbd7c7fa6	-0.061645173
15	0xbf800f9b	-1.0004762
16	0xbd742a88	-0.059610873
17	0xbf5882e2	-0.8457471
18	0xbe211925	-0.15732248
19	0xbd8c3774	-0.06846514
20	0xbeb8c357	-0.36086532
21	0x3accb77e	0.001561865
22	0xbf42c2df	-0.760786
23	0xbd6f2961	-0.05838907
24	0x3e6aa53c	0.22914594
25	0x3d67d4db	0.05659948
26	0x3ef04df4	0.46934474
27	0xbe17c68e	-0.14821836
28	0xbe86948e	-0.26285213
29	0x3ea538bf	0.32269856
30	0x3ef3beb9	0.47606447
31	0xbee62f3c	-0.44957912
32	0x3eccf6f7	0.4003217
33	0xbf7beda5	-0.9840949
34	0x3edcdf11	0.43138936
35	0xbebdfe3b	-0.37108025
36	0xbf53f25d	-0.8279169
37	0xbee5327c	-0.4476508
38	0x3cf01ed8	0.029311582
39	0x3e228e00	0.15874481
40	0x3f55e05e	0.8354548
41	0x3ef78fe2	0.4835196
42	0xbcd8776e	-0.026424136
43	0xbe4a14c8	-0.1973449
44	0xbe699fba	-0.22814837
45	0xbd5a6959	-0.053323124
46	0xbd812f3d	-0.06307838
47	0x3e6cfc2b	0.2314307
48	0xbcd4d58e	-0.025980737
49	0xbea5416d	-0.32276478
50	0xbeb0df5f	-0.3454542
51	0xbf5dfa9d	-0.8671053
52	0x3d899899	0.06718559
53	0x3e51e4c0	0.20497417
54	0xbe28a81e	-0.16470382
55	0x3f3ec643	0.74521273
56	0x3d42d0f8	0.04756257
57	0x3e697e11	0.22801997
58	0x3f0a10ae	0.539317
59	0x3eaf866b	0.3428224
60	0x3c7318cd	0.014837456
61	0x3d694ae3	0.056956183
62	0x3f60a517	0.8775191
63	0x3e4df3cd	0.20112534
64	0xbf5048ad	-0.81360894
65	0xbf1eba9f	-0.6200351
66	0x3ef06830	0.4695449
67	0xbf43a8dd	-0.7642954
68	0x3ead1e6a	0.33812267
69	0x3e339b65	0.17539747
70	0x3f7cda08	0.9877019
71	0xbf6903d1	-0.9102145
72	0x3de9ce1d	0.11416266
73	0xbeb4cb1d	-0.35311213
74	0x3cb6beb7	0.022307737
75	0xbf557862	-0.83386815
76	0xbe8701b6	-0.26368493
77	0xbf1e33f3	-0.6179802
78	0x3ebf1000	0.37316895
79	0xbf8121ca	-1.0088437
80	0x3ee64485	0.4497415
81	0x3e93d994	0.28876936
82	0x3d98f3ff	0.074684136
83	0x3e2f124c	0.17096823
84	0xbf537db9	-0.8261371
85	0xbd56d379	-0.05244777
86	0x3e9081df	0.28224084
87	0xbf28de98	-0.6596465
88	0xbe8f9948	-0.28046632
89	0x3f2e14f4	0.6800072
90	0xbdd617db	-0.10453769
91	0xbe2de68c	-0.16982478
92	0xbf00afee	-0.5026845
93	0xbe1fdb6e	-0.1561105
94	0xbe19839d	-0.14991613
95	0xbfa47889	-1.2849284
96	0xbe8d572f	-0.27605578
97	0xbcb467f2	-0.022022221
98	0x3ec329cb	0.38117823
99	0xbf888f35	-1.0668703
100	0x3ec85d1a	0.3913353
101	0x3da31282	0.079625145
102	0xbed310b4	-0.4122368
103	0xbf97cbd2	-1.1859076
104	0xbf83c4c1	-1.029442
105	0xbf0f5a4a	-0.55997145
106	0xbdbd0bbe	-0.09230755
107	0xbea5828e	-0.32326168
108	0x3ec1694a	0.37775642
109	0x3dcd2601	0.10017014
110	0xbdb4f57b	-0.08835884
111	0xbe9ee2d8	-0.31032443
112	0xbc836de3	-0.016043609
113	0xbe057340	-0.13032246
114	0x3f4d2729	0.8013788
115	0xbf568f8e	-0.838128
116	0x3e64655f	0.22304295
117	0x3ee191e4	0.44056618
118	0x3ed78fbe	0.42101854
119	0xbd15388d	-0.036430884
120	0xbef746a0	-0.4829607
121	0x3d4b892f	0.049691375
122	0x3f604f29	0.8762079
123	0xbf0a8051	-0.54102045
124	0xbc9cbcbf	-0.01913297
125	0x3d22bcaf	0.039730724
126	0xbd9f9464	-0.07791975
127	0xbdc6a397	-0.09699171

bias f4 [32]
0	0xbf2071cb	-0.62673634
1	0xbfe8c538	-1.8185186
2	0x3f089f3d	0.5336798
3	0xc025e6ee	-2.5922198
4	0xbe709dad	-0.23497649
5	0xbf6d6cfc	-0.9274442
6	0x3f81aeef	1.013151
7	0xbf1f5c3c	-0.62250113
8	0xbfa602c1	-1.296959
9	0x3fa0837e	1.2540128
10	0xbfa7038a	-1.3047955
11	0xbfde0828	-1.7346239
12	0x3fbed103	1.4907535
13	0xbeae31c3	-0.3402234
14	0x3f02ab08	0.5104222
15	0xbf710fa3	-0.94164485
16	0x3f94dea8	1.1630449
17	0xbfb1519c	-1.385303
18	0x3eceb782	0.4037438
19	0xc0271a17	-2.6109674
20	0x3e69553f	0.22786425
21	0x3ddcc59a	0.10779877
22	0xc00e1049	-2.219744
23	0xbf5d1e4f	-0.8637437
24	0xc0188178	-2.3829021
25	0x3c0ca12e	0.00858335
26	0xbf5a2522	-0.8521291
27	0x3f7e5913	0.99354666
28	0x3e9ec6b9	0.31010988
29	0xbfd6da8c	-1.6785445
30	0x3ec9a08d	0.39380303
31	0x40395885	2.8960278
