AE Models/12lat1.566loss.pth (torch, 118242 bytes, 27 tensors)

weight f4 [16, 1, 4]
0	0xbd010ebf	-0.031508204
1	0xbd621db0	-0.055204093
2	0x3e38103c	0.17974943
3	0xbdb5d5eb	-0.08878692
4	0xbd45a325	-0.04825129
5	0xbd46e0b9	-0.048554156
6	0xba0d3e1c	-0.0005387978
7	0x3df4cf79	0.11953635
8	0xbe394798	-0.18093717
9	0x3e778b16	0.24174151
10	0xbdfb1925	-0.12260655
11	0x3c902b6a	0.017598826
12	0x3d181aaf	0.037134822
13	0x3d201deb	0.039091032
14	0xbdf9c841	-0.121963985
15	0x3d54f90b	0.05199532
16	0xbc50c5b3	-0.012742448
17	0x3d77b4d5	0.06047519
18	0x3d93a283	0.07208731
19	0x3d83bb7c	0.06432244
20	0x3dce8bf1	0.100852855
21	0x3d0fcb0f	0.03510576
22	0xbc54cefd	-0.012988803
23	0xbe01ef40	-0.12688923
24	0x3e5e44f7	0.21705996
25	0xbd8fc3e8	-0.07019788
26	0xbef42788	-0.4768641
27	0x3e1500c5	0.14551075
28	0xbeec041c	-0.46096885
29	0x3c82f8e0	0.015987813
30	0xbe5b7194	-0.21430045
31	0xbe9a1088	-0.30090737
32	0xbd1057c3	-0.035239946
33	0xbc993b64	-0.018705077
34	0xbcbaf626	-0.02282245
35	0xbd4a78c3	-0.049431574
36	0xbba1d62a	-0.0049388604
37	0x3dbe1275	0.09280864
38	0x3c078006	0.008270269
39	0x3c05f59e	0.0081762355
40	0xbe30c444	-0.1726237
41	0x3e11447a	0.14186278
42	0x3cbdde8e	0.023177411
43	0x3db835cf	0.08994638
44	0x3e2fa37a	0.17152205
45	0xbe2390ef	-0.15973257
46	0x3e0d2898	0.13785017
47	0x3cd7d572	0.026346896
48	0xbea1732c	-0.31533182
49	0xbe6ca41e	-0.2310948
50	0x3e10aad4	0.14127666
51	0xbea2b959	-0.31782034
52	0x3dc22de9	0.09481413
53	0x3df2882b	0.11842378
54	0x3de23418	0.11045092
55	0x3d39951a	0.04530821
56	0xbe09676d	-0.1341836
57	0xbda7b81e	-0.081894144
58	0x3cb114c7	0.021616353
59	0x3e15d5a1	0.14632274
60	0x3db647bb	0.089004
61	0xbe44b275	-0.19208701
62	0x3d7856c4	0.06062962
63	0x3cbc36bf	0.022975324

bias f4 [16]
0	0xbd0957c3	-0.03353096
1	0x3f1221b8	0.570827
2	0x3f04d126	0.51881635
3	0x3dea13cd	0.11429558
4	0xbbe666ae	-0.0070312833
5	0x3cb67171	0.02227089
6	0xc00931fd	-2.143676
7	0xbe87a45a	-0.26492578
8	0x3f1bfb10	0.60929966
9	0xbec0acae	-0.37631744
10	0xbf97925e	-1.1841543
11	0xbf3c04e7	-0.7344498
12	0x3f1f6ef6	0.6227869
13	0xbebc7409	-0.36807278
14	0x3df91794	0.121627
15	0x3d0ab291	0.0338617

weight f4 [16, 16, 4]
0	0x3dc2528a	0.09488399
1	0x3dd9bd9c	0.10631868
2	0xbc9ac926	-0.018894743
3	0xbedc9c0f	-0.43087813
4	0xbe049777	-0.12948404
5	0x3ca21cd1	0.019789131
6	0xbe006527	-0.12538587
7	0xbc97f255	-0.01854817
8	0x3e388a5a	0.18021527
9	0xbe1791ed	-0.1480176
10	0xbe156c3c	-0.1459207
11	0xbe3304a9	-0.17482246
12	0xbe6cfaf3	-0.23142605
13	0x3e5e5400	0.21711731
14	0xbdf7f12d	-0.121065475
15	0x3d8764d5	0.06611029
16	0xbdf46ecf	-0.119351976
17	0xbd8a13de	-0.067420706
18	0xbd2da6bb	-0.042395335
19	0x3e03d335	0.12873538
20	0x3c1d397b	0.009596224
21	0x3d682d07	0.056683566
22	0x3c96cff6	0.01840971
23	0xbe845140	-0.2584324
24	0xbe7c4cd3	-0.24638681
25	0xbf771207	-0.9651188
26	0x3e67522e	0.22589943
27	0xbec4394a	-0.38324958
28	0x3d8c188a	0.06840618
29	0xbcc61430	-0.024179548
30	0x3d194020	0.03741467
31	0x3d0b0230	0.033937633
32	0xbe3405c8	-0.1758033
33	0x3e9c215f	0.3049421
34	0x3e882028	0.26587033
35	0x3f02ed90	0.5114374
36	0xbedeb463	-0.43497
37	0x3d430332	0.04761047
38	0x3deb61e7	0.11493283
39	0x3e7adacb	0.24497525
40	0x3e3657f9	0.17806996
41	0x3d57c1e6	0.05267515
42	0xbe927eaf	-0.28612277
43	0x3dc3fef4	0.09570113
44	0xbebf388b	-0.37347826
45	0xbd8678bc	-0.06565997
46	0x3d3978af	0.04528111
47	0x3e5c4a2f	0.21512674
48	0xbec5bff4	-0.3862301
49	0xbea01cdb	-0.31272015
50	0x3cece83a	0.028919328
51	0xbeabd671	-0.33562043
52	0xbe3808b9	-0.17972077
53	0x3e0aa343	0.13538842
54	0xbdb1a047	-0.086731486
55	0x3e620b44	0.2207461
56	0x3e1eb0d8	0.15497148
57	0xbd86f119	-0.065889545
58	0xbd9dff34	-0.07714692
59	0x3dbcccb0	0.092187285
60	0xbe34e27d	-0.17664523
61	0x3d622cb8	0.05521843
62	0xbdd29780	-0.102828026
63	0x3dfb56d4	0.122724205
64	0xbdb71d10	-0.0894109
65	0xbd7c3150	-0.061570466
66	0xbcdbfc22	-0.026853625
67	0xbd39fa35	-0.04540463
68	0xbd322819	-0.04349527
69	0xbdc49c94	-0.096001774
70	0x3bd0bf76	0.00637048
71	0x3ddaac59	0.10677404
72	0x3cdc27ae	0.02687439
73	0x3d20f5e6	0.039297007
74	0x3e031fab	0.12805049
75	0x3dcb4174	0.099245936
76	0x3d931872	0.07182397
77	0xbdb753b8	-0.08951515
78	0xbce00d9b	-0.027350238
79	0x3e1d1bec	0.15342683
80	0x3e7df7a7	0.24801503
81	0xbd306c41	-0.04307199
82	0xbc3fecdc	-0.0117141865
83	0x3e17c426	0.14820918
84	0xbda91f46	-0.08257918
85	0xbd260a5c	-0.040537223
86	0x3de965a3	0.11396339
87	0xbc7e2b7b	-0.015513296
88	0x3daa4761	0.08314396
89	0xbcb308e5	-0.021854827
90	0x3e4116de	0.1885638
91	0x3e1ec09e	0.15503165
92	0x3d5385a0	0.051641107
93	0xbd84f956	-0.064928696
94	0x3d664918	0.05622205
95	0xbddd855e	-0.108164534
96	0xbec1367c	-0.3773688
97	0xbf13c3b9	-0.57720524
98	0xbc075701	-0.008260489
99	0xbeceb7bf	-0.40374562
100	0xbd969e61	-0.07354427
101	0xbd89e42d	-0.06732974
102	0x3d4d9c3b	0.05019782
103	0xbe0be923	-0.13663153
104	0xbc3d0c38	-0.011538558
105	0x3e034f4a	0.12823215
106	0xbc1ea995	-0.009683986
107	0xbde30320	-0.110845804
108	0xbd40a6e4	-0.04703416
109	0xbd4583f8	-0.04822156
110	0xbb6ad85d	-0.003583453
111	0xb8cc9809	-9.755797e-05
112	0x3c68a546	0.0141995605
113	0xbf759656	-0.9593252
114	0xbf6893cd	-0.90850526
115	0x3d952e2b	0.072841965
116	0xbd1f549e	-0.038899057
117	0x3c6df95b	0.014524783
118	0x3d9d16fb	0.07670399
119	0x3e0ddc07	0.13853465
120	0xbcbde08e	-0.023178365
121	0x3d454b93	0.048167776
122	0x3dfd2984	0.12361434
123	0xbc6254df	-0.01381418
124	0x3d8f0ddc	0.06985065
125	0x3e105c4c	0.14097708
126	0xbd0afccc	-0.033932492
127	0xbd646794	-0.055762842
128	0xbd334972	-0.043771215
129	0x3d3c0928	0.04590717
130	0x3d67a303	0.056551944
131	0x3d6cf872	0.057854123
132	0x3cb55fb3	0.02214036
133	0x3d8bdf71	0.068297274
134	0xbdd79850	-0.10527098
135	0xbde07790	-0.10960305
136	0xbe2ab3a6	-0.16670093
137	0xbe1eaf08	-0.15496457
138	0x3d231394	0.039813593
139	0xbd271ba9	-0.040797863
140	0x3e151b38	0.14561164
141	0x3caf9d6d	0.021437371
142	0xbde37cb1	-0.111077674
143	0xbdad99a8	-0.08476573
144	0x3e01aaac	0.12662762
145	0x3c6be47e	0.0143977385
146	0xbe71950a	-0.2359201
147	0xbdaa0d77	-0.083033495
148	0xbd7f051e	-0.06226074
149	0x3d18a9b7	0.037271228
150	0xbcd3b0a1	-0.02584106
151	0x3dad8180	0.08471966
152	0x3e14e50d	0.14540501
153	0x3e5c1b0d	0.21494694
154	0xbd9bd4af	-0.076089256
155	0x3dcd179c	0.10014269
156	0xbdaeda72	-0.08537759
157	0xbde04324	-0.10950306
158	0xbd9b0a66	-0.07570343
159	0x3cb94c38	0.022619352
160	0xbd349bf5	-0.044094045
161	0x3ecc0c2b	0.39853033
162	0xbf1ea7cf	-0.61974806
163	0x3f051cc2	0.51997006
164	0x3d924df2	0.07143773
165	0x3c51c2d9	0.012802803
166	0xbe814e57	-0.2525508
167	0xbdb00ba6	-0.08595972
168	0x3e342f18	0.1759609
169	0x3e04ebcf	0.12980579
170	0xbe70856a	-0.23488393
171	0xbd80173b	-0.06254431
172	0x3e1a48d8	0.1506685
173	0x3e101aca	0.14072719
174	0xbdbac192	-0.09118952
175	0xbe0659fa	-0.13120261
176	0xbe4ca4f4	-0.199848
177	0x3c6db9d1	0.014509634
178	0x3c4e3a7b	0.012587185
179	0xbe7c68a2	-0.24649289
180	0x3e34aba5	0.17643602
181	0x3d6d6864	0.057960883
182	0xbd9172b4	-0.07101956
183	0xbc8cdbf4	-0.017194726
184	0xbc42a956	-0.011881193
185	0x3d79629c	0.060885057
186	0x3ce3374c	0.027736329
187	0xbe2c2db7	-0.16814314
188	0x3ca33c74	0.019926287
189	0x3da19135	0.07889024
190	0x3d96eb79	0.073691316
191	0x3e817fed	0.25292912
192	0xbbc0b4db	-0.0058809347
193	0x3da94c90	0.08266556
194	0x3d30058d	0.042974044
195	0xbd816c62	-0.063195005
196	0xbe34c324	-0.17652565
197	0x3be608c3	0.0070200874
198	0xbc1aabfe	-0.00944042
199	0x3e1cf5ed	0.15328188
200	0xbe059511	-0.13045146
201	0x3c90c053	0.017669832
202	0x3d74a150	0.059724152
203	0x3cf01354	0.029306091
204	0xbc74784f	-0.014921262
205	0xbb336dcd	-0.0027378679
206	0xbdf18f6d	-0.117949344
207	0x3dd5d60d	0.104412176
208	0x3e37bfe1	0.1794429
209	0x3de15bca	0.110038355
210	0x3d86b5f1	0.06577671
211	0xbd7be6f5	-0.061499555
212	0xbe0ed782	-0.13949397
213	0xbdcd93e5	-0.10037974
214	0xbe32a99a	-0.1744751
215	0xbd1f6fe9	-0.038925085
216	0xbd72b258	-0.059252113
217	0xbf17e3f4	-0.59332204
218	0xbf32d3ed	-0.69854623
219	0xbd45a565	-0.048253436
220	0xbd92b492	-0.07163347
221	0x3deef01c	0.11666891
222	0x3c8f6188	0.017502561
223	0xbdbc5aa4	-0.09196976
224	0xbe69bfd3	-0.22827081
225	0xbd14b1ca	-0.036302365
226	0x3eb08d50	0.34482813
227	0xbe5a0a66	-0.21293029
228	0x3db25b6c	0.087088436
229	0x3e182cc6	0.1486083
230	0xbd0793d6	-0.03309997
231	0x3c971633	0.018443203
232	0x3e429edf	0.19005917
233	0x3c9900bf	0.018677114
234	0xbe2dc10e	-0.16968176
235	0xbe604343	-0.21900658
236	0x3e1780b9	0.14795198
237	0xbd5fad96	-0.054608904
238	0xbddd671c	-0.10810682
239	0xbe21596c	-0.15756768
240	0xbec4d18c	-0.38441122
241	0x3f454056	0.77051294
242	0xbd0176d8	-0.03160748
243	0x3ecfb4fb	0.40567765
244	0x3d431257	0.047624912
245	0xbd94b151	-0.07260383
246	0x3cd15206	0.025551807
247	0x3da17d08	0.07885176
248	0xbe272315	-0.16321976
249	0xbe71d676	-0.23616967
250	0xbe4c0c07	-0.19926463
251	0xbea6ae75	-0.32554975
252	0xbdd629c4	-0.10457185
253	0x3af0ada5	0.0018362297
254	0xbd930494	-0.071786076
255	0x3e0eb3b0	0.13935733

bias f4 [16]
0	0xbd0e220a	-0.03470043
1	0xbe098d4f	-0.13432811
2	0x3e118ee3	0.14214663
3	0x3e1b39ec	0.15158814
4	0x3d5e7c76	0.054317914
5	0x3ec4a87d	0.38409796
6	0x3cedebba	0.029043067
7	0xbf257b20	-0.64641
8	0x3df8ba5d	0.12144921
9	0x3ceda1ff	0.02900791
10	0xbf835499	-1.0260192
11	0xbd829f25	-0.06378011
12	0xbe342e27	-0.1759573
13	0xbda1248b	-0.07868298
14	0xbd0d1a7d	-0.03444909
15	0xbdd3811e	-0.103273615

weight f4 [16, 16, 5]
0	0x3daf738b	0.0856696
1	0x3dfc2863	0.12312391
2	0xba863bcc	-0.001024121
3	0x3de4f2da	0.11179133
4	0xbd99b314	-0.075048596
5	0xbcc2c8d1	-0.023777397
6	0x3cfe9b38	0.031079873
7	0x3d69fc1f	0.057125207
8	0x3dbf69ce	0.093463525
9	0xbccf98cd	-0.025341416
10	0xbdcfdca4	-0.10149506
11	0x3e829f6c	0.25512254
12	0x3ed6733d	0.41884795
13	0x3e711f28	0.23547041
14	0x3e143732	0.1447418
15	0x3d4f6be5	0.050640006
16	0x3e82699c	0.254712
17	0x3e617068	0.22015536
18	0x3e660396	0.22462305
19	0x3c03109c	0.007999565
20	0xbec3752b	-0.3817533
21	0x3d439a5b	0.047754627
22	0xbe39b2ce	-0.18134615
23	0x3e54983f	0.20761202
24	0xbcdc12bd	-0.026864404
25	0xbdc58b73	-0.096457385
26	0xbd862ccd	-0.06551514
27	0x3da7c3fb	0.08191677
28	0xbe8809db	-0.2657002
29	0xbe8ff6f2	-0.28118092
30	0xbd4bbdd9	-0.0497416
31	0x3e0ca004	0.13732916
32	0x3e711519	0.23543204
33	0x3e383056	0.17987189
34	0x3ddaabfe	0.10677336
35	0x3bc26f27	0.0059336605
36	0xbdefef28	-0.11715537
37	0x3eb82479	0.35965326
38	0x3e278661	0.16359855
39	0x3daa8554	0.083262116
40	0xbdb25fc0	-0.08709669
41	0xbd1ba383	-0.037997734
42	0x3e3816b8	0.17977417
43	0x3de95d84	0.1139479
44	0xbdb179bb	-0.08665796
45	0xbdc3db71	-0.095633395
46	0xbd78d795	-0.06075247
47	0xbc9e2671	-0.01930544
48	0xbdaab799	-0.083358
49	0xbdca0fe9	-0.09866316
50	0x3dc673c2	0.09690048
51	0x3da78043	0.08178761
52	0xbe2dd2c5	-0.16974933
53	0xbe6d49ab	-0.23172633
54	0xbd9927f6	-0.07478325
55	0xbd019d64	-0.03164424
56	0xbd6c25bb	-0.05765317
57	0xbd4d3228	-0.05009666
58	0x3dd06bd6	0.10176818
59	0x3b8a7d5a	0.004226369
60	0xbdc3b5a2	-0.09556128
61	0xbcd1e1ed	-0.025620425
62	0x3dd3a903	0.10334971
63	0x3d7b7a4a	0.06139592
64	0xbbe984fa	-0.0071264477
65	0xbd2504f9	-0.040287945
66	0x3e2294bd	0.15877052
67	0x3d97eae6	0.0741785
68	0x3c59b892	0.013288634
69	0x3ddfd5bf	0.10929441
70	0xbd9aa0ab	-0.07550176
71	0xbc91a767	-0.017780019
72	0x3db3a4fa	0.08771701
73	0xbd55f558	-0.05223593
74	0x3cd5f744	0.026118882
75	0xbbcf129d	-0.0063193575
76	0xbdbc1827	-0.09184294
77	0xbb3dc6c6	-0.002895759
78	0x3e371a84	0.17881209
79	0xbc25b588	-0.010114081
80	0x3dd5dfa6	0.10443048
81	0x3e036f07	0.12835322
82	0x3d239dc9	0.039945398
83	0xba5ad9b0	-0.0008348478
84	0x3e81139d	0.25210276
85	0x3d6d05d6	0.057866894
86	0x3dd161e4	0.10223749
87	0x3d816efd	0.063199975
88	0xbd75e8fd	-0.060036648
89	0x3ced7976	0.028988581
90	0xbd24ab64	-0.040202513
91	0xbdf623ef	-0.120185725
92	0xbd233e6e	-0.03985446
93	0xbe602875	-0.21890433
94	0xbd05a636	-0.032629214
95	0x3d2e653b	0.04257701
96	0x3ce0f4f9	0.027460562
97	0xbcd5ddda	-0.026106764
98	0xbdaba94a	-0.08381899
99	0xbdc464dc	-0.0958955
100	0x3d497809	0.04918674
101	0x3e9086b5	0.28227773
102	0x3e57fd57	0.21092735
103	0xbd2ac019	-0.041687105
104	0xbdd3c4d7	-0.103402786
105	0xbceaa065	-0.028640935
106	0xbd2e3f13	-0.04254062
107	0x3e242952	0.16031387
108	0xbde68427	-0.11255675
109	0x3dcce4af	0.100045554
110	0x3cd24d41	0.025671603
111	0x3e55b5e7	0.20870171
112	0x3d972a13	0.07381072
113	0xbe0d6c7b	-0.13810913
114	0xbdd56c66	-0.10421066
115	0x3d95a04a	0.07305963
116	0x3d2fc181	0.04290915
117	0x3e9ab2ed	0.30214635
118	0x3e4e4914	0.20145065
119	0x3db4f67a	0.08836074
120	0x3d4aa07c	0.049469456
121	0x3cfffa0e	0.031247165
122	0xbdc8b0f2	-0.09799375
123	0xbd0737f1	-0.033012334
124	0x3e0f2279	0.13977994
125	0x3d482f64	0.04887332
126	0x3bad599a	0.0052902224
127	0x3d9672a4	0.07346085
128	0x3d5c8ee9	0.053847227
129	0x3e02622c	0.12732762
130	0x3d69c6ec	0.057074472
131	0xbd7c5c7d	-0.06161164
132	0xbda2d6e6	-0.07951145
133	0x3c00e2b4	0.00786655
134	0x3da4ef3e	0.08053444
135	0xbdc33b4b	-0.095327936
136	0x3c5e6ca2	0.013575705
137	0xbd839241	-0.0642438
138	0x3c0b33ef	0.008496269
139	0x3b92043e	0.004456072
140	0xbcf1b829	-0.02950676
141	0xbcc6ee48	-0.024283543
142	0xbdc7ceaa	-0.09756215
143	0xbe5f8ae1	-0.21830322
144	0xbddd72b0	-0.108128905
145	0x3ce01f93	0.027358806
146	0x3db1dee3	0.086850904
147	0x3cd1e46f	0.025621621
148	0x3dc9a957	0.09846752
149	0x3db2a1a5	0.087222375
150	0xbc053318	-0.0081298575
151	0x3deab4bd	0.11460254
152	0x3d0d1ccc	0.03445129
153	0xbdbd1829	-0.09233124
154	0xbce6ec45	-0.028188834
155	0x3ddf94ab	0.10917028
156	0x3daf38a0	0.08555722
157	0x3bc3f9e2	0.005980716
158	0x3ced5997	0.028973384
159	0x3e695cc0	0.22789288
160	0xbd120180	-0.03564596
161	0xbddb8e02	-0.10720445
162	0xbc90f5dd	-0.017695362
163	0xbd311b7b	-0.043239098
164	0x3d981a68	0.074269116
165	0xbb9f3471	-0.0048585464
166	0xbdb0fea9	-0.086423226
167	0xbbe2b89f	-0.006918981
168	0xbdba5e6b	-0.0910004
169	0x3e2a36e2	0.16622499
170	0xbe1e9de7	-0.15489922
171	0xbe881ddb	-0.26585278
172	0xbd897aba	-0.06712861
173	0x3c73d592	0.014882462
174	0xbe088406	-0.13331613
175	0xbda1577a	-0.07878013
176	0x3b61ad79	0.0034435673
177	0x3e51ad6d	0.20476313
178	0x3d1552a9	0.036455784
179	0x3db2b715	0.087263264
180	0xbed330fe	-0.41248316
181	0xbea4180e	-0.32049602
182	0xbda04903	-0.07826426
183	0x3dc013ad	0.09378753
184	0x3e485e5a	0.19567242
185	0x3df134e0	0.11777663
186	0x3e042478	0.12904537
187	0xbe5a0790	-0.21291947
188	0xbbe7c6dc	-0.0070732664
189	0xbeae62d6	-0.3405978
190	0x3d8e4c8c	0.06948194
191	0xbe18a0c1	-0.14905073
192	0x3d080701	0.033209804
193	0x3d5fc99c	0.05463563
194	0xbe488a37	-0.19583975
195	0xbd9bff9e	-0.076171145
196	0xbc6c5233	-0.014423895
197	0x3db6a14f	0.08917486
198	0x3ea3ac14	0.31967223
199	0x3d3231b4	0.04350443
200	0xbe324109	-0.17407621
201	0x3d4fc177	0.05072161
202	0xbd5a7ffa	-0.053344704
203	0x3d30af64	0.043136016
204	0x3e1e2445	0.15443523
205	0xbdb382d7	-0.0876519
206	0xbe05b148	-0.13055909
207	0xbe4d24a5	-0.2003351
208	0xbdcb4cec	-0.09926781
209	0xbcd06c7d	-0.025442356
210	0x3d1b580b	0.03792576
211	0x3e290e83	0.16509442
212	0x3b538a19	0.0032278358
213	0xbbd80b3c	-0.006593136
214	0xbd8f53ca	-0.06998403
215	0xbd852376	-0.06500904
216	0x3d580248	0.05273655
217	0xbd8d217a	-0.06891151
218	0xbdc72b2a	-0.0972503
219	0xbda3f5bc	-0.080058545
220	0x3d8ade96	0.06780736
221	0x3cfaf89d	0.030636126
222	0xbd2940ec	-0.04132168
223	0x3ddcd9f8	0.10783762
224	0x3dc87050	0.09787047
225	0xbd3691ae	-0.044572525
226	0x3b7ae1d0	0.0038281567
227	0x3e63a728	0.22231734
228	0x3e555a26	0.2083517
229	0x3e4c35f0	0.1994245
230	0xbcb163da	-0.021654058
231	0xbe10e1de	-0.14148661
232	0x3dc43576	0.09580509
233	0x3caa68d4	0.02080194
234	0xbdc09dcb	-0.094050966
235	0xbd90021b	-0.070316516
236	0xbdd59fb9	-0.10430855
237	0x3cc27e04	0.02374173
238	0x3d42f280	0.047594547
239	0x3e09a45c	0.13441604
240	0xbda9fbed	-0.08300004
241	0xbde10cc1	-0.10988761
242	0xbcc2df93	-0.02378825
243	0xbc9fcf14	-0.019507922
244	0xbece6274	-0.4030949
245	0x3e92d870	0.28680754
246	0xbe3a72bc	-0.1820783
247	0xbca4cac8	-0.020116225
248	0x3c8313ae	0.016000595
249	0xbe7ee388	-0.24891484
250	0x3ea29fb2	0.31762463
251	0x3e15c7c8	0.14626992
252	0x3e983c7d	0.2973365
253	0x3d191520	0.037373662
254	0x3ebee45b	0.37283596
255	0x3d988be9	0.07448561

bias f4 [16]
0	0xbea3d1c7	-0.31995985
1	0xbe53cba0	-0.20683146
2	0xbd3bbc4f	-0.045833882
3	0xbf17feba	-0.59373057
4	0x3e52c321	0.20582248
5	0xbdb2ce77	-0.08730786
6	0xbe9f7359	-0.3114269
7	0x3d4f5816	0.050621115
8	0xbe50ad3d	-0.20378585
9	0x3ea7f2cd	0.3280243
10	0x3ea615cc	0.32438505
11	0x3aa7fd98	0.0012816666
12	0xbe2f03f9	-0.17091359
13	0xbe5f4433	-0.2180336
14	0x3e4683bf	0.19386195
15	0xbe457a67	-0.19284974

weight f4 [16, 16, 5]
0	0x3e308f75	0.17242225
1	0x3e607f03	0.21923451
2	0xbd2b32d5	-0.041796524
3	0x3cb721fc	0.022355072
4	0x3dcb8e45	0.09939245
5	0x3e235577	0.15950571
6	0x3e29673d	0.16543289
7	0xbd30b137	-0.043137755
8	0xbe8b5da3	-0.27219877
9	0xbe1692f1	-0.14704491
10	0x3e1a5199	0.1507019
11	0xbdfc8929	-0.12330849
12	0xbe3d7743	-0.18502526
13	0x3d094f90	0.033523142
14	0xbca9480f	-0.020664243
15	0x3e5fe435	0.21864398
16	0x3e5076e9	0.2035786
17	0xbdd41e01	-0.10357285
18	0xbc17334c	-0.009228539
19	0xbd073d41	-0.0330174
20	0x3b7d971b	0.0038694802
21	0xbb91ade2	-0.0044457773
22	0x3d2d5e43	0.042326223
23	0x3e022c30	0.12712169
24	0x3c87b424	0.01656539
25	0x3e7ecd23	0.24882941
26	0x3dbfdc1a	0.09368153
27	0xbe402274	-0.18763143
28	0xbddd22c2	-0.10797645
29	0x3de77e83	0.11303427
30	0x3e6089d3	0.21927576
31	0x3e53b84a	0.2067577
32	0xbe087a7a	-0.13327971
33	0x3d03e165	0.032197375
34	0xba9f9582	-0.0012175294
35	0x3e5bb7e5	0.21456869
36	0xbe55934d	-0.20856972
37	0xbdbb22c2	-0.09137489
38	0x3db0fac7	0.08641582
39	0x3dd6b1ad	0.10483108
40	0x3e9a8c56	0.30185193
41	0x3d7e2dd2	0.062055416
42	0xbcf1a252	-0.029496346
43	0xbe1010dd	-0.14068933
44	0xbd32b90a	-0.0436335
45	0x3e5a4633	0.21315841
46	0x3d883c46	0.06652121
47	0xbbb396a7	-0.0054806056
48	0xbd3f46db	-0.046698432
49	0x3d24e531	0.040257636
50	0x3de3cb2c	0.11122736
51	0x3e16aede	0.14715144
52	0xbe077ece	-0.13231966
53	0xbe100000	-0.140625
54	0x3d9027ec	0.070388645
55	0x3e953326	0.29140586
56	0xbd7aac08	-0.061199218
57	0xbe8598f6	-0.26093262
58	0xbe161d7b	-0.14659683
59	0xbe2321d2	-0.1593087
60	0xbd117f59	-0.03552184
61	0xbe665332	-0.22492674
62	0xbe98fa20	-0.2987833
63	0xbe17a768	-0.14809954
64	0xbdfd748c	-0.12375745
65	0x3de990e0	0.11404586
66	0x3d50575f	0.050864574
67	0x3c18cf54	0.009326775
68	0x3d3bfca9	0.045895252
69	0xbd64a62d	-0.05582254
70	0x3cd0e3d6	0.025499266
71	0x3de05a27	0.10954695
72	0x3de036d3	0.10947957
73	0xbe744898	-0.23855817
74	0xbce2e909	-0.02769901
75	0xbd8557be	-0.06510876
76	0x3ea2e3ae	0.3181433
77	0x3e2e0e0c	0.16997546
78	0xbd66aa46	-0.05631473
79	0x3d374e9a	0.044752695
80	0x3d99d218	0.07510775
81	0x3d9bf69a	0.07615395
82	0x3e067f73	0.13134556
83	0x3e3e0dee	0.18560001
84	0xbca6511b	-0.020302346
85	0xbca33e07	-0.019927038
86	0xbdb9295a	-0.0904109
87	0x3e2036bf	0.15645884
88	0x3e842ea8	0.25816846
89	0xbdad7174	-0.08468905
90	0x3d5b7ffa	0.053588845
91	0xbe4d5ef6	-0.20055756
92	0x3e2f30c9	0.17108454
93	0x3dfbcd27	0.12294989
94	0x3bfc9e72	0.007709318
95	0xbe68c8ec	-0.22732896
96	0xbe3b5471	-0.1829393
97	0x3ef89765	0.48553005
98	0x3e9c9069	0.30578926
99	0x3d88cc58	0.066796005
100	0x3d58e744	0.052954927
101	0xbe659dfa	-0.22423545
102	0x3c5124e9	0.012765148
103	0xbddb634d	-0.107122995
104	0xbd18d8b0	-0.037316024
105	0x3da248e3	0.07924058
106	0xbde8ffd1	-0.11376918
107	0x3dd3ff71	0.10351456
108	0x3e25bef6	0.16186127
109	0xbdc18c26	-0.09450559
110	0x3df8e449	0.12152917
111	0xbe383915	-0.17990525
112	0xbdcceeb0	-0.100064635
113	0xbe0229cf	-0.12711261
114	0xbc21a0cc	-0.009864997
115	0xbdf6b851	-0.12046874
116	0x3e49bc61	0.19700767
117	0xbcdf5c72	-0.027265761
118	0xbd0077d0	-0.031364262
119	0x3a1cdf87	0.0005984236
120	0x3e5d8170	0.21631408
121	0xbb9be5b1	-0.004757606
122	0x3ea770b6	0.3270318
123	0x3e4d9529	0.20076431
124	0xbe107436	-0.14106831
125	0x3e2d00f8	0.16894901
126	0x3d50d7f5	0.050987203
127	0xbe0eb8c1	-0.13937666
128	0xbe8876ae	-0.26653045
129	0xbd91aa4d	-0.071125604
130	0x3e293bfb	0.16526787
131	0xbe5aa369	-0.21351399
132	0x3e742f8b	0.23846261
133	0x3d3aa9d5	0.04557212
134	0x3d314ace	0.04328423
135	0x3d0aaf20	0.03385842
136	0x3d757c91	0.05993325
137	0x3ef27dd3	0.4736162
138	0x3d1c790c	0.038201377
139	0xbe60bf7b	-0.21948044
140	0xbdf4a4f1	-0.119455226
141	0xbd7c8d9c	-0.061658487
142	0xbe75a212	-0.23987606
143	0xbde6e6f0	-0.112745166
144	0x3dc93152	0.0982386
145	0xbe3a6b73	-0.18205051
146	0x3ddca84b	0.10774287
147	0x3e16bb67	0.14719926
148	0xbd29d680	-0.04146433
149	0x3e288ccd	0.16459961
150	0x3b454dd0	0.0030106194
151	0x3c3a3d56	0.011367163
152	0x3e32c77b	0.17458908
153	0xbcf360b4	-0.029709198
154	0x3dfe6368	0.12421304
155	0xbc60f6d4	-0.013730723
156	0x3ea213ef	0.31655833
157	0xbd4261f2	-0.04745669
158	0x3ba54d9b	0.0050446517
159	0xbe47c4a7	-0.1950861
160	0xbe0713c4	-0.13191134
161	0xbe21470d	-0.1574976
162	0xbe50222b	-0.20325534
163	0x3e8590f2	0.26087147
164	0x3eb39c3d	0.35080138
165	0xbe22b41e	-0.15889022
166	0xbe2f4449	-0.17115892
167	0xbea6e6b0	-0.32597876
168	0x3d97813d	0.07397697
169	0x3dcca1b2	0.099917784
170	0x3df96ee9	0.121793576
171	0x3dc8c4cc	0.09803161
172	0xbe5e0158	-0.216802
173	0xbc234465	-0.009965037
174	0x3ee08aaa	0.43855792
175	0x3d2d3098	0.04228267
176	0x3df04e80	0.11733723
177	0x3d3e0d77	0.04639956
178	0xbed6966c	-0.41911638
179	0x3f35a7b0	0.70958996
180	0x3d72d414	0.059284285
181	0x3ca34c5e	0.019933876
182	0x38e77765	0.00011037177
183	0x3e39496e	0.18094417
184	0x3df09ea7	0.117490105
185	0xbee7634b	-0.45192942
186	0xbe9584ff	-0.2920303
187	0x3c61d6b5	0.0137841
188	0xbe902a5a	-0.28157312
189	0x3e8054dd	0.25064746
190	0xbddb67eb	-0.1071318
191	0xbdbe0b29	-0.092794724
192	0xbbb06a27	-0.005383748
193	0x3d730691	0.059332434
194	0x3e3910f6	0.18072876
195	0x3e0d6b75	0.13810523
196	0xb9477b32	-0.00019024013
197	0xbe74b550	-0.2389729
198	0x3db3f180	0.08786297
199	0x3e4c546e	0.19954082
200	0xbec4c2ae	-0.3842978
201	0xbe858ada	-0.26082498
202	0xbdd60950	-0.10450995
203	0xbe131228	-0.14362395
204	0x3e9b611f	0.30347535
205	0xbe8058c6	-0.2506773
206	0xbe19921e	-0.14997146
207	0xbc93378a	-0.017970819
208	0xbb9e7a03	-0.0048363223
209	0xbd2a8610	-0.04163176
210	0x3d840636	0.06446497
211	0x3d2514cd	0.04030304
212	0xbe27edbc	-0.16399282
213	0xbdd887be	-0.10572766
214	0x3e0254a6	0.12727603
215	0xbe933a98	-0.2875564
216	0xbe584e39	-0.2112359
217	0xbdd7328f	-0.1050769
218	0x3dbb54b4	0.09147015
219	0x3f0f5925	0.559954
220	0xbbffaee2	-0.00780283
221	0x3ddcea15	0.10786835
222	0x3d10e0f8	0.035370797
223	0xbe3013af	-0.17195009
224	0xbe4128ce	-0.18863222
225	0xbe75f61c	-0.24019665
226	0xbe3b52bf	-0.18293284
227	0xbe071ced	-0.13194628
228	0x3d63e601	0.05563927
229	0x3deaa8a0	0.11457944
230	0x3d81f8c7	0.06346279
231	0xbe514990	-0.20438218
232	0xbe3868e7	-0.18008767
233	0x3d9dadf4	0.076991946
234	0x3e703bb6	0.23460278
235	0x3deba055	0.1150519
236	0xbd78227c	-0.060579762
237	0x3df0a4fa	0.11750217
238	0xbddd7591	-0.1081344
239	0xbd12253c	-0.03568004
240	0x3c4c5715	0.012471934
241	0x3ead0e5a	0.33800012
242	0xbcae694e	-0.021290448
243	0xbb0f1c66	-0.0021836995
244	0xbcc8195a	-0.024426151
245	0x3c5cc24d	0.013474059
246	0x3e846332	0.2585693
247	0x3daefa95	0.085438885
248	0x3d97d1a7	0.07413035
249	0x3dbbee94	0.091763645
250	0x3c724801	0.014787675
251	0x3dad79bd	0.08470485
252	0xbe2d5d67	-0.16930161
253	0x3e1b4b8e	0.1516554
254	0x3cea18a1	0.028576197
255	0x3cfad570	0.030619353

bias f4 [16]
0	0xbe23d940	-0.16000843
1	0xbecffc3e	-0.40622133
2	0xbdd0f0f4	-0.10202208
3	0xbdfe89f8	-0.12428659
4	0xbe99bc41	-0.3002644
5	0xbf09f15a	-0.538839
6	0xbe24f8bc	-0.1611051
7	0xbc76b6a3	-0.015058192
8	0xbe02f036	-0.12786946
9	0xbcf60455	-0.030031363
10	0x3f27c5d4	0.65536237
11	0x3e1fa657	0.15590797
12	0xbe7de832	-0.24795607
13	0xbd5bdded	-0.05367844
14	0x3e2beb71	0.16789033
15	0xbe87ad6f	-0.26499507

weight f4 [64, 112]
0	0x3e64e829	0.22354187
1	0xbd8d656c	-0.0690411
2	0x3df17c4b	0.11791285
3	0x3b2f7b42	0.0026776348
4	0xbbd548f2	-0.00650894
5	0xbd9dacac	-0.0769895
6	0x3dd7e28b	0.105412565
7	0x3e6e34e3	0.23262362
8	0xbd18d104	-0.037308708
9	0xbde38a2c	-0.111103386
10	0x3dced157	0.10098522
11	0xbabae7f5	-0.0014259802
12	0xbd9a6bae	-0.075400695
13	0x3f156016	0.5834974
14	0xbd1d23c5	-0.03836419
15	0xbde6b1b9	-0.11264367
16	0xbe440ed6	-0.19146284
17	0x3d8dfc2d	0.06932864
18	0x3e3b5192	0.18292835
19	0x3e85b742	0.26116377
20	0xbe26fbb2	-0.16306952
21	0xbeac8880	-0.3369789
22	0x3e1d3676	0.15352806
23	0xbb6aeded	-0.0035847381
24	0xbc95915a	-0.018257786
25	0xbd585aeb	-0.05282108
26	0x3de58103	0.11206248
27	0x3d8c152d	0.068399765
28	0xbd78ba7f	-0.06072473
29	0xbe4325f7	-0.19057451
30	0x3d9b98bc	0.07597491
31	0x3d2e50e2	0.042557605
32	0xbdb31fc1	-0.08746291
33	0xbe06a972	-0.13150576
34	0x3f69eac3	0.9137384
35	0xbcfd1d6f	-0.030897824
36	0x3bd53b36	0.0065073026
37	0xbd78b9d5	-0.0607241
38	0x3e0b5538	0.13606727
39	0x3d76ca58	0.060251564
40	0xbe239b5c	-0.15977234
41	0xbf03460d	-0.51278764
42	0xbd8d58e2	-0.06901719
43	0x3d215a2d	0.03939264
44	0x3d1657cd	0.036704827
45	0xbc012ab3	-0.007883715
46	0x3d948cf6	0.07253449
47	0xbd6070ce	-0.05479508
48	0x3c442646	0.011972016
49	0xbf55ac11	-0.8346568
50	0x3e0b992b	0.13632648
51	0xbe9bed60	-0.3045454
52	0xbe16cd42	-0.14726737
53	0xbe7f5d78	-0.24937999
54	0x3f1db12a	0.61598456
55	0x3d164a02	0.036691673
56	0xbd15eb41	-0.03660131
57	0x3d5147b4	0.051093772
58	0xbcb72205	-0.022355089
59	0xbc0fd8bd	-0.008779702
60	0x3d31c11d	0.043397058
61	0x3cdb5091	0.026771815
62	0x3d5d1edc	0.053984508
63	0x3d675de4	0.056486025
64	0xbd06d938	-0.032922
65	0xbd8c3378	-0.068457544
66	0xbda8e1e2	-0.08246209
67	0xbda3aec2	-0.07992317
68	0x3d227eab	0.03967158
69	0x3d3372ae	0.04381054
70	0xbde0f25e	-0.10983728
71	0xbdedd977	-0.11613744
72	0xbba1be1f	-0.0049359943
73	0x3d659619	0.056051347
74	0xbecf44b6	-0.4048211
75	0xbe5cb8cf	-0.21554874
76	0x3ed3102a	0.4122327
77	0x3ecf93f8	0.4054258
78	0xbc8aba6f	-0.016934602
79	0x3e17bec9	0.14818873
80	0xbdca1270	-0.09866798
81	0x3af8c705	0.0018980211
82	0xbd88ad16	-0.066736385
83	0x3e8eb968	0.2787583
84	0x3e3e2208	0.1856767
85	0x3e6f17ee	0.23348972
86	0xbe42c2e9	-0.19019665
87	0x3dd9a14b	0.10626467
88	0x3e9286ee	0.28618568
89	0x3d0586d7	0.032599296
90	0x3dfafd48	0.12255341
91	0xbdbfa86f	-0.09358298
92	0xbf02ac48	-0.5104413
93	0x3e8b88ed	0.27252904
94	0xbdf2ffef	-0.11865222
95	0x3d971592	0.07377161
96	0x3cd9ad29	0.026571827
97	0x3f3a7fe5	0.728514
98	0xbcadc22e	-0.021210756
99	0xbd9e314f	-0.077242486
100	0x3cb5ef79	0.022208916
101	0x3e598966	0.2124382
102	0x3cef1a71	0.029187413
103	0x3bc75fbe	0.0060844114
104	0xbe3c802e	-0.18408272
105	0xbe1a5169	-0.15070118
106	0x3c4f65b8	0.012658529
107	0xbdf591ba	-0.11990686
108	0x3d91784c	0.07103023
109	0x3e884f1c	0.26622856
110	0x3e265d43	0.16246514
111	0xbf1848fa	-0.59486353
112	0xbe44f57d	-0.19234271
113	0xbdd29b23	-0.10283496
114	0x3ddaafeb	0.10678085
115	0xbe3ef676	-0.18648705
116	0x3f06176e	0.523795
117	0xbcb81d23	-0.022474831
118	0xbea7ed08	-0.32798028
119	0xbe298d3b	-0.16557781
120	0x3e46d812	0.19418362
121	0xbe6e9643	-0.23299508
122	0x3eaac550	0.33353662
123	0xbd7d62db	-0.061861854
124	0x3e2ec56f	0.17067502
125	0x3e5d3119	0.2160076
126	0xbccb2352	-0.024797115
127	0x3d2165c9	0.03940371
128	0xbe384936	-0.17996678
129	0x3ed28aea	0.41121608
130	0xbee7dac4	-0.45284092
131	0x3d20030d	0.03906541
132	0xbe62d04c	-0.22149771
133	0x3e2a0548	0.16603577
134	0xbdf120f4	-0.117738634
135	0x3e8d7e24	0.276353
136	0x3d03086a	0.031990446
137	0x3de33984	0.110949546
138	0xbe701250	-0.23444486
139	0xba299763	-0.0006469397
140	0xbe01fa1a	-0.12693062
141	0x3d9ac7b0	0.075576186
142	0xbe530e94	-0.2061103
143	0x3e986f07	0.29772207
144	0x3e83f09f	0.25769517
145	0xbeab6a04	-0.3347932
146	0xbe3ed66d	-0.18636484
147	0x3d5b9eb4	0.053618148
148	0x3da80ebe	0.08205937
149	0x3d0e4950	0.034737885
150	0xbe9dd2c9	-0.3082488
151	0x3dda130b	0.106481634
152	0xbe623e4e	-0.2209408
153	0x3e04d4d2	0.1297181
154	0x3ba5ba27	0.0050575915
155	0xbda1f4ee	-0.07908045
156	0xbdd17754	-0.10227838
157	0x3c8b7593	0.017023837
158	0xbd994ef9	-0.07485766
159	0xbd5dd440	-0.054157495
160	0xbd6a4f82	-0.05720473
161	0xbdc94d92	-0.098292485
162	0xb9dacb6c	-0.0004173176
163	0x3e2760da	0.1634554
164	0xba965568	-0.0011469545
165	0xbc9a2a24	-0.018818922
166	0xbd6d9bfc	-0.058010086
167	0xbcb65f1d	-0.02226215
168	0xbd1aa6e9	-0.037756834
169	0x3cd83d03	0.02639628
170	0x3d09d4d5	0.033650238
171	0xbada9f29	-0.0016679514
172	0xbd712ab9	-0.058878634
173	0x3c04dd29	0.008109369
174	0x3d04fc93	0.032467436
175	0x3d41faa0	0.047358155
176	0xbd1152e4	-0.03547944
177	0x3d29a74a	0.041419305
178	0x3c1e17c4	0.009649221
179	0xbdbfa430	-0.09357488
180	0x3d575268	0.052568823
181	0x3db771be	0.089572415
182	0xbe248ab2	-0.16068533
183	0x3df44923	0.11928012
184	0x3d7b6c7b	0.061382752
185	0xbf273020	-0.6530781
186	0x3e83d7f3	0.25750694
187	0x3f17494d	0.59096223
188	0x3e7408fc	0.23831552
189	0xbcb03181	-0.02150798
190	0x3e798ff7	0.24371324
191	0xbe37511f	-0.17902039
192	0x3eacc9ac	0.33747613
193	0xbc023417	-0.0079469895
194	0xbed0dcdb	-0.407935
195	0xbe25333b	-0.16132824
196	0x3ebe86ba	0.37212163
197	0xbe032b90	-0.12809587
198	0x3d993b14	0.074819714
199	0x3dcf153f	0.10111474
200	0xbe401264	-0.18757015
201	0x3e33b218	0.17548406
202	0x3edb4ecc	0.42833555
203	0x3d99339a	0.07480545
204	0x3e743dc0	0.23851681
205	0xbe54659c	-0.20741886
206	0x3edb6098	0.42847133
207	0x3e7e66f1	0.24843957
208	0xbeaf7e6c	-0.3427614
209	0xbe350bb5	-0.17680247
210	0xbda42e0f	-0.080165975
211	0x3d22847e	0.039677136
212	0x3d83e3b7	0.064399175
213	0x3e8886f5	0.26665464
214	0xbe38ea7d	-0.180582
215	0xbc958064	-0.018249698
216	0xbdaf7b30	-0.08568418
217	0x3e05a68b	0.13051812
218	0x3dcf1efc	0.10113332
219	0x3e86142f	0.26187274
220	0x3c37e943	0.0112250475
221	0xbe52a28e	-0.20569822
222	0xbe542250	-0.20716214
223	0xbd8240fe	-0.063600525
224	0x3964ed2e	0.00021832131
225	0xbe049b1d	-0.12949796
226	0x3ea3b673	0.31975135
227	0xbe8e76cd	-0.27825013
228	0x3cc08977	0.023503048
229	0x3e1819df	0.14853619
230	0xbecd67be	-0.40118212
231	0x3e1ae5d2	0.15126732
232	0xbcb8f638	-0.022578344
233	0x3dc48454	0.09595552
234	0xbdfba389	-0.12287051
235	0x3eda3150	0.42615747
236	0xbe131645	-0.14363964
237	0x3eb00b2c	0.34383523
238	0xbe038dd8	-0.12847078
239	0x3e5e990c	0.2173807
240	0xbe9a98ec	-0.30194795
241	0x3f0b1a7c	0.54337287
242	0xbf104bdd	-0.5636576
243	0xbf7724eb	-0.9654071
244	0x3b3766c5	0.002798484
245	0x3dc60acc	0.09670028
246	0xbd9255b4	-0.07145253
247	0x3dbc1696	0.091839954
248	0x3e71354f	0.23555492
249	0x3d0e5799	0.03475151
250	0xbe2504d6	-0.16115126
251	0x3def457e	0.116831765
252	0xbd518a80	-0.051157475
253	0xbd3ea444	-0.046543375
254	0x3cc3339d	0.023828322
255	0xbe693cd6	-0.22777113

bias f4 [64]
0	0x3e1aa67a	0.15102568
1	0xbba96df7	-0.0051705795
2	0x3d408601	0.047002796
3	0x3d255817	0.040367212
4	0xbc97d64d	-0.018534804
5	0x3dc90263	0.09814908
6	0x3cadacdf	0.021200595
7	0xbb8adfcb	-0.004238104
8	0x3e81c9ea	0.2534936
9	0x3e99fce6	0.3007576
10	0x3e4ee859	0.20205821
11	0xbdfcd291	-0.1234485
12	0xbbaac0ce	-0.0052109724
13	0xbdc8231f	-0.09772324
14	0xbe791112	-0.24322918
15	0xbdd5716e	-0.104220256
16	0x3e10fc17	0.14158665
17	0xbd779f1c	-0.060454473
18	0x3c85ae92	0.016318593
19	0x3e63d065	0.22247465
20	0x3d587ae2	0.052851565
21	0x3e08e6d8	0.1336931
22	0x3ea778e4	0.3270942
23	0x3eeca3bd	0.46218672
24	0x3d5bba6d	0.053644586
25	0x3e51f9f4	0.20505506
26	0x3d0cb780	0.034354687
27	0x3dfb9979	0.12285132
28	0x3a820fb6	0.0009922895
29	0xbed3a002	-0.41333014
30	0x3e96a06c	0.29419267
31	0x3e8b52e4	0.27211678
32	0x3e74b3e7	0.23896752
33	0xbe133f0f	-0.14379524
34	0x3dca2905	0.09871105
35	0xbd905ccd	-0.0704895
36	0xbdd3bf77	-0.103392534
37	0x3dd5ef8b	0.1044608
38	0xbd3b19fb	-0.045679074
39	0x3c81c00e	0.01583865
40	0x3d876441	0.06610919
41	0xbdbbeba6	-0.09175806
42	0x3e3d1480	0.18464851
43	0xbd7f3073	-0.062302064
44	0xbdfca2c4	-0.123357326
45	0x3e565810	0.2093203
46	0x3d05d0e9	0.032669935
47	0x3dd8f9a0	0.10594487
48	0x3e3c0fc7	0.18365394
49	0x3ee2fd0c	0.44333684
50	0xbcb0a06c	-0.02156087
51	0x3e453a99	0.19260634
52	0x3eb94433	0.36184844
53	0x3e819155	0.25306192
54	0x3ebe671b	0.37188038
55	0x3e3d60c9	0.18493952
56	0x3e396823	0.18106131
57	0x3cad1b71	0.02113125
58	0x3da40b4b	0.080099665
59	0x3f1b62be	0.60697544
60	0x3c748d2f	0.014926239
61	0x3d6359db	0.055505615
62	0x3d9dc44a	0.07703455
63	0x3e6aad4b	0.22917669

weight f4 [32, 64]
0	0xbda72f11	-0.08163274
1	0xbd953857	-0.072861366
2	0xbdba6c22	-0.09102656
3	0xbe1c6015	-0.15271027
4	0xbdc3bde6	-0.09557705
5	0x3e75de9e	0.24010703
6	0x3e9f8196	0.31153554
7	0x3d1ce091	0.0383001
8	0x3dd1e255	0.102482475
9	0x3d5eb6ac	0.05437343
10	0x3e13bfaa	0.14428583
11	0xbd8f379a	-0.06993027
12	0x3e0f4370	0.13990569
13	0xbcf11b8f	-0.029432086
14	0x3da1cf33	0.07900848
15	0xbd6e93b4	-0.05824633
16	0xbe335e99	-0.17516555
17	0x3c8144e4	0.01577992
18	0xbe5c3443	-0.21504311
19	0x3ec2ccf5	0.38046995
20	0xbc7c8fd0	-0.015415147
21	0x3e58db70	0.21177459
22	0xbc8d1d0d	-0.017225767
23	0x3e4a85c4	0.1977759
24	0xbe370df5	-0.17876418
25	0x3dd12a4c	0.102131456
26	0xbd96d710	-0.07365239
27	0xbdd49dc9	-0.10381658
28	0x3d108d2d	0.035290886
29	0xbca92254	-0.020646252
30	0x3d9a79a8	0.07542735
31	0x3e0e5d24	0.13902718
32	0x3d35312b	0.044236343
33	0xbcb58bdd	-0.022161419
34	0x3e01e20b	0.12683885
35	0xbe57a817	-0.21060215
36	0xbd8b0a54	-0.06789079
37	0x3d931270	0.07181251
38	0x3edbced0	0.42931223
39	0xbd923fe9	-0.07141096
40	0x3d7a6e94	0.06114061
41	0x3d4a1897	0.049339857
42	0x3b0d0183	0.0021515794
43	0x3d60bbc6	0.054866575
44	0x3e19e223	0.1502767
45	0xbcdc1f31	-0.026870342
46	0xbd091362	-0.03346575
47	0x3cb7dd82	0.02244449
48	0x3d49433c	0.049136385
49	0x3e1042b4	0.14087945
50	0xbd6829cc	-0.056680486
51	0xbdfad59a	-0.122477725
52	0x3ec133d6	0.3773486
53	0xbda5cb02	-0.08095361
54	0x3e2d01a7	0.16895162
55	0x3e8792fd	0.2647933
56	0x3eed9c53	0.46408328
57	0x3e10467f	0.14089392
58	0x3e59d211	0.2127154
59	0x3dd936dc	0.10606167
60	0x3da1e0c1	0.079041965
61	0x3d78f124	0.060776845
62	0x3e8a0a0a	0.26960784
63	0xbe59d969	-0.21274342
64	0xbda751da	-0.08169909
65	0x3d3a2b63	0.045451533
66	0xbdf4f0b1	-0.11959971
67	0xbdd7f486	-0.10544686
68	0x3e2d6070	0.16931319
69	0xbe9e9825	-0.30975452
70	0xbdba04e1	-0.09082962
71	0xbdad4cc3	-0.08461907
72	0xbe386e26	-0.18010768
73	0xbdb01025	-0.08596829
74	0xbb9f1807	-0.004855159
75	0x3dadaad1	0.08479846
76	0xbe189c18	-0.14903295
77	0xbd9ea2e8	-0.07745916
78	0x3dcaa993	0.09895625
79	0x3d2122b8	0.03933975
80	0xbe0be6fc	-0.13662332
81	0x3dcc72c2	0.09982826
82	0xbbc798d8	-0.0060912184
83	0xbe08ea17	-0.13370548
84	0xbd40ceea	-0.04707233
85	0xbe7dbeae	-0.2477977
86	0xbd77d2d6	-0.060503803
87	0xbdfaebbf	-0.12251996
88	0xbe1e1761	-0.15438606
89	0xbc19e2aa	-0.00939242
90	0xbd6032c0	-0.0547359
91	0xbc6918ca	-0.014227102
92	0x3d0d2a8e	0.03446441
93	0x3d1641a1	0.036683682
94	0xbd900044	-0.07031301
95	0xbdb2ff52	-0.08740105
96	0xbe158f20	-0.14605379
97	0x3daaf1d2	0.08346905
98	0xbd250b8c	-0.040294215
99	0xbc776137	-0.015098861
100	0xbe020779	-0.12698163
101	0xbe8ffe17	-0.28123543
102	0xbe5f2f76	-0.21795449
103	0x3cc23239	0.023705589
104	0xbd8e282c	-0.06941256
105	0xbe425c89	-0.18980612
106	0xbd6c3aef	-0.05767339
107	0xbe089f67	-0.13342057
108	0xbd480fd4	-0.04884322
109	0x3d0967aa	0.033546127
110	0xbe71bed1	-0.23607947
111	0xbced5b88	-0.02897431
112	0xbe0f557d	-0.13997455
113	0x3d9d0050	0.07666075
114	0x3dc63a88	0.09679133
115	0xbe0333db	-0.1281275
116	0xbe29bec6	-0.1657668
117	0xbda990d8	-0.0827958
118	0xbe2fb59b	-0.1715912
119	0x3c6fa78f	0.014627351
120	0x3de6e92a	0.11274941
121	0xbe449ac6	-0.19199666
122	0x3d3318b6	0.043724738
123	0xbd8cfa7a	-0.06883712
124	0xbe2f284b	-0.17105214
125	0xbdf941ca	-0.121707514
126	0x3ca1a558	0.019732162
127	0xbcb9995e	-0.022656139
128	0x3f04091d	0.51576406
129	0xbea87364	-0.32900536
130	0xbd971d0e	-0.073785886
131	0xbe08fe5f	-0.13378285
132	0xbe14273b	-0.1446809
133	0x3e894932	0.26813656
134	0xbd82f7fe	-0.06394957
135	0x3da38de2	0.079860464
136	0xbd666fa5	-0.056258816
137	0x3ebd6a7d	0.36995307
138	0xbe25b240	-0.16181278
139	0x3c2ab3d1	0.010418848
140	0x3dcfa6b9	0.10139222
141	0x3a67612f	0.0008826432
142	0x3e4a0640	0.19728947
143	0x3c7f3457	0.015576444
144	0x3c11ee92	0.008906977
145	0x3d90a83d	0.07063339
146	0xbe57e97a	-0.21085158
147	0x3e0cfb73	0.13767795
148	0xbd9ff8e7	-0.07811146
149	0x3d0bc633	0.034124564
150	0x3e35d228	0.1775595
151	0x3e370584	0.17873198
152	0xbdc84fe6	-0.097808644
153	0x3e9bc18d	0.30421105
154	0xbd68fd7a	-0.05688236
155	0xbe258a81	-0.16166116
156	0x3ddcdcf9	0.10784335
157	0x3e55920c	0.20856494
158	0x3ec96e1d	0.39341822
159	0x3dfb57cf	0.122726075
160	0x3e1b0576	0.15138802
161	0x3dca9361	0.098913915
162	0x3ed7984d	0.42108384
163	0x3e072d46	0.13200864
164	0x3ce7641a	0.028245974
165	0x3e9646e9	0.29350975
166	0xbd1c597e	-0.038171284
167	0xbcce9af6	-0.025220376
168	0xbe1bdf82	-0.1522198
169	0x3d335fce	0.04379254
170	0x3b486c87	0.0030582265
171	0x3e27d18c	0.1638853
172	0x3d9e0690	0.077160954
173	0xbdf61062	-0.120148435
174	0x3d9e9dfb	0.07744976
175	0x3d46e07b	0.048553925
176	0x3dc29013	0.09500136
177	0x3ea64112	0.3247152
178	0x3d6aa8d1	0.057289902
179	0xbd26b9fd	-0.040704716
180	0xbcfd987a	-0.030956496
181	0xbbfc16df	-0.007693156
182	0x3e61d72c	0.22054738
183	0x3d9d860a	0.076915815
184	0x3e31c82d	0.17361517
185	0xbe05c240	-0.13062382
186	0x3bce5373	0.006296569
187	0x3e4a468a	0.19753471
188	0x3e0069d6	0.12540373
189	0xbd8159da	-0.06315966
190	0x3d875779	0.06608481
191	0x3e26e389	0.16297735
192	0x3ce7e6cf	0.0283083
193	0x3bbaa7cc	0.0056962725
194	0x3dfc7a66	0.12328033
195	0x3e417bc5	0.1889487
196	0xbe8ec7fe	-0.27886957
197	0x3eb8e7db	0.36114392
198	0x3e44d9be	0.19223687
199	0xbd69ffec	-0.05712883
200	0x3de50e7e	0.11184405
201	0x3e3860bf	0.18005656
202	0x3e36240f	0.17787193
203	0xbdbe1435	-0.09281198
204	0x3dc5e430	0.09662664
205	0x3d8a0574	0.06739321
206	0x3e9a79d4	0.30171072
207	0xbdc05b27	-0.09392386
208	0xbd79beb1	-0.060972873
209	0xbd7bf2a2	-0.06151069
210	0x3bd4c489	0.0064931554
211	0x3e110425	0.14161737
212	0xbdfffb0e	-0.12499057
213	0x3e73231b	0.2374386
214	0x3e11ee02	0.14250949
215	0xbe4e2bfd	-0.20133968
216	0x3e387c94	0.18016273
217	0x3e2a59a4	0.16635758
218	0x3c8ec32d	0.017427051
219	0x3ea7afb4	0.32751238
220	0x3d97d3eb	0.07413467
221	0x3cfa3f8d	0.030547881
222	0x3e7775df	0.24166058
223	0x3e1d64b3	0.15370445
224	0xbcbca4d9	-0.023027824
225	0xbcbe3530	-0.023218721
226	0x3deffaf0	0.117177844
227	0xbe947e0d	-0.2900242
228	0xbd9d9c13	-0.076957844
229	0x3d2c6cb7	0.042095866
230	0x3db0f597	0.086405925
231	0xbd90f4d6	-0.07077949
232	0x3e2a0866	0.16604766
233	0x3eff59ca	0.4987319
234	0x3d8716f1	0.065961726
235	0xbd0b4cb0	-0.03400868
236	0xbca6597c	-0.020306341
237	0x3dfb9bbf	0.122855656
238	0x3dc54463	0.09632184
239	0xbd54c5a7	-0.05194631
240	0xbd8484cd	-0.06470642
241	0x3e390c12	0.1807101
242	0x3be289af	0.006913386
243	0x3e4141bc	0.18872732
244	0xbf3436c4	-0.70396066
245	0xbe1025df	-0.14076947
246	0x3d9079fc	0.07054517
247	0x3e8be846	0.27325648
248	0x3d53c6b7	0.05170318
249	0x3e383255	0.1798795
250	0x3c40054c	0.011720013
251	0x3ddb6e78	0.107144296
252	0x3d9cf3f7	0.0766372
253	0x3dac18b1	0.08403147
254	0xbe1f00bd	-0.15527625
255	0x3eb22d3f	0.34800145

bias f4 [32]
0	0xbcd1d082	-0.02561212
1	0xbde59a9e	-0.112111315
2	0x3ec1611d	0.37769404
3	0x3e6e469b	0.23269121
4	0x3e573baa	0.21018854
5	0xbddf8bec	-0.1091536
6	0x3e1fd24b	0.15607564
7	0x3e570122	0.20996526
8	0x3e462f96	0.1935409
9	0x3cb56539	0.022142993
10	0x3de677a6	0.1125329
11	0x3e46cd27	0.19414197
12	0xbebb8210	-0.36622667
13	0x3e1bcb47	0.15214263
14	0x3ddaa7bd	0.10676525
15	0xbd4947c2	-0.0491407
16	0x3e39cc34	0.18144304
17	0x3e854945	0.26032463
18	0x3edda3dd	0.4328908
19	0x3ed406df	0.41411492
20	0x3e9b5a40	0.30342293
21	0x3d0516ce	0.03249245
22	0x3e171d5b	0.14757292
23	0x3e452f8b	0.19256417
24	0xbefe653f	-0.4968662
25	0x3e362f9e	0.17791602
26	0xbe0f1e75	-0.13976462
27	0xbd824368	-0.06360513
28	0x3dfd6541	0.12372828
29	0xbd8f31c4	-0.06991914
30	0x3e9497a4	0.29021943
31	0x3dafff50	0.08593619

weight f4 [12, 32]
0	0xbc1b6061	-0.009483428
1	0x3c2f3875	0.010694613
2	0x3d0036c5	0.031302232
3	0xbe2b168c	-0.1670782
4	0xbdd1d97e	-0.102465615
5	0x3e1d8e43	0.153863
6	0xbdbb61a3	-0.09149482
7	0x3dfbaf88	0.12289339
8	0x3e738449	0.23780932
9	0x3e866f3e	0.26256746
10	0x3dec8acd	0.11549912
11	0x3e3d3196	0.18475947
12	0x3e83248d	0.25613824
13	0xbc2b1e0f	-0.010444178
14	0x3e6c52ee	0.2307851
15	0xbe17a7ef	-0.14810155
16	0xbc5cf921	-0.013487131
17	0x3c95e0a0	0.018295586
18	0x3e98feb9	0.29881838
19	0x3e2a136c	0.16608971
20	0x3d13b2d9	0.036059234
21	0x3ce6845e	0.02813929
22	0xbe247aca	-0.16062465
23	0x3eb0ecb0	0.34555578
24	0x3d0ffae1	0.035151366
25	0x3e8fdabc	0.2809657
26	0xbdb09887	-0.08622842
27	0xbdd8211f	-0.10553192
28	0xbe1bee6b	-0.15227668
29	0xbe1e7771	-0.15475251
30	0xbde51203	-0.11185076
31	0xbe82ae22	-0.25523478
32	0x3ddbb33d	0.10727546
33	0xbe374373	-0.17896824
34	0x3cdfe3d9	0.027330326
35	0x3d3201f8	0.04345891
36	0x3e115fbd	0.14196678
37	0x3d768a7f	0.060190674
38	0xbe025645	-0.12728222
39	0x3e6aaa93	0.22916631
40	0x3e34026b	0.17579047
41	0xbd92d9e3	-0.07170465
42	0x3e886e98	0.26646876
43	0x3e0aec41	0.13566686
44	0x3deb3f66	0.11486702
45	0x3e799f2a	0.24377123
46	0xbef2288d	-0.47296563
47	0xbdac63e7	-0.08417492
48	0x3e465175	0.19367011
49	0x3d0bb78b	0.034110587
50	0x3e70efa3	0.23528914
51	0x3e2cefcc	0.1688835
52	0x3dbd145f	0.09232401
53	0xbc450cb3	-0.0120269535
54	0x3e9fda12	0.31221062
55	0x3c8c9a9c	0.017163567
56	0xbe977ebe	-0.29588884
57	0x3e963b4b	0.29342112
58	0x3d06d77b	0.032920342
59	0xbb9de271	-0.0048182537
60	0x3d06a9a8	0.03287664
61	0x3d2a8feb	0.041641157
62	0xbd221439	-0.039570067
63	0xbe5dd5bd	-0.21663566
64	0x3b6d0662	0.0036167135
65	0xbdbad173	-0.091219805
66	0x3e2fcfc7	0.17169105
67	0x3e8db449	0.2767661
68	0xbd2599b0	-0.04042977
69	0x3e45dd1c	0.19322628
70	0xbda5b96d	-0.08092008
71	0xbca75fa2	-0.020431343
72	0x3ea048d8	0.31305575
73	0x3d1a5787	0.03768113
74	0xbd5e0abb	-0.054209452
75	0x3b0af5d8	0.0021203663
76	0x3e0f647a	0.14003173
77	0x3e153b86	0.14573488
78	0xbd27d224	-0.04097189
79	0xbcf00687	-0.029299987
80	0x3ea08e8c	0.31358755
81	0x3e06f574	0.1317957
82	0x3d2588e5	0.040413756
83	0xbcf8a3d5	-0.030351559
84	0xbd3fedaf	-0.046857532
85	0x3dca86fa	0.09889026
86	0xbe8da1b4	-0.27662432
87	0x3e804899	0.25055388
88	0x3e9141e6	0.2837059
89	0x3dfacaf3	0.12245741
90	0xbd9a6318	-0.07538432
91	0x3cec2ef1	0.028830977
92	0x3cab1e4e	0.020888474
93	0xbe3e4b4d	-0.18583412
94	0x3dbe5b6c	0.09294781
95	0xbd0db3d1	-0.034595314
96	0x3eaa672a	0.33281833
97	0xbdaa8b12	-0.08327307
98	0x3eb8d8a5	0.36102787
99	0xbcf31a0f	-0.029675512
100	0x3ead734f	0.33877036
101	0x3d9ef886	0.07762246
102	0xbe197292	-0.14985111
103	0xbbece870	-0.007229857
104	0x3e7db711	0.24776866
105	0xbe28b39f	-0.1647477
106	0x3cb5ba5b	0.022183588
107	0xbdecf5af	-0.11570298
108	0x3e46f8f2	0.19430903
109	0xbe071218	-0.13190496
110	0x3de4c810	0.111709714
111	0x3df4e2ff	0.119573586
112	0x3e5766d5	0.21035321
113	0xbc58443c	-0.013199862
114	0x3e65cc35	0.2244118
115	0xbc86954a	-0.016428608
116	0x3e01b1bd	0.12665458
117	0xbdd764c3	-0.10517266
118	0x3e17cc47	0.1482402
119	0xbd979daa	-0.07403119
120	0x3c76dfe5	0.015068029
121	0xbd79477a	-0.06085918
122	0x3959a561	0.00020756341
123	0xbde22364	-0.110419065
124	0xbe7fe39e	-0.24989173
125	0x3e7e48bb	0.24832432
126	0x3e943646	0.28947657
127	0xbc98b8c2	-0.018642787
128	0x3e376dc0	0.1791296
129	0x3ddb3480	0.10703373
130	0x3df11795	0.11772076
131	0x3e9fbae5	0.31197277
132	0x3cd9aa22	0.026570383
133	0x3e016993	0.1263793
134	0xbf8b1d8e	-1.0868394
135	0xbeb156ba	-0.3463648
136	0xbde46100	-0.11151314
137	0x3e11fc97	0.14256512
138	0x3de466c7	0.11152416
139	0x3e08da17	0.13364445
140	0xbc6ce665	-0.014459227
141	0xbe14e6cd	-0.14541169
142	0x3e761224	0.24030358
143	0xbe1ea33f	-0.15491961
144	0xbd19cea9	-0.037550602
145	0xbdb93e3f	-0.090450756
146	0xbd9e257e	-0.07721995
147	0x3d2bd82b	0.0419542
148	0x3df378e2	0.11888291
149	0xbdc382c3	-0.09546425
150	0xbd674f15	-0.056471903
151	0xbe9ca5a1	-0.30595115
152	0x3e5da113	0.21643476
153	0x3eb4482e	0.3521132
154	0xbd6cd2a1	-0.05781806
155	0x3d3a42ed	0.04547398
156	0x3dd804ad	0.10547767
157	0x3d5a2b07	0.05326369
158	0x3b6ca34d	0.0036108077
159	0xbe78639b	-0.24256746
160	0x3dc4ec8b	0.096154295
161	0xbe1cd109	-0.15314116
162	0x3ca73780	0.020412207
163	0x3e31bff6	0.17358384
164	0x3e27b204	0.16376501
165	0x3d3f804c	0.046753213
166	0xbb367f03	-0.00278467
167	0x3ea43584	0.3207208
168	0xbe00e7a1	-0.1258836
169	0x3bfb4bbf	0.0076689417
170	0x3e686926	0.22696361
171	0xbd73fc01	-0.0595665
172	0x3e0cf7b4	0.13766366
173	0xbd9ffb05	-0.0781155
174	0x3e6261b7	0.22107588
175	0x3d52df62	0.051482566
176	0x3d880bd5	0.06642882
177	0xbdd6846d	-0.10474477
178	0xbf025f3c	-0.50926566
179	0x3d565c61	0.052334193
180	0x3ec7676b	0.3894609
181	0x3a378158	0.000700017
182	0xbe8d2f99	-0.27575377
183	0x3ebf7e62	0.3740111
184	0x3ebfc174	0.3745228
185	0x3e35be54	0.17748386
186	0x3e1fde9c	0.15612262
187	0xbd727252	-0.059191056
188	0xbed51413	-0.41616878
189	0xbd05c122	-0.03265489
190	0xbe8ae696	-0.27129048
191	0x3e8d3ada	0.27583963
192	0xbd38ddcb	-0.045133393
193	0x3d93a9ba	0.07210107
194	0xbe251459	-0.16121043
195	0xbe63efb0	-0.22259402
196	0x3de4ca08	0.11171347
197	0xbe247e07	-0.160637
198	0x3df44518	0.11927241
199	0xbe39bd7c	-0.18138689
200	0xbaa382ab	-0.0012474855
201	0x3d7eef4c	0.06223993
202	0xbd3d1748	-0.04616478
203	0x3d346812	0.04404456
204	0x3d0b1f27	0.033965256
205	0xbdd1ab42	-0.10237743
206	0xbe05ac64	-0.13054043
207	0xbe0a6aa4	-0.13517243
208	0xbbd960b7	-0.0066338438
209	0xbdba0da7	-0.09084635
210	0x3ccb2e83	0.024802452
211	0x3dd5bab9	0.10436005
212	0xbd68c547	-0.056828763
213	0x3d980cc5	0.074243106
214	0x3cea57ac	0.028606258
215	0x3df9daf3	0.121999644
216	0x3d9bcf54	0.07607904
217	0xbe42dadd	-0.19028802
218	0xbe3f4dcb	-0.1868202
219	0xbd642efc	-0.05570887
220	0x3c82e4e8	0.015978292
221	0x3d99f24a	0.07516916
222	0xbddd7950	-0.10814154
223	0x3df24383	0.11829283
224	0xbcd41403	-0.025888449
225	0x3e0fa827	0.14028989
226	0x3db989f4	0.090595156
227	0xbe431c81	-0.19053842
228	0x3d0d119a	0.034440614
229	0xbd8c8c3c	-0.06862685
230	0x3da7b018	0.08187884
231	0xbb7dac88	-0.0038707573
232	0x3d5de2ed	0.05417149
233	0xbd9a620b	-0.075382315
234	0xbe2880cb	-0.1645538
235	0xbce9ac48	-0.028524533
236	0xbe313509	-0.17305388
237	0xbdba3063	-0.0909126
238	0xbc4f29f6	-0.012644282
239	0x3e0cdd23	0.13756232
240	0xbdd47b40	-0.103750706
241	0x3c3f6c4d	0.011683536
242	0xbcdee7e8	-0.02721019
243	0xbd785fc2	-0.060638197
244	0xbe3ca1be	-0.18421075
245	0x3d1a64b4	0.037693694
246	0x3dba1070	0.090851665
247	0x3d5046ad	0.05084865
248	0x3c1a98ec	0.0094358735
249	0xbcb88b08	-0.022527233
250	0x3e13c140	0.14429188
251	0x3e1777c8	0.14791787
252	0x3e03c4d8	0.12868059
253	0xbe04915d	-0.12946077
254	0x3db1578d	0.08659277
255	0x3d5547c2	0.052070387

bias f4 [12]
0	0xbcc569ee	-0.024098363
1	0x3eb16c36	0.3465287
2	0x3e9a078e	0.3008389
3	0x3e01d55f	0.12679051
4	0x3e0b38d0	0.13595891
5	0x3e3cd253	0.18439607
6	0x3dffe870	0.12495506
7	0xbdbee05f	-0.09320139
8	0x3e7df585	0.2480069
9	0x3dcc3835	0.09971658
10	0x3d71f69f	0.059073087
11	0xbda58980	-0.08082867
