AE Models/12lat1.268loss.pth (torch, 118242 bytes, 27 tensors)

weight f4 [16, 1, 4]
00000000: a8c9 443d f3cc 98bd b39a 713a cdd6 d0bc
00000010: 5be1 863d e7da 183e ad1e a33d 76d7 d03c
00000020: b066 d83d 8d34 0fbd d0ab fd3d cd9c 02be
00000030: dffe eebd 75b6 1d3d 8c20 aebd eab1 533e
00000040: e08c 3ebe 642f e7bd 0f7a 94bd 9f49 e3bd
00000050: 8717 de3d 87cc fc3d fab7 c0bd 250c 18be
00000060: 0086 0bbe e777 c63d ea9c 19bd 5def 963d
00000070: 6f9d 29be 30bb 92bd b6fd db3c e238 463e
00000080: feb2 94be fcc4 84be aaa9 eebe d6c8 e3bd
00000090: d535 a5be bae5 27bd c4bc bd3d b5cb 1b3e
000000a0: 371c d93d 3bcc f5bc 301c df3d 7660 3cbe
000000b0: c83c 99bd ffee 76bc 30e1 59bc 3518 e6bd
000000c0: 4df1 ed3c fda9 823d c969 0c3e 850f a53d
000000d0: 3209 5c3d 8216 a0bc db4d f1b9 d7ce 423d
000000e0: c39f f83d 16b8 da3d 2532 dfbb a309 9dbd
000000f0: 0b90 cfbd b674 213e f203 30bd a887 85bd
0.048043877 -0.07460966 0.00092164724 -0.02549305 0.06585952 0.14927255 0.07964835 0.025493365
0.10566461 -0.034962226 0.12386286 -0.12755127 -0.116697066 0.038504083 -0.085023016 0.20673338
-0.18608427 -0.11288336 -0.07249843 -0.110980265 0.10844331 0.12343698 -0.09410091 -0.14848383
-0.13625336 0.09690838 -0.03750316 0.07369874 -0.16563962 -0.071646094 0.026854377 0.19357637
-0.2904281 -0.25931537 -0.46613818 -0.11122291 -0.32267633 -0.04099057 0.0926452 0.15214427
0.10601085 -0.030004611 0.10894048 -0.18396172 -0.07482296 -0.01507163 -0.013298318 -0.11235086
0.029045725 0.06380079 0.13712229 0.08059601 0.053719707 -0.019541983 -0.0004602511 0.04756054
0.12139847 0.10679643 -0.0068113976 -0.07667854 -0.10134896 0.15767178 -0.042972513 -0.06520015

bias f4 [16]
00000000: 562d 8d3f 5280 0cbf 297a 233e 17f5 153f
00000010: bd1d 433f 8a6e 7b3c 494c 523e 0c11 6c3c
00000020: 519c 58bc e127 91bf 7514 b7be 6899 a93f
00000030: 5144 eb3e ea7c 04bb b28e b03d 101a 033e
1.102946 -0.548833 0.15964569 0.585771 0.7621725 0.015346179 0.20536913 0.014408361
-0.0132208625 -1.1340295 -0.35757795 1.3249941 0.4595056 -0.0020216056 0.08620967 0.12802911

weight f4 [16, 16, 4]
00000000: 4229 e13a 53b6 7a3d 1c93 eabe d0c7 39be
00000010: b65f f33d bf35 703e 7730 853e 437c d03d
00000020: 7d85 aabd 787c 193c d49c df3d 3acb 5ebd
00000030: e93c 963c ce43 eebc b509 6fbd 1b24 d1bb
00000040: a06a c2bc 880b 44be 35c0 713e 6506 2cbe
00000050: 6e2d c6bc bf27 393d 61be 23bd 0cbe 14bd
00000060: 275e bd3d 78a1 503d 2154 8e3d 37a8 e43d
00000070: 2b34 90bd a2fa 413d 589e e6bc 1480 80bd
00000080: 20d7 0fbd 6a5e 93bd 760c 8cbd 858a e839
00000090: bb90 2a3d 8494 693e 5752 4c3e e4b7 b93d
000000a0: a037 fc3d 5455 cc3d 4dff d73d 3b16 9a3d
000000b0: 8d9c e1bc 65e8 8f3e 036d 0d3e 4ddb d1bc
000000c0: 8ca9 c73d 32e6 ed3d 627e 403d ba6a 133d
000000d0: caf2 f83c eb71 c83d acf3 093e 008b 27bd
000000e0: 96b0 d0bc eb51 d4bd 57c8 74bd d78b 523a
000000f0: 0787 1fbe dfb7 a9bd 90f6 a1bd 3062 e9bd
00000100: 4af8 31be 011e 0b3e cd27 3e3d 9b6b 0cbe
00000110: 23ce f9bc b9b2 f13b 7714 9dbd 8ed1 1cbe
00000120: 92f7 69be 0d37 3abe 88be 12bd 0046 ee3d
00000130: 7283 443e 1fa6 743e d877 e83c 1819 58be
00000140: a80c 123f b7a7 bfbe c4bd 0f3f 8997 7ebf
00000150: b523 5cbe 4a88 2f3e b8c6 be3b 1808 4bbe
00000160: 2330 1d3e 5ea0 8ebd d140 27bd b9ca ecbe
00000170: 43f5 d8bd ecea ea3d a6cb 723e 32cd 573d
00000180: cc87 e7bd 9607 563d 4204 453d 341b bb3d
00000190: 3989 2c3d 79ab 1a3e b801 85be d7cb e23e
000001a0: 5520 e93c 7475 83bd b89d e13d 602e 793e
000001b0: c86f 37be 22ef 21bf 178f f3be 23cb c7bd
000001c0: 82c7 bc3d e49f 26bc f58c 9c3e a68d babe
000001d0: 5d8e b1bd c37b 9d3b 154e 2f3e 3a79 9abe
000001e0: f328 5bbe 26e2 06be 3d79 8b3d 7f96 29be
000001f0: 8d87 f83d 0f4a a73e 8ab0 2a3e 017a ac3e
00000200: 01db b93e 59f1 b0bd 41d0 593d 722e b8be
00000210: ec80 0e3e 6157 b53d 7dd3 1c3d 975b 093d
00000220: ed29 423d 827f adbd e73f ee3d 698f 89be
00000230: 65e8 56be 7fc2 47bd 5f36 d9bc 5266 293e
00000240: a6de 93bf fde4 11bd ca53 833e a5bb 08c0
00000250: de0a debc d2c7 803d 5442 28be 9226 083e
00000260: 7312 563d 155b 62bb a582 10be b74b e13d
00000270: ae0f ed3c 75c6 cf3d 262c 4e3b d894 64bc
00000280: 72a3 573d d532 a1bd 8f05 babd adea 413d
00000290: 6e7b 0abe e2a1 453e 0f23 903d 5f51 ca3e
000002a0: 9ca9 0f3e 210c 543e 024b a73d b543 ff3d
000002b0: 9f8e 1f3e 9ebd 35be 7212 00be 7e5c a3be
000002c0: 3122 2f3d 1f4d 31bd 6765 8e3e d388 2cbe
000002d0: 4dca 053e bdee 633e f2c1 26bd 0751 ad3b
000002e0: ee06 b83d bb8d 8b3d 7311 19bd b904 6ebe
000002f0: 7b69 71be 8a34 73bc 3d17 3b3d 3143 143e
00000300: 2fb6 7abd 16da dfbd 6278 bebe ca51 cfbd
00000310: d150 0c3e a3d2 2dbd f2f2 e43d 2e4a 353e
00000320: fd0f 3e3d 63c0 b3bb d817 a63d 222a 4fbe
00000330: 6151 0b3e 952e b23c 5ee6 00bd 701a 343e
00000340: ffc5 9abe 485f cf3c b895 adbe 0785 1fbf
00000350: 2530 08bd 7638 88bc 00cd 04be a319 bdbd
00000360: 9a4c a9bc 9c2b 483c 5dad 7c3c e39a bd3d
00000370: be33 2fbd fa23 9abd ebed 06be a9c0 7abe
00000380: 381c 5cbb d8ed 12bd a395 69bd bd66 b43d
00000390: 44d0 383e ad4f dc3d af0f b5be 5348 2dbe
000003a0: 7d09 13bd b14b 8f3d 3488 01be 387f 07be
000003b0: ecee 223e 7c4e 383e 8c71 1d3e b2d3 3b3e
000003c0: e91f f73d a509 7abb 83c4 d73c 6b63 143e
000003d0: 9c03 9eba 8fc4 8abd a800 68be 75c1 2ebb
000003e0: 42a0 74bb 0565 6e3c 72b7 a33d b93f 0d3e
000003f0: b20b c5bc 6bbd 353c f54c 9a3d e205 303d
0.0017178433 0.061209034 -0.4581536 -0.18142629 0.1188349 0.23458003 0.26013538 0.10179951
-0.08326242 0.009368055 0.109185845 -0.05439303 0.018339591 -0.029085066 -0.058358867 -0.006382478
-0.023732483 -0.19145024 0.23608477 -0.16799314 -0.024191584 0.04520392 -0.03997648 -0.036314055
0.09246474 0.05093524 0.0694964 0.11164897 -0.070412 0.047358163 -0.028151676 -0.06274429
-0.03511727 -0.071957424 -0.06838314 0.00044353693 0.041641932 0.2281056 0.19953285 0.090682775
0.12315297 0.099772125 0.10546742 0.075237714 -0.02754047 0.2810699 0.13811116 -0.025617266
0.097491354 0.11616172 0.046995528 0.035990454 0.030389208 0.09787353 0.1347186 -0.040904045
-0.025474828 -0.10367187 -0.05976137 0.0008031702 -0.15578853 -0.08287024 -0.07908356 -0.11395681
-0.17379871 0.13585664 0.046424676 -0.13712923 -0.030493801 0.0073760417 -0.07669919 -0.15314314
-0.22848347 -0.18185063 -0.035826236 0.11634445 0.19190767 0.23891495 0.028377458 -0.21103323
0.5705056 -0.37432644 0.56148934 -0.99449974 -0.21497996 0.17141834 0.005822029 -0.19827306
0.15350394 -0.06964181 -0.040833298 -0.46248415 -0.10593655 0.11470589 0.23710498 0.052685924
-0.11305198 0.05225333 0.048099764 0.09136048 0.042123053 0.15104474 -0.25977874 0.44296142
0.0284578 -0.06418887 0.110164106 0.24334097 -0.17913735 -0.6325551 -0.47570106 -0.09755542
0.092177406 -0.010169957 0.30576292 -0.36436194 -0.08669732 0.0048060133 0.1711963 -0.30170614
-0.2140234 -0.13172206 0.06810234 -0.16561316 0.12135229 0.3267369 0.16668907 0.33686832
0.362999 -0.086397834 0.053177122 -0.35972935 0.13916367 0.08854557 0.03828763 0.033534613
0.047403265 -0.08471586 0.11633282 -0.26867226 -0.20987089 -0.04876947 -0.026515184 0.16542938
-1.1552322 -0.03561877 0.25649863 -2.136453 -0.027104791 0.06288113 -0.16431552 0.13295963
0.05226369 -0.0034539152 -0.14112337 0.110007696 0.02893814 0.101452745 0.003145942 -0.013951503
0.052646108 -0.078710236 -0.090830915 0.047342945 -0.13523647 0.19300035 0.07037937 0.39515206
0.14029545 0.20707752 0.081686035 0.12464086 0.1558175 -0.17748114 -0.12507036 -0.31906503
0.042757217 -0.04328644 0.2781174 -0.1684907 0.13065453 0.2225904 -0.040712304 0.0052892
0.08985697 0.06814142 -0.037370156 -0.23243989 -0.23575394 -0.014844069 0.04567646 0.14478756
-0.0612089 -0.109302685 -0.3720122 -0.10123022 0.13702704 -0.042437207 0.11179151 0.17704079
0.046401966 -0.005485581 0.081100166 -0.20230916 0.13605262 0.021750728 -0.031469695 0.1758821
-0.30229184 0.025313988 -0.3390329 -0.6231236 -0.03324904 -0.016628485 -0.12968826 -0.092334054
-0.02066641 0.012217429 0.015422192 0.09258058 -0.042773955 -0.07526393 -0.13176696 -0.24487557
-0.0033586156 -0.035871357 -0.05702747 0.08808658 0.18048197 0.107573844 -0.35363528 -0.16922121
-0.03589772 0.06996859 -0.12649614 -0.13232124 0.15911454 0.1799869 0.15375346 0.18342474
0.12066633 -0.0038152721 0.026338821 0.1449105 -0.0012055519 -0.06775772 -0.226565 -0.0026665602
-0.0037326966 0.014550452 0.07993974 0.1379384 -0.024053428 0.011092524 0.0753421 0.04297436

bias f4 [16]
00000000: cc35 28bf 8933 283f be49 2abe 4599 d1be
00000010: 0d5a 49be 39e3 973e 9348 993d bf83 00be
00000020: 5922 023e 4aca 06bf 0979 13bc 47df 333f
00000030: cd15 4d3f 6c74 ed3c 6187 3abe eaab 06be
-0.6570709 0.65703636 -0.16629693 -0.40937248 -0.19663258 0.29665545 0.074845456 -0.12550257
0.12708415 -0.5265242 -0.009001025 0.7026257 0.8011139 0.028986178 -0.18215705 -0.13151518

weight f4 [16, 16, 5]
00000000: 76e9 44be 54ca fe3d 6794 2cbd 6280 173e
00000010: e120 16be 0b8f ddbd 584f 2c3e 26aa 933e
00000020: 9bf5 5ebd 1350 bc3d ef92 c9bb 9144 863c
00000030: 1eac 24be aae4 96be e541 e1bc e1f5 9fbd
00000040: 06d0 b9be 0a6c 5f3c d216 80bb ff9a a83d
00000050: 25cb 73be 8589 8c3d bd1e 9fbd 39ec 29be
00000060: 63d3 f53d 9b59 2f3e c606 273d 93f4 28be
00000070: 961c 93be fbd0 d93e ccf8 bbbd 11c0 c4bd
00000080: e3d9 473d 816c ea3c 156c 5f3b 83aa bbbd
00000090: f6ec 85bd 12de bc3d d1be 42bd c61f 29be
000000a0: 2b4e 263e 4cca b1bc ede3 093e bae8 debc
000000b0: 4918 033e 636d be3c f9f5 b03d 72ee 1dbf
000000c0: 8415 023f 3bcf 393e 8afa 633d 62f9 07be
000000d0: 4b1a 313d 9ad8 3f3e 44c2 9c3d 638b 82be
000000e0: 99c0 81bd e76d 2bbf 862e 983e 062b c43d
000000f0: 5543 9f3c 34f3 033d ff4d 84bd 2676 893d
00000100: bfaf 863d 2039 11bf 4533 41bd b011 38be
00000110: 2bcb 093d 966a ecbc 2dc3 c73d 6447 c4bd
00000120: f445 3abd c525 91bd 8105 b0bd 7853 0abe
00000130: 9e4c edbd 1fdf 4abe a65d 66bd 2b6e 9d3e
00000140: 30b5 34bb d024 3cbd 077d 11bc e71e 213d
00000150: 22cd ca3d 1e56 11be cde5 d2bc 14ae 87bd
00000160: df8e 303d cea8 50bd 143d e63d 80b9 873c
00000170: b343 7fbd 793e 61be 153f 55be 07af c93d
00000180: 508a ad3d 260d c93d cde5 02be d609 2bbd
00000190: cab6 183e 02f4 8c3d 2d3b 2cbc e123 eb3b
000001a0: 5e72 79bd 0215 8539 63cb 513e b424 afbd
000001b0: 9bc4 963d ff0a 843d 315d 9e3d 4859 cd3c
000001c0: 890b 4fbd 7068 d7bb c0f5 39be 85e6 873c
000001d0: 393e d4bd 0a73 953c d30f 74bd b681 1f3c
000001e0: 0e9b a3bd 6894 213c 9d1d 7ebd 6116 b1bd
000001f0: 5bb1 0b3d 697c dabd 4de8 24bd 3ee9 df3d
00000200: b4cd 303e 861a e63d b1c4 97bd e3fd d93d
00000210: 18ec 843e 0360 453e fa6a 4e3e 17de 383d
00000220: adea 0fbe aa89 623d de19 3a3e 562b 073e
00000230: 8760 5f3d 7c04 9e3d 9e59 6d3d ddfb 503e
00000240: 30d8 813d d796 7b3d a35e d03d c1e4 573d
00000250: bdc9 703e f656 223e 1ae6 57bd 46db 86bc
00000260: 264a 2f3e c141 3c3e 6c9d 553e 6dc4 b23d
00000270: 0a0d 6fbd 1eb2 a13e 47f1 943e ed2f ff3d
00000280: 7dec 2b3e 4c81 f53b 153d a83d 3891 41bc
00000290: 0a6b 0fbe 2fe3 8d3e 62c7 6f3e e6f2 093e
000002a0: 4a6f 8e3d f87e ad3d d0ea 33bd 5adb bb3b
000002b0: cc65 91bc c349 b8bd 420b dc3d 4664 81be
000002c0: e346 a33d 1c8d 71bd cadf be3d 4b25 c33d
000002d0: fa5b fd3d a6f8 af3d d387 c43c 9f5d 033e
000002e0: 6534 123e 615d c7bd f407 9fbd 8712 813d
000002f0: d650 09bd 29cb 983d a86d 6a3d aa7b 9bbd
00000300: 6f3e febd b1d4 5a3c 1d7b 463e 9f2a 38bd
00000310: e9e7 19bd 07a4 e2bd 337f 9abd f792 dd3d
00000320: 246a 303e 1e97 343e b7b4 03bd f06e bf3d
00000330: dbb5 18bd 3af9 ab3e 271d 0c3e 4b22 293e
00000340: 57b4 a83d 849e d8bd f8e2 d33d 1b86 1e3e
00000350: a5e0 e33d 5dfc f9bd 42d1 7e3d 4e22 083e
00000360: e028 e1bd 3bc5 afbe 35cc 44be a1dd ff3d
00000370: 1d60 f53c 4582 0cbe d085 373d 3d27 233d
00000380: 662d 723e 57b2 2f3e 0a13 ab3d 808f d4bd
00000390: eca2 2e3c c724 183e aa57 a5bc ce55 623d
000003a0: 1572 8abd 1b0b 36be 3f88 c5bd 4067 853c
000003b0: 5dd6 15bc b342 1abd 67db d83c ce7d a13d
000003c0: c7c3 e73d acbb 91bd 4c77 6cbe afa2 413d
000003d0: 3c6a 8d3e 4a0d 503e 940a c03d 8b9a 4a3e
000003e0: 0605 d33d 726f 943d 66b4 a6bc 7095 bbbd
000003f0: 1984 d8bd 2e86 f73b a792 85bc 8294 bbbd
-0.19229683 0.12440935 -0.042133715 0.14795068 -0.1466098 -0.10818299 0.16827142 0.2884075
-0.054433446 0.091949604 -0.006151549 0.016390117 -0.16081282 -0.29471332 -0.027497241 -0.078105696
-0.36291522 0.013636598 -0.0039089704 0.08232688 -0.23807962 0.06862167 -0.07769535 -0.16594018
0.120032094 0.17124026 0.040777944 -0.16499548 -0.28732747 0.42542252 -0.091783136 -0.09606946
0.048791777 0.028616192 0.0034091522 -0.09163382 -0.06539337 0.09222044 -0.047545258 -0.16516027
0.16240756 -0.021702908 0.13465853 -0.027210582 0.12802233 0.023245519 0.086406656 -0.61691964
0.5081408 0.18145458 0.055658855 -0.13278726 0.043237966 0.1873497 0.07654241 -0.2549697
-0.06335563 -0.6696457 0.29722995 0.095785186 0.019441286 0.03221436 -0.06460189 0.06711988
0.0657649 -0.5672779 -0.047168035 -0.17975497 0.03364102 -0.028859418 0.09754024 -0.09583929
-0.04547687 -0.07087282 -0.085948 -0.13508403 -0.11586879 -0.19811676 -0.056241654 0.30748114
-0.0027573816 -0.045933545 -0.0088799065 0.03933611 0.09902407 -0.14193007 -0.025744343 -0.06625
0.043105002 -0.050942235 0.112421185 0.016567945 -0.062320422 -0.21996488 -0.20824845 0.09847837
0.08473647 0.09816961 -0.12782975 -0.041757427 0.14913478 0.06882478 -0.0105121555 0.007175908
-0.060900085 0.0002538339 0.20487742 -0.085519224 0.07361718 0.0644741 0.077326186 0.025066987
-0.05054811 -0.006573729 -0.18160152 0.016589412 -0.103634305 0.018243331 -0.059585404 0.009735515
-0.07988559 0.009862043 -0.06203996 -0.086468466 0.034104686 -0.106682606 -0.0402606 0.10933159
0.1726597 0.11235528 -0.07410563 0.10644128 0.25961375 0.19274907 0.20157996 0.045133676
-0.14054365 0.055307068 0.1817393 0.13200125 0.054535415 0.07715699 0.057946794 0.20408578
0.063400626 0.06142315 0.101743005 0.05270839 0.23514457 0.15853485 -0.052709676 -0.01646198
0.17118129 0.18384458 0.20860833 0.087288715 -0.058362044 0.31581205 0.2909033 0.12460313
0.16789432 0.00749222 0.082147755 -0.011814408 -0.14005676 0.2771239 0.23415902 0.13471565
0.069548205 0.08471483 -0.043925107 0.005732936 -0.017748736 -0.08998444 0.10744335 -0.25271815
0.07972505 -0.058972463 0.09320028 0.095285974 0.12371059 0.08592348 0.023990547 0.12828682
0.142778 -0.097346075 -0.07765189 0.06302362 -0.033524357 0.07460625 0.057233483 -0.075919464
-0.12414252 0.013356374 0.19382901 -0.04496252 -0.037574682 -0.11066442 -0.075437926 0.10819047
0.1722799 0.17635772 -0.032154765 0.093473315 -0.037282806 0.33588582 0.13682996 0.16516988
0.08237522 -0.105771095 0.10346025 0.15480845 0.11126832 -0.122063376 0.062211283 0.13294336
-0.109941244 -0.34330162 -0.19218524 0.12493444 0.029953057 -0.13721569 0.044805348 0.039832342
0.2365013 0.17157875 0.08353241 -0.10378933 0.010658961 0.1485778 -0.020183403 0.05525761
-0.06760041 -0.17777674 -0.096451275 0.016284585 -0.0091453465 -0.037661266 0.026471807 0.078853235
0.113166384 -0.07115874 -0.23092383 0.047274288 0.27620113 0.2031757 0.093770176 0.19785516
0.103036925 0.07247819 -0.020349693 -0.09159362 -0.10572071 0.0075538373 -0.01630528 -0.09159185

bias f4 [16]
00000000: 95bc 893e 0c8e 9ebe 343d 46bf 972f cabe
00000010: c6ab 91bd 0b54 dfbc aed3 4fbe 1635 5cbe
00000020: f51c 73bd 982c 9bbe 7edb 793b fd17 923e
00000030: 44e7 bfbe 1c1e b23c 5479 c2be 142c 963c
0.2690169 -0.30967748 -0.7743714 -0.39489433 -0.07112841 -0.027261754 -0.20295593 -0.21504626
-0.059353787 -0.3030746 0.0038125212 0.28533927 -0.3748113 0.021742873 -0.3798319 0.018331565

weight f4 [16, 16, 5]
00000000: 9c02 0a3e f11d cbbc 497c 8e3e 71b8 783e
00000010: 91c7 13be f56a 87be 02df 4ebd f5ba a53e
00000020: 9644 cabd bab3 e33d 2be6 37be 8181 d33d
00000030: 040b 9f3c 4504 f83d f6d2 85bd aaba cf3c
00000040: b4d9 93bd 9e27 443a 6929 993e c916 b5bd
00000050: 206a e7bd 5493 7ebd d71e 81be f253 863e
00000060: 9ba9 20be 03c0 96bd a112 9e3b 4cc6 efbd
00000070: cacb 2b3b fb49 89bd 3897 f3bd 5d2d 203e
00000080: 3a37 1fbd 3f1b 18be 7978 8cbe 3792 19be
00000090: a340 a43c c609 bd3e 35db 82be 56e6 b73e
000000a0: 8075 9fbc 0b25 3ebe 03ca eebc e66f 8b3e
000000b0: 076f 5e3e 1e64 56be 7ac7 5dbe d126 87bd
000000c0: 8b7a 8fbd 20bb 903e fa38 fb3d 2167 d4bd
000000d0: 3c24 01be 92ee aa3e 7021 91be cd71 203e
000000e0: 0929 7fbf 44f3 1a3e d855 7a3d 1591 2f3d
000000f0: dd94 843d 713c 053e 7790 d1bc 6a5a e93d
00000100: 91a7 efbd 27ee 243c 67de 31be 2b8b 703e
00000110: efbb 223e e258 7fbe c756 07be 99bd 12bd
00000120: c935 31be 6154 8b3e abb7 bcbd 12ef 783e
00000130: 549d 41be 0c98 8e3e 3308 3ebe 15bd e53d
00000140: d22e 4c3e 711b f73e f31d 3cbe d630 07bd
00000150: a9c3 763d fc99 263e 8727 a8bd fd91 9c3d
00000160: d6bc bcbb 1b60 b33c 4a51 8cbe 4a81 27be
00000170: 09e4 5dbc 2db1 92bd 0efa 56bc 145b 633c
00000180: 695b 473e c42b e23b b62d 27be e422 a4bc
00000190: 6888 3a3c 9f38 4d3e 0d9b 013e 5be8 1f3e
000001a0: 1995 693b 540d 2f3e 4a96 383e 7d64 9bbd
000001b0: 56c2 353d fabf 6abc 799c 85bd 5245 da3e
000001c0: 76c6 96be cf66 853d d1d7 27bd aaf1 063e
000001d0: 1dbb 25be 7c19 263e a7d8 023e 2eeb 233d
000001e0: a968 893e c23f bb3d 9d9a c7bd 7ed7 a9bc
000001f0: dae8 efbc 4d27 763e 6fc3 d83d dd6a 893d
00000200: 71c3 453d ebd7 23bd 5452 e03d 711c 803e
00000210: a2ee 90bd 0831 cd3a 8931 6e3d 13e9 a73e
00000220: b5f3 a83d cab6 513d c7f3 653d 5fab a43d
00000230: 8c9f a8bc 3c09 6d3e 6b01 79bd 6449 ae3d
00000240: 3777 95ba 0581 263e 735c 8fbc ce56 bcbd
00000250: 6fcc 2e3e 45c8 70bd f04d b7bd ad5c be3e
00000260: 5d08 ebbb 564c 0c3c a153 c6bd b27b b3bd
00000270: ebd0 20be 5845 173c 570e 1dbe a6fe 543b
00000280: 6ee0 c4bc 8777 9c3d 914d 153e 3e73 403c
00000290: 9b2d 9ebe 8ccb 233c 240d 9abd 4705 a73e
000002a0: 0d0f 273d 6b7b ad3d 1ff4 843d 73e3 2a3e
000002b0: 4b76 39be e182 40be 86ad 54bd e116 84bd
000002c0: 01a8 01be 9cb9 b23e 9b20 d0bd 41a5 ca3d
000002d0: 592b 02be 5fa1 6d3d 6be2 853d bfff 9f3e
000002e0: c579 c33d 827b b63d 47b8 4f3d 50d2 493e
000002f0: 512c a23d 2481 f5bd a442 16be 7d67 b33d
00000300: 4de2 a4be 37f8 b1be 070c 9dbe a7ea 3b3e
00000310: c92d 1dbd ca0f 57bd c491 f23d 08b5 7e3e
00000320: 4b70 19bd 855b 953d fbb7 653d 0299 89bd
00000330: 42e1 e4bd e2d3 543d a2a6 99be 5172 4d3d
00000340: fea1 cc3d ff66 06bc 150d a2bd d203 9e3c
00000350: 5bf6 193e 6558 7c3e ddde 84be b284 fd3d
00000360: 2f7d a5bd 6c97 963d 1c55 433e 5f7d 803d
00000370: 2148 a4bd 5b38 603e 5077 76bd 2198 b63e
00000380: 2884 ee3d 839f 923d e4f1 08bd c1b0 5d3c
00000390: 3403 4e3e 4f3d 9dbb 8ecf 2abc 69f9 cd3d
000003a0: 8890 13bd 1b38 613e eecf a03d a3c8 673d
000003b0: 553f c0bd 1a07 cf3d ed66 2dbe cd1c 63bd
000003c0: 9048 2b3e 7d63 22be 9d49 3cbe 5292 1cbd
000003d0: 33a6 b9bd 7fc9 7fbc c156 993d ffc2 d73d
000003e0: bec9 65bc bc2f 89bd 1da8 4bbe 0e16 363e
000003f0: 912e 1e3d 71f1 c9bd e81f 4d3c 7e44 e33d
0.13477558 -0.02479455 0.27829197 0.24289109 -0.14431597 -0.2644879 -0.050505646 0.323692
-0.09876363 0.111182645 -0.17958896 0.10327435 0.019414432 0.12110189 -0.06534378 0.025357563
-0.07219258 0.000748271 0.29914406 -0.088422365 -0.112995386 -0.06215222 -0.2521884 0.2623592
-0.156897 -0.07360842 0.004823998 -0.11707744 0.0026213997 -0.06703564 -0.11894077 0.15642305
-0.038871028 -0.14854144 -0.27435663 -0.14997183 0.020050352 0.3692152 -0.25557867 0.3591792
-0.019465208 -0.18568818 -0.029149061 0.2723381 0.21722041 -0.20936629 -0.21658126 -0.065992005
-0.07005795 0.28267765 0.12266727 -0.10371233 -0.12611479 0.3338514 -0.28345823 0.15668412
-0.9967199 0.15131861 0.061117023 0.04286297 0.06473706 0.13011338 -0.025581582 0.11394198
-0.11701883 0.010066546 -0.17369996 0.23490588 0.15892003 -0.2493625 -0.13216697 -0.035825346
-0.17305674 0.27212813 -0.092147194 0.24309948 -0.18907672 0.27850378 -0.18557815 0.11217705
0.19939736 0.48263124 -0.183708 -0.033005558 0.06024519 0.16269678 -0.08210664 0.076450326
-0.0057598157 0.021896413 -0.2740577 -0.16357914 -0.013543137 -0.071627 -0.013121141 0.013876695
0.19468464 0.00690219 -0.16326031 -0.020036168 0.011385061 0.2004113 0.12656803 0.1561598
0.0035641848 0.17094928 0.1802608 -0.07587526 0.044374786 -0.014327997 -0.065239854 0.42631012
-0.2944829 0.0651375 -0.040977303 0.13178125 -0.1618466 0.16220659 0.12777959 0.040019207
0.26837662 0.0914302 -0.09746287 -0.020732637 -0.029285837 0.2403843 0.10584151 0.06709836
0.04828209 -0.040000837 0.10953203 0.250217 -0.070767656 0.0015654871 0.05815271 0.3279501
0.082496084 0.05119971 0.056140687 0.08040499 -0.02058389 0.23148054 -0.060792368 0.08510092
-0.0011403327 0.16260155 -0.017500138 -0.09196244 0.17070173 -0.058784742 -0.08950412 0.3718008
-0.007172628 0.008563122 -0.0968392 -0.087638274 -0.15704696 0.009232841 -0.15337501 0.0032500415
-0.024032798 0.076399855 0.1458037 0.011746226 -0.3089417 0.00999726 -0.075220376 0.32621214
0.040785838 0.08470806 0.06491875 0.16688327 -0.18111531 -0.18799926 -0.051923297 -0.06449676
-0.12661745 0.34907234 -0.10162469 0.09894801 -0.12711848 0.058015224 0.065373264 0.31249806
0.0954471 0.08910276 0.05071285 0.19709134 0.07918609 -0.11987522 -0.14673859 0.08759973
-0.32203904 -0.34759685 -0.3067324 0.18351232 -0.038373742 -0.052505292 0.11844209 0.24873745
-0.037460607 0.072928466 0.05608366 -0.06718637 -0.11175777 0.05195988 -0.30009943 0.05015785
0.09991835 -0.008203267 -0.079126514 0.019288931 0.15035383 0.24643095 -0.2595128 0.12378825
-0.080805175 0.073531 0.19075435 0.06273913 -0.0802157 0.21896498 -0.06017238 0.3566294
0.116463006 0.07159331 -0.03343381 0.013530911 0.2011841 -0.0047985683 -0.010425461 0.10057337
-0.036026508 0.21994059 0.078521594 0.056587826 -0.093870796 0.101087764 -0.16933794 -0.05544739
0.16726899 -0.15858264 -0.18387456 -0.03822548 -0.09064903 -0.015612005 0.0748725 0.105352394
-0.01402515 -0.06698558 -0.19888349 0.1778185 0.038618628 -0.098605044 0.012519814 0.11097048

bias f4 [16]
00000000: c44e 61be 3d68 9dbe e671 c6be ffc6 2cbe
00000010: 241a a4be 43f9 813e ef68 9bbe a827 20be
00000020: c6da e33d 1997 2ebf 50d2 b1be ddd8 a7bc
00000030: c357 a2be 7527 0540 960b c23e f06a babd
-0.22002703 -0.3074359 -0.38758773 -0.16872786 -0.32051194 0.25385484 -0.30353495 -0.15640128
0.11125712 -0.68199307 -0.34730768 -0.02048915 -0.31707582 2.0805333 0.37899464 -0.09102428

weight f4 [64, 112]
00000000: fda9 283e 4557 06be da9f 853e 1f44 173d
00000010: 44bb 493d 282f 2f3d e3d6 1e3e a344 98bd
00000020: e1a4 763e c553 acbd 5c65 d4bb 28e3 27bd
00000030: 4101 cc3d 8cfd 6ebb 243b 893d 3ac5 f63d
00000040: 6ba9 963d 63fe 43be c15a 843e 4fc8 bfbd
00000050: 2c49 c8bd 7739 5fbe d673 8f3c 9312 dfbb
00000060: f559 84bd 5d87 4b3d 5be6 d5bd 3b89 fb3d
00000070: 6501 6b3e dbea 01be 14a5 733d 29a3 d4be
00000080: e6b7 c33e f8b2 a4be a401 343e 6f5f ffbd
00000090: 521d 3b3d c180 29be d052 37bd ca49 c8bd
000000a0: 3872 95bd c952 783d 5364 33be b311 f83d
000000b0: 9d9f 9abd f930 373d 8763 afbd da38 893d
000000c0: 4efb dc3d 7ce9 ce3d 096c 033e fd09 34be
000000d0: 72e8 7d3e ed70 233a 4df0 583e c9cc 823a
000000e0: 9adb 183e 2839 5ebd 2e98 3c3e 2eff 9bbd
000000f0: 5179 ac3e d623 bebc bb7a 813c 5b1f 29bd
00000100: 76b2 623e 1f69 a83c 0391 1f3d e267 3abe
00000110: 9af2 6f3e 167e 573e 96bd 9bbc 75a9 273e
00000120: a0e2 9e3d b7e0 1f3d e921 7abc e81d 063e
00000130: a73d 8c3d 5bec 84bd 58aa b13c ca30 a4bd
00000140: 1638 2abd 13e3 ec3a d3f3 923d 93d7 24bd
00000150: cc0b f93d 60fe 6d3e 7b29 963d 82df c83d
00000160: 5415 4b3e 7bd9 cb3d c2d3 783e 9dd8 103f
00000170: 6170 0ebe b9fe 9d3e 73e8 be3e 44a2 253e
00000180: eeed 02be a214 ebbc c289 1d3e 7d30 203e
00000190: 8fbc adbd 9842 bd3d bd34 e83d 0b2c 313e
000001a0: c51d a6bd 7ed6 cb3d 44a8 573e 45fd 8abd
000001b0: cc60 433e 77f2 75bd dcc4 3a3e 6fdd cd3d
000001c0: 79b0 243e 5d5f 84be 73d9 7e3e 369f 243d
000001d0: 7695 853e 60fa 40be f02c 833e 3e27 c6bd
000001e0: f0fe a73e 670a 83be 8609 243e 9f6a d0bd
000001f0: 9996 e63d f51f c03b d9ed 903e 47fb 61be
00000200: 3c4b 353c 37c2 073d 2c41 d73d fa04 febd
00000210: edb4 f63b 7dca ffbd 6bde 993d 280e 78bd
00000220: a50e 303e d686 c63d 7342 9cbd 6231 37be
00000230: 6487 32bc 9566 d8bc e568 a63d a47d 7bbe
00000240: 3c25 6bbd 5658 1b3d 91be 523c d0d1 04be
00000250: e3a6 023e 386f 56bd ca64 8b3d e92d 67bd
00000260: 10e0 b73c 7d1f 3d3e 5da7 92be ad93 0d3e
00000270: bbea b23d fbeb 923d 357f d5bd eac1 bc3d
00000280: e13b db3d 7d7c c03d 251a fa3c 6cb4 5d3d
00000290: 6515 5d3e 5220 ccbd 11c1 1fbd 5d94 843d
000002a0: 6181 aa3e 0397 1ebe 2052 533e 0f8d f9bc
000002b0: ce5c 943d cf50 f23c f9a8 713e 928f ec3c
000002c0: b257 623e fd3b af3d d485 0a3e 694f 263e
000002d0: ea35 6a3e 78c5 47bd f479 a8bd e1a6 023e
000002e0: 9954 883e f363 17bd c9bf 953d 8a4a 0c3d
000002f0: 2195 dabc 38d6 1cbd e90b babd f6ea 88bd
00000300: 8091 833c 86e7 ba3b 5e33 493d ed93 1cbd
00000310: 7c29 c33d d103 4f3e 0558 fdbd e153 253e
00000320: cb85 f33d 219c 5e3b de31 5e3d 0e1d 8d3e
00000330: 4578 a1bd e783 063d 7a24 acbd a85c c93e
00000340: 931d f33d bb71 e13d 59c0 113e b804 b0bc
00000350: 0ae5 573d 707c b33d 665c 003e ad99 58bd
00000360: d07c 2a3d 2af3 6d3c 6e9c 67bd a7b4 9dbd
00000370: 6335 b23e 6e62 153e 6654 2fbd e226 78bb
00000380: c02e 7a3d a0a1 4b3e 9826 bd3d 7089 fa3d
00000390: 3758 6b3e 3cae 493e d873 b3bd fde0 b8bd
000003a0: e19f 9b3d 1414 91bd d4db e93d 0a7b 303d
000003b0: d230 7b3c 351e cdbd 8b77 023d 7b43 76be
000003c0: e8b4 443e 18d4 af3c 76ac 8ebd accc 083e
000003d0: 4a31 10be 5b56 313d eb83 3f3e ec67 8d3d
000003e0: a8ef 22be 5551 6c3c 4ea3 7a3d 8703 f7bc
000003f0: 2514 0d3e 9904 85be e80d d53d ce14 4b3e
0.16471095 -0.13119228 0.2609852 0.0369302 0.049250856 0.04276958 0.1551166 -0.074349664
0.24086334 -0.08414415 -0.0064818095 -0.040988117 0.09961177 -0.0036467044 0.06700733 0.12049337
0.07356533 -0.1914001 0.2585049 -0.09364378 -0.097795814 -0.21799265 0.01751129 -0.006807634
-0.064624704 0.04968964 -0.104443274 0.12282034 0.2294975 -0.12687247 0.059483603 -0.4153073
0.3822624 -0.32167792 0.17578751 -0.124693744 0.04568226 -0.16553022 -0.04475671 -0.09779699
-0.07297176 0.060625825 -0.1751874 0.12112751 -0.07549975 0.04472444 -0.08563905 0.06700297
0.1079012 0.10103127 0.12834181 -0.17581935 0.24795702 0.0006234784 0.21185417 0.0009979244
0.14927521 -0.054253727 0.18417427 -0.07617031 0.33686307 -0.023210447 0.015805593 -0.04128967
0.2213839 0.020557938 0.038956653 -0.1820369 0.23432389 0.21044192 -0.0190113 0.16373236
0.07758069 0.039032664 -0.015266874 0.13097346 0.06847697 -0.06490394 0.021687672 -0.08017118
-0.041557394 0.0018073044 0.07175412 -0.04024465 0.12160453 0.23241568 0.073321305 0.09808256
0.19832355 0.099535905 0.24299529 0.56580526 -0.13910057 0.308584 0.3728672 0.1617518
-0.12786075 -0.028696362 0.15384582 0.15643497 -0.0848323 0.092412174 0.11338184 0.17301957
-0.08111147 0.099530205 0.21060282 -0.067865886 0.19079894 -0.060045686 0.18239158 0.10052001
0.16082944 -0.25854006 0.24887638 0.040190898 0.26090592 -0.1884551 0.25620222 -0.096754536
0.3281169 -0.25593874 0.16019258 -0.10176586 0.11259193 0.0058631846 0.28306463 -0.22068511
0.011065301 0.033144202 0.105104774 -0.12403293 0.0075288923 -0.124897934 0.07513126 -0.060560375
0.17193086 0.09693687 -0.07629862 -0.17889932 -0.010896537 -0.026416102 0.08125476 -0.24559647
-0.057408556 0.03792604 0.012862817 -0.12970662 0.12758975 -0.05235216 0.06806333 -0.056440268
0.022445709 0.18469043 -0.28643313 0.13825865 0.087361775 0.07173916 -0.104246534 0.09216674
0.1070478 0.09398744 0.030530045 0.05412714 0.21590193 -0.09967102 -0.03900248 0.064736106
0.33301833 -0.15487294 0.20636797 -0.03046277 0.072442636 0.029579548 0.23599614 0.028877053
0.22103766 0.08556364 0.13527614 0.1624123 0.22872129 -0.048772305 -0.08226386 0.12758972
0.26627043 -0.036960553 0.07311971 0.034250773 -0.026682438 -0.038290232 -0.09084303 -0.0668544
0.01606059 0.0057038693 0.049121253 -0.03822701 0.09529397 0.202163 -0.12370304 0.16145279
0.11890753 0.0033967572 0.054246776 0.2756123 -0.07884268 0.032840636 -0.08405395 0.39328504
0.11870875 0.110080205 0.14233531 -0.021486625 0.052708663 0.08763969 0.12535247 -0.05288093
0.041622937 0.014523307 -0.056545667 -0.07700472 0.34806356 0.14588329 -0.042805098 -0.0037864973
0.06107974 0.19885874 0.09235877 0.122332454 0.2298287 0.19695371 -0.0876233 -0.09027288
0.07598854 -0.07083908 0.11418882 0.04308609 0.015331464 -0.10015527 0.031852286 -0.2404918
0.19209635 0.021463439 -0.06966488 0.13359326 -0.14081302 0.043295246 0.18702666 0.06904587
-0.15911734 0.014423688 0.061190896 -0.03015305 0.13777216 -0.2598007 0.10403043 0.19832155

bias f4 [64]
00000000: a1c8 adbb 1173 0d3e dcfe 60bd 43b1 cbbd
00000010: 3f23 e43c da7e 463d d515 b63d ee21 32be
00000020: 327a 213d c2da 063e 4cd9 a93b bae3 003e
00000030: a080 083e 59d3 23bd b5fc 743e da10 113c
00000040: 7c3b 853e 7ab4 97bd e04e 623d 7469 efbd
00000050: 0016 cc3c cbbd e23a 9f3f ebbd 2aa7 6e3c
00000060: c18c 973e 299d 0e3a 30cb 66be 2286 88bd
00000070: cca4 46bd 8bf4 573e 57a6 98bd 6df6 523d
00000080: 9e88 483e ade2 863d 50a9 dcbc 18a1 9c3b
00000090: 53b6 473e 611e c4bd b751 773e 2526 cc3d
000000a0: 2374 5dbd 56f7 003e 287f 34bd e3e1 883e
000000b0: 0c1e 97be bc44 c83d 12af 1a3e 21b9 ae3e
000000c0: b28a d3bd 899f 0abd 8eb9 06bd 1775 3d3e
000000d0: 0b50 353e 8dff 51bd 74fc 833b 4f30 e13c
000000e0: ff4c c13d 2f31 f63d e2a4 593c 5eed 8c3c
000000f0: b0d8 f0bd 96c5 863e ad00 823d 22ca 233d
-0.005303458 0.13813426 -0.054930553 -0.09945919 0.027848838 0.04846082 0.08890883 -0.17395756
0.039423175 0.13169387 0.0051833745 0.12586871 0.13330317 -0.03999648 0.23924525 0.008854115
0.26021945 -0.0740747 0.055251002 -0.116900355 0.024912834 0.0017298994 -0.11486744 0.014566222
0.29599574 0.0005440289 -0.22538447 -0.06666209 -0.048497006 0.2108938 -0.07453602 0.05150454
0.19583365 0.06586204 -0.026936203 0.004779946 0.19503145 -0.09576107 0.24152265 0.09968213
-0.054065835 0.12594351 -0.04406658 0.26734838 -0.2951511 0.09778735 0.15105847 0.34125617
-0.103291884 -0.03384355 -0.032891802 0.18501697 0.17706315 -0.051269103 0.0040278975 0.027488856
0.09438514 0.120211 0.01328394 0.01720303 -0.1176008 0.2632262 0.06347785 0.03998769

weight f4 [32, 64]
00000000: 6e99 02be b5a4 783d 4a33 cc3d f9ac b33c
00000010: aaa2 e2bd d3ff 94bc 9ae7 db3d 0792 f4bc
00000020: 8b7e da3c 6496 abbd 83f4 053d f73d 383d
00000030: 3ea7 823c a652 783d f483 33bd 31bb 0abe
00000040: 13cf 73bd 7894 b2bd 34fe 76bd 1118 92bd
00000050: ad38 aa3c 0907 e4bd 327e 3e3d 378a 03be
00000060: cf9a 253d c25b 063d 824a 82bc abf9 853d
00000070: 136e 97bc 58d5 57bd b328 753d 4719 493d
00000080: 116b 213d ab1b 21be bbf8 aabd eb66 12be
00000090: 8034 dabd a96f c63c d957 01be 76d0 0ebe
000000a0: 293f 0d3d 2487 95bc c3ce 1abc c3f7 d2bd
000000b0: 82a3 04bd 3a0b 9a3d 3037 b9bd 512e febd
000000c0: ae28 a23c 4051 e4bd 703d 7abd 753a aaba
000000d0: 8cc7 a3bc 0c17 3b3a 599d 2cbd 1e43 9b3d
000000e0: 5f9d a1bd 0cda 9cbd 860e 43bd f893 cfbd
000000f0: 3b33 683d 0c04 23bd 529a babd ca71 383d
00000100: 8c0f 0fbd 7213 cfbd 3e5b 683d e9d2 bebe
00000110: b0e4 863c ed1d f3bc cd24 573d 1204 f2be
00000120: dce7 dd3d 3715 833e 0970 c83c 1ed2 663e
00000130: eca4 abbc b83c 11bd 6b44 13be 5bfd cbbb
00000140: 4c48 14be 3c61 00be e436 9d3d a1c7 a4bd
00000150: 6263 253e 1fae 08bf 3e03 bcbd 3245 5dbd
00000160: 34e3 1e3e acd0 39bd 0cf4 15be ee93 3d3e
00000170: 9b8d af3d 7e13 ab3c 756b ad3d 6dcd 693d
00000180: e539 923e 5dcd 6e3e 16ed f9bd be00 57be
00000190: f401 033e 6d61 93bb dd14 253e ba82 0f3d
000001a0: 5a1f 08bd 37b5 1c3e 2b32 913c 5408 993d
000001b0: dcaf 43be f24d 353e 0e04 843e c689 7e3e
000001c0: 12ee 01bc 007e bebd e6c4 b4bd 0129 b1bc
000001d0: e159 f6bc d6be 87bd 5739 653e 2374 ebbd
000001e0: 0189 65bb 54bf 073d a466 8a3e 3f92 2a3e
000001f0: 8ec6 37bc a1a2 0c3e 7391 983d 8b24 41bd
00000200: d6ec 723e 26bd af3e 6a63 4dbd 9199 753e
00000210: 2fc0 63bc 2339 a23d 3383 243d 4899 4c3e
00000220: 99f4 ae3e 41a5 1cbd 03ae 85be 2162 aebc
00000230: 5da3 16bd ea07 f1bb ef7a 923e 6c31 a63d
00000240: e9f3 293f 48b3 963d 5c8e aabd 6503 db3d
00000250: cf7c b93d 063e 4fbc 2989 62bd 64f9 8ebd
00000260: ac94 113e 02d5 b7bd bac9 243d 895e 84be
00000270: b80f 28bd 5493 bbbd 053c 113d 0067 e13c
00000280: 45e5 a2bc 3ef9 cd3c aefe 013d 01bb 813e
00000290: 5572 d7bc 14d8 cdbd ba10 423c 1596 03bc
000002a0: 053d 00bd 994d 18be ec20 163e 9498 ef3d
000002b0: cd19 02be 2bee ecbc 2cc9 083e bdf5 e2bd
000002c0: 5cd3 f2bb 6b94 9d3e e3f5 e83c 18f0 eabb
000002d0: d890 0abe e1ae 9f3c e849 d83d b308 193d
000002e0: 427b 293e a4e8 e13d 87c2 f5bd 1daf 77be
000002f0: e8c8 e2be a7b5 88bd 6382 49bd ef74 d3bd
00000300: e9ec 963c ba6b bd3d 4777 02be d8f1 00be
00000310: 9e0d 2cbc 7181 c6bc 68d0 d0bd 4f78 f5bd
00000320: 758c f63c ccdc 7a3d 8acc 273b 9e1e a5bd
00000330: f6f3 c7bd 5eb6 2a3d 5bb5 a43d 8ee4 dc3d
00000340: 085d dabc 3598 103d c964 793d 9e5a d5bd
00000350: 2d94 84bc 82d6 dfbd bfd2 01be 3d9b ef3d
00000360: 1663 cbbd bbea ad3d 7f47 f4bd 25b6 0fbe
00000370: e011 fd3c 7af6 8abd 7865 953d 9aa9 e6bb
00000380: ad1d 733d 5a5e 8c3c 32d0 e5bd 4a04 c63d
00000390: 736b cdbd 8fbc 8a3d 5935 21be 024f 1cbd
000003a0: 573b 48bd 3d95 9d3d ac5a a6bc 77ae 73bd
000003b0: 984c 82bd 6af4 d1bd f53d 59bd a1d1 9abd
000003c0: a6fa 99bd 6c2b 19bc a584 eabd 997b 26bd
000003d0: 17dd 08be 0293 da3c c834 7b3d 08ca babc
000003e0: ad7e 9fbd 8460 2b3c d81d 673d 73eb b0bd
000003f0: 3c7e 3c3d 6a56 14be d2de 953d 992b 04bc
-0.12753841 0.060703952 0.0997072 0.021933066 -0.11066182 -0.018188393 0.10737534 -0.029854788
0.026671669 -0.08378294 0.032703888 0.04498097 0.015948888 0.060625695 -0.043827012 -0.1354797
-0.059523653 -0.087197244 -0.06030102 -0.071334966 0.020778978 -0.11134154 0.046507068 -0.12845694
0.04043084 0.03280235 -0.015904669 0.06541761 -0.018485105 -0.052693695 0.059853267 0.049096372
0.039408747 -0.1573321 -0.08348223 -0.14297073 -0.10654545 0.024223166 -0.12631167 -0.13946709
0.034484062 -0.018252917 -0.00944871 -0.10301163 -0.032382496 0.075216725 -0.09043729 -0.12411178
0.019794788 -0.1114831 -0.061093748 -0.0012987392 -0.019992612 0.0007136918 -0.042142246 0.07581161
-0.07891344 -0.07658777 -0.047621273 -0.10135645 0.056689482 -0.03979878 -0.091114655 0.045030393
-0.034926936 -0.10111131 0.05672764 -0.37270287 0.016466469 -0.029677356 0.05252533 -0.4726873
0.10835239 0.25602123 0.024467485 0.22541091 -0.020952664 -0.035458297 -0.14381568 -0.0062252707
-0.14480704 -0.12537092 0.07676485 -0.08045889 0.16151193 -0.5339069 -0.09180306 -0.054021068
0.15516359 -0.04536502 -0.14643878 0.18513462 0.08571931 0.020883318 0.084677614 0.057080675
0.28559795 0.23320527 -0.12203424 -0.20996377 0.12793714 -0.004497698 0.1612124 0.03503678
-0.033233024 0.15303503 0.017724117 0.074722916 -0.19110054 0.17705515 0.25784343 0.24857244
-0.007930296 -0.09301376 -0.08826618 -0.021625997 -0.030072154 -0.06628196 0.22385155 -0.11496761
-0.0035024288 0.03314145 0.27031434 0.16657351 -0.011216773 0.13733913 0.07449617 -0.04715399
0.23723158 0.34323996 -0.050143637 0.23984362 -0.013900801 0.07921054 0.040164184 0.19980347
0.34170988 -0.038243536 -0.26109323 -0.021287026 -0.03677689 -0.0073556798 0.28609416 0.08114895
0.663878 0.07358414 -0.08327934 0.10694007 0.090570085 -0.012649065 -0.055306587 -0.06981161
0.1421687 -0.08976175 0.040231444 -0.25853375 -0.041030616 -0.0915896 0.03545763 0.027514935
-0.019884715 0.025143262 0.031737022 0.25337985 -0.026299635 -0.10050979 0.011844808 -0.008031388
-0.031308193 -0.14873351 0.14660996 0.11699024 -0.12705155 -0.028922161 0.13357991 -0.11082027
-0.00741045 0.30777296 0.02843756 -0.0071697347 -0.13531816 0.019492568 0.105609715 0.03736181
0.16550925 0.11030701 -0.11999994 -0.24187894 -0.44293904 -0.066752724 -0.049196612 -0.10325038
0.018423514 0.09249063 -0.12740813 -0.12592256 -0.010501293 -0.024231644 -0.10196 -0.11985838
0.030096272 0.061245725 0.0025604093 -0.080624804 -0.09763329 0.041677825 0.08042403 0.10785781
-0.026655689 0.035301406 0.06088713 -0.104176745 -0.016183937 -0.10929586 -0.1267805 0.11699531
-0.099310085 0.08492037 -0.11927699 -0.14034326 0.030892313 -0.06785293 0.07294744 -0.007039261
0.059354473 0.017134834 -0.11221351 0.09668787 -0.1003026 0.06774246 -0.15743007 -0.038161285
-0.048884716 0.076944806 -0.020306908 -0.059492555 -0.06362265 -0.102516964 -0.053037602 -0.07559515
-0.075185105 -0.0093487315 -0.11451081 -0.040645216 -0.13365589 0.026681427 0.061329633 -0.022801414
-0.07787833 0.010460023 0.056424946 -0.086386584 0.046018824 -0.1448609 0.0731789 -0.008067035

bias f4 [32]
00000000: 4086 a93d ad83 033e 13fc 003e 6c25 47bd
00000010: b011 b03d 6a8a 85bc 2aec bf3e c623 82be
00000020: d135 14be 40d5 bf3e a9dc f83d 0005 76ba
00000030: e46d ce3d 5e29 923e 1d07 1cbe 6432 483e
00000040: e2b9 953d de1c 45be 5ce8 fcbb a16b 84bd
00000050: a9d1 0fbe 3e68 573e 2043 8cbd aebb c7bc
00000060: 37f7 6ebd 0c09 91bd 0509 1bbe 94af 96bc
00000070: 48ca 373e a913 ca3e d060 303e 6a35 ef3d
0.08277559 0.12843199 0.12596159 -0.048619673 0.085971236 -0.016301353 0.37484866 -0.25417918
-0.14473654 0.37467384 0.121514626 -0.00093849003 0.10079554 0.28547186 -0.15237089 0.19550472
0.07310845 -0.19249293 -0.007718129 -0.06465841 -0.14044823 0.21035859 -0.068487406 -0.024381485
-0.05834123 -0.07081804 -0.1514016 -0.018394269 0.17948258 0.39468125 0.17224431 0.1168011

weight f4 [12, 32]
00000000: d324 8f3d 4e69 c3bc 096c 32bc 9865 f93d
00000010: 12c2 483d a7b3 343e 1417 9bbe e613 6c3e
00000020: 06b6 ab3c 4be2 8dbe 7f77 c13d 3656 613c
00000030: 4048 5abd 863c 92be 4cda 293e 7d3c 5bbd
00000040: 9847 1c3e bfc3 573e 70c8 093d e9fc 823c
00000050: 2632 0cbd ff5c 5dbd bf54 b7bd 38eb 013e
00000060: a1e6 953c cdeb 393d 947d 05bd 559c c53d
00000070: 0af6 1bbe 3ce9 443d 9d06 1f3e 7241 0dbe
00000080: 21ae afbd d744 553e e514 73be 3e35 b43c
00000090: b96c 42be d21a c13d 301f 0dbe 3619 18be
000000a0: 99a6 4abe 12f8 07be 95cd e83c 966c 913d
000000b0: dca9 23bd 86ff 693e 8a1a 703e b216 2fbe
000000c0: 6bfd 09be 8e30 1f3e 6a8f 36be 72f4 d13d
000000d0: 4844 03be 86a6 c53d b53e 643d 937a e53d
000000e0: b556 41bc fe4d 83be 22a3 f43d f5d9 c4bd
000000f0: 6b58 243e 23f5 203b 929f a8bd 1ad6 953c
00000100: acdc bbbc 0b6a bc3d 5910 4a3e 4ab0 82bd
00000110: f811 08be 59e9 96bd 28a1 0f3e d97a 94be
00000120: a59d ed3c 6b1e 2e3e 4b4c 9e3e a6c7 4e3d
00000130: 22e4 b8bd 0af5 94bd 0135 31bd dd81 8c3d
00000140: a05e 36be 8cee a03e 8f28 c0bc d012 b23d
00000150: cc66 a9bd 691e 093e 247d 98be 1611 943e
00000160: 8416 c43b 4a4c 1b3d 249e f8bd 94db b43d
00000170: a745 113e 7562 523d 02b9 8f3c 0dee 1fbe
00000180: 875c efbc eebd c2bb 44d6 c0bd 0f7e f1bc
00000190: 8a28 65be 769b 11be aa74 323d 1b52 85bd
000001a0: c939 b93d b208 543e d929 c2bd 7be8 31bc
000001b0: 538b bebe 27bb f03d 87d9 be3e 1b0f 3e3e
000001c0: 9891 243e eebf 04bc ab61 d63d 9dd3 e63c
000001d0: 6c0a da3d d299 f8bd 71c2 23be 42f0 aebc
000001e0: 6f68 d03d ac76 563e 06d0 e33c 40d7 1abe
000001f0: 2a51 16be 40e6 b2bd 7f27 8f3d 21b3 333c
00000200: 3095 473b 63a1 ebbd 566c 923e 9681 17be
00000210: 8c90 72bc aee6 043e 88a9 483e c3c5 093c
00000220: 253c 153c fc97 49be 9eac 153d c89a 273e
00000230: 78f6 42be 582a 833e efa7 7d3d 577e 123d
00000240: 6744 f0bd 10c1 9c3e d22e b63d 2e76 e2bd
00000250: ba0a 013d 5b09 943d ac4a f43d d694 a03d
00000260: b888 f83d 452b 0fbe 5453 b3bc 8235 8bbd
00000270: f5ce 6bbe f5cf 1cbe 1627 82be 88eb 7fbe
00000280: 9205 61bd 6900 9a3d fe92 383e 8c73 2fbd
00000290: 878f afbd 3292 ebbc 70bd 83be 08f5 7c3d
000002a0: 07df c73d 9bd9 c53c 5409 33be 04c6 debd
000002b0: 5f61 efbd f5d3 5bbd 4e74 c5bc 6e06 813e
000002c0: c54c 64be f64d 85be 2ff4 003e 839d 153e
000002d0: 5d04 ee3d a2be 303e 322d 813d ce10 473e
000002e0: 1b67 71bd 8602 3cbd b24b 35bd f766 34be
000002f0: 2eff bb3d bcc2 18be 717b e33d 9797 76bd
00000300: ea57 f83d d01d e9bc 5e53 063e 2759 dbbd
00000310: 5b51 f2bd 7046 f63d ce4c 9d3d e4c9 aabd
00000320: 251f 93bd e0d4 cbbd ac8a 3fbd 6dc9 763c
00000330: 1f36 75bd ddf7 693d e18f 473e 3b1d 47be
00000340: b2c6 a23d b388 8dbe 3ede 59bd c830 06bb
00000350: e55d f9bd 6394 05bd 1683 d73d b11f 003c
00000360: d300 293d 97cb e73d 76cc 11be e737 88bc
00000370: 7392 233e d603 a03e 04b3 d63c 4b18 b1be
00000380: f71f 3e3d fe29 91bd f085 5cbe 9aa3 dbbd
00000390: b7d6 3e3c 02b8 cd3b 0082 033e 4213 463d
000003a0: 15b8 183e a203 843d fbd2 f5bd cd60 06be
000003b0: a37a 793e fbe8 cfbd c59b 173e 1e52 d4bd
000003c0: bd44 a5bd 38b7 08bd 5e19 65bd 0b2c 37bd
000003d0: c04a a7bd d5f3 5f3e c816 603d 5d6c 893e
000003e0: 1b48 af3d 96a3 443e f94b e93d d4f3 c5bc
000003f0: 6ab0 e4bd 102d 6fbe cca3 80bd 6806 08be
0.069894455 -0.023853924 -0.010890015 0.121775806 0.049013205 0.17646657 -0.30291045 0.23054466
0.020960819 -0.2771171 0.0944662 0.013753464 -0.05329156 -0.285618 0.1658718 -0.053524483
0.15261686 0.21070765 0.033638418 0.015989738 -0.034227513 -0.054043766 -0.08951711 0.12687385
0.018298449 0.045390893 -0.032590464 0.096489586 -0.15230575 0.048073992 0.15529867 -0.13794497
-0.08578134 0.20827042 -0.2373844 0.021998044 -0.18986787 0.09428944 -0.13781428 -0.14853367
-0.19790114 -0.13278225 0.028418342 0.07100789 -0.039956912 0.2285138 0.23447624 -0.17098501
-0.13475578 0.15545866 -0.17828146 0.10251702 -0.12819016 0.096509025 0.055723865 0.1120502
-0.011800458 -0.2564544 0.119451776 -0.096118845 0.16049354 0.0024560175 -0.082335606 0.018290568
-0.022932373 0.091999136 0.19732799 -0.06381281 -0.13288105 -0.07368726 0.1402632 -0.28999975
0.029005835 0.17003791 0.30917582 0.05048337 -0.09027888 -0.072733 -0.04326344 0.06860707
-0.17809534 0.31431997 -0.02345684 0.086949944 -0.0827156 0.13390507 -0.29782975 0.28919286
0.0059841294 0.03791455 -0.12139538 0.08830944 0.14186727 0.051363427 0.017544273 -0.15618153
-0.029218925 -0.0059430515 -0.09415868 -0.029479055 -0.22378746 -0.1421946 0.04356829 -0.06509801
0.09044225 0.20706442 -0.09480638 -0.01085865 -0.3721567 0.117544465 0.37275335 0.1856045
0.16071165 -0.0081024 0.104678474 0.028177077 0.10646519 -0.12138714 -0.15992142 -0.021354798
0.10176169 0.20943707 0.027809154 -0.15121174 -0.14679399 -0.08735323 0.06989955 0.010968001
0.0030453913 -0.115053914 0.2859828 -0.14795527 -0.0148049705 0.12978622 0.19595921 0.0084089665
0.009108578 -0.19686884 0.036541574 0.16367638 -0.19039333 0.25618243 0.061927732 0.03576502
-0.11731797 0.30616045 0.08895649 -0.11057697 0.03150437 0.07228347 0.11928305 0.07840888
0.12135452 -0.1398135 -0.02189032 -0.06797315 -0.23028167 -0.15313704 -0.25420445 -0.24992192
-0.054936953 0.075196095 0.18024823 -0.042834803 -0.085722975 -0.028756235 -0.25730467 0.061757118
0.09759336 0.024151614 -0.17484027 -0.10877612 -0.11688494 -0.053668935 -0.02410331 0.25200218
-0.2229491 -0.26036042 0.12593149 0.14610867 0.11621926 0.1726022 0.063074484 0.19440004
-0.05893622 -0.045900844 -0.04426164 -0.17617403 0.09179531 -0.14918035 0.11107529 -0.06020316
0.12126143 -0.028456599 0.1311774 -0.10710364 -0.118319236 0.12025154 0.07680665 -0.08339289
-0.07183675 -0.09952712 -0.046763107 0.015062672 -0.059866067 0.057121146 0.19488479 -0.19444744
0.079480544 -0.27643356 -0.053190462 -0.0020475853 -0.12176112 -0.032612216 0.105230495 0.007820056
0.04126055 0.113181286 -0.14238152 -0.016628219 0.15973835 0.31252927 0.026208408 -0.34588847
0.046417203 -0.070880875 -0.21535468 -0.10724564 0.011647872 0.006278039 0.1284256 0.04835821
0.14913972 0.064460054 -0.12003132 -0.13122864 0.24363188 -0.101518594 0.14805515 -0.10367225
-0.080697514 -0.033377856 -0.055932395 -0.044719737 -0.08168554 0.21870358 0.054709226 0.26840487
0.08558675 0.19203028 0.11391444 -0.024164118 -0.11166461 -0.23357034 -0.06281242 -0.13283694

bias f4 [12]
00000000: 67a0 e0be 9477 a0bd 3c02 af3e 14b2 bf3c
00000010: 32d6 d1bd 6b0a 64be f3f3 b43e 24a6 0a3e
00000020: 6d6c f4bd 2d11 553d bf2f 9cbe ac3b 323d
-0.43872377 -0.07835308 0.34181392 0.023400344 -0.10245933 -0.22269599 0.35342368 0.1353994
-0.11934743 0.052018333 -0.30505177 0.04351394

weight f4 [32, 12]
00000000: 8019 bcbe 6702 b8be 6e0d 4e3d eaa0 a8be
00000010: 9f70 c8bd c1e7 f8bc 58a0 26be 5b18 93bd
00000020: b05c 35bd f03b 7a3c 6275 91be da9a f73e
00000030: 55aa 65be 39ba 58be 6c50 933e 4486 bb3c
00000040: 1395 2cbe 5978 e03d 7736 7d3e 1f1f e63d
00000050: 6013 46be f07c 74bc 2209 d93c 2c3f 6ebd
00000060: 928a 2abe 5cd7 0d3e c467 a33e 9fe0 873d
00000070: bb14 debd 970a d2bc 945c b6bd c882 733e
00000080: 9e3a 97be 9beb afbd 1be1 5ebd 7037 cebd
00000090: fb09 3c3e 2065 023e 756a a3bd 0622 523d
000000a0: 1b4e 353e ea9f 7f3e b9b3 49be 90d7 0cbe
000000b0: 8716 693e 43e8 f83d 38d0 fbbd ace4 80be
000000c0: 28eb febb 1496 a4bd eb6c 3cbd cba0 8dbe
000000d0: ae09 633e efe1 983b a820 ecbd 1485 143f
000000e0: f1c4 2fbd eeac b0be 04fa 56be bd6c 903e
000000f0: 239a 693e 62d3 58be 8400 5abe d171 be3d
00000100: ef57 35be e3a1 e43e bf8f 483e b986 183e
00000110: e0f1 8c3e 684c be3e 863b af3e 7aa9 063e
00000120: c138 c83c ea2f fe3e e3f9 d53d 39f4 0cbe
00000130: 85eb 533d 5694 753e b590 b03e cfd9 3ebe
00000140: db6e 903e a5d7 a5bd 8812 8bbe 7ef2 69bd
00000150: ec3d 63be 3f3a 81bd 044e dbbc e7d2 0ebe
00000160: 71f1 08be 737e 3b3e 120a 243e 45ab eebc
00000170: 077c 9abe ce48 423e b0fe 953d b43d 493e
00000180: e050 843d 59f1 72bd fde1 9c3b 0a7e 9fbe
00000190: ad07 c3be cafd 63be 82f8 b43d 5479 183e
000001a0: a96a 2fbe bfbc f7bc ba02 4bbd 69eb 123e
000001b0: babb b3be cb06 e7bd 8d57 29be 82eb 583e
000001c0: d77b e0bd fd07 30be 28ff dc3d bfc4 33be
000001d0: 2f0a 77be 16b7 9ebe 2b8d 16be a90c 093d
000001e0: 2e62 2b3e da6a 81bd 5332 b73e 7c2a 653d
000001f0: 96f5 c6be 77f6 a43d ab37 18be 4b5a 4abc
00000200: dc43 4abe a763 01be 940e 1cbe 566a 353e
00000210: 8fd4 febd 7150 2e3e e85a ffbd fdd2 b4bc
00000220: b13c 083d e9ee 9ebe 9ffb 8e3d f25c 5bbe
00000230: a986 d7be 25ad cbbe bbf0 abbd 71b8 043e
00000240: 7f7d 97be f145 a93d c185 ad3c 7ed0 9f3b
00000250: 380d a3be 04b7 9bbd ee50 223e 3fc2 c6bd
00000260: 90fe 093e 062d 45be ee92 b4be eb93 483e
00000270: f801 8bbd 67b1 b8bd 6e98 5abe 9166 6b3e
00000280: 5c8f 64bd faa8 8c3e d0e3 dabd ce1f e53c
00000290: 352e 2d3e 0215 e83d 0658 e83d a9e2 43be
000002a0: c173 0a3c 7660 0f3f 3209 16bf 5bc1 79be
000002b0: 3ef6 6e3e 2ed0 143d 28f3 cdbc 647a 943e
000002c0: 3ecb 113f 1cad 58be 8e87 363f 0b7f 2c3d
000002d0: cd8d cabd fbeb c0bd aad8 853e 33eb 573d
000002e0: 4467 95be 9fb9 eabe f3b3 34be c876 e33d
000002f0: 99e6 033e 2e1b 083e 5e83 163e 93de 713e
00000300: fd22 45be e01e 61bd 1e77 803d f63f 083e
00000310: 57a7 863b 3749 d6be fb98 a73e 3bdb aa3d
00000320: da55 c33d e520 153e aaed d0be fcf2 6a3e
00000330: db24 02bf 5dfd 9d3e aa23 02bf 00ae 81bd
00000340: 7bc7 5a3e 66f1 dbbd bb9a 503e ce5e a43d
00000350: 11f2 e63d f768 ba3e 195f 363e 5541 3d3c
00000360: 8d48 8e3d 6e3b 073e 73f8 9c3e 250c 26be
00000370: 3e35 81bd e7c6 6cbe 77fb bd3e 3603 7dbe
00000380: 1f57 cebd 5a11 0ebc 3b67 e93c b9cb de3e
00000390: c01b 83bd fb46 a7be 5209 8b3e abe0 403d
000003a0: a56c 7b3d 6018 cd3d 6f97 8a3e 8f76 a4be
000003b0: e8fd 4f3d 3437 15be 21d1 1fbe c6a8 ab3d
000003c0: c519 b1bd 904e 7cbe 11f1 703e 38b6 57bd
000003d0: 5374 31be fb5d 4abe f3d6 f83d a17f e139
000003e0: 59a0 0e3e ee1a cbbe 89bd 50be 6743 703e
000003f0: 1037 56be 5c07 17be 2c25 9a3e 8b37 823d
-0.36738205 -0.35939333 0.050305776 -0.32935268 -0.09787106 -0.030383946 -0.16272104 -0.0718238
-0.044277847 0.015273079 -0.28409868 0.4836033 -0.22428258 -0.21164788 0.28772295 0.022891171
-0.16853742 0.109604545 0.24727808 0.11236405 -0.19343328 -0.014922366 0.026493613 -0.058165714
-0.16654423 0.13851684 0.31915104 0.0663464 -0.10843798 -0.025639815 -0.089043766 0.23780358
-0.2953691 -0.0858986 -0.054413896 -0.100691676 0.18363182 0.12733889 -0.079792894 0.05130198
0.17705576 0.24963346 -0.19697465 -0.13754106 0.227625 0.121536754 -0.12295574 -0.25174463
-0.0077794977 -0.08036438 -0.04600231 -0.27661738 0.22171661 0.0046656053 -0.11529666 0.5801556
-0.042912427 -0.34506935 -0.20993811 0.2820796 0.22812705 -0.21174386 -0.21289259 0.092990525
-0.17709325 0.4465476 0.19586085 0.14895143 0.27528286 0.37167668 0.342251 0.13150588
0.024441125 0.4964593 0.10448053 -0.13765039 0.05173828 0.23982367 0.34485403 -0.18637775
0.28209576 -0.080977716 -0.27162576 -0.057116024 -0.2219159 -0.06309938 -0.0267706 -0.1394764
-0.13373353 0.18309955 0.16019467 -0.029134402 -0.3017275 0.18973085 0.073239684 0.19652444
0.06460738 -0.0593122 0.004787682 -0.31150848 -0.38091794 -0.22264782 0.088364616 0.14890033
-0.17130531 -0.030241368 -0.049563147 0.14347614 -0.35104162 -0.112805925 -0.16537304 0.21183589
-0.109611206 -0.17190547 0.10790855 -0.17555521 -0.24124978 -0.30999058 -0.14702289 0.03345934
0.16736671 -0.063192084 0.35780582 0.05594872 -0.38859242 0.08054822 -0.14864986 -0.012350629
-0.19752449 -0.1263567 -0.15239936 0.17716345 -0.12442886 0.17022873 -0.12468511 -0.022073263
0.033261005 -0.3104165 0.06981587 -0.21422175 -0.42094925 -0.39780536 -0.08395525 0.12960984
-0.29587933 0.082652934 0.021181943 0.004877149 -0.31846023 -0.07603267 0.15851185 -0.09705018
0.13476014 -0.19255456 -0.35268348 0.19587676 -0.06787485 -0.09018212 -0.2134721 0.22988345
-0.05580078 0.2747267 -0.10687983 0.027969267 0.16912158 0.11332132 0.11344914 -0.19129433
0.008450449 0.5600656 -0.5860778 -0.24390166 0.23336121 0.036331348 -0.02514036 0.28999627
0.5695075 -0.21159786 0.7130059 0.042113345 -0.098903276 -0.0942001 0.26141864 0.052714538
-0.29180348 -0.45844743 -0.1764677 0.1110664 0.12880935 0.13291618 0.1469855 0.23620062
-0.19251628 -0.054961085 0.0627272 0.13305649 0.004109304 -0.41852733 0.32733902 0.08342596
0.09537859 0.1456333 -0.40806323 0.22944254 -0.50837487 0.30857363 -0.5083567 -0.06332016
0.21365158 -0.107394025 0.20371525 0.08025895 0.11276639 0.36408207 0.17809714 0.011551221
0.06947432 0.13206264 0.30658302 -0.1621557 -0.06308983 -0.2312275 0.37105915 -0.24708256
-0.10075211 -0.008671129 0.028491607 0.43514803 -0.06401777 -0.3267134 0.27155548 0.04708926
0.06138291 0.10014415 0.2706866 -0.32121703 0.050779253 -0.1457184 -0.1560712 0.083818
-0.08647493 -0.24639344 0.2352946 -0.05266401 -0.1732953 -0.19762413 0.12150373 0.00043010435
0.13928355 -0.39668983 -0.20384802 0.23463212 -0.20919442 -0.14748901 0.30106485 0.0635825

bias f4 [32]
00000000: 88fc c0bd 1c7a f53e e132 98be e127 bbbe
00000010: edb8 0c40 044e 293e fee2 9d3c db04 4a3f
00000020: 2b1d 9e3f 5f1b 473f 463d 9c3e 3b39 883e
00000030: ec1c 763d ec8c 94be 3c2d 21c0 58c6 973f
00000040: c429 c4bd 1c49 173f 354a 8d3e 2bb6 123f
00000050: 8ff4 64bf cb9d 893f d6cf fe3b 6855 85bf
00000060: fad8 603e 4498 4ebf 5e2a f0be 27d0 04bf
00000070: 4c47 913e bb6b cb3e f415 8a3f ac83 cfbe
-0.094231665 0.47944725 -0.29726318 -0.36553863 2.198787 0.16533667 0.019273277 0.7891366
1.2352651 0.7777614 0.30515498 0.26606163 0.060086176 -0.29013765 -2.518386 1.1857405
-0.09578279 0.5909593 0.27595678 0.57309216 -0.89435667 1.075128 0.007776241 -1.0416689
0.2195777 -0.8070109 -0.46907324 -0.51880115 0.28374708 0.3973063 1.078795 -0.40530145
