AE Models/16lat1.139loss.pth (torch, 119330 bytes, 27 tensors)

weight f4 [16, 1, 4]
0	0x3cada380	0.021196127
1	0xbd231461	-0.039814357
2	0xbcc7202c	-0.024307333
3	0xbd4f58aa	-0.050621666
4	0xbe463c2b	-0.1935889
5	0x3ddfcea1	0.10928083
6	0xbd78b4e0	-0.06071937
7	0x3da6e822	0.081497446
8	0x3d8c6bc1	0.0685649
9	0x3e3784cd	0.17921753
10	0x3e3d1f35	0.18468936
11	0x3e0d52d9	0.13801135
12	0xbb614225	-0.00343717
13	0xbadcc9d1	-0.0016844814
14	0x3decc675	0.1156129
15	0xbddeb116	-0.1087362
16	0xbe071786	-0.13192567
17	0xbce15d3b	-0.027510276
18	0x3cbca442	0.023027543
19	0x3e086176	0.13318428
20	0x3de29ae1	0.11064697
21	0xbda759dc	-0.08171436
22	0x3ccc408f	0.024933128
23	0xbcc66b22	-0.024221007
24	0x3d9d902d	0.07693515
25	0x3c1fae45	0.009746139
26	0xbc169ff7	-0.009193412
27	0xbd8fda7d	-0.07024095
28	0xbec7f91e	-0.3905725
29	0xbd199c4e	-0.03750258
30	0x3ccfb641	0.02535546
31	0xbefa603f	-0.48901555
32	0x3de77c51	0.11303008
33	0x394ef890	0.00019738288
34	0xbc2ac807	-0.010423667
35	0xbdeae390	-0.11469185
36	0xbd911995	-0.070849575
37	0x3d122864	0.03568305
38	0x3ccb67c3	0.02482975
39	0x3d818573	0.063242815
40	0xbb3f6a3a	-0.0029207603
41	0x3da0954f	0.07840978
42	0xbd3b2136	-0.04568597
43	0xbd63b669	-0.05559388
44	0x3d9bf80c	0.076156706
45	0x3ca31589	0.01990773
46	0x3db2ecd1	0.087365754
47	0xbc4602cb	-0.012085627
48	0x3cf64553	0.030062353
49	0x3c3c57a5	0.011495505
50	0xbd828ac8	-0.06374127
51	0x3dc630c8	0.09677273
52	0x3d3fdb16	0.046839796
53	0x3d371a69	0.04470292
54	0x3ce5fda2	0.028075043
55	0xbd2a3ab6	-0.041559897
56	0xbe8e7c48	-0.27829194
57	0xbef1d4de	-0.47232717
58	0xba2f3000	-0.0006682873
59	0xbe95e042	-0.29272658
60	0xbda3f7c8	-0.08006245
61	0xbd3ed9f1	-0.046594564
62	0xbd4d3b2f	-0.05010527
63	0xbc8fcf21	-0.017554821

bias f4 [16]
0	0x3f4269d2	0.7594272
1	0x3ebf68ac	0.37384546
2	0x3e23a29f	0.15980004
3	0x3eb82c00	0.3597107
4	0xbd0baff4	-0.03410335
5	0x3dcfa1e7	0.10138302
6	0x3e4da252	0.20081452
7	0x3f0e9c85	0.5570758
8	0x3c472b4d	0.01215632
9	0x3f1d9817	0.61560196
10	0x3edc199e	0.42988294
11	0xbed4e16b	-0.4157823
12	0xba8cc725	-0.0010740502
13	0xbda7ebc6	-0.08199267
14	0xbd771220	-0.06032002
15	0x3f44e8cc	0.7691772

weight f4 [16, 16, 4]
0	0x3e9881f2	0.2978664
1	0x3e592073	0.21203785
2	0x3e2b491c	0.16727108
3	0xbe8366c8	-0.25664353
4	0xbdee3fc9	-0.1163326
5	0xbd4e2d16	-0.050335966
6	0xbe3c2521	-0.18373539
7	0xbd35097e	-0.044198506
8	0x3dd10ec0	0.102078915
9	0xbc774767	-0.015092707
10	0xbc4f5903	-0.012655499
11	0xbd1f14f1	-0.03883833
12	0xbddc42fa	-0.10754962
13	0x3d0cbd0f	0.034359988
14	0x3e44c29b	0.19214861
15	0x3df3b774	0.11900225
16	0x3cd903c2	0.02649105
17	0xbe934be6	-0.28768843
18	0xbdb3a06c	-0.087708324
19	0xbd3d8669	-0.04627076
20	0x3e2e65d6	0.17031035
21	0x3de3c068	0.11120683
22	0xbb8d173f	-0.0043057497
23	0xba9e15bc	-0.0012060921
24	0x3e2313e4	0.15925556
25	0x3e08646d	0.1331956
26	0x3e5de05d	0.21667619
27	0x3e0b4f29	0.13604416
28	0x3d863d13	0.06554618
29	0xbe1f73e8	-0.15571558
30	0xbc4254af	-0.01186101
31	0x3e24e505	0.16102989
32	0xbce0c8f1	-0.027439566
33	0xbe3f0cc4	-0.18657213
34	0xbe1f98a3	-0.1558557
35	0xbdb13c89	-0.08654124
36	0xbea02aaf	-0.31282565
37	0xbd953787	-0.072859816
38	0x3dcf39e3	0.10118463
39	0xbe0aadf4	-0.1354292
40	0xbdd5b2be	-0.10434483
41	0x3d142502	0.036168106
42	0x3dbde161	0.09271503
43	0x3d5a3f1a	0.053282835
44	0x3e0445d9	0.1291727
45	0x3e571e5e	0.21007678
46	0xbc5f69cf	-0.013636067
47	0x3d445a40	0.04793763
48	0x3d82ba06	0.063831374
49	0x3e0cf0ca	0.13763729
50	0xbd0a14a1	-0.03371108
51	0xbe62ee21	-0.22161151
52	0x3de288f6	0.110612795
53	0x3e3f86a0	0.18703699
54	0x3adcc372	0.0016842915
55	0x3d86f49b	0.065896235
56	0x3ca83fc8	0.020538226
57	0xbda45406	-0.08023839
58	0xbd9a55b2	-0.07535876
59	0xbba39360	-0.0049919337
60	0x3de40ba0	0.1113503
61	0xbe25647e	-0.16151616
62	0xbd0244b3	-0.031803798
63	0xbd9bbe0f	-0.0760461
64	0x3c0e0dd5	0.00867029
65	0x3cf9c591	0.030489715
66	0x3de7c181	0.11316205
67	0x3dd317b9	0.10307259
68	0xbe0186d8	-0.12649095
69	0xbe09d17d	-0.1345882
70	0xbc3ddce1	-0.011588306
71	0x3d00d503	0.031453144
72	0x3ace8cd8	0.0015758527
73	0x3dcdb3cc	0.10044059
74	0x3dfc0105	0.12304882
75	0x3de86543	0.11347439
76	0xbdc37e15	-0.095455326
77	0x3da1748f	0.0788356
78	0xbc2be5ba	-0.010491783
79	0xbb270cf2	-0.0025489894
80	0xbd861cd9	-0.06548471
81	0xbde389a4	-0.11110237
82	0xbddfe79c	-0.10932848
83	0x3d201be4	0.0390891
84	0x3dc0507f	0.093903534
85	0x3e26c3f5	0.16285689
86	0xbde456ac	-0.11149344
87	0xbcdb7627	-0.026789738
88	0xbd041420	-0.032245755
89	0x3d86df34	0.06585541
90	0x3d415a06	0.047204994
91	0x3da2e063	0.079529546
92	0xbe8d4663	-0.27592763
93	0xbe552136	-0.2081345
94	0xbdec2ff5	-0.115325846
95	0xbe2ad986	-0.16684541
96	0xbd461cbf	-0.04836726
97	0xbe71145a	-0.2354292
98	0xbd413c89	-0.04717687
99	0x3ca19889	0.019726055
100	0x3e527cb0	0.20555377
101	0x3dfda62f	0.12385213
102	0x3d69495f	0.056954738
103	0x3ca384b0	0.019960731
104	0xbd9136cf	-0.07090532
105	0xbcebf6fc	-0.028804295
106	0x3e2668a8	0.1625086
107	0x3e20c700	0.15700912
108	0x3ca4df1f	0.020125924
109	0x3da1294b	0.07869204
110	0x3c3d7afb	0.011564965
111	0x3d1a3b25	0.03765406
112	0x3d972b95	0.073813595
113	0x3c8fbc40	0.01754582
114	0xbd2001d4	-0.039064243
115	0x3d082ab2	0.033243842
116	0x3dea990d	0.11454973
117	0x3dcbb5ea	0.09946807
118	0xbd91e531	-0.07123793
119	0xbd155d04	-0.03646566
120	0xbcb39ac0	-0.021924376
121	0x3da05494	0.07828632
122	0x3ce696a8	0.02814801
123	0x3d8457c6	0.06462054
124	0xbd72abde	-0.059245937
125	0x3cf1e776	0.029529314
126	0x3d92d6c4	0.071698695
127	0xbe0a7658	-0.13521707
128	0x3e03debe	0.12877938
129	0x3cd4225a	0.025895286
130	0xbe15ed91	-0.14641406
131	0xbe4c044a	-0.19923511
132	0x3e0f2007	0.13977061
133	0x3d7cac67	0.061687853
134	0x3d3bed4b	0.045880597
135	0x3dc031db	0.09384509
136	0xbe48673c	-0.19570631
137	0xbdd1f457	-0.10251682
138	0x3dc7dc33	0.097587965
139	0x3e4e5f99	0.20153655
140	0x3e3e8d2f	0.18608545
141	0xbe396326	-0.18104228
142	0xbdcae0de	-0.09906171
143	0xbe040861	-0.12893821
144	0x3cf97c47	0.030454768
145	0x3d82b46d	0.0638207
146	0x3ae34aa1	0.0017340967
147	0x3e0b57a5	0.13607652
148	0xbea42a27	-0.3206341
149	0xbe4880ee	-0.19580433
150	0xbd4350d2	-0.047684498
151	0x3ded150c	0.1157628
152	0xbe9351ad	-0.2877325
153	0xbddcc730	-0.107801795
154	0x3df6a79f	0.1204369
155	0xbeb2e187	-0.3493769
156	0xbd69d354	-0.057086304
157	0x3d3db908	0.046319038
158	0xbc885205	-0.016640672
159	0xbe4696d9	-0.19393481
160	0x3e5cb298	0.21552503
161	0x3d8eb0ea	0.069673374
162	0x3e08d42e	0.1336219
163	0x3ec5cfb6	0.38635033
164	0x3dfa1a2b	0.122120224
165	0x3d89983b	0.06718489
166	0xbd483e62	-0.048887618
167	0xbe232241	-0.15931036
168	0x3dc01b9b	0.09380265
169	0x3dab31a3	0.08359077
170	0xbdd960d4	-0.106141716
171	0x3c853c57	0.016264124
172	0xbda7e82a	-0.08198579
173	0x3cea3e4e	0.028594162
174	0x3d28bf3e	0.041198008
175	0xbc8aff85	-0.016967544
176	0xbdaa45a1	-0.08314062
177	0x3de41142	0.11136104
178	0x3dacf4e7	0.08445149
179	0x3cbd8f85	0.023139725
180	0xbdcd7633	-0.1003231
181	0xbbff52da	-0.007791859
182	0xbe9c477d	-0.3052329
183	0x3dae3252	0.085056916
184	0x3bd31800	0.00644207
185	0x3d5c2c90	0.053753436
186	0x3d2ad1f4	0.041704133
187	0xbdf5d5c6	-0.12003665
188	0xbc2841db	-0.010269607
189	0xbe683df6	-0.22679886
190	0xbc3f5af9	-0.011679404
191	0x3df14569	0.11780817
192	0xbe96bfdc	-0.29443252
193	0xbd5832c9	-0.052782807
194	0xbd0846ed	-0.033270765
195	0x3d6754ee	0.05647748
196	0x3d22fcf3	0.039792012
197	0x3dc966f3	0.09834089
198	0xbdc7d2df	-0.09757017
199	0x3d86ea2c	0.065876335
200	0xbc71aacf	-0.014750197
201	0xbbaf25ab	-0.0053450665
202	0xbc1539ab	-0.009107987
203	0x3e33bb75	0.17551978
204	0x3d2bf5a6	0.041982315
205	0xbda14341	-0.07874156
206	0xbd1a835c	-0.03772293
207	0xbe223245	-0.15839489
208	0xbda235e5	-0.07920436
209	0xbe131746	-0.14364347
210	0xbebdb5f6	-0.37052888
211	0xbd6ad6fc	-0.05733393
212	0x3d8e0811	0.06935132
213	0x3d1e621d	0.038667787
214	0x3e226fea	0.15863004
215	0xbd49d350	-0.04927379
216	0x3e844e11	0.2584081
217	0xbe1c4e06	-0.15264139
218	0xbcb36095	-0.02189664
219	0x3e4774d7	0.19478165
220	0x3e2eecb3	0.17082481
221	0x3e807811	0.25091603
222	0x3e4bfd5f	0.19920872
223	0x3e98a1e8	0.29811025
224	0xbd059ab7	-0.03261825
225	0xbe1b0aa4	-0.15140778
226	0xbe2a308d	-0.16620083
227	0xbe855a59	-0.26045492
228	0xbe0ab0ac	-0.13543957
229	0x3db28e63	0.08718564
230	0x3dc319e2	0.09526421
231	0x3ce0082e	0.02734765
232	0xbdf49f18	-0.11944407
233	0xbc06b795	-0.00822248
234	0xbe09f6ca	-0.13473049
235	0x3e4165f8	0.18886554
236	0xbc4ce8fe	-0.012506722
237	0xbce08c13	-0.027410543
238	0xbcc65bf9	-0.024213778
239	0xbc3497ab	-0.011022489
240	0xbe14d66f	-0.14534925
241	0xbc4b5530	-0.012410447
242	0xbdb7d536	-0.08976214
243	0x3d4b7dc9	0.049680505
244	0xbd815e0d	-0.06316767
245	0x3e8f758e	0.28019375
246	0x3c0c8e3e	0.008578835
247	0x3dfeac08	0.12435156
248	0xbddb7fce	-0.10717736
249	0x3d5c59b0	0.05379647
250	0x3d445690	0.047934115
251	0xbdfb4f78	-0.12271017
252	0xbd28b26b	-0.041185778
253	0xbd26a323	-0.040682923
254	0xbe25ef31	-0.16204526
255	0x3d56755b	0.052358013

bias f4 [16]
0	0xbdc5aed7	-0.09652489
1	0xbd4ab848	-0.04949215
2	0x3e447bef	0.19187902
3	0x3ecaf26f	0.39638087
4	0xbe0681cc	-0.13135451
5	0x3e446259	0.19178142
6	0xbda3dc35	-0.080009855
7	0xbd983dd8	-0.07433671
8	0x3d40194e	0.046899132
9	0xbf8610dd	-1.0473896
10	0x3e417ef6	0.18896088
11	0x3e147e97	0.14501415
12	0xbe84dad0	-0.2594819
13	0xbdca975f	-0.09892153
14	0x3e1148ef	0.14187978
15	0x3c96338d	0.018335128

weight f4 [16, 16, 5]
0	0x3ea637b7	0.32464382
1	0x3dedc986	0.11610703
2	0x3e45443a	0.19264308
3	0x3d263979	0.040582154
4	0x3de95dbc	0.113948315
5	0x3ccfffd6	0.025390547
6	0x3d350959	0.044198368
7	0x3e67694a	0.22598758
8	0xbd0f29e0	-0.034952044
9	0x3d86b196	0.065768406
10	0xbde251cd	-0.110507585
11	0xbe3178d4	-0.17331249
12	0x3db0a567	0.08625298
13	0xbd5f9d3d	-0.054593313
14	0xbe234a89	-0.15946402
15	0x3e041c7a	0.12901488
16	0xbd9c7cc2	-0.07640983
17	0x3e7634fb	0.24043648
18	0x3d202de1	0.039106254
19	0x3e275ef9	0.16344823
20	0x3c8bd441	0.017068984
21	0xbe2cefaf	-0.16888307
22	0x3dafe585	0.08588699
23	0x3e0b49f4	0.1360243
24	0x3da8cb2c	0.08241877
25	0x3cbcac9a	0.023031522
26	0xbe8c1f8a	-0.27367812
27	0xbe3918b3	-0.18075828
28	0xbdcf55bc	-0.101237744
29	0xbd89070a	-0.06690796
30	0xbe90b057	-0.28259537
31	0xbe19ccee	-0.1501958
32	0x3e3906e2	0.18069032
33	0x3d7c757f	0.06163549
34	0x3e4761b7	0.19470869
35	0x3e2c5511	0.16829325
36	0xbd1da21a	-0.03848467
37	0x3e445e2e	0.19176552
38	0x3d16fa7e	0.03685998
39	0xbd014c2d	-0.031566788
40	0xbc8a0f28	-0.01685293
41	0xbbc13adb	-0.0058969087
42	0x3c3fa591	0.011697189
43	0x3d114bc6	0.035472654
44	0x3dabd716	0.08390634
45	0x3dc2121c	0.0947611
46	0x3cd8225a	0.026383568
47	0x3e1bd978	0.15219676
48	0x3d965785	0.07340912
49	0xbe06835d	-0.13136049
50	0x3c164c33	0.009173441
51	0xbe336f7d	-0.17522998
52	0xbce01b55	-0.027356783
53	0xbdaa3903	-0.08311655
54	0x3ca31095	0.019905368
55	0x3d83b6a2	0.06431319
56	0x3b0a74f1	0.0021126831
57	0x3d3c2599	0.045934293
58	0x3db7091f	0.089372866
59	0x3e69c294	0.22828132
60	0xbd877fed	-0.06616197
61	0xbdb1aee5	-0.086759366
62	0xbc4dd59c	-0.0125631355
63	0x3e0bf09b	0.13666002
64	0x3dbb17a1	0.09135366
65	0xbdc3ceaa	-0.095609024
66	0xbe689e60	-0.22716665
67	0x3de4719e	0.11154483
68	0x3b2ab363	0.0026046864
69	0xbe3c88d7	-0.18411575
70	0x3d8adab9	0.06779999
71	0x3db32e37	0.08749049
72	0x3dea901f	0.1145327
73	0xbd9db29d	-0.077000834
74	0x3e9888f0	0.29791975
75	0xbd0e9436	-0.034809314
76	0x3dddf238	0.10837215
77	0x3ccb0f4d	0.02478757
78	0x3dbc2b8e	0.09187995
79	0xbd898e02	-0.06716539
80	0xbc82df13	-0.01597551
81	0xbe0405d1	-0.12892844
82	0xbddc543a	-0.107582524
83	0x3dd074fc	0.10178563
84	0xbe7a524c	-0.24445456
85	0x3a7f155a	0.00097306597
86	0x3db9d569	0.09073908
87	0x3e808b7b	0.25106415
88	0x3c2a213c	0.0103839
89	0x3e13a4d7	0.1441835
90	0xbe8d49a5	-0.2759525
91	0x3e1ebaf7	0.15501009
92	0x3e19a330	0.15003657
93	0xbdcb41c8	-0.09924656
94	0xbdd650ad	-0.104646064
95	0x3d04f514	0.032460287
96	0x3dbc4b1a	0.09194012
97	0xbdef1832	-0.11674537
98	0xbd444332	-0.047915645
99	0x3d3c0443	0.0459025
100	0xbe93579e	-0.28777784
101	0x3d4c774d	0.04991846
102	0x3e0a4a8b	0.13504998
103	0xbd3418cc	-0.04396896
104	0x3d3b10c2	0.04567028
105	0xbe8cdca8	-0.27512097
106	0x3bc9a203	0.0061533465
107	0xbe04ccc7	-0.12968741
108	0xbe0fbc54	-0.14036685
109	0x3d1504e6	0.036381625
110	0x3e90644b	0.28201517
111	0x3ebfe14f	0.37476584
112	0x3ea4a2cb	0.3215545
113	0x3d6a0fee	0.057144098
114	0x3ef15781	0.47137073
115	0x3d925314	0.07144752
116	0x3e792676	0.24331078
117	0x3e30c3cb	0.17262189
118	0xbdfa7da5	-0.12230996
119	0x3c0ae80d	0.008478177
120	0x3c17e48c	0.009270798
121	0x3d8df8c7	0.06932216
122	0xbdd14cd6	-0.102197334
123	0xbda696fc	-0.08134267
124	0x3db830f5	0.08993713
125	0x3dbaa8b7	0.09114211
126	0xbde47add	-0.11156247
127	0xbd7f6a04	-0.062356964
128	0xbcf4d9ac	-0.02988895
129	0x3e36cb21	0.17850925
130	0x3d1a7448	0.03770855
131	0x3c86f2f9	0.01647328
132	0xbe5cd7b7	-0.21566664
133	0xbe2f81eb	-0.17139404
134	0x3ec1836b	0.37795576
135	0xbd3e5e8c	-0.046476886
136	0x3dc34714	0.095350415
137	0x3db08e8e	0.0862094
138	0x3e03d29d	0.12873311
139	0x3da20be2	0.07912423
140	0x3d8a506f	0.06753623
141	0xbd3abdf9	-0.04559133
142	0xbe7097b6	-0.23495373
143	0xbe6d7dba	-0.23192492
144	0xbdfe8cdd	-0.12429211
145	0x3d0d96e3	0.034567725
146	0x3e643df9	0.22289266
147	0xbdd3c07b	-0.10339447
148	0xbec3783b	-0.38177666
149	0xbd9fa8dc	-0.07795879
150	0xbccf817c	-0.025330298
151	0xbe0498a2	-0.1294885
152	0x3cc960dd	0.02458232
153	0x3db1d48f	0.086831205
154	0x3e34cc21	0.17655994
155	0x3c0dfc3d	0.008666095
156	0x3dfd5151	0.123690255
157	0xbdf5d465	-0.12003402
158	0xbe4b7083	-0.19867139
159	0x3c170775	0.0092180865
160	0x3d73c874	0.05951734
161	0x3ce875b5	0.02837644
162	0x3ac93176	0.0015349824
163	0x3e35af2b	0.17742603
164	0xbcdc56da	-0.026896883
165	0xbd10074b	-0.035163205
166	0x3e689728	0.22713912
167	0x3e1fa800	0.1559143
168	0x3e1fb845	0.15597637
169	0xbcad09e6	-0.021122884
170	0x3d9a7637	0.07542079
171	0x3e5d42b3	0.21607475
172	0x3ea1f39d	0.31631175
173	0x3e276dff	0.16350554
174	0x3b4cadf0	0.0031231605
175	0xbd984f16	-0.074369594
176	0x3d5e2b79	0.054240678
177	0x3dbd3643	0.09238865
178	0x3cdd0d97	0.02698402
179	0xbe059e19	-0.1304859
180	0x3d4f9dc3	0.050687563
181	0x3d56c701	0.05243588
182	0x3e1899ea	0.14902464
183	0x3e39c86b	0.1814286
184	0xbe0df527	-0.1386305
185	0xbd18c2cb	-0.037295144
186	0xbcf1ce9e	-0.029517468
187	0x3e072ede	0.13201472
188	0x3db995b0	0.09061754
189	0xbd6b017a	-0.057374455
190	0x37d27ef8	2.5093075e-05
191	0xbd1f3e55	-0.038877804
192	0x3e1509c7	0.14554511
193	0x3e602fc5	0.21893223
194	0xbe69952c	-0.22810811
195	0xbc52e9ff	-0.012873172
196	0x3e6bdee9	0.23034252
197	0x3dbf1eff	0.09332084
198	0x3db93871	0.090439685
199	0xbe5b23d2	-0.21400383
200	0xbdc7da3b	-0.09758421
201	0xbd74f557	-0.059804287
202	0xbd07b8c4	-0.03313519
203	0x3db3906a	0.08767779
204	0xbd6d73b3	-0.057971667
205	0xbd55dfed	-0.052215505
206	0xbe0867c7	-0.13320838
207	0xbe6d00ee	-0.23144886
208	0xbd9e2043	-0.07720997
209	0x3e859f99	0.26098326
210	0x3d03878d	0.032111693
211	0x3d9e0190	0.07715142
212	0x3c93a15f	0.018021284
213	0x3dee58df	0.116380446
214	0x3dba6c5e	0.09102701
215	0x3de0cfd9	0.10977144
216	0x3e417778	0.1889323
217	0x3e38b336	0.18037114
218	0x3e9c6b99	0.3055084
219	0xbcd4ac10	-0.025960952
220	0x3d737741	0.0594399
221	0xbddba005	-0.10723881
222	0x3e192aed	0.14957781
223	0xbceb83c5	-0.028749356
224	0x3de78dd2	0.11306347
225	0x3e48cabc	0.19608587
226	0x3e6390ff	0.2222328
227	0x3da4a838	0.08039898
228	0x3e32a7b9	0.17446794
229	0xbe98a8a5	-0.29816166
230	0x3d1567e0	0.036476016
231	0x3e3e04a5	0.18556459
232	0xbe634ed1	-0.22198035
233	0xbd9ee106	-0.077577636
234	0xbe21fe38	-0.15819633
235	0xbc67b66f	-0.014142617
236	0x3cb86126	0.022507261
237	0x3d014bb3	0.031566333
238	0x3d02940b	0.031879466
239	0xbdc878dc	-0.09788677
240	0x3e1dc3c0	0.15406704
241	0x3dc52083	0.09625342
242	0x3e7d3c1e	0.24729964
243	0x3d202bc3	0.039104234
244	0xbc3698e5	-0.011144851
245	0x3e24eaae	0.16105148
246	0x3e3e0208	0.18555462
247	0x3e209754	0.15682727
248	0x3e489b3b	0.19590466
249	0xbd506782	-0.050879963
250	0x3e83f5dc	0.25773513
251	0x3e165f96	0.146849
252	0xbe19adb1	-0.15007664
253	0xbe879d19	-0.26487043
254	0xbd8c2828	-0.06843597
255	0x3d8bc06a	0.068238094

bias f4 [16]
0	0x3e0dc79e	0.13845679
1	0x3e1c328b	0.15253656
2	0x3d5c9517	0.05385312
3	0x3e24f144	0.1610766
4	0xbe36003b	-0.17773525
5	0xbf247858	-0.6424613
6	0xbd6f425f	-0.058412906
7	0x3c0db8a5	0.00864998
8	0x3ed8ebaa	0.42367297
9	0xbdfe054a	-0.124033526
10	0xbe2e3b8e	-0.17014906
11	0xbe3e4c47	-0.18583785
12	0x3dfb6003	0.12274172
13	0xbe3831f4	-0.17987806
14	0x3eac4955	0.33649698
15	0xbdb77d3f	-0.08959436

weight f4 [16, 16, 5]
0	0xbe2e889d	-0.17044301
1	0x3d4c5b94	0.049892023
2	0x3e5001f5	0.20313247
3	0xbea34a7d	-0.31892768
4	0x3e25d6aa	0.16195169
5	0x3d33683f	0.04380059
6	0x3b0cd313	0.0021488115
7	0xbf158d50	-0.5841875
8	0x3ea45177	0.32093403
9	0xbd17459a	-0.03693161
10	0xbd862a3e	-0.06551026
11	0xbe033b08	-0.12815487
12	0x3dd23212	0.102634564
13	0xbdc7099c	-0.0971863
14	0x3e212f54	0.1574071
15	0x3e098923	0.1343122
16	0xbd0e7510	-0.03477961
17	0xbe32d299	-0.17463149
18	0x3eb3e8c3	0.3513852
19	0x3e1f7a05	0.1557389
20	0xbbc15a5a	-0.0059006633
21	0x3e1214f0	0.142658
22	0xbf9711f2	-1.1802351
23	0x3ed9dd04	0.42551434
24	0xbddf5e49	-0.10906655
25	0xbe351d29	-0.17686905
26	0x3dd101d6	0.10205428
27	0x3cef2964	0.029194541
28	0xbba16f43	-0.0049265935
29	0x3e26ac52	0.16276672
30	0x3e093c16	0.13401827
31	0xbe2c21a0	-0.16809702
32	0x3e257b86	0.16160402
33	0xbd1e712f	-0.03868216
34	0xbd5363ad	-0.05160873
35	0x3cd42572	0.025896762
36	0xbea26a28	-0.31721616
37	0x3db0f719	0.0864088
38	0xbdfdc1c6	-0.12390475
39	0x3dad5f84	0.08465484
40	0x3d3e14cf	0.046406563
41	0x3da61265	0.08108977
42	0xbe8a1cc6	-0.26975077
43	0x3ee5b433	0.44864044
44	0xbe52e526	-0.20595226
45	0xbd95a6e7	-0.07307225
46	0xbdc9ac9e	-0.09847377
47	0xbe0e3bef	-0.1389005
48	0x3e76dfb8	0.2410878
49	0x3dd1da60	0.1024673
50	0xbcf47176	-0.029839259
51	0xbaa9831b	-0.0012932749
52	0xbd98de37	-0.07464259
53	0x3d2d36cc	0.042288586
54	0xbe4b601b	-0.1986088
55	0xbdc6e1ef	-0.09711062
56	0xbd92f7f8	-0.071762025
57	0x3ce210cb	0.027595898
58	0x3ecb752f	0.3973784
59	0xbd648488	-0.055790454
60	0xbd9bfd11	-0.07616628
61	0x3e1efdac	0.15526456
62	0xbe19a207	-0.15003215
63	0x3c97829e	0.0184949
64	0xbdda01ca	-0.106448725
65	0x3ccc8569	0.024965959
66	0xbe8ef4f2	-0.27921253
67	0x3ce68618	0.028140113
68	0x3e9517bf	0.2911968
69	0xbbdbd482	-0.0067086825
70	0x3ec9c8ff	0.3941116
71	0x3d7486d8	0.05969891
72	0xbec955bf	-0.39323232
73	0x3f01d85b	0.5072076
74	0xbc8cbd46	-0.017180096
75	0xbdeb8ba6	-0.11501245
76	0xbe909843	-0.28241166
77	0x3ecb6e17	0.3973243
78	0xbebd9699	-0.3702896
79	0x3e34f49f	0.1767144
80	0xbc7698d7	-0.015051088
81	0x3e06e957	0.1317495
82	0x3d421777	0.04738566
83	0xbe5d8262	-0.21631768
84	0x3edadd5a	0.42747003
85	0xbd958b46	-0.07301955
86	0x3d0a8113	0.0338145
87	0xbdd0060d	-0.10157404
88	0x3d55d59d	0.05220567
89	0x3d76498d	0.060128737
90	0x3c05bd94	0.008162875
91	0x3d8317ff	0.06401061
92	0x3ddd3b19	0.108022876
93	0xbe4fe5c2	-0.2030249
94	0x3ec5c73a	0.3862856
95	0xbc432fab	-0.01191322
96	0x3d4cc3be	0.04999136
97	0xbe04a458	-0.12953317
98	0xbd8c3dd1	-0.06847728
99	0x3e3015e4	0.1719585
100	0xbd273e8e	-0.04083114
101	0xbd466b36	-0.048442088
102	0xbc4dfb81	-0.01257217
103	0xbd8bfbae	-0.068351135
104	0xbe2382bb	-0.15967838
105	0x3ca8547b	0.020548096
106	0x3ca0f91c	0.019650035
107	0xbdb02ee9	-0.086026974
108	0x3c3820be	0.011238275
109	0xbcbf2dd7	-0.023337288
110	0xbdaa74a2	-0.08323027
111	0xbd3aceac	-0.045607254
112	0x3d51671c	0.051123723
113	0xbd898948	-0.067156374
114	0x3e973ee3	0.29540166
115	0x3d343388	0.043994457
116	0x3a96f3c2	0.0011516737
117	0x3dd8e28f	0.105900876
118	0xbe0556c0	-0.13021374
119	0x3df66f04	0.12032893
120	0xbb63791b	-0.0034709636
121	0xbd514a50	-0.05109626
122	0x3df55866	0.11979751
123	0x3cc9b7c2	0.024623755
124	0x3cfa1770	0.030528754
125	0x3c5d7c9e	0.013518481
126	0xbda0a7ff	-0.07844543
127	0xbc39020b	-0.011291991
128	0xbd8ecb2c	-0.06972346
129	0xbdc82fd8	-0.097747505
130	0xbc5415fd	-0.012944696
131	0xbd519817	-0.051170435
132	0x3c81ab0a	0.015828628
133	0x3cd34e4f	0.025794176
134	0x3e8be054	0.27319586
135	0xbc6315bf	-0.013860165
136	0x3cc78a93	0.02435807
137	0xbc479a74	-0.012182821
138	0xbdcebeb2	-0.10094966
139	0x3e06bdc1	0.13158323
140	0xbd0591ee	-0.032609873
141	0x3d491461	0.0490917
142	0x3d4808e0	0.04883659
143	0x3d8766fe	0.06611441
144	0x3f125cde	0.57172954
145	0x3d2e2d44	0.042523637
146	0xbd99bdc5	-0.07506899
147	0x3d982442	0.07428791
148	0xbe5abaa3	-0.21360259
149	0x3deb87b6	0.11500494
150	0x3e04fb56	0.12986502
151	0x3dc83ad9	0.09776849
152	0xbd6eeb1c	-0.058329687
153	0x3db86394	0.09003368
154	0xbd8adc05	-0.06780247
155	0x3d74726a	0.059679426
156	0x3d6ffad3	0.058588814
157	0x3dc7e95d	0.097613074
158	0x3dc2d0fa	0.09512515
159	0x3e855cf9	0.26047495
160	0x3d8ab7f0	0.067733645
161	0x3e076b5b	0.13224547
162	0x3e1469e0	0.14493513
163	0xbc5a09d7	-0.01330801
164	0xbc550ab3	-0.013003039
165	0xbd5185e7	-0.05115309
166	0xbd33b4dc	-0.043873653
167	0x3e31ce20	0.17363787
168	0xbe2e0d01	-0.16997148
169	0x3d0fb41d	0.03508388
170	0xbd250b9c	-0.040294275
171	0xbd660679	-0.056158517
172	0xbd305d90	-0.04305798
173	0x3d93670b	0.07197388
174	0x3e039e5a	0.12853375
175	0xbe332d5e	-0.17497775
176	0x3d90cfc5	0.07070879
177	0x3e53e5c7	0.20693122
178	0xbce708a5	-0.028202364
179	0x3d0c59d4	0.034265354
180	0x3ed0bf44	0.40770924
181	0xbf287ae2	-0.65812504
182	0x3ee22aaf	0.4417319
183	0x3db7f5ca	0.089824274
184	0x3d0cb872	0.03435559
185	0xbd2a8650	-0.041631997
186	0xbda4aad5	-0.08040396
187	0xbe27b3f3	-0.16377239
188	0x3e945507	0.2897112
189	0xbe5a26ee	-0.21303913
190	0xbd31c3f1	-0.043399755
191	0xbe32628e	-0.17420408
192	0x3eb4a46b	0.3528169
193	0xbe07062e	-0.13185951
194	0x3dd38720	0.103285074
195	0xbe1018a6	-0.14071903
196	0xbe46f177	-0.19428049
197	0x3e140741	0.14455892
198	0xbd5d5227	-0.054033425
199	0x3d964d1d	0.07338927
200	0x3e7a4f47	0.24444304
201	0xbe1b8aa9	-0.15189613
202	0x3e2dfb07	0.1699029
203	0x3c4112e4	0.011784289
204	0x3de83de7	0.11339932
205	0xbde2e850	-0.11079466
206	0xbf2c7522	-0.6736623
207	0x3d9e2345	0.07721571
208	0x3de39ae1	0.11113525
209	0xbd12e8cc	-0.035866544
210	0xbd9b7483	-0.07590582
211	0xbe0ad11f	-0.13556336
212	0x3ebc1050	0.36731195
213	0xbe9d357c	-0.30704868
214	0xbd6832b1	-0.056688968
215	0x3e04e90a	0.12979522
216	0x3dd135ea	0.102153614
217	0x3e0ac7f0	0.13552833
218	0x3e78ebc6	0.2430869
219	0x3b2bd35a	0.0026218505
220	0xbd7d9536	-0.061909877
221	0x3d8636f5	0.06553451
222	0xbdf24128	-0.11828834
223	0xbe61eba2	-0.22062543
224	0xbe87ead0	-0.26546335
225	0xbe7818be	-0.24228188
226	0xbd99e839	-0.07514996
227	0x3e86dbe0	0.26339626
228	0x3e17a278	0.1480807
229	0x3db10e01	0.08645249
230	0x3d0bfd0f	0.034176882
231	0xbe7d739d	-0.24751134
232	0xbeecf7e5	-0.4628288
233	0x3d1a05b3	0.03760309
234	0x3d1b51ec	0.037919924
235	0xbe7ca4e0	-0.2467227
236	0x3e9672ca	0.29384452
237	0x3e262dff	0.16228484
238	0xbc882f72	-0.016624186
239	0x3cd6808f	0.026184348
240	0x3e3fcf40	0.18731403
241	0xbe081c62	-0.13292077
242	0x3adbe17c	0.0016775574
243	0x3decbbeb	0.1155928
244	0x3df88a04	0.121356994
245	0x3d2725e3	0.040807616
246	0x3c9a3137	0.018822296
247	0xbda46d09	-0.08028609
248	0xbdbfff87	-0.0937491
249	0xbe83a724	-0.25713456
250	0x3e2c2253	0.16809969
251	0xbd7032e3	-0.05864228
252	0x3e398985	0.18118866
253	0xbbd1d47b	-0.0064035035
254	0xbc8e12d5	-0.017342964
255	0x3da354c2	0.07975151

bias f4 [16]
0	0xbe81da19	-0.25361708
1	0xbf08c2a5	-0.53422004
2	0xbe182c8a	-0.1486074
3	0xbddcec4a	-0.10787256
4	0xbd654778	-0.05597636
5	0xbd6dfcec	-0.058102533
6	0xbec36374	-0.38161814
7	0x3ed88c27	0.42294428
8	0xbef273d4	-0.47353995
9	0xbc15f48f	-0.009152546
10	0x3dcb153b	0.09916159
11	0xbdc4fa0a	-0.09618004
12	0xbdc521d6	-0.09625594
13	0x3e9eda89	0.31026104
14	0x3e7a0678	0.2441653
15	0xbf305cc2	-0.6889154

weight f4 [64, 112]
0	0xbdbe5cff	-0.09295081
1	0xbc91c983	-0.017796284
2	0xbdc55236	-0.09634821
3	0x3cd05f44	0.025436051
4	0x3d023b12	0.031794615
5	0xbdd93d00	-0.10607338
6	0xbdaf2099	-0.085511394
7	0xbdb94f73	-0.09048357
8	0xbdc3f979	-0.095690675
9	0xbca7758a	-0.02044179
10	0xbd087175	-0.033311326
11	0xbd845d1c	-0.06463072
12	0xbda07621	-0.07835031
13	0x3d22c14c	0.039735124
14	0xbcb55956	-0.022137325
15	0xbd2f1980	-0.042748928
16	0xbca11976	-0.019665461
17	0xbd24f56e	-0.040273122
18	0xbd5d2d2d	-0.05399816
19	0x3d3017a2	0.042991288
20	0x3d6b2bd0	0.05741483
21	0xbda137ce	-0.07871972
22	0x3b6c9826	0.003610143
23	0x3d76d79b	0.06026421
24	0xbddca8eb	-0.10774406
25	0xbcf9cd33	-0.030493354
26	0xbc8a5eda	-0.016890932
27	0xbcadd940	-0.021221757
28	0x3ccff082	0.025383238
29	0x3d5ba419	0.053623293
30	0xbdb05d58	-0.08611554
31	0xbc3451e4	-0.011005852
32	0x3c64111a	0.013920093
33	0xbdbdd62e	-0.09269367
34	0xbd74af70	-0.059737623
35	0xbda5559d	-0.0807297
36	0xbd936a41	-0.07198001
37	0x3be5c866	0.0070124147
38	0xbd2e655c	-0.042577133
39	0xbd992beb	-0.0747908
40	0xbce0c40f	-0.027437238
41	0xbba92ab2	-0.0051625604
42	0xbd603939	-0.05474207
43	0xbd363b3e	-0.04449009
44	0xbc7d44a3	-0.015458259
45	0xbd0be6a1	-0.03415549
46	0x3d418560	0.047246337
47	0xbd85840d	-0.06519327
48	0xbd45b4f1	-0.048268262
49	0x3c5e376f	0.013563021
50	0xbdd75292	-0.10513796
51	0xbd5a6e62	-0.053327926
52	0x3c02878f	0.00796689
53	0xbd23b8f0	-0.039971292
54	0xbd0835fc	-0.03325461
55	0xbb3297b7	-0.0027251074
56	0xbd7e9f27	-0.0621635
57	0xbc7719e6	-0.015081858
58	0xbdf2dada	-0.11858149
59	0x3d3076c9	0.043082032
60	0xbde31a6c	-0.11089024
61	0x3d488161	0.04895151
62	0x3c775efc	0.01509833
63	0xbd331778	-0.043723553
64	0xbd4b7f60	-0.04968202
65	0xbdbb4c38	-0.09145397
66	0x3d8d9e14	0.06914917
67	0x3d5f3b57	0.05449995
68	0x3d70f779	0.05882976
69	0x3cc0cfd8	0.023536608
70	0xbdd7b4f9	-0.10532565
71	0xbdefc3f1	-0.11707295
72	0xbdc8fb6d	-0.09813581
73	0xbcbd46d1	-0.023105057
74	0xbd60cc7d	-0.054882515
75	0xbc7bb356	-0.015362581
76	0xbd38341f	-0.04497158
77	0x3c87a98c	0.016560338
78	0x3d790f16	0.060805403
79	0x3daffa88	0.08592707
80	0x3d64dbf7	0.055873837
81	0x3d9da802	0.076980606
82	0xbb4db569	-0.0031388646
83	0xbd766216	-0.060152136
84	0xbcbe9b49	-0.023267405
85	0xbda903fa	-0.082527116
86	0xbd3e9f2e	-0.046538524
87	0xbdbc67b9	-0.09199471
88	0x3d7cc354	0.061709717
89	0xbc8a4ea0	-0.016883194
90	0xbdbbb849	-0.09166009
91	0x3d611417	0.0549508
92	0xbdca7e55	-0.09887377
93	0xbde3d1f7	-0.11124032
94	0xbd0a9bea	-0.033840097
95	0x3d8e6944	0.069536716
96	0xbb2c3e48	-0.002628224
97	0x3d3a49c6	0.045480512
98	0xbd80f6fe	-0.0629711
99	0xbdac9cc5	-0.08428339
100	0xbc813089	-0.015770214
101	0x3bba303c	0.0056820195
102	0xbdd3830c	-0.103277296
103	0xbd15e4bb	-0.036595087
104	0xbde40d61	-0.11135364
105	0xbcb65a1c	-0.022259764
106	0xbcda8f00	-0.026679516
107	0xbd73eb92	-0.05955083
108	0xbd42e51e	-0.047581784
109	0xbcdaf482	-0.026727919
110	0xbd6d2740	-0.05789876
111	0x3c93335a	0.017968822
112	0x3ed635aa	0.41837817
113	0x3e37518c	0.17902201
114	0x3bae2bb0	0.0053152665
115	0xbe7cf6a7	-0.24703465
116	0xbc598a9f	-0.013277679
117	0x3d9e54e8	0.07731038
118	0x3ef44b75	0.4771382
119	0x3c01cb1f	0.007921963
120	0xbe0da348	-0.13831818
121	0xbe6081ba	-0.21924487
122	0x3d155b4c	0.03646402
123	0xbce920da	-0.028458048
124	0x3e84ec01	0.25961307
125	0xbe9d66ba	-0.30742437
126	0x3db19e7c	0.086728066
127	0xbea86955	-0.32892862
128	0xbe534282	-0.2063084
129	0x3d93f0ec	0.072236866
130	0x3e6aecc9	0.22941889
131	0x3df62e77	0.12020581
132	0x3e794433	0.24342422
133	0xbe43162d	-0.19051428
134	0x3ea0c2f5	0.3139874
135	0x3e7b59ef	0.24546026
136	0x3ba9606d	0.0051689656
137	0xbd6899be	-0.056787245
138	0xbe0bb605	-0.13643654
139	0x3ec4ab05	0.38411728
140	0xbdb090ea	-0.0862139
141	0x3d43e698	0.047827333
142	0x3e7c4b99	0.24638213
143	0x3d30c554	0.043156937
144	0xbe257582	-0.16158107
145	0xbbd320b7	-0.006443109
146	0x3d44c050	0.048034966
147	0x3d96784f	0.07347166
148	0x3e47ea60	0.19523
149	0x3e829e6c	0.2551149
150	0xbe083184	-0.13300139
151	0xbe44c0c0	-0.19214153
152	0x3d8fb32d	0.07016597
153	0xbd2aceee	-0.04170125
154	0xbe8d338c	-0.2757839
155	0xbbf6d5f1	-0.007532828
156	0x3e6d5fe5	0.23181112
157	0x3e77744e	0.2416546
158	0xbd7d089f	-0.0617758
159	0xbe08aa9b	-0.13346331
160	0xbd72d406	-0.059284233
161	0x3c84d2ad	0.01621374
162	0xbe818961	-0.25300124
163	0x3e5f9660	0.21834707
164	0x3e681e3a	0.2266778
165	0xbe1b1e05	-0.1514817
166	0x3c7e14cf	0.015507891
167	0xbe12fbca	-0.14353862
168	0x3ef6e0c9	0.48218372
169	0xbddf84bb	-0.10913988
170	0xbe789dd6	-0.2427896
171	0xbe38feae	-0.18065903
172	0x3dfa0e64	0.12209776
173	0x3cfc2b89	0.030782478
174	0x3e0907c9	0.13381876
175	0xbd78df1d	-0.060759652
176	0xbcfc37bf	-0.0307883
177	0x3c5bc181	0.013412834
178	0xbd2a7f82	-0.041625507
179	0xbd54fd65	-0.05199947
180	0xbd19c8ca	-0.037545003
181	0x3d5b0cd7	0.053479042
182	0x3cf448f1	0.029819937
183	0x3e335b03	0.17515187
184	0x3eae0017	0.33984444
185	0x3eb687a8	0.35650373
186	0xbdd26bfe	-0.10274504
187	0xbd824b4e	-0.063620195
188	0xbd6b851d	-0.057499994
189	0x3c3c14d9	0.01147958
190	0x3dc90a69	0.09816439
191	0xbd67c3a2	-0.056583054
192	0xbdac4717	-0.08411997
193	0xbdb75c7c	-0.08953187
194	0x3c091e1c	0.008368995
195	0xbc153d22	-0.0091088135
196	0xbd17c9db	-0.03705774
197	0xbca5bb9f	-0.020231066
198	0xbcda0775	-0.026614884
199	0xbddfb5d0	-0.1092335
200	0xbc05fa18	-0.008177303
201	0xbdc51a5e	-0.0962417
202	0xbd3e2b11	-0.04642779
203	0x3e105281	0.14093973
204	0xbdbf3afe	-0.09337424
205	0xbe62382a	-0.22091737
206	0xbd871f77	-0.06597798
207	0x3e158cd4	0.14604503
208	0xbc481fb8	-0.012214594
209	0x3dc3157c	0.09525582
210	0xbe50bb7d	-0.20384021
211	0xbd898c95	-0.06716267
212	0xbdf6090e	-0.12013446
213	0x3d7cd463	0.061725985
214	0x3e0412b6	0.12897763
215	0x3e0013ba	0.12507525
216	0xbd8dc8b7	-0.06923049
217	0xbe7e8bef	-0.24858068
218	0xbe8074ac	-0.25089014
219	0xbdaec1d8	-0.085330665
220	0x3ec586cc	0.38579404
221	0x3e66e4c6	0.22548208
222	0x3c8f8b8e	0.0175226
223	0x3d8c3f91	0.06848062
224	0x3e8eca92	0.27888924
225	0x3d6b77b4	0.057487205
226	0xbdeb0dd3	-0.11477246
227	0x3d81abc5	0.063315906
228	0x3e4422f7	0.19153963
229	0xbc271805	-0.010198598
230	0x3e3eb10e	0.18622229
231	0x3ea8bd92	0.3295713
232	0xbdc4455c	-0.09583542
233	0x3d58138b	0.052753013
234	0x3d2af1bb	0.04173444
235	0x3daead4c	0.085291475
236	0xbcafa31f	-0.021440087
237	0x3bf10022	0.007354752
238	0x3e13e35b	0.14442198
239	0x3db63ce6	0.08898334
240	0xbe22ada3	-0.1588655
241	0x3e072942	0.13199332
242	0x3d652c09	0.0559502
243	0x3caf7686	0.021418821
244	0x3bc1db78	0.0059160553
245	0x3d30e12a	0.043183483
246	0x3e3a033e	0.181653
247	0x3d8ac1c4	0.06775239
248	0xbd148802	-0.03626252
249	0xbd37481b	-0.0447465
250	0x3d91aee3	0.07113435
251	0x3d3c7185	0.0460067
252	0x3e3d3f6e	0.18481228
253	0x3bee3daa	0.0072705345
254	0x3d33b05f	0.043869372
255	0xbd24e2a2	-0.040255196

bias f4 [64]
0	0xbd18d064	-0.03730811
1	0x3d38d629	0.045126114
2	0x3e80cc16	0.25155705
3	0x3d60cd66	0.054883383
4	0xbc0b3012	-0.008495348
5	0xbdba4e2d	-0.09096942
6	0x3db00517	0.08594721
7	0x3c144f4b	0.009052108
8	0xbcbd8d6b	-0.023138722
9	0x3ddb7999	0.10716552
10	0xbd6a3a55	-0.057184536
11	0x3e323c53	0.17405824
12	0xbe0b7904	-0.13620383
13	0x3e2fc233	0.17163925
14	0x3dccdee3	0.1000345
15	0x3e102a01	0.14078523
16	0xbdb90f69	-0.090361424
17	0xbdf0bbc3	-0.11754563
18	0xbe0dcbf1	-0.13847329
19	0xbd71498c	-0.05890803
20	0x3d4dd7ba	0.05025456
21	0x3dbd988c	0.09257612
22	0xbd4aeb3f	-0.049540754
23	0xbdd33323	-0.10312488
24	0x3e3e9487	0.18611346
25	0x3e4f1a43	0.20224862
26	0xbd9be93b	-0.076128446
27	0x3e2dfe43	0.16991524
28	0xbe03e451	-0.12880065
29	0xbd8b6a09	-0.06807334
30	0xbda1255e	-0.07868455
31	0xbd587f0f	-0.052855548
32	0xbc93a09e	-0.018020924
33	0xbd91ee27	-0.07125502
34	0xbde47d4b	-0.1115671
35	0x3db6731e	0.089086756
36	0xbd37f9eb	-0.044916075
37	0xbd6af03b	-0.057358008
38	0xbdc107c4	-0.09425309
39	0x3cf32471	0.029680463
40	0x3d065cb3	0.03280325
41	0xbdf13b46	-0.11778884
42	0x3d1e374f	0.038626965
43	0xbd7a6a22	-0.061136372
44	0x3e06dfb7	0.13171278
45	0x3d8cc923	0.06874301
46	0xbe45aa2b	-0.19303195
47	0xbf898005	-1.0742193
48	0xbe5c8861	-0.215364
49	0xbda252ab	-0.07925924
50	0x3d1b4a99	0.03791294
51	0xbd876b47	-0.066122584
52	0xbc0226b9	-0.0079438025
53	0xbe896a34	-0.2683884
54	0x3b8f2684	0.004368605
55	0xbdaddede	-0.08489774
56	0x3d89af4f	0.067228906
57	0x3e262337	0.16224371
58	0x3e0a8810	0.13528466
59	0x3d9659d4	0.07341352
60	0x3d3e72a5	0.046496052
61	0x3e1d8e4a	0.1538631
62	0xbd5fff11	-0.05468661
63	0x39035434	0.00012524502

weight f4 [32, 64]
0	0x3a7fa7a2	0.0009752457
1	0x3dae4de3	0.085109495
2	0xbdb8ea95	-0.09029118
3	0x3bb11f70	0.005405359
4	0x3f3cb1c5	0.73708755
5	0xbea5eec1	-0.32408717
6	0x3dbd686c	0.092484325
7	0x3db37022	0.08761622
8	0x3da4a3fe	0.080390915
9	0x3d5e7c05	0.054317493
10	0x3e273a4a	0.1633083
11	0x3e5eff34	0.2177704
12	0x3e246c90	0.16057038
13	0xbe8fbd64	-0.2807418
14	0x3e001ac1	0.12510206
15	0xbd8bb99b	-0.06822511
16	0x3de56fb3	0.112029456
17	0x3d0abb77	0.033870187
18	0x3b6dbd5f	0.0036276204
19	0xbd7e16b3	-0.062033366
20	0xbd20e020	-0.039276242
21	0x3e2860a4	0.16443115
22	0xbd5e106b	-0.054214876
23	0x3dc4587e	0.09587191
24	0xbe89fa7c	-0.26948917
25	0x3d645d32	0.05575294
26	0xba6dd71c	-0.00090728863
27	0x3d882a35	0.06648675
28	0x3dd86945	0.105669536
29	0x3e5392c4	0.20661455
30	0xbd9e9ee9	-0.077451535
31	0x3e7e6295	0.24842294
32	0xbd874a2f	-0.06605946
33	0x3e1a8735	0.1509064
34	0x3dee3144	0.116304904
35	0xbe166ba8	-0.14689505
36	0xbe3e497d	-0.18582721
37	0x3dd7bb28	0.10533744
38	0x3c933146	0.017967831
39	0x3d82c012	0.06384291
40	0xbddd5785	-0.10807709
41	0xbe32a5b0	-0.17446017
42	0x3d9d3ace	0.07677232
43	0xbc881e25	-0.016615937
44	0x3df18077	0.11792081
45	0x3e3206f5	0.17385466
46	0xbe68e5fc	-0.22743982
47	0x3e6d2dc0	0.23161983
48	0x3ded035f	0.115729086
49	0x3e0d8d35	0.13823397
50	0xbe0a5c47	-0.13511764
51	0x3ef18aa3	0.47176084
52	0xbddd5ab4	-0.10808316
53	0xbd897ef6	-0.06713669
54	0xbe061876	-0.13095269
55	0xbda9a664	-0.082836896
56	0xbdd592e2	-0.10428406
57	0x3ea19051	0.31555417
58	0x3e449081	0.19195749
59	0xbc9b9ad5	-0.018994728
60	0x3c8c930f	0.017159967
61	0x3da382a3	0.07983901
62	0x3e2c271b	0.16811793
63	0x3b869651	0.0041072746
64	0xbd918048	-0.07104546
65	0x3dae0a83	0.08498099
66	0x3d49bd66	0.04925289
67	0xbba5fd40	-0.00506559
68	0xbdb8a7d1	-0.090163834
69	0x3cb845a1	0.02249414
70	0xbd2df999	-0.042474363
71	0x3c5daff6	0.013530722
72	0xbdaa55c0	-0.08317137
73	0xbd240e25	-0.04005255
74	0x3c438610	0.011933818
75	0x3d981abb	0.074269734
76	0x3d452b44	0.048136964
77	0x3d4e636b	0.05038778
78	0xbde30b71	-0.11086167
79	0xbd8109f8	-0.063007295
80	0x3d090c51	0.03345901
81	0x3d57c719	0.05268011
82	0x3dce22c1	0.100652225
83	0xbe158249	-0.14600481
84	0xbd930c41	-0.071800716
85	0x3dcfaedb	0.10140773
86	0x3d119238	0.035539836
87	0xbc346517	-0.01101043
88	0xbdf9edb4	-0.122035414
89	0x3d97669d	0.07392619
90	0x3bc93c63	0.006141232
91	0x3a6d3c38	0.0009049806
92	0x3c584380	0.013199687
93	0x3da19a50	0.07890761
94	0xbdf3a176	-0.118960306
95	0xbd263a90	-0.040583193
96	0xbd84987c	-0.064743966
97	0xbe13b413	-0.14424162
98	0xbd71339b	-0.058887105
99	0x3d014115	0.031556208
100	0xbe0d1b11	-0.13779856
101	0xbc8cdb38	-0.017194375
102	0x3dec4e37	0.11538356
103	0x3d8d713d	0.06906364
104	0xbdd7afa2	-0.10531546
105	0xbde7e1a6	-0.11322336
106	0x3c3d1ed7	0.011542997
107	0x3d5935d8	0.053029865
108	0xbd32918e	-0.043595843
109	0xbd88c58c	-0.06678304
110	0xbd563074	-0.052292302
111	0x3db6daba	0.089284375
112	0xbdff44f3	-0.12464323
113	0xbde72d13	-0.11287894
114	0xbe17e78b	-0.1483442
115	0xbad57515	-0.0016285504
116	0xbd85e42a	-0.065376595
117	0x3dbfaa5c	0.09358665
118	0x3bd2a48b	0.0064283065
119	0x3d1d086b	0.038338106
120	0x3daebfee	0.085327014
121	0xbd7c2235	-0.06155606
122	0xbdcd35f4	-0.10020056
123	0xbd49f820	-0.049308896
124	0x3d93270e	0.071851835
125	0xbe03b7f3	-0.1286314
126	0xbcc0fddb	-0.023558548
127	0x3dbf98a1	0.093552835
128	0xbd2a0fa8	-0.041518837
129	0xbc65197e	-0.013983129
130	0xbdc0be15	-0.09411255
131	0xbd9fc906	-0.07802014
132	0x3dc84dd5	0.0978047
133	0xbbb41633	-0.0054958104
134	0xbd1b35c4	-0.03789307
135	0x3dbd5e94	0.09246555
136	0xbd1e2ba9	-0.038615856
137	0x3d554590	0.052068293
138	0x3d7adfc8	0.06124857
139	0x3d0ef0fe	0.034897797
140	0xbdd40e94	-0.10354343
141	0xbb364dcb	-0.0027817364
142	0x3da25a13	0.079273365
143	0xbe01b4fe	-0.126667
144	0x3d7e4240	0.0620749
145	0x3be16f40	0.006879717
146	0x3d647792	0.055778094
147	0xbdd826d3	-0.1055428
148	0xbdf08f92	-0.11746134
149	0xbd878f16	-0.06619088
150	0x3d5df4f6	0.05418869
151	0xbd9a72a3	-0.075413965
152	0xbd9601e5	-0.0732458
153	0xbe004d95	-0.12529595
154	0xbd3bb5c4	-0.045827642
155	0xbdd2cd06	-0.10293011
156	0xbd566358	-0.052340835
157	0xbe0d8675	-0.13820823
158	0xbdaab83e	-0.08335923
159	0xbdf1ad59	-0.118006416
160	0xbe1ca7b0	-0.15298343
161	0x3d3e1419	0.046405885
162	0xbdbc658f	-0.09199058
163	0x3d9053cd	0.07047234
164	0x3dace8dd	0.08442853
165	0x3d059eec	0.032622263
166	0xbdede5a2	-0.116160646
167	0xbd0b7361	-0.03404558
168	0x3d8d3c9e	0.068963274
169	0xbd6d515b	-0.057938915
170	0xbd5b5cd9	-0.053555343
171	0x3dcea2e3	0.10089662
172	0xbca6398a	-0.020291109
173	0xbd986977	-0.07441991
174	0xbcdc79d6	-0.026913565
175	0xbd821b7e	-0.063529
176	0x3d902ce4	0.07039812
177	0x3ce55ab1	0.027997347
178	0xbdd50f1e	-0.10403274
179	0xbd2195c4	-0.03944947
180	0xbdc8f190	-0.098116994
181	0xbde1d152	-0.11026253
182	0xbda52edc	-0.08065578
183	0xbd60d130	-0.054886997
184	0xbdb7cdd4	-0.089748055
185	0xbcb25020	-0.021766722
186	0xbe0734ef	-0.13203786
187	0x3cc63287	0.024194015
188	0x3d6c3334	0.05766602
189	0xbd100121	-0.035157327
190	0xbd56ab67	-0.052409556
191	0x3bb22cc0	0.0054374635
192	0x3c034830	0.008012816
193	0xbae31a80	-0.0017326623
194	0xbdd33bbe	-0.10314129
195	0x3d799d84	0.060941234
196	0xbdcf5cf6	-0.10125153
197	0xbc3a4440	-0.011368811
198	0xbdbaaeda	-0.091153815
199	0xbc8e0ec8	-0.017341033
200	0xbcf06d98	-0.029349133
201	0x3db35da4	0.08758095
202	0x3d93ea52	0.072224274
203	0x3d591ba8	0.05300489
204	0x3d8abcc0	0.067742825
205	0x3de48d48	0.1115976
206	0xbde7f6fe	-0.11326407
207	0x3db77be8	0.0895918
208	0xbd1a631c	-0.037692174
209	0xbdf39782	-0.11894132
210	0xbc10cac0	-0.008837402
211	0x3d2fd5dc	0.04292856
212	0xbcc92220	-0.024552405
213	0xbdc994fa	-0.09842868
214	0x3c458ff0	0.012058243
215	0xbd4b7ec0	-0.049681425
216	0xbd8e3004	-0.06942752
217	0xbda94012	-0.082641736
218	0x3dff05ca	0.12452276
219	0x3d8108b6	0.063004896
220	0x3d196b50	0.037455857
221	0xbda8d2a6	-0.08243303
222	0xbddd8270	-0.108158946
223	0x3d45ce50	0.048292458
224	0xbdd625d2	-0.104564324
225	0xbdf62be6	-0.12020092
226	0xbceac740	-0.028659463
227	0xbc9118e8	-0.017712072
228	0xbcf7ac28	-0.030233458
229	0xbd90d29c	-0.070714206
230	0x3c994590	0.018709928
231	0xbdee0174	-0.11621371
232	0x3dea64fa	0.11445041
233	0xbd5a4370	-0.05328697
234	0x3d831382	0.06400205
235	0xbcc71928	-0.024303988
236	0x3dd88958	0.10573071
237	0x3c29d720	0.010366231
238	0xbc9c6e68	-0.019095615
239	0x3c0b6130	0.008507058
240	0xbd8f0bc2	-0.069846645
241	0xbd043350	-0.032275498
242	0x3d917468	0.07102281
243	0x3c1c2310	0.009529844
244	0xbd6dbb1c	-0.05803977
245	0xbdf2184a	-0.11821039
246	0xbd8c4b98	-0.06850356
247	0xbd884a68	-0.06654817
248	0xbd9bbefe	-0.07604788
249	0xbd8bf1ae	-0.06833206
250	0x3d454370	0.048160017
251	0xbdfc8c58	-0.12331456
252	0x3db1a7aa	0.086745575
253	0xbdcb7d88	-0.099360526
254	0xbdbe8d42	-0.093042865
255	0x3cc646c8	0.024203673

bias f4 [32]
0	0x3e2ddd2a	0.16978899
1	0xbd8fc442	-0.07019855
2	0xbdce8489	-0.10083873
3	0xbdbc1956	-0.0918452
4	0xbd4a55c1	-0.049398188
5	0xbe116da2	-0.14201978
6	0x3e4c93e0	0.19978285
7	0xbcebbd63	-0.02877683
8	0xbee3d88a	-0.44501144
9	0xbce32961	-0.027729692
10	0x3c8b5d5c	0.01701229
11	0x3dc9e937	0.09858935
12	0x3e00315f	0.12518834
13	0x3d8cb4d1	0.068704255
14	0x3d45893d	0.048226584
15	0x3e1ba052	0.15197876
16	0xbc9b1d91	-0.018934997
17	0x3e98cb7c	0.29842746
18	0x3d0c77f8	0.0342941
19	0xbe271eb9	-0.16320314
20	0x3ea5e40d	0.3240055
21	0x3e7b8297	0.24561535
22	0xbd811f68	-0.063048184
23	0x3bafc4ae	0.005364022
24	0xbd022404	-0.03177263
25	0xbf757693	-0.95884055
26	0x3da5fceb	0.08104881
27	0x3efc2738	0.49248672
28	0x3e6629dc	0.22476906
29	0xbd6164b7	-0.05502769
30	0x3dbb42b9	0.09143586
31	0x3e2d8865	0.16946562

weight f4 [16, 32]
0	0xbbc32ee3	-0.005956517
1	0x3e0c229e	0.1368508
2	0x3dd6fdc4	0.10497621
3	0xbd31389c	-0.043266878
4	0x3de0b08d	0.109711744
5	0xbe2aa575	-0.1666468
6	0x3e5ea3ab	0.21742122
7	0x3e49b82b	0.19699161
8	0xbf51470f	-0.8174905
9	0xbe02c5bd	-0.12770744
10	0x3e50a43f	0.20375155
11	0x3e468e39	0.19390191
12	0xbe163ab5	-0.14670832
13	0x3da5fd62	0.081049696
14	0x3db950aa	0.090485886
15	0x3bfad932	0.007655286
16	0xbca0ddfb	-0.019637099
17	0x3eb9018d	0.36133996
18	0x3de426b5	0.11140195
19	0xbd06a3c3	-0.03287102
20	0x3e4c5c10	0.19956994
21	0x3e8549e2	0.2603293
22	0x3ca10ed1	0.019660385
23	0xbe695c83	-0.22789197
24	0xbdcec14f	-0.100954644
25	0xbe56b8b5	-0.20968898
26	0x3e6ed983	0.23325162
27	0x3e3e4f6a	0.18584982
28	0x3ea0b8fa	0.31391126
29	0xbe5e9af0	-0.21738791
30	0xbe762328	-0.24036849
31	0xbe780a44	-0.24222666
32	0xbd80d646	-0.062908694
33	0xbe15afef	-0.14617895
34	0xbc303263	-0.010754201
35	0xbc4791b4	-0.012180734
36	0x3c2ece30	0.010669276
37	0xbd6fe62d	-0.058569122
38	0x3d95c1bc	0.073123425
39	0xbe77fcad	-0.24217482
40	0xbe154a4e	-0.14579126
41	0xbcbf3852	-0.023342285
42	0x3d22ac05	0.03971483
43	0xbce91c50	-0.028455883
44	0xbdf897a7	-0.121383004
45	0x3db08772	0.08619584
46	0x3e06b507	0.13154994
47	0x3e98e0e5	0.2985908
48	0xbcd698f2	-0.026195977
49	0x3e970456	0.29495496
50	0x3b5be683	0.0033554144
51	0x3d13e8bf	0.036110636
52	0x3e2f8c4d	0.17143364
53	0xbe9795ef	-0.29606578
54	0x3db19e93	0.08672824
55	0xbcbd5c3d	-0.023115272
56	0xbe538405	-0.2065583
57	0xbe92b961	-0.28657058
58	0xbecc97ff	-0.39959714
59	0x3e702158	0.2345022
60	0xbd96c075	-0.07360927
61	0xbde7bfee	-0.113159046
62	0x3d764aa0	0.06012976
63	0x3d0e1685	0.034689445
64	0x3e8f0ab5	0.27937856
65	0x3d11f34b	0.035632413
66	0x3cf8f4d6	0.030390184
67	0xbe032b9b	-0.12809603
68	0x3c6da142	0.014503779
69	0xbe4bac76	-0.19890007
70	0x3e140d8b	0.14458291
71	0xbe204259	-0.1565031
72	0xbea79214	-0.32728636
73	0x3c20e220	0.009819537
74	0x3e5a3795	0.21310265
75	0x3e7a4696	0.24440989
76	0x3b217d38	0.0024641287
77	0xbe9a8a51	-0.30183652
78	0x3c32ec28	0.010920562
79	0xbe0f3706	-0.13985834
80	0x3e59c2c5	0.21265705
81	0x3e821a7a	0.25410825
82	0xbd8b425b	-0.06799766
83	0x3e598063	0.21240382
84	0xbec8ed2e	-0.39243454
85	0xbc75542e	-0.014973683
86	0xbe8b8027	-0.2724621
87	0x3dbbe332	0.091741934
88	0x3e41ddb6	0.18932232
89	0x3e171fd2	0.14758232
90	0xbe01f22c	-0.12690037
91	0x3d88b084	0.06674293
92	0x3e56da7e	0.20981786
93	0xbea639b7	-0.32465908
94	0x3e1cd1d5	0.1531442
95	0x3e85c54a	0.26127082
96	0xbe012b5e	-0.126142
97	0xbd2c29ca	-0.04203204
98	0xbcfe8816	-0.03107075
99	0x3e108f7a	0.14117232
100	0x3d597313	0.05308826
101	0x3eef16d5	0.46697107
102	0xbd94f6ec	-0.07273659
103	0xbdd42f36	-0.10360567
104	0xbe9b8163	-0.30372152
105	0x3dee5513	0.1163732
106	0x3e21080e	0.15725729
107	0xbdb4cd3c	-0.08828208
108	0x3e8b1df6	0.27171296
109	0xbd085b5e	-0.03329026
110	0xbe304e29	-0.17217316
111	0x3eb5a761	0.35479262
112	0xbe46bfd9	-0.19409122
113	0xbe194277	-0.1496676
114	0x3e03d3a5	0.12873705
115	0xbdb28a38	-0.087177694
116	0x3ddca8c8	0.1077438
117	0x3d9fccfe	0.07802771
118	0xbbb12c14	-0.005406866
119	0xbdd2affa	-0.10287471
120	0x3eb67ba6	0.3564121
121	0x3e4f0d23	0.20219855
122	0xbe39cc84	-0.18144423
123	0xbdda1167	-0.106478505
124	0xbd9326d7	-0.071851425
125	0x3d6e49ab	0.058175724
126	0xbdc9722d	-0.098362304
127	0x3d96a69b	0.07355996
128	0x3b90f555	0.004423777
129	0x3d48e9a3	0.04905094
130	0xbdcb3def	-0.09923922
131	0x3e30f215	0.17279847
132	0x3db24371	0.0870427
133	0xbc5e690c	-0.01357485
134	0xbe8d5f7d	-0.27611914
135	0xbdc4ca1d	-0.096088625
136	0xbeebdbde	-0.46066183
137	0xbd52cfec	-0.05146782
138	0xbdceb631	-0.10093344
139	0x3dc7c2af	0.0975393
140	0x3dcc632e	0.099798545
141	0x3e8e7a2c	0.27827585
142	0x3ca572ef	0.020196406
143	0x3d1e76e7	0.038687613
144	0x3dbc4bd2	0.09194149
145	0xbcc6be73	-0.024260735
146	0x3c60f477	0.01373016
147	0x3c902b8e	0.017598893
148	0xbe0db14e	-0.13837168
149	0xbd9cd38e	-0.07657538
150	0xbdf1aeaa	-0.11800893
151	0xbe8ad57c	-0.27116
152	0x3e43472f	0.19070123
153	0xbdd693d6	-0.10477416
154	0x3dd00ad7	0.101583175
155	0x3da2fb63	0.079581045
156	0x3e9b1ebe	0.30296892
157	0x3eb6edde	0.35728353
158	0x3e32f362	0.17475656
159	0xbe558a12	-0.20853451
160	0xbeb918d6	-0.3615176
161	0x3dfb23a3	0.122626565
162	0xbe040df5	-0.12895949
163	0xbd23748c	-0.03990607
164	0xbe216691	-0.15761782
165	0xbdf733b2	-0.12070407
166	0x3e542358	0.20716608
167	0xbdb6a08e	-0.08917342
168	0x3e2ad5ac	0.16683072
169	0xbe19a582	-0.15004542
170	0x3e16b7ed	0.147186
171	0xbda65d78	-0.081232965
172	0xbdcb480a	-0.0992585
173	0x3e0124de	0.1261172
174	0xbe3059ed	-0.17221804
175	0x3e032a65	0.12809141
176	0x3e017ea4	0.12645966
177	0x3e0beed7	0.13665329
178	0xbda12af6	-0.07869522
179	0x3d909300	0.07059288
180	0xbe88da5c	-0.26729095
181	0x3e1fec23	0.15617423
182	0xbd25745e	-0.04039418
183	0xbe895b65	-0.2682754
184	0xbec69183	-0.38782892
185	0xbe1e8080	-0.15478706
186	0x3e360179	0.17774
187	0xbc5d8b3c	-0.013521966
188	0x3d8c296e	0.068438396
189	0xbf15af41	-0.5847054
190	0x3d37f295	0.04490908
191	0x3ea5bd22	0.3237086
192	0x3d146b84	0.036235347
193	0xbd923137	-0.07138293
194	0x3d0c9fac	0.034331962
195	0x3d971230	0.07376516
196	0xbdda9d0c	-0.106744856
197	0x3e3447e3	0.17605548
198	0xbdf81d48	-0.1211496
199	0xbe1815ca	-0.14852062
200	0x3edfbe2e	0.43699783
201	0xbdfbcc74	-0.12294856
202	0xbd7576fc	-0.059927925
203	0x3dbecd87	0.09316545
204	0xbd31d452	-0.043415375
205	0xbe07adc2	-0.13249877
206	0xbd4a4b88	-0.04938844
207	0x3d48bc1f	0.04900753
208	0x3cbfdaac	0.0234197
209	0x3e3df7ba	0.18551531
210	0x3ec087fe	0.37603754
211	0xbda4d837	-0.08049052
212	0xbe586474	-0.2113207
213	0xbe333db5	-0.17504008
214	0x3ec507d6	0.3848254
215	0xbd548ca7	-0.05189195
216	0x3d452cbc	0.048138365
217	0x3ecdb0eb	0.4017404
218	0x3d947553	0.0724894
219	0xbe89bc6b	-0.26901564
220	0x3d0d78fc	0.034539208
221	0x3e2ffe70	0.17186904
222	0xbe856761	-0.26055434
223	0x3d33f449	0.04393414
224	0x3dceec98	0.101037204
225	0x3da71354	0.081579834
226	0x3e12c1a0	0.14331675
227	0x3d967cbf	0.07348012
228	0xbda16264	-0.07880095
229	0x3e14f4f4	0.14546567
230	0x3cbb1074	0.022834994
231	0x3d9a8601	0.075450905
232	0x3cfccf8d	0.030860687
233	0xbe270719	-0.16311301
234	0x3d695f74	0.056975797
235	0xbe8d010c	-0.2753986
236	0xbe2b2875	-0.16714652
237	0x3dde2242	0.10846378
238	0xbe524051	-0.20532347
239	0xbe8ff47e	-0.2811622
240	0x3d07f635	0.033193786
241	0x3e5a324e	0.21308252
242	0x3e6d8bf2	0.23197916
243	0xbda2d0d7	-0.07949989
244	0x3e05b0d3	0.13055734
245	0xbe56d249	-0.20978655
246	0x3cbeed76	0.02330659
247	0xbe2bfc36	-0.1679543
248	0x3e34b94d	0.17648812
249	0xbdc227b2	-0.094802275
250	0x3e2eb4df	0.17061184
251	0x3d8aab04	0.067709
252	0xbcd8332a	-0.026391584
253	0xbf080b26	-0.5314201
254	0x3e64ce17	0.22344242
255	0x3e1d6d6d	0.15373774

bias f4 [16]
0	0x3ea15500	0.31510162
1	0x3e3efe06	0.1865159
2	0x3edfa43c	0.43679988
3	0xbde998b3	-0.11406078
4	0xbe628e27	-0.2212454
5	0xbe9ed0df	-0.3101873
6	0xbf0452cb	-0.5168883
7	0x3e765970	0.24057555
8	0xbdd6bdb3	-0.10485401
9	0x3ee5666a	0.44804698
10	0xbcaa4bcb	-0.020788094
11	0xbeb19518	-0.34684062
12	0x3eb6f656	0.35734814
13	0x3c2041c7	0.009781308
14	0xbdea74fc	-0.11448094
15	0xbe0c09e3	-0.13675646
