AE Models/20lat1.139loss.pth (torch, 120354 bytes, 27 tensors)

weight f4 [16, 1, 4]
00000000: 9dd2 ae3d 669c ae3d eade a23d 426f 863c
00000010: af21 bc3d 1541 e43b 0e1f acbc 0ca2 b0bd
00000020: bbf2 27be 6d3a 4dbe 4fcd f63d 0e40 92be
00000030: a3f8 2bbe 998a 95bc bff9 8d3d c42f 413d
00000040: 7641 7f3b 7478 9c3d 6231 ae3d a59b 8f3d
00000050: 4039 73bd 30e7 edbe 0a05 cdbe 6ced 8abe
00000060: 75ee e93d c2a7 2b3d 9c78 e3bb 198d 8bbd
00000070: e49f 913d dac1 d6bd fc50 4fbd ceb2 af3d
00000080: 70a4 f0bc 766d c9bc 4c3c 14bd 80c3 34bd
00000090: 9c9a 633d 729c 683a 90b2 54bb 332c 993d
000000a0: 58d6 eebd f8f9 efbd bcae 12be b0c0 9cbd
000000b0: ab00 203e 2f2f 42bd 3e9e c4bd 330c 36be
000000c0: 555e 1fbe ff67 703c 822b c43b e4d8 043e
000000d0: 6753 ebbd ccea 81bd fb95 92bd aafe e13d
000000e0: 43f7 97bd 7a51 b23c 9feb 6e3c bf2e bf3d
000000f0: 9462 aebd 2212 66bc 2305 a63b ecce cdbd
0.08536265 0.085259244 0.07952674 0.016410474 0.09186112 0.006965766 -0.021010902 -0.08624658
-0.16401188 -0.20041819 0.12050878 -0.28564495 -0.16794066 -0.018254565 0.06932401 0.047164693
0.003894893 0.07640162 0.08505513 0.07012109 -0.05938077 -0.46465445 -0.40042907 -0.27134264
0.11422435 0.041908033 -0.006941868 -0.068140216 0.07110575 -0.10486193 -0.050614342 0.08579026
-0.029375285 -0.024588328 -0.036190316 -0.044131756 0.05556737 0.000887341 -0.0032455064 0.074791335
-0.116619766 -0.117176 -0.14324468 -0.0765394 0.15625255 -0.04740828 -0.09600495 -0.17778091
-0.15563329 0.014673232 0.005986632 0.12973362 -0.11490517 -0.06343612 -0.07157513 0.110349014
-0.07420208 0.021767367 0.014582544 0.09335088 -0.08514896 -0.014042409 0.0050665303 -0.10049233

bias f4 [16]
00000000: 8908 913c cf68 f03c c564 6c3e 94b2 04be
00000010: e812 ebbd 72f8 d9be 0e50 7bbf c93e 333b
00000020: 5bb1 093f 004d abbe 8cc0 dfbe 1ab5 97bf
00000030: 665c 18bb a95e f53e 312a cc3d bc87 8f3f
0.017704265 0.029346852 0.23085316 -0.12958747 -0.114782155 -0.4257236 -0.9816903 0.0027350655
0.5378625 -0.33457184 -0.4370159 -1.1852143 -0.0023248433 0.47923782 0.09968985 1.1213298

weight f4 [16, 16, 4]
00000000: 62ee 2d3d a8f8 4f3d b23d 50be b5c0 84be
00000010: 2e81 333d 1351 d0bd 7f6c 03bc 517c b93e
00000020: a276 463e b2cc c63c 09e0 a73e 9d72 8a3e
00000030: 1234 aabc 8494 633d 73f5 80bd 89eb aabe
00000040: 2e5a 3a3e 1b78 8c3d 6784 a0be 0673 93bd
00000050: d0f9 673d c098 c9bb 768e f4bd 180c adbc
00000060: 24ed 48be 9ba5 8b3e b9ff 433e bb35 02bd
00000070: 5070 d8bd fdfc db3c aacd e33d ebfc c43d
00000080: 69a8 6a3f 1975 c23e 5323 02be 2b0e 08bf
00000090: 24db 773d 728b 24be d8af 16bd 8584 3f3d
000000a0: 00cf 2fbb b878 ebbc fcbe 513d 80fa 4c3d
000000b0: 8de0 8cbf 8fd5 42be 7c5c 43be 7abe e1be
000000c0: b48a c7bc 8fd7 9e3d d0fc 4f3d c2da d2bc
000000d0: 6034 f33c 93c5 ccbd cc4e 6d3d 7ca4 f4bd
000000e0: bced f2bc dbe6 0b3e 4a8e 2fbe 47a1 8cbe
000000f0: f7e8 0f3d 8c00 1dbe d367 09be 88ce f6bc
00000100: a1d6 9a3c ff46 ac3d 144a 393e 3ee6 5cbd
00000110: f342 07be cc4c 1f3c 12f7 8d3d 25fc 4b3d
00000120: 349b 57be 4a3f b03e 10fa ac3d 0584 aa3e
00000130: 9ebe 06bc 27ba d73d 706d 903d ef42 e03d
00000140: 5d89 e93d ec8e 53bc 59e5 803d 67fc e5bd
00000150: 26a5 d9bd 8c7b 13bd f443 023d 005d c7bc
00000160: 5471 acbc 2a9d 64bd 1bf4 8cbc 9fad 88bd
00000170: 8758 8bbd 38f7 7ebd dec7 b5bc f357 b9bd
00000180: e779 f3bd 87fc df3e c492 7c3e 693e 12be
00000190: 3629 183e 4041 c13d 6f33 0a3d ff7c 8c3d
000001a0: 283c 9b3c 00f0 24bd c450 20bd a85f cdbc
000001b0: da35 b73d 8b0d 8c3d 4264 b03e 6f73 213e
000001c0: f5a7 eb3d 24da 3d3d 2fdb e53c 3660 af3d
000001d0: 53ac c83d 9ad8 c13d e4a5 113d 50bc 24be
000001e0: 6155 cabd c339 c43b 8bdd 34bd 4b08 83bd
000001f0: eae5 f5bd 119a d6bd 4146 19bc 5c54 4d3d
00000200: 45a0 b13d a362 acbd 3113 e4bc c709 6a3c
00000210: 59aa d03d 109e 10bd e548 a03d 30ec 8ebc
00000220: 7787 913a 00da 7abe 607e 6a3d 7f4e 46be
00000230: cd69 303e 14cb 613d 2d99 603d fdc0 bbbd
00000240: a60f 1a3d dd44 7a3d 6b5d 543d 8d2a 133e
00000250: 8c15 f6bd 2676 eb3d 12ed f9bd 5c06 583d
00000260: 8410 5cbe 82cb 513a 6009 0e3d 8a6f 743d
00000270: 4fcb 8ebc ef82 b2bc a7ab 54bc 94ba b43d
00000280: 2c92 2e3e 3b21 d3be a374 073d 4e71 a63d
00000290: 084d 0d3e 1162 9c3b 7865 5dbc 07ab a33c
000002a0: 7864 d4bc 3082 6ebd eef7 a5bd 583f 6b3d
000002b0: 7006 a73b e72e a23d 40f8 2bbd 9fa9 9cbb
000002c0: 24fd 63be 61dc 7e3c 91c5 d7bb a551 52bd
000002d0: dc54 cfbc 1121 82bd 7c88 8e3d c600 5cbc
000002e0: c183 c83c dfd2 793c 18ca 143d eb4f fe3d
000002f0: c7c6 aabd 4a4f 31bd e024 433d 6f6e aebc
00000300: 87d7 8abe 5dea 38be 2eb2 2abe 4c8c 153e
00000310: b410 9abd ee49 19bd 0450 2e3e d682 23bc
00000320: 9f43 ab3d 4fad f2bd c1aa 8bbe 9370 9cbf
00000330: d356 b83d 1a1d 67bd 8673 c2bc f7e3 023e
00000340: 5f9f b53d 6a86 7bbe ae67 213e 15f5 083e
00000350: c03a 7a3c acd2 f93d e84f ac3c 80a8 b5bb
00000360: ca26 193e 6876 83bf 612a 11bd 0966 f23d
00000370: 4f72 61bd fc9f 8d3d 4fbb 9c3b 5e3d d6ba
00000380: de5b 8dbd f7f2 d2be e10f bf3d 796a 44be
00000390: 98d9 30bb 958a 6fbe 30f2 6bbc b559 403e
000003a0: 0484 9bbd 68eb c63c e817 f2bd f419 eebd
000003b0: 4f6e 8fbe 26b1 eebe b153 173f 60cf 673e
000003c0: 5a87 2bbe 6491 203e 7d3d cbbc a964 303e
000003d0: 9db4 ee3d b92f d93c f984 093e a226 a93d
000003e0: 6c5e 5d3e 0ef1 9e3c fe3a c73d f5b0 3ebe
000003f0: e2ba 0d3e c720 8f3d f34e 573c 4353 b3be
0.042463668 0.050774246 -0.20336035 -0.25928274 0.043824367 -0.10171714 -0.008021473 0.36227658
0.19381192 0.024267528 0.32788113 0.27040568 -0.020776782 0.055561557 -0.06296816 -0.33382824
0.18198463 0.06858846 -0.31351015 -0.07199673 0.056634724 -0.0061522424 -0.11941235 -0.02112393
-0.19621712 0.27274784 0.19140519 -0.031789523 -0.10568297 0.026854033 0.11123212 0.09618553
0.91663224 0.37979963 -0.12708788 -0.5314662 0.060511723 -0.16068819 -0.03678879 0.04675724
-0.0026826262 -0.028744087 0.051207528 0.050043583 -1.1006027 -0.19026779 -0.19078249 -0.44090635
-0.024358131 0.07755958 0.05077821 -0.025739077 0.02968806 -0.09998622 0.057936475 -0.119454354
-0.029654376 0.13662283 -0.17144123 -0.27466795 0.035134282 -0.1533224 -0.13418512 -0.030127779
0.018901171 0.08411979 0.18094665 -0.053930514 -0.13209133 0.0097229 0.069318905 0.04980101
-0.21055299 0.34423286 0.08446133 0.33303848 -0.008224158 0.105335526 0.070521235 0.109502666
0.11403153 -0.012912493 0.062937446 -0.112297826 -0.10627203 -0.036006495 0.031803086 -0.024336338
-0.021050133 -0.055813946 -0.017206242 -0.066737406 -0.068039946 -0.062247485 -0.02219003 -0.09049978
-0.118884854 0.4374735 0.24665362 -0.1428162 0.1485947 0.094362736 0.033740457 0.068597786
0.018949583 -0.040267944 -0.039139524 -0.025070027 0.08945818 0.068385206 0.3445149 0.1576669
0.11506645 0.046350613 0.028058616 0.08563273 0.09798493 0.094651416 0.035558596 -0.1608746
-0.09879566 0.005988331 -0.044156592 -0.06398066 -0.12006743 -0.104786046 -0.009355129 0.05012928
0.08673147 -0.08417251 -0.027841182 0.014284558 0.10188741 -0.03530699 0.078264035 -0.017446607
0.0011102994 -0.24497223 0.057249427 -0.19365881 0.1722786 0.05512531 0.05483358 -0.09167669
0.03761258 0.06110083 0.051846903 0.143717 -0.120158285 0.114971444 -0.12203421 0.05274044
-0.21490675 0.00080030423 0.03467691 0.059676684 -0.01743093 -0.02179095 -0.012980378 0.088246495
0.17047948 -0.4123629 0.033070218 0.0812708 0.13798916 0.0047724326 -0.013512962 0.019979013
-0.025926813 -0.058229625 -0.081039295 0.057433456 0.005097203 0.07919102 -0.041984797 -0.0047809626
-0.22264534 0.015555472 -0.006584831 -0.051347394 -0.025309019 -0.06353963 0.06959626 -0.013427919
0.024476888 0.0152480295 0.036325544 0.12417587 -0.08338695 -0.043288507 0.04764259 -0.021292893
-0.2711756 -0.18058152 -0.16669533 0.146043 -0.07522717 -0.03742402 0.17022711 -0.009979924
0.08362507 -0.11849462 -0.27278712 -1.2221855 0.090009354 -0.056424238 -0.023736726 0.12782274
0.08868288 -0.24562994 0.15762207 0.13374741 0.015272796 0.121983856 0.021034196 -0.0055437684
0.14956203 -1.027051 -0.035440806 0.11835868 -0.055040654 0.0691528 0.004783071 -0.0016345193
-0.06902288 -0.41200992 0.093292005 -0.19181241 -0.0026985165 -0.23392709 -0.014401004 0.1878422
-0.07593539 0.024282172 -0.11820966 -0.11626044 -0.28013846 -0.4661953 0.5911208 0.22637701
-0.16750851 0.15680462 -0.024809593 0.17225899 0.11655543 0.026512014 0.13429631 0.08259322
0.2161805 0.019402053 0.09728049 -0.18622191 0.13840821 0.06988674 0.013141382 -0.3502446

bias f4 [16]
00000000: 0ea0 233f 1edf 3dbe e91f 7d3e ecc2 8f3d
00000010: b0fe 1ebe 9c24 93be abe4 14bf 7119 9dbd
00000020: 4628 b03c d933 12bd 2d2c 0bbe 3a51 8e3e
00000030: 869b 363f 57eb c2be ff02 153f d16f 13be
0.639161 -0.18542144 0.24719204 0.070196 -0.15526843 -0.28738868 -0.5816142 -0.07670868
0.021503579 -0.035693977 -0.1359107 0.27796346 0.7133106 -0.38070175 0.58207697 -0.14398123

weight f4 [16, 16, 5]
00000000: 6649 85bc 2f70 3fbc 72df 05be eaa6 fcbd
00000010: 74a4 44bd 1d65 dbbd 0399 033e fc06 23bd
00000020: 2ddb 57be 8f0d 9c3d ac24 6b3d 2823 3a3e
00000030: 1486 0abd 8c35 7a3d 4122 36be ee24 d43e
00000040: d6f7 bd3e 31fc 54bd 2163 16bf d4c5 27be
00000050: 1d9d 80bd d1a3 033e ca11 1c3d a648 c1bd
00000060: 181a ccbd 642a 223e 41ab 9e3e bdc4 6b3e
00000070: 02c0 c2bd 4040 2b3c 16b2 cc3e aa88 f83e
00000080: c2fa ad3e 1b2c c23d 1aed 453b 65ee 163e
00000090: 8efa 1a3d a0d6 72bd 304e 893e dc95 253e
000000a0: b028 943d 74b5 863e bea3 a03e 1641 7abd
000000b0: d8b5 49be b723 6c3d ec4c 113e e859 aa3d
000000c0: d3ca 04be bcb1 56bb 4145 c63d d5b3 a63e
000000d0: 5995 d33c 76fe 07be b6c6 82bd fd41 bc3d
000000e0: dd12 cb3d 8861 87bd 852e bb3c e2f0 efbd
000000f0: bf4a 7f3d bce6 45bd 3cd7 06be 3650 7fbd
00000100: ac11 c13d 6720 003e f51a a53c cbc9 d1bc
00000110: 4d9f 5c3e 16e3 dfbd d89d 693e 24d0 75bb
00000120: d079 ecbd 40a9 ccbd 8e00 69bd 1ba2 dd3d
00000130: a494 75bd 84f2 b33d c92b 0e3e c05f 183e
00000140: c603 dabc 3346 d43d ad2c 903d 91f2 6fbe
00000150: 366b b3be 5a84 2b3d 2210 2a3e 7987 0bbe
00000160: 0f06 243e bea8 e73c f5bf 92be e9c1 87be
00000170: 506d f4bd c890 6b3e 9013 5cbb fea2 d7bd
00000180: e7b2 51be 1b49 83be 3e79 a2bd cc62 533e
00000190: 38d7 473e edcd af3c f0a6 69be 3ccd 153c
000001a0: b308 07be 7ac1 b2be 209a 593e 5e18 64be
000001b0: 204b 6b3c 3865 353e 54a0 3bbf c93d 32bf
000001c0: 9e78 19be bc3e da3b 5d83 453e c89f e2be
000001d0: 347f 04bf 7a1b 80bf 2bb1 75bd 8ad5 27be
000001e0: 56d5 85be ee9c 54be ee2c 87be 0c17 27be
000001f0: d0c7 f13e 66c1 553d 6fd2 a0bd be24 05bf
00000200: ddaf 393f aec6 c73e c1d5 193e 27c2 62be
00000210: edfe debd a245 a5bd 3873 42bc 9e1b 28be
00000220: b8b6 2cbe e747 da3d fca8 a1be ee61 ec3e
00000230: 355c 773e 4577 8d3e 723e cfbd e44a 333e
00000240: 3ef8 cebd cb78 33bd b71e 95bd c428 2fbd
00000250: 54e1 9bbd dd14 a93e 1311 043e 16fd 8abe
00000260: a983 6f3d fcb2 f13b 7f89 753e 68f0 80bd
00000270: a54a 94be 8b8c 21bd 0ee6 a53d 2c44 b4bd
00000280: 3fbd 3abe 86ac 45be 3649 633d 880b 8ebe
00000290: 1e57 bb3d 62e8 d83e e739 0ebd 25a8 ef3c
000002a0: 06bc ab3e fea9 35be eb6f d2be 0004 f6bd
000002b0: 7c72 933d 2fda a13a bb78 d63d f72f da3c
000002c0: 7aa2 72be 626a 8d3d 2e3d 4e3e ae7c 2dbe
000002d0: 14a0 863c 60ab 0cbe d80b 523e 0a0b 403e
000002e0: 5bb4 a53b 60bf 82be efb4 49be 86c3 34bb
000002f0: b066 413c 5b8e 813d ff97 acbe 6512 7cbf
00000300: 112e f93e c6bd 663d d080 0d3b 379f 0cbf
00000310: 9fca 42bf 5cad a4bd 43e0 9abd 3759 c0bd
00000320: 028b f3bd 83da bdbd 6876 13be 691f ac3e
00000330: 0434 493d 6f09 6fbd 45f6 fcbe 890b ad3e
00000340: 6a85 a13e e37c 41be 49a4 4bbe 6999 7bbe
00000350: c7e6 413e d58a 8ebd dc23 c13c a54f 00be
00000360: 9446 27bd ebb6 5abe b8f8 893e f643 93bd
00000370: 2b4b 5abe b52c 3cbd 3e9f 2e3e a4d4 e23c
00000380: cf5d 293e a88b 36bd 5bc2 55bc ba0b 4cbe
00000390: 013f be3e 88fd b73c 556b dcbe bbe9 913d
000003a0: b5dc 263e ecc8 833d b4c0 0f3c b34c 7abd
000003b0: 150e 51be 0840 6f3b 962a 99bd f682 803b
000003c0: 5e24 09bc 86e1 2dbe 379d 733b fb90 e43c
000003d0: 6bbe 8dbd 2bd7 8ebd 1c8d f2bd d32b f9bc
000003e0: 071b ee3d eccf 67bc cc09 38be abcb 32be
000003f0: 7230 20bd 8314 373d 1c36 233e 5781 2abd
-0.01627035 -0.0116844615 -0.13073519 -0.12336524 -0.048008397 -0.10712645 0.12851338 -0.039801583
-0.21079703 0.076197736 0.05740802 0.18177474 -0.033819273 0.061086223 -0.17786504 0.41434425
0.37103146 -0.05199832 -0.5874501 -0.16384059 -0.06279967 0.1285546 0.038102902 -0.09437685
-0.099659145 0.15836483 0.3099003 0.23024268 -0.09509279 0.01045233 0.3997962 0.48541766
0.33980376 0.09481069 0.0030201138 0.14739378 0.037836604 -0.059286714 0.26817465 0.16170448
0.07234323 0.26310313 0.31374925 -0.061097227 -0.19698274 0.057651248 0.141895 0.083179295
-0.12967996 -0.0032759747 0.09681178 0.32559076 0.02582805 -0.13280663 -0.06385557 0.09192274
0.09915707 -0.066103995 0.02284933 -0.117158666 0.062327143 -0.04831575 -0.13168043 -0.062332354
0.09427199 0.1251236 0.020154456 -0.025608918 0.21545143 -0.10931985 0.22814119 -0.0037508095
-0.115466714 -0.099932194 -0.056885295 0.10821935 -0.059956208 0.087864906 0.1388389 0.14880276
-0.026613127 0.10364952 0.07039771 -0.23432375 -0.35042733 0.041874267 0.16607717 -0.13625897
0.16017936 0.028278705 -0.28662077 -0.2651513 -0.11934912 0.23004448 -0.0033580996 -0.10529135
-0.20478402 -0.25641713 -0.07933281 0.20643157 0.19515693 0.021460498 -0.22817588 0.00914317
-0.13186912 -0.34913236 0.212502 -0.2227492 0.014361173 0.17714393 -0.73291516 -0.69625527
-0.14987418 0.0066603106 0.19288392 -0.44262528 -0.51756597 -1.0008385 -0.059983414 -0.16390052
-0.26139325 -0.20762989 -0.26401466 -0.16317385 0.47222757 0.052186392 -0.07852637 -0.5200919
0.7253397 0.39018768 0.15022947 -0.22144376 -0.10888467 -0.08069922 -0.011868291 -0.16416785
-0.16866577 0.106582455 -0.31574237 0.46168464 0.24156268 0.27630058 -0.101193324 0.17509037
-0.10105942 -0.04381637 -0.07281249 -0.042763487 -0.07611337 0.3302373 0.12897138 -0.27146214
0.05847517 0.007376073 0.23978232 -0.06295854 -0.289632 -0.039440673 0.0810052 -0.08802065
-0.18236254 -0.19304094 0.05548974 -0.27743173 0.09147476 0.42364794 -0.03472319 0.029254982
0.33541888 -0.17740628 -0.41101012 -0.12012482 0.071995705 0.0012348349 0.10472246 0.0266342
-0.23694792 0.069050565 0.20140526 -0.16942093 0.016433753 -0.1373725 0.2051233 0.18754211
0.0050569004 -0.25536633 -0.19697927 -0.0027582361 0.011804268 0.0632598 -0.33709714 -0.9846557
0.48667958 0.056333326 0.002159167 -0.5493044 -0.76090425 -0.08040878 -0.07562306 -0.093920164
-0.11891748 -0.092701934 -0.14400637 0.33617714 0.04912187 -0.058358606 -0.4940664 0.33797863
0.315471 -0.18895297 -0.19886889 -0.2457024 0.18935691 -0.06960074 0.02357667 -0.12530382
-0.040838793 -0.2135884 0.2694757 -0.07190697 -0.21317737 -0.045941073 0.17052934 0.027689286
0.16539691 -0.04456678 -0.013046826 -0.19926348 0.37157443 0.02245976 -0.43050638 0.07124659
0.1629513 0.06434807 0.008773971 -0.061108302 -0.20415528 0.0036506671 -0.07478826 0.0039218618
-0.008370487 -0.16980562 0.0037172565 0.027901163 -0.06921085 -0.06974634 -0.11843321 -0.030416405
0.11626249 -0.0141486935 -0.17972487 -0.17460506 -0.0391087 0.044697296 0.1593861 -0.041627254

bias f4 [16]
00000000: 9421 cabd b23d 753e 51b9 d33e fe08 61bd
00000010: cb27 2ebd 5e2b 55bd fe59 6c3d 60c5 e93d
00000020: 5388 293d 28a7 bebd 7c72 71be bb55 713d
00000030: c7dc 61bd 3e4f 28be 84eb 993c 3ba3 12be
-0.09869686 0.23949316 0.41352323 -0.054940216 -0.04251842 -0.05204331 0.05770301 0.114145994
0.041389775 -0.09309226 -0.23578829 0.05891965 -0.05514219 -0.16436478 0.01878906 -0.1432008

weight f4 [16, 16, 5]
00000000: 8d14 17be efb3 b5be af1e 393e aab2 bf3d
00000010: 0e85 b0bd 6009 a73d 590c 62be e65b 8e3e
00000020: d811 a4bd c3d9 5dbd 804e d2bc b04c bebd
00000030: 071f 273e b409 8cbd 1ec5 3cbd b8e0 0dbe
00000040: 55f9 2cbe 6fa7 843e c421 40be 9130 bf3d
00000050: 6a68 c93c 22c0 5dbf 4dda 033f 479f 11be
00000060: 736f da3d 5930 34be df0b 89bd fbe6 6b3e
00000070: c848 d5bd 5171 3e3e 9b5d 093e e7fd a83d
00000080: 760c 713c b5e3 0e3e 8439 21bd 30c3 7dbc
00000090: e795 21bc 13f2 093d 65a6 c43e ce2d 5cbe
000000a0: 30b6 58be 3abb 923d 4920 3839 41f1 b7be
000000b0: 686c b53d f13e 87bd 691c e7bd c85a 7c3e
000000c0: 0865 edbd f15f 8b3c 9440 a7bc f968 8b3d
000000d0: 7189 753c b9fd 6ebe 8c55 6d3e 4104 a1bc
000000e0: d856 5c3b 3bc7 e63d 1639 d23d 44c6 5fbd
000000f0: 1c6a a03d bdf1 09be c3a5 65be e7b8 cb3e
00000100: b529 ce39 2a97 33be 1696 06be d4f5 42be
00000110: 4527 983d 0155 e13c 9c5e 183e 98b5 7c3d
00000120: 4742 093e a2aa 3c3d 0efd 2dbe a010 c6bd
00000130: 7e13 34bd 01c9 69bd 05cf c83e fa46 7dbd
00000140: a222 1d3e 38a8 00be 7925 993e da65 1f3e
00000150: a6c7 0b3e 2fa3 0abe a579 9dbd 8056 273e
00000160: b0da 02be 3416 683d 2f40 be3d b9aa febc
00000170: 13a5 b33d 3c5b bdbe 7e83 523d d169 fbbd
00000180: 6b76 bb3d 7f75 763d aba0 993d cc67 523e
00000190: 53f0 443d 5a24 08be 48c2 f1bb e67a 2dbe
000001a0: a966 7d3c b353 ccbc 9f1d a13d 35e8 0b3e
000001b0: 0956 80bd c185 14be aefe 04be 88c4 d63d
000001c0: 9962 99be a1d0 a43d f47f 963d 90bd 9f3c
000001d0: a630 57bd b29d 863e 7202 a3bd bf6f 853d
000001e0: 5020 98be ea3c 1cbe 8be7 dd3c c7e5 c3bc
000001f0: 6ee0 ecbd c3a3 3f3d 5706 1a3f 0fbe 7dbd
00000200: 51cd 57be 92b5 21bd f29b b6bc 49a5 c43e
00000210: 5839 b23e 577e c13d bae7 19be 4323 c6bd
00000220: e5c3 ab3e 7821 babe 6fa5 dabd 9d12 193e
00000230: ae03 d33b 8df5 633e 3aa9 533e 8d11 5f3c
00000240: 6fe1 703e 7202 4b3d 1176 c93e afc1 a9be
00000250: 44cc 6fbd 411a e1bd d3b2 c8bd dbbc 10bf
00000260: 7ad5 89be 9e6a fdbd b216 20bc bfbd 38bc
00000270: 42eb 533e 35f7 afbe 2218 873e 0a8f 5abe
00000280: 49b4 423d 9dad c13d 640b c0bd 241e 2a3d
00000290: fdfb 843e 9c36 2e3b ef6b 363d bc96 11be
000002a0: 8a2a 9b3e 0851 233e ddcf 373d 6b6c fe3c
000002b0: 68a7 223c 32b0 183e 4b0c 763e d693 ee3c
000002c0: 2db7 d73d 30e4 7d3d ec26 953e 88fc 0b3c
000002d0: 7943 91bd 17cc e6bc 4700 803d 0566 6c3e
000002e0: 298c 1e3e 48fe f4bc 6777 933d e33a f1bd
000002f0: 5099 8b3e 7fef ce3d 6e8a 063e f737 dcbb
00000300: adde 123e 805d e23d 9fbd 81bd 8a4e 98bd
00000310: 2ff9 273d dbe3 803d 56c6 1dbd 6df3 983e
00000320: a026 f4bd 3be7 ba3c e2b1 f2bd 0a99 89be
00000330: c995 2cbe 71c3 6e3c 8804 c2bd aad7 bf3c
00000340: 0790 583e f78e 00be a186 f0bc 285f 883d
00000350: 9855 ca3d 31df 503e 934b 66be f21a fdbb
00000360: a3ba 71bd 28bb 33bd d2a2 983e d4ac c53d
00000370: de84 e83b e8e2 17be 794c babd 8fcd 10be
00000380: 03f8 553e 9db6 2f3d 0b20 a5bd d7c0 1ebe
00000390: a992 393e 0da9 253d 5f4e 1f3d b98a 8d3d
000003a0: ac1f 3b3c 20da adbe 066d 23be 66da 1c3d
000003b0: 93da 3fbc 6b9a db3c 1406 313e 17b2 563c
000003c0: e20d df3c 6048 e8bd 7c81 953d 3443 e63d
000003d0: 112e a03a 2503 cf3d d616 0bbc e986 033f
000003e0: 1ae2 bebd 6924 563d a067 4abc ad32 963d
000003f0: 34d1 223e 3265 153e a8ad 0bbd 4834 8d3d
-0.14753933 -0.3548884 0.18078111 0.09360249 -0.08619128 0.08156085 -0.22075023 0.27804488
-0.08011216 -0.054162752 -0.025672197 -0.09291971 0.1632043 -0.06837788 -0.046086423 -0.13855255
-0.16891988 0.25908992 -0.1876288 0.09335435 0.024585921 -0.86621296 0.51504976 -0.14220916
0.106657885 -0.17596568 -0.06691717 0.23037331 -0.104142725 0.18597914 0.13414614 0.08251553
0.014712444 0.13954051 -0.03936149 -0.015488431 -0.0098624 0.033678126 0.384082 -0.21501848
-0.21163249 0.07164617 0.00017559635 -0.3592625 0.088585675 -0.06603802 -0.11284716 0.24644005
-0.11591536 0.017013522 -0.020416535 0.06807131 0.014986382 -0.23338975 0.23177165 -0.019655349
0.00336211 0.11268469 0.102647945 -0.05463244 0.07832739 -0.13471122 -0.22426514 0.39789507
0.00039322456 -0.17538133 -0.1314319 -0.19039088 0.07429365 0.027506353 0.1487984 0.06169662
0.13404189 0.046061166 -0.16991064 -0.0967114 -0.0439639 -0.057076458 0.39220443 -0.061835267
0.15345243 -0.1256417 0.29911402 0.15566197 0.13650379 -0.13538812 -0.076892175 0.16341591
-0.12778735 0.0566618 0.09289586 -0.031087266 0.0877172 -0.3698367 0.051394932 -0.12276042
0.09153446 0.060170647 0.07501348 0.20547408 0.048080754 -0.13295117 -0.0073778965 -0.16941413
0.015466371 -0.024942255 0.07866978 0.13662799 -0.0626641 -0.14504148 -0.12987778 0.10486704
-0.29958037 0.08047605 0.07348624 0.01949957 -0.05253663 0.26292187 -0.07959451 0.065154545
-0.29712152 -0.15257612 0.027087947 -0.023913277 -0.11566244 0.046787035 0.60165924 -0.061948832
-0.21074416 -0.0394798 -0.022291157 0.38407353 0.34809375 0.094479255 -0.15029803 -0.096746944
0.33547893 -0.3635366 -0.10676085 0.14948507 0.0064396476 0.22261639 0.20670024 0.013615024
0.23523496 0.04956288 0.3934789 -0.3315558 -0.058544412 -0.10991336 -0.09799733 -0.5653817
-0.26920682 -0.12373851 -0.009771036 -0.011275708 0.20695212 -0.34368291 0.263856 -0.21343628
0.047535215 0.09456942 -0.093771726 0.04153265 0.25973502 0.0026582843 0.044536527 -0.14217657
0.30305892 0.1594888 0.04487597 0.031057557 0.009927608 0.14910963 0.24028127 0.029123228
0.10532985 0.061985195 0.29131258 0.008544095 -0.070929475 -0.02817349 0.06250053 0.23085792
0.15483154 -0.029906407 0.072005086 -0.1177881 0.27265406 0.10104274 0.13138744 -0.0067205387
0.14342757 0.1105299 -0.063349955 -0.07436855 0.041009124 0.0629346 -0.038519226 0.2987322
-0.1192143 0.022815337 -0.11850335 -0.26874572 -0.16854014 0.014572964 -0.094735205 0.023418266
0.21148692 -0.12554537 -0.029361071 0.066587746 0.09879607 0.20397641 -0.22489767 -0.0077241594
-0.05901588 -0.043879658 0.29811722 0.09652105 0.007095917 -0.14832652 -0.09096617 -0.14140914
0.2089539 0.042898763 -0.08062752 -0.1550325 0.18122353 0.040444423 0.0388931 0.06911225
0.011421125 -0.3395548 -0.15959558 0.03829422 -0.011709827 0.02680703 0.17287475 0.013103983
0.0272283 -0.113419294 0.07300088 0.11243287 0.001222076 0.10108022 -0.008489331 0.5137773
-0.09320469 0.052280817 -0.012353808 0.073338844 0.15900117 0.14589384 -0.03410116 0.068947375

bias f4 [16]
00000000: 46a1 f2be 6ed9 4dbe 2f6e f6bd 9cd2 babe
00000010: ae35 30be 48b7 06bf 3036 083e a284 62be
00000020: ed2d 60be 5fc8 18be 2b3c a4bd d248 8ebb
00000030: 8f8c 74be 1efa 74be 3a06 4cbd cb22 86bd
-0.47388667 -0.20102474 -0.120327346 -0.36488807 -0.17207977 -0.52623415 0.13301921 -0.22120908
-0.2189252 -0.14920186 -0.08019289 -0.004342177 -0.23881744 -0.23923537 -0.049810626 -0.06549605

weight f4 [64, 112]
00000000: 9563 b0be 8703 053e 135e 223f d59c 313e
00000010: 30cf d53d c573 1b3d 6e6f 41ba 4594 89be
00000020: 8a38 413e feb7 48b9 9ebd 37bd 9822 243a
00000030: 1a5c 853e 9c6c cebc 9b83 3b3e 57a2 26be
00000040: e983 82bd 867d a13d 4480 043e e707 ebbd
00000050: 3a1b 86be 4be5 063d 7a35 2ebe 4fa0 6dbc
00000060: 65ed b03d c33d 923c 2da0 633e 53ba 71bd
00000070: d198 06bd b3b5 efbd 9660 fa3d 5d88 6b3e
00000080: e683 683e 4d65 1c3e ac16 8b3e 5878 6b3e
00000090: b9f1 973e d29e 033d 4f9f 073e 088b d03d
000000a0: 5491 0c3e 8c4d 3abd 6280 403e f4f2 9e3d
000000b0: 0e41 abbd 115e afbd 1f47 e1bd 9ab8 563e
000000c0: 6aa9 6a3e 3a26 6b3e 8f61 33be c409 efbd
000000d0: 6d07 c9bc 2b5e d73d f3b0 ca3d 2d35 48be
000000e0: 3eac 083f b851 bd3d e123 89be 97f0 93bd
000000f0: 7685 443c f24f 0a3c 637c 153d b604 bbbb
00000100: d19a 593e d23c ba3c 5cc3 1c3e 010b 543d
00000110: 1259 1f3d fe78 fe3d 77f9 493e 4f1a 22be
00000120: c576 f03c 1a84 553c edbc 353b 5f45 76bd
00000130: 7730 e03c 1606 84bd aafa c73e ee5a 243e
00000140: f072 103e 167c 15bd 040c 243d b177 e1bb
00000150: f9f3 0d3f 5407 ddbd a788 04be 240c d43c
00000160: 7929 683d 92cf a7bb b656 263e be2a 003f
00000170: 3016 9c3e 2b10 373e c2e1 9d3d 038c c63c
00000180: c1a3 bfbd a782 9c3e e919 74bd dbc8 d9bc
00000190: c9af 01bd 2a5e de3c d879 bebd 2fa8 ca3c
000001a0: 3a41 b9bd 4144 b5bd ec99 e83c cc91 08be
000001b0: ebdc b1bd 589a 8dbc dfd0 67bd 9bd3 1fbe
000001c0: 6bc9 47be 4964 a33d 7e65 343e 96a8 7f3e
000001d0: 775d fb3d 6381 01be d014 c43e 2502 40be
000001e0: 159f e33c 211d 2c3b 1b10 2dbd 8c50 c53e
000001f0: 9ee2 8cbd 24cb 2d3e afe4 153e 34fc 52bd
00000200: 2722 4dbd 60ef 473e 05b3 68be eac7 1a3e
00000210: a27d 2e3e 8b7c 47be 5164 da3c 21ff 10bd
00000220: c8e0 8dbd 2c04 6d3d 7c11 efbd a223 d33e
00000230: a325 193e 5da7 f3bd 0c5d f43d 389e 9d3a
00000240: 9e49 55bd 531b 2a3d 81f8 f73e d32a 903d
00000250: a12b 993d 249a 883d d214 033d 7c33 4d3c
00000260: 250e 32be e5a9 a73c b234 e6bc 5e84 94be
00000270: 0f0d 2cbd 997e adbd aede f33d c5ac 5c3c
00000280: f0e2 d53e a850 d73c e0a6 8abd 9f34 873d
00000290: 116e 533d 74ac 89be db96 88bd 49c4 213d
000002a0: e1c1 b93e e89b 1b3e f640 52bd 8b64 8cbd
000002b0: 050a 9ebd 9489 5abe ccb3 fe3d 3621 5c3c
000002c0: bb52 133d 5ea9 e7bc f315 2b3e e77c 6f3d
000002d0: 6141 a73e 759b ee3d d79f 83be 8666 4cbc
000002e0: 5468 433d 0bad cb3b 0999 b63d f267 b8bb
000002f0: ed07 17be 70bc 1bbe 08ee 5e3e 1247 a43b
00000300: d3c3 383e ed1d 183e 96c6 0a3c a964 9f3d
00000310: c795 0a3e 42c0 153d fa9a f9bd b2b7 363d
00000320: b7d8 fbbd 3a2c da3d 41ed 5d3e d4b7 10be
00000330: d5e6 93bd d6f8 34be 75ea ba3d f01d 7dbd
00000340: e352 a43e 1efa 78be 13ac c6bd 9525 1bbd
00000350: 8fb3 863c d9ea 3abb 7efa 83bd 624d 4e3d
00000360: c291 c4bc 33d0 6cbe 45ab 413d 460a 473b
00000370: 47a4 8abd 5f09 6fbe 1113 d7bd b868 b93e
00000380: bb17 5dbd cb5c 73bd 3267 dfbc 766f 9fbd
00000390: 868c 923d ce9b 3dbd ad42 56bd 9ca7 71bd
000003a0: cbea f73c ecb0 493c 2fc7 d4bd 61bc debb
000003b0: b064 03bd 39db 4b3d 1227 22bd 4c49 0c3b
000003c0: dbfd 86bc 1590 82bd db99 7bbd b324 8fbd
000003d0: 9dca c0bc f4d1 7b3c 67ee fd3c 9dbc 56bd
000003e0: c102 68bd e0a4 6fbd 6b07 45bd 955e 983d
000003f0: 7fe8 693d 7008 80bd fe4b a2bd 3d97 46bd
-0.34450975 0.12989627 0.63424796 0.17344983 0.104399085 0.037952203 -0.000737897 -0.26870933
0.18869224 -0.00019142029 -0.044858567 0.00062612584 0.2604683 -0.025198273 0.18311922 -0.16272865
-0.06372816 0.0788527 0.12939554 -0.114761166 -0.26192647 0.032933515 -0.17012587 -0.014503553
0.086390294 0.017851716 0.22229071 -0.059015583 -0.03286058 -0.11704578 0.122254536 0.23001237
0.22706565 0.15273018 0.27165735 0.22995126 0.29676607 0.032133885 0.13244365 0.10182768
0.13727313 -0.04548411 0.18798974 0.077611834 -0.083620176 -0.085628636 -0.109998934 0.20968857
0.22916189 0.22963801 -0.17517684 -0.116717845 -0.024539674 0.10516008 0.09897032 -0.19551535
0.5338782 0.09244102 -0.26785186 -0.07223623 0.01199471 0.008441912 0.036495578 -0.0057073487
0.21250464 0.02273408 0.15308899 0.051768307 0.038903303 0.12425421 0.1972407 -0.15830348
0.029353509 0.013031984 0.0027731017 -0.06012475 0.02736686 -0.06446473 0.3905843 0.16050312
0.14106345 -0.03649529 0.04005052 -0.0068807234 0.554504 -0.10792413 -0.12942754 0.025884695
0.056680176 -0.00512118 0.16244015 0.5006522 0.30485678 0.17877261 0.077090755 0.024236685
-0.093574055 0.3056843 -0.059595022 -0.026585033 -0.031661782 0.02714451 -0.093005836 0.0247384
-0.09045644 -0.08850909 0.028393708 -0.13336867 -0.08684715 -0.01728551 -0.05659568 -0.15608065
-0.19510429 0.07978112 0.17616841 0.24966654 0.122736864 -0.12647013 0.3829713 -0.18750818
0.027785817 0.002626248 -0.042251687 0.38538015 -0.06879161 0.16972023 0.14638017 -0.05151005
-0.0500814 0.19524908 -0.2272454 0.15115324 0.17040113 -0.19481103 0.026659163 -0.03539956
-0.06927639 0.057865307 -0.11673257 0.41238123 0.14955764 -0.118971564 0.1193181 0.0012025302
-0.05207216 0.041529965 0.4843178 0.07039418 0.07479025 0.06670025 0.032002278 0.012524482
-0.17388208 0.020466754 -0.028101299 -0.29007238 -0.04200464 -0.08471412 0.11907707 0.013468926
0.41774702 0.026283577 -0.0677011 0.066018336 0.05161864 -0.26889384 -0.066693984 0.039493833
0.3628073 0.15196192 -0.051331483 -0.068551145 -0.07716755 -0.21341544 0.12436637 0.0134356525
0.03596757 -0.028279003 0.16707592 0.058468726 0.32667068 0.11650745 -0.25707886 -0.012475615
0.047706917 0.0062156967 0.08915908 -0.0056276256 -0.14749117 -0.15208602 0.21770489 0.005013355
0.18043451 0.14855166 0.008470198 0.07782871 0.13533698 0.036560304 -0.121877626 0.04460878
-0.122971945 0.10652967 0.21672536 -0.14132625 -0.07221762 -0.17673048 0.091267504 -0.06179613
0.32094488 -0.24314162 -0.09700789 -0.037877638 0.016443042 -0.0028521328 -0.06444262 0.050366767
-0.023995284 -0.23126297 0.047282476 0.0030371114 -0.06769615 -0.23343419 -0.105016835 0.36212707
-0.05397771 -0.059414666 -0.027270887 -0.07784931 0.07155709 -0.046291165 -0.05230968 -0.058997735
0.030263325 0.012310248 -0.10389554 -0.006797359 -0.032078445 0.049769614 -0.03958804 0.0021405993
-0.01647847 -0.06375138 -0.061426025 -0.06989422 -0.023534114 0.015369881 0.030997468 -0.05242597
-0.05664325 -0.058506846 -0.048102777 0.07439915 0.05710649 -0.06251609 -0.079246506 -0.048484076

bias f4 [64]
00000000: d706 8fbd e0f7 3abd 78e4 93bd 07cc 45be
00000010: 8303 8b3d 8f24 e6bd 11d1 1fbe 9810 5dbd
00000020: dd90 f6bb 8e25 b4be 3f42 a73c 84b0 d7bd
00000030: fbc9 2bbc 7757 aebd b05a d83c a2fc 313d
00000040: c891 93bd 5521 1ebd 151b 653d da31 c9bd
00000050: e5a8 d43d f380 6dbe da57 023d 6fa8 173e
00000060: 610d d5bd 6553 33be 2257 8e3c 47bf e7bd
00000070: 6dfc ddbd cc76 7cbd 2117 04be 7887 7bbe
00000080: 48bd 463d b302 0dbb d985 33bd 6eb4 0e3e
00000090: bcbe 053d dd4a 7dbc a695 aa3d 2199 d7bd
000000a0: 254f 46bd 567f 76bd 3663 3abd 216b 62be
000000b0: 547c d9bd 532b 4cbd 8d95 55be f54b d5bd
000000c0: 8406 793d da79 8abd e483 84bd 5c12 173e
000000d0: c248 c2bb 0130 853e 8c91 2cbe e08c 04be
000000e0: f34c 22be af38 2cbd ef06 fdbd dfa0 54be
000000f0: 4b52 dd3b acb7 823c 8a6c 553d 4ec4 013e
-0.069837265 -0.04564655 -0.07221311 -0.19316112 0.06787779 -0.11237442 -0.15607096 -0.053970903
-0.0075245933 -0.35184902 0.02041733 -0.105317146 -0.010485168 -0.08512776 0.02641043 0.04345382
-0.0720554 -0.038606007 0.05593403 -0.098239616 0.103837766 -0.23193721 0.031822063 0.14810346
-0.104029424 -0.17512281 0.017375533 -0.1131578 -0.10839162 -0.06163673 -0.12899448 -0.24563396
0.048520356 -0.0021516501 -0.04382882 0.13936016 0.0326526 -0.015459743 0.083293244 -0.10527254
-0.04841532 -0.06018003 -0.04550477 -0.22111179 -0.10619417 -0.049846005 -0.2085783 -0.10414878
0.06079723 -0.067615226 -0.06470469 0.14753097 -0.0059290836 0.26013187 -0.16852397 -0.12944365
-0.15849666 -0.042046245 -0.12354838 -0.20764492 0.006754195 0.015956722 0.052105464 0.1267254

weight f4 [32, 64]
00000000: 0c9d 4abe a41e 503d 1c45 eebc fde8 a9ba
00000010: e799 d3bd e77c 84be 06e8 953e d54f c4bd
00000020: 5c7d 313b 7541 91bd 30c2 3dbd 1057 053d
00000030: 66c1 50bc 460c 5d3c e89c 3e3d 13ef e23b
00000040: 588f 043e 7c6c a73d a343 143e 7aa2 0f3d
00000050: 69bf bcbd c84e f6bc ed80 e7bd f158 713e
00000060: 42a1 4d3e 70ee b93c a064 413e 0ea3 a93d
00000070: ed3c f33d 3a0d 0e3c 5063 193e 26ed 7dbd
00000080: 16ca 1a3e 077c 62bd d048 ecbb e0ec 163e
00000090: 75d3 2e3e aeac 093e 307d 26bc 0791 c1ba
000000a0: 7022 80bc fe2f 083e 18aa 8e3d 4da1 38bd
000000b0: 63ac e43c 08b4 1b3e 07cb 07bd 1b1e 8cbd
000000c0: 420b 86bd ec33 843c 3a7a cfbc a662 363e
000000d0: 44cd 7cbd 136f 383d ebbb 373c 5f12 b93d
000000e0: 540b 0bbe 4efd 363e 32d6 27bc eb3c 9b3d
000000f0: f693 5c3e 8353 dc3c d0a0 863e c3bd 023d
00000100: 630e 9a3d 0d3d 19be 78c8 10bd 3db2 22be
00000110: a0f0 5dbd 136f 0abe cfb9 febd 80dc ae3c
00000120: 6297 5dbd 2b50 7f3d b494 00be 79b4 e3bb
00000130: 499e 463d cc09 363d cbb8 a43c 9e87 d93c
00000140: 2542 d53c c5eb 9c3d 3845 9bbd 3aec 1ebe
00000150: 6408 433c b61d c9bd 1c1f 09bd 2243 58bd
00000160: 8a15 fabb f58d 99bb 74c0 c43d 249f a43d
00000170: c5da 913d a4b8 173d 96b4 f6bd 316a 543d
00000180: 83b5 983d cec3 733d d80b e0bd b209 21be
00000190: 1fc5 b7bd 3a2e 26be 7882 89bd 03a3 1abe
000001a0: c4a5 e2bd 0186 0fbe a443 de3c 3adb 6bbd
000001b0: 3600 d3bd c607 b13d abe8 943c 8a0e dc3a
000001c0: 95c5 c4bd c721 bcbd 2c74 973d 17ba 25be
000001d0: 4722 9e3d bf36 3f3b 2963 e1bd c9f9 e4bd
000001e0: a9ca 08bd 00a4 a5bc c361 373d b95f 83bd
000001f0: 5342 4bbd a5d5 953d d68c 57bd 7753 e83c
00000200: e911 7c3d 40a7 f1bd 0ad9 e83d 23c1 663e
00000210: 48a8 96bd 583b 05bd a637 2b3e 4eb6 6fbd
00000220: e88e 9fbd d623 113d 514d 2cbd 15ec d93d
00000230: 907f 273d 60c4 213e 08f8 053e 20db 4f3d
00000240: a3f5 8c3c fd85 393d c11d 9f3d f395 7c3d
00000250: 9bcc 8abe aafe 873e ed63 d0bd 38a4 363e
00000260: 031d 943e d0d0 563e 2eeb b93d a6b0 3ebe
00000270: 344b 28bd acda 09be 6ea9 7e3e 71f2 1c3e
00000280: 4b3d a2bd 45f7 f63d 1dcd 1e3e d58d 933e
00000290: c141 59bc 7fe4 673e d312 cd3c 6776 92be
000002a0: cafd 9e3d af9e a63e 0ae9 20be 6ae9 48be
000002b0: 5880 b5bd f493 5a3e 51e9 21be 1b72 463d
000002c0: e2ee d43d cc66 303c a0ed c13d 1af1 b9bd
000002d0: f9c4 95bb 4e2b 203d fed7 cc3d a5e2 df3d
000002e0: 81d0 543d f364 7bbc 49c6 aa3e f5c7 993d
000002f0: a538 343d 827a 7e3d 6293 a4bd af8f afbd
00000300: 0202 ab3e bbd5 47bd c722 ebbd 7cfb d83d
00000310: d6a7 11bd 7607 ac3e 087d 04be 127b 293d
00000320: 3430 3a3e 151f 183c 8aaa 0c3e faf8 b6bd
00000330: 4dbb 7b3c c303 673c 017e cc3c f569 b33d
00000340: b8c6 3bbe 05e9 be3c 3479 ba3d acf1 5e3e
00000350: fcb6 443e f93e 253e 1c04 423d bd3b 533e
00000360: 741d d2bd 04f2 90bd d89a 1e3e adb5 9b3c
00000370: ec8d 38be 1f0c 1e3c b4a8 3e3d 516a 303e
00000380: bbd8 01be 474d 833e 438f 343e 9c57 bcbd
00000390: 39f8 973d a18e 813e bef6 2d3e c35a 91bd
000003a0: 4a4a 7dbd 50e3 093e 2c2c febd 0579 743d
000003b0: 5fa2 77bc 22c5 7b3e 7eed 01bd b006 ce3d
000003c0: bdd3 b5bd 7a94 303d 123e 6ebd 3cc2 3b3b
000003d0: d013 68bd 86db 843e cc01 adbc 2fab 1abe
000003e0: fc59 af3d da8c 3b3e 8c57 c33d d590 fe3d
000003f0: ad3b 40be 2bba 9cbd d1ef ccbc 693e 54be
-0.19786471 0.05081047 -0.029085688 -0.0012963113 -0.10332089 -0.25876543 0.29278582 -0.09585539
0.0027082777 -0.07092563 -0.04632777 0.032553732 -0.012741422 0.013491696 0.046536356 0.0069254725
0.12945306 0.081749886 0.14478926 0.03506706 -0.09216196 -0.030066863 -0.113038875 0.23569085
0.20081046 0.022696704 0.18886042 0.08283053 0.11876855 0.008670146 0.14979291 -0.06199374
0.15116152 -0.055294063 -0.0072108284 0.14738798 0.17072852 0.13444778 -0.010161683 -0.0014767953
-0.015641421 0.13299558 0.069660366 -0.045075703 0.027914232 0.15205395 -0.033152606 -0.0684168
-0.06545116 0.01613804 -0.025326837 0.17811069 -0.061719194 0.045027804 0.011214237 0.09036707
-0.1357854 0.17870066 -0.010243939 0.075799786 0.21540818 0.02689529 0.26294565 0.031919252
0.07522275 -0.14964695 -0.035347432 -0.15888305 -0.054184556 -0.13518934 -0.12437784 0.021345377
-0.054099448 0.062332314 -0.12556726 -0.0069490043 0.048490796 0.044442937 0.020107647 0.026553925
0.026032517 0.07662157 -0.07581562 -0.15519801 0.011903856 -0.0982012 -0.033476934 -0.052798398
-0.007631962 -0.004686112 0.0960702 0.08038166 0.07121805 0.03704132 -0.12046163 0.051859085
0.074564956 0.059512906 -0.10939759 -0.15726355 -0.08973145 -0.16228572 -0.06714338 -0.15101247
-0.110667735 -0.14015962 0.027131863 -0.057582118 -0.103027746 0.08644061 0.018177351 0.0016789001
-0.09607998 -0.0918613 0.07395205 -0.16184269 0.07721382 0.0029176918 -0.110052414 -0.11180455
-0.033396397 -0.020219803 0.044770967 -0.06414742 -0.0496238 0.0731614 -0.052624546 0.028360112
0.061540518 -0.117994785 0.11369522 0.22534613 -0.07356316 -0.032527298 0.16720447 -0.05852347
-0.07790929 0.035434566 -0.042065922 0.10640732 0.040893137 0.15797567 0.13082898 0.050746083
0.017206972 0.045293797 0.07769347 0.06166644 -0.27109227 0.2656148 -0.10175309 0.17836082
0.28928384 0.20978093 0.0907806 -0.18622074 -0.041087344 -0.13462323 0.2486932 0.15326859
-0.07921847 0.12058882 0.15507932 0.28819147 -0.013260306 0.22645758 0.02503339 -0.2860596
0.0776325 0.3254294 -0.15713897 -0.1962029 -0.0886237 0.21345502 -0.1581166 0.048448663
0.10397126 0.010766696 0.094691515 -0.090791896 -0.0045706 0.0391038 0.10002135 0.10931901
0.051956657 -0.015343892 0.33354405 0.07508842 0.043999333 0.06212855 -0.080359235 -0.08572327
0.3339997 -0.048787814 -0.114812426 0.10594842 -0.03556045 0.33599442 -0.1293832 0.041377135
0.1818245 0.009284754 0.1373693 -0.08934207 0.01536448 0.014100018 0.024962427 0.08760444
-0.18337524 0.023304472 0.09105149 0.21771878 0.19210428 0.16137303 0.0473672 0.20628257
-0.10259524 -0.07077411 0.15488756 0.019007528 -0.18022889 0.009646445 0.046547607 0.17228056
-0.12680332 0.25644895 0.17632775 -0.09196398 0.074203916 0.2530413 0.16988656 -0.070973895
-0.061838426 0.13465619 -0.12410769 0.059685726 -0.015114396 0.24586919 -0.03172063 0.10059869
-0.088782765 0.04311035 -0.058164664 0.0028649708 -0.05665952 0.25948733 -0.02111902 -0.15104364
0.08562085 0.1831545 0.095381826 0.12429968 -0.18772765 -0.07652696 -0.025016697 -0.20726933

bias f4 [32]
00000000: 933a 3b3e 1ebd 153d 51c2 45bd 9c97 13be
00000010: 42f5 92bd 3232 d53c c99a 0cbe f1d4 f0bd
00000020: 4246 24be 65bc a5bc 4f55 71bd 34d7 e8bd
00000030: 072b 75bd 9b29 8b3a 58f3 343d 0c35 1dbe
00000040: 0d50 053d 01c9 c0bd 9fa4 2fbe b113 59bd
00000050: 0b05 80b8 7fa2 15bd 50c7 883d 3cd4 0cbe
00000060: 7396 89bd 0cfb e6bd 1b65 553d 6fae f3bd
00000070: 1f43 0dbe 73ae 003e 7693 7bbd aef2 c2bd
0.18284063 0.03655731 -0.048281018 -0.14413303 -0.071756855 0.026024912 -0.13730921 -0.11759365
-0.16042426 -0.020231435 -0.058919247 -0.11369172 -0.059855487 0.0010617258 0.044177383 -0.15352267
0.032547045 -0.094133385 -0.17152642 -0.052997295 -6.104455e-05 -0.03653192 0.06678641 -0.13752836
-0.06718149 -0.11278352 0.052098375 -0.11898505 -0.13795136 0.12566547 -0.061419927 -0.09518944

weight f4 [20, 32]
00000000: 15e9 6a3e b1a8 e93c 0cfb b73e 1b87 173d
00000010: eff8 fd3d ec0e 5cbd 373e 493d 6666 893e
00000020: f093 3b3e da41 1fbb b316 1b3e a1b7 debd
00000030: 24be c4bd b1a9 35be 4706 543e 7718 c4bd
00000040: f521 9bbe 80d3 adbd 5a65 3dbe c36a 093e
00000050: 2fd2 c33d 8177 a13c 7255 363d 50eb 18be
00000060: 7297 983e 0150 2fbe 0a31 353d b48d 013c
00000070: 4be0 05be 9577 fbbd f5c5 8ebd c2e1 2b3e
00000080: b463 08be e8f9 8f3d 656c 2d3e 0173 743e
00000090: 32a1 b33d b385 12be ad46 8a3e f378 993e
000000a0: 000d 6dbe 6ff9 febd 30dd 18bd c474 70bd
000000b0: 9017 10be cf35 b63c 7cb6 1abe bb51 253e
000000c0: e020 79bc aea3 9bbd f0ea 0d3d 0eb2 8bbd
000000d0: 8ffa 9e3d b5ba a43d 878c 013e df7b 093d
000000e0: 19d8 113d f916 b2bd 024d 23bd 2bae 1b3e
000000f0: a795 163e ee1b 89bd b8de 343e 0a86 7ebd
00000100: 8f7c afbe f7d5 38bd 99ea 13be c15e 8e3d
00000110: 63de 863d 9ebd df3d 65a4 803d 82d0 c1bd
00000120: 2717 27be 5509 69be 69e7 d53d b1c8 06bd
00000130: 057b 9a3d 14f0 e5bb 961a 9c3c a655 24bd
00000140: fe65 06be 3429 2abe 5dab 12be b6da 97be
00000150: 02f3 843d 0f30 a0be 9b1b b73d 8db6 8dbb
00000160: c239 58bd 1c1b d73d b909 123e dc91 be3d
00000170: 1f02 67ba b23d 59be 6af1 7bbd 790d 98be
00000180: 8c46 1b3d 2d46 813d 182b 763e 1b6f 553e
00000190: 7cc0 993c 0e1a 8fbd 44ed 01bc 793f 063d
000001a0: 32bc 00bd 97a3 5e3e 5352 523d 29f2 0f3e
000001b0: 02b0 993c bd84 953e 25ff 17be 393c 92bc
000001c0: 4221 5ebe d164 d83d 9eeb 5e3e accf c6bd
000001d0: a084 6dbd a989 6fbd f8f2 02bd 34ec 09bd
000001e0: 52df d23c 201d 4abd 893c 8c3d 2ede d6bd
000001f0: ddf2 fcbd 175d 6b3e a134 6fbe 6d04 b13d
00000200: e5ff 85bd 0433 003e c676 693d 36b9 52bd
00000210: ec8c e5bd 62cc 28be 60cc 17be f832 f13d
00000220: 6b3f 26bd a01c 90bd 6962 1dbe 4398 14bc
00000230: 2c61 1c3d a069 a83c 0083 823d e503 27bd
00000240: 98b1 8fbd 228c f13b 5ea7 19be fc77 493d
00000250: b5cd 41be f27c 0bbe c8b3 9d3d 14a6 6c3b
00000260: a33a 8bbc a992 263e f009 4dbb 49dd 463d
00000270: 4333 1fbe 7a82 c33c b18f 82bb 7d0b 0a3e
00000280: 51ac bb3d 6feb 203e 0fa8 e53a f266 ebbd
00000290: f75c 8bbd 2f1e 01be 68bb f73d 21b6 3a3d
000002a0: e9f8 223e 5077 e53d 6583 d5bc 8034 183c
000002b0: 8261 f6bd 7292 ba3e 0d99 63be e712 82be
000002c0: a8bf 7cbd 1ee2 e53d 7817 c33d 3161 f13b
000002d0: 2277 343e 9a20 3d3c 97b7 b3bd ca0a 3ebd
000002e0: 9785 b53d 1e25 63be c6e1 eebc c795 b0bd
000002f0: 9ea0 353d aef5 f4bd 9ada ab3e 9de3 613e
00000300: e99c 1e3d b1f9 6a3d 3923 2fbe 2d97 34be
00000310: 5e68 093d dcc5 093e 8d39 1dbe c073 03be
00000320: b417 013d 306c a43d a751 1fbe 3326 773d
00000330: a5b6 18be cc0e 143d e842 933d 8b77 89bd
00000340: 9611 083d fd46 04be d7ad ac3b 8963 97be
00000350: c2b1 4bbe a101 aabe 9374 b93d 6ff4 20be
00000360: 7ed4 9b3d 5bc4 b03d b803 2b3d 2f0b c53d
00000370: ed5d 27be a218 a63c 62b6 913c df93 60bd
00000380: 850e c03d 607e 95bc 2218 193d cf85 a83d
00000390: c646 a53d b86e 073e a219 0dbe 1c2e 3fbe
000003a0: ad16 a9bd 9a89 99bd a62f f03d a02e a83d
000003b0: 2430 03be 80ac 413e bf66 dd3d 0663 a13e
000003c0: 9e6f 26be e22e 4739 7419 8bbe 8cfc 2e3d
000003d0: 22dd 9f3c 0e71 da3e 1f73 783c 272b e83a
000003e0: 8776 11bd 42c1 ab3d 5e19 dfbc 4458 c33c
000003f0: 7f84 443e 4c25 923d 6db1 a43d e5b2 a13d
0.22940476 0.028522821 0.3593372 0.03699408 0.12400996 -0.053725168 0.0491316 0.26835936
0.18318152 -0.0024300725 0.15145378 -0.10874868 -0.09606579 -0.17740513 0.2070552 -0.09574979
-0.30299345 -0.08487606 -0.18495694 0.13419633 0.09561574 0.019710304 0.04451508 -0.14933515
0.29803044 -0.17120363 0.04423622 0.00790732 -0.13073842 -0.12278668 -0.06971351 0.16785339
-0.13319284 0.07030088 0.1693588 0.23871996 0.0877098 -0.14308815 0.27007046 0.2997509
-0.2314949 -0.124499194 -0.037320316 -0.058705106 -0.14071488 0.022242455 -0.15108675 0.16144459
-0.015205592 -0.07599579 0.034647882 -0.068210706 0.07762634 0.08043424 0.12651263 0.0335654
0.035606477 -0.08695788 -0.039868362 0.15203159 0.14705525 -0.0669478 0.17663085 -0.06213955
-0.34274718 -0.045125928 -0.1444496 0.069516666 0.06585386 0.109248385 0.06281356 -0.09463598
-0.16317426 -0.22757466 0.104445286 -0.032906238 0.07542995 -0.007017145 0.019055646 -0.040120743
-0.13124844 -0.1661728 -0.14323182 -0.2965905 0.064916626 -0.31286666 0.08940812 -0.0043247403
-0.052789457 0.105032176 0.14261521 0.09305164 -0.0008812267 -0.21214941 -0.061509527 -0.2969778
0.037909076 0.06312213 0.24039876 0.20843165 0.018768542 -0.069873914 -0.007930104 0.032775376
-0.031429477 0.21742092 0.05134804 0.1405722 0.018760685 0.29202834 -0.14843424 -0.017850982
-0.21692374 0.10566104 0.21769568 -0.09707579 -0.05798781 -0.058480892 -0.031969994 -0.033672526
0.025741253 -0.049344182 0.06847484 -0.10491596 -0.1235101 0.2298473 -0.2335992 0.08643422
-0.06542949 0.12519461 0.056998037 -0.051446162 -0.11208519 -0.16484216 -0.14824057 0.117773
-0.040587824 -0.0703671 -0.15369572 -0.009069505 0.038178608 0.020558178 0.063726425 -0.0407752
-0.07016295 0.0073714415 -0.15005252 0.04918669 -0.18926127 -0.13621882 0.07700306 0.0036109732
-0.016995734 0.16266884 -0.003128644 0.048550878 -0.15546899 0.023865927 -0.0039844145 0.13480945
0.09163726 0.15714811 0.0017521399 -0.11494245 -0.06804841 -0.1260917 0.12096292 0.045583848
0.15915264 0.11204398 -0.02606363 0.009289861 -0.12030317 0.36439854 -0.22226353 -0.25405046
-0.061706215 0.11224769 0.09525961 0.0073663224 0.1762357 0.011543417 -0.08775251 -0.046397008
0.08863371 -0.22182128 -0.029160392 -0.08622318 0.04434263 -0.11960922 0.33565217 0.22059484
0.03872386 0.05736703 -0.1710328 -0.17635794 0.033546798 0.13454384 -0.15353985 -0.12837124
0.031516746 0.08028448 -0.15558492 0.060339164 -0.14913423 0.036146924 0.07190496 -0.06712254
0.033219896 -0.12917705 0.0052697468 -0.29568127 -0.19892028 -0.33204368 0.09055438 -0.15718244
0.07608889 0.08631202 0.041751593 0.09621274 -0.16344424 0.020275418 0.017787162 -0.05482852
0.093777694 -0.018248737 0.03737653 0.08228647 0.080701396 0.1322583 -0.1377931 -0.18669933
-0.08256278 -0.074969485 0.11727838 0.08212018 -0.12811333 0.1891346 0.10810613 0.3152086
-0.16253516 0.00018995584 -0.27167857 0.042721316 0.019514624 0.4266438 0.015164166 0.0017713056
-0.035513427 0.083864704 -0.027233776 0.0238458 0.19191168 0.0713602 0.08041654 0.078954495

bias f4 [20]
00000000: e3d8 ab3a e494 59be 99af ad3b b193 463e
00000010: 0f0a 4c3d 9588 e23b 706f 3d3d 150b febe
00000020: 2891 f33d 3744 423e 5ea3 cabd 052d 0e3e
00000030: cda1 6d3d 0827 853d cb79 c7bd 6422 eb3d
00000040: a26e 04be 2a23 163e c043 0b3e e379 2dbc
0.0013110902 -0.21248204 0.005300474 0.19392277 0.04981428 0.0069132545 0.046248853 -0.4961783
0.11892921 0.18971334 -0.09894441 0.13884361 0.058015633 0.06501585 -0.09740027 0.11481169
-0.12932828 0.14661852 0.13600063 -0.010588142

weight f4 [32, 20]
00000000: 3d73 ba3e 3b51 c1bd ff4a b8bd c0b9 cfbd
00000010: 6fb3 57bd d826 673e 8c42 57be 5e0c ad3e
00000020: f3fc 02bc ecd9 cebd 2c44 8bbd 40c3 43bd
00000030: 4094 87be c6f4 00bd 0d67 9a3b 5d63 403d
00000040: 2813 32be bab6 7f3e b6ed 52bd 39cc 803d
00000050: 185d babb 2ee1 133d 8784 233e 7275 9bbd
00000060: b423 6e3d 4661 643e cadc 0bbe ffe6 34be
00000070: 4e11 603e c458 98be 34b4 f9bc e5e8 753e
00000080: de4b ccbe fed2 0c3e 712c 7c3c a909 bbbd
00000090: 8fb6 593e c4db 4c3e 68b4 4c3e e2f8 943d
000000a0: dfe3 ffbd 47bf 2fbe 3ccc e3bd 3357 93be
000000b0: 03d7 3cbe a989 c33d 3cdd 4e3e a140 8e3d
000000c0: c970 603e 4904 1e3e 1cd1 1d3e fbb2 8a3e
000000d0: 363d e83d d2c7 1d3e 2553 d6bc bdf6 0a3c
000000e0: 9031 9b3b 7821 9abe 9811 c53d 803f 5f3e
000000f0: 6b35 09be 9c3d 9b3e 7ca0 183d 12bb 923c
00000100: 5435 23be 0e0d b73e d43e cc3d 5f2c 94bd
00000110: 8851 1e3e f7a2 ba3d bffb 89bd e050 f03d
00000120: bd6f 77be c455 d73e 2a70 99be 59fa 183e
00000130: 0ee8 1dbd 4701 1ebe 1d2d d5bd acf7 263b
00000140: 0e78 a63e 4887 37be e461 8a3d 9d72 713c
00000150: c6f0 103e eb04 833e 2029 93be dc60 a2bd
00000160: 4800 b73e da89 79be c8dd 5f3e 4d2a dc3d
00000170: 1b59 983e 0d01 58bc 54a9 2a3e 9cb8 3bbe
00000180: 5cf8 8bbd db68 2dbe 0d21 36be 8e29 05be
00000190: b837 3cbe 44a6 28be cff8 d7bd 9aa1 af3e
000001a0: 532e 2bbe 68bb b93e c222 cb3d ea79 c53e
000001b0: e2c1 5ebe 9532 b33d 04db 243e 4f45 aa3e
000001c0: d1bb a8bd b9a2 bfbd 15ee 5d3e 174f debd
000001d0: e6f4 623e 582c 31bd 80a6 01be aed3 1b3e
000001e0: 3400 39be b6e1 50be ff19 133e 9fca 9fbe
000001f0: 518f 16be 80c1 d03c cd05 47be 1bab 94be
00000200: 9926 913e 405c fe3d 0f79 573d f89d e2bd
00000210: bb51 6a3e 7b0e 5f3e 15ac 933e 222d eabd
00000220: f42d a1bd 220b a03d 2540 913e 29c2 8dbc
00000230: 0e08 043d 43d7 323e 9954 643d f60a adbd
00000240: 42df 623e 15a7 5a3d 50c7 97bd 32c2 80be
00000250: f506 923d 70ab 17bd 85a5 b5bd 714a d43e
00000260: 5d84 9c3a 8c5a 1abe 019e 9f3e 6e39 833d
00000270: 524c b83d a740 ab3e 1959 78be 7711 233e
00000280: af81 0dbd 359b 01be f290 343e 5dac 19be
00000290: 68cc 39be 263c 60be 9b23 12be 01d9 34be
000002a0: 9312 dfbd 65ff f73d e9bb 9d3d 94e6 70be
000002b0: 3db7 5e3d d960 29be 8290 29be c666 c6bc
000002c0: f1bc 4bbe 7843 093e 4e5f 993d c5e0 15be
000002d0: 4cb6 2ebe 63ff 33be 0e8d 033e 895e e6bd
000002e0: 91d3 3bbd 7eb5 ebbd a723 383e a5d7 dcbb
000002f0: 26d4 1c3d f6ba 07be ff95 233e 531a 92bd
00000300: 76b0 293d 6921 cdbc 89bf 02be 03d1 9dbd
00000310: 9c78 483d e688 c1bd 9e70 49bd 9077 18be
00000320: aa10 803d 17ac f53d e1f9 913d 76b6 f23d
00000330: a860 1dbe 9f81 58be 05d4 2c3e ee16 563e
00000340: 005f 823c 48aa 80be b4f8 88be 2832 1f3e
00000350: 0348 753e 868f a23e b1bc 263e 6d5c 45be
00000360: 62db 88bc f833 9b3e 3d0a a03d a40b 9fbd
00000370: 3909 6a3e 0799 473e 4a3e 043e e666 8ebe
00000380: d4cd c3bb 0083 ec3c 8389 d83c c76b 88bc
00000390: eb28 04be 1f03 513e 7f32 a73e 4c26 1d3e
000003a0: 67cb 1d3e aeda 8fbe 2560 febd 3953 edbd
000003b0: 8462 f5bd 3168 823d 52ec 393e 1587 8fbc
000003c0: 8ec4 013e a623 94be cb1e a5bc 655b ad3e
000003d0: 406c 333e 7ea1 57be 74fc a5bd 17d9 93bd
000003e0: f34d 743d b7c8 8b3e fd42 a73d 5a0d 29be
000003f0: 52e4 eebc 778f 0e3e d070 8a3d a3d1 49be
0.36416045 -0.094393216 -0.08998679 -0.10142851 -0.052661356 0.22573411 -0.2102148 0.33798498
-0.007994878 -0.10100159 -0.06800112 -0.047793627 -0.26480293 -0.031483434 0.0047119916 0.04696976
-0.1739012 0.24972048 -0.05149623 0.062889524 -0.005687367 0.03610342 0.15968524 -0.0759076
0.058139518 0.22302732 -0.13658443 -0.17666243 0.21881601 -0.29755223 -0.030481435 0.24014623
-0.39901632 0.13752362 0.015391455 -0.09132702 0.21261047 0.20005709 0.19990695 0.07274033
-0.12494635 -0.1716281 -0.11122939 -0.28777465 -0.18441395 0.09547741 0.20201582 0.06945921
0.21918024 0.15431322 0.154118 0.27089676 0.113398 0.15408257 -0.026162693 0.008481679
0.004736133 -0.3010366 0.09622496 0.21801567 -0.13399284 0.30320442 0.037262425 0.017911468
-0.15938312 0.35752147 0.09972921 -0.072350256 0.15460789 0.09113114 -0.0673747 0.11734176
-0.24163719 0.4205762 -0.29968387 0.1493925 -0.038551383 -0.15430175 -0.10408995 0.0025477214
0.3251347 -0.179227 0.067569524 0.014736799 0.14154348 0.2558969 -0.28742313 -0.07928631
0.35742402 -0.24368992 0.21861947 0.10750256 0.29755482 -0.013183844 0.16666156 -0.18332142
-0.0683448 -0.1693453 -0.17786045 -0.13004133 -0.1838063 -0.16469675 -0.10545503 0.3430298
-0.1671689 0.36275792 0.09918739 0.38569576 -0.21753648 0.08749882 0.16099173 0.33256003
-0.08238948 -0.09357209 0.21672852 -0.10854929 0.22163734 -0.04325518 -0.12661171 0.15217468
-0.18066484 -0.20398602 0.14365385 -0.31209275 -0.14703108 0.025482893 -0.19435807 -0.29036793
0.2834976 0.12419939 0.052605685 -0.110652864 0.2288274 0.21782868 0.28842226 -0.1143439
-0.07870093 0.078146234 0.2836925 -0.017304497 0.032234244 0.17464928 0.05574474 -0.08449356
0.22155479 0.053381998 -0.07411063 -0.2514816 0.07130233 -0.03702873 -0.08869461 0.41463044
0.0011941303 -0.15073603 0.31175235 0.06407438 0.08998932 0.33447763 -0.24252738 0.15924631
-0.034547504 -0.12656863 0.17633417 -0.15007158 -0.18144381 -0.21897945 -0.14271395 -0.17660905
-0.108922146 0.121092595 0.07701857 -0.23525459 0.05437397 -0.1654085 -0.16559032 -0.024218928
-0.19896294 0.13404644 0.07488881 -0.14636524 -0.17061728 -0.17577891 0.12846777 -0.112485
-0.045856062 -0.11509226 0.1798235 -0.006739574 0.038288258 -0.13254914 0.15975188 -0.07133927
0.041428052 -0.025040345 -0.12768377 -0.077058814 0.048943147 -0.094499394 -0.049179666 -0.1488936
0.062531784 0.11995714 0.07127739 0.11851208 -0.15368903 -0.21143197 0.16877754 0.20907184
0.01591444 -0.25129914 -0.26752245 0.15546477 0.23953252 0.31750125 0.16282918 -0.19273539
-0.016706172 0.30313087 0.07814453 -0.07765892 0.2285508 0.19491969 0.12914386 -0.2781288
-0.0059754644 0.02887106 0.026432758 -0.016652955 -0.12906234 0.20411347 0.32655713 0.1534664
0.15409623 -0.28096527 -0.12420682 -0.11588139 -0.11981681 0.06367529 0.18156555 -0.017520467
0.12672636 -0.28933448 -0.020156285 0.3385879 0.17521763 -0.21057698 -0.08104792 -0.07219141
0.05964465 0.2730157 0.08167074 -0.16509 -0.029161606 0.13921915 0.067597985 -0.19708876
