AE Models/24lat2.086loss.pth (torch, 121378 bytes, 27 tensors)

weight f4 [16, 1, 4]
-0.039220326 0.00037641343 0.105879545 0.08176171 0.14242178 0.046924993 0.031021269 -0.12245911
-0.41474244 0.057227306 0.121039726 -0.42118493 -0.29745397 0.044178803 0.2762435 -0.22405666
0.14777316 -0.0015784097 -0.014481075 0.0020024723 0.07231884 0.10994159 0.054550085 0.054210186
0.003953924 0.13438664 0.06722376 0.017859308 -0.068665735 -0.016798178 0.00039383952 0.1467679
0.12877184 0.0352607 -0.0523513 -0.14190261 -0.07154687 -0.09698141 -0.060267597 -0.12834692
-0.23725775 0.08292829 0.17094605 -0.015565288 0.0521747 0.037966978 0.034350723 0.11068239
0.07374152 0.008726252 0.0823306 0.08653176 -0.0029105067 0.06977474 -0.04928373 -0.02613413
-0.12874785 -0.033960935 0.00733506 0.11965643 0.059496596 0.12882398 0.1870994 0.0868167
00000000: 7ea5 20bd 5b59 c539 60d7 d83d af72 a73d
00000010: 04d7 113e 6c34 403d 5120 fe3c d8cb fabd
00000020: 1f59 d4be 2e67 6a3d ade3 f73d 8da5 d7be
00000030: e34b 98be d5f4 343d ca6f 8d3e 1c6f 65be
00000040: d951 173e a4e2 ceba 0842 6dbc e93b 033b
00000050: e61b 943d 0e29 e13d e96f 5f3d 800b 5e3d
00000060: eb8f 813b a79c 093e 9cac 893d af4d 923c
00000070: 9fa0 8cbd 559c 89bc 3f7c ce39 534a 163e
00000080: c4dc 033e 866d 103d 516e 56bd eb4e 11be
00000090: 2a87 92bd 319e c6bd 28db 76bd 606d 03be
000000a0: b2f3 72be 4fd6 a93d 7b0c 2f3e 8d05 7fbc
000000b0: 23b5 553d 4383 1b3d 58b3 0c3d 73ad e23d
000000c0: cb05 973d 8ef8 0e3c f29c a83d 9037 b13d
000000d0: 33be 3ebb 0fe6 8e3d bddd 49bd 3e17 d6bc
000000e0: 7ad6 03be 9f1a 0bbd f15a f03b 6e0e f53d
000000f0: b4b2 733d 6fea 033e fc96 3f3e f4cc b13d

bias f4 [16]
0.30235708 0.3220684 0.24996871 -2.9391317 0.01071198 -0.5787282 0.080992915 0.24638624
0.055181082 1.2277489 0.0039193532 -1.5989401 0.00040897448 0.588531 0.043338496 0.07770777
00000000: 8cce 9a3e 26e6 a43e ccf7 7f3e bc1a 3cc0
00000010: 4d81 2f3c 8827 14bf 9ddf a53d ad4c 7c3e
00000020: 8f05 623d e026 9d3f eb6d 803b 12aa ccbf
00000030: a06b d639 f8a9 163f b583 313d 4025 9f3d

weight f4 [16, 16, 4]
0.019542871 -0.047985703 0.15778059 -0.010865582 0.118517414 0.08042033 0.094101384 0.02849971
-0.058622655 0.07986002 -0.24247049 -0.15734066 -0.06077836 0.014706236 -0.21573159 -0.10345856
-0.03655065 0.0037657705 0.022117317 0.085963465 0.100529216 0.061924912 -0.12352381 -0.0007611271
0.039555468 0.014000315 0.13237998 0.1560075 -0.0075141164 0.027491862 -0.057808597 0.07703813
-0.008741122 -0.17210881 -0.12001079 -0.082695894 0.041403558 0.05836237 -0.0979838 0.10662861
0.015206693 -0.026171602 -0.08422447 0.007690235 0.16482183 0.07771899 -0.02789711 -0.11590237
0.057295132 -0.06259682 -0.0818362 -0.035851765 -0.11131983 0.019281827 -0.055837628 0.12756822
-0.14758927 -0.23660593 -0.24987893 -0.1815043 0.029968534 0.14622374 0.03092935 0.10360569
-0.15028885 0.03777414 -0.13716622 0.043725815 0.18261027 0.14543152 0.13542564 0.034545448
-0.38829118 0.53690857 -0.3469052 -0.034259364 -0.297606 -0.4972704 0.07162135 -0.313258
0.044844296 0.12575714 0.02398972 0.110015266 0.2165888 0.23835607 0.038103852 -0.12261475
-0.07685519 0.10649575 -0.014400891 -0.026346028 -0.19757225 -0.32905287 -0.108041495 -0.3629157
0.04722322 -0.02222844 -0.1342525 -0.015291413 -0.19078547 0.7768941 -0.20197599 -0.647525
-0.047599837 -0.12987486 0.023224285 0.015587291 0.16071627 -0.09048219 -0.19379233 -0.32980564
0.0079349885 0.06278041 0.03214465 -0.14614365 -0.056572516 -0.1711537 0.14546442 -0.22272466
0.16023302 0.33955368 -0.26472193 -0.78606 -0.08975211 0.09414269 0.05965043 0.044701476
0.12543957 -0.20731731 0.008805583 0.102921724 -0.046086594 -0.032233592 0.30908844 -0.07617134
-0.0024052507 -0.28389972 -0.46682364 -0.6566331 -2.851634 0.029338578 -0.04624593 0.04640254
-0.14394641 0.034926914 -0.18256162 0.019169336 0.08385266 -0.29076192 0.1266968 0.45183954
-0.094620645 -0.041788146 -0.06872327 -0.014274685 0.053727888 -0.18999608 0.04360506 0.03003776
-0.12265747 -0.22481275 0.05778903 0.22626978 -0.03586996 -0.32807732 0.10339441 0.23870187
0.11098071 0.039956555 0.14679232 0.10361396 -0.2399329 -0.12205514 0.11452283 -0.32635242
-0.5047563 -0.21117665 0.07655394 0.25304022 0.10597129 0.26141667 0.099443674 -0.22679207
-0.096200965 0.23812139 -0.035518754 0.3173882 -0.039672613 -0.16456749 0.09505864 -0.016322533
0.029002221 -0.06037527 0.10815834 0.029625176 0.013000836 -0.016735021 -0.0019258581 -0.24826156
-0.45644394 -0.085612215 -0.23893972 -0.0010077516 -0.6358115 0.25956297 0.2513872 -0.7974404
-0.040570684 -0.1259943 0.10375339 0.17547561 -0.034107953 -0.192062 -0.19562289 -0.006985634
-0.032870002 -0.10128378 0.08576133 0.16936843 0.0907415 0.10561738 -0.004707139 0.2890417
0.00095682737 -0.034136176 -0.23540047 0.09912843 -0.24332637 -0.1645206 0.17495349 0.29581532
0.03348689 0.088143386 -0.0854749 -0.08703616 0.095962286 0.15902238 0.0640249 0.00376622
-0.069046475 0.043126296 0.018729838 0.06559568 0.14533813 0.16321959 0.025558773 0.14364204
0.06720168 -0.11910245 -0.14574923 -0.19165267 -0.07445147 -0.09244164 0.073146746 0.045452848
00000000: 5f18 a03c a88c 44bd 3c91 213e 8e05 32bc
00000010: 42b9 f23d 6ab3 a43d 3ab8 c03d 3978 e93c
00000020: 4f1e 70bd a68d a33d 2f4a 78be e91d 21be
00000030: bbf2 78bd 6df2 703c bee8 5cbe 15e2 d3bd
00000040: 22b6 15bd 25cb 763b 602f b53c 9d0d b03d
00000050: 43e2 cd3d faa4 7d3d 0dfa fcbd 6086 47ba
00000060: ea04 223d 9461 653c 9e8e 073e 6ec0 1f3e
00000070: fa38 f6bb 9d36 e13c b5c8 6cbd 2bc6 9d3d
00000080: ec36 0fbc 4b3d 30be 38c8 f5bd 775c a9bd
00000090: c796 293d 610d 6f3d bbab c8bd 1a60 da3d
000000a0: 7e25 793c d465 d6bc e17d acbd 5efe fb3b
000000b0: 0ec7 283e 222b 9f3d 7b88 e4bc 395e edbd
000000c0: 4dae 6a3d c332 80bd bd99 a7bd 4dd9 12bd
000000d0: a7fb e3bd ecf4 9d3c ffb5 64bd 3ea1 023e
000000e0: a421 17be d348 72be 43e0 7fbe 43dc 39be
000000f0: 9280 f53c adbb 153e 8c5f fd3c 382f d43d
00000100: 52e5 19be 0eb9 1a3d 4d75 0cbe d719 333d
00000110: 30fe 3a3e 00ec 143e 05ad 0a3e 877f 0d3d
00000120: 1ace c6be d772 093f 8f9d b1be 8c53 0cbd
00000130: d05f 98be 3a9a febe 37ae 923d 5a63 a0be
00000140: a7ae 373d 7bc6 003e 1786 c43c af4f e13d
00000150: 74c9 5d3e 9d13 743e c912 1c3d 711d fbbd
00000160: 4166 9dbd 721a da3d b7f1 6bbc a0d3 d7bc
00000170: 6150 4abe 9e79 a8be dc44 ddbd 16d0 b9be
00000180: 236d 413d 6b18 b6bc 7d79 09be d688 7abc
00000190: 445d 43be 88e2 463f cbd2 4ebe 33c4 25bf
000001a0: 0cf8 42bd eafd 04be db40 be3c d661 7f3c
000001b0: ce92 243e ba4e b9bd 7f71 46be 49dc a8be
000001c0: c101 023c 0493 803d 1caa 033d aea6 15be
000001d0: 95b8 67bd ea42 2fbe a0f4 143e ef11 64be
000001e0: 2014 243e fbd9 ad3e a289 87be 3a3b 49bf
000001f0: f4cf b7bd e2cd c03d 0254 743d e518 373d
00000200: 3b73 003e fd4a 54be 4b45 103c a0c8 d23d
00000210: 4cc5 3cbd 5f07 04bd d740 9e3e b8ff 9bbd
00000220: 69a1 1dbb 4e5b 91be 8203 efbe 1b19 28bf
00000230: 2c81 36c0 7557 f03c 5f6c 3dbd 9710 3e3d
00000240: b066 13be 860f 0f3d 6ff1 3abe 0309 9d3c
00000250: f2ba ab3d bfde 94be cebc 013e 8357 e73e
00000260: 78c8 c1bd 0c2a 2bbd c9be 8cbd 5ee0 69bc
00000270: c611 5c3d 558e 42be 389b 323d c011 f63c
00000280: d733 fbbd 5035 66be 31b4 6c3d 44b3 673e
00000290: 61ec 12bd c0f9 a7be 73c0 d33d 436e 743e
000002a0: db49 e33d 7ca9 233d ba50 163e 8e33 d43d
000002b0: f8b0 75be 0cf8 f9bd f28a ea3d aa17 a7be
000002c0: b537 01bf b13e 58be 50c8 9c3d 7d8e 813e
000002d0: 7a07 d93d 68d8 853e 20a9 cb3d 2e3c 68be
000002e0: 0305 c5bd 18d6 733e 1d7c 11bd b580 a23e
000002f0: c07f 22bd 6184 28be 1bae c23d d5b6 85bc
00000300: 1196 ed3c 0f4c 77bd 1f82 dd3d 7fb0 f23c
00000310: 7501 553c e217 89bc 136d fcba 4738 7ebe
00000320: 05b3 e9be 7555 afbd 9dac 74be 8816 84ba
00000330: 8bc4 22bf 70e5 843e d3b5 803e 0e25 4cbf
00000340: 722d 26bd a604 01be a87c d43d e1af 333e
00000350: c8b4 0bbd e7ab 44be 5e51 48be bfe7 e4bb
00000360: b2a2 06bd df6d cfbd a3a3 af3d eb6e 2d3e
00000370: aed6 b93d ed4d d83d 583e 9abb 46fd 933e
00000380: 99d3 7a3a 60d2 0bbd d20c 71be d903 cb3d
00000390: 8c2a 79be 1778 28be 0227 333e 1b75 973e
000003a0: 8d29 093d 8584 b43d 770d afbd 0440 b2bd
000003b0: e087 c43d c3d6 223e 7d1f 833d b0d2 763b
000003c0: 3d68 8dbd 33a5 303d 516f 993c 0757 863d
000003d0: 85d3 143e 0923 273e a260 d13c e616 133e
000003e0: 09a1 893d fceb f3bd 493f 15be 9940 44be
000003f0: 037a 98bd 0b52 bdbd f6cd 953d c42c 3a3d

bias f4 [16]
-0.11095109 -0.14902021 -0.10922575 0.36016384 0.0629107 0.10444941 0.44163597 -0.42836007
0.110968366 0.17156921 -0.16821356 -0.2992749 0.22822787 0.05568938 0.6719433 -0.27951384
00000000: 533a e3bd c198 18be c0b1 dfbd 6567 b83e
00000010: 53d7 803d 93e9 d53d 1c1e e23e 0352 dbbe
00000020: 6243 e33d d7af 2f3e 2d40 2cbe 8f3a 99be
00000030: 91b4 693e 8c1a 643d 7a04 2c3f 701c 8fbe

weight f4 [16, 16, 5]
0.07616744 -0.1509297 -0.1563188 -0.2425473 0.18493004 -0.050610695 -0.019018926 -0.16576384
0.06677289 0.004518555 -0.13588314 -0.26162344 -0.34334335 0.20043781 0.40673643 0.11474736
0.03318229 -0.0891098 -0.07338373 0.020188091 0.26774058 -0.27824056 0.055152267 0.22476488
0.06461039 -0.11214288 -0.07071945 -0.13837807 0.058286987 0.3697668 -0.36834538 -0.31079626
-0.06160438 -0.053380165 0.19533947 -0.061090615 0.1060189 0.20832139 -0.1855355 -0.0071209744
0.3468392 0.14214604 0.007268836 0.23153847 -0.16971336 0.022065671 -0.27486074 0.17634453
-0.12384695 0.1576163 -0.2713844 -0.2714211 -0.23252293 0.09055114 -0.20399034 -0.15332082
-0.40375182 -0.40527746 0.71192795 0.078441404 -0.09177582 -0.27038553 -0.32160792 -0.16681728
0.047116578 -0.042569645 0.018771106 -0.5322934 0.10418949 0.19819649 0.008996508 -0.07043136
-0.0018675444 -0.024842352 0.008380247 0.0507823 0.05473367 -0.23715101 0.23687416 -0.0008570011
0.028967092 0.024481108 0.03020353 -0.10542919 0.08562045 0.112983674 0.1419998 0.05004616
-0.1280427 -0.18751185 0.013061638 -0.05142503 0.27883163 0.2235376 -0.4646957 0.1611169
-0.020248154 0.0903114 0.025420828 -0.3369539 -0.10502704 0.10971027 0.19051407 0.07722919
-0.21941118 0.0356215 -0.14566128 0.22270916 0.24225911 -0.42824247 0.03674731 0.052961633
0.1289497 -0.13686748 -0.08597863 0.11940201 0.0637722 -0.21548688 0.14065498 -0.058723923
-0.06684634 -0.05478165 0.05046558 0.15149416 0.0054484233 -0.10684826 0.30850655 -0.022920737
0.070523255 -0.2634064 0.064380206 -0.028614506 0.13806301 -0.00207814 -0.01677824 0.19141486
0.044479348 0.11402621 -0.14080097 -0.24900213 -0.012031439 -0.011353366 0.084370196 0.04772507
-0.5074949 -0.14543246 -0.07849637 0.11800334 0.06273623 -0.24427104 0.042011604 0.22657005
-0.18009241 -0.010024757 -0.4840825 -0.03387332 -0.03748162 0.14940868 0.25366917 -0.06180043
-0.022467243 0.091624305 0.20441982 -0.09293041 -0.079079956 0.24115863 -0.107694216 0.16205579
-0.03612335 -0.14009655 0.082383856 0.1488792 0.0694276 0.11582446 0.08603801 0.1312177
-0.16535975 -0.069282636 -0.036087137 -0.0028477155 0.28748187 0.22937272 0.022084793 0.18018715
0.054313138 -0.007933346 0.17996427 -0.0220524 0.033020154 0.09041361 0.09636307 0.16602904
0.109835535 0.08791702 0.107166216 0.021930147 -0.06364311 -0.11045756 -0.128294 -0.068072245
-0.07913938 0.055338934 -0.12550077 -0.053448927 -0.03548214 -0.033577316 0.0057432842 0.16838592
-0.0008330634 0.10271869 0.20048505 -0.17073599 0.17753558 0.20265873 -0.018459931 0.004633783
0.35706365 -0.11577647 0.14467777 0.09273642 0.11256847 0.25432128 0.37345353 -0.23807622
0.033707213 0.09008961 0.28097785 0.27177516 0.060619604 0.0046745455 0.016982215 -0.19197442
0.20684336 0.24483658 0.27470785 -0.11009641 0.044686623 -0.07900559 -0.06245328 -0.058394734
0.15814742 0.044904254 0.09641101 0.06517244 -0.07444927 0.07867828 0.15822199 0.04706025
0.050879188 -0.002536095 0.03243009 0.22701858 0.02105317 -0.3178632 0.034054015 0.0028932488
00000000: adfd 9b3d 518d 1abe 0912 20be 525e 78be
00000010: 4d5e 3d3e 294d 4fbd 94cd 9bbc ffbd 29be
00000020: 3ac0 883d 6310 943b f324 0bbe 82f3 85be
00000030: b3ca afbe 923f 4d3e c23f d03e aa00 eb3d
00000040: 27ea 073d 337f b6bd 364a 96bd 7f61 a53c
00000050: 4b15 893e 8c75 8ebe 58e7 613d c428 663e
00000060: 7452 843d 2bab e5bd 5cd5 90bd fbb2 0dbe
00000070: 56be 6e3d 1352 bd3e c497 bcbe b020 9fbe
00000080: e054 7cbd 29a5 5abd 1207 483e 273a 7abd
00000090: 7020 d93d 3452 553e 05fd 3dbe 1057 e9bb
000000a0: e894 b13e bb8e 113e 6a2f ee3b 6c18 6d3e
000000b0: 57c9 2dbe 11c3 b43c 8cba 8cbe a993 343e
000000c0: 78a3 fdbd 2b66 213e e5f2 8abe b5f7 8abe
000000d0: 7e1a 6ebe e072 b93d d8e2 50be 2200 1dbe
000000e0: 8fb8 cebe 8780 cfbe e940 363f e3a5 a03d
000000f0: f6f4 bbbd f96f 8abe cba9 a4be 26d2 2abe
00000100: 50fd 403d 825d 2ebd ddc5 993c 6144 08bf
00000110: 4d61 d53d 05f4 4a3e 1766 133c 513e 90bd
00000120: 64c8 f4ba 3082 cbbc 4e4d 093c 1a01 503d
00000130: 6a30 603d b7d7 72be 248f 723e 5fa8 60ba
00000140: 654c ed3c 9b8c c83c 656d f73c 42eb d7bd
00000150: c659 af3d fc63 e73d 6568 113e 34fd 4c3d
00000160: a01d 03be 1b03 40be 7b00 563c 0da3 52bd
00000170: 05c3 8e3e 0ae7 643e 98ec edbe d4fb 243e
00000180: 75df a5bc 2ff5 b83d 573f d03c 3985 acbe
00000190: 6b18 d7bd c7af e03d 1f16 433e 562a 9e3d
000001a0: 53ad 60be dae7 113d 3b28 15be df0d 643e
000001b0: c612 783e 9942 dbbe 5984 163d 4cee 583d
000001c0: 640b 043e fd26 0cbe 9015 b0bd 0b89 f43d
000001d0: 009b 823d 98a8 5cbe dc07 103e 7f88 70bd
000001e0: bce6 88bd b962 60bd ffb4 4e3d 4921 1b3e
000001f0: b088 b23b 43d3 dabd 92f4 9d3e 45c4 bbbc
00000200: 7f6e 903d 34dd 86be c5d9 833d f868 eabc
00000210: 6460 0d3e 6731 08bb 8572 89bc 4202 443e
00000220: fa2f 363d 9386 e93d 212e 10be 6afa 7ebe
00000230: 831f 45bc 7803 3abc 48ca ac3d 5d7b 433d
00000240: 30eb 01bf 3fec 14be b4c2 a0bd bcab f13d
00000250: da7b 803d 3022 7abe 5c14 2c3d fb01 683e
00000260: 256a 38be e13e 24bc a9d9 f7be c0be 0abd
00000270: 5486 19bd 97fe 183e ede0 813e 7322 7dbd
00000280: 390d b8bc 86a5 bb3d 6e53 513e 4c52 bebd
00000290: acf4 a1bd 4af2 763e c98e dcbd f4f1 253e
000002a0: 14f6 13bd 7875 0fbe deb8 a83d ca73 183e
000002b0: 0f30 8e3d 6035 ed3d b234 b03d ef5d 063e
000002c0: 1154 29be 0ee4 8dbd 1bd0 13bd bda0 3abb
000002d0: d330 933e afe0 6a3e 2beb b43c fb82 383e
000002e0: 7477 5e3d ddfa 01bc 8e48 383e 3ca7 b4bc
000002f0: 2440 073d c52a b93d 005a c53d 8403 2a3e
00000300: 74f1 e03d d70d b43d f679 db3d daa6 b33c
00000310: 5257 82bd 9337 e2bd 815f 03be 7669 8bbd
00000320: d413 a2bd 14ab 623d 4683 00be 43ed 5abd
00000330: b855 11bd 5e88 09bd 2932 bc3b 5c6d 2c3e
00000340: f061 5aba 2d5e d23d f44b 4d3e 6ad5 2ebe
00000350: e3cb 353e c585 4f3e 4839 97bc fdd6 973b
00000360: 0cd1 b63e 371c edbd 6926 143e 98ec bd3d
00000370: 4c8a e63d 6636 823e 4d35 bf3e 41ca 73be
00000380: 9310 0a3d e780 b83d 54dc 8f3e 1d26 8b3e
00000390: 434c 783d ee2c 993b 491e 8b3c f194 44be
000003a0: bfce 533e 71b6 7a3e 82a6 8c3e 3a7a e1bd
000003b0: 5209 373d afcd a1bd 03cf 7fbd 512f 6fbd
000003c0: 66f1 213e 86ed 373d 2373 c53d 2179 853d
000003d0: dc78 98bd 1422 a13d f204 223e 40c2 403d
000003e0: b266 503d 9d34 26bb 6ad5 043d 8f77 683e
000003f0: b377 ac3c f7be a2be 397c 0b3d a99c 3d3b

bias f4 [16]
0.08050528 0.020761892 -0.7254065 -0.093623586 0.010915559 -0.005473231 -0.19680628 0.053006817
0.3490237 0.3282939 -0.0816379 -0.30899262 0.013901012 -0.058224153 -0.085160695 -0.18671684
00000000: f4df a43d d814 aa3c 3eb4 39bf b9bd bfbd
00000010: 2cd7 323c ca58 b3bb 9687 49be ad1d 593d
00000020: 3cb3 b23e 2316 a83e c531 a7bd 4834 9ebe
00000030: 12c1 633c 737c 6ebd bb68 aebd b332 3fbe

weight f4 [16, 16, 5]
0.022756763 -0.23633082 0.12126567 0.03843809 -0.0808123 -0.29372326 0.054764193 0.07730849
0.080403514 0.04770697 0.019676263 -0.20149902 0.45322546 -0.18225148 0.041157294 0.09591729
-0.17477494 0.23670195 -0.12819119 0.08784238 0.0103799645 0.24448189 -0.06377344 0.06021803
-0.1477716 -0.17606005 0.19931051 0.261807 0.082939394 0.040028933 0.12443721 -0.3180209
-0.10178138 0.03757555 0.033739135 -0.1445055 0.055346567 0.10536124 0.06808548 0.18687493
-0.086318076 0.2037172 0.01879077 -0.082253784 -0.028434334 -0.018201198 0.70357746 0.23212309
0.05032414 -0.044822004 0.15750311 -0.02315605 0.36072043 0.13861132 0.054328825 0.1275343
0.09424347 0.14872949 -0.037987057 0.00086762017 0.03120727 0.08805784 -0.18128482 0.08219757
-0.0196035 0.02297883 -0.021941211 0.0064689186 0.10609759 -0.060276072 -0.10008012 0.055530995
0.058224685 -0.10008298 0.063326076 0.088808194 0.10580556 0.08924207 -0.04020238 -0.09311939
0.040469572 -0.003715923 -0.30960214 0.3548487 0.19947007 0.008197215 -0.5742411 0.33598533
0.045619067 -0.07378391 -0.039578225 -0.07921064 -0.28738388 0.31049764 -0.19561853 0.0681891
0.010157006 -0.2350839 0.23132187 -0.009596096 -0.11653894 -0.061695598 0.14280832 0.043070734
0.21658817 -0.08556409 -0.27431935 -0.08501536 0.28145194 0.09244813 0.07440087 0.16929023
-0.14370471 -0.213278 -0.17007545 0.15016398 -0.28771892 -0.028409168 0.12530445 0.06947501
-0.06936321 0.08791935 -0.014076571 0.102525435 0.0638633 0.13981901 -0.04466208 0.3714272
0.24409232 0.14823006 0.08202105 -0.03313055 -0.31069192 0.41762128 -0.05819288 -0.020013401
0.026858423 0.30068177 -0.07648024 -0.07769235 0.013629804 0.0855399 0.39664072 -0.16953824
0.07764897 0.052173864 0.06374708 -0.103040226 -0.09086376 0.046307694 0.077924766 0.018580679
-0.06965522 0.006435843 0.03389923 0.0025034756 0.21155944 -0.10191495 0.12214261 -0.097952686
0.06631168 0.08375528 -0.03274719 0.025169205 -0.14155832 0.23521878 -0.06287968 0.207747
-0.06263529 0.036148492 -0.02782649 0.21133004 -0.097071186 -0.050805073 0.0025939594 0.089649364
0.3007624 -0.09944731 0.22489971 -0.09577102 0.16141453 -0.07604955 0.15904486 -0.06214728
0.03323902 0.22797252 0.006095655 -0.090344355 0.00073153595 -0.0127481045 -0.31218013 -0.060485527
0.05422245 0.040751755 -0.044334717 0.19169192 0.014173229 0.044314045 -0.020656401 0.050812185
-0.059512194 0.149782 -0.09714919 -0.034275603 0.043883026 0.34698027 0.028745247 0.1945032
-0.13303657 0.033379994 0.06470051 0.21675947 -0.07189297 0.013502185 0.0011841322 0.07100423
0.22404581 -0.00432763 -0.06212573 -0.04568314 0.012705708 -0.1538453 0.15389293 -0.016159886
0.11438779 0.0033072543 -0.1006745 -0.08794955 -0.033061374 -0.010744505 -0.05627899 -0.053961597
-0.008830353 -0.063831486 -0.08255263 0.23831348 0.16881919 -0.2170756 0.093647115 0.0028365452
0.1068275 -0.07712066 0.17952366 -0.090080425 0.13086763 0.060353648 0.312579 0.11709713
0.019683873 -0.13832662 0.094803244 0.06254292 -0.25494772 0.112922214 0.056610886 0.14814149
00000000: 646c ba3c b500 72be 235a f83d 4271 1d3d
00000010: eb80 a5bd e562 96be 6b50 603d ea53 9e3d
00000020: 99aa a43d 6268 433d 1d30 a13c c255 4ebe
00000030: 2b0d e83e 22a0 3abe 8d94 283d 4970 c43d
00000040: 34f8 32be ff61 723e 8d44 03be b5e6 b33d
00000050: ba10 2a3c 7659 7a3e a69b 82bd 2ea7 763d
00000060: 7051 17be 1649 34be 0e18 4c3e 910b 863e
00000070: 21dc a93d 61f5 233d f0d8 fe3d a3d3 a2be
00000080: c272 d0bd d2e8 193d 0c32 0a3d 40f9 13be
00000090: 15b3 623d a2c7 d73d 6670 8b3d 245c 3f3e
000000a0: 88c7 b0bd 3e9b 503e 1aef 993c ac74 a8bd
000000b0: 1fef e8bc ae1a 95bc a71d 343f adb1 6d3e
000000c0: af20 4e3d 4797 37bd 7f48 213e c2b1 bdbc
000000d0: 59b0 b83e 20f0 0d3e e787 5e3d 5a98 023e
000000e0: b802 c13d 8b4c 183e 5198 1bbd 0171 633a
000000f0: 64a6 ff3c ab57 b43d baa2 39be 3357 a83d
00000100: 8597 a0bc 193e bc3c 0ebe b3bc 39f9 d33b
00000110: b149 d93d 0be4 76bd cef6 ccbd 7874 633d
00000120: 027d 6e3d 4ef8 ccbd 1ab1 813d 12e1 b53d
00000130: 96b0 d83d 8cc4 b63d 40ab 24bd 61b5 bebd
00000140: 6cc3 253d d886 73bb 2c84 9ebe bbae b53e
00000150: e241 4c3e 9d4d 063c 7701 13bf 4506 ac3e
00000160: 0fdb 3a3d 051c 97bd c71c 22bd 3039 a2bd
00000170: fb23 93be 8cf9 9e3e 3950 48be baa6 8b3d
00000180: 9269 263c d5b9 70be a4df 6c3e f238 1dbc
00000190: f8ab eebd 86b4 7cbd 583c 123e f06a 303d
000001a0: 4ac9 5d3e 3a3c afbd 9673 8cbe 881c aebd
000001b0: 781a 903e 7255 bd3d 7c5f 983d 6b5a 2d3e
000001c0: 5427 13be 8c65 5abe 4228 2ebe 96c4 193e
000001d0: e54f 93be 58ba e8bc cf4f 003e ea48 8e3d
000001e0: 4c0e 8ebd 0f0f b43d 6ba1 66bc dbf8 d13d
000001f0: c3ca 823d b72c 0f3e 96ef 36bd b52b be3e
00000200: 56f3 793e 9fc9 173e a7fa a73d e6b3 07bd
00000210: 0313 9fbe 75d2 d53e a85b 6ebd 25f3 a3bc
00000220: 3206 dc3c f6f2 993e aca1 9cbd 2b1d 9fbd
00000230: 8b4f 5f3c 8b2f af3d 7e14 cb3e 6f9b 2dbe
00000240: 6c06 9f3d 43b4 553d d48d 823d c106 d3bd
00000250: c716 babd 23ad 3d3d 0597 9f3d 8236 983c
00000260: 65a7 8ebd c4e3 d23b ebd9 0a3d 5a11 243b
00000270: 0aa3 583e c9b8 d0bd e825 fa3d 6b9b c8bd
00000280: 6bce 873d e387 ab3d eb21 06bd a62f ce3c
00000290: aaf4 10be 31dd 703e 10c7 80bd a1bb 543e
000002a0: ee46 80bd 7110 143d 61f4 e3bc e766 583e
000002b0: 42cd c6bd fb18 50bd 6bff 293b 169a b73d
000002c0: 87fd 993e 08ab cbbd 1c4c 663e 9923 c4bd
000002d0: da49 253e debf 9bbd a8dc 223e 258e 7ebd
000002e0: a325 083d a171 693e 0fbe c73b 7606 b9bd
000002f0: 8cc4 3f3a 6ddd 50bc 13d6 9fbe acbf 77bd
00000300: 5c18 5e3d 50eb 263d 5298 35bd e34a 443e
00000310: d536 683c a582 353d 9d37 a9bc 7020 503d
00000320: 0fc3 73bd 7460 193e 28f6 c6bd 9364 0cbd
00000330: b0be 333d 66a7 b13e 277b eb3c d92b 473e
00000340: bd3a 08be 76b9 083d b381 843d 32f6 5d3e
00000350: 9f3c 93bd 4538 5d3c e234 9b3a aa6a 913d
00000360: 446c 653e cbce 8dbb 8d77 7ebd 3f1e 3bbd
00000370: 9a2b 503c 9f89 1dbe 1c96 1d3e bd61 84bc
00000380: 2544 ea3d 85be 583b 6f2e cebd e51e b4bd
00000390: 5d6b 07bd b809 30bc cc84 66bd d606 5dbd
000003a0: 2fad 10bc 15ba 82bd 5a11 a9bd 7308 743e
000003b0: f0de 2c3e 1149 5ebe 0fca bf3d 55e5 393b
000003c0: 60c8 da3d 70f1 9dbd 0dd5 373e 167c b8bd
000003d0: 2a02 063e 6335 773d 5b0a a03e 9fd0 ef3d
000003e0: 1340 a13c 7ea5 0dbe 3428 c23d 8116 803d
000003f0: 8288 82be c343 e73d d1e0 673d 67b2 173e

bias f4 [16]
-0.24490099 -0.25416046 -0.39034286 -0.410996 -0.25132784 -0.31413066 0.04799284 -0.5068011
-0.10600225 -0.0024046372 -0.22514284 -0.21148771 -0.32700533 0.0622737 0.038611185 0.053328313
00000000: 53c7 7abe 5221 82be 05db c7be 116e d2be
00000010: 0bae 80be bcd5 a0be 2494 443d b8bd 01bf
00000020: b517 d9bd 1e97 1dbb d88b 66be 3c90 58be
00000030: 3e6d a7be b512 7f3d c326 1e3d ca6e 5a3d

weight f4 [64, 112]
-0.06607201 -0.001354135 -0.12605442 -0.098048165 0.041430708 -0.117789306 -0.07702895 -0.06521342
-0.0017073672 0.06004761 -0.076019734 -0.083654575 0.032587066 -0.12546377 -0.068397485 0.027481962
-0.07953337 0.05245038 -0.013585024 -0.113313 0.027925028 0.025810622 -0.0727652 0.065484986
-0.037686814 0.0026902962 0.02782147 -0.035468232 -0.106562026 -0.10055978 -0.07341135 0.04231771
-0.05004017 -0.10347687 -0.1094043 -0.053848878 -0.06741274 0.01788003 -0.036289264 0.027935829
0.05557191 -0.060086425 -0.13546416 -0.008444752 0.024875924 -0.06968338 -0.060427144 -0.11992156
-0.062905625 -0.03413246 0.04698138 0.06377863 -0.012605179 0.028641697 -0.09929456 0.04466259
-0.022226486 0.05887954 -0.0019894459 -0.001228796 0.019638162 0.03035705 0.023254244 -0.036531396
-0.0939449 -0.08653272 -0.028459348 0.0424479 -0.046607736 -0.023698794 -0.012360759 0.007848047
-0.007817324 0.0097958455 -0.063838355 -0.0656313 -0.027679496 -0.03686745 -0.031087788 0.0047744834
0.0116918925 -0.031134998 -0.07245012 -0.07095646 -0.022642527 0.04313192 0.046711992 0.021735404
0.028692495 -0.032309067 -0.023751736 0.029791202 -0.1175713 -0.019653734 0.030221345 -0.07150707
0.063135214 -0.041839484 0.019654384 -0.06648541 -0.05090272 -0.12835658 -0.11312242 -0.036723785
-0.11484857 0.013352506 -0.076304056 -0.06260419 0.06457339 -0.019760229 -0.113179415 -0.03258702
-0.13066801 0.1459769 0.032643426 0.017249256 -0.019131914 0.08488289 0.011864811 -0.11389894
-0.05616113 -0.009625097 0.0052819084 0.07247769 0.014383823 0.2125997 0.048020042 0.002380307
0.056750394 0.019659432 0.031450853 0.11987794 -0.073523745 -0.05714362 0.062713064 -0.0029289764
-0.033733953 0.04952638 0.080056205 0.30421367 0.056948647 -0.008157114 0.06935758 0.005627167
0.08811122 0.12386959 0.10532833 -0.3422874 -0.18139926 -0.04869959 -0.04969103 -0.0039681494
0.060009323 0.19476055 0.07454501 -0.011357593 0.038171455 0.0070963856 0.014990076 -0.005859161
-0.12872538 0.09806671 0.008882442 -0.03718276 0.020972552 0.010466159 -0.059910163 0.25020862
0.072848506 0.09151065 -0.102372974 -0.13772872 -0.055104785 0.023706527 -0.06759995 0.06561959
0.12391387 0.046816908 -0.010413011 0.097872905 0.30392283 0.053913284 0.06318907 -0.019334273
-0.07576165 -0.046069432 0.08893587 0.14535728 -0.007934972 0.14657477 0.1432922 -0.0665591
-0.072263256 0.05945302 0.16541769 0.12029487 -0.04074038 -0.08081323 -0.12501775 -0.017527139
-0.03282463 0.27732798 0.4300157 -0.05426051 0.015403116 0.057720475 0.011593347 -0.07474752
-0.1735813 0.12514465 0.07309947 0.17321189 0.081891194 0.06368394 0.11336537 0.1380303
0.16452871 0.2548449 0.1184941 -0.04696319 0.048954062 0.14205591 -0.028748702 -0.03201389
0.14366697 -0.15134178 0.26354823 -0.011948172 -0.020073297 0.17783263 0.1501668 -0.050765537
0.1970095 -0.0011651624 0.05060463 0.12798133 0.22184132 0.17659909 -0.17499527 0.060668685
0.13304599 0.02420673 0.005764359 0.013265605 0.18129762 0.057690665 0.053277392 0.07279956
-0.026966585 -0.109546885 0.25459775 -0.1138528 -0.111287944 0.0643053 -0.0015642877 -0.050746296
00000000: c350 87bd 3b7d b1ba 6914 01be 7acd c8bd
00000010: 3fb3 293d 853b f1bd 5bc1 9dbd 9d8e 85bd
00000020: bdc9 dfba 7cf4 753d 3cb0 9bbd 1753 abbd
00000030: 047a 053d 9379 00be fb13 8cbd da21 e13c
00000040: 64e2 a2bd 36d6 563d b893 5ebc a510 e8bd
00000050: 07c3 e43c cc70 d33c ec05 95bd fe1c 863d
00000060: 7d5d 1abd ae4f 303b dae9 e33c 2347 11bd
00000070: 313d dabd 49f2 cdbd b158 96bd 5655 2d3d
00000080: ecf6 4cbd aeeb d3bd 5d0f e0bd a490 5cbd
00000090: b10f 8abd 2479 923c 0da4 14bd aed9 e43c
000000a0: 5f9f 633d 2f1d 76bd 1eb7 0abe db5b 0abc
000000b0: 98c8 cb3c 29b6 8ebd 7482 77bd 6f99 f5bd
000000c0: aad4 80bd 7ace 0bbd 8c6f 403d 5f9e 823d
000000d0: f485 4ebc fea1 ea3c f25a cbbd 1ff0 363d
000000e0: 5214 b6bc ac2b 713d 5d61 02bb 8d0f a1ba
000000f0: 36e0 a03c 59af f83c af7f be3c f2a1 15bd
00000100: 2f66 c0bd 1138 b1bd 9423 e9bc d9dd 2d3d
00000110: c1e7 3ebd f923 c2bc c884 4abc 1895 003c
00000120: 3c14 00bc c17e 203c afbd 82bd b469 86bd
00000130: 1cc0 e2bc 5302 17bd d1ab febc 4573 9c3b
00000140: 5a8f 3f3c d30e ffbc ba60 94bd 9f51 91bd
00000150: d27c b9bc 19ab 303d 1355 3f3d 720e b23c
00000160: 860c eb3c 8356 04bd 0093 c2bc ae0c f43c
00000170: 39c9 f0bd de00 a1bc c192 f73c 4c72 92bd
00000180: 094d 813d e15f 2bbd 3b02 a13c 8129 88bd
00000190: 5f7f 50bd e86f 03be baac e7bd ae6b 16bd
000001a0: ba35 ebbd 78c4 5a3c 4d45 9cbd a036 80bd
000001b0: 0e3f 843d 34e0 a1bc 9cca e7bd f879 05bd
000001c0: d6cd 05be f87a 153e 1db5 053d 504e 8d3c
000001d0: 88ba 9cbc 15d7 ad3d a064 423c d943 e9bd
000001e0: 3709 66bd 95b2 1dbc dc13 ad3b 2f6f 943d
000001f0: 20aa 6b3c bcb3 593e aab0 443d edfe 1b3b
00000200: 1a73 683d d10c a13c 9cd2 003d 9182 f53d
00000210: 9e93 96bd 6e0f 6abd b56f 803d 12f4 3fbb
00000220: 9d2c 0abd 2cdc 4a3d 82f4 a33d e5c1 9b3e
00000230: fc42 693d 6aa5 05bc 590b 8e3d 1964 b83b
00000240: a873 b43d 57af fd3d 61b6 d73d 4b40 afbe
00000250: bac0 39be 3979 47bd d288 4bbd 4007 82bb
00000260: 56cc 753d 4f6f 473e 0eab 983d 3315 3abc
00000270: ac59 1c3d cc88 e83b f098 753c 34fe bfbb
00000280: 96d0 03be 33d7 c83d a987 113c f34c 18bd
00000290: a1ce ab3c 417a 2b3c 5c64 75bd 581b 803e
000002a0: 9931 953d f069 bb3d eca8 d1bd c208 0dbe
000002b0: 8eb5 61bd 3134 c23c d871 8abd 9063 863d
000002c0: 8ec6 fd3d 16c3 3f3d 559b 2abc 9771 c83d
000002d0: c69b 9b3e 2dd4 5c3d 4569 813d e962 9ebc
000002e0: ed28 9bbd 4db3 3cbd 0224 b63d 8ad8 143e
000002f0: af01 02bc b217 163e 31bb 123e 2350 88bd
00000300: c2fe 93bd 0385 733d 4163 293e 285d f63d
00000310: 62df 26bd 6881 a5bd a704 00be 1395 8fbc
00000320: 1f73 06bd effd 8d3e 052b dc3e 4540 5ebd
00000330: 5a5d 7c3c 4e6c 6c3d 06f2 3d3c 3a15 99bd
00000340: 4cbf 31be eb25 003e 2db5 953d 755e 313e
00000350: 92b6 a73d ba6c 823d 1a2c e83d d157 0d3e
00000360: 377a 283e 087b 823e 09ad f23d 795c 40bd
00000370: 0e84 483d 1b77 113e 6682 ebbc ff20 03bd
00000380: 6f1d 133e 57f9 1abe cbef 863e 44c2 43bc
00000390: c170 a4bc c219 363e 53c5 193e 86ef 4fbd
000003a0: dcbc 493e 5db8 98ba cd46 4f3d 8a0d 033e
000003b0: 5f2a 633e 64d6 343e f631 33be ba7f 783d
000003c0: 353d 083e 314d c63c f3e2 bc3b fb57 593c
000003d0: 15a6 393e 0c4d 6c3d 6539 5a3d f017 953d
000003e0: 07e9 dcbc 1e5a e0bd a35a 823e a82b e9bd
000003f0: efea e3bd 7fb2 833d c908 cdba 59db 4fbd

bias f4 [64]
0.06844401 -0.024662271 -0.11964432 -0.11493192 -0.13080116 0.06853347 0.07844077 -0.074938826
-0.00027832497 0.22878511 0.030075338 -0.12017202 0.06277506 -0.11097234 -0.21803416 0.12527715
0.2406 0.15174827 0.009688743 -0.13829887 -0.013543718 -0.008628838 0.05110302 -0.06743081
-0.052823707 0.0044369046 -0.015189718 -0.13506655 0.059722032 -0.0061492943 -0.032093868 0.18564957
-0.54031736 -0.092983216 0.06691092 -0.115917824 -0.018616347 -0.12926987 0.031765524 -0.06975275
-0.07406899 -0.021548692 -0.029201 0.11530531 0.022539532 0.18608002 -0.10745833 -0.6038874
-0.12186312 -0.08470236 0.14144245 -0.078331485 0.038841028 -0.030445855 -0.01365837 -0.009646922
0.1441615 -0.111658745 -0.087217055 -0.052667394 -0.04905323 0.0034445778 0.1768376 0.14543328
00000000: 602c 8c3d 8808 cabc 1508 f5bd 6d61 ebbd
00000010: bdf0 05be 475b 8c3d 8ea5 a03d 8779 99bd
00000020: 25ec 91b9 a546 6a3e 8e60 f63c bf1c f6bd
00000030: 3690 803d 7745 e3bd 5944 5fbe a748 003e
00000040: d95f 763e e663 1b3e 89bd 1e3c 389e 0dbe
00000050: 78e6 5dbc f85f 0dbc 6651 513d 2a19 8abd
00000060: ac5d 58bd 7463 913b 4cde 78bc e34e 0abe
00000070: 179f 743d 0580 c9bb dc74 03bd ec1a 3e3e
00000080: 3d52 0abf fc6d bebd 9808 893d 5366 edbd
00000090: 4f81 98bc 525f 04be 911c 023d 88da 8ebd
000000a0: 7cb1 97bd e286 b0bc f036 efbc 3125 ec3d
000000b0: d3a4 b83c c38b 3e3e 1d13 dcbd 5d98 1abf
000000c0: 5f93 f9bd 6e78 adbd 4ad6 103e 426c a0bd
000000d0: c517 1f3d 9669 f9bc 5bc7 5fbc 200e 1ebc
000000e0: 129f 133e 57ad e4bd db9e b2bd c4b9 57bd
000000f0: 0aec 48bd 6dbe 613b ea14 353e 76ec 143e

weight f4 [32, 64]
-0.10174641 0.1292543 -0.019117843 0.15999505 0.025501013 -0.05562412 0.28828424 -0.14341071
-0.053285945 -0.09014439 -0.09779677 -0.05972902 0.082583 -0.009517835 0.07402083 0.2807927
-0.25967038 0.17630024 0.0326457 -0.0836803 0.016988544 0.079126194 -0.085868865 0.047158338
-0.07805612 0.03598188 -0.058166754 0.020902056 -0.10012179 -0.05136542 0.06452505 -0.08761881
0.18698092 0.057776183 -0.0442192 0.0012447914 -0.1363736 -0.01964365 0.2434155 0.24639909
-0.006812155 0.054867223 0.14623772 0.20353921 0.15561974 0.87170446 -0.033667866 0.6346561
0.08090459 0.0038374932 0.018481344 0.14569849 0.1267724 0.04083088 -0.28501707 -0.02015086
0.071325846 -0.048360407 -0.027672064 0.06811537 0.08688785 -0.09920146 -0.24139689 -0.12211459
0.12083191 -0.06571494 -0.08049539 -0.060930893 0.11158894 -0.08145587 -0.11117768 -0.094907895
-0.07547782 -0.097717136 -0.06661081 0.09108801 -0.11839977 -0.032961518 -0.07657665 -0.02832292
0.09418975 0.0012082309 -0.055072397 0.07123928 0.055199668 -0.021120325 -0.07699223 -0.050734982
0.013316169 -0.10098636 0.0310276 -0.117893934 0.07643922 0.026011154 0.083271906 -0.074330494
-0.10412249 -0.033536986 -0.008949384 0.11723401 -0.099139705 0.11556262 0.029535875 -0.08200428
-0.12106258 -0.109357014 -0.007221997 -0.07572457 0.044151694 -0.0035715848 -0.10601395 -0.0014144927
-0.074803874 -0.09199445 -0.013689682 0.11148268 -0.092257455 0.11618285 -0.0064359754 0.052690804
-0.08702129 0.09172228 -0.040070802 -0.06722067 -0.10978642 0.049563766 0.032532483 0.023275971
0.09108029 -0.027035242 -0.11637306 0.0035275314 0.09087505 0.17725775 0.16569477 0.15335691
0.084753044 0.06163168 0.11362561 -0.22551 0.07212288 -0.0072815525 0.10254053 0.13505511
0.090316 0.016347094 -0.029956274 -0.16864514 0.10220585 -0.0056175343 -0.09497952 0.016754773
0.08035811 0.07589519 0.083797425 -0.24749239 0.16391744 -0.117405236 0.119112834 0.23479976
-0.41745016 0.023184115 -0.10618071 -0.07587306 -0.061210513 0.038327377 0.20461266 0.07355227
0.3268338 -0.030790238 0.0415096 0.030107073 -0.052379563 0.09451337 -0.019614875 0.07123986
0.13135116 -0.036541037 0.018464388 0.002180574 0.064935476 -0.0921784 -0.034770533 -0.13059503
0.056805044 -0.065128066 -0.063036196 0.23667133 -0.02432221 -0.10304685 0.07456984 0.10629167
-0.068229966 0.04750934 -0.07990678 0.025577916 -0.09988486 -0.59276444 -0.99398136 0.08113604
-0.13217482 0.23663822 -0.12574998 -1.2458413 -0.1965962 0.05334445 -0.892531 -0.51520854
0.07988421 -0.54880905 0.097222246 0.2741033 -0.005905917 0.1345274 -0.008715069 0.3469793
0.06269268 -0.06555672 0.045607727 0.14742959 0.26947796 0.021395339 -0.85592145 -0.122039184
-0.1541849 -0.07529545 -0.045112148 -0.9652781 -0.0199957 0.043355696 -0.025733544 -0.6622675
-0.31708083 0.017645389 -0.9275451 0.19861549 -0.6256317 0.4356438 0.14276405 0.4458305
-0.08855499 -0.018041708 -0.052257016 0.09079052 0.09247758 -0.012567937 -0.090991996 0.6766649
-0.14702642 0.07490148 0.10088717 -0.74604046 0.06708093 -0.0854584 -0.17698404 -1.289641
00000000: 6c60 d0bd 3d5b 043e 069d 9cbc bed5 233e
00000010: 80e7 d03c 1ed6 63bd fe99 933e 42da 12be
00000020: 5d42 5abd 9f9d b8bd ac49 c8bd 6ba6 74bd
00000030: 4721 a93d b2f0 1bbc 3c98 973d 10c4 8f3e
00000040: 84f3 84be 0d88 343e 7fb7 053d 9460 abbd
00000050: 8f2b 8b3c ea0c a23d 04dc afbd 1a29 413d
00000060: e3db 9fbd bc61 133d 4340 6ebd ca3a ab3c
00000070: a70c cdbd 8c64 52bd b625 843d 7e71 b3bd
00000080: ed77 3f3e b8a6 6c3d 311f 35bd 4528 a33a
00000090: 85a5 0bbe b8eb a0bc ea41 793e 0b50 7c3e
000000a0: 7f38 dfbb 74bc 603d 57bf 153e 956c 503e
000000b0: c85a 1f3e 0628 5f3f 51e7 09bd d278 223f
000000c0: 4eb1 a53d 747e 7b3b 3066 973c fc31 153e
000000d0: a0d0 013e 483e 273d c2ed 91be 6b13 a5bc
000000e0: 4913 923d 9015 46bd 86b0 e2bc 1280 8b3d
000000f0: 42f2 b13d 232a cbbd bf30 77be 3717 fabd
00000100: b876 f73d 8e95 86bd c4da a4bd ac92 79bd
00000110: be88 e43d 56d2 a6bd 20b1 e3bd 125f c2bd
00000120: 1e94 9abd ec1f c8bd 406b 88bd 5a8c ba3d
00000130: 947b f2bd a802 07bd 38d4 9cbd 7805 e8bc
00000140: 8ee6 c03d 805d 9e3a 9893 61bd e6e5 913d
00000150: 0c19 623d 8804 adbc 1aae 9dbd 7ccf 4fbd
00000160: 102c 5a3c f0d1 cebd 982d fe3c 6072 f1bd
00000170: 2a8c 9c3d 5815 d53c 768a aa3d 963a 98bd
00000180: 2c3e d5bd 145e 09bd 70a0 12bc 6218 f03d
00000190: c209 cbbd 18ac ec3d 38f5 f13c dcf1 a7bd
000001a0: a8ef f7bd 92f6 dfbd 80a6 ecbb 7c15 9bbd
000001b0: 68d8 343d 4011 6abb d81d d9bd 8066 b9ba
000001c0: c632 99bd 9667 bcbd b04a 60bc 0851 e43d
000001d0: 7af1 bcbd 46f1 ed3d e0e4 d2bb 50d2 573d
000001e0: 3838 b2bd e4d8 bb3d 4821 24bd feaa 89bd
000001f0: b4d7 e0bd 6003 4b3d c840 053d 40ad be3c
00000200: 4e88 ba3d 0379 ddbc 0055 eebd 282e 673b
00000210: b31c ba3d 0e83 353e e4ab 293e 9809 1d3e
00000220: 0193 ad3d 8071 7c3d 8bb4 e83d 18ec 66be
00000230: 29b5 933d 179a eebb c500 d23d e34b 0a3e
00000240: 98f7 b83d 57ea 853c dc66 f5bc 50b1 2cbe
00000250: 4d51 d13d 4b13 b8bb 9f84 c2bd 4e41 893c
00000260: cb92 a43d f06e 9b3d fc9d ab3d a56e 7dbe
00000270: f9d9 273e 2872 f0bd 6ef1 f33d 596f 703e
00000280: 07bc d5be 9dec bd3c 4675 d9bd 5663 9bbd
00000290: e0b7 7abd 2bfd 1c3d fb85 513e 93a2 963d
000002a0: c356 a73e cf3b fcbc f805 2a3d 1ca3 f63c
000002b0: f48b 56bd 3a90 c13d 60af a0bc 34e6 913d
000002c0: eb80 063e 0eac 15bd a142 973c f6e7 0e3b
000002d0: e4fc 843d 07c8 bcbd 8c6b 0ebd b4ba 05be
000002e0: 68ac 683d dd61 85bd 1f19 81bd f859 723e
000002f0: 5f3f c7bc 3a0a d3bd 13b8 983d 72af d93d
00000300: 27bc 8bbd 2799 423d 2aa6 a3bd c788 d13c
00000310: 6f90 ccbd 69bf 17bf 9075 7ebf a72a a63d
00000320: d658 07be 4a51 723e 9ac4 00be ba77 9fbf
00000330: 8450 49be b67f 5a3d e97c 64bf b5e4 03bf
00000340: 559a a33d c07e 0cbf 751c c73d 4557 8c3e
00000350: 6c86 c1bb 8dc1 093e a6c9 0ebc 45a7 b13e
00000360: 0565 803d 9a42 86bd 2bcf 3a3d c8f7 163e
00000370: 04f9 893e 4745 af3c ab1d 5bbf aeef f9bd
00000380: a5e2 1dbe 8034 9abd 84c7 38bd 771c 77bf
00000390: 06ce a3bc be95 313d 27cf d2bc 5d8a 29bf
000003a0: 6b58 a2be 108d 903c 9873 6dbf dc61 4b3e
000003b0: 6629 20bf b40c df3e bd30 123e e543 e43e
000003c0: 525c b5bd 34cc 93bc 740b 56bd 61f0 b93d
000003d0: e364 bd3d c0e9 4dbc 035a babd e939 2d3f
000003e0: 188e 16be f265 993d ef9d ce3d 82fc 3ebf
000003f0: ba61 893d d004 afbd 4e3b 35be f512 a5bf

bias f4 [32]
-0.16732062 0.039508983 0.24137619 -0.3461654 0.18844299 -0.013748514 0.10000265 0.037794136
0.0050780685 -0.057948615 -0.068069614 -0.47159618 0.015293697 0.2627847 -0.08133829 -0.050833676
-0.06532697 0.19973911 0.0002139516 0.08323626 0.012554867 0.08167852 -0.04591112 0.20165513
0.08823377 0.05104343 -0.23987615 0.16893336 0.030543048 -0.030044712 0.07912758 -0.023281718
00000000: 1956 2bbe 2cd4 213d 522b 773e 973c b1be
00000010: 33f7 403e 7241 61bc 30ce cc3d 06ce 1a3d
00000020: ed65 a63b 875b 6dbd 1568 8bbd 0e75 f1be
00000030: 6a92 7a3c b78b 863e b094 a6bd f936 50bd
00000040: 25ca 85bd 6988 4c3e 3258 6039 c677 aa3d
00000050: eeb2 4d3c 1147 a73d 4c0d 3cbd af7e 4e3e
00000060: e8b3 b43d ea12 513d 18a2 75be defc 2c3e
00000070: 6a35 fa3c 5420 f6bc a40d a23d 4db9 bebc

weight f4 [24, 32]
-0.27341342 0.08265528 0.11252428 -0.054716423 0.12074671 -0.07249223 -0.07071218 0.05822722
-0.05425593 -0.0623235 0.053412195 0.1362558 0.027000124 -0.009333606 0.12921079 -0.09566521
0.08981593 0.25162658 -0.194495 -0.10988812 -0.18082343 -0.008389277 -0.22507137 0.076044954
0.1627428 0.042157363 0.17171445 0.29739723 0.019141737 0.056634907 -0.1279387 -0.07201837
0.093975596 -0.08948935 -0.0005221175 0.040139575 0.11645753 -0.25484082 -0.20217282 -0.036409054
0.17254551 0.17047653 0.053969383 0.12584625 -0.03807433 0.10131505 -0.076728396 -0.082507946
0.0041830284 -0.26074734 -0.10187093 0.16451134 0.023142114 -0.040287867 -0.16351183 0.0145775005
0.1312564 0.14876798 -0.28394085 0.19169505 0.16940613 0.175735 -0.024580225 0.061894264
0.1325588 0.0047242614 0.11707256 0.59821254 0.030330155 0.06522971 0.16475783 0.08483193
0.06429961 0.1303266 0.043128908 -0.07386068 -0.11645187 0.06308141 -0.0059100417 -0.06675742
0.33630198 -0.18779713 -0.3617229 0.08394784 0.25734472 -0.04056686 -0.119107306 -0.035446424
-0.16031197 0.13465041 -0.03146437 -0.06727109 -0.17831795 0.014333977 -0.19634296 0.09706825
0.13712281 0.16764882 -0.1570011 -0.4293132 -0.2789938 0.31400397 -0.19788952 0.09650609
-0.008986278 0.3392855 -0.03393842 -0.07822547 0.15085067 -0.08262556 0.14326693 0.03732645
0.12203955 0.079776675 -0.3129069 0.104281515 -0.023088917 -0.42128426 0.12622997 -0.057367206
-0.22439109 -0.17639497 0.06770368 0.0045274976 -0.1990239 0.171607 -0.12777826 -0.3237476
-0.03636417 -0.07340906 0.22583608 0.37691325 0.018674864 0.007391058 0.04134086 -0.22383687
-0.11498995 0.31365648 -0.009401738 0.24621843 -0.045075007 -0.0066527147 -0.030999323 -0.08560459
-0.034126822 0.023639623 0.27202418 0.08939109 0.17298153 -0.45130372 -0.025948144 -0.032184765
0.35914057 -0.18724589 0.038956016 -0.17625226 -0.1244626 0.08559407 -0.17994046 0.09615976
-0.15912275 0.11128907 0.03428426 -0.123812914 -0.17177455 -0.075081944 -0.19830061 -0.06997956
-0.114277005 0.12573257 0.14723867 0.51877064 -0.14708546 0.05809164 -0.0180461 0.1411536
0.18628469 0.24289925 0.20606637 0.18928608 -0.19011283 -0.26787266 0.07437241 -0.039222345
-0.10055819 0.1716376 0.23218854 -0.073793754 0.1230555 -0.19083284 -0.071734905 0.021081934
-0.09209155 -0.11263787 0.21969746 0.8673516 0.08382507 0.10304539 -0.051852368 -0.15124664
0.034553844 -0.08329597 -0.08102218 0.35284927 -0.112265386 -0.26005885 0.17278448 0.05630246
0.24775457 -0.19950786 0.14974934 -0.012730573 -0.037542 0.33274835 -0.2667088 0.12956214
0.1385191 0.17081073 -0.050045084 -0.15302658 -0.2313354 0.060365636 0.05007647 -0.11611417
-0.03894767 0.019076549 0.09349081 -1.4188514 -0.19526787 -0.1637203 0.14664549 0.051381245
0.10944156 -0.17918985 0.09412335 0.031006066 0.14322023 -0.18353209 0.0030186626 0.038649708
0.004341495 0.23893139 -0.112986915 -0.10759617 -0.022312857 -0.16786522 0.2096178 0.05062107
0.22230919 0.19533183 -0.11356373 -0.025803976 0.21850094 0.17019062 -0.08168535 0.30850545
00000000: d8fc 8bbe 2c47 a93d 2173 e63d 541e 60bd
00000010: 0d4a f73d ce76 94bd 8cd1 90bd aa7f 6e3d
00000020: 773b 5ebd ed46 7fbd bfc6 5a3d a486 0b3e
00000030: 5d2f dd3c fbeb 18bc d54f 043e 1fec c3bd
00000040: 6af1 b73d 33d5 803e b329 47be 060d e1bd
00000050: c729 39be 2e73 09bc 1c79 66be 75bd 9b3d
00000060: 0ca6 263e 33ad 2c3d ead5 2f3e 7344 983e
00000070: 22cf 9c3c 01fa 673d 5d02 03be 5e7e 93bd
00000080: 4776 c03d 3146 b7bd b6de 08ba 6569 243d
00000090: 4981 ee3d 7f7a 82be 6406 4fbe a921 15bd
000000a0: c5af 303e 6691 2e3e 000f 5d3d d7dd 003e
000000b0: d4f3 1bbd 447e cf3d c723 9dbd edf9 a8bd
000000c0: c911 893b ad80 85be b5a1 d0bd a975 283e
000000d0: 8894 bd3c e404 25bd a56f 27be 78d6 6e3c
000000e0: 1468 063e a256 183e b260 91be b54b 443e
000000f0: cd78 2d3e e0f3 333e 785c c9bc d784 7d3d
00000100: 7ebd 073e facd 9a3b bdc3 ef3d 7524 193f
00000110: f276 f83c 2797 853d 47b6 283e 5dbc ad3d
00000120: 84af 833d 5674 053e f0a7 303d 4544 97bd
00000130: 517e eebd d430 813d 06a9 c1bb 1db8 88bd
00000140: c62f ac3e e44d 40be be33 b9be d8ec ab3d
00000150: b0c2 833e 7029 26bd 88ee f3bd 4530 11bd
00000160: d228 24be cce1 093e c9e0 00bd 6dc5 89bd
00000170: fb98 36be 0fd9 6a3c 210e 49be b8cb c63d
00000180: ec69 0c3e 22ac 2b3e e5c4 20be f1ce dbbe
00000190: 46d8 8ebe 21c5 a03e 8da3 4abe fca4 c53d
000001a0: 2f3b 13bc d4b6 ad3e 0303 0bbd ad34 a0bd
000001b0: 9978 1a3e 9737 a9bd 91b4 123e 9fe3 183d
000001c0: dfef f93d f461 a33d 5535 a0be 8c91 d53d
000001d0: f824 bdbc 92b2 d7be 6e42 013e e0f9 6abd
000001e0: c7c6 65be e2a0 34be 3aa8 8a3d 675b 943b
000001f0: eccc 4bbe bfb9 2f3e 4ed8 02be 3fc2 a5be
00000200: 99f2 14bd 7d57 96bd 9341 673e c6fa c03e
00000210: 07fc 983c b030 f23b 0955 293d 7e35 65be
00000220: da7f ebbd 9597 a03e bf09 1abc af20 7c3e
00000230: 92a0 38bd 04ff d9bb 4bf2 fdbc 7651 afbd
00000240: 91c8 0bbd e2a7 c13c c146 8b3e ad12 b73d
00000250: 1222 313e 4811 e7be 3491 d4bc 2cd4 03bd
00000260: 46e1 b73e 63bd 3fbe 5890 1f3d 797b 34be
00000270: 3fe6 febd f24b af3d 5042 38be 69ef c43d
00000280: 13f1 22be 86eb e33d a76d 0c3d a091 fdbd
00000290: abe5 2fbe 90c4 99bd 510f 4bbe 7251 8fbd
000002a0: 100a eabd 0ac0 003e bcc5 163e 27ce 043f
000002b0: 929d 16be 80f1 6d3d 6ad5 93bc 928a 103e
000002c0: 6ac1 3e3e 95ba 783e 1003 533e 36d4 413e
000002d0: f0ac 42be 9b26 89be 9050 983d 9ca7 20bd
000002e0: 74f1 cdbd c4c1 2f3e d5c2 6d3e 2e21 97bd
000002f0: 8604 fc3d af69 43be c0e9 92bd 05b4 ac3c
00000300: 7f9a bcbd afae e6bd 5ff8 603e c10a 5e3f
00000310: 7aac ab3d 7609 d33d 2663 54bd 66e0 1abe
00000320: 5588 0d3d 1497 aabd f5ee a5bd a9a8 b43e
00000330: 65eb e5bd 6f26 85be 6aee 303e 699d 663d
00000340: 60b3 7d3e ca4b 4cbe e457 193e e593 50bc
00000350: a4c5 19bd fe5d aa3e 0e8e 88be f0ab 043e
00000360: f3d7 0d3e 02e9 2e3e 13fc 4cbd 00b3 1cbe
00000370: 30e3 6cbe f541 773d fc1c 4d3d 44cd edbd
00000380: 9887 1fbd 6c46 9c3c 1c78 bf3d ec9c b5bf
00000390: 4df4 47be 4ba6 27be 3c2a 163e 2475 523d
000003a0: e622 e03d 8b7d 37be bec3 c03d 6f00 fe3c
000003b0: 53a8 123e d6ef 3bbe c1d4 453b 284f 1e3d
000003c0: 1a43 8e3b 6eaa 743e af65 e7bd 615b dcbd
000003d0: 74c9 b6bc dce4 2bbe 0ca6 563e 0a58 4f3d
000003e0: 05a5 633e 1105 483e 1a94 e8bd dc62 d3bc
000003f0: b6be 5f3e 7346 2e3e a64a a7bd 6df4 9d3e

bias f4 [24]
0.03374844 0.053060643 0.106007844 -0.495057 0.18597853 0.21211034 -0.2834096 0.32367358
0.18768865 0.005373858 0.5083286 0.07939038 -0.15647945 -0.11979179 0.12194253 0.32641038
0.013082421 -0.10621439 0.12809227 -0.6944495 0.23676139 0.052022517 -0.09947774 -0.29910865
00000000: ce3b 0a3d 1e56 593d a41a d93d 1c78 fdbe
00000010: 2871 3e3e 7433 593e 101b 91be 8bb8 a53e
00000020: 7431 403e 3017 b03b d321 023f 6c97 a23d
00000030: 263c 20be 6655 f5bd 01bd f93d 431f a73e
00000040: a757 563c ee86 d9bd 9f2a 033e 71c7 31bf
00000050: 9471 723e 9015 553d fcba cbbd c524 99be

weight f4 [32, 24]
-0.1496215 0.08264903 -0.24919228 -0.16542017 0.054746762 0.09147577 -0.3117373 -0.023883464
0.17476973 0.019235987 -0.07839632 0.13425979 -0.14008564 -0.1542109 -0.032110106 0.118283674
-0.39225793 -0.23777662 0.17531775 -0.20574497 0.008285996 -0.08765574 0.18275245 -0.27253947
0.027306287 -0.10952286 0.018689288 -0.122497395 -0.28127313 0.06754654 -0.32351264 0.1825504
-0.056099433 -0.2080277 0.09325286 0.10791314 0.017626744 -0.09117465 -0.025097411 -0.07558968
-0.20608853 0.114233926 -0.106649436 -0.07959462 0.16531907 0.2649988 -0.06160599 -0.083111286
0.053324144 0.3696863 0.17359261 -0.20681344 0.08613432 -0.018119842 0.1426398 0.19013861
0.21773997 0.3327987 0.27716812 0.13648613 0.07683942 0.35597175 0.10449471 -0.03367249
-0.21997944 0.20854846 0.037615146 -0.17960252 0.17805493 0.28817365 0.12229564 -0.33239806
0.02181948 0.2547464 0.11901617 -0.08894069 -0.12730788 -0.34701955 0.1734582 -0.054945998
0.050414857 0.09584543 -0.09365435 -0.12863192 -0.25896826 -0.25781724 0.03625862 -0.0073984
-0.115199536 0.0820444 -0.25881168 -0.32195693 -0.08781397 0.1399886 -0.29666865 -0.012794561
-0.15797892 0.17698795 0.26232222 -0.10270485 -0.031035665 -0.14807878 -0.20485777 0.08597527
0.14529058 0.12758887 0.30076414 0.24870022 -0.24860677 -0.103691384 -0.24419086 0.16072911
-0.082010105 0.2355484 -0.18980178 0.087816276 0.21150915 -0.14110154 -0.11216374 0.0444293
0.21914962 -0.12407609 -0.16784611 0.6669145 -0.47435617 -0.18347548 0.062675625 -0.20442246
0.13265721 -0.073524036 -0.21539722 -0.33289948 0.69186014 -0.005118965 0.6735745 0.28574196
0.3451663 -0.0092585 0.28306684 0.0734723 -0.50416255 0.1479755 0.7072675 -0.18663348
-0.13398021 -0.034503028 0.0076327226 0.006050115 0.115593985 -0.070571534 0.23658527 0.22633679
-0.236791 0.26955202 -0.043194737 0.15988937 -0.28107074 0.2306144 -0.017274199 -0.016699536
0.023359314 0.20653322 -0.23458414 -0.27577764 -0.1071823 -0.14962928 -0.109735385 -0.02019541
-0.08840674 -0.32587597 0.27640164 -0.0798332 -0.009267109 0.2909953 -0.03559486 0.22594489
0.12834907 0.1474765 0.085284196 0.115619436 0.13633561 0.24401043 -0.21069716 0.2738777
0.016558709 -0.15081353 -0.24116714 -0.20170817 0.2665202 -0.07293027 -0.28279677 -0.19930212
-0.1932816 -0.07197723 -0.18656427 0.106766604 0.07346836 -0.10732528 0.016480247 -0.072012484
-0.07784338 0.062266793 -0.14706647 -0.13645498 -0.004922546 0.044180658 0.085880764 -0.028733911
0.08826283 -0.04639962 -0.13436669 -0.011918409 -0.10880379 0.13889754 0.26792508 0.26747042
0.10829608 -0.26028106 -0.06583559 -0.09557895 0.07797849 -0.12991245 0.11389566 0.06731058
-0.022644209 0.12087859 0.16743036 0.08136975 -0.13349909 -0.12561956 0.29037914 0.10901358
-0.24448061 -0.25663885 0.19396818 -0.28637496 0.061874006 0.053774416 -0.18519437 0.07946017
0.05340853 -0.0052576335 0.2705894 0.16252401 0.23170355 0.06972615 -0.32630676 0.29431203
0.109039605 0.10101753 0.32858524 0.038751867 -0.09855424 -0.1944453 0.014670705 -0.12766492
00000000: 6136 19be e543 a93d 432c 7fbe e863 29be
00000010: 243e 603d a657 bb3d 089c 9fbe 41a7 c3bc
00000020: d6f6 323e ca94 9d3c 408e a0bd 667b 093e
00000030: 9c72 0fbe 76e9 1dbe e385 03bd b63e f23d
00000040: 08d6 c8be b77b 73be 7f86 333e cfae 52be
00000050: fcc1 073c da84 b3bd 7523 3b3e 4b8a 8bbe
00000060: 6fb1 df3c 854d e0bd 471a 993c eadf fabd
00000070: 0803 90be d755 8a3d 73a3 a5be 7eee 3a3e
00000080: 85c8 65bd 3705 55be 5bfb be3d 9001 dd3d
00000090: f665 903c c6b9 babd 1699 cdbc c3ce 9abd
000000a0: df08 53be 7af3 e93d 056b dabd 8102 a3bd
000000b0: 6749 293e ecad 873e 9056 7cbd 4036 aabd
000000c0: 6b6a 5a3d 8647 bd3e 43c2 313e e7c6 53be
000000d0: 3167 b03d 1070 94bc 2b10 123e b2b3 423e
000000e0: 3af7 5e3e 9764 aa3e fbe8 8d3e 05c3 0b3e
000000f0: fc5d 9d3d ee41 b63e 5301 d63d 2aec 09bd
00000100: 4a42 61be ba8d 553e 5712 1a3d b9e9 37be
00000110: 0854 363e 7f8b 933e 2376 fa3d 1430 aabe
00000120: c4be b23c 1f6e 823e c0be f33d 8926 b6bd
00000130: ff5c 02be 8cac b1be 079f 313e 0e0f 61bd
00000140: cf7f 4e3d 9c4a c43d dacd bfbd 16b8 03be
00000150: 7d97 84be 9f00 84be eb83 143d 476e f2bb
00000160: bced ebbd e506 a83d f782 84be 8ad7 a4be
00000170: d0d7 b3bd 2c59 0f3e f4e4 97be 47a0 51bc
00000180: 3ac5 21be 543c 353e 194f 863e ec56 d2bd
00000190: 823e febc f7a1 17be 3cc6 51be cd13 b03d
000001a0: 0ec7 143e a8a6 023e c2fd 993e 45ab 7e3e
000001b0: c692 7ebe 265c d4bd 2b0d 7abe 2c96 243e
000001c0: eaf4 a7bd 9a33 713e 665b 42be 05d9 b33d
000001d0: db95 583e ec7c 10be 1ab6 e5bd 7ffb 353d
000001e0: c268 603e 9b1b febd dadf 2bbe e9ba 2a3f
000001f0: d0de f2be ffe0 3bbe 145c 803d 1f54 51be
00000200: 4bd7 073e c593 96bd 1791 5cbe cd71 aabe
00000210: bf1d 313f febc a7bb 616f 2c3f c54c 923e
00000220: a3b9 b03e f7b0 17bc 23ee 903e a578 963d
00000230: cc10 01bf e486 173e 7c0f 353f d91c 3fbe
00000240: 1c32 09be 0c53 0dbd eb1b fa3b 0b40 c63b
00000250: 8abc ec3d cf87 90bd 6943 723e d5c4 673e
00000260: 5779 72be b902 8a3e f7ec 30bd 0aba 233e
00000270: 81e8 8fbe 2e26 6c3e 9f82 8dbc 77cd 88bc
00000280: 085c bf3c 727d 533e d336 70be ba32 8dbe
00000290: 6582 dbbd 6b38 19be f2bc e0bd d870 a5bc
000002a0: 980e b5bd 37d9 a6be 8484 8d3e 977f a3bd
000002b0: 13d5 17bc 56fd 943e eacb 11bd 195e 673e
000002c0: f06d 033e 1404 173e 7ba9 ae3d e2c9 ec3d
000002d0: 909b 0b3e dfdd 793e ffc0 57be b339 8c3e
000002e0: 21a6 873c dd6e 1abe 85f4 76be 968c 4ebe
000002f0: 5675 883e 775c 95bd bdca 90be db15 4cbe
00000300: 9deb 45be cc68 93bd b40a 3fbe 73a8 da3d
00000310: 9476 963d 5bcd dbbd 9501 873c 487b 93bd
00000320: 5a6c 9fbd 770b 7f3d 9898 16be dbba 0bbe
00000330: 4f4d a1bb c7f6 343d 41e2 af3d 6163 ebbc
00000340: 25c3 b43d 870d 3ebd 6c97 09be 6e45 43bc
00000350: 85d4 debd 283b 0e3e 7a2d 893e e2f1 883e
00000360: 56ca dd3d 8f43 85be cfd4 86bd e6be c3bd
00000370: 30b3 9f3d c507 05be 2142 e93d 21da 893d
00000380: 5980 b9bc 328f f73d dd72 2b3e 2fa5 a63d
00000390: fcb3 08be 6aa2 00be 93ac 943e 8342 df3d
000003a0: 2059 7abe 2b66 83be 989f 463e bd9f 92be
000003b0: 996f 7d3d 9042 5c3d 98a3 3dbe 03bc a23d
000003c0: e7c2 5a3d 3a48 acbb b28a 8a3e b26c 263e
000003d0: b243 6d3e 95cc 8e3d ae11 a7be 11b0 963e
000003e0: 2850 df3d 47e2 ce3d 533c a83e 47ba 1e3d
000003f0: ced6 c9bd ab1c 47be 665d 703c 98ba 02be
