AE Models/32lat0.917loss.pth (torch, 113426 bytes, 23 tensors)

weight f4 [16, 1, 4]
0	0xbb9a60fa	-0.0047112675
1	0x3ddfebcb	0.10933646
2	0xbd493cc4	-0.049130216
3	0x3dd38a61	0.10329128
4	0xbe479ad4	-0.19492656
5	0xbdcc9090	-0.099885106
6	0x3d6272cb	0.055285256
7	0x3e5ede3e	0.21764466
8	0xbddcd5ba	-0.107829526
9	0xbc90ba2b	-0.017666897
10	0xbbda3f6a	-0.0066603916
11	0xbd9bfe15	-0.07616822
12	0x3d24f987	0.04027703
13	0x3c0b5327	0.008503712
14	0x3c3a9a53	0.011389333
15	0x3da25e04	0.07928088
16	0xbdf74911	-0.12074483
17	0x3e31cadc	0.17362541
18	0xbe884fec	-0.26623476
19	0x3e636977	0.222082
20	0xbd6fcdf7	-0.058546033
21	0x3cd1a82c	0.025592886
22	0x3e2399e5	0.15976675
23	0x3e1613fe	0.14656064
24	0xbea1dc94	-0.316136
25	0xbb667e00	-0.0035170317
26	0xbe679610	-0.22615838
27	0xbe87d12a	-0.26526767
28	0xbdef6825	-0.11689786
29	0x3da3666c	0.0797852
30	0x3dda107a	0.10647674
31	0xbdff9368	-0.124792874
32	0x3dc93fa0	0.09826589
33	0x3e393fbc	0.18090719
34	0x3e67a0b1	0.22619893
35	0x3e1f4819	0.15554847
36	0xbe829da8	-0.25510907
37	0x3c4f42a7	0.0126501685
38	0x3dc575ce	0.0964161
39	0x3e92cf2e	0.2867369
40	0x3e2968a8	0.1654383
41	0xbe145919	-0.14487113
42	0x3e9272f8	0.2860334
43	0xbe55af78	-0.20867717
44	0x3e2c9588	0.16853917
45	0x3e5d2204	0.21595007
46	0x3e1b5192	0.15167835
47	0x3a13e298	0.000564137
48	0xbe96f482	-0.2948342
49	0xbde67d77	-0.11254399
50	0x3df27be6	0.11840038
51	0x3e875713	0.2643362
52	0x3e3eb560	0.18623877
53	0x3c851b13	0.016248262
54	0xbc532c52	-0.012888985
55	0x3db62c0a	0.088951185
56	0xbde87f82	-0.11352445
57	0xbe855535	-0.2604157
58	0x3ede4833	0.4341446
59	0xbebbca95	-0.36677995
60	0x3e4fc1ca	0.20288768
61	0x3adbdf65	0.0016774951
62	0xbde545ac	-0.111949295
63	0xbe9178b5	-0.28412405

bias f4 [16]
0	0x3d3456e3	0.044028174
1	0xbf269963	-0.650778
2	0x3f9954f5	1.1979052
3	0x3f90cc03	1.131226
4	0xbb13d8ce	-0.0022559646
5	0x3e6272e3	0.22114138
6	0xbef06292	-0.46950203
7	0x3eb45728	0.35222745
8	0x3d62d88d	0.0553823
9	0xbc736528	-0.0148556605
10	0x3e824a49	0.254473
11	0x3e7a1736	0.24422917
12	0x3e03bdb6	0.12865338
13	0x3cfbc62c	0.030734144
14	0xc0a04381	-5.00824
15	0x3dd05626	0.101726815

weight f4 [16, 16, 4]
0	0x3e6c3464	0.2306686
1	0x3e0079ca	0.12546459
2	0x3c8c959e	0.017161187
3	0x3dad3635	0.08457605
4	0x3e6a7c6f	0.2289903
5	0x3e9bc3e3	0.30422887
6	0x3ec0d0a2	0.37659174
7	0x3db9e46d	0.09076772
8	0x3c8073f3	0.015680289
9	0x3e221e5d	0.15831895
10	0xbcb29c73	-0.021803116
11	0x38cb2035	9.685793e-05
12	0x3d3f4062	0.04669226
13	0xbc729ce3	-0.0148079125
14	0x3d29ed32	0.041485973
15	0x3d0b4176	0.033997975
16	0xbe0990ec	-0.1343419
17	0xbd3d7690	-0.046255648
18	0xbd28b401	-0.04118729
19	0x3d2c96f1	0.042136136
20	0x3d933f22	0.07189776
21	0x3d89f51e	0.067362055
22	0xbc441968	-0.011968948
23	0xbc8a32f4	-0.01687
24	0xbd6d69b8	-0.05796215
25	0x3b9be9c0	0.00475809
26	0xbd6fa044	-0.05850245
27	0x3de6f2f0	0.112768054
28	0xbe496b1b	-0.19669764
29	0xbe8b66a9	-0.2722676
30	0xbd9ade59	-0.07561941
31	0xbc39dd2f	-0.011344238
32	0x3ba2ec22	0.004971997
33	0x3e092d7d	0.13396259
34	0x3e5cd9a3	0.21567397
35	0x3e809a08	0.25117517
36	0xbcf69ac8	-0.030103102
37	0xbcd75ab9	-0.026288377
38	0x3d784f36	0.060622416
39	0xba2ece26	-0.0006668292
40	0x3d89fd31	0.067377456
41	0x3c9479b8	0.018124446
42	0xbb12b48e	-0.002238545
43	0xbdb0b54d	-0.086283304
44	0x3e115c7c	0.14195436
45	0x3de5fdb8	0.11230034
46	0x3e4adfda	0.19811955
47	0x3e3143e3	0.17311053
48	0x38cc9cee	9.7567085e-05
49	0x3d554e5e	0.05207669
50	0xbe4ca016	-0.19982943
51	0xbb953219	-0.0045530912
52	0x3dcd7128	0.100313485
53	0x3ddc9c29	0.10771973
54	0x3d232ef8	0.039839715
55	0x3d8a6ee0	0.06759429
56	0xbed7b234	-0.42128146
57	0xbea3a305	-0.31960312
58	0x3e849d6b	0.2590135
59	0xbe197650	-0.14986539
60	0xbd94bc95	-0.07262532
61	0x3d534091	0.051575247
62	0xbda2b75e	-0.07945131
63	0x3d5a80c5	0.05334546
64	0x3aaa2d3e	0.0012983454
65	0x3e43e623	0.19130759
66	0xbd352196	-0.044221483
67	0xbe101a19	-0.14072455
68	0x3d2c6599	0.04208908
69	0xbe573817	-0.2101749
70	0x3e91ee65	0.28502193
71	0x3dcb9cf7	0.09942048
72	0xbddc2bf2	-0.107505694
73	0xbd9354ac	-0.07193884
74	0x3df496c7	0.11942821
75	0xbe279141	-0.16364004
76	0x3cb166b8	0.021655425
77	0xbd8eed15	-0.069788136
78	0xbcb1487c	-0.021641009
79	0xbdb09222	-0.086216226
80	0xbeaafa52	-0.33394104
81	0xbe00aaed	-0.12565203
82	0x3a618b27	0.0008603804
83	0x3da3b4ec	0.079934925
84	0x3d426463	0.047459017
85	0xbc832b39	-0.016011821
86	0x3d954d1c	0.07290098
87	0x3da8dd08	0.08245283
88	0xbdd495e2	-0.103801504
89	0xbdf59c78	-0.11992735
90	0xbd8b7a4a	-0.06810434
91	0x3ceffc38	0.029295072
92	0xbd0df8eb	-0.034661215
93	0x3df56812	0.119827405
94	0x3c26e77e	0.010187028
95	0x3e31b506	0.17354211
96	0xbd4639bf	-0.048394915
97	0xbd1abb10	-0.037776053
98	0x3e7b185f	0.24521016
99	0x3d11823d	0.035524596
100	0x3cffb137	0.031212432
101	0x3dc42bbb	0.095786534
102	0x3d85598f	0.065112226
103	0x3c87a174	0.016556479
104	0x3e9b1ef5	0.30297056
105	0x3d8b67ae	0.06806885
106	0x3dac1aba	0.08403535
107	0x3ccd8a0e	0.025090244
108	0x3e25d5e6	0.16194877
109	0x3d147a36	0.036249362
110	0xbcf3af9e	-0.029746827
111	0xbcb1b88d	-0.021694446
112	0xbda1d531	-0.07901991
113	0xbc87d440	-0.0165807
114	0x3d88dade	0.066823706
115	0x3e154fdf	0.1458125
116	0x3e6ce3ac	0.23133725
117	0xbe3ec480	-0.18629646
118	0xbd4e9340	-0.050433397
119	0xbe479284	-0.19489485
120	0xbfee7fcf	-1.8632754
121	0x3f1081ed	0.5644825
122	0xc019ac49	-2.4011405
123	0x3f0a1b24	0.53947663
124	0xbe671685	-0.22567184
125	0xbef55667	-0.47917482
126	0xbdf3ea22	-0.11909892
127	0x3d90df9e	0.070739016
128	0xbd41d3ce	-0.047321133
129	0xbdd42879	-0.10359282
130	0xbdf4f3d7	-0.11960571
131	0x3e292720	0.16518831
132	0x3debb772	0.11509599
133	0x3ddcfb21	0.107900865
134	0x3d09dbc8	0.033656865
135	0xbe80e498	-0.25174403
136	0x3dfc3186	0.12314133
137	0xbe118d50	-0.14214063
138	0xbf06ab7e	-0.52605426
139	0xbebf427a	-0.37355405
140	0x3d4bb10d	0.049729396
141	0xbe2d1e17	-0.1690601
142	0x3da76fc4	0.081756145
143	0x3e85696d	0.26056996
144	0x3e26e577	0.16298471
145	0x3eaf0836	0.34185952
146	0x3c806c8a	0.015676755
147	0x3d838c0b	0.064231955
148	0x3e5621cf	0.20911334
149	0xbc7c41ce	-0.015396548
150	0xbc4e0cea	-0.012576321
151	0x3c8a1687	0.016856445
152	0xbd92955c	-0.07157394
153	0x3db49cc2	0.08818962
154	0xbdb1de5a	-0.08684988
155	0x3dab878e	0.083754644
156	0x3e8b2043	0.2717305
157	0xbc60e2ed	-0.013725978
158	0xbd10493b	-0.035226088
159	0x3d770ac3	0.060312998
160	0xbe331eeb	-0.17492263
161	0xbe5ef661	-0.21773674
162	0x3cd7a380	0.02632308
163	0x3e6497cc	0.22323531
164	0xbdd643d7	-0.10462158
165	0xbd4c232b	-0.049838226
166	0xba8b1d53	-0.0010613598
167	0xbc921e56	-0.01783673
168	0xbdca9399	-0.09891433
169	0xbe7c8109	-0.24658598
170	0x3c7fa829	0.015604057
171	0xbdaa9a5f	-0.08330225
172	0xbb09f0e3	-0.002104812
173	0xbc1ae82c	-0.009454768
174	0xbdc1fc5f	-0.09471964
175	0x3dee4aa0	0.11635327
176	0x3c8ead5e	0.017416652
177	0x3e29e0eb	0.16589706
178	0x3db3b66d	0.08775029
179	0x3e2d409c	0.16919178
180	0xbeb8c9ed	-0.36091557
181	0xbe31f8e1	-0.17380096
182	0x3d3b2411	0.045688692
183	0x3d496178	0.04916522
184	0x3ed293cc	0.41128385
185	0xc023de73	-2.5604522
186	0xbe19ff4d	-0.15038796
187	0x3eb51f48	0.35375428
188	0xbe5f28d6	-0.21792921
189	0xbe86341e	-0.26211637
190	0xbe8b81f2	-0.27247578
191	0x3ea21eec	0.31664217
192	0xbb881673	-0.004153067
193	0xbb3aa8f6	-0.0028482056
194	0xbd110b9d	-0.035411466
195	0xbd8e9cbd	-0.06963489
196	0x3e07399d	0.13205571
197	0x3de05ea4	0.10955551
198	0x3e3b55f8	0.18294513
199	0xbe15aa27	-0.14615689
200	0x3d7407ca	0.05957774
201	0xbafb6ed8	-0.0019182814
202	0xbe58aa96	-0.21158823
203	0xbecd3649	-0.4008048
204	0x3d6aad8e	0.05729442
205	0xbdc123ea	-0.09430678
206	0x3eb78ec5	0.35851112
207	0xbe995e65	-0.2995483
208	0xbb96d840	-0.0046034157
209	0x3e10a0fd	0.14123912
210	0xbdf682fa	-0.120367005
211	0x3e173cbf	0.14769267
212	0x3e20a157	0.15686546
213	0x3c494d42	0.012286486
214	0x3eb5a531	0.35477594
215	0xbd72a635	-0.05924054
216	0xbd6b88e0	-0.05750358
217	0x3d918256	0.07104938
218	0xbda4bad0	-0.08043444
219	0xbd3e0e44	-0.046400324
220	0x3cb6d271	0.022317143
221	0x3cc11d79	0.023573624
222	0x3dcb9c7c	0.099419564
223	0x3ed996f2	0.42497975
224	0x3c0df736	0.008664897
225	0x3c7fb594	0.015607256
226	0x370ad5c8	8.275216e-06
227	0x3d30c4fe	0.043156616
228	0xbcaebed6	-0.021331232
229	0xbd455224	-0.04817404
230	0x3df22b13	0.11824622
231	0x3ea0f430	0.314363
232	0x3d1ffdc6	0.039060377
233	0xbe02d80c	-0.12777728
234	0x3e3970d4	0.18109447
235	0xbe317144	-0.17328364
236	0x3d5c0161	0.053712253
237	0xbdb78af2	-0.089620486
238	0x3e203f67	0.15649186
239	0xbe81e4e9	-0.25369957
240	0xbddbf1ff	-0.107395165
241	0xbd817594	-0.063212544
242	0xbe27684f	-0.16348384
243	0xbdc66d24	-0.09688786
244	0xbd226001	-0.039642338
245	0x3ce63714	0.028102435
246	0xbd0ba67c	-0.03409432
247	0xbed39ab3	-0.41328964
248	0x3ea5af16	0.32360142
249	0x3d8f01de	0.06982778
250	0x3ed96d87	0.42466375
251	0xbf6d5be7	-0.92718357
252	0xbee803b3	-0.45315322
253	0xbed121d1	-0.40846112
254	0xbe81881c	-0.25299156
255	0xbee266c9	-0.44219044

bias f4 [16]
0	0xbc8b866d	-0.017031873
1	0x3d99ac6d	0.07503591
2	0x3f050678	0.51962996
3	0x3f1b6e2f	0.60715
4	0x3ee1acff	0.44077298
5	0x3e923348	0.2855475
6	0x3dafefe5	0.08590678
7	0xbf0defa1	-0.5544377
8	0xbe1238f0	-0.14279532
9	0x3ef5d24a	0.48012
10	0x3d1f3940	0.038872957
11	0xbddd837f	-0.108160965
12	0x3efec439	0.4975908
13	0x3df30650	0.118664384
14	0xbee09f8c	-0.43871725
15	0xbed86545	-0.42264763

weight f4 [16, 16, 5]
0	0x3e453326	0.19257793
1	0x3e19b6dd	0.15011163
2	0x3e2fedf9	0.17180623
3	0x3e4451c1	0.19171812
4	0xbd9c1b58	-0.07622403
5	0xbd8e4124	-0.06946018
6	0xbd183364	-0.037158385
7	0xbcf2903a	-0.029609788
8	0x3e429fd2	0.19006279
9	0x3c57b0dc	0.013164725
10	0xbce465c3	-0.027880555
11	0xbe20beaa	-0.15697733
12	0x3d75550a	0.059895553
13	0xbb90dd34	-0.0044209007
14	0x3d8a25e5	0.06745509
15	0xbcb79ec5	-0.022414574
16	0x3db20dcd	0.086940385
17	0xbd5d7a8f	-0.05407196
18	0xbe16301d	-0.14666791
19	0xbd08b173	-0.033372354
20	0x3a995e29	0.0011701036
21	0x3e59c4a0	0.21266413
22	0x3db1ca45	0.08681158
23	0x3ceea6b9	0.029132234
24	0x3e2cad09	0.16862883
25	0x3e132fa3	0.1437364
26	0x3ddd122e	0.10794483
27	0xbe08a0ed	-0.13342638
28	0xbda6ef0b	-0.081510626
29	0xbcd33928	-0.02578409
30	0xbcd06e24	-0.025443144
31	0xbca122f6	-0.019669991
32	0x3b472f9d	0.003039337
33	0x3c825783	0.01591087
34	0xbd533888	-0.051567584
35	0xbe370025	-0.17871149
36	0x3da9ffb6	0.08300726
37	0x3d92f07f	0.07174777
38	0x3e91b8d5	0.28461328
39	0x3e079476	0.13240227
40	0xbda86e18	-0.08224124
41	0xbcc1b065	-0.023643682
42	0xbd926bc9	-0.07149465
43	0x3cbbf6ef	0.022944896
44	0x3e069bcc	0.1314537
45	0xbdf5b55a	-0.11997481
46	0x3d59bdb9	0.05315945
47	0xbdcab309	-0.098974295
48	0x3e53f2fb	0.20698158
49	0x3e22bea8	0.15893042
50	0xbd833307	-0.06406217
51	0xbc96aedc	-0.018393926
52	0x3dec89cb	0.115497194
53	0x3d6e07c9	0.058112893
54	0x3debd2fa	0.1151485
55	0xbdbe9897	-0.09306448
56	0xbe8557cd	-0.2604355
57	0x3d28e873	0.041237306
58	0x3e048d7a	0.12944594
59	0x3e6a0a22	0.22855428
60	0xbe83a40d	-0.25711098
61	0xbda242b1	-0.079228766
62	0x3dd26e42	0.10274936
63	0x3ee74462	0.4516936
64	0xbe0a70af	-0.13519548
65	0x3cfc94d1	0.03083268
66	0xbd3332f1	-0.043749753
67	0x3e2ddfc8	0.16979897
68	0xbe4f4a2e	-0.20243141
69	0x3c9bb190	0.019005567
70	0xbdd5af23	-0.10433795
71	0xbd2a77e1	-0.04161823
72	0xbe5ed389	-0.21760382
73	0xbe8ae4b3	-0.2712761
74	0xbea9a0e0	-0.3313055
75	0xbd604912	-0.054757185
76	0x3e4268e3	0.18985324
77	0x3d707b72	0.058711477
78	0xbe2e971a	-0.17049828
79	0x3dba298a	0.09089954
80	0x3e337d16	0.17528185
81	0x3cca0483	0.024660354
82	0x3e41b8f4	0.1891821
83	0xbc186ff7	-0.009304038
84	0xbda4082b	-0.080093704
85	0x3e43cb2e	0.19120476
86	0xbc1992d4	-0.009373385
87	0x3e55ac94	0.20866615
88	0x3d88f34e	0.06687032
89	0x3dd5bd9e	0.10436557
90	0x3d21c940	0.039498568
91	0x3d65b23c	0.05607818
92	0xbcc945a5	-0.024569342
93	0x3e2a1518	0.16609609
94	0x3de564c7	0.112008624
95	0x3e0e7ab8	0.13914001
96	0xbdd2bb46	-0.10289626
97	0xbe84ca8c	-0.2593578
98	0x3ec7e9f8	0.39045691
99	0xbe17e384	-0.14832884
100	0x3e9a1ba3	0.3009921
101	0x3ea0e8bc	0.31427562
102	0xbc9acd6e	-0.018896785
103	0x3edbc487	0.42923376
104	0xbd0677e0	-0.032829165
105	0x3d05fc35	0.032711226
106	0xbe516a55	-0.20450719
107	0x3e1fc17c	0.15601152
108	0x3d330945	0.043710012
109	0xbea0221e	-0.3127603
110	0x3d348245	0.044069547
111	0x3d8b8dd3	0.0681416
112	0xbc50af1c	-0.012737062
113	0xbe64b098	-0.2233299
114	0xbe41854f	-0.1889851
115	0x3d264168	0.04058972
116	0xbe03d0e4	-0.12872654
117	0x3d6778b4	0.056511596
118	0x3e2f8951	0.17142226
119	0xbdddb137	-0.10824817
120	0x3e2f5674	0.17122823
121	0x3da636f4	0.0811595
122	0x3d5a57ce	0.053306393
123	0x3e3c2076	0.18371758
124	0xbd756397	-0.05990943
125	0x3e4b4ec9	0.19854273
126	0x3cd318aa	0.025768597
127	0x3cf17efe	0.0294795
128	0x3e671ecc	0.22570342
129	0xbcd0f7a7	-0.025508715
130	0xbbdc9d3c	-0.006732611
131	0x3de51b5d	0.1118686
132	0xbdeb7fc2	-0.11498977
133	0xbe4852be	-0.19562814
134	0x3e5da572	0.21645144
135	0xbd1c886f	-0.03821605
136	0x3e15228d	0.14563961
137	0x3e4ae5b4	0.19814187
138	0xbe83df4d	-0.25756302
139	0x3d6c6560	0.057713866
140	0x3d87ab3c	0.06624457
141	0xbd16cb4a	-0.036814965
142	0xbe330c56	-0.17485175
143	0x3e332014	0.17492706
144	0xbef8d266	-0.4859802
145	0xbe2dcfa0	-0.16973734
146	0x3db3a54f	0.087717645
147	0x3e503371	0.20332123
148	0xbe774d3f	-0.24150561
149	0xbd8da8a8	-0.06916934
150	0x3db64e0d	0.08901606
151	0x3d5288ba	0.051399924
152	0xbebe2b2d	-0.37142316
153	0xbd8392fd	-0.0642452
154	0xbe7671c1	-0.24066831
155	0x3e19493b	0.14969341
156	0xbe3cb216	-0.1842731
157	0x3ddbdc88	0.107354224
158	0x3ea078cc	0.3134216
159	0xbdbeecff	-0.09322547
160	0x3ea5d70e	0.32390636
161	0x3b59849a	0.003319061
162	0xbe362149	-0.17786135
163	0xbda0ba08	-0.07847983
164	0xbdd4056c	-0.10352597
165	0x3e1cc750	0.15310407
166	0x3b724dd5	0.003697266
167	0x3e28d471	0.1648729
168	0x3ddd974c	0.10819873
169	0x3e3551d6	0.17706999
170	0x3e5d95b1	0.21639134
171	0x3e7ac5c4	0.24489504
172	0xbecd09b7	-0.40046474
173	0x3d9d1987	0.076708846
174	0xbe002ecd	-0.12517853
175	0x3d8cf76d	0.0688313
176	0xbcfb0a73	-0.030644631
177	0xbeb5f601	-0.3553925
178	0x3dd19a2a	0.102344826
179	0x3e94255f	0.28934762
180	0x3e1fe072	0.15612963
181	0x3e914285	0.28371063
182	0xbe88094a	-0.26569587
183	0xbdcb31c1	-0.09921599
184	0xbe92ecab	-0.28696188
185	0x3ec47672	0.38371617
186	0xbde09a0f	-0.10966884
187	0xbe9a5f93	-0.30151042
188	0x3e02db54	0.1277898
189	0xbcbf2efa	-0.02333783
190	0x3e957b80	0.29195786
191	0xbd14f87d	-0.03636979
192	0x3e1bcdd1	0.15215231
193	0xbe1fcdd9	-0.15605868
194	0xbe305799	-0.17220916
195	0xbdc3818f	-0.09546196
196	0x3e611456	0.21980414
197	0xbdddd73d	-0.10832069
198	0x3d79c9fd	0.060983647
199	0xbc658ffe	-0.014011381
200	0x3c5b48a2	0.013384016
201	0x3e0f90cd	0.14020081
202	0x3cf9ec11	0.030508073
203	0xbe40731e	-0.18793914
204	0x3e2c1878	0.16806209
205	0x3e15ccc1	0.14628889
206	0x3e75472a	0.23952928
207	0xbe56c436	-0.20973286
208	0x3b2495b3	0.0025113642
209	0x3d0f5644	0.03499438
210	0xbe6d16ea	-0.23153272
211	0x3d154766	0.036445044
212	0x3e8ec347	0.2788336
213	0xbd9fb977	-0.077990465
214	0xbdfb656d	-0.12275205
215	0xbd7145cc	-0.058904454
216	0xbe0c1d5d	-0.13683076
217	0x3d9a170a	0.075239256
218	0x3e9f55fe	0.31120294
219	0x3d0a4d4a	0.033765115
220	0x3e409630	0.18807292
221	0x3e8df32a	0.27724582
222	0xbe87411a	-0.26416856
223	0x3e41b2cc	0.18915862
224	0xbc5ddbd6	-0.0135411825
225	0x3c6cd4d3	0.014455038
226	0xbe8d2a55	-0.2757136
227	0x3dce8e00	0.10085678
228	0xbe45fcf8	-0.19334781
229	0xbddd7f75	-0.10815326
230	0x3e199bc3	0.15000825
231	0x3e0f9d04	0.1402474
232	0xbe1f27fe	-0.155426
233	0xbe48b1a3	-0.19599013
234	0x3d4e414c	0.05035524
235	0x3e9e3b2f	0.30904528
236	0x3dc755c1	0.09733153
237	0xbe9830a5	-0.29724613
238	0xbdfff91f	-0.12498688
239	0xbce1c879	-0.027561413
240	0x3df37b17	0.11888712
241	0x3d751391	0.059833113
242	0x3d124962	0.035714515
243	0x3c3971b8	0.011318617
244	0xbddbac6f	-0.107262485
245	0x3d72aa36	0.059244357
246	0xbd82eac3	-0.063924335
247	0x3da8d88d	0.08244429
248	0xbb9da986	-0.0048114685
249	0xbd3c3706	-0.045950912
250	0xbd852e50	-0.06502974
251	0x3ea1a87d	0.3157386
252	0x3e75a962	0.23990396
253	0xbddfbf4c	-0.10925159
254	0x3e041c4d	0.12901421
255	0x3d92b566	0.07163505

bias f4 [16]
0	0xbe621911	-0.22079875
1	0xbe94636e	-0.2898211
2	0xbe13fdff	-0.1445236
3	0x3d0f9fbd	0.035064448
4	0xbeeadabb	-0.45870003
5	0xbe3ec50d	-0.18629856
6	0xbdf883fa	-0.121345475
7	0x3ece9bf1	0.4035335
8	0xbf020e06	-0.5080265
9	0x3ef46277	0.47731373
10	0xbc6e828b	-0.014557491
11	0x3f9208fe	1.1408994
12	0x3e95ada6	0.29234046
13	0xbf3e273c	-0.74278617
14	0x3ed54ed9	0.41661718
15	0xbdbd0656	-0.09229724

weight f4 [16, 16, 5]
0	0xbe9d16a0	-0.30681324
1	0xbe16af85	-0.14715393
2	0x3d3813fe	0.04494094
3	0xbcff56d4	-0.031169333
4	0xbdd3555b	-0.10319015
5	0x3e54a47a	0.20765868
6	0x3e1d1c2f	0.15342782
7	0x3d35fa94	0.044428423
8	0x3dde7d04	0.108636886
9	0x3de9702e	0.1139835
10	0xbe485e44	-0.1956721
11	0x3ec88fa9	0.39172104
12	0xbe828e8e	-0.25499386
13	0x3e36a36c	0.17835778
14	0x3d67f8bd	0.0566337
15	0xbed44431	-0.41458276
16	0x3e5a825d	0.21338792
17	0xbdbbd249	-0.09170968
18	0x3e349989	0.17636694
19	0x3d81ee5b	0.06344291
20	0xbe1ad178	-0.15118968
21	0xbe921153	-0.28528842
22	0x3dc1058e	0.094248876
23	0xbe562479	-0.2091235
24	0x3dc24fe2	0.09487893
25	0x3e580f36	0.21099553
26	0xbe9f4e58	-0.3111446
27	0x3ea42e88	0.3206675
28	0xbd9a48e0	-0.07533431
29	0xbb79e1a9	-0.0038128889
30	0xbd0c6ce3	-0.03428353
31	0x3efec737	0.49761364
32	0xbe0a12d3	-0.13483743
33	0xbd420e15	-0.04737671
34	0x3e4f6162	0.20251992
35	0xbdd609c4	-0.104510814
36	0x3b6052c9	0.0034229031
37	0x3c8c63f1	0.0171375
38	0xbdb204ba	-0.08692308
39	0x3e4b7509	0.19868864
40	0xbca4b33a	-0.020104993
41	0xbda9fc53	-0.0830008
42	0x3e529109	0.20563139
43	0xbe863f71	-0.26220277
44	0x3ca4072c	0.020022951
45	0xbde49c32	-0.111626044
46	0x3dc1eec1	0.09469367
47	0xbe4efc7b	-0.20213501
48	0xbc72b422	-0.014813455
49	0xbc0a825b	-0.008453931
50	0xbe27b708	-0.16378415
51	0x3e1a8d3d	0.1509294
52	0x3cc4b2cb	0.024011036
53	0xbd60c679	-0.05487678
54	0x3d5a7768	0.05333653
55	0x3ce3c6dd	0.027804786
56	0x3dd83e9c	0.10558817
57	0xbe204b9f	-0.15653847
58	0x3d69e5f4	0.057104066
59	0x3e906151	0.28199247
60	0xbe25b7c3	-0.16183381
61	0xbd7993ac	-0.060931846
62	0x3e2b7ed7	0.16747604
63	0xbdd4908e	-0.10379134
64	0x3db2449e	0.08704494
65	0xbd202110	-0.03909403
66	0x3e9ad12c	0.3023771
67	0xbe6ed4f5	-0.23323424
68	0x3e8a55ba	0.2701853
69	0xbd02097b	-0.031747323
70	0xbd7c7224	-0.06163229
71	0xbe135315	-0.14387162
72	0x3e438e5c	0.19097275
73	0xbe3c4d48	-0.18388855
74	0x3c6622d3	0.014046389
75	0x3d1e276f	0.038611826
76	0xbd7478bc	-0.059685454
77	0x3d22faa4	0.03978981
78	0xbdc41e52	-0.09576096
79	0x3d95e797	0.07319563
80	0xbcb4317d	-0.021996254
81	0xbccf19b1	-0.025280805
82	0xbc898094	-0.016784944
83	0x3e955713	0.29167995
84	0xbc0d4349	-0.008621999
85	0x396a3730	0.00022336538
86	0xbd045848	-0.032310754
87	0xbe5449e6	-0.20731315
88	0x3d638c1b	0.055553537
89	0xbd9e74e9	-0.077371426
90	0x3b1ad2c8	0.002362417
91	0x3d1bd95b	0.038049083
92	0x3d4274d8	0.047474712
93	0xbe7e65f4	-0.2484358
94	0x3d1c7cce	0.03820496
95	0x3d5a3771	0.05327553
96	0x3d7f64c9	0.062351976
97	0x3d331509	0.043721233
98	0x3da75001	0.081695564
99	0x3cdc45a4	0.026888676
100	0xbbcf5e3f	-0.0063283737
101	0x3d151b70	0.03640312
102	0x3d4cb042	0.04997278
103	0x3d25f784	0.040519252
104	0x3e16013d	0.1464891
105	0x3d20ec87	0.03928807
106	0x3d901deb	0.070369564
107	0xbd438976	-0.047738515
108	0x3e83eda2	0.25767237
109	0x3d0a1459	0.03371081
110	0xbd2d3ef0	-0.04229635
111	0x3d676f09	0.056502376
112	0x3defaabc	0.11702487
113	0xbcc0b7c2	-0.023525123
114	0x3e4a115e	0.19733188
115	0x3bdb3f6b	0.0066909096
116	0x3cdacbcb	0.026708504
117	0x3ca2599e	0.019818123
118	0xbcd22752	-0.025653515
119	0x3d9cef2a	0.076628044
120	0x3d548837	0.051887717
121	0x3da3d0cc	0.07998809
122	0x3d397812	0.045280524
123	0x3e111370	0.14167571
124	0x3d89aeb3	0.06722774
125	0x3c368d1b	0.011142041
126	0xbc117a19	-0.008879208
127	0xbbbbfe94	-0.005737135
128	0x3dc468ac	0.09590277
129	0xbd204521	-0.039128426
130	0xbd65337e	-0.05595731
131	0x3ce3474c	0.027743958
132	0x3d8fcdb4	0.07021657
133	0xbd6ebb77	-0.05828425
134	0x3dbb7fec	0.091552585
135	0xbd8b9c08	-0.0681687
136	0x3bdac425	0.0066762143
137	0x3d13d780	0.03609419
138	0x3e55df67	0.20886002
139	0x3d9c0774	0.07618609
140	0x3c61f1c1	0.013790549
141	0x3b8de404	0.00433016
142	0xbcfadfb3	-0.030624246
143	0xbe453ab8	-0.1926068
144	0x3e83155c	0.25602233
145	0x3bd659b2	0.0065414542
146	0xbd1c456f	-0.038152155
147	0xbdf8a573	-0.12140932
148	0xbcfcec73	-0.030874467
149	0x3e6aa3f2	0.22914103
150	0x3c930d9f	0.017950831
151	0xbd2a8d79	-0.041638825
152	0x3c65efb7	0.014034203
153	0xbdbe5df1	-0.09295262
154	0x3e4adc1d	0.19810529
155	0xbd60b9ee	-0.054864816
156	0x387d9b41	6.0464492e-05
157	0xbc858459	-0.01629846
158	0xbd9f3e02	-0.07775499
159	0xbc82b6b2	-0.015956257
160	0xbc60589e	-0.013693003
161	0x3e69d67a	0.22835723
162	0xbd220f91	-0.039565627
163	0xbd807f8f	-0.0627433
164	0xbdadd779	-0.08488364
165	0x3daff6fd	0.08592031
166	0x3ef6cbd8	0.48202395
167	0xbe1e0159	-0.15430202
168	0xbdebe341	-0.115179546
169	0xbdc99e87	-0.0984469
170	0xbe074a28	-0.13211882
171	0xbe81ff3e	-0.25390047
172	0x3e0079ea	0.12546507
173	0x3e2d91fa	0.16950217
174	0x3d12b809	0.03582004
175	0x3ba6fe34	0.0050962213
176	0x3e892817	0.267884
177	0x3e4312ef	0.19050191
178	0xbe880b05	-0.26570907
179	0xbe62592a	-0.22104326
180	0xbd82787f	-0.06370639
181	0xbc5b7bc0	-0.0133962035
182	0x3c9d514b	0.019203803
183	0x3e9e1d6d	0.30881825
184	0xbd7c2c12	-0.061565466
185	0xbdb6f9c4	-0.08934358
186	0x3d56f246	0.052477144
187	0xbed11d6d	-0.40842763
188	0xbd9cba90	-0.076527715
189	0x3d715ebf	0.058928248
190	0x3e35e689	0.17763723
191	0xbe1494a5	-0.14509828
192	0xbbadef93	-0.0053081005
193	0xbd0bb7db	-0.034110885
194	0x3df9e51d	0.12201903
195	0xbdb1c685	-0.08680443
196	0x3de958ed	0.11393914
197	0x3dd46931	0.10371626
198	0x3da75c01	0.08171845
199	0xbcd947d0	-0.0265235
200	0xbdb5688b	-0.088578306
201	0x3e74df27	0.23913251
202	0xbd6fdc39	-0.05855963
203	0x3d87c616	0.06629579
204	0x3dfe1838	0.12406963
205	0xbdcdf0aa	-0.10055669
206	0xbd98f9a4	-0.0746949
207	0x3f14f3b0	0.5818434
208	0xbb4d303b	-0.0031309265
209	0x3e474584	0.19460112
210	0x3e07afba	0.13250628
211	0xbc212423	-0.009835276
212	0xbea0f95a	-0.3144024
213	0xbb5f3d23	-0.003406354
214	0xbd1d65fe	-0.038427345
215	0xbd88cdca	-0.06679876
216	0x3c7bc6fd	0.015367267
217	0x3e5fa494	0.21840125
218	0xbd8873c8	-0.066627085
219	0xbe0d7e59	-0.13817729
220	0x3dd3ddb4	0.10345021
221	0x3e6fb6ff	0.23409651
222	0x3cb58232	0.022156809
223	0x3c19b7b4	0.009382177
224	0x3dd5a6d6	0.10432212
225	0xbe063643	-0.13106637
226	0x3d897e2e	0.0671352
227	0x3db595d8	0.08866471
228	0xbdd2958e	-0.102824315
229	0xbd6ee419	-0.058323
230	0x3deac9aa	0.114642456
231	0xbd911c70	-0.07085502
232	0x3d9520e1	0.07281662
233	0x3df824ac	0.121163696
234	0x3c29b1c7	0.010357327
235	0x3dbf59ea	0.093433216
236	0xbe810cac	-0.2520498
237	0x3dcc981a	0.099899486
238	0x3da69cc3	0.08135369
239	0xbcb60bfd	-0.022222513
240	0x3e351ed5	0.17687543
241	0xbd9ba3a5	-0.07599572
242	0x3d883379	0.06650443
243	0xbd2def65	-0.042464633
244	0x3d802ca0	0.062585115
245	0xbd1b6018	-0.03793344
246	0xbd08fb29	-0.03344265
247	0x3e1d01da	0.15332738
248	0xbc8fb626	-0.01754291
249	0xbd5be773	-0.053687524
250	0x3db581b0	0.088626266
251	0xbdf257cb	-0.118331514
252	0xbbf62189	-0.007511322
253	0xbd3caedd	-0.0460652
254	0xbdf52818	-0.11970538
255	0xbd190e41	-0.03736711

bias f4 [16]
0	0xbe055663	-0.13021235
1	0xbe270c82	-0.16313365
2	0xbc359bf0	-0.011084542
3	0xbedf690e	-0.43634838
4	0xbedf6ea8	-0.43639112
5	0xbd982494	-0.07428852
6	0x3f712762	0.9420072
7	0xbf8505fb	-1.039245
8	0x3f108c80	0.56464386
9	0xbde23593	-0.11045375
10	0xbea0e7d4	-0.3142687
11	0x3fb368e3	1.4016384
12	0x3f064d66	0.5246185
13	0x3c526960	0.012842506
14	0xbddabafa	-0.10680194
15	0x4027c1ea	2.6212106

weight f4 [64, 112]
0	0xbc1aa1b5	-0.009437968
1	0x3c056219	0.008141064
2	0xbdbdf8e0	-0.09275985
3	0x3c93405a	0.017975021
4	0x3e1aee93	0.15130071
5	0x3d8e9739	0.06962437
6	0xbc80f95a	-0.0157439
7	0xbdd3e7f7	-0.10346978
8	0xbc32ed4c	-0.010920834
9	0xbce65e8a	-0.028121252
10	0xbd21a611	-0.039465014
11	0xbdbf11a1	-0.09329534
12	0xbdfa81ab	-0.122317635
13	0xbe508b48	-0.20365632
14	0x3e361052	0.17779663
15	0x3b412728	0.0029472802
16	0x3de3697e	0.111041054
17	0x3d7f2068	0.062286764
18	0x3cba7765	0.02276201
19	0xbc3eab93	-0.011637586
20	0xbd12655b	-0.03574119
21	0x3d1814ae	0.037129097
22	0x3e411e55	0.18859227
23	0x3d0c8650	0.034307778
24	0xbd439cdc	-0.047757015
25	0xbe60644f	-0.21913265
26	0x3c0c0121	0.008545191
27	0xbc904055	-0.0176088
28	0xbcbafa2c	-0.02282437
29	0x3df0e225	0.11761884
30	0x3e23635b	0.1595587
31	0x3c92b935	0.01791058
32	0xbd83d712	-0.06437506
33	0xbdb1f5ee	-0.086894855
34	0x3dbe5f29	0.09295494
35	0x3da54f7f	0.08071803
36	0xbcc2e1b4	-0.023789264
37	0xbc22d143	-0.009937587
38	0x3cbf02f1	0.023316832
39	0x3d54a764	0.05191745
40	0x3d443abf	0.047907587
41	0x3da8b2eb	0.08237251
42	0x39c6d67c	0.00037925306
43	0xbd2fe1ea	-0.042940058
44	0x3de4ec77	0.111779146
45	0x3d9b552f	0.07584607
46	0x3d665c49	0.056240354
47	0xbd58db7d	-0.052943695
48	0xbe25fae7	-0.16208993
49	0x3e85c067	0.26123354
50	0xbc3e9d2c	-0.011634152
51	0xbd2d29dc	-0.04227625
52	0x3c3861c0	0.011253774
53	0x3d5c8deb	0.05384628
54	0x3c0ae9cf	0.008478596
55	0x3bfeb6c0	0.0077732503
56	0xbd5beda3	-0.053693425
57	0x3de89c77	0.11357968
58	0x3d185cb5	0.037197787
59	0xbd0ba66e	-0.034094267
60	0x3cf034da	0.029322077
61	0x3d4dc1db	0.050233703
62	0x3e222c04	0.15837103
63	0x3e8d2816	0.27569646
64	0x3deee90a	0.116655424
65	0x3d555d9f	0.052091237
66	0x3d86a3b6	0.06574194
67	0x3df19bfc	0.1179733
68	0xbc8cf41d	-0.017206246
69	0x3ca7aedb	0.02046912
70	0xbe821534	-0.25406802
71	0x3e65d2ef	0.22443746
72	0x3d668cf2	0.05628676
73	0x3da24fb0	0.079253554
74	0xbd369d83	-0.04458381
75	0xbd902d2f	-0.07039868
76	0x3cc67e0b	0.024230024
77	0xbd04d6d0	-0.032431424
78	0x3dc2e7b4	0.0951685
79	0x3e77b222	0.24189046
80	0x3e214f5a	0.15752926
81	0xbc2077f4	-0.009794224
82	0x3e413cf3	0.18870907
83	0x3e0d4f42	0.13799766
84	0x3e04e3fb	0.12977593
85	0x3ceac21b	0.02865701
86	0x3c9281d2	0.017884169
87	0x3e81c934	0.25348818
88	0x3c917297	0.017754836
89	0xbcd669ce	-0.026173498
90	0x3e440973	0.1914423
91	0xbd9a82de	-0.07544492
92	0x3e3942b5	0.18091853
93	0x3d79bfd2	0.06097395
94	0xbcc09a01	-0.023510935
95	0xbcc49978	-0.02399896
96	0x3d104fc9	0.03523234
97	0x3e046c01	0.12931825
98	0xbd1840e4	-0.03717126
99	0x3d9610b4	0.073274046
100	0xbda6ca52	-0.08144058
101	0x3db25cdc	0.08709118
102	0x3c6a7a94	0.014311451
103	0x3db21bbd	0.08696697
104	0xbd1cb33f	-0.03825688
105	0x3dc81789	0.09770114
106	0x3dbb6e6b	0.0915192
107	0x3e7d396b	0.24728934
108	0x3e31ff99	0.17382659
109	0x3e8c8bf5	0.2745053
110	0x3ed5aa06	0.4173128
111	0x3e878012	0.26464897
112	0xbe8df864	-0.2772857
113	0x3dd6d91c	0.10490629
114	0xbd94fb52	-0.07274498
115	0xbe0ca25b	-0.13733809
116	0xbd8f9abd	-0.07011936
117	0x3e05e060	0.13073874
118	0x3d41520a	0.04719738
119	0xbdfe2db0	-0.12411058
120	0xbdaba8ad	-0.08381782
121	0xbd95e4e4	-0.07319048
122	0xbe411037	-0.18853842
123	0xbe3def7a	-0.18548384
124	0x3df75989	0.12077624
125	0x3e120618	0.14260137
126	0x3e86d633	0.26335296
127	0xbe411a77	-0.18857752
128	0xbd88f33b	-0.066870175
129	0xbd2b3f4d	-0.041808415
130	0x3e185366	0.14875564
131	0xbd757a35	-0.059931
132	0x3c08c63b	0.008348043
133	0x3e2aeba2	0.1669145
134	0xbd52f9b9	-0.051507685
135	0x3d6a4772	0.05719704
136	0xbdbb60e3	-0.09149339
137	0xbe3db446	-0.185258
138	0xbe1ef80b	-0.15524308
139	0x3d4e0e2c	0.050306484
140	0xbe337913	-0.17526655
141	0xbdc30c11	-0.09523786
142	0xbc18f60a	-0.009336004
143	0xbd19ed8c	-0.037580058
144	0xbd3e931d	-0.046527017
145	0xbdd52ab3	-0.10408535
146	0x3e81bed8	0.25340915
147	0xbd33980f	-0.043846186
148	0x3d6fa860	0.058510184
149	0x3d44c22b	0.048036736
150	0xbcdc5c97	-0.026899619
151	0x3d8f1952	0.06987251
152	0xbd248ac9	-0.04017142
153	0x3d2ec5e3	0.04266919
154	0x3e81f4b3	0.25382003
155	0x3dcdcb6e	0.10048567
156	0x3e8ad1e7	0.27113268
157	0xbd71b90f	-0.059014376
158	0xbe64e146	-0.2235156
159	0xbe4b0349	-0.19825472
160	0xbeac9b41	-0.337122
161	0x3e950f9f	0.2911348
162	0xbe63158b	-0.22176187
163	0xbd81cde7	-0.06338101
164	0x3dfa0190	0.12207329
165	0x3cf3ea1f	0.029774724
166	0x3dd4e836	0.10395853
167	0x3dc443ec	0.095832676
168	0xbe4e4759	-0.20144404
169	0xbde9d6d4	-0.11417928
170	0xbe6cea79	-0.23136319
171	0x3e528995	0.20560296
172	0x3e188cde	0.14897487
173	0x3ea0fa9a	0.31441194
174	0x3ebc8e46	0.36827296
175	0x3ec218ea	0.37909633
176	0x3e0acf62	0.13555673
177	0x3d788868	0.060676962
178	0x3e4a4adc	0.19755119
179	0x3da10934	0.078630835
180	0x3bb5dcf2	0.0055500204
181	0xbd933053	-0.071869515
182	0xbed02567	-0.40653536
183	0x3dcca0f7	0.09991639
184	0x3d3fb3bf	0.04680228
185	0x3ccbbfa5	0.024871657
186	0x3e6e9ef4	0.23302823
187	0xbaf1b827	-0.0018441722
188	0x3e144e52	0.14483002
189	0x3d893b63	0.0670078
190	0x3e56af36	0.20965275
191	0x3e94fbf4	0.29098475
192	0x3e4ece86	0.2019597
193	0x3e95f698	0.292897
194	0x3d821307	0.063512854
195	0x3d8d6a89	0.069050856
196	0x3c12b669	0.008954623
197	0x3e00ee52	0.12590912
198	0x3e07cd72	0.13261965
199	0x3ee1e3b6	0.44119042
200	0x3e35bc07	0.17747508
201	0x3e911274	0.2833439
202	0x3e078d2d	0.13237448
203	0x3cb75ee8	0.022384122
204	0x3e486d1c	0.19572872
205	0x3e0ba4d4	0.13637096
206	0xbdfc9cf1	-0.12334622
207	0x3c1d0933	0.009584713
208	0xbda88de9	-0.08230192
209	0xbd51282a	-0.051063694
210	0x3c2fe909	0.010736712
211	0xbd952694	-0.07282749
212	0x3ca7255e	0.02040356
213	0xbc796a91	-0.015223161
214	0xbd84627b	-0.06464096
215	0xbcd2ecbe	-0.025747653
216	0x3d88f9b2	0.066882506
217	0x3e9d4fe6	0.3072502
218	0xbd3fc2de	-0.0468167
219	0x3e2fd27f	0.17170142
220	0x3e1344f2	0.1438177
221	0xbe0340e4	-0.12817723
222	0x3e5f7c7d	0.21824832
223	0x3ce2a9eb	0.027668914
224	0x3d9f5858	0.07780522
225	0x3dd74d35	0.10512773
226	0x3dc2a608	0.09504324
227	0xbf0f494d	-0.55971223
228	0xbc0bb24d	-0.008526397
229	0xbc5c6742	-0.013452353
230	0xbef19686	-0.47185153
231	0xbe0079d8	-0.1254648
232	0xbe56aa2b	-0.20963351
233	0xc00d7e13	-2.21082
234	0xbeb7e7ce	-0.3591904
235	0x3d264e0e	0.040601783
236	0xbeb53003	-0.35388193
237	0xbd9e6a87	-0.07735162
238	0x3cd9fe1b	0.026610425
239	0xbb0844f4	-0.0020793052
240	0xbc656e00	-0.014003277
241	0xbeb7098e	-0.35749477
242	0xbee19313	-0.4405752
243	0x3f12d5ab	0.5735728
244	0x3ec4a60d	0.38407937
245	0xbe20c0c3	-0.15698533
246	0x3e171c2c	0.1475684
247	0x3da7ec41	0.08199359
248	0xbf1874ab	-0.5955302
249	0xbf5120c3	-0.81690615
250	0x3ebe9610	0.37223864
251	0x3da8ef06	0.08248715
252	0xbe8e3647	-0.27775785
253	0xbcb286dd	-0.021792823
254	0xbf27f8f4	-0.6561425
255	0xbf0ff21b	-0.562288

bias f4 [64]
0	0x3dadfb85	0.08495239
1	0xbd1b89fe	-0.037973396
2	0xbcb7e1e1	-0.022446575
3	0x3ee4aa88	0.44661355
4	0x3dafa8d6	0.08577125
5	0x3d59a3c6	0.053134702
6	0xbe03a467	-0.12855683
7	0x3e867873	0.2626377
8	0x3dff1f26	0.12457113
9	0x3e96e7a0	0.2947359
10	0x3e76c06c	0.2409684
11	0x3c244a42	0.01002747
12	0xbe926aab	-0.28597006
13	0xbdfab109	-0.12240798
14	0xbe8db91f	-0.276803
15	0x3e8f7526	0.28019065
16	0x3d5bc490	0.053654253
17	0x3ecf1e22	0.40452677
18	0xbd7eaaad	-0.062174488
19	0x3b442399	0.0029928444
20	0x3eb1338b	0.34609637
21	0xbdc96a75	-0.09834758
22	0xbcea981c	-0.028636985
23	0xbd5291cb	-0.05140857
24	0x3d935b35	0.07195131
25	0xbb8096ea	-0.0039242404
26	0xbb16a494	-0.002298628
27	0xbdd9fe91	-0.10644258
28	0x3d591478	0.052998036
29	0xbe390143	-0.18066888
30	0x3e17cdd9	0.14824618
31	0x3e951f62	0.29125506
32	0xbe02941d	-0.12751813
33	0xbdd305b2	-0.10303821
34	0x3e386928	0.18008864
35	0xbea4bdf4	-0.32176173
36	0x3d4ee309	0.050509486
37	0xbe6b3b43	-0.22971825
38	0xbdbea544	-0.09308866
39	0x3d5d2043	0.053985845
40	0x3e17a47a	0.14808837
41	0x3c197f0c	0.009368669
42	0xbd11587f	-0.035484787
43	0xbd84a788	-0.064772666
44	0xbdb8574a	-0.09001024
45	0xbd92ef4a	-0.07174547
46	0x3f054c65	0.52069694
47	0x3f09ecfc	0.53877234
48	0x3bfd5a1a	0.007731688
49	0x3ce9e48f	0.028551368
50	0x3d4f85b8	0.050664634
51	0xbd870e8e	-0.06594573
52	0x3d45fb5c	0.048335418
53	0xbda30060	-0.07959056
54	0xbd5aa255	-0.05337747
55	0x3d68bf39	0.05682299
56	0xbe870d8e	-0.2637753
57	0xbeb34e6f	-0.35020778
58	0xbd1fabba	-0.03898213
59	0xbd715b24	-0.05892481
60	0xbe2f85d8	-0.17140901
61	0xbba88e86	-0.0051439432
62	0x3e2f1dae	0.17101166
63	0xbdd491d4	-0.10379377

weight f4 [32, 64]
0	0xbd18cbf6	-0.037303887
1	0x3d9863df	0.07440924
2	0xbd47d4a0	-0.04878676
3	0xbe555c27	-0.20835935
4	0x3e858223	0.2607585
5	0x3c40f50b	0.011777173
6	0xbd30ec73	-0.043194246
7	0xbe0bebac	-0.1366412
8	0x3decd746	0.11564498
9	0x3d2e45e6	0.04254713
10	0xbd9ada02	-0.07561113
11	0x3e43a74b	0.19106786
12	0x3ec5d1a4	0.38636506
13	0x3e447723	0.19186072
14	0x3e4835bb	0.19551747
15	0x3e5e30b1	0.21698262
16	0x3e8ae193	0.27125224
17	0xbccc06c9	-0.02490558
18	0xbc91aa29	-0.017781334
19	0xbc3078e0	-0.010771006
20	0xbe46b883	-0.19406323
21	0xbd1718fc	-0.03688906
22	0xbe32876a	-0.17434469
23	0x3e89a8b9	0.26886538
24	0xbd3e5a65	-0.046472926
25	0xbee070f4	-0.43836176
26	0xbd852d4d	-0.06502781
27	0x3e068dc7	0.13140021
28	0xbcd0da27	-0.025494648
29	0xbd90caee	-0.07069956
30	0xbd92918e	-0.071566686
31	0x3e41fc82	0.1894398
32	0x3d5296fa	0.051413514
33	0xbe6c9721	-0.23104526
34	0x3e94f9f5	0.29096952
35	0x3e3b07e1	0.18264724
36	0x3daeccfa	0.0853519
37	0xbe3ab5fb	-0.18233483
38	0xbd54acd4	-0.051922634
39	0x3d82521e	0.06363319
40	0x3e52945a	0.20564404
41	0xbd9934df	-0.074807875
42	0x3d8077b3	0.06272831
43	0x3b8939be	0.0041877916
44	0x3cb96e1a	0.022635508
45	0xbdc091db	-0.0940282
46	0x3e0daa24	0.13834435
47	0x3d6f043f	0.05835366
48	0x3c4658bc	0.012106117
49	0x3dd73e36	0.10509913
50	0xbe961501	-0.293129
51	0xbe25aaa0	-0.1617837
52	0x3d259e23	0.040434014
53	0xbd15b6c0	-0.036551237
54	0xbde6960c	-0.11259088
55	0xbe0cecd5	-0.13762219
56	0xbe76f4fe	-0.24116895
57	0x3e9cf5aa	0.30656177
58	0x3e283be0	0.1642909
59	0xbcdb5ca4	-0.026777573
60	0x3de862b4	0.11346951
61	0x3d388cd6	0.045056187
62	0x3d05d63b	0.03267501
63	0x3e1dd936	0.1541489
64	0xbdb44271	-0.08801735
65	0xbde7a238	-0.11310238
66	0xbd499378	-0.049212903
67	0xbccdde20	-0.025130332
68	0xbddf3e85	-0.109005965
69	0x39a6dc6d	0.00031826217
70	0xbc898a49	-0.016789572
71	0x3db33a05	0.08751301
72	0xbcafd08a	-0.021461744
73	0x3d82a39f	0.063788645
74	0xbc757429	-0.014981308
75	0xbcf0f94c	-0.029415749
76	0x3cbd8f3c	0.023139589
77	0xbb2d3cab	-0.0026433866
78	0xbe0307be	-0.12795922
79	0xbd77fed7	-0.06054577
80	0x3ce65466	0.028116416
81	0x3d49ddd1	0.049283806
82	0x3d6b19d8	0.057397693
83	0xbdcdbaba	-0.10045381
84	0xbd40ce84	-0.04707195
85	0x3d8e74a8	0.06955844
86	0xbde5eefe	-0.11227225
87	0xbda2c1e9	-0.07947142
88	0x3da33d57	0.07970684
89	0xbcc9cc97	-0.024633689
90	0xbc1434b3	-0.009045768
91	0xbc6087b1	-0.013704226
92	0x3db50440	0.08838701
93	0xbdae9351	-0.08524192
94	0xbe18df6c	-0.14928979
95	0x3dc6a62c	0.096996635
96	0xbd9e28f7	-0.07722657
97	0xbdcb27d2	-0.099197045
98	0xbded9574	-0.116007715
99	0x3d59c4ec	0.053166315
100	0xbd115c49	-0.0354884
101	0xbdb8ec3f	-0.09029435
102	0xbd5b34f0	-0.053517282
103	0xbb83fbbb	-0.0040278113
104	0x3d4aafcd	0.049484063
105	0xbd646ef0	-0.05576986
106	0x3d863f6f	0.06555068
107	0xbdd006d1	-0.1015755
108	0xbd7f8804	-0.062385574
109	0x3d329a01	0.0436039
110	0xbde07b8e	-0.10961066
111	0xbe15308f	-0.14569305
112	0xbdb12eb6	-0.086514875
113	0x3dd14b62	0.10219456
114	0xbba83338	-0.005133059
115	0x3d29cfc2	0.0414579
116	0x3c16477a	0.009172315
117	0x3c9a9971	0.018871995
118	0x3d7b77af	0.061393436
119	0xbbf159b3	-0.0073654293
120	0x3d963070	0.073334575
121	0x3d46979f	0.04848444
122	0xbd7caae7	-0.061686423
123	0xbd7e56f4	-0.062094644
124	0x3dc5d5bf	0.096599095
125	0xbde18979	-0.11012549
126	0xbda7d586	-0.08195023
127	0x3ca3a291	0.019974979
128	0xbdc6a8bd	-0.09700153
129	0x3e76d433	0.24104385
130	0x3e32d4c6	0.17463979
131	0x3dd4b423	0.10385921
132	0x3e233a07	0.15940104
133	0x3d99a8c8	0.075028956
134	0x3bb897fb	0.005633352
135	0x3d8f944c	0.07010707
136	0x3e672e6f	0.22576307
137	0xbd0845bd	-0.033269633
138	0xbe6e08ae	-0.23245499
139	0x3e4e8c83	0.20170788
140	0x3b8aa1c7	0.004230711
141	0xbd54a026	-0.051910542
142	0x3e5ca879	0.21548642
143	0xbe8fc7cb	-0.28082117
144	0x3ebf9474	0.37417948
145	0xbdd24f7c	-0.10269067
146	0xbd9f950c	-0.077921
147	0x3e202af3	0.15641384
148	0x3e2b27a6	0.16714343
149	0xbe0a5a26	-0.13510951
150	0xbd26c34d	-0.040713597
151	0x3d7423c1	0.05960441
152	0xbdb7da8d	-0.08977232
153	0xbd3e9002	-0.046524055
154	0xbd9d8b38	-0.076925695
155	0x3ecda4b0	0.4016471
156	0xbdb7b2a6	-0.08969621
157	0xbdc64e07	-0.09682851
158	0x3e7184dc	0.23585838
159	0xbe9040ac	-0.2817434
160	0xbc621636	-0.013799241
161	0x3a1f599d	0.0006078722
162	0xbd997bcb	-0.07494315
163	0x3cb47867	0.022030069
164	0xbcb1b60d	-0.021693254
165	0xbe472133	-0.19446258
166	0xbb18be96	-0.0023306957
167	0xbe68bb68	-0.2272774
168	0xbdc8de2d	-0.09808002
169	0xbd9efb8c	-0.077628225
170	0xbd26a7cf	-0.04068738
171	0xbd589ac2	-0.052881964
172	0xbd9e9ec8	-0.07745129
173	0x3da6c44b	0.08142909
174	0x3d673dc4	0.05645539
175	0xbda5b33a	-0.080908254
176	0xbd1f649e	-0.038914315
177	0x3deadeba	0.11468263
178	0x3e9ce274	0.3064152
179	0x3ae483b3	0.0017434269
180	0x3d6fc4bd	0.058537234
181	0x3dba3150	0.09091437
182	0x3e028e8c	0.1274969
183	0x3e909b45	0.2824346
184	0xbddcba16	-0.107776806
185	0x3ea6db50	0.32589197
186	0x3d7b9e48	0.061430246
187	0x3d4ed2f5	0.050494153
188	0xbe252721	-0.16128208
189	0xbc6adc2d	-0.014334721
190	0xbda19a71	-0.078907855
191	0xbe000429	-0.12501587
192	0xbc39ed67	-0.011348105
193	0xbc6de03b	-0.014518793
194	0x3e8530b8	0.26013732
195	0x3d9aa49b	0.07550927
196	0xbda559fe	-0.08073805
197	0x3d1268e0	0.035744548
198	0xbe13926c	-0.14411324
199	0x3e4a71fb	0.19770043
200	0x3dacf0e1	0.084443815
201	0x3eca56e4	0.39519417
202	0xbdcb2944	-0.0991998
203	0x3df4abc5	0.11946825
204	0x3ddf1b9d	0.10893939
205	0x3d883568	0.066508114
206	0xbba4232f	-0.005009077
207	0xbda3a714	-0.07990852
208	0xbe6fb219	-0.23407783
209	0x3dbce13f	0.0922265
210	0xbd194404	-0.03741838
211	0xbe7dc140	-0.2478075
212	0x3ceab55f	0.028650938
213	0xbdb42a51	-0.08797134
214	0x3c362270	0.011116609
215	0xbe2d777b	-0.1694011
216	0xbe651723	-0.22372107
217	0xbd38e0e5	-0.04513635
218	0x3cce6a9f	0.025197325
219	0x3e2750a1	0.16339351
220	0xba30a056	-0.0006737759
221	0x39913d9e	0.00027702464
222	0xbe8b085a	-0.2715481
223	0x3db5b528	0.088724434
224	0xbd664856	-0.05622133
225	0x3e3eda3e	0.1863794
226	0xbdbd5f8b	-0.09246739
227	0x3d982aac	0.07430014
228	0xbd9be8a6	-0.076127335
229	0xb98e14bb	-0.00027099796
230	0x3c3de77a	0.011590833
231	0x3f039db7	0.5141253
232	0xbda64f50	-0.081205964
233	0x3e0d2b19	0.13785972
234	0xbd98838a	-0.07446964
235	0xbc81b314	-0.015832461
236	0xbd2b7b3c	-0.041865572
237	0xbd5d70d7	-0.05406269
238	0xbd599622	-0.053121693
239	0x3e85c40c	0.26126134
240	0xbd5ad757	-0.05342802
241	0xbd23a650	-0.03995353
242	0x3ddadcc8	0.10686642
243	0x3e2dbddf	0.16966961
244	0x3dbb70da	0.09152384
245	0x3cb3b08b	0.021934768
246	0x3eb11b01	0.34590915
247	0xbd8112e3	-0.063024305
248	0xbe23eda7	-0.16008626
249	0xbe0e0308	-0.13868344
250	0x3d47e4fb	0.048802357
251	0x3d3dc06f	0.046326097
252	0x3dc2ff25	0.09521321
253	0x3e18bc28	0.14915526
254	0x3e138cd1	0.14409186
255	0xbd87b937	-0.06627124

bias f4 [32]
0	0xbe072093	-0.1319602
1	0x3c0133d0	0.007885888
2	0x3e947e2e	0.29002517
3	0x3ee7ce8d	0.45274773
4	0x3db99736	0.09062044
5	0xbdd1ac66	-0.102379605
6	0xbdd0de5e	-0.10198663
7	0xbeabb294	-0.33534682
8	0x3d4a6132	0.0494091
9	0xbef31061	-0.47473434
10	0xbf13003f	-0.5742225
11	0x3f1e13f5	0.617492
12	0x3f00568a	0.5013205
13	0xbd116281	-0.03549433
14	0x3dd57073	0.104218386
15	0x3d924826	0.071426675
16	0xbe4a608f	-0.19763397
17	0x3f103939	0.56337315
18	0x3dfaa540	0.1223855
19	0xbe0921bd	-0.13391776
20	0xbc0e1a44	-0.008673254
21	0x3d59807d	0.05310105
22	0xbc85d9c6	-0.016339194
23	0x3d435faf	0.047698673
24	0xbe2df625	-0.16988428
25	0x3f125d09	0.5717321
26	0xbd5903e8	-0.05298224
27	0x3ee8a3f8	0.45437598
28	0x3ceca5cd	0.028887654
29	0x3c59addc	0.01328608
30	0x3eb4e48a	0.3533061
31	0xbd52cf0a	-0.05146698

weight f4 [64, 32]
0	0xba974e1d	-0.0011543665
1	0x3da5809c	0.08081171
2	0x3d5e36f7	0.054251637
3	0x3d8cacd6	0.06868903
4	0x3ccbc40a	0.024873752
5	0x3e0e601a	0.13903847
6	0xbb8b82ba	-0.004257527
7	0x3e07acd1	0.13249518
8	0x3dd62107	0.10455518
9	0x3cfb080a	0.030643482
10	0x3dfc4c16	0.123192
11	0xbdbb3a60	-0.091419935
12	0xbe4028a1	-0.18765499
13	0xbe195d13	-0.14976911
14	0xbb387e78	-0.0028151553
15	0xbdb7dc68	-0.08977586
16	0x3d4b015b	0.04956184
17	0xbc19119d	-0.009342578
18	0xbd1892a3	-0.03724922
19	0xbe4d2fe1	-0.20037796
20	0x3c6d8e5d	0.014499274
21	0x3a36c712	0.0006972413
22	0xbce3f04a	-0.02782454
23	0xbddc5797	-0.10758894
24	0x3d3bc5dc	0.04584299
25	0xbe1eeae3	-0.1551929
26	0x3e01ac4e	0.12663385
27	0x3d9b7320	0.07590318
28	0xbe2e405e	-0.17016742
29	0xbe1a093d	-0.15042587
30	0xbe409b1f	-0.18809174
31	0xbdea5d76	-0.114436075
32	0x3ec1324e	0.37733692
33	0x3dcc9666	0.09989624
34	0x3e6028e1	0.21890594
35	0x3e45e3a4	0.1932512
36	0x3dc5c4be	0.09656666
37	0x3e28ab6e	0.16471645
38	0xbdcd3d25	-0.10021428
39	0x3e037460	0.12837362
40	0xbe4ce674	-0.20009786
41	0x3d6a433d	0.05719303
42	0x3ea01e2c	0.3127302
43	0xbca8bb65	-0.02059717
44	0x3da1b7e2	0.07896401
45	0xbe3e369e	-0.18575522
46	0xbe424b8a	-0.18974128
47	0xbdc42366	-0.09577064
48	0x3e1fb042	0.15594581
49	0xbeaf5c5c	-0.34250152
50	0xbd884d97	-0.06655424
51	0x3e2a2a74	0.16617757
52	0xbd39238a	-0.04519991
53	0xbe49bee3	-0.19701724
54	0x3e668700	0.22512436
55	0x3d54c6d0	0.051947415
56	0xbe99ed4c	-0.30063856
57	0x3e3ada9d	0.18247457
58	0x3e0f36b9	0.13985719
59	0x3eaf3208	0.34217858
60	0xbde108a3	-0.109879754
61	0xbdc0143d	-0.0937886
62	0xbd9e9278	-0.077427804
63	0x3ccea09c	0.025223069
64	0x3db3351e	0.08750366
65	0x3e0aa3ab	0.13538997
66	0x3e138f31	0.14410092
67	0xbe5133c2	-0.204299
68	0x3e069e14	0.1314624
69	0x3e4042cc	0.18775481
70	0x39b8c5ef	0.00035242687
71	0x3ddd6e27	0.108120255
72	0xbd27e889	-0.040993247
73	0x3e00ee05	0.12590797
74	0x3e1c8e92	0.15288761
75	0x3e0d6c7c	0.13810915
76	0xbd84b251	-0.06479324
77	0xbd261bc4	-0.040553823
78	0xbd52cdbf	-0.051465746
79	0xbc5430e2	-0.012951108
80	0xbbdc8c4f	-0.0067305933
81	0xbdb86a44	-0.090046436
82	0xbe2dfb62	-0.16990426
83	0x3da21343	0.0791383
84	0x3cdaa9cb	0.026692292
85	0xbdf993c6	-0.12186389
86	0xbe7c5b1e	-0.24644133
87	0x3ee4b1ac	0.44666803
88	0x3d6d1ed3	0.057890724
89	0x3e0fca5a	0.14042035
90	0x3e06c0f4	0.13159543
91	0xbd3cdb91	-0.046107832
92	0x3d654390	0.055972636
93	0xbe088c55	-0.13334782
94	0x3d53ac40	0.051677942
95	0x3ccd58ea	0.025066812
96	0xbb3c9cd4	-0.002878
97	0x3d8ceff4	0.06881705
98	0x3cef75dd	0.029231006
99	0xbb94d39e	-0.0045418283
100	0x3e4b967f	0.19881628
101	0x3c2d30a8	0.010570683
102	0x3e6d0150	0.23145032
103	0x3d379600	0.044820786
104	0xbc5a5cae	-0.013327761
105	0xbd16a98b	-0.036782783
106	0x3e5ae442	0.21376136
107	0xbe0ce636	-0.13759694
108	0x3eaa78a1	0.33295158
109	0xbe4c20a8	-0.19934332
110	0xbe70cd74	-0.23515874
111	0xbe9d6b5c	-0.3074597
112	0x3c9af718	0.018916652
113	0x3e86987c	0.2628821
114	0xbca0a970	-0.019612044
115	0x3e860148	0.26172853
116	0x3d80a57d	0.062815644
117	0x3e293a1f	0.16526078
118	0x3e46fee4	0.1943317
119	0xbd35518a	-0.044267215
120	0x3e0e3e56	0.13890967
121	0xbd745c09	-0.059658084
122	0x3db46ed2	0.088102
123	0x3c540626	0.012940919
124	0xbb144a00	-0.0022627115
125	0x3db79a97	0.089650325
126	0x3de0484e	0.10951291
127	0x3d537404	0.051624313
128	0xbe12fdc2	-0.14354613
129	0xbe2f955d	-0.17146821
130	0xbe6a5820	-0.2288518
131	0xbd1b94ff	-0.03798389
132	0x3d410444	0.04712321
133	0x3d637b0f	0.05553728
134	0xbda63eab	-0.08117422
135	0x3e864efa	0.2623213
136	0x3cfb3c1a	0.030668307
137	0x3e59b3fa	0.21260062
138	0x3e5a5b95	0.21323998
139	0xbe5b5309	-0.21418394
140	0xbe782012	-0.24230984
141	0x3e613eb8	0.21996582
142	0x3d992c6b	0.07479175
143	0x3ebbf03d	0.36706725
144	0x3e81e0ee	0.2536692
145	0x3e724ce5	0.23662145
146	0x3ea8d40c	0.3297428
147	0x3c13a8c6	0.009012407
148	0xbe093132	-0.13397673
149	0xbe0ae7ab	-0.13564937
150	0x3e811d27	0.25217554
151	0xbbe5e11e	-0.0070153615
152	0xbe593a77	-0.21213709
153	0x3d38d73f	0.04512715
154	0xbdb19e9f	-0.08672833
155	0xbe4f5e99	-0.2025093
156	0x3ebf07bb	0.37310585
157	0x3df148c7	0.11781459
158	0x3db8999c	0.09013674
159	0xbcc1597f	-0.023602245
160	0x3dabd207	0.08389669
161	0xbe27ee7d	-0.1639957
162	0xbe8a733a	-0.27041036
163	0x3dafd536	0.08585589
164	0x3e3ae3e2	0.18250993
165	0xbe2fa47a	-0.17152587
166	0x3da24a64	0.07924345
167	0x3ddc652c	0.107614845
168	0xbdea72c2	-0.114476696
169	0x3d029bff	0.03188705
170	0xbe88a79f	-0.26690385
171	0xbd29bf20	-0.041442037
172	0x3dad04ab	0.08448156
173	0x3e20d613	0.15706663
174	0x3d6f0920	0.05835831
175	0xbe09d7fe	-0.134613
176	0x3e43e94e	0.19131967
177	0x3e5ff1a6	0.21869525
178	0x3df02a16	0.11726777
179	0xbe22adb2	-0.15886572
180	0xbe028d36	-0.1274918
181	0xbe19b7a7	-0.15011464
182	0xbc3505f7	-0.011048785
183	0x3e3c9b49	0.18418612
184	0xbe99e04b	-0.30053934
185	0xbe40d7f4	-0.1883238
186	0x3c9d8989	0.019230621
187	0xbd81dba5	-0.06340722
188	0x3d8f574f	0.06999075
189	0x3d929669	0.07157595
190	0x3ed7f196	0.42176503
191	0x3e8a5eca	0.27025443
192	0x3e213229	0.15741791
193	0xbc78b6cb	-0.0151803
194	0xbe453df5	-0.19261916
195	0x3e4e1e95	0.20128854
196	0xbe988fa0	-0.29797077
197	0xbdfdf1e9	-0.12399656
198	0x3df5509a	0.11978264
199	0x3e52fdc3	0.20604615
200	0x3cb8241d	0.022478158
201	0xbece28bb	-0.4026545
202	0x3ddf311b	0.10898038
203	0x3e31addc	0.17351478
204	0xbd5e9657	-0.054342594
205	0xbdd37b63	-0.103262685
206	0xbd5611df	-0.052263137
207	0x3de8d60b	0.113689505
208	0x3e510f28	0.20415938
209	0x3d8d0065	0.06884841
210	0x3e3bf194	0.18353873
211	0x3e88bb06	0.26705188
212	0x3df44e6e	0.11929022
213	0xbe98e811	-0.29864553
214	0xbe7ca6c5	-0.24672993
215	0x3dbafe74	0.09130564
216	0x3e804e6c	0.2505983
217	0x3d6f71fd	0.058458317
218	0xbe191737	-0.14950262
219	0x3c4ce305	0.012505298
220	0xbdaace3e	-0.08340119
221	0xbd415eda	-0.047209598
222	0x3e8a74d7	0.27042267
223	0xba199056	-0.00058579945
224	0xbe00a328	-0.12562239
225	0xbdcf2cf7	-0.10115998
226	0x3d80aed9	0.062833495
227	0x3ec979e6	0.39350814
228	0xbe366278	-0.17811
229	0x3d96004a	0.07324274
230	0x3d84d50f	0.0648595
231	0xbd14cd1e	-0.036328427
232	0xbe3ac01b	-0.18237345
233	0xbe1346ff	-0.14382552
234	0xbe0ff4e0	-0.14058256
235	0x3e10d7a9	0.14144768
236	0x3db4472e	0.08802639
237	0xbe1f3353	-0.15546922
238	0x3d7eb943	0.062188398
239	0xbb6f9429	-0.0036556816
240	0x3e36400f	0.17797874
241	0x3e8353b4	0.25649798
242	0x3e8f95e6	0.2804405
243	0x3e8d7980	0.2763176
244	0x3d71aced	0.059002806
245	0xbe09b09d	-0.13446279
246	0xbdb84d34	-0.089991
247	0xbcd18a2b	-0.025578579
248	0x3c872422	0.016496722
249	0x3db8f51e	0.090311274
250	0x3c0af3a5	0.008480941
251	0xbe298966	-0.1655632
252	0xbd5fecd7	-0.054669227
253	0xbdd3b017	-0.10336321
254	0xbe7803d2	-0.24220207
255	0xbc265029	-0.010150948

bias f4 [64]
0	0xbdcd5eab	-0.10027822
1	0xbda98298	-0.08276862
2	0x3e4b48ae	0.19851944
3	0x3e57752c	0.21040791
4	0xbf27725f	-0.6540889
5	0x3f0aa608	0.54159594
6	0x3e309df8	0.1724776
7	0x3eaa9465	0.3331634
8	0x3eedc872	0.4644199
9	0x3f3e2923	0.7428152
10	0x3dfd1fd1	0.12359584
11	0x3ec0352f	0.37540576
12	0x3ebeaeca	0.37242728
13	0x3ef87ae2	0.48531252
14	0xbe6e377d	-0.23263355
15	0x3d9599a3	0.073046945
16	0xbe070da8	-0.13188803
17	0x3f967c20	1.175663
18	0xbda27fb9	-0.079345174
19	0x3e82ea60	0.2556944
20	0x3f196724	0.59923005
21	0xbe95f853	-0.2929102
22	0x3ceb354f	0.028711943
23	0xbe997ba1	-0.29977134
24	0x3ecb3834	0.39691317
25	0x3dc5be0a	0.09655388
26	0x3ecc3f4d	0.39892045
27	0x3ef7a32a	0.48366672
28	0x3d88d89a	0.066819385
29	0xbd8e9cd9	-0.0696351
30	0x3ef1717e	0.471569
31	0x3f611ab7	0.8793139
32	0xbe72cb91	-0.23710467
33	0xbdde12f3	-0.10843458
34	0xbb59aa0e	-0.0033212933
35	0x3dd22c8d	0.10262404
36	0x3f42acf5	0.7604516
37	0xbffc0c86	-1.9691322
38	0xbf363ff4	-0.71191335
39	0x3d4e7170	0.05040115
40	0x3f4bd771	0.7962561
41	0x3f12575e	0.5716456
42	0x3e8e600e	0.2780766
43	0xbd42236e	-0.04739707
44	0xbee6055c	-0.44925964
45	0x3eeed403	0.46646127
46	0x3d71d3c5	0.05903985
47	0xbd526602	-0.051366813
48	0x3de4f273	0.11179056
49	0xbc7cad29	-0.015422144
50	0x3d3ba0c3	0.04580761
51	0xbd265d1f	-0.04061615
52	0xbcb3f8b1	-0.021969171
53	0x3d94218c	0.07232961
54	0xbf301820	-0.6878681
55	0x3ed18fa5	0.40929905
56	0x3efdc802	0.49566656
57	0xbe4c64f7	-0.1996039
58	0x3d4143c4	0.047183767
59	0x3f08e6f6	0.5347742
60	0xbd1bebb2	-0.038066573
61	0xbd583cf4	-0.052792504
62	0x3ef954d2	0.48697525
63	0xbde19315	-0.11014382
