AE Models/4lat2.106loss.pth (torch, 116162 bytes, 27 tensors)

weight f4 [16, 1, 4]
0	0xbd9392b8	-0.07205719
1	0xbeb8d7a2	-0.36102015
2	0xbe5261f8	-0.20545185
3	0xbe96774a	-0.29387885
4	0x3db92675	0.09040538
5	0x3bdfe4e3	0.0068327053
6	0x3d802f66	0.062590405
7	0xbd4860e2	-0.04892052
8	0xbe0dc979	-0.13846387
9	0xbd2230d9	-0.039597366
10	0x3da4f8c2	0.08055259
11	0x3dc4ae07	0.096035056
12	0x3df5bcff	0.11998939
13	0xbe24f6c5	-0.1610976
14	0xbd97600f	-0.073913686
15	0xbe2336b1	-0.15938832
16	0x3d83ce55	0.06435839
17	0x3d293ba7	0.041316655
18	0x3d5bdbb1	0.05367631
19	0x3d4bb3b7	0.049731936
20	0xbe07699c	-0.1322388
21	0xbe8fdf1a	-0.280999
22	0xbe58e6f0	-0.21181846
23	0xbe2918d4	-0.16513377
24	0xbd4f0f2d	-0.050551582
25	0xbcf6f9be	-0.030148383
26	0xbd53e2d6	-0.05173
27	0x3d829274	0.0637559
28	0x3e3dca70	0.18534255
29	0xbd0a9821	-0.033836488
30	0x39caaf40	0.00038659014
31	0xbe35baff	-0.17747115
32	0x3e4ff356	0.20307669
33	0xbd9fadcf	-0.07796823
34	0x3d86d745	0.06584028
35	0xbf28341b	-0.65704507
36	0xbe348674	-0.17629415
37	0x3ad4e15c	0.0016241479
38	0xbe12271f	-0.14272736
39	0x3ddcb1af	0.10776078
40	0x3d1f165e	0.03883969
41	0x3d83d55d	0.0643718
42	0x3d9dd21e	0.07706092
43	0x3d71b28a	0.05900816
44	0xbd561c38	-0.052273005
45	0x3c99e162	0.018784229
46	0x3e02eb08	0.1278497
47	0xbe09b5b6	-0.13448223
48	0xbc3b5168	-0.011432983
49	0x3deeae86	0.116543815
50	0x3d1c9da8	0.03823629
51	0x3d12f0c3	0.03587414
52	0xbda70f6b	-0.081572376
53	0x3d6552f1	0.055987302
54	0x3cc8996e	0.024487223
55	0x3deb949a	0.11502953
56	0x3e5dfc9c	0.21678394
57	0xbcc17011	-0.023613008
58	0x3b0258ba	0.001988931
59	0xbe375f24	-0.17907387
60	0xbe14aa40	-0.1451807
61	0x3dbb2473	0.091378115
62	0xbe420fe7	-0.18951379
63	0x3e6499a0	0.22324228

bias f4 [16]
0	0xbde87f40	-0.11352396
1	0xbbfdde52	-0.00774745
2	0xbe25f9b9	-0.16208543
3	0x3f0863d2	0.53277314
4	0xbfd26fe6	-1.6440399
5	0xbefffc24	-0.49997056
6	0x3f2d42bc	0.67679954
7	0x3dc5d4ff	0.096597664
8	0xbfa863c5	-1.3155447
9	0x3f410722	0.7540151
10	0xbc94268f	-0.018084792
11	0x3e7f4f99	0.24932708
12	0xbf4aa952	-0.7916461
13	0xbe4db53b	-0.20088665
14	0xbfd74edf	-1.6820945
15	0x3d67188e	0.0564199

weight f4 [16, 16, 4]
0	0x3de5ee06	0.1122704
1	0x3d2d0ae4	0.042246714
2	0x3dc7a03a	0.09747358
3	0xbcd9ebe0	-0.026601732
4	0x3d824d62	0.06362416
5	0x3d4716ec	0.048605844
6	0x3cd48cac	0.025945984
7	0x3d9da35c	0.07697174
8	0xbe5e6fe2	-0.21722367
9	0x3d8121e0	0.06305289
10	0xbd53f6e1	-0.051749114
11	0xbd944417	-0.072395496
12	0x3e1e7b9d	0.15476842
13	0xbe34866c	-0.17629403
14	0x3d842f76	0.06454365
15	0x3cea82e7	0.028626872
16	0x3dcc5930	0.09977949
17	0x3e014e5f	0.12627552
18	0xbeaf6cd3	-0.34262714
19	0x3d6d5f58	0.057952255
20	0xbd0813bc	-0.033221945
21	0xbdea84e6	-0.114511296
22	0xbd1ca964	-0.03824748
23	0x3de181b8	0.1101107
24	0x3d814a65	0.06313018
25	0x3d3033e7	0.043018248
26	0x3be32bfe	0.0069327345
27	0x3e2fa909	0.17154326
28	0x39394361	0.00017668075
29	0xbdbb9fab	-0.091613136
30	0x3d3460b5	0.04403754
31	0x3e01acea	0.12663618
32	0x3e765038	0.24054039
33	0x3e4f7085	0.20257767
34	0xbda0e3d4	-0.07855955
35	0xbe488788	-0.19582951
36	0xbd17a64e	-0.037023835
37	0xbe0910f1	-0.13385369
38	0xbd636326	-0.055514477
39	0xbb62e582	-0.003462166
40	0x3e6364e5	0.22206457
41	0xbcfa2b19	-0.030538129
42	0xbe39f59d	-0.181601
43	0xbe13c73d	-0.14431472
44	0x3d4b0248	0.049562722
45	0xbd53ede1	-0.05174053
46	0xbda93153	-0.08261361
47	0x3e10401a	0.14086953
48	0xbda04779	-0.07826132
49	0xbe756f16	-0.23968157
50	0xbde944c0	-0.11390066
51	0x3da63487	0.081154875
52	0xbb6aa7e9	-0.0035805649
53	0x3d2a05a5	0.04150929
54	0xbd918f24	-0.0710738
55	0xbdaf3a16	-0.08556001
56	0x3d5248d8	0.051339
57	0x3e1753fa	0.14778128
58	0xbd1f8ef8	-0.038954705
59	0x3d1a224f	0.037630375
60	0xbd11b4bc	-0.035572752
61	0xbc09f3d8	-0.008419953
62	0x3ca9a333	0.020707702
63	0xbded4e4e	-0.11587201
64	0xbdb4c5ea	-0.088268116
65	0x3da22998	0.0791809
66	0x3c9904f8	0.018679127
67	0xbd8f0896	-0.069840595
68	0xbeb8a115	-0.36060396
69	0x3e236f2b	0.15960376
70	0x3d32f9d7	0.043695297
71	0xbcb12f5f	-0.021629034
72	0xbdd1c063	-0.10241773
73	0x3d7b3a2e	0.06133478
74	0x3e15e882	0.14639476
75	0x3e4f9a2c	0.20273656
76	0x3ea00680	0.3125496
77	0x3e515eab	0.20446269
78	0xbf809d4c	-1.0048003
79	0x3e52896d	0.20560236
80	0xbea3a471	-0.31961396
81	0xbeaa4c4c	-0.33261335
82	0x3e50bcd5	0.20384534
83	0x3e21010a	0.15723053
84	0x3d929ec8	0.07159191
85	0x3dfa764c	0.122295946
86	0x3dd6ed0e	0.10494433
87	0x3ab7f300	0.0014034212
88	0xbd8ce1bf	-0.06878995
89	0xbd0056e5	-0.03133287
90	0xbe257f12	-0.16161755
91	0x3eb0b992	0.3451658
92	0xbd5a69fd	-0.053323735
93	0xbec7cafb	-0.3902205
94	0xbd5a4dfd	-0.05329703
95	0x3cbbf94e	0.022946026
96	0x3ec2d2cc	0.3805145
97	0x3e840a82	0.25789267
98	0xbe2b8853	-0.16751222
99	0x3f06b074	0.52612996
100	0x3e2c6c1d	0.16838117
101	0xbd252711	-0.04032046
102	0xbcd018a4	-0.025402375
103	0x3dee6521	0.116403826
104	0xbe9d5fb0	-0.30737066
105	0xbdd57ea0	-0.104245424
106	0xbceb9f00	-0.02876234
107	0x3db63e3e	0.088985905
108	0xbe9965c8	-0.29960465
109	0xbd793018	-0.06083688
110	0xbdbd6dbd	-0.092494465
111	0x3e07338d	0.13203259
112	0xbd7d56db	-0.06185041
113	0xbf00e9d5	-0.503568
114	0x3c65af38	0.014018826
115	0x3e4385c3	0.19093995
116	0xbbc3d19a	-0.005975914
117	0xbde8fcc6	-0.11376338
118	0x3e3624f7	0.17787538
119	0x3d1ab127	0.037766602
120	0x3e344d28	0.17607558
121	0x3f180d4b	0.59395283
122	0xbee4c87b	-0.44684204
123	0x3e88562e	0.2662825
124	0x3e9cc665	0.30620113
125	0x3e0fc744	0.14040858
126	0x3bd2ec8f	0.0064368914
127	0xbd8c1f98	-0.068419635
128	0x3cb3ac08	0.021932617
129	0x3d2d40e0	0.042298198
130	0x3d8fd922	0.07023837
131	0x3d4af6b0	0.049551666
132	0x3d8a2ee3	0.06747224
133	0x3d6002aa	0.05469004
134	0xbc0c7bff	-0.008574485
135	0x3d0c088e	0.034187846
136	0x3d78a4e1	0.060704116
137	0x3da685d0	0.081309915
138	0x3d94c36f	0.072638385
139	0xbdbe40d7	-0.09289711
140	0x3d861529	0.06547005
141	0x3d7285b4	0.05920954
142	0xbcbf1961	-0.023327531
143	0xbd6b2b04	-0.05741407
144	0xbd386794	-0.045020655
145	0xbc3f30a6	-0.011669314
146	0xbdeee330	-0.11664426
147	0x3da0ba7f	0.07848071
148	0xbbb5a260	-0.0055430382
149	0xbcaf6010	-0.02140811
150	0xbd09e100	-0.033661842
151	0x3d3f02b0	0.046633422
152	0xbc944f43	-0.018104201
153	0xbd89c8cd	-0.06727753
154	0x3d2adf67	0.04171696
155	0x3e8cfaa5	0.27534977
156	0xbccacd59	-0.02475612
157	0xbd922996	-0.07136838
158	0xbd016ad5	-0.031596024
159	0xbc33c8c1	-0.010973156
160	0xbdc0aa6a	-0.09407504
161	0xbe1ee22e	-0.15515968
162	0x3e2b9809	0.16757216
163	0x3e8e5a1f	0.27803132
164	0xbd54eba2	-0.05198253
165	0xbe1258fa	-0.14291754
166	0xbcea3167	-0.02858801
167	0x3e1104c2	0.14161971
168	0x3e80dd76	0.2516896
169	0x3ca65ca9	0.020307856
170	0x3e13f915	0.14450486
171	0x3e27581c	0.16342205
172	0x3aac5beb	0.0013149952
173	0xbbc439e3	-0.005988346
174	0xbdb6b8b6	-0.089219496
175	0xbe0e2255	-0.13880284
176	0xbd392f96	-0.045211397
177	0x3d326558	0.04355368
178	0x3dea75d8	0.11448258
179	0xbcd9e624	-0.026598997
180	0xbbd08d60	-0.0063645095
181	0x3dbcdc53	0.09221711
182	0x3e110451	0.14161803
183	0x3d14fb1a	0.03637228
184	0xbda93a41	-0.08263064
185	0xbdb3ddc9	-0.087825365
186	0x3c8cf458	0.017206356
187	0x3cee4dbb	0.0290898
188	0xbd367410	-0.04454428
189	0xbb88f086	-0.0041790633
190	0x3be0bf59	0.006858748
191	0xbd5eda90	-0.054407656
192	0xbcf792a8	-0.030221298
193	0xbd040fac	-0.03224151
194	0xbd73f57c	-0.059560284
195	0xbd3c2080	-0.045929432
196	0x3e6b8869	0.23001255
197	0x3d9eec86	0.07759957
198	0x3e66064c	0.2246334
199	0xbe4d3041	-0.20037939
200	0xbd9dcfa3	-0.07705619
201	0xbe1ea2fc	-0.15491861
202	0x3d40b968	0.047051817
203	0x3b8b10d6	0.0042439504
204	0xbddf96d1	-0.10917438
205	0xbe403937	-0.18771826
206	0x3cf4ccb1	0.02988276
207	0x3db01ceb	0.08599266
208	0x3e675ef9	0.22594823
209	0x3c950351	0.018190058
210	0xbc3aff0e	-0.011413349
211	0x3d0cea75	0.034403283
212	0xbb944b60	-0.004525587
213	0x3d3d789c	0.0462576
214	0xbdd38be4	-0.103294164
215	0x3cee48a0	0.029087365
216	0x3ca33bdc	0.019926004
217	0x3d2a1d4b	0.041531842
218	0x3d8077ad	0.06272826
219	0xbe12d21a	-0.1433796
220	0x3c0f1570	0.008733138
221	0x3d0cf8c9	0.034416948
222	0xbdbd8128	-0.0925315
223	0xbe344097	-0.17602764
224	0xbda24249	-0.07922799
225	0x3d71e8ce	0.05905991
226	0x3d9027df	0.07038855
227	0x3dbb60be	0.091493115
228	0x3e424b3b	0.1897401
229	0x3e0d5de4	0.13805348
230	0x3e628f03	0.22124867
231	0x3cecbdac	0.028899036
232	0x3e0b9ae4	0.13633305
233	0x3ddabf3f	0.106810085
234	0x3e7dcc28	0.2478491
235	0x3d52242f	0.05130404
236	0xbd364357	-0.044497814
237	0x3c9c5e7c	0.019088022
238	0x3e0291e5	0.12750967
239	0x3db68480	0.08911991
240	0x3d23b093	0.039963316
241	0x3d6c34c2	0.0576675
242	0x3df6ce6c	0.120510906
243	0x3d23d462	0.039997466
244	0xbd293cab	-0.041317623
245	0x3d1a03ac	0.037601158
246	0x3cf419f8	0.02979754
247	0x3d5bba62	0.053644545
248	0xbdba3212	-0.090915814
249	0x3d897e4a	0.06713541
250	0x3d8dc45d	0.06922219
251	0x3d0811b5	0.03322001
252	0xbd830a6c	-0.06398472
253	0xbd7941ec	-0.060853884
254	0xbe125f60	-0.14294195
255	0x3c67c409	0.0141458595

bias f4 [16]
0	0x3f366ff9	0.71264607
1	0xbe5c6fb8	-0.21526992
2	0xbda88931	-0.08229292
3	0xbeb01fa5	-0.34399143
4	0xbf13d27c	-0.5774305
5	0xbeba3ba6	-0.36373633
6	0x3f0166f2	0.5054771
7	0x3e2aef2d	0.16692801
8	0x3d71f31c	0.059069738
9	0x3f07624d	0.5288437
10	0x3e06a512	0.13148907
11	0x3e9238d0	0.2855897
12	0xbefd7057	-0.4949977
13	0xbda457f6	-0.0802459
14	0xbe090645	-0.13381298
15	0xbf4be9c0	-0.7965355

weight f4 [16, 16, 5]
0	0x3d83361b	0.06406804
1	0xbe281fdd	-0.16418405
2	0xbd915140	-0.07095575
3	0xbbc456c0	-0.0059917867
4	0x3d20441a	0.039127447
5	0x3d895693	0.06705966
6	0x3b33831f	0.0027391387
7	0xbd22688e	-0.039650492
8	0xbbbb5d63	-0.0057179197
9	0xbdbd9d5a	-0.09258528
10	0xbdaed421	-0.08536554
11	0x3cdc596c	0.026898108
12	0xbdef5698	-0.11686438
13	0x3d99dec7	0.075131945
14	0x3c9d3b4b	0.019193312
15	0xbd2a8471	-0.041630212
16	0x3cde6df1	0.027152034
17	0x3c641a1c	0.013922241
18	0xbd9fda0d	-0.07805262
19	0x3d62d24b	0.055376332
20	0x3c8a728c	0.016900323
21	0xbdaeefcd	-0.08541832
22	0x3daa8521	0.083261736
23	0xbdc1a32b	-0.0945495
24	0xbe06ecda	-0.13176289
25	0xbd980175	-0.07422153
26	0xbcf7a8f4	-0.03023193
27	0x3d76ff0b	0.06030182
28	0x3d749542	0.059712656
29	0xbe1fa081	-0.15588571
30	0xbd2011a8	-0.03907934
31	0xbdde86aa	-0.10865529
32	0xbdc41289	-0.09573848
33	0xbda18945	-0.0788751
34	0xbdbe3bc5	-0.09288744
35	0xbdc3c637	-0.09559291
36	0xbe0a1b4f	-0.1348698
37	0xbd6d6bd2	-0.057964154
38	0xbda7006d	-0.08154378
39	0xbe5a1635	-0.21297534
40	0x3d9acddb	0.07558795
41	0x3db8bf1f	0.090208285
42	0x3d5aa1e6	0.053377055
43	0x3bfd5791	0.007731386
44	0x3c950796	0.018192094
45	0xbe0ea1e8	-0.1392895
46	0xbd3b587e	-0.04573869
47	0xbd82d415	-0.06388108
48	0xbe23b477	-0.1598681
49	0xbd54e0d0	-0.05197221
50	0xbd64a649	-0.055822644
51	0xbcee0026	-0.029052805
52	0x3d015d8a	0.031583346
53	0x3d3f3d34	0.046689227
54	0xbc49b4bb	-0.012311156
55	0xbd74a613	-0.059728693
56	0x3be2e2eb	0.0069240234
57	0xbe11977c	-0.14217943
58	0xbdaea55d	-0.08527634
59	0xbd30827a	-0.043093182
60	0xbdd07e6b	-0.10180362
61	0x3d86e3b7	0.06586402
62	0xbdc02b92	-0.093833104
63	0xbda3e686	-0.08002953
64	0xbe2b152f	-0.167073
65	0xbd951a5f	-0.072804205
66	0x3d0d7295	0.034533102
67	0xbdaf5963	-0.08561971
68	0x3dca5c8f	0.098809354
69	0x3c15eabf	0.009150206
70	0xbdd9ff24	-0.10644367
71	0x3d91e8f7	0.07124513
72	0x3d0c418c	0.034242198
73	0x3d19196c	0.03737776
74	0xbda0b823	-0.07847621
75	0x3cf79693	0.030223167
76	0xbbd506b7	-0.0065010446
77	0xbd4922f2	-0.049105592
78	0xbbbe0af0	-0.0057996437
79	0x3ce2049b	0.027590087
80	0xba1cb120	-0.00059773214
81	0xbe17868f	-0.14797424
82	0xbdfed740	-0.124433994
83	0xbeafd489	-0.3434184
84	0xbe9c7dd9	-0.30564764
85	0x3d0904dd	0.033451904
86	0xbecec788	-0.40386605
87	0xbd800857	-0.06251591
88	0xbeab3fc3	-0.33447084
89	0xbf55eee6	-0.83567655
90	0x3e37ae5c	0.17937607
91	0xbcc08150	-0.023499161
92	0x3e3ccea0	0.18438196
93	0x3dbeb942	0.09312679
94	0xbebb6e0f	-0.36607406
95	0x3d2da814	0.04239662
96	0x3e14adb7	0.14519392
97	0x3bbec8dc	0.005822284
98	0x3e5e5c12	0.2171481
99	0xbe8ed3e8	-0.27896047
100	0x3e80d7ed	0.25164738
101	0x3e0c1f8f	0.13683914
102	0x3df935ed	0.12168489
103	0x3e3a8766	0.18215713
104	0x3bb8a1b0	0.005634509
105	0xbced750d	-0.028986478
106	0x3c97f5a0	0.01854974
107	0x3e4648b4	0.19363672
108	0x3ec25b86	0.37960452
109	0xbd967cf2	-0.0734805
110	0xbe68577e	-0.22689626
111	0xbeda9d4b	-0.4269813
112	0x3e14b20a	0.14521042
113	0xbedfe4a4	-0.43729126
114	0x3da9ca4e	0.0829054
115	0x3d3a1f7f	0.045440193
116	0xbe80b2a9	-0.25136307
117	0x3edb8469	0.42874458
118	0x3ce3020b	0.027710935
119	0xbe94f08b	-0.2908977
120	0xbd35cb94	-0.0443836
121	0x3d2ecc6c	0.04267542
122	0x3d50986f	0.050926622
123	0x3ddb7393	0.107154034
124	0x3d032e9f	0.032026883
125	0x3ef8b4be	0.48575395
126	0x3ee8afb1	0.45446542
127	0xbf0fa2c4	-0.56107736
128	0x3e9347b4	0.28765643
129	0xbf6a9ee6	-0.9164871
130	0x3dcc1723	0.099653505
131	0xbeb4c88c	-0.35309255
132	0x3e3e2507	0.18568812
133	0x3dbad18b	0.091219984
134	0xbe527890	-0.20553803
135	0xbf5f039b	-0.87114877
136	0x3ea60da9	0.32432297
137	0x3e9427d1	0.28936628
138	0xbee364ee	-0.4441294
139	0x3e5337d6	0.20626768
140	0x3d9ce610	0.076610684
141	0x3e3be168	0.18347704
142	0x3de4d648	0.111736834
143	0x3d7eae37	0.062177863
144	0xbeeca721	-0.4622126
145	0xbbe4748c	-0.0069719013
146	0x3d025043	0.031814825
147	0xbdc58df2	-0.096462145
148	0x3d54621b	0.051851373
149	0x3d91f431	0.07126654
150	0xbd2a53c2	-0.041583784
151	0xbddc0b48	-0.10744339
152	0xb8c91f80	-9.590294e-05
153	0x3dcaa199	0.098941036
154	0xbcd31b47	-0.025769843
155	0xbd8a7b0e	-0.06761752
156	0x3e2222e2	0.15833619
157	0x3d95245b	0.07282325
158	0x3e14b70d	0.14522953
159	0xbe3daf24	-0.18523842
160	0x3d3bfad9	0.045893524
161	0x3e2de37c	0.1698131
162	0xbdcb5aad	-0.099294044
163	0xbddb54e1	-0.10709549
164	0xbd03294b	-0.032021802
165	0xbcf8cd0a	-0.030371208
166	0x3db14c61	0.08657146
167	0xbdfe698a	-0.12422474
168	0xbde0405c	-0.109497756
169	0xbdf1b5e3	-0.1180227
170	0x3e466939	0.19376077
171	0x3e2bb03a	0.16766444
172	0xbd8c7353	-0.06857934
173	0xbc9abf90	-0.018890172
174	0xbd6dc7c4	-0.05805184
175	0x3e796bf2	0.24357584
176	0x3d9267ef	0.0714873
177	0x3e03081e	0.12796065
178	0xbe2945f0	-0.16530585
179	0xbe868680	-0.2627449
180	0xbda1ce37	-0.079006605
181	0x3e3dda0d	0.18540211
182	0x3dede68c	0.11616239
183	0x3d685e35	0.056730468
184	0xbe86e6fb	-0.263481
185	0x3cb8cf94	0.022559918
186	0x3d49114d	0.049088765
187	0x3e590294	0.2119239
188	0x3da9791b	0.08275052
189	0xbdee08a6	-0.11622743
190	0xbdd3be3f	-0.10339021
191	0x3c5e3587	0.013562567
192	0xbd704b0c	-0.05866532
193	0x3d4221ef	0.047395643
194	0x3db606bb	0.088880025
195	0x3c4c2b55	0.012461503
196	0xbc426a21	-0.011866123
197	0xbd1356f0	-0.035971582
198	0xbb67602c	-0.0035305126
199	0xbd9b4479	-0.075814195
200	0x3dae1019	0.08499164
201	0xbd9b10fc	-0.07571599
202	0x3d8f318d	0.06991873
203	0xbb1350e2	-0.002247863
204	0x3d6ac6e3	0.05731858
205	0xbe05d729	-0.13070358
206	0x3d95c1ed	0.07312379
207	0x3df0baa0	0.11754346
208	0xbeb42acf	-0.3518891
209	0xbd332d8d	-0.043744612
210	0x3d7cb21e	0.061693303
211	0xbdb11f89	-0.08648593
212	0xbcf51e76	-0.029921751
213	0x3d4e5511	0.050374094
214	0x3d67aa88	0.056559116
215	0xbd15b4bb	-0.03654931
216	0xbdfe1052	-0.124054566
217	0xbed084bd	-0.4072627
218	0x3c9edd59	0.019392656
219	0x3e813120	0.25232792
220	0x3deff055	0.117157616
221	0x3e039058	0.12848032
222	0x3e387f33	0.18017273
223	0x3dace658	0.08442372
224	0xbe143c43	-0.14476113
225	0xbd9258dd	-0.071458556
226	0x3dd70701	0.10499383
227	0xbd83b1d4	-0.064304024
228	0x3db1a9e4	0.08674982
229	0xbd3f9ed0	-0.046782315
230	0xbd25a80f	-0.040443476
231	0x3d6eb141	0.05827451
232	0x3d886c0a	0.06661232
233	0x3cf32423	0.029680317
234	0x3dd9a504	0.10627177
235	0xbd455ea0	-0.048185945
236	0x3dfe7fab	0.124266945
237	0x3e65fad7	0.22458969
238	0xbe8b8eac	-0.27257288
239	0xbe7256f6	-0.23665985
240	0xbe8d5cef	-0.27609965
241	0x3dd5c318	0.10437602
242	0xbdd349cf	-0.10316812
243	0xbe2d5e04	-0.16930395
244	0xbe0027e6	-0.1251522
245	0xbd8c401a	-0.06848164
246	0xbdb71021	-0.08938623
247	0xbecca904	-0.399727
248	0xbe4d57e1	-0.20053054
249	0x3c3b5679	0.011434191
250	0x3e28b36a	0.16474691
251	0xbc87307b	-0.01650261
252	0x3da2eb70	0.079550624
253	0x3e05863c	0.13039488
254	0x3e9309ef	0.28718516
255	0x3e2168c0	0.15762615

bias f4 [16]
0	0xbd6d6e3b	-0.057966452
1	0xbe575645	-0.21029003
2	0x3e67c25b	0.22632734
3	0xbec00433	-0.37503204
4	0xbea782b0	-0.32716894
5	0x3e70968c	0.23494929
6	0x3e08f083	0.13372998
7	0x3e84acc0	0.25913048
8	0xbbd906f4	-0.0066231433
9	0x3d06066f	0.03272098
10	0xbd104412	-0.035221167
11	0xbe1c39f8	-0.15256488
12	0x3d9ddece	0.07708512
13	0x3e98536a	0.2975114
14	0x3e0975bd	0.1342382
15	0x3e09f753	0.13473253

weight f4 [16, 16, 5]
0	0x3d720b1e	0.059092633
1	0xbd96506f	-0.0733956
2	0x3d174f6a	0.03694097
3	0xbc90300a	-0.017601032
4	0xbb19b8a3	-0.0023456
5	0x3db72f8c	0.08944616
6	0xbcd8283d	-0.026386375
7	0x3bd468f0	0.006482236
8	0x3d97a709	0.07404906
9	0xbd8c960e	-0.06864558
10	0xbc9b78c2	-0.01897848
11	0x3ca8b57e	0.020594355
12	0x3b878884	0.004136147
13	0xbdaa7f69	-0.08325083
14	0xbddfc911	-0.10927022
15	0x3da38c98	0.079858005
16	0x3c0d8828	0.008638419
17	0x3e021607	0.12703715
18	0x3d035e65	0.032072444
19	0x3d252a8a	0.04032377
20	0x3d391a12	0.04519088
21	0x3bcea4ed	0.006306282
22	0xbc01284c	-0.007883143
23	0xbdfda44b	-0.12384852
24	0xbd1548b7	-0.0364463
25	0xbd69b727	-0.057059433
26	0x3db9b442	0.090675846
27	0x3dc2187b	0.094773255
28	0x3d861d08	0.06548506
29	0x3d2d5e66	0.042326353
30	0x3cb02685	0.021502743
31	0x3e0afd4f	0.13573192
32	0xbd00ff2c	-0.03149335
33	0x3dccec08	0.10005957
34	0x3e733d21	0.23753788
35	0xbd3a71c6	-0.04551866
36	0x3e207480	0.15669441
37	0x3e2c3250	0.16816068
38	0x3e0d8232	0.13819197
39	0x3db52c9f	0.088464014
40	0x3cd5a6b7	0.026080472
41	0x3dcfdecc	0.10149917
42	0xbdacc5f2	-0.084361926
43	0xbe2013fa	-0.1563262
44	0xbd7311b1	-0.059343044
45	0xbda97d9c	-0.08275911
46	0xba88af7e	-0.0010428277
47	0xbd54a684	-0.051916614
48	0xbd559cb8	-0.05215141
49	0xbd6d853e	-0.057988398
50	0xbdbfce41	-0.09365512
51	0xbd9c53c5	-0.07633165
52	0x3d56b90e	0.052422576
53	0xbd56f531	-0.052479926
54	0xbd0411d1	-0.032243554
55	0x3ddacc4b	0.10683497
56	0x3d4302c8	0.047610074
57	0xbdc6330d	-0.09677706
58	0x3de701bc	0.11279628
59	0x399d4da1	0.00030003212
60	0xbdad705c	-0.084686965
61	0x3d89e08a	0.067322806
62	0xbcee96ad	-0.029124582
63	0xbe338da2	-0.17534497
64	0xbdcaa16c	-0.0989407
65	0xbd7c42aa	-0.061587013
66	0x3d3c9a1d	0.04604541
67	0xbd1c380f	-0.0381394
68	0x3d722eb4	0.05912657
69	0x3d4945c1	0.049138788
70	0x3ca6df92	0.020370279
71	0xbd584f0c	-0.05280976
72	0xbe45d529	-0.19319595
73	0xba9964fb	-0.0011703068
74	0x3d82e81b	0.06391927
75	0x3d2cd5a6	0.04219594
76	0xbcbc4eba	-0.022986759
77	0x3d8cec87	0.068810515
78	0x3cc448f2	0.023960564
79	0xbce2131f	-0.027597008
80	0x3d914b9a	0.07094498
81	0x3e038ce5	0.12846716
82	0x3d9b3dab	0.075801216
83	0x3c6168b8	0.013757877
84	0xbdac4422	-0.08411433
85	0xbe163abf	-0.14670847
86	0xbdca96c3	-0.09892037
87	0xbe8d6d1d	-0.2762231
88	0xbebe97da	-0.3722523
89	0xbd87ea77	-0.066365175
90	0xbdd1453a	-0.10218282
91	0xbe1c8e34	-0.15288621
92	0xbe254355	-0.16138966
93	0xbea41298	-0.32045436
94	0x3e5516d0	0.20809484
95	0x3e331672	0.17489031
96	0x3d1d57d3	0.038413834
97	0xbe6987b0	-0.22805667
98	0xbf88f51c	-1.0699801
99	0xbfa37b5a	-1.2772019
100	0xbb1148c1	-0.002216861
101	0x3e3b177a	0.18270674
102	0x3e9e4b10	0.30916643
103	0x3f2f2327	0.68413013
104	0xbd7ed46f	-0.06221431
105	0x3e1bbaa1	0.15207912
106	0xbf0fdada	-0.56193316
107	0xbe97cde4	-0.2964927
108	0x3daeec6d	0.085411884
109	0xbf969112	-1.1763022
110	0x3e421c41	0.1895609
111	0xbd124035	-0.035705764
112	0x3efae5e7	0.49003527
113	0xbf0b1960	-0.54335594
114	0x3ca41303	0.020028597
115	0x3daa8ee7	0.08328038
116	0xbda94534	-0.082651526
117	0xbea5e700	-0.32402802
118	0x3d83403b	0.06408735
119	0xbf102a7b	-0.5631482
120	0xbe6dc3b3	-0.23219185
121	0x3e15a469	0.14613499
122	0xbea83894	-0.32855666
123	0xbe309955	-0.17245992
124	0x3e6dd30c	0.23225039
125	0xbb82cc33	-0.0039916276
126	0x3eeb0488	0.45901895
127	0x3ed7f7d6	0.4218127
128	0x3e572504	0.21010214
129	0x3e73acc3	0.23796372
130	0x3d8cc650	0.068737626
131	0x3d5ad344	0.053424135
132	0xbdbe2a74	-0.09285441
133	0x3d5928e3	0.05301751
134	0x3d0b626d	0.034029413
135	0x3c7d6b17	0.015467427
136	0x3eb81729	0.3595517
137	0x3ef7f45c	0.4842862
138	0xbe8aba2b	-0.2709516
139	0x3f39f581	0.72640234
140	0xbd7a15d1	-0.061055962
141	0xbe67f471	-0.22651841
142	0xbcf34349	-0.02969517
143	0x3eb280dc	0.34863937
144	0xbc7cfbfd	-0.015440938
145	0xbd32eff0	-0.043685853
146	0xbeae4bc6	-0.34042186
147	0xbe9fa1ae	-0.3117804
148	0xbe9459db	-0.28974804
149	0x3eb4eae1	0.35335448
150	0x3bcafe1f	0.0061948444
151	0x3eec2612	0.46122795
152	0x3ef37dd0	0.47556925
153	0xbf01e5c3	-0.50741214
154	0xbfe1a943	-1.762978
155	0xbea496a2	-0.32146174
156	0xbe6c94dc	-0.2310366
157	0xbcc65e47	-0.024214877
158	0xbdd5bd35	-0.10436479
159	0xbff6b0e6	-1.9272735
160	0x3d967884	0.07347205
161	0x3d5e43a6	0.054263733
162	0xbd1d2a20	-0.03837025
163	0x3dededa0	0.11617589
164	0xbcd9073c	-0.026492707
165	0x3cf71938	0.030163392
166	0xbd91a2c0	-0.0711112
167	0xbd4bcb91	-0.049754683
168	0xbd80007e	-0.06250094
169	0x3d89ba47	0.06724983
170	0xbdd65f5b	-0.10467406
171	0x3e897534	0.2684723
172	0x3c92afbe	0.017906066
173	0xbd26a421	-0.04068387
174	0xbe09552c	-0.13411397
175	0x3d9db99d	0.077014185
176	0xbe07fe04	-0.13280493
177	0x3ded28e8	0.11580068
178	0xbdaab963	-0.08336141
179	0xbdfbd704	-0.1229687
180	0x3c8e9a0a	0.017407436
181	0x3e508bb4	0.20365793
182	0x3e2f66d1	0.17129065
183	0x3d5c6f09	0.05381683
184	0x3d93a4d5	0.072091736
185	0xbd3adc6a	-0.04562036
186	0xbd440ba1	-0.047862653
187	0x3d4b8970	0.049691617
188	0xbde70291	-0.112797864
189	0xbd325e3c	-0.0435469
190	0x3cc6f67c	0.024287455
191	0x3e692dff	0.22771452
192	0xbde7c001	-0.11315919
193	0x3db68c24	0.089134485
194	0xbd8c4941	-0.068499096
195	0xbe25016d	-0.16113825
196	0x3e39230c	0.18079776
197	0x3d7d1d96	0.061795793
198	0xbd7dce72	-0.06196446
199	0x3c9af170	0.018913954
200	0xbd133bfb	-0.035945874
201	0xbe7c27c8	-0.2462455
202	0x3dc81f9c	0.09771654
203	0x3dd66072	0.10467614
204	0xbc9481ae	-0.018128242
205	0xbe28f219	-0.16498603
206	0x3e0f1676	0.13973412
207	0x3e0800d8	0.13281572
208	0x3d2f9ec2	0.042876013
209	0xbd86d0a9	-0.065827675
210	0x3da1d065	0.07901076
211	0xbe0521d0	-0.1300118
212	0xbe02e6de	-0.12783381
213	0xbc3d3887	-0.011549122
214	0xbdd4f3be	-0.10398053
215	0x3e48f16a	0.19623342
216	0x3df1abda	0.11800356
217	0xbe4dee2e	-0.2011039
218	0xbc454c2b	-0.012042086
219	0x3e6f712d	0.23383017
220	0x3e2ba1f8	0.16761005
221	0x3e28e365	0.16492994
222	0x3e14dd18	0.14537466
223	0xbd114c5e	-0.03547322
224	0xbd1087b7	-0.035285678
225	0xbd1d6cf6	-0.03843399
226	0x3db4ec13	0.0883409
227	0x3d0ad0fd	0.033890713
228	0xbd266b9a	-0.04062996
229	0x3c81ca85	0.01584364
230	0x3e6a2949	0.22867312
231	0xbc8d49f8	-0.017247185
232	0xbb157958	-0.0022807922
233	0x3d00ca35	0.03144284
234	0x3dd5300c	0.10409555
235	0xbd5af2de	-0.053454272
236	0x3da79126	0.08181982
237	0xbdbbd44a	-0.0917135
238	0xbe376572	-0.17909792
239	0x3d3da05e	0.046295516
240	0xbc526ee7	-0.012843824
241	0xbe1c7e03	-0.15282445
242	0x3be22b18	0.00690211
243	0xbc752f79	-0.014964932
244	0x3d9c17b7	0.07621711
245	0xbd93a1e2	-0.07208611
246	0x3df4bb91	0.11949838
247	0x3d924532	0.07142104
248	0x3ce9929c	0.028512292
249	0x3c5dd0e6	0.013538575
250	0x3e008b05	0.12553032
251	0xbe057572	-0.13033083
252	0xbe0c5caa	-0.13707224
253	0x3d80ea47	0.06294685
254	0xbe26c6aa	-0.16286722
255	0x3dd7cba5	0.10536889

bias f4 [16]
0	0xbd012579	-0.031529877
1	0xbecef49e	-0.40421003
2	0xbe763b1c	-0.24045986
3	0xbd789219	-0.060686205
4	0xbe0dd6e7	-0.1385151
5	0xbeb847e5	-0.3599235
6	0x3effd36c	0.4996599
7	0xbe7ac37d	-0.24488635
8	0xbe30a7b4	-0.17251474
9	0xbf2208df	-0.63294786
10	0xbea25150	-0.31702662
11	0x3e5d0f06	0.21587762
12	0xbf18fb21	-0.5975819
13	0x3e38491a	0.17996636
14	0xbe24e002	-0.16101077
15	0xbda71ffb	-0.08160397

weight f4 [64, 112]
0	0xbd07c67a	-0.033148266
1	0x3e83dcf8	0.25754523
2	0xbe6a4890	-0.22879243
3	0x3dcf97e7	0.10136395
4	0xbcaa2295	-0.020768443
5	0xbe373f3c	-0.17895216
6	0x3d1432c2	0.03618122
7	0xbe2f5904	-0.171238
8	0xbea9fcdc	-0.3320073
9	0xbf314f03	-0.6926119
10	0xbf9356c7	-1.1510857
11	0xbe324a9b	-0.17411272
12	0xbe9a9412	-0.30191094
13	0xbf2d7bc0	-0.6776695
14	0xbe5f666b	-0.21816413
15	0xbe4e8321	-0.20167209
16	0xbeb4b23b	-0.3529223
17	0x3e806f50	0.25084925
18	0xbe067371	-0.13129975
19	0xbe6dfef5	-0.2324179
20	0xba4ec03f	-0.0007886923
21	0xbf80d93b	-1.0066293
22	0xbdeabd82	-0.11461927
23	0xbe8602e5	-0.26174083
24	0x3e83fb4d	0.25777665
25	0xbe42ab5b	-0.1901068
26	0xbe79542c	-0.24348515
27	0x3bf0d451	0.007349529
28	0x3ea048a4	0.3130542
29	0xbdbb2298	-0.091374576
30	0xbe4a9922	-0.19784978
31	0xbd5e6e70	-0.05430454
32	0x3ec83900	0.39105988
33	0xbe5b5069	-0.21417393
34	0x3d804bfc	0.06264493
35	0x3e0f5fc8	0.14001381
36	0x3e66a301	0.22523119
37	0x3cd1817e	0.025574442
38	0xbe9f7ed5	-0.31151453
39	0x3e06af6e	0.13152859
40	0xbe8169a8	-0.25275922
41	0xbd6b3195	-0.057420332
42	0x3d0ba971	0.03409714
43	0x3d76648b	0.06015448
44	0xbc7be51e	-0.01537445
45	0x3ec6a1df	0.38795373
46	0xbed305da	-0.41215402
47	0x3e377c00	0.17918396
48	0xbe08da6b	-0.1336457
49	0x3e38119e	0.1797547
50	0xbd80e940	-0.06294489
51	0xbdc2e65a	-0.09516592
52	0x3edae4ca	0.42752677
53	0xbd5ca754	-0.053870514
54	0x3d9c470a	0.07630737
55	0x3e1d1fe5	0.15344198
56	0xbda487f3	-0.08033743
57	0x3c9d2dfa	0.019186962
58	0xbe229363	-0.15876536
59	0x3eaeb410	0.34121752
60	0x3ea2966b	0.31755385
61	0x3d07e6a7	0.03317895
62	0x3b9a49e5	0.004708516
63	0x3ca71880	0.020397425
64	0x3ecfbb74	0.40572703
65	0x3d18df63	0.037322413
66	0x3d4e6786	0.050391696
67	0xbe066dfe	-0.13127896
68	0x3d2f0376	0.04272791
69	0xbede6e1a	-0.43443376
70	0x3e01a1da	0.12659398
71	0xbe6213cb	-0.22077863
72	0x3e3e31e6	0.18573722
73	0xbe8d33d3	-0.275786
74	0xbe8d99b8	-0.2765634
75	0x3d4da528	0.050206333
76	0x3e0abb80	0.13548088
77	0x3da9bc0e	0.08287822
78	0xbe02fe1e	-0.1279225
79	0xbf1c444b	-0.61041707
80	0x3f1b4c98	0.6066375
81	0xbe27333e	-0.16328141
82	0x3e70b991	0.23508288
83	0x3efe5dec	0.49681032
84	0x3d46fe16	0.04858216
85	0x3cc468ac	0.023975693
86	0x3e36224b	0.17786519
87	0xbee1ade3	-0.44077978
88	0xbe9b631f	-0.3034906
89	0x3d91bee6	0.07116489
90	0xbdfda23d	-0.1238446
91	0x3ec34cee	0.3814463
92	0x3df3fbb4	0.11913243
93	0xbf17ddf8	-0.5932307
94	0xbdf80ec2	-0.1211219
95	0x3d0e03d3	0.034671616
96	0xbeaf5bd8	-0.3424976
97	0x3df1ff9b	0.11816331
98	0x3ec84017	0.39111397
99	0xbf0a8637	-0.54111046
100	0x3ce9cb89	0.028539436
101	0x3f0f545d	0.55988103
102	0x3e7f1501	0.24910356
103	0x3ea3e7f9	0.3201292
104	0xbd643f3f	-0.05572438
105	0x3dce0b94	0.10060802
106	0x3da316a7	0.07963305
107	0x3d02155a	0.031758644
108	0xbdb78460	-0.089607954
109	0xbdaf3d2a	-0.08556588
110	0x3d9e2067	0.07721024
111	0x3da29454	0.079384476
112	0xbc51f3ec	-0.012814503
113	0x3e63c213	0.22242002
114	0x3d2724b9	0.040806506
115	0x3d66965f	0.05629575
116	0x3e2a2fcc	0.16619796
117	0x3d77554e	0.060384087
118	0xbdd71e1e	-0.10503791
119	0xbe15e1cc	-0.14636916
120	0xbee3709c	-0.44421852
121	0x3ea39383	0.3194848
122	0x3e742a61	0.23844291
123	0xbc961307	-0.01831962
124	0xbda13416	-0.07871263
125	0xbb03a4ea	-0.002008731
126	0xbce9397c	-0.028469793
127	0xbdd0ef91	-0.10201944
128	0x3ee5ee49	0.4490836
129	0xbd5587f3	-0.052131604
130	0xbd7ce08c	-0.061737582
131	0xbd20f902	-0.039299972
132	0xbe0165c8	-0.12636483
133	0x3e0c1227	0.136788
134	0xbe043afe	-0.12913129
135	0x3e33cd2f	0.1755874
136	0x3e1fbc72	0.1559923
137	0xbd9c1668	-0.07621461
138	0x3e315f38	0.1732148
139	0x3db3240a	0.08747108
140	0x3e109f3a	0.1412324
141	0x3bca02d2	0.006164887
142	0x3d793d24	0.060849324
143	0x3e5ab5b2	0.21358374
144	0x3e743496	0.23848185
145	0xbeb77248	-0.35829377
146	0xbee02f87	-0.4378626
147	0xbd773615	-0.06035431
148	0xbf28a312	-0.65873826
149	0x3e21282d	0.15737982
150	0xbc9f224b	-0.019425532
151	0xbe2e8757	-0.17043816
152	0xbd926184	-0.07147506
153	0x3e57789b	0.21042101
154	0xbd0070c7	-0.031357553
155	0xbe7584b1	-0.23976399
156	0xbe9c557e	-0.30533975
157	0xbe5322b2	-0.20618704
158	0xbf113e4a	-0.5673567
159	0x3eb404de	0.35159963
160	0x3f15d588	0.5852895
161	0xbeb19626	-0.34684867
162	0x3d85189c	0.064988345
163	0x3e06f5e3	0.13179736
164	0xbea50e29	-0.32237366
165	0xbe71c1a6	-0.23609027
166	0xbd9ae76c	-0.075636715
167	0x3e6e4f28	0.23272383
168	0xbead629b	-0.33864293
169	0x3b48881a	0.00305987
170	0xbe779728	-0.24178755
171	0xbda70e42	-0.08157016
172	0xbd62b109	-0.055344615
173	0xbe4546d5	-0.19265302
174	0xbe4e3766	-0.2013832
175	0xbec4ca88	-0.3843577
176	0xbf031924	-0.51210237
177	0xbf4f1396	-0.8088926
178	0xbecd5549	-0.4010413
179	0xbd2feca7	-0.0429503
180	0x3cfad786	0.030620348
181	0xbddb46d9	-0.107068725
182	0x3e7690c4	0.24078661
183	0x3ec699e8	0.38789296
184	0x3f296c6a	0.6618105
185	0x3e6a099d	0.2285523
186	0x3e44227f	0.19153784
187	0xbe2b26e8	-0.1671406
188	0xbddac8fd	-0.10682867
189	0xbe456b52	-0.1927922
190	0x3e23522c	0.15949315
191	0x3e25ab88	0.16178715
192	0x3c177279	0.009243601
193	0xbd2b1ed7	-0.041777458
194	0x3ebd6fde	0.3699941
195	0xbe49fd6e	-0.19725582
196	0xbdef0a96	-0.11671941
197	0x3e819eea	0.25316554
198	0x3dfc1870	0.123093486
199	0x3ca65d70	0.020308226
200	0x3ca6c38d	0.020356918
201	0xb8c41191	-9.34928e-05
202	0x3c687cbb	0.014189894
203	0xbf278292	-0.6543361
204	0x3e9b5021	0.3033457
205	0xbe0e253b	-0.1388139
206	0x3eaa2829	0.33233765
207	0x3ea19877	0.31561634
208	0x3e29893a	0.16556254
209	0x3ddbdfc8	0.10736042
210	0xbe31d5d7	-0.1736673
211	0xbe9cf32f	-0.30654284
212	0x3d7d773d	0.061881293
213	0x3c8d4ead	0.01724943
214	0x3dd78e57	0.10525196
215	0xbc30f526	-0.010800635
216	0x3d28a02c	0.041168377
217	0x3cf158ff	0.029461382
218	0x3d262041	0.040558103
219	0xbc131b7e	-0.008978723
220	0xbd1ce534	-0.038304523
221	0x3cae4599	0.021273421
222	0xba33234c	-0.0006833568
223	0xbcba69d0	-0.022755533
224	0x3e42635d	0.18983217
225	0xbd651c0f	-0.055934962
226	0xbe432dd5	-0.19060452
227	0x3e7ae8f4	0.24502927
228	0xbe03977c	-0.12850755
229	0x3ea2a614	0.31767333
230	0xbcaa5fd5	-0.02079765
231	0xbca973b0	-0.020685047
232	0x3e388595	0.18019708
233	0xbd789a07	-0.060693767
234	0xbdf07067	-0.11740189
235	0xbe106cb2	-0.14103964
236	0xbe2df90e	-0.16989538
237	0xbe31785f	-0.17331074
238	0x3e9ed532	0.3102203
239	0xbe9ae01c	-0.30249107
240	0x3e43a055	0.1910413
241	0x3ec9b930	0.393991
242	0x3e4770c3	0.19476609
243	0x3ec653ee	0.38735908
244	0x3d52244e	0.051304154
245	0x3e88cf23	0.26720533
246	0x3e0ac018	0.1354984
247	0xbdb61aa3	-0.08891799
248	0x3e640c0f	0.22270225
249	0xbde8816f	-0.113528125
250	0x3cd5d513	0.026102578
251	0xbd3cf41d	-0.046131242
252	0xbdf2d202	-0.11856462
253	0x3e26b75c	0.16280884
254	0x3ef1e776	0.47246903
255	0xbcddaa5a	-0.027058769

bias f4 [64]
0	0x3e9f941a	0.3116768
1	0x3ed68157	0.41895553
2	0x3ee13f26	0.4399349
3	0xbd073fe1	-0.033019904
4	0xbdc574cf	-0.0964142
5	0x3e2cadd0	0.16863179
6	0x3e84541e	0.25845426
7	0xbe24eab6	-0.1610516
8	0x3de3a749	0.111158915
9	0x3d8f13c5	0.069861926
10	0x3e4f6a6b	0.20255439
11	0xbd97ee85	-0.07418541
12	0x3ebf7c17	0.3739936
13	0xbe196681	-0.14980508
14	0x3e381e6d	0.17980357
15	0xbe5b3244	-0.21405894
16	0xbd852877	-0.06501859
17	0x3f3cf21e	0.7380694
18	0xbda3305e	-0.0796821
19	0xbddee4a3	-0.10883453
20	0x3d9cdcde	0.076593146
21	0xbe1c3126	-0.15253124
22	0xbe04747c	-0.1293506
23	0xbeaa9dc3	-0.33323488
24	0x3d6e2dc3	0.05814911
25	0x3e295142	0.16534904
26	0x3e4b2e60	0.1984191
27	0x3eb2f17f	0.34949872
28	0x3e5b0aba	0.2139081
29	0x3bb84efd	0.0056246505
30	0x3e39d191	0.1814635
31	0xbc708a67	-0.014681435
32	0x3e232524	0.15932137
33	0xbc1fbef1	-0.009750114
34	0x3e964a81	0.29353717
35	0x3cbff41c	0.02343183
36	0x3dd7981a	0.10527058
37	0x3dfbf77b	0.123030625
38	0x3e82de03	0.25560006
39	0x3e9f3a85	0.31099334
40	0xbdf39ea4	-0.11895493
41	0x3eba1577	0.363445
42	0x3d5db2da	0.054125644
43	0xbedb178c	-0.42791402
44	0x3edce943	0.43146715
45	0xbe57fed2	-0.210933
46	0xbe0c44ae	-0.13698074
47	0x3ea21cf5	0.31662717
48	0x3f11cca6	0.56952894
49	0xbedec43a	-0.43509084
50	0x3d0f9498	0.03505382
51	0x3cb0d55b	0.02158611
52	0x3e11dc12	0.14244106
53	0xbd371965	-0.044701952
54	0xbd611463	-0.054951083
55	0x3e58a76e	0.2115762
56	0x3ea9675f	0.33086678
57	0xbed0c14d	-0.40772477
58	0xbd3b3f29	-0.04571453
59	0xbd97eaa0	-0.07417798
60	0x3e2bff3d	0.16796584
61	0x3ef19099	0.47180632
62	0x3cb2f7c9	0.021846669
63	0x3e930572	0.28715092

weight f4 [32, 64]
0	0x3c1d7db8	0.009612493
1	0x3d9a43ca	0.07532461
2	0xbdae41aa	-0.08508618
3	0x3e87748a	0.264561
4	0xbd145457	-0.036213245
5	0x3dec0b17	0.11525553
6	0x3cd1c6cc	0.025607489
7	0x3cac5f4c	0.021041535
8	0x3dc00f56	0.09377925
9	0x3d863efc	0.06554982
10	0xbe85a20b	-0.2610019
11	0x3c9ac004	0.018890388
12	0xbe074f3a	-0.13213816
13	0x3e033ddf	0.1281657
14	0xbc0615b6	-0.008183887
15	0x3e79eb2a	0.24406114
16	0xbd73ec68	-0.059551626
17	0x3e145a8b	0.14487664
18	0x3e920164	0.28516686
19	0xbc8c6fb0	-0.0171431
20	0x3f11beb6	0.56931627
21	0xbd8ea6ae	-0.069653854
22	0x3e6c852f	0.2309768
23	0xbf1d9436	-0.61554277
24	0xbd58d345	-0.052935857
25	0xbdca2ee6	-0.098722264
26	0x3ea4cf53	0.32189426
27	0xbe573a13	-0.21018247
28	0xbceee39d	-0.029161269
29	0xbdcf8cd6	-0.10134284
30	0x3e8320f8	0.2561109
31	0xbdec25e8	-0.115306675
32	0x3f708a25	0.9396079
33	0x3dc73a58	0.09727925
34	0xbdbf4dfb	-0.093410455
35	0x3b787366	0.003791058
36	0xbc7a9065	-0.015293215
37	0xbd70ee4e	-0.058821015
38	0x3e861f08	0.2619555
39	0xbf208cdd	-0.6271494
40	0xbe0f54b1	-0.13997151
41	0x3d413da9	0.047177944
42	0x3bbc0343	0.0057376935
43	0xbc8ed48f	-0.01743534
44	0x3de35f45	0.111021556
45	0xbe05ba96	-0.13059458
46	0x3e574dc5	0.2102576
47	0x3c1d5bc2	0.009604396
48	0x3d574af5	0.05256172
49	0x3c40110e	0.011722816
50	0x3e55333b	0.20820324
51	0x3b50aca2	0.0031841178
52	0x3ea7b5ac	0.32755792
53	0xbd21875b	-0.039435726
54	0x3ed91e90	0.4240613
55	0x3da60ac4	0.08107522
56	0x3de9d3d0	0.11417353
57	0x3e64abeb	0.22331207
58	0x3db2e0d7	0.08734291
59	0xbdc2aac0	-0.09505224
60	0xbe2a271e	-0.16616485
61	0xbc041c26	-0.008063352
62	0x3e6c7b21	0.23093845
63	0xbe2a687b	-0.16641419
64	0x3cc48eea	0.023993928
65	0x3d2b8e0d	0.041883517
66	0x3c89d799	0.016826438
67	0x3d1c944a	0.038227357
68	0x3d823f6e	0.063597545
69	0xbc1f3c2f	-0.009718939
70	0xbd036edf	-0.032088157
71	0x3bc9327c	0.0061400514
72	0xbdfd7b6a	-0.12377055
73	0x3d400234	0.0468771
74	0xbd27a286	-0.04092648
75	0xbe34e41f	-0.17665146
76	0xbd5fc4c9	-0.05463103
77	0xbdfc5edb	-0.1232278
78	0xbd49f782	-0.049308307
79	0x3d1f4ce5	0.03889169
80	0x3c8c1e93	0.017104423
81	0xbde86ea6	-0.113492295
82	0xbc962372	-0.018327449
83	0xbd5167b2	-0.051124282
84	0x3d3ae278	0.045626134
85	0x3cc12d81	0.023581268
86	0x3cb387ab	0.021915277
87	0x3d10c925	0.035348076
88	0x3cc09ece	0.023513224
89	0xbde786b7	-0.11304992
90	0xbcc38288	-0.023865953
91	0xbe0aff45	-0.1357394
92	0xbdfdc9d8	-0.12392014
93	0x3cb6dfd8	0.022323534
94	0xbdbd0d14	-0.0923101
95	0x3da0cc8d	0.07851515
96	0x3be5c505	0.007012012
97	0x3d5f4d4e	0.054517083
98	0xbdfd558d	-0.12369833
99	0xbd5e7e2f	-0.054319557
100	0xbd835769	-0.064131565
101	0x3c4a1c98	0.012335919
102	0xbe0a85bb	-0.13527577
103	0x3d865ed9	0.065610595
104	0xbde06f8c	-0.10958776
105	0xbd4ad4c1	-0.049519304
106	0xbd1cc545	-0.03827407
107	0x3d1d5373	0.03840966
108	0xbd50c497	-0.050968733
109	0x3d1b9415	0.03798302
110	0xbdcfd83b	-0.101486646
111	0xbda749c4	-0.081683666
112	0xbd00b4fc	-0.0314226
113	0x3c8316c9	0.016002076
114	0xbccdcd46	-0.025122296
115	0x3dcbda2d	0.09953723
116	0xbae84c6f	-0.0017722974
117	0xbcea7356	-0.02861945
118	0xbd2e57cc	-0.0425642
119	0xbe2d7f46	-0.16943082
120	0xbe232779	-0.15933026
121	0x3dc0f274	0.09421244
122	0x3d464baf	0.04841202
123	0xbdc6d6dc	-0.0970895
124	0xbe20d15f	-0.15704869
125	0x3d654680	0.055975437
126	0x3b7f5c6f	0.0038965007
127	0x3c8419e7	0.016125632
128	0xbe63536c	-0.22199792
129	0x3d9ec0bb	0.07751604
130	0x3e8fa01b	0.28051838
131	0xbeb9a0a6	-0.36255378
132	0xbd3f8c78	-0.04676482
133	0x3e10941b	0.14118998
134	0x3e98a330	0.29812002
135	0x3d66bf10	0.056334555
136	0xbe837ee6	-0.25682753
137	0xbe67dd7f	-0.22643088
138	0x3c74d857	0.014944158
139	0x3ce286f6	0.027652245
140	0x3b66a958	0.0035196152
141	0xbd54f74f	-0.051993664
142	0x3d1a6ac5	0.03769948
143	0x3d82ed43	0.0639291
144	0x3d482209	0.048860583
145	0x3e122686	0.14272508
146	0xbe5de563	-0.21669535
147	0xbd10128f	-0.03517395
148	0xbd98a3af	-0.07453095
149	0xbd241355	-0.0400575
150	0xbf27f78e	-0.65612113
151	0xbd93039b	-0.07178422
152	0xbdb60207	-0.088871054
153	0x3da5a62f	0.08088338
154	0x3ecd3a5e	0.40083593
155	0xbe22f336	-0.1591309
156	0x3d35ad36	0.04435464
157	0xbc80710e	-0.015678909
158	0x3cd8a348	0.026445046
159	0x3d338614	0.04382904
160	0xbe28b4d7	-0.16475235
161	0xbcb18248	-0.021668568
162	0x3dd7c6c0	0.105359554
163	0xbd9e1731	-0.07719267
164	0x3e1bb074	0.1520403
165	0x3ec4847e	0.38382334
166	0xbd6fe5c0	-0.058568716
167	0x3e9487c8	0.29009843
168	0x3e6f7956	0.2338613
169	0xbdf491c9	-0.11941869
170	0x3d7ba87b	0.061439972
171	0xbd83a412	-0.06427778
172	0x3bd15913	0.0063887923
173	0x3e226c7c	0.15861696
174	0xbe01536a	-0.12629476
175	0x3ec65ed3	0.3874422
176	0x3f180fa5	0.5939887
177	0xbdcecd12	-0.10097708
178	0x3bac818b	0.005264466
179	0x3e148e18	0.1450733
180	0x3c2010e9	0.009769657
181	0x3e1d1fe3	0.15344195
182	0x3dd04400	0.1016922
183	0xbdad43fa	-0.08460231
184	0x3ebddfcf	0.37084815
185	0xbd234eb9	-0.039869998
186	0xbbfb7e49	-0.0076749665
187	0xbd0cf7fc	-0.034416184
188	0x3e858aea	0.26082546
189	0x3e4dd173	0.2009943
190	0xbf17abdc	-0.5924661
191	0x3d71c98d	0.059030104
192	0x3dbc469b	0.091931544
193	0x3d90f145	0.070772685
194	0xbe2f1e5c	-0.17101425
195	0xbcf636fc	-0.030055515
196	0x3e56f612	0.20992306
197	0xbd2d72b5	-0.04234572
198	0x3c0e5880	0.008688092
199	0x3d41980c	0.047264144
200	0x3e6706ef	0.22561239
201	0xbe700277	-0.2343844
202	0x3e993f69	0.2993119
203	0xbe5823bf	-0.21107386
204	0x3ddb658c	0.10712728
205	0xbceffb53	-0.029294645
206	0x3e05036d	0.12989588
207	0x3d9b830a	0.07593353
208	0x3dcc3ed5	0.09972922
209	0xbea41e36	-0.320543
210	0x3ecb9b9d	0.3976716
211	0xbd4349c8	-0.047677785
212	0x3e649336	0.22321782
213	0xbd3a50bd	-0.045487154
214	0x3ea6b8d7	0.32562897
215	0xbd858ca7	-0.06520968
216	0xbcf66253	-0.030076182
217	0x3e08eb4c	0.13371009
218	0xbe37be2b	-0.17943637
219	0xbd76f964	-0.06029643
220	0x3e87e4c5	0.26541725
221	0xbe043d60	-0.12914038
222	0xbe125dae	-0.14293548
223	0xbe0d6912	-0.13809612
224	0x3e21e557	0.15810142
225	0x3dd5bdd2	0.10436596
226	0x3eb5140f	0.35366866
227	0xbdaa7ab1	-0.08324183
228	0x3ee7b531	0.45255426
229	0xbf45b29b	-0.77225655
230	0xbe4764d5	-0.19472058
231	0x3e95a625	0.2922832
232	0x3ddb1295	0.106969036
233	0xbd8ee058	-0.06976384
234	0xbdb7ca3e	-0.089741215
235	0x3cdf89c4	0.027287371
236	0x3e954ca8	0.29160047
237	0x3ce9d5ea	0.028544385
238	0xbe4d33b7	-0.20039259
239	0xbb86c03c	-0.0041122716
240	0xbf0416d1	-0.51597315
241	0xbeb63ab0	-0.3559165
242	0x3df711a6	0.12063913
243	0xb9b835b9	-0.0003513524
244	0xbdbc6b77	-0.09200185
245	0x3e5521d6	0.20813689
246	0xbf72cfef	-0.9484853
247	0x3e62e3e9	0.22157253
248	0x3d2be6f7	0.041968312
249	0x3da24206	0.07922749
250	0x3d98404f	0.07434141
251	0x3e3bd6a4	0.18343598
252	0x3eba319f	0.36365983
253	0x3e04cbef	0.1296842
254	0xbef5fbe4	-0.4804374
255	0xbe28b768	-0.16476214

bias f4 [32]
0	0xbd43d554	-0.047810867
1	0xbd0a4720	-0.033759236
2	0x3e713ccc	0.23558348
3	0x3cdbd303	0.026834017
4	0x3b8848b1	0.004159056
5	0x3d92dffe	0.07171629
6	0xbe565a4e	-0.20932886
7	0xbe33d89e	-0.17563102
8	0x3e98324d	0.29725876
9	0x3e85c775	0.26128736
10	0xbc3bba8e	-0.011458052
11	0xbe30c6de	-0.17263362
12	0xbde101e7	-0.10986691
13	0x3d4bae00	0.049726486
14	0xbde802a0	-0.11328626
15	0x3dc54a25	0.096332826
16	0x3d1c53f5	0.038166005
17	0xbe06185d	-0.13095231
18	0x3d1593a0	0.03651774
19	0xbe798000	-0.24365234
20	0xbc3d4831	-0.011552856
21	0x3f502ffe	0.8132323
22	0xbe557ce9	-0.2084843
23	0xbd87710e	-0.0661336
24	0x3d121f6e	0.035674505
25	0x3de27c7e	0.11058901
26	0xbdf0796a	-0.11741908
27	0x3e3ff45e	0.18745562
28	0xbeb02d9b	-0.34409794
29	0x3e90b207	0.28260824
30	0x3d8322fd	0.06403158
31	0xbd6f068c	-0.058355853

weight f4 [4, 32]
0	0xbe91b557	-0.28458664
1	0x3e156d74	0.14592534
2	0x3d88ef76	0.066862985
3	0x3b5f387c	0.0034060767
4	0xbe3439a4	-0.17600113
5	0x3e1105f4	0.14162427
6	0xbe094739	-0.13406076
7	0xbde8bd7d	-0.11364267
8	0xbd97fb64	-0.07420996
9	0xbe2ca31f	-0.16859101
10	0x3dc19313	0.0945188
11	0xbb43f45a	-0.0029900284
12	0xbe342e5c	-0.1759581
13	0x3d637eb6	0.055540763
14	0x3e78c486	0.24293718
15	0xbdea16f3	-0.114301585
16	0xbe3b6b4b	-0.18302648
17	0xbd4e9bda	-0.0504416
18	0xb9abc85e	-0.00032764947
19	0xbe1c7cb5	-0.15281947
20	0x3f1afe66	0.6054443
21	0x3ec5a3c3	0.38601503
22	0xbcd42828	-0.025898054
23	0x3e2524a0	0.16127253
24	0xbe2131a4	-0.15741593
25	0xbddfd841	-0.10929919
26	0xbcc3531e	-0.023843344
27	0xbe414079	-0.1887225
28	0x3e970797	0.29497978
29	0x3ea161cf	0.31519935
30	0x3d4b35d0	0.049611866
31	0xbbf1b48c	-0.007376259
32	0xbe03212d	-0.12805624
33	0x3d940098	0.07226676
34	0x3dc775a7	0.09739237
35	0xbda52219	-0.08063144
36	0xbdd3c8fb	-0.10341068
37	0xbd5faa45	-0.05460574
38	0x3e174624	0.1477285
39	0xbdd23f3c	-0.10265967
40	0xbe83bc0a	-0.257294
41	0xbddcfd5a	-0.107905105
42	0x3d36b23d	0.044603575
43	0x3cc91154	0.024544396
44	0xbe1b569c	-0.15169758
45	0xbd54059a	-0.051763155
46	0xbe4ae502	-0.19813922
47	0x3e77f874	0.24215871
48	0xbcb259df	-0.02177137
49	0x3d214760	0.03937471
50	0xbcc13205	-0.023583421
51	0x3df90c72	0.12160577
52	0xbd844bfc	-0.06459805
53	0x3f1ea614	0.61972165
54	0x3d02d5da	0.031942226
55	0x3e80009f	0.25000474
56	0xbe5ab889	-0.21359457
57	0x3cba3847	0.022731913
58	0x3e036c0c	0.12834185
59	0x3e3d5128	0.1848799
60	0x3d822a11	0.0635568
61	0xbec56543	-0.3855382
62	0x3da29e2d	0.07940326
63	0xbdc6917a	-0.09695716
64	0x3e08b7bb	0.13351338
65	0x3d7f5ab6	0.062342368
66	0xbe8cb3bd	-0.2748088
67	0xbc9c24a0	-0.019060433
68	0xbdf207c1	-0.11817885
69	0x3ca706fc	0.020389073
70	0x3c401432	0.011723565
71	0x3e083d0a	0.13304535
72	0xbe48c9f6	-0.19608292
73	0xbe56d244	-0.20978647
74	0xbe370b3e	-0.17875382
75	0xbddd3726	-0.10801534
76	0xba2f32b6	-0.0006683277
77	0x3d344b47	0.044017103
78	0x3e8b4bd6	0.27206296
79	0xbd961803	-0.073287986
80	0x3e4d0fb4	0.20025522
81	0xbdceb08a	-0.10092266
82	0xbe05969f	-0.13045739
83	0xbe351dfb	-0.17687218
84	0xbe382e9d	-0.17986532
85	0x3eb713d0	0.35757303
86	0xbbaf10b1	-0.005342566
87	0xbd39a96a	-0.04532758
88	0xbe1610b5	-0.1465481
89	0x3e907d8b	0.28220782
90	0xbe4e10c9	-0.2012359
91	0xbd866669	-0.06562502
92	0x3de52937	0.11189502
93	0xbf205027	-0.626223
94	0x3e7018e4	0.23446995
95	0xbdcd963f	-0.10038423
96	0xbdd51d5b	-0.1040599
97	0x3de0f498	0.109841526
98	0x3e3f1106	0.18658838
99	0x3ec7e692	0.390431
100	0xbd20403c	-0.03912376
101	0x3d048e15	0.032362062
102	0xbe2dd8bc	-0.16977209
103	0xbc052003	-0.008125308
104	0xbe342071	-0.175905
105	0xbda60f99	-0.08108444
106	0xbe951063	-0.29114065
107	0xbdb16c8e	-0.08663283
108	0xbd120ba9	-0.03565565
109	0x3dae1295	0.08499638
110	0xbd5b8e71	-0.05360264
111	0x3cff036f	0.031129567
112	0xbd8b1c07	-0.06792455
113	0x3cb7b6f2	0.022426102
114	0x3c925e4d	0.017867232
115	0x3e84beec	0.25926912
116	0xbe1fdf44	-0.15612513
117	0x3df30400	0.11865997
118	0xbdaf0ce6	-0.08547382
119	0xbd984de9	-0.07436735
120	0x3e0963ac	0.13416928
121	0x3dad2652	0.08454575
122	0x3ca7f6b3	0.020503378
123	0xbda56e2a	-0.08077653
124	0xbed9fcf4	-0.425758
125	0xbdba2075	-0.09088222
126	0xbc502ae6	-0.01270554
127	0xbda6ac44	-0.08138326

bias f4 [4]
0	0xbd08954e	-0.033345513
1	0xbe5c0dc6	-0.21489629
2	0x3e511842	0.2041941
3	0xbe3a8066	-0.18213043

weight f4 [32, 4]
0	0xbe35065b	-0.17678206
1	0xbc654c56	-0.013995251
2	0xbd9c70a9	-0.07638676
3	0x3d715bdc	0.058925495
4	0x3ee651f1	0.4498439
5	0xbe56a332	-0.20960692
6	0xbe62b6bd	-0.22140022
7	0xbee9ac94	-0.4563948
8	0x3cabd0b1	0.020973535
9	0x3e807f05	0.25096908
10	0x3d8e3bda	0.069450095
11	0x3f47e68a	0.7808615
12	0xbe5e416c	-0.21704644
13	0xbe1a56b5	-0.15072139
14	0xbeda074c	-0.42583692
15	0xbec170e3	-0.37781438
16	0xbdfae80a	-0.12251289
17	0x3e930165	0.28712
18	0x3e541eb2	0.20714834
19	0xbe82ccf2	-0.25546986
20	0xbe8e58cb	-0.2780212
21	0xbeab1903	-0.3341752
22	0xbbb42bf0	-0.005498402
23	0x3f007a77	0.50186867
24	0x3f14c329	0.5811029
25	0x3d9b2189	0.07574756
26	0xbeabba7f	-0.33540723
27	0x3ed8ca72	0.42341954
28	0x3df4482e	0.1192783
29	0x3d0b00ce	0.033936314
30	0x3f1bc688	0.6084981
31	0x3f3e46e2	0.7432691
32	0xbed0f8a2	-0.40814692
33	0x3e1e8e83	0.15484051
34	0xbe9ca917	-0.30597755
35	0x3e5675c2	0.20943359
36	0x3e1e1fb3	0.1544178
37	0x3eb08c80	0.34482193
38	0xbe05a0f7	-0.13049684
39	0xbf24be8b	-0.64353245
40	0xbe90cc07	-0.2828066
41	0xbecf4c08	-0.40487695
42	0x3e3c26ca	0.18374172
43	0xbdcc4f72	-0.099760905
44	0x3d7f759a	0.062368013
45	0x3f362de6	0.71163785
46	0x3e6aed0d	0.2294199
47	0x3e823158	0.2542827
48	0x3f1918a4	0.59803224
49	0xbf3da2b2	-0.7407638
50	0x3e48c2d3	0.1960557
51	0xbda91a6e	-0.08256994
52	0x3e8c6403	0.27420053
53	0x3e794dfb	0.24346153
54	0x3f1f0d44	0.62129617
55	0x3ecbf21e	0.39833158
56	0xbe97ebb3	-0.29672012
57	0x3d80b4a8	0.062844574
58	0xbec49ade	-0.38399404
59	0xbc2af5d6	-0.010434588
60	0xbe8468dc	-0.2586125
61	0xbde164df	-0.11005568
62	0x3e11e559	0.14247645
63	0xbd3016bb	-0.042990427
64	0x3f6fc9ba	0.93667185
65	0xbe24afab	-0.16082637
66	0xbd5a3104	-0.0532694
67	0xbe90f550	-0.2831216
68	0xbe7bd83b	-0.24594204
69	0x3dac2465	0.08405379
70	0xbdf9a8f6	-0.1219043
71	0xbdc05e70	-0.093930125
72	0xbe7ca7f0	-0.24673438
73	0x3b83a50c	0.004017478
74	0xbdc774ea	-0.097390965
75	0xbe2b2bb7	-0.16715895
76	0xbdc515ee	-0.096233234
77	0x3ec35334	0.38149416
78	0xbe5fdf76	-0.21862587
79	0x3e2d470d	0.16921635
80	0x3e83c8a1	0.25739005
81	0xbf205b5a	-0.6263939
82	0xbd6c2704	-0.057654396
83	0x3ef52074	0.47876322
84	0x3f80de81	1.0067903
85	0x3ed242cd	0.4106659
86	0x3ee42a6a	0.4456361
87	0x3e58c4a4	0.21168762
88	0xbeaf5e2a	-0.3425153
89	0x3e841d00	0.25803375
90	0xbdbb74a3	-0.09153106
91	0x3e5a40ac	0.21313733
92	0xbe15ae89	-0.14617361
93	0x3ebf1e81	0.3732796
94	0x3d14b630	0.03630656
95	0xbea39a60	-0.31953716
96	0x3eff7909	0.4989703
97	0xbe48ff93	-0.19628744
98	0x3d23a3f5	0.039951283
99	0x3f542338	0.8286624
100	0x3ca0e800	0.019641876
101	0xbd77c36c	-0.060489103
102	0xbdb63754	-0.08897272
103	0xbea04734	-0.31304324
104	0xbeaa751f	-0.3329248
105	0x3e08aa06	0.13346109
106	0x3f002bd5	0.5006688
107	0x3db2b5a4	0.087260514
108	0x3ec46a38	0.38362288
109	0x3e49d3b3	0.19709663
110	0x3d97beb3	0.0740942
111	0x3f65aaa4	0.897135
112	0x3ef145aa	0.47123462
113	0xbe9c59e9	-0.30537346
114	0x3f1339b2	0.5750991
115	0xbd2e7c5d	-0.04259907
116	0xbebd5f88	-0.36986947
117	0xbe84d1b6	-0.25941247
118	0x3e95e111	0.29273275
119	0x3e73dfd3	0.23815851
120	0xbd980c71	-0.07424248
121	0xbee7c932	-0.45270687
122	0xbe60ebae	-0.21964905
123	0xbdc37f43	-0.095457576
124	0xbee236a9	-0.44182327
125	0xbe5c801e	-0.21533248
126	0x3e7d0854	0.24710208
127	0xbef9d5d2	-0.48795944

bias f4 [32]
0	0x3f5c9d1b	0.86177224
1	0x3f72670c	0.9468849
2	0x3edf92cb	0.43666682
3	0x3ee16b6e	0.44027275
4	0xbecd8554	-0.40140784
5	0x3efb94e3	0.4913703
6	0xbd6b020b	-0.057374995
7	0xbf232141	-0.63722616
8	0x3e0eb587	0.13936435
9	0xbee9d71a	-0.45671922
10	0xbdb20922	-0.08693148
11	0x3f0a5813	0.5404064
12	0xbe6b802d	-0.22998114
13	0xbf90768e	-1.128618
14	0xbed370e2	-0.4129706
15	0xbf1b0a0f	-0.60562223
16	0xbec543d9	-0.38528326
17	0xbfb4a10f	-1.4111651
18	0xbd4321da	-0.047639705
19	0x3f4fc301	0.8115693
20	0x3c5ad4c4	0.013356391
21	0xbd9f6a5d	-0.07783959
22	0x3eecdc2c	0.46261728
23	0x3d62f504	0.055409446
24	0x3f106f5e	0.5641993
25	0x3f67ef9f	0.9060001
26	0x3f2beb03	0.67155474
27	0xbf512843	-0.8170206
28	0x3f4ae604	0.79257226
29	0xbe9bc2a9	-0.3042195
30	0xbd075cf1	-0.03304762
31	0x3edacc42	0.4273396
