AE Models/4lat2.159loss.pth (torch, 116162 bytes, 27 tensors)

weight f4 [16, 1, 4]
0.07565998 0.19812027 0.127309 0.15544195 -0.10432509 -0.049143765 0.15457647 -0.1215315
-0.23574635 0.011515804 0.009505332 -0.35142282 0.13312253 0.02275903 0.10032854 -0.036715597
-0.21980207 0.20055808 -0.15485199 0.023335505 0.20654662 -0.32388625 -0.10726887 0.07109942
0.06925728 -0.00817693 0.11467384 -0.45091686 -0.02427293 -0.08589963 -0.16229165 -0.07769454
0.16751727 -0.03211824 -0.054655313 0.15358986 -0.057438716 0.0876963 0.025226245 -0.30680186
0.32349417 -0.1148939 0.0688733 -0.34088722 -0.56638145 -0.34397143 0.04339894 0.09061317
-0.1461145 -0.10003033 -0.067586794 -0.26414588 -0.24464479 -0.047087032 -0.024466967 0.17859496
-0.06560413 -0.12753373 -0.07321045 0.043051 -0.017010007 -0.00052233256 0.25546554 -0.036998447
00000000: 9ff3 9a3d 0ae0 4a3e 4a5d 023e 2d2c 1f3e
00000010: 65a8 d5bd f94a 49bd 4b49 1e3e 82e5 f8bd
00000020: 7e67 71be c8ac 3c3c 41bc 1b3c b1ed b3be
00000030: 4651 083e 2571 ba3c 0d79 cd3d 1863 16bd
00000040: cb13 61be 195f 4d3e 8591 1ebe 1a2a bf3c
00000050: f580 533e 6bd4 a5be c8af dbbd 939c 913d
00000060: c3d6 8d3d 88f8 05bc 1eda ea3d 93de e6be
00000070: 06d8 c6bc 25ec afbd c82f 26be 511e 9fbd
00000080: a689 2b3e 6a8e 03bd 40de 5fbd a946 1d3e
00000090: dc44 6bbd 1e9a b33d 45a7 ce3c 2215 9dbe
000000a0: 07a1 a53e 7e4d ebbd 720d 8d3d c588 aebe
000000b0: 60fe 10bf 061d b0be 16c3 313d 6693 b93d
000000c0: 0a9f 15be b4dc ccbd f26a 8abd 213e 87be
000000d0: 2a84 7abe 55de 40bd f36e c8bc 99e1 363e
000000e0: 755b 86bd 3498 02be 5cef 95bd 3f56 303d
000000f0: 9258 8bbc 25ed 08ba 61cc 823e af8b 17bd

bias f4 [16]
-0.8913686 1.4952369 -0.37262797 0.5465258 -0.45682102 0.2155283 -0.15544109 0.4705916
-0.9664461 1.1446681 0.23706397 0.18971811 0.82762736 -0.77047026 0.7483377 -0.6916636
00000000: bc30 64bf ec63 bf3f 18c9 bebe 1de9 0b3f
00000010: 72e4 e9be 73b3 5c3e f32b 1fbe 62f1 f03e
00000020: 0369 77bf 7c84 923f e6c0 723e 7745 423e
00000030: 63df 533f 8a3d 45bf 0f93 3f3f de10 31bf

weight f4 [16, 16, 4]
-0.30286348 0.0213417 0.05797672 0.2542372 0.09580139 0.2107379 -0.1137389 -0.17276348
-0.08489613 0.022916181 0.07026542 -0.057906702 -0.1574835 -0.05451106 0.15678763 0.1788896
-0.31677306 0.16835451 0.14407349 0.05276312 0.0051012808 0.040155105 -0.12158345 0.086931795
-0.81510264 -0.18055595 0.1546023 0.319353 -0.054033257 -0.08379778 -0.025675891 0.03953215
-0.3642742 -0.07457031 0.11833369 0.08372904 -0.07840819 0.1072421 0.086474426 -0.19689445
-0.16167541 0.18550144 -0.09401026 -0.07682667 0.2946072 0.14813681 0.07862126 -0.039037045
0.051878344 0.3388833 -0.14760284 -0.4959101 -0.13374776 0.08033789 0.1604168 -0.010130812
-0.0021103541 0.040725447 0.14088733 0.35091463 -0.14213073 -0.028319264 -0.009047357 -0.047626656
0.252354 0.14482704 0.216824 0.2478307 -0.119738914 0.025129624 0.17365515 0.05406223
0.1009736 -0.12854567 0.017189862 -0.13301039 0.3628993 0.14697084 0.20424367 0.20544656
-0.11009982 -0.015638513 0.037204955 -0.032695785 0.00062892155 -0.02708308 -0.047290683 0.014301738
0.047281038 -0.008814955 0.050733134 0.22477753 0.06928088 -0.036241647 0.061895866 -0.17824861
0.14506505 0.04109354 -0.16148514 -0.02916012 0.023240939 0.02376499 -0.039946746 -0.052573096
-0.064730585 -0.07874183 -0.05471403 -0.16765043 -0.092709154 -0.0077635515 -0.06449419 -0.010499021
-0.35957745 -0.12553066 -0.07296277 -0.27076313 -0.024570731 -0.014330408 0.076230176 -0.17963049
-0.069321334 -0.041243043 -0.024962215 -0.000115223535 0.058236297 0.051701564 -0.095209695 -0.10012823
-0.95393974 -1.0268358 -0.26717705 0.13772435 -0.27215457 -0.07179659 0.042427275 0.13752015
-0.12062104 0.05428836 -0.056687336 -0.092638806 -0.48255277 -0.60240054 -0.28303137 -0.023989439
0.021139106 0.35678297 0.22440313 0.35148922 -0.1317419 -0.49887866 0.24818319 0.1810237
-0.64644104 -0.54360867 0.26189026 0.0077585164 -0.09800302 -0.07080244 0.11931465 -0.104877
-0.63238496 -0.5819718 -0.0046068523 0.27364373 -0.20554481 0.08229366 0.12868199 0.13536222
-0.07381066 -0.0589604 -0.3210385 0.39850783 -0.093776025 0.3567699 0.062311623 0.31288725
0.5925859 0.4769162 -0.05602175 -0.24861725 -0.5785657 -0.14121492 0.12505162 0.21501766
-0.25885585 -0.31115815 0.07325418 0.031323373 -0.8925271 -0.736137 -0.06613405 0.14186396
0.029417336 -0.046494637 -0.162797 -0.21083997 -0.5425102 0.08512647 -0.04205803 0.089698516
-0.06210688 -0.02843184 0.10254458 0.009042895 0.037031334 -0.045514718 -0.019018594 0.0027022515
-0.20509413 -0.22983815 0.20437345 -1.2523907 0.2892052 0.054986153 0.0680831 -0.28524378
0.36213472 0.12481359 0.35527006 0.03999651 -0.031771984 -0.024405964 0.16895105 0.2970533
0.20273995 0.032481465 -0.23903644 -0.33057287 -0.16936909 0.12841831 0.3258451 0.11951789
0.12272404 -0.51817465 -0.053282432 -0.020995859 -0.7216338 -0.8905902 -0.87632823 0.052962434
-0.50474095 -0.05169752 -1.9811846 -0.30748335 -0.7855624 -1.0029937 -0.8789332 -0.33944416
0.053878576 0.4479389 0.20422706 0.36868107 -0.31318545 0.007553227 0.118033476 -1.0131996
00000000: ec10 9bbe cad4 ae3c ff78 6d3d 612b 823e
00000010: 8533 c43d adcb 573e f1ef e8bd e9e8 30be
00000020: 06de adbd b7ba bb3c 51e7 8f3d 942f 6dbd
00000030: 5b43 21be fd46 5fbd f08c 203e d62e 373e
00000040: 1430 a2be 2065 2c3e 0088 133e 241e 583d
00000050: a528 a73b ae79 243d be00 f9bd 4c09 b23d
00000060: 91aa 50bf a9e3 38be 1150 1e3e 3d82 a33e
00000070: fa51 5dbd 2c9e abbd 3f56 d2bc 77ec 213d
00000080: 2682 babe 52b8 98bd ef58 f23d 227a ab3d
00000090: 7994 a0bd bfa1 db3d 8119 b13d b39e 49be
000000a0: 3d8e 25be 17f4 3d3e 7488 c0bd 4d57 9dbd
000000b0: c1d6 963e 2db1 173e 2f04 a13d 4fe5 1fbd
000000c0: 637e 543d 1d82 ad3e 3325 17be eee7 fdbe
000000d0: 2cf5 08be 3188 a43d 4d44 243e b5fb 25bc
000000e0: de4d 0abb bacf 263d c544 103e 15ab b33e
000000f0: b88a 11be cdfd e7bc 5e3b 14bc 2b14 43bd
00000100: 8b34 813e 8a4d 143e 1c07 5e3e 55c7 7d3e
00000110: ad39 f5bd a4dc cd3c a8d2 313e 5b70 5d3d
00000120: 3fcb ce3d 7aa1 03be c1d1 8c3c e033 08be
00000130: f0cd b93e 867f 163e 4125 513e 9560 523e
00000140: 047c e1bd 571c 80bc 3964 183d 04ec 05bd
00000150: 36de 243a 56dd ddbc e0b3 41bd d651 6a3c
00000160: c3a9 413d 9a6c 10bc 8ccd 4f3d 152c 663e
00000170: 22e3 8d3d 1f72 14bd 8586 7d3d ce86 36be
00000180: ef8b 143e b351 283d 5c5c 25be 34e1 eebc
00000190: c863 be3c ccae c23c 339f 23bd e356 57bd
000001a0: 7891 84bd 6643 a1bd d21b 60bd 8eac 2bbe
000001b0: 4cde bdbd 6465 febb 8815 84bd 1604 2cbc
000001c0: 891a b8be 1c8b 00be 816d 95bd 77a1 8abe
000001d0: 8f48 c9bc 16ca 6abc 911e 9c3d 0ef1 37be
000001e0: 58f8 8dbd 77ee 28bd 8f7d ccbc 2aa4 f1b8
000001f0: 2f89 6e3d 05c5 533d 4dfd c2bd 0810 cdbd
00000200: 6535 74bf 5b6f 83bf 6ecb 88be 9d07 0d3e
00000210: d857 8bbe 170a 93bd 39c8 2d3d 15d2 0c3e
00000220: 2a08 f7bd 795d 5e3d fb30 68bd 6ab9 bdbd
00000230: 2811 f7be ec36 1abf 7de9 90be 8085 c4bc
00000240: eb2b ad3c 42ac b63e efc9 653e 65f6 b33e
00000250: 59e7 06be 066d ffbe bc23 7e3e 475e 393e
00000260: 297d 25bf f029 0bbf 7b16 863e 273b fe3b
00000270: cfb5 c8bd df00 91bd 3d5b f43d c1c9 d6bd
00000280: fbe3 21bf 1bfc 14bf 14f5 96bb 081b 8c3e
00000290: 577a 52be 9489 a83d 36c5 033e 659c 0a3e
000002a0: 0b2a 97bd 7680 71bd 295f a4be 3809 cc3e
000002b0: a50d c0bd 8baa b63e 793a 7f3d c232 a03e
000002c0: b6b3 173f 5c2e f43e 1077 65bd 8595 7ebe
000002d0: e21c 14bf a59a 10be 880d 003e 972d 5c3e
000002e0: c188 84be 1f50 9fbe 4a06 963d f04c 003d
000002f0: a87c 64bf 7973 3cbf 4a71 87bd c944 113e
00000300: a0fc f03c 2971 3ebd 42b4 26be 6fe6 57be
00000310: f3e1 0abf c956 ae3d 0a45 2cbd dbb3 b73d
00000320: c963 7ebd e4e9 e8bc e502 d23d a728 143c
00000330: 2bae 173d a46d 3abd e2cc 9bbc 4218 313b
00000340: 3204 52be b15a 6bbe 4647 513e 574e a0bf
00000350: b412 943e 2939 613d 276f 8b3d 790b 92be
00000360: b969 b93e 449e ff3d f5e5 b53e 61d3 233d
00000370: 5723 02bd 04ef c7bc 8101 2d3e 5f17 983e
00000380: 109b 4f3e 490b 053d f8c5 74be d940 a9be
00000390: 176f 2dbe 1780 033e 2bd5 a63e ccc5 f43d
000003a0: be56 fb3d 18a7 04bf ae3e 5abd 82ff abbc
000003b0: febc 38bf b8fd 63bf 0c57 60bf 23ef 583d
000003c0: b436 01bf c7c0 53bd 7597 fdbf 756e 9dbe
000003d0: 9e1a 49bf 1962 80bf c401 61bf a0cb adbe
000003e0: c8af 5c3d 3f58 e53e e620 513e c4c3 bc3e
000003f0: d859 a0be 0f81 f73b 89bb f13d 86b0 81bf

bias f4 [16]
-0.12654042 -0.03028133 -0.25879642 -0.42716086 -0.07410558 -0.1688357 -0.5744477 -0.28823233
-1.549245 0.09086179 -1.1289037 -0.119890675 -0.1593394 -0.5294413 -1.1862044 1.3644859
00000000: d093 01be 8d10 f8bc f780 84be d4b4 dabe
00000010: abc4 97bd 44e3 2cbe 010f 13bf 3093 93be
00000020: a94d c6bf bf15 ba3d eb7f 90bf 3e89 f5bd
00000030: de29 23be 7789 07bf 8cd5 97bf 79a7 ae3f

weight f4 [16, 16, 5]
-0.18721412 -0.07250118 -0.0667865 -0.28874004 -0.082581 0.13665767 0.18120927 0.19624923
0.21292447 0.284 -0.121116735 -0.14304355 0.10901804 0.0084377285 -0.24062432 -0.10581313
-0.1396033 -0.35536495 -0.2731047 0.040275093 -0.107981026 0.10569044 -0.08754232 -0.05003488
-0.032733858 0.020700477 -0.095059104 0.14399484 -0.18325251 0.38271916 -0.12234875 -0.033278547
0.18631795 0.00038241097 -0.09679344 -0.019081708 0.127096 -0.03446942 -0.077931814 0.13627292
0.039779983 0.04027165 -0.0032533782 0.182412 0.28090048 0.34445202 -0.053945847 0.008979767
0.03133217 -0.05347254 0.043932073 0.11551517 0.19579753 0.23228903 0.13528709 -0.092319414
-0.053512424 0.024481395 -0.054693915 0.094111815 -0.030683484 -0.07447954 -0.0047128405 0.054415774
0.025408577 0.092110485 0.20856917 0.2618593 0.06646612 0.23779036 -0.048834935 -0.008073855
-0.10844111 0.11001686 0.16635127 -0.11418372 -0.12669882 -0.109475285 -0.109434284 -0.24970397
0.038443975 0.16948663 0.16656983 0.17632319 0.02790344 -0.28343964 0.13339584 0.1509664
0.08581108 -0.13631687 0.26755634 -0.020827211 -0.059362054 0.45212132 0.45391327 0.26749498
-0.049361695 -0.092397235 0.02246942 0.20509471 -0.07036571 -0.050245903 0.07732845 0.043606356
-0.07299274 0.09339055 -0.24865356 0.1438169 0.29720587 -0.4790516 -0.4483563 0.38565102
0.16246505 -0.5061274 -0.21765961 0.19600514 0.397307 0.20409872 0.538975 0.4145115
-0.33163765 -0.120417826 0.014387992 -0.039886218 -0.43272668 0.5310982 0.27426767 -0.011786198
-0.018923134 0.28888285 -0.33598801 0.052212246 -0.021748303 0.11081695 -0.35751855 -0.009335949
-0.003771476 0.028258154 -0.01712407 0.06295559 0.06147464 -0.0112533085 -0.05399947 0.0074223517
-0.07962706 -0.20512696 0.12833226 0.08840861 -0.014475938 -0.16640553 0.16556782 -0.40327406
-0.15098777 0.2764808 -0.21575265 0.14352772 -0.031148098 -0.43927178 -0.403899 0.091911584
-0.18605304 0.0784836 -0.13744432 -0.00605488 0.17138949 0.4542192 -0.06307195 0.061219558
0.101310216 0.04613141 0.3953181 -0.53021204 -0.19144486 -0.51775354 -0.17317313 0.2572346
-0.21868119 0.15589115 -0.12374752 -0.07496529 0.071543954 -0.0506321 -0.04448668 0.109965205
-0.057820406 0.18772088 -0.7291786 -0.020521922 0.18407948 0.43294418 -0.07730338 -0.13751505
-0.10387696 0.16401803 -0.08488456 0.015168488 -0.18573825 0.2330048 0.05159388 -0.035038855
0.1888781 -0.38480717 0.041251797 0.20912659 0.19036287 -0.16009112 0.29907063 -0.34025455
0.021390485 -0.3012551 0.24123913 -0.3183307 -0.120886944 -0.04878464 0.1304613 0.018885706
0.008307704 0.01063029 -0.07390303 -0.18380012 0.091938436 -0.05008508 0.02970556 0.14254741
-0.09974997 -0.17641416 -0.14366384 -0.02787882 -0.031709082 0.04807286 0.50058013 -0.08481769
-0.07488135 0.22437806 -0.009936759 -0.17356804 -0.15960473 -0.15391326 -0.04763124 -0.10946287
-0.065852605 -0.025021167 -0.06614329 -0.06561758 -0.046264805 0.16812545 0.061590992 0.17545137
0.26893643 0.011778539 -0.20534678 0.040449597 0.21696642 -0.024772486 -0.1792057 0.15608491
00000000: 0fb5 3fbe 807b 94bd 5cc7 88bd bcd5 93be
00000010: 3a20 a9bd fdef 0b3e ec8e 393e 8ff5 483e
00000020: df08 5a3e 7368 913e 0d0c f8bd 027a 12be
00000030: da44 df3d 663e 0a3c 3966 76be 8eb4 d8bd
00000040: 2bf4 0ebe 65f2 b5be 61d4 8bbe 7ff7 243d
00000050: 2825 ddbd 3b74 d83d 6349 b3bd 60f1 4cbd
00000060: f013 06bd 0c94 a93c 59ae c2bd 6273 133e
00000070: 8ca6 3bbe c4f3 c33e fb91 fabd 164f 08bd
00000080: 22ca 3e3e 557e c839 a43b c6bd 3e51 9cbc
00000090: 7425 023e ce2f 0dbd b79a 9fbd 218b 0b3e
000000a0: 56f0 223d e3f3 243d a136 55bb 36ca 3a3e
000000b0: 30d2 8f3e 045c b03e 52f6 5cbd df1f 133c
000000c0: 2956 003d 0606 5bbd 1ef2 333d 3893 ec3d
000000d0: 267f 483e 2ddd 6d3e b388 0a3e f611 bdbd
000000e0: d82f 5bbd 358d c83c ba06 60bd b2bd c03d
000000f0: ee5b fbbc bb88 98bd 2c6e 9abb 13e3 5e3d
00000100: a625 d03c 6ca4 bc3d 2893 553e 6c12 863e
00000110: 641f 883d 517f 733e 2407 48bd 3448 04bc
00000120: 5f16 debd 8550 e13d fd57 2a3e 27d9 e9bd
00000130: 56bd 01be 9434 e0bd 151f e0bd 66b2 7fbe
00000140: 6e77 1d3d e78d 2d3e 4891 2a3e 118e 343e
00000150: c195 e43c 001f 91be eb98 083e f096 1a3e
00000160: b8bd af3d a696 0bbe 25fd 883e d49d aabc
00000170: a025 73bd 727c e73e 5267 e83e 1af5 883e
00000180: 7d2f 4abd c33a bdbd ca11 b83c 5904 523e
00000190: e61b 90bd a6ce 4dbd 615e 9e3d 949c 323d
000001a0: 387d 95bd 8b43 bf3d 0a9f 7ebe bd44 133e
000001b0: 5e2b 983e 4046 f5be f58e e5be 0d74 c53e
000001c0: 3d5d 263e 9191 01bf 29e2 5ebe 92b5 483e
000001d0: d36b cb3e 41ff 503e 44fa 093f da3a d43e
000001e0: 69cc a9be 9f9d f6bd 9dbb 6b3c bb5f 23bd
000001f0: 5a8e ddbe 0df6 073f d06c 8c3e e61a 41bc
00000200: b004 9bbc 74e8 933e 9f06 acbe 82dc 553d
00000210: 7f29 b2bc fff3 e23d ac0c b7be cff5 18bc
00000220: de2a 77bb a57d e73c c747 8cbc dcee 803d
00000230: d5cc 7b3d cc5f 38bc 8c2e 5dbd 3337 f33b
00000240: 8313 a3bd cd0c 52be 8869 033e 930f b53d
00000250: 7c2c 6dbc 3666 2abe 9c8a 293e f079 cebe
00000260: 8a9c 1abe e48e 8d3e 43ee 5cbe eef8 123e
00000270: 4c2a ffbc 3be8 e0be dacb cebe 243c bc3d
00000280: b084 3ebe 02bc a03d 34be 0cbe 0468 c6bb
00000290: ba80 2f3e 6b8f e83e de2b 81bd 5cc1 7a3d
000002a0: bb7b cf3d 4af4 3c3d 2267 ca3e fabb 07bf
000002b0: 1f0a 44be 7f8b 04bf 4c54 31be 41b4 833e
000002c0: f6ed 5fbe eea1 1f3e 576f fdbd 6787 99bd
000002d0: a385 923d 9b63 4fbd aa37 36bd 7035 e13d
000002e0: 17d5 6cbd e739 403e 73ab 3abf 971d a8bc
000002f0: 557f 3c3e dcaa dd3e 3c51 9ebd bfd0 0cbe
00000300: 72bd d4bd 58f4 273e f5d7 adbd 4085 783c
00000310: 2b32 3ebe cf98 6e3e 1b54 533d e784 0fbd
00000320: 4369 413e 7205 c5be a5f7 283d 4825 563e
00000330: 7cee 423e edee 23be c91f 993e d835 aebe
00000340: 193b af3c 1c3e 9abe 6407 773e 3efc a2be
00000350: 9393 f7bd 67d2 47bd a697 053e 32b6 9a3c
00000360: 091d 083c ab2a 2e3c 795a 97bd 1936 3cbe
00000370: 384a bc3d 0326 4dbd 1359 f33c f3f7 113e
00000380: b649 ccbd eaa5 34be 9d1c 13be 2062 e4bc
00000390: 62e1 01bd 0ce8 443d 0526 003f e6b4 adbd
000003a0: 655b 99bd 5dc3 653e cacd 22bc d2bb 31be
000003b0: 6c6f 23be 709b 1dbe fa18 43bd 122e e0bd
000003c0: bbdd 86bd 31f9 ccbc 2276 87bd 8362 86bd
000003d0: 2a80 3dbd 1429 2c3e d646 7c3d 86a9 333e
000003e0: 09b2 893e c6fa 403c 6d46 52be 7aae 253d
000003f0: 722c 5e3e abef cabc b381 37be b9d4 1f3e

bias f4 [16]
0.16091621 -0.1501949 -0.231485 0.37237987 -0.2743856 0.3796942 -0.1536983 -0.027666224
-0.59408206 -0.77389824 -0.04722556 -0.13549636 0.4232775 0.08815011 -0.2754059 -0.28658623
00000000: 38c7 243e b1cc 19be 670a 6dbe 93a8 be3e
00000010: 457c 8cbe 4767 c23e 1663 1dbe 47a4 e2bc
00000020: c315 18bf 321e 46bf 976f 41bd 8fbf 0abe
00000030: d4b7 d83e 0b88 b43d 0102 8dbe 6ebb 92be

weight f4 [16, 16, 5]
0.38475728 0.05995511 -0.1003938 0.0008989128 -0.01994703 0.29878622 0.33307675 -0.121663064
-0.07975077 -0.17989072 -0.108066276 0.029723966 0.18337078 -0.18489349 -0.025270183 0.035843864
-0.0481028 -0.19466926 -0.123307444 0.07966559 0.54575425 -0.24413212 -0.5374157 0.1556613
0.10290557 -0.20181869 0.11439099 0.07711457 -0.12943745 0.050513152 0.0068600746 -0.10838134
-0.07603838 0.068247534 0.09219396 0.033347815 -0.11433985 0.052052107 0.10015719 0.058859713
0.12445631 0.26671624 -0.14094557 -0.22701578 -0.082834885 0.13998285 -0.1268387 -1.0900434
-0.13303159 -0.4164553 -0.12036137 -0.07086973 -0.084014654 0.012094258 -0.08458732 -0.4713562
-0.0382399 0.042535983 -0.17881997 -0.16104048 0.04289308 -0.4201769 0.16570644 0.059319176
0.08481502 0.29838055 -0.0061674058 -0.11334795 0.06673754 -0.0029409002 0.36347038 -0.078884855
-0.34500402 -0.10754387 -0.3037566 0.20421118 0.27942637 -0.21951006 -0.06408026 -0.05979384
0.0487406 0.0044415565 0.07146861 0.4099901 0.3306172 -0.103734106 -0.059831522 -0.078167416
0.010705248 0.13025092 -0.050025087 -0.008090019 -0.007807493 -0.034171786 0.04942949 0.07974454
0.054780837 -0.14048973 0.24476926 0.15896666 -0.07637371 -0.07628157 -0.2487671 -0.02263888
-0.024873082 -0.19793911 -0.07987423 -0.05043455 -0.0812604 -0.14575791 0.0076036616 0.02112369
0.009982981 -0.15273231 0.053944737 -0.09193153 -0.05897739 0.105384804 0.015363012 0.039482858
-0.060071666 -0.1581345 -0.02958112 0.13381103 0.2483568 -0.38323563 -0.25286728 -0.37417874
-0.09925897 0.15349227 -0.02904586 0.005611302 0.009410168 0.02022452 -0.0028098593 -0.20694494
-0.42888832 -0.33563003 0.37010604 -0.057526004 -0.054317147 -0.33883286 0.01106561 0.04740241
-0.38838303 -0.1888095 -0.47361696 -0.45427412 -0.22047107 0.17356731 -0.21773703 -0.40156382
-0.20924616 -0.267514 -0.1311992 -0.33374527 -0.524504 -0.40439156 0.30942905 0.5385185
-0.33879134 -0.18572187 -0.16532907 0.1589085 0.25838715 0.15752211 0.040322468 -0.40695095
0.03761475 0.23961334 -0.24233238 -0.008837576 -0.007080592 -0.27555442 -0.19142902 -0.015284066
0.07939008 0.03824642 0.045512475 -0.18145518 -0.04926297 -0.11305003 -0.23163785 0.13962668
-0.005942379 0.22436441 0.24797471 0.33377147 0.21079984 0.011068742 0.028768966 0.011998494
0.02279264 -0.029736817 -0.0957921 -0.04711527 0.05369009 -0.014801741 0.030749999 0.02564977
-0.21695182 -0.15535305 -0.29775295 0.016481532 0.27051473 -0.7202774 0.10235535 -0.12453986
-0.19571939 -0.112556 -0.0039197123 -0.089609236 0.08481422 0.027999932 0.013527609 0.08266783
0.27109343 0.5839617 0.13663463 -0.57707894 0.2598755 0.14072593 -0.029566795 0.13173911
0.11300504 0.051144097 -0.23491865 -0.07483791 -0.21763131 0.074121706 0.2269678 -0.08860332
-0.09063611 0.21995679 0.21745971 0.01728641 -0.22106856 0.052408308 0.30226198 -0.12478103
0.015247613 0.0066580847 -0.20334986 -0.27847403 -0.251214 -0.26833853 0.17540495 0.14236777
-0.0027891477 -0.88450813 0.050526444 0.02688823 0.2509064 -0.20747581 0.28999203 -0.00068457215
00000000: e8fe c43e 7d93 753d 449b cdbd 04a5 6b3a
00000010: f467 a3bc 82fa 983e 0989 aa3e 7c2a f9bd
00000020: 5f54 a3bd 4635 38be da51 ddbd ad7f f33c
00000030: 8dc5 3b3e b854 3dbe 6a03 cfbc 04d1 123d
00000040: 7107 45bd 6157 47be 9d88 fcbd b627 a33d
00000050: 8db6 0b3f c5fd 79be 1394 09bf ad65 1f3e
00000060: 28c0 d23d 8fa9 4ebe d345 ea3d 3eee 9d3d
00000070: 408b 04be e1e6 4e3d 7aca e03b 09f7 ddbd
00000080: 03ba 9bbd 5dc5 8b3d 30d0 bc3d b897 083d
00000090: 032b eabd 9734 553d 361f cd3d e216 713d
000000a0: f3e2 fe3d 088f 883e 0954 10be d376 68be
000000b0: 56a5 a9bd aa57 0f3e 01e2 01be 8b86 8bbf
000000c0: 6f39 08be a139 d5be 0680 f6bd 2624 91bd
000000d0: e00f acbd ff26 463c 1e3c adbd 9a55 f1be
000000e0: 71a1 1cbd 363a 2e3d 951c 37be cce7 24be
000000f0: a7b0 2f3d 6d21 d7be f3ae 293e aaf8 723d
00000100: 7fb3 ad3d 56c5 983e f317 cabb f822 e8bd
00000110: b1ad 883d 1ebc 40bb ca18 ba3e 628e a1bd
00000120: 5ea4 b0be f63f dcbd fc85 9bbe bc1c 513e
00000130: f910 8f3e 3fc7 60be 833c 83bd 63ea 74bd
00000140: 39a4 473d 7a8a 913b 225e 923d 39ea d13e
00000150: a846 a93e 8c72 d4bd e611 75bd 3d16 a0bd
00000160: 1165 2f3c 7f60 053e 1be7 4cbd 008c 04bc
00000170: 00d6 ffbb b7f7 0bbd 9476 4a3d 1b51 a33d
00000180: df61 603d 8adc 0fbe cba4 7a3e 28c8 223e
00000190: d269 9cbd 8339 9cbd cdbc 7ebe 2c75 b9bc
000001a0: a2c2 cbbc 8db0 4abe 1a95 a3bd 7594 4ebd
000001b0: da6b a6bd 9041 15be 2328 f93b 970b ad3c
000001c0: a88f 233c dc65 1cbe 28f5 5c3d 9946 bcbd
000001d0: 4792 71bd fdd3 d73d 25b5 7b3c c7b8 213d
000001e0: b50d 76bd 03ee 21be 1b54 f2bc c205 093e
000001f0: 3f51 7e3e 7637 c4be d277 81be 5b94 bfbe
00000200: 4948 cbbd 142d 1d3e 95f1 edbc 03df b73b
00000210: 1b2d 1a3c e4ad a53c 9e25 38bb 60e9 53be
00000220: 4097 dbbe b3d7 abbe 8a7e bd3e 63a0 6bbd
00000230: a87b 5ebd 807b adbe 884c 353c 0829 423d
00000240: 24da c6be 4757 41be ec7d f2be 9e96 e8be
00000250: 2bc3 61be a1bb 313e 75f6 5ebe c699 cdbe
00000260: a044 56be 98f7 88be 1559 06be a9e0 aabe
00000270: e545 06bf 690c cfbe 7c6d 9e3e 59dc 093f
00000280: 0f76 adbe e02d 3ebe 064c 29be e9b8 223e
00000290: 524b 843e 7a4d 213e 2c29 253d e05b d0be
000002a0: ed11 1a3d 335d 753e fb25 78be 7bcb 10bc
000002b0: 5004 e8bb 7815 8dbe f805 44be 056a 7abc
000002c0: 4497 a23d 47a8 1c3d 4a6b 3a3d 63cf 39be
000002d0: f8c7 49bd c686 e7bd 7932 6dbe 4cfa 0e3e
000002e0: 4ab8 c2bb c9bf 653e 15ed 7d3e 18e4 aa3e
000002f0: eadb 573e ab59 353c e5ac eb3c 5595 443c
00000300: a1b7 ba3c a09a f3bc a62e c4bd f1fb 40bd
00000310: 24ea 5b3d 0083 72bc 6ce7 fb3c 771f d23c
00000320: 9e28 5ebe df14 1fbe 1373 98be 4704 873c
00000330: e880 8a3e 1a64 38bf af9f d13d c10e ffbd
00000340: aa6a 48be c383 e6bd ee70 80bb 0c85 b7bd
00000350: 14b3 ad3d 1d60 e53c e8a2 5d3c c04d a93d
00000360: c2cc 8a3e 847e 153f f3e9 0b3e 72bb 13bf
00000370: 670e 853e 751a 103e 1036 f2bc 9ee6 063e
00000380: 306f e73d 797c 513d 848e 70be 9e44 99bd
00000390: beda 5ebe 1fcd 973d 3f6a 683e a875 b5bd
000003a0: 6d9f b9bd 5a3c 613e c2ad 5e3e 3b9c 8d3c
000003b0: cc5f 62be 18aa 563d 15c2 9a3e 328d ffbd
000003c0: 20d1 793c 102c da3b f23a 50be 2694 8ebe
000003d0: 1f9f 80be ab63 89be 5b9d 333e dbc8 113e
000003e0: 22ca 36bb 206f 62bf d1f4 4e3d b544 dc3c
000003f0: ce76 803e 8a74 54be d679 943e dc74 33ba

bias f4 [16]
-0.11357985 -0.09965557 0.52759236 0.18056996 0.20943587 -0.9613433 -0.91548854 0.35359997
0.57829535 -0.5507715 -0.33663198 0.5680336 0.22414975 -0.17590654 -0.06849664 -0.73708045
00000000: 8d9c e8bd 3818 ccbd 4b10 073f 55e7 383e
00000010: 5b76 563e 981a 76bf 755d 6abf 0e0b b53e
00000020: 2a0b 143f 5cff 0cbf 075b acbe a66a 113f
00000030: 8387 653e d820 34be f747 8cbd 4eb1 3cbf

weight f4 [64, 112]
0.6305552 -0.48744848 0.12624858 0.046738345 -0.22326168 -0.5904478 0.30274266 -0.022898488
-0.0033069805 -0.13337518 0.13609919 -0.060212545 -0.4089767 0.3450249 -0.17220697 -0.040940266
0.0020525546 0.14548561 0.039903615 0.15228389 -0.016498737 -0.6344894 -0.05470438 0.5139425
0.28264475 0.15124731 0.05942099 0.33517438 -0.06622478 0.17710409 0.13871709 -0.08447393
-0.21479419 -1.0120755 -0.32720083 -0.09706679 -0.22808562 0.032196578 -0.32821596 -2.978683
-0.45931715 0.39921623 -0.00987942 -0.30711597 0.083635546 0.20707853 -0.0283952 -0.0390205
-1.0118924 0.4546454 -0.14080653 -0.26131794 0.10544696 -0.12788303 -0.0070667304 -0.0915934
-0.0025186702 0.17839059 -0.15221211 -0.06885196 -0.082302034 -0.17718282 -0.06823832 -0.2348611
-0.03412826 0.33445337 -0.06021463 -0.49589697 -0.43988585 0.22333466 -0.35176617 0.14447801
0.20078291 -0.02555343 -0.030529521 -0.4568188 -0.22585756 0.12116814 0.45922795 -0.26037443
-0.43425176 0.38571537 -0.40961015 -0.59189075 0.101149306 0.007994087 0.17746054 0.06066558
-0.201588 0.23362093 -0.12578933 0.12913527 -0.39752498 -0.10558191 -0.39538604 0.7901173
-0.5033441 -0.20051791 0.8408709 -0.20763539 -0.005387302 0.08625447 0.3615341 -0.36662257
0.7966065 0.45766437 0.45711124 0.0071129315 0.29521823 -0.12218537 0.44600922 0.16010709
-0.03690325 0.13080943 -0.1611202 -0.04443805 -0.21081023 0.5578162 -0.04618229 0.030243048
0.17663275 0.024552371 -0.27773044 -0.3006385 0.08310878 0.084528625 0.19487634 0.2590453
0.14851783 -0.60382026 0.2726326 -0.11409313 0.08247189 0.10986904 -0.46654698 -0.10865115
-0.25391346 -0.049465246 0.05519414 0.08967288 -0.03512982 0.06483228 0.10724494 -0.13417137
-0.14255163 -0.5397171 -0.10147259 0.058628988 -0.040070433 0.0755865 -2.4829705 -4.3322144
0.6320367 -0.6380773 -0.065321 -0.034907877 -0.315458 0.124791 0.2796929 0.20475985
0.89702934 0.11108994 0.16536063 -0.16670687 0.34379005 -0.31622487 0.5869146 0.11962608
0.01934888 0.027938487 0.27408087 -0.10399339 -0.085249886 -0.07087856 0.035165444 -0.0646586
0.18902935 -0.009725192 -0.032641005 -0.20259593 -0.1251651 -0.74133277 0.11436333 0.18128194
0.22429311 -0.19067152 -0.52054375 -0.6880976 -1.0642381 -0.21240649 -0.009715364 -0.13959122
0.087444596 -0.14083111 0.016467799 -0.59397465 -0.13120463 -0.25278386 0.17503107 -0.0051083122
-0.126202 -0.11784061 0.01826788 0.17269225 -0.0040478534 0.021057101 -0.11953045 0.046881072
-0.09892 -0.6145467 -0.44430655 0.21570829 -0.09650455 0.0473817 -0.26111344 0.19375084
0.032455847 0.17602973 0.42487288 0.31424963 0.11967169 0.29648256 -0.18403193 -0.30527484
-0.16072462 0.30788612 0.21714278 -0.31759715 -0.084516406 -0.21856984 -0.25252375 -0.033176105
-0.118933156 0.052300487 0.101944566 -0.080473214 0.69234735 -0.14726347 -0.10176729 0.039742097
-0.36387268 0.008209409 0.21892728 0.19696304 0.19694138 -0.30093986 0.20276788 0.21007428
0.19259958 0.2052819 0.31011954 -0.0495103 -0.08321899 0.18329398 -0.06457597 0.00027452485
00000000: 116c 213f d992 f9be 4f47 013e b570 3f3d
00000010: b69e 64be 9627 17bf 1601 9b3e 9c95 bbbc
00000020: edb9 58bb 8193 08be 965d 0b3e 6ea1 76bd
00000030: 6565 d1be 1ba7 b03e 0657 30be fbb0 27bd
00000040: 2784 063b 2efa 143e f971 233d 4ff0 1b3e
00000050: 5c28 87bc e66d 22bf b311 60bd bc91 033f
00000060: d0b6 903e 93e0 1a3e 6d63 733d fa9b ab3e
00000070: dca0 87bd c65a 353e da0b 0e3e ab00 adbd
00000080: 02f3 5bbe b18b 81bf de86 a7be f4ca c6bd
00000090: 478f 69be 8fe0 033d ec0b a8be bea2 3ec0
000000a0: 9e2b ebbe 1266 cc3e 4add 21bc 4e3e 9dbe
000000b0: 1d49 ab3d 650c 543e 0d9d e8bc f6d3 1fbd
000000c0: b185 81bf 48c7 e83e 962f 10be 77cb 85be
000000d0: 93f4 d73d c5f3 02be 0890 e7bb 5295 bbbd
000000e0: 4610 25bb 06ac 363e 7edd 1bbe 4202 8dbd
000000f0: f88d a8bd 6a6f 35be 88c0 8bbd 6e7f 70be
00000100: 13ca 0bbd 793d ab3e 9ea3 76bd 35e6 fdbe
00000110: b838 e1be d7b1 643e b21a b4be 0bf2 133e
00000120: 099a 4d3e 6d55 d1bc 0c19 fabc 27e4 e9be
00000130: 3447 67be 0027 f83d ed1f eb3e cc4f 85be
00000140: 3f56 debe 7c7c c53e 6cb8 d1be 2786 17bf
00000150: 5e27 cf3d a2f9 023c 37b8 353e 797c 783d
00000160: 166d 4ebe 533a 6f3e ebce 00be 093c 043e
00000170: 6588 cbbe 543b d8bd 0a70 cabe 2145 4a3f
00000180: 29db 00bf 9154 4dbe 5143 573f 5f9e 54be
00000190: f787 b0bb 2fa6 b03d ff1a b93e f4b5 bbbe
000001a0: 67ee 4b3f fc52 ea3e 7c0a ea3e 9813 e93b
000001b0: d826 973e 533c fabd 525b e43e 1df3 233e
000001c0: dd27 17bd e8f2 053e b2fc 24be ac04 36bd
000001d0: a3de 57be 0bcd 0e3f a429 3dbd 45c0 f73c
000001e0: 37df 343e 0e22 c93c af32 8ebe 4aed 99be
000001f0: f034 aa3d 581d ad3d aa8d 473e 96a1 843e
00000200: 0f15 183e f793 1abf 8096 8b3e a9a9 e9bd
00000210: 06e7 a83d 0503 e13d 3fdf eebe 7e84 debd
00000220: f200 82be 129c 4abd 4013 623d 6aa6 b73d
00000230: 49e4 0fbd c9c6 843d 3ca3 db3d 3864 09be
00000240: 0ef9 11be e62a 0abf dcd0 cfbd f324 703d
00000250: e520 24bd 18cd 9a3d fde8 1ec0 80a1 8ac0
00000260: 28cd 213f 0959 23bf 04c7 85bd 90fb 0ebd
00000270: b683 a1be 6c92 ff3d e833 8f3e 91ac 513e
00000280: b7a3 653f 1f83 e33d 4c54 293e 35b5 2abe
00000290: 4005 b03e 3ae8 a1be 0940 163f 85fe f43d
000002a0: 8b81 9e3c 41df e43c 5454 8c3e 7dfa d4bd
000002b0: 7e97 aebd c728 91bd a409 103d ba6b 84bd
000002c0: e990 413e 6956 1fbc 93b2 05bd 4f75 4fbe
000002d0: 482b 00be fcc7 3dbf 5237 ea3d f9a1 393e
000002e0: 18ad 653e 653f 43be 5b42 05bf 2a27 30bf
000002f0: f438 88bf 1681 59be 312d 1fbc 00f1 0ebe
00000300: 2716 b33d 0836 10be 7ae7 863c b90e 18bf
00000310: 825a 06be e36c 81be 583b 333e a163 a7bb
00000320: 193b 01be 6b56 f1bd 85a6 953c 3dd6 303e
00000330: dba3 84bb f17f ac3c 61cc f4bd 5e06 403d
00000340: 9296 cabd ef52 1dbf 267c e3be a2e2 5c3e
00000350: 2da4 c5bd 5013 423d a9b0 85be 9f66 463e
00000360: 6cf0 043d 2341 343e f088 d93e 54e5 a03e
00000370: 6e16 f53d 90cc 973e de72 3cbe fc4c 9cbe
00000380: ff94 24be 40a3 9d3e ad5a 5e3e 189c a2be
00000390: f016 adbd c6d0 5fbe cb4a 81be abe3 07bd
000003a0: 3a93 f3bd 0939 563d 50c8 d03d 24cf a4bd
000003b0: ad3d 313f 3ccc 16be 5e6b d0bd 9cc8 223d
000003c0: 854d babe c280 063c 792e 603e aeb0 493e
000003d0: 00ab 493e ca14 9abe 62a2 4f3e b61d 573e
000003e0: d338 453e 6b35 523e fdc7 9e3e 50cb 4abd
000003f0: b86e aabd 6bb1 3b3e 6840 84bd 1aee 8f39

bias f4 [64]
0.67988014 0.45952445 0.43832806 0.35927543 -0.12824681 -0.081002034 0.57017064 0.14574668
0.5422055 0.4653002 0.42113283 0.8209757 0.22942245 -0.6842707 0.02999239 -0.0020577507
0.9009239 -0.37782097 1.0828605 0.40965298 0.19649386 -0.07082819 0.26696742 0.3335973
-0.05334262 -0.14116529 0.527709 0.85970396 -0.16837445 0.37923208 -0.07905258 0.12700897
1.0279356 0.057362795 0.6271818 -0.14247486 0.6006857 0.0072311456 0.96534157 1.0697094
0.56107295 0.47876492 0.77111197 0.48926345 -0.0026643057 0.4729142 0.0527012 1.580252
0.47767052 -0.38400027 0.52883345 0.39293328 0.7958334 -0.3725037 0.16153562 -0.08273497
-0.84661764 -0.3514001 0.1149148 -0.12101166 -0.3279155 -0.7120332 0.7155419 0.49554908
00000000: a00c 2e3f ca46 eb3e 896c e03e f3f2 b73e
00000010: 2253 03be 65e4 a5bd b4f6 113f 9e3e 153e
00000020: fbcd 0a3f d43b ee3e b99e d73e 772b 523f
00000030: b8ed 6a3e 5d2c 2fbf 9ab2 f53c 54db 06bb
00000040: f3a2 663f c071 c1be 2c9b 8a3f 09be d13e
00000050: b035 493e 5f0e 91bd f4af 883e 44cd aa3e
00000060: cb7d 5abd a28d 10be f017 073f 8f15 5c3f
00000070: 5a6a 2cbe b52a c23e 52e6 a1bd a40e 023e
00000080: 6593 833f 40f5 6a3d fd8e 203f eee4 11be
00000090: 8ac6 193f 3ff3 ec3b a020 773f 3dec 883f
000000a0: 7aa2 0f3f ad20 f53e 9867 453f bd80 fa3e
000000b0: a29b 2ebb cf21 f23e 37dd 573d b345 ca3f
000000c0: 3b91 f43e af9b c4be a161 073f 8d2e c93e
000000d0: bdbb 4b3f ceb8 bebe 9869 253e f470 a9bd
000000e0: efbb 58bf b7ea b3be 7358 eb3d f6d4 f7bd
000000f0: 8ae4 a7be cf47 36bf c12d 373f 9cb8 fd3e

weight f4 [32, 64]
0.056037027 -0.024530677 0.024515329 -0.15033361 -0.1034315 -0.17275742 -0.09731753 -0.027121304
-0.015248775 0.046704374 0.058358233 -0.11794508 0.026547616 0.04101435 -0.018390054 0.044151295
-0.053320393 0.025012458 -0.20238611 -0.06798631 0.0073781065 0.098626636 -0.13804206 -0.17088532
-0.03836029 -0.08309025 -0.07296217 -0.04199603 -0.047389008 -0.10589491 -0.073233664 -0.07113159
0.0366539 -0.102422774 -0.026537122 0.078607075 0.0691726 0.009160116 -0.10408748 -0.022884166
0.07835354 0.0486059 -0.121743776 -0.15944278 -0.124184035 -0.123034574 0.030517034 -0.06815743
0.004924439 -0.03677358 -0.066941515 -0.08288812 -0.046065487 -0.07018472 -0.069835685 -0.0085473545
0.033708073 -0.057409104 -0.04483848 -0.11208809 -0.0018351751 0.06658393 -0.016625779 0.04773883
0.04587422 0.03786392 -0.06732291 -0.016116781 -0.13655235 -0.08648963 -0.015524763 -0.17197727
-0.10004346 -0.16410917 0.09499367 -0.112422846 0.010810724 0.060854726 -0.08103911 -0.109427564
-0.22546324 -0.09109135 -0.044443976 -0.16566236 -0.1553051 -0.030919535 0.059540194 -0.08390612
0.048285272 0.044512723 -0.048983775 0.02757187 -0.11650163 -0.032768335 -0.0030746066 -0.07314079
0.013205 -0.072977364 -0.03038556 0.025220612 -0.0332887 0.06743489 0.034544613 -0.09319294
0.070498444 -0.076322205 -0.09370349 -0.07081367 -0.12505606 -0.16783738 0.039735228 -0.042787235
-0.16716374 -0.12992911 -0.045283224 -0.055732206 0.07085726 -0.04662607 -0.094875164 -0.02557889
-0.023464609 -0.21252063 -0.046539266 0.07500689 -0.08425728 -0.048246287 -0.00015392932 -0.107155494
-0.20977901 -0.090747215 -0.15012081 -0.078295335 -0.08010383 0.01176767 -0.7983723 0.097727805
0.14980452 0.0012809505 -0.14413461 -0.29928455 -0.16050863 -0.32431325 0.08040397 0.083921745
0.05071678 -0.19592482 -0.080838636 -0.11282471 0.27720466 -0.0990418 -0.015325974 -0.027031817
0.047739387 -0.018140167 -0.0479254 -0.17785203 -0.10041245 -0.12901393 0.25028542 0.054647885
-0.10347143 -0.041682933 -0.25031263 -0.0182347 -0.039352372 -0.006978489 0.12790787 -0.0015833593
-0.02265637 -0.01912448 0.09480369 0.18044387 -0.106802545 -0.00025854626 -0.05871161 -0.027540391
-0.14776582 -0.19553941 -0.028345082 -0.5388885 -0.18970628 -0.2725678 -0.07718283 0.019927233
-0.40632144 0.0530118 -0.07473702 -0.012839943 0.057865113 -0.12588629 -0.03502395 0.099779785
0.125544 -0.024856921 -0.11299671 -0.13123715 -0.014660971 -0.051558837 -8.7024355 -0.059033684
0.043349482 -0.017500676 -1.9822917 -0.014884316 -1.3738416 -0.16313699 0.04646781 -0.08204524
-0.13220231 0.084793195 -0.21356016 -3.548575 0.07902212 0.07960003 -0.01942631 -0.08738261
0.1297751 0.08161378 0.055090196 -0.02775719 0.2131927 -0.109799586 -0.15535714 0.11747476
0.14592698 -0.04502905 -0.19668917 -0.011482737 0.036858357 -0.0243355 0.022171836 -0.040947754
0.110651575 -4.577638 0.05852738 0.043382514 -0.07846728 -0.112357885 -6.2242374 -0.009384796
-0.025842234 0.12694335 0.08724024 -8.765731 -0.071904734 -0.17489053 -0.0043147774 0.0030625162
-0.11907239 0.14678277 0.15052532 -0.09426336 0.22309093 -0.15084162 0.016776 0.220994
00000000: 1587 653d 8ff4 c8bc 5fd4 c83c 0ef1 19be
00000010: e5d3 d3bd 52e7 30be 6a4e c7bd 7f2d debc
00000020: ffd5 79bc 164d 3f3d 0b09 6f3d 318d f1bd
00000030: 637a d93c aafe 273d bda6 96bc fdd7 343d
00000040: 7c66 5abd ede6 cc3c 4e3e 4fbe 683c 8bbd
00000050: 0bc4 f13b c3fc c93d e65a 0dbe 90fc 2ebe
00000060: ae1f 1dbd 392b aabd 316d 95bd 0704 2cbd
00000070: fa1a 42bd 6edf d8bd 88fb 95bd 70ad 91bd
00000080: 6622 163d 08c3 d1bd 6164 d9bc bffc a03d
00000090: 5daa 8d3d 5014 163c d12b d5bd 9377 bbbc
000000a0: d277 a03d fb16 473d cd54 f9bd f844 23be
000000b0: 3354 febd 8df9 fbbd dcfe f93c 1f96 8bbd
000000c0: 305d a13b e59f 16bd a218 89bd 3fc1 a9bd
000000d0: 2aaf 3cbd 02bd 8fbd 0306 8fbd 340a 0cbc
000000e0: 7a11 0a3d cf25 6bbd 8ea8 37bd 718e e5bd
000000f0: 428a f0ba 285d 883d c932 88bc cb89 433d
00000100: 9be6 3b3d 3317 1b3d 98e0 89bd 5707 84bc
00000110: 61d4 0bbe 7a21 b1bd 935b 7ebc cf1a 30be
00000120: 96e3 ccbd 3c0c 28be 0b8c c23d f33d e6bd
00000130: 771f 313c ce42 793d d5f7 a5bd 8f1b e0bd
00000140: d6df 66be 1a8e babd e30a 36bd 65a3 29be
00000150: 4d08 1fbe f74a fdbc 6be0 733d f9d6 abbd
00000160: c7c6 453d f952 363d 36a3 48bd 67de e13c
00000170: 6898 eebd 1738 06bd 577f 49bb d7ca 95bd
00000180: c959 583c 2875 95bd 23eb f8bc 759b ce3c
00000190: bb59 08bd 4e1b 8a3d a77e 0d3d f1db bebd
000001a0: 7d61 903d d14e 9cbd 9ee7 bfbd c206 91bd
000001b0: b20e 00be 90dd 2bbe 68c1 223d ab41 2fbd
000001c0: f92c 2bbe 230c 05be e77a 39bd 7447 64bd
000001d0: 9c1d 913d fafa 3ebd e94d c2bd d28a d1bc
000001e0: da38 c0bc 029f 59be f59f 3ebd 369d 993d
000001f0: 158f acbd e69d 45bd 1668 21b9 5774 dbbd
00000200: 4fd0 56be add9 b9bd 45b9 19be 4e59 a0bd
00000210: 7a0d a4bd 2fcd 403c 2162 4cbf 8425 c83d
00000220: 5b66 193e 91e5 a73a 0698 13be d33b 99be
00000230: 605c 24be 630c a6be d6aa a43d 2adf ab3d
00000240: 66bc 4f3d 84a0 48be ba8e a5bd a410 e7bd
00000250: c5ed 8d3e 6dd6 cabd cb19 7bbc d471 ddbc
00000260: 608a 433d b09a 94bc 6d4d 44bd d81e 36be
00000270: 0ba5 cdbd 3a1c 04be 6925 803e 76d6 5f3d
00000280: d4e8 d3bd b9bb 2abd fa28 80be f060 95bc
00000290: f42f 21bd cfab e4bb 48fa 023e b988 cfba
000002a0: da99 b9bc f1aa 9cbc 7028 c23d 47c6 383e
000002b0: 4bbb dabd 7e8d 87b9 967b 70bd 639c e1bc
000002c0: ec4f 17be 7c3b 48be f233 e8bc 99f4 09bf
000002d0: 5d42 42be 028e 8bbe 0812 9ebd 703e a33c
000002e0: 5d09 d0be e722 593d b90f 99bd a05e 52bc
000002f0: f803 6d3d 56e8 00be 4675 0fbd 5859 cc3d
00000300: 9b8e 003e bea0 cbbc d26a e7bd 0863 06be
00000310: 9234 70bc 5c2f 53bd 2d3d 0bc1 4ecd 71bd
00000320: 3a8f 313d 945d 8fbc bcbb fdbf 59dd 73bc
00000330: 0bda afbf 620d 27be 0855 3e3d 5607 a8bd
00000340: 0b60 07be 0ea8 ad3d 84af 5abe da1b 63c0
00000350: 59d6 a13d 5705 a33d ed23 9fbc a7f5 b2bd
00000360: c4e3 043e 2025 a73d 42a6 613d 0c63 e3bc
00000370: 304f 5a3e 9bde e0bd f115 1fbe 9b96 f03d
00000380: e26d 153e 6270 38bd e368 49be 1722 3cbc
00000390: caf8 163d 3e5b c7bc b6a1 b53c d5b8 27bd
000003a0: 4b9d e23d 037c 92c0 68ba 6f3d ddb1 313d
000003b0: 74b3 a0bd e41b e6bd f42c c7c0 b0c2 19bc
000003c0: 18b3 d3bc 70fd 013e 03ab b23d 6f40 0cc1
000003d0: ca42 93bd 8116 33be fa62 8dbb 7fb4 483b
000003e0: 3adc f3bd 394e 163e 4f23 1a3e 260d c1bd
000003f0: f371 643e 3a76 1abe d26d 893c 404c 623e

bias f4 [32]
-0.05694239 -0.16803697 -0.18193686 -0.1906543 -0.12156251 0.4449219 0.5750504 -0.2715346
0.0068413015 0.48884326 -0.5363404 -0.025046077 0.5246775 0.35235015 -0.1076392 0.32758802
-0.1819097 -0.52546746 0.62243795 -0.7132419 1.6218362 0.94881654 -0.15533577 0.31993166
0.45972338 0.8073399 -0.5930207 -0.2118669 -0.8323515 1.8582767 0.05280282 1.782415
00000000: 6c3c 69bd e211 2cbe a84d 3abe e13a 43be
00000010: c4f5 f8bd cecc e33e 8136 133f 9506 8bbe
00000020: ff2c e03b aa49 fa3e 9b4d 09bf 6e2d cdbc
00000030: 4451 063f 3d67 b43e f171 dcbd 9eb9 a73e
00000040: 8946 3abe 0985 06bf 1858 1f3f 0597 36bf
00000050: 5498 cf3f a4e5 723f 5710 1fbe 15ce a33e
00000060: dd60 eb3e d4ad 4e3f 34d0 17bf a3f3 58be
00000070: fd14 55bf 03dc ed3f c547 583d 2d26 e43f

weight f4 [4, 32]
-0.0922543 0.0011982076 -0.074159876 0.7227295 0.18750852 -0.025907401 -0.01020199 0.10795686
-0.08235272 0.044453878 -0.10422789 -0.115389384 0.30223233 -0.027905725 -0.006211768 0.0761694
0.083156765 0.30619016 0.07600099 -0.014553245 0.15194467 -0.026500253 0.10772814 0.07293759
0.07235681 -0.009850914 0.015903112 -0.12797123 0.057431847 0.06418303 0.122821465 0.16861248
0.08502569 0.007508185 0.18771207 -0.16912179 0.04275605 0.042846855 -0.0057388744 -0.051228084
0.12527737 0.19642508 -0.03660646 0.05582136 0.011140975 0.13596834 -0.03246828 0.14484164
-0.16574658 0.11821466 0.18320805 -0.16183585 0.07567053 0.1475752 -0.07396681 -0.0033686063
0.0076639163 0.01597314 -0.07954143 -0.18171504 0.12716073 0.09087573 0.026428027 0.19349596
-0.10312077 0.09096945 -0.28168663 -0.5472273 0.09817767 0.06798641 -0.102328725 -0.08627556
-0.021810645 0.09168579 -0.062119145 0.028872319 -0.019043282 0.020345744 -0.16322957 0.2668865
0.051856164 0.17059596 0.17266986 0.051078204 -0.08623024 -0.11243425 0.062277243 0.26090425
0.03846922 0.20842084 -0.1114433 -0.32331648 -0.08860089 0.15180303 0.009686817 0.2487161
0.07764612 -0.058851812 0.14673653 1.2846292 0.2877041 -0.039275154 0.018189877 0.16698581
0.07700309 0.11258347 0.046734888 0.04339969 0.49761382 0.22063227 -0.037437547 -0.013932453
-0.08408726 0.12913129 0.18722928 -0.04378792 0.09940755 0.04456496 -0.08260829 0.15018687
0.1350172 0.01672966 -0.04464432 0.049496207 0.23873474 0.11096239 -0.036537062 0.139931
00000000: d3ef bcbd 2d0d 9d3a 22e1 97bd cd04 393f
00000010: 3c02 403e c23b d4bc 3f26 27bc 7c18 dd3d
00000020: 8ba8 a8bd 4515 363d 6f75 d5bd 4551 ecbd
00000030: 32be 9a3e 8c9a e4bc 168c cbbb b4fe 9b3d
00000040: 184e aa3d f5c4 9c3e 68a6 9b3d bc70 6ebc
00000050: 6297 1b3e 0f17 d9bc 92a0 dc3d 4e60 953d
00000060: cf2f 943d ba65 21bc 3e47 823c e40a 03be
00000070: a83d 6b3d 6472 833d d289 fb3d c0a8 2c3e
00000080: f321 ae3d 3907 f63b 9837 403e 432e 2dbe
00000090: f820 2f3d 2f80 2f3d 2b0d bcbb 8ad4 51bd
000000a0: b648 003e a823 493e a8f0 15bd f0a4 643d
000000b0: a388 363c 493b 0b3e 76fd 04bd 5e51 143e
000000c0: 79b9 29be 871a f23d e49a 3b3e 4cb8 25be
000000d0: 27f9 9a3d f41d 173e e97b 97bd d6c3 5cbb
000000e0: 9721 fb3b 1ada 823c 9ee6 a2bd 8213 3abe
000000f0: 6c36 023e 0e1d ba3d 977f d83c ce23 463e
00000100: fb30 d3bd 314e ba3d 3b39 90be 1717 0cbf
00000110: 6011 c93d 753c 8b3d b991 d1bd 3eb1 b0bd
00000120: 3dac b2bc c2c5 bb3d a570 7ebd a485 ec3c
00000130: a800 9cbc 1eac a63c a725 27be 59a5 883e
00000140: 2167 543d b5b0 2e3e 5ed0 303e 6137 513d
00000150: 7b99 b0bd ee43 e6bd 6c16 7f3d 3e95 853e
00000160: e791 1d3d 466c 553e 633c e4bd bd89 a5be
00000170: 6274 b5bd 4172 1b3e 75b5 1e3c 6faf 7e3e
00000180: ee04 9f3d 990e 71bd 1a42 163e bb6e a43f
00000190: f44d 933e fcde 20bd f002 953c 54fe 2a3e
000001a0: ccb3 9d3d 2a92 e63d 156d 3f3d e0c3 313d
000001b0: 3dc7 fe3e 6ded 613e 1d58 19bd f144 64bc
000001c0: f135 acbd fe3a 043e 08b9 3f3e f65a 33bd
000001d0: 3096 cb3d bf89 363d 892e a9bd 96ca 193e
000001e0: f341 0a3e a40c 893c f6dc 36bd 89bc 4a3d
000001f0: e176 743e 4040 e33d e3a7 15bd 124a 0f3e

bias f4 [4]
0.5346115 0.9238441 0.57627314 0.55260867
00000000: 4ddc 083f 0c81 6c3f a386 133f c377 0d3f

weight f4 [32, 4]
-0.4321148 0.61198163 0.24514824 -0.3557096 0.5056968 0.029501159 -0.2380176 -0.8400488
0.45306465 0.55266136 -0.06524928 -0.07935988 -0.04308889 -0.3655967 0.03131788 0.35142118
0.043266676 0.30112484 -0.31803763 0.17950346 0.20064993 -0.023067525 0.101933315 0.1030059
0.2934056 0.008158025 0.7009307 -0.12525849 0.080853134 0.5245508 -0.054522973 -0.8247745
-0.31028372 -0.1802426 0.15826333 -0.25960237 -0.7352686 -0.01618637 0.41784698 0.24566782
-0.10740711 0.029454704 0.043031123 -2.5183065 0.02515574 -0.07370645 -0.20917714 -0.22254717
-0.16258933 0.12150096 -0.17764542 0.2799004 0.38252467 -0.6578035 0.43853745 -0.19402409
-0.23803382 -0.5452837 0.5174687 0.22262652 0.019378925 -0.020819128 -0.053360157 0.15077832
0.22871302 -0.40388995 0.0740021 0.19656298 0.012559068 0.41889513 0.3118205 -0.07002733
0.75070477 -0.091224745 -0.2486721 -0.04197263 -0.45915994 0.26254994 -0.076975465 0.23125827
0.4933648 -0.33402503 0.43014723 -0.9193176 0.0894879 -0.115222104 -0.48311216 -0.30470467
0.1426328 -0.16712657 0.075586796 0.18981522 -0.010375792 0.5686639 -0.074424155 -0.40168488
0.4805356 -0.14028107 0.28310803 -0.7701395 -0.34058142 0.10222172 0.0023195352 0.13640402
-0.20705745 -0.006662238 0.34911817 0.3700285 -0.11208843 -0.08201206 0.042486154 0.12254752
0.49563316 -0.45328358 -0.2724153 0.1814118 -0.1785536 -0.15271226 -0.14221326 0.49956095
0.54254 -0.4007058 0.062931426 -0.828264 -0.24283235 0.21382007 -0.0007951208 0.14608836
00000000: 273e ddbe d4aa 1c3f 2408 7b3e 921f b6be
00000010: 5875 013f 6aac f13c e3ba 73be 700d 57bf
00000020: 17f8 e73e 377b 0d3f 6aa1 85bd 6f87 a2bd
00000030: fa7d 30bd 7e2f bbbe 2d47 003d 7aed b33e
00000040: 6638 313d 092d 9a3e d4d5 a2be c1cf 373e
00000050: 2d77 4d3e 1bf8 bcbc 6ac2 d03d c2f4 d23d
00000060: 4239 963e 3da9 053c 3270 333f c343 00be
00000070: 5496 a53d f648 063f 7b53 5fbd 6c24 53bf
00000080: 82dd 9ebe 8491 38be c80f 223e 9aea 84be
00000090: 903a 3cbf 4799 84bc 0af0 d53e 5890 7b3e
000000a0: 42f8 dbbd fe4a f13c 6741 303d ef2b 21c0
000000b0: 6913 ce3c 68f3 96bd 8832 56be 68e3 63be
000000c0: d17d 26be 7fd5 f83d aee8 35be 1b4f 8f3e
000000d0: 46da c33e cf65 28bf fb87 e03e 40ae 46be
000000e0: 23bf 73be b697 0bbf d478 043f 35f8 633e
000000f0: 8dc0 9e3c e08c aabc 2e90 5abd a265 1a3e
00000100: bf33 6a3e aaca cebe 6a8e 973d ce47 493e
00000110: 8dc4 4d3c 6c79 d63e f0a6 9f3e 7d6a 8fbd
00000120: 302e 403f 0ad4 babd e6a3 7ebe 7eeb 2bbd
00000130: 0317 ebbe f26c 863e 50a5 9dbd f8ce 6c3e
00000140: 509a fc3e 5405 abbe 423c dc3e 6658 6bbf
00000150: 6f45 b73d 91f9 ebbd 7a5a f7be 4002 9cbe
00000160: 550e 123e 3a23 2bbe 40cd 9a3d ec5e 423e
00000170: 3aff 29bc f593 113f b16b 98bd a4a9 cdbe
00000180: c308 f63e d7a5 0fbe 89f3 903e dd27 45bf
00000190: b060 aebe 9f59 d13d 5803 183b 7fad 0b3e
000001a0: de06 54be e74e dabb 9ebf b23e 6074 bd3e
000001b0: 9e8e e5bd f0f5 a7bd f605 2e3d 32fa fa3d
000001c0: a1c3 fd3e c914 e8be 057a 8bbe 04c4 393e
000001d0: c1d6 36be 9a60 1cbe 5aa0 11be 74c6 ff3e
000001e0: e7e3 0a3f 5029 cdbe 31e2 803d 1c09 54bf
000001f0: 0ba9 78be a6f3 5a3e a76f 50ba 3098 153e

bias f4 [32]
0.8296806 0.1907166 -0.057205435 0.5734556 -0.698529 -0.27084705 0.29062927 0.12879883
-0.16583723 0.7828097 0.90573484 -0.18650521 -0.26868397 0.3374472 1.0190736 -0.103840984
0.25544205 -0.13554157 1.0688156 1.1696305 -0.6893682 -0.30616507 -2.0209818 -0.084770806
0.64868677 -0.007124297 -0.32356027 0.88715494 0.27293706 0.33989197 0.09512964 -0.67026085
00000000: f365 543f 364b 433e 3f50 6abd fccd 123f
00000010: ccd2 32bf 77ac 8abe 5ccd 943e d7e3 033e
00000020: 3cd1 29be 3766 483f 3dde 673f 39fb 3ebe
00000030: f290 89be e1c5 ac3e 0171 823f 95aa d4bd
00000040: 4dc9 823e 69cb 0abe f3ce 883f 74b6 953f
00000050: 6f7a 30bf abc1 9cbe c457 01c0 519c adbd
00000060: 5610 263f ef72 e9bb b1a9 a5be 961c 633f
00000070: 68be 8b3e 5206 ae3e 54d3 c23d 3796 2bbf

weight f4 [64, 32]
0.60760474 -0.11879569 -0.26884273 0.075450726 -0.023200247 0.13325828 -0.075359434 -0.83452547
0.004536497 0.46526045 -0.72106546 -0.08456333 0.16860051 0.6710039 -0.25103006 0.0791767
-0.0179073 -0.0687526 -0.5506481 0.1264721 0.28430662 -0.06987878 0.8769407 0.026576959
-3.7200425 0.07379356 0.2875236 -0.14878215 -0.25350335 0.07704701 -0.14679638 0.40856564
-0.07547551 -0.79325867 -0.3132817 0.4166038 0.20416258 -0.03480179 -0.11342059 1.190274
-0.10113539 0.3200306 -0.5296584 0.09395385 0.15176718 -0.10466183 -0.12887703 0.06420556
-0.02940816 -0.325659 0.14213331 0.15138337 -0.10770381 -0.054273963 -0.16307814 0.045131613
0.47894055 0.28681025 0.044317152 0.19070303 -0.076762274 0.3795457 0.15569453 -0.02963253
-0.024025816 -0.27671134 0.19053403 0.07046351 0.112029694 0.14160916 0.20327237 -0.0569981
-0.06318818 0.11276915 0.06660267 0.009167951 0.048134036 -0.20208934 0.00042459092 -0.0018209787
-0.19701765 0.04711913 -0.021337977 0.009799933 -0.107458405 0.14361043 0.2384528 -0.23773538
0.7918661 0.20752844 0.21100861 0.1410652 0.023604294 -0.01489457 -0.13490501 0.14435425
0.16425903 -0.13611439 -0.119422264 0.16123651 0.19563039 -0.07230555 0.14047883 -0.29169124
0.08136306 0.06457112 2.4189868 0.13871087 0.15120666 -0.37038028 0.2238392 0.11560051
0.09313665 -0.1874339 -0.1146638 0.045509335 -1.1077502 0.07455325 -0.40388757 0.22163324
-0.018127553 0.057880905 -0.07210418 -0.058978375 0.089472555 0.23018926 -0.4239331 0.043065246
0.09164486 0.123228244 0.0101653915 0.046101384 0.28242567 0.15788327 -0.021249147 -0.07906314
0.17377391 -0.030140894 -0.30989823 -0.023075445 0.35374728 -0.23911081 -0.049850784 0.041052915
0.091760024 -0.051447123 -0.054648004 0.073073834 -0.29125017 0.09811419 0.3706063 0.13473773
0.46876016 0.2247053 0.24202019 0.15704145 0.0030180293 0.3015116 -0.049828034 0.20586626
-0.48465154 -0.029195463 0.5890778 -0.010161168 -0.04990082 0.1541685 0.3255757 -0.4107141
-0.1082012 0.027477974 -0.022493748 -0.09482647 0.08287963 -0.20882653 -0.12286314 0.14348315
-0.04178501 0.40797076 0.2947687 -0.12438971 -0.24195117 0.12123723 0.019937623 0.102589875
0.27461308 0.07980329 -0.14735362 -0.13391675 -0.11072787 -0.12298785 -0.3650255 -0.12947357
0.55710155 0.2991999 -0.09870693 0.14857534 -0.019438596 -0.09396851 -0.07278068 0.17610045
-0.09767937 0.07648602 -0.26676932 0.16499701 0.2203146 0.17858474 -0.20275898 -0.17637728
-0.020701252 0.07708122 -0.30972815 0.25245297 -0.80304825 -0.08294561 -0.40195885 -0.27078506
-0.52898 0.32749715 0.21399088 -0.0002324368 0.5950937 0.04446595 0.0730922 0.11731913
-0.62797934 0.13346992 0.16299199 -0.027209254 0.17609134 0.17384613 0.24086544 -0.8080785
-0.022555392 0.11232424 -0.520954 0.08795503 0.106542006 1.2622055 -0.57642674 0.023920763
-0.63949966 -0.15218088 -0.027185196 -0.027085965 0.9364355 0.01952756 -0.39415085 -0.5643966
1.1785573 -0.13907671 0.16628584 0.02113376 -0.3815017 0.17215429 0.1500538 -0.12181696
00000000: fc8b 1b3f 284b f3bd c1a5 89be e985 9a3d
00000010: 720e bebc dc74 083e 0c56 9abd 76a3 55bf
00000020: e5a6 943b 9e36 ee3e bf97 38bf 8a2f adbd
00000030: 9da5 2c3e e9c6 2b3f 0387 80be 6527 a23d
00000040: 54b2 92bc 2ace 8cbd 46f7 0cbf e781 013e
00000050: a390 913e 9b1c 8fbd 307f 603f ecb7 d93c
00000060: 2d15 6ec0 1421 973d 4b36 933e 595a 18be
00000070: 31cb 81be d3ca 9d3d ca51 16be 842f d13e
00000080: e792 9abd 0013 4bbf 7566 a0be 184d d53e
00000090: ff0f 513e 528c 0ebd 0e49 e8bd e65a 983f
000000a0: 1220 cfbd 0ddb a33e b197 07bf e06a c03d
000000b0: db68 1b3e f158 d6bd 57f8 03be 347e 833d
000000c0: 62e9 f0bc c7bc a6be 658b 113e 3e04 1b3e
000000d0: d193 dcbd 604e 5ebd f5fd 26be eddb 383d
000000e0: b237 f53e cbd8 923e e785 353d a847 433e
000000f0: 8a35 9dbd d053 c23e 636e 1f3e ebbf f2bc
00000100: cad1 c4bc 1cad 8dbe 5a1b 433e 2c4f 903d
00000110: d36f e53d fe01 113e a226 503e d776 69bd
00000120: ce68 81bd 83f3 e63d fb66 883d 2c35 163c
00000130: 3228 453d 82f0 4ebe a19b de39 e8ad eeba
00000140: ffbe 49be fdff 403d fbcc aebc e68f 203c
00000150: 2713 dcbd 9d0e 133e f92c 743e e770 73be
00000160: bdb7 4a3f 5682 543e a412 583e 6573 103e
00000170: cb5d c13c 5b08 74bc 8a24 0abe 9ad1 133e
00000180: 8533 283e 9261 0bbe a993 f4bd 2f1b 253e
00000190: 5553 483e ef14 94bd afd9 0f3e 8e58 95be
000001a0: ada1 a63d dd3d 843d aed0 1a40 390a 0e3e
000001b0: ebd5 1a3e 7ca2 bdbe 1a36 653e f6bf ec3d
000001c0: 6ebe be3d acee 3fbe dbd4 eabd ff67 3a3d
000001d0: c2ca 8dbf 60af 983d 5aca cebe d3f3 623e
000001e0: 3c80 94bc 8714 6d3d 5bab 93bd 4f93 71bd
000001f0: 633d b73d bcb6 6b3e c20d d9be 2f65 303d
00000200: 4db0 bb3d 175f fc3d be8c 263c ced4 3c3d
00000210: 199a 903e 27ac 213e b112 aebc dbeb a1bd
00000220: caf1 313e 09ea f6bc fbaa 9ebe b708 bdbc
00000230: 5d1e b53e 77d9 74be 5630 4cbd 1a27 283d
00000240: aeec bb3d 38ba 52bd 96d6 5fbd bca7 953d
00000250: be1e 95be 18f0 c83d 1cc0 bd3e b0f8 093e
00000260: 5501 f03e 2519 663e 24d4 773e 79cf 203e
00000270: 21ca 453b ba5f 9a3e 7b18 4cbd 9bce 523e
00000280: 3f24 f8be 532b efbc cdcd 163f 077b 26bc
00000290: cd64 4cbd 59de 1d3e dcb1 a63e 1e49 d2be
000002a0: 9798 ddbd 7d19 e13c cf44 b8bc 6134 c2bd
000002b0: ccbc a93d 9fd6 55be ac9f fbbd 3fed 123e
000002c0: c226 2bbd 8be1 d03e eceb 963e 08c0 febd
000002d0: 0cc2 77be 3a4b f83d 3a54 a33c a41a d23d
000002e0: 169a 8c3e e86f a33d dee3 16be 7921 09be
000002f0: 4bc5 e2bd 0ee1 fbbd 9fe4 babe b894 04be
00000300: 359e 0e3f bb30 993e dc26 cabd 2224 183e
00000310: b13d 9fbc 9072 c0bd 0a0e 95bd ad53 343e
00000320: 1f0c c8bd b4a4 9c3d fd95 88be faf4 283e
00000330: 279a 613e ebde 363e 0da0 4fbe 3f9c 34be
00000340: ac95 a9bc c2dc 9d3d b094 9ebe 8441 813e
00000350: 9294 4dbf 63df a9bd 8dcd cdbe 57a4 8abe
00000360: 3c6b 07bf b5ad a73e 6d20 5b3e 47ba 73b9
00000370: 1058 183f ee21 363d 5db1 953d 0345 f03d
00000380: 41c3 20bf 57ac 083e 5fe7 263e f1e5 debc
00000390: 4a51 343e b804 323e 6ea5 763e 3cde 4ebf
000003a0: 16c6 b8bc 400a e63d 3e5d 05bf c421 b43d
000003b0: b232 da3d f38f a13f b490 13bf 7af5 c33c
000003c0: 40b6 23bf 4ed5 1bbe 7db3 debc 63e3 ddbc
000003d0: 3dba 6f3f 43f8 9f3c 24ce c9be 4c7c 10bf
000003e0: f7da 963f 206a 0ebe d646 2a3e b520 ad3c
000003f0: 3154 c3be 3749 303e b4a7 193e 2c7b f9bd
