AE Models/8lat1.950loss.pth (torch, 117186 bytes, 27 tensors)

weight f4 [16, 1, 4]
0	0x3da90c9a	0.08254357
1	0xbd7a45d7	-0.06110176
2	0xbd9bc750	-0.07606375
3	0x3dc220be	0.09478901
4	0x3dcebabc	0.100942105
5	0xbde438ea	-0.11143668
6	0x3e5b224e	0.21399805
7	0xbdfab6f8	-0.1224193
8	0x3acd1a6a	0.0015648131
9	0x3c55fa82	0.013060214
10	0x3d857418	0.06516284
11	0x3de347c2	0.11097671
12	0xbe11338a	-0.14179817
13	0xbd7095a7	-0.05873647
14	0x3e286f16	0.16448626
15	0x3ce00d89	0.027350204
16	0x3e0c7fec	0.13720673
17	0xbe1208de	-0.14261195
18	0xbec27755	-0.37981668
19	0x3dc6a34a	0.09699114
20	0x3d4e3b74	0.050349668
21	0x3da23c11	0.07921613
22	0x3deccd84	0.115626365
23	0x3d0da140	0.034577608
24	0xbe5a7b50	-0.21336102
25	0xba4a8c00	-0.000772655
26	0xbdb138d0	-0.08653414
27	0xbe971386	-0.29507083
28	0x3ce09b9f	0.027417956
29	0x3e14193c	0.14462751
30	0xbe6024dc	-0.2188906
31	0x3c9d5f4a	0.019210476
32	0xbdef4f75	-0.11685077
33	0xbd9ad26a	-0.075596645
34	0xbd334fce	-0.04377728
35	0x3df86294	0.12128177
36	0xbe9b2014	-0.3029791
37	0xbe47c6cc	-0.19509429
38	0xbef9c20a	-0.48780853
39	0xbe504cf0	-0.2034185
40	0xbdead219	-0.11465854
41	0x3e4b506b	0.19854896
42	0xbe63575a	-0.2220129
43	0x3dbbc2f4	0.09168044
44	0xbe139537	-0.1441239
45	0x3df0e94c	0.11763248
46	0xbd99f650	-0.075176835
47	0x3deb72c7	0.114965014
48	0xbca59781	-0.020213844
49	0x3b5e577b	0.0033926654
50	0xbccf37c4	-0.025295146
51	0xbd3c98ba	-0.04604409
52	0x3e377489	0.17915548
53	0xbe06d298	-0.13166273
54	0x3d3616ec	0.044455454
55	0xbe09acc1	-0.13444807
56	0x3d7c52da	0.06160245
57	0x3d832865	0.06404189
58	0x3beefc95	0.0072932937
59	0x3d60c190	0.054872096
60	0xbd665dba	-0.05624173
61	0xbc520fd3	-0.012821156
62	0xbcec588b	-0.028850814
63	0xbd54539e	-0.051837556

bias f4 [16]
0	0xbe362367	-0.17786942
1	0xbf58a6c5	-0.8462947
2	0xbce702a2	-0.028199498
3	0x3d20c0d1	0.039246384
4	0xbe8e6f0f	-0.27819106
5	0xbb965232	-0.004587435
6	0xbeeb6a42	-0.45979506
7	0x3eba2a14	0.36360228
8	0x3efe6d06	0.49692553
9	0xbee4b4ac	-0.44669092
10	0x3e818cb5	0.25302663
11	0x3d8534b6	0.065041944
12	0x3f810e5b	1.0082506
13	0x3e996c3e	0.29965395
14	0xbf85251e	-1.0401952
15	0x3f74f4e1	0.95686156

weight f4 [16, 16, 4]
0	0x3d9684cb	0.07349547
1	0xbcb6d3fb	-0.022317877
2	0xbcee7812	-0.029109988
3	0xbdee682b	-0.11640962
4	0xbe2c2368	-0.16810381
5	0xbd0fbd62	-0.03509272
6	0xbdc84d26	-0.0978034
7	0x3dc6296a	0.09675868
8	0xbd04fd18	-0.03246793
9	0x3e134059	0.14380015
10	0x3d0e1f54	0.034697846
11	0xbe1a6651	-0.15078093
12	0x3d3a1414	0.045429304
13	0x3da2fb0b	0.07958039
14	0x3d88c76e	0.06678663
15	0xbd6d68df	-0.05796134
16	0xbd8909bc	-0.0669131
17	0x3cd7c16f	0.026337354
18	0x3e69b0a7	0.22821294
19	0x3e5273cd	0.20551987
20	0x3dcd6dcb	0.10030707
21	0x3df35c64	0.118828565
22	0x3e8dcbf8	0.27694678
23	0x3c597050	0.013271406
24	0x3d92f41e	0.07175468
25	0x3ce65698	0.028117463
26	0xbdf9c8ec	-0.12196526
27	0xbc2b6b30	-0.010462567
28	0xbe8de3f4	-0.27712977
29	0xbe491d13	-0.19639997
30	0xbe0d0f1a	-0.13775292
31	0xbe1ef010	-0.15521264
32	0x3e0adbd8	0.13560426
33	0x3d9f573f	0.07780313
34	0xbd9a50b1	-0.07534922
35	0xbc9439bf	-0.018093942
36	0x3db56578	0.08857244
37	0x3dd1e220	0.10248208
38	0xbdc78d50	-0.0974375
39	0x3d13dc04	0.036098495
40	0x3e7eb82e	0.24874946
41	0xbcf8eb06	-0.030385505
42	0xbcf8516c	-0.030312262
43	0xbcbc15e9	-0.022959666
44	0xbde21b09	-0.11040313
45	0xbdfb148c	-0.122597784
46	0x3dce81c0	0.100833416
47	0x3cf69b72	0.030103419
48	0xbdb40602	-0.087902084
49	0x3eb4afe4	0.35290444
50	0xbe07f9aa	-0.13278833
51	0xbebb14f1	-0.36539415
52	0x3de9e818	0.114212215
53	0x3e9edbfb	0.31027207
54	0x3e2b285f	0.16714619
55	0x3bae82d6	0.0053256555
56	0xbd81653e	-0.063181385
57	0x3e2733ff	0.16328429
58	0x3d672ae6	0.056437396
59	0x3daa9eec	0.08331093
60	0xbe4fe601	-0.20302583
61	0x3e49341e	0.19648787
62	0x3ed5c876	0.41754502
63	0xbf0ef85d	-0.5584772
64	0xbbad95cb	-0.0052973977
65	0x3d751e06	0.059843086
66	0x3bd7de11	0.0065877517
67	0x3e577e4b	0.2104427
68	0x3b9ccaf0	0.004784934
69	0x3d86f162	0.06589009
70	0x3e1dc665	0.15407713
71	0x3c858f2e	0.016303625
72	0xbcf98eac	-0.030463539
73	0x3e13bfec	0.14428681
74	0x3e288a81	0.16459085
75	0xbe0d67fd	-0.138092
76	0xbdc2b7a2	-0.095076814
77	0xbe8a0286	-0.2695505
78	0xbe78b6dd	-0.24288507
79	0xbdbff882	-0.09373571
80	0xbe070c64	-0.1318832
81	0xbd976186	-0.07391648
82	0x3e02d1f7	0.12775408
83	0xbc81af5e	-0.015830692
84	0xbc728698	-0.014802597
85	0x3df73a30	0.12071645
86	0xbd7b8d09	-0.0614138
87	0x3df3176c	0.11869702
88	0x3de60da4	0.112330705
89	0x3d2561a4	0.04037632
90	0xbdaf7c44	-0.08568624
91	0x3da32298	0.079655826
92	0xbcbd5295	-0.023110667
93	0x3dfa8520	0.12232423
94	0xbd09a88c	-0.033608004
95	0xbe240522	-0.16017583
96	0xbe2b6b8e	-0.16740248
97	0xbe8cda2e	-0.27510208
98	0xbe85db08	-0.2614367
99	0xbde23725	-0.11045674
100	0x3dfa9570	0.12235534
101	0x3de16fd8	0.110076606
102	0xbd870e2a	-0.065944985
103	0xbd8932c0	-0.06699133
104	0x3e0b2aa9	0.13590492
105	0x3e1fe946	0.1561633
106	0x3e37b77f	0.17941092
107	0x3ea390dd	0.3194646
108	0x3d6fc61d	0.058538545
109	0xbcdd7372	-0.027032588
110	0x3ca0815b	0.019592931
111	0xbe02e064	-0.1278091
112	0x3d866a3d	0.06563232
113	0x3e1fac04	0.15592963
114	0x3e9f4fb7	0.31115505
115	0xbe55e255	-0.2088712
116	0x3c4082a2	0.011749895
117	0xbea52955	-0.32258096
118	0xbe71caab	-0.23612468
119	0xbe96668c	-0.29375112
120	0x3dea5ee4	0.1144388
121	0x3e7baa75	0.24576743
122	0x3a3181e1	0.00067713676
123	0x3e0d33af	0.13789247
124	0x3e4eecfb	0.20207588
125	0x3e9c7c90	0.30563784
126	0x3ebf7bc4	0.37399113
127	0x3de297db	0.110641204
128	0x3d8f767b	0.0700502
129	0x3df3c88f	0.11903488
130	0xbc1b581b	-0.009481455
131	0x3c62b1b4	0.013836313
132	0x3cdd287e	0.026996847
133	0xbd039f13	-0.032134127
134	0x3d0b7b67	0.034053233
135	0xbdaaf645	-0.083477534
136	0x3e245c4d	0.16050835
137	0x3cf2e2db	0.029649189
138	0x3e0df4ff	0.1386299
139	0x3d671be4	0.056423083
140	0xbdd3dc80	-0.103447914
141	0x3d022c2c	0.031780407
142	0xbd9ebd90	-0.07751
143	0xbd9c2f52	-0.07626213
144	0xbe3a8038	-0.18212974
145	0x3e5bc5fd	0.21462245
146	0x3d1bc2b5	0.038027484
147	0x3d782883	0.06058551
148	0x3e314f11	0.17315318
149	0x3e18c5ab	0.14919154
150	0x3d94d83a	0.072678044
151	0x3e181275	0.14850791
152	0xbd92b540	-0.07163477
153	0xbdba3552	-0.09092201
154	0x3dbafd8a	0.0913039
155	0xbd90cc30	-0.07070196
156	0xbcdbaa7b	-0.02681469
157	0xbdffc9d8	-0.124896705
158	0xbd9c2f93	-0.076262616
159	0xbdb7c536	-0.08973162
160	0x3cc355a4	0.023844548
161	0x3cd41e91	0.025893481
162	0xbdd2e8e9	-0.1029833
163	0xbda20c5e	-0.07912515
164	0xbd9c6518	-0.076364696
165	0xbcfb7750	-0.030696541
166	0x3db6e300	0.089300156
167	0xbdd01560	-0.10160327
168	0xbd2b3ea7	-0.041807797
169	0xbd0e782b	-0.03478257
170	0xbddce18d	-0.10785208
171	0x3b9d7400	0.004805088
172	0xbdc15cea	-0.0944155
173	0xbd8abb6b	-0.067740284
174	0xbd55e5b7	-0.052221026
175	0x3e06348f	0.13105987
176	0xbd103a7b	-0.03521202
177	0x3e44fa03	0.19235997
178	0x3ddc5b48	0.10759598
179	0x3def09d4	0.116717964
180	0x3d7e025a	0.06201396
181	0x3c2929eb	0.010324935
182	0xbd1b66ca	-0.037939824
183	0xbd9af252	-0.0756575
184	0xbdc2ce91	-0.09512056
185	0x3d6c927a	0.05775688
186	0x3d0b66d1	0.0340336
187	0xbb0e2d81	-0.0021694603
188	0xbeb98cd8	-0.36240268
189	0x3ea2ee69	0.31822518
190	0x3e0826e9	0.13296093
191	0xbd8a2b72	-0.06746568
192	0x3caeac28	0.021322325
193	0x3de33fbb	0.1109614
194	0x3c1a8500	0.009431124
195	0x3d88d66a	0.06681521
196	0xbe18bac4	-0.14914995
197	0x3e131d3d	0.14366622
198	0xbe3e308a	-0.18573204
199	0x3e2d044a	0.16896167
200	0x3d36cbcb	0.044627946
201	0x3cde3516	0.027124923
202	0xbdb06cfb	-0.086145364
203	0xbe04d649	-0.12972368
204	0xbdbac8e8	-0.09120351
205	0xbd475078	-0.048660725
206	0xbde04c49	-0.1095205
207	0x3c249bb2	0.010046886
208	0xbe6d3382	-0.2316418
209	0xbf010a78	-0.504066
210	0xbe822ceb	-0.25424895
211	0xbd1201a8	-0.03564611
212	0x3d849c62	0.0647514
213	0x3dd598c6	0.1042953
214	0xbd7748ec	-0.060372278
215	0xbd2fefb7	-0.04295322
216	0xbdfdee18	-0.123989284
217	0xbdde4e90	-0.10854828
218	0x3d98d6b4	0.07462826
219	0xbcfb26a0	-0.030658066
220	0x3db6966f	0.08915412
221	0x3cccd7d9	0.025005268
222	0xbdd45b0d	-0.10368929
223	0x3d8321a1	0.064028986
224	0x3c98fc13	0.018674886
225	0xbdb44899	-0.088029094
226	0x3da17076	0.07882778
227	0xbdac64ab	-0.084176384
228	0xbd980ffa	-0.07424922
229	0xbbc70280	-0.006073296
230	0x3d21d2b4	0.039507583
231	0x3cba4150	0.022736222
232	0x3cc61e71	0.024184437
233	0xbdb5ff35	-0.088865675
234	0x3d9184b1	0.07105387
235	0xbe65203d	-0.22375579
236	0x3dae135e	0.08499788
237	0xbd0326de	-0.03201949
238	0xbd40f3a9	-0.047107372
239	0x3cae3be9	0.021268802
240	0xbe98bfdb	-0.29833874
241	0xbdd22f08	-0.10262877
242	0x3e88c6e7	0.2671425
243	0x3ef66a73	0.4812809
244	0x3cd60225	0.02612407
245	0xbe3beab3	-0.1835125
246	0xbe3eaa3d	-0.18619628
247	0x3e1bd35c	0.15217346
248	0x3e507c87	0.20360003
249	0x3e1f8bc7	0.15580665
250	0xbe08a64f	-0.13344692
251	0xbd5d3449	-0.05400494
252	0xbbfae158	-0.0076562576
253	0xbf0d3d64	-0.551718
254	0x3e9798bd	0.29608718
255	0xbdce374d	-0.100691415

bias f4 [16]
0	0xbeb57b9a	-0.35445863
1	0xbe550365	-0.20802076
2	0x3cb4732f	0.02202758
3	0x3e19ee24	0.1503225
4	0xbd8bcfd3	-0.06826749
5	0xbe8a3030	-0.2698989
6	0xbc668515	-0.014069815
7	0x3dc14a41	0.09437991
8	0xbe07a724	-0.13247353
9	0xbeb52338	-0.35378432
10	0xbecbede0	-0.39829922
11	0x3f61a76a	0.8814608
12	0x3dd713ba	0.105018094
13	0xbdf485eb	-0.11939605
14	0x3e681645	0.22664745
15	0xbf30a4ee	-0.6900166

weight f4 [16, 16, 5]
0	0x3c9c261f	0.019061146
1	0xbe516fab	-0.20452754
2	0xbd5cef4b	-0.053939145
3	0x3e76024c	0.24024314
4	0x3d7da2fb	0.06192301
5	0xbdb6d7b1	-0.089278586
6	0xbe78aa52	-0.24283722
7	0x3d0fa736	0.035071574
8	0xbe0f5858	-0.13998544
9	0x3df05fb5	0.11737005
10	0xbef6e52e	-0.48221725
11	0xbe573134	-0.21014863
12	0x3ca8b19b	0.020592501
13	0x3e880668	0.26567388
14	0x3ddc99e6	0.10771541
15	0x3de040be	0.109498486
16	0x3c7c1c7a	0.015387649
17	0x3e9e3bb6	0.3090493
18	0x3e7fff8a	0.24999824
19	0xbd4a1f43	-0.04934622
20	0xbed1b308	-0.40956903
21	0x3d95cf79	0.07314963
22	0x3e086ada	0.1332201
23	0xbd38d35b	-0.04512344
24	0x3e0e2959	0.1388296
25	0xbdf38fae	-0.11892639
26	0xbc5b2e0d	-0.013377679
27	0xbe1a1656	-0.15047583
28	0x3da27843	0.07933094
29	0xbc639cbd	-0.01389235
30	0xbea3f173	-0.3202015
31	0xbe25b683	-0.16182904
32	0x3da87ffa	0.082275346
33	0x3de1532a	0.110021904
34	0xbdd891e2	-0.105747
35	0xbdfdf84a	-0.12400873
36	0xbe6e3d6d	-0.2326562
37	0x3e1085c1	0.14113523
38	0x3f071dc6	0.52779806
39	0x3e44ba5b	0.19211714
40	0xbde91e89	-0.11382777
41	0xbdb6071f	-0.08888077
42	0x3d0abe32	0.03387279
43	0x3e9b5329	0.30336884
44	0x3c98c69b	0.01864939
45	0xbe9b9a43	-0.3039113
46	0x3dd22847	0.102615885
47	0xbd8f6484	-0.07001594
48	0x3e693650	0.22774625
49	0xbe334a3d	-0.17508788
50	0x3e5d6de5	0.21623953
51	0xbe3272de	-0.17426631
52	0xbdc6ffaa	-0.09716733
53	0x3db78f77	0.089629106
54	0x3d77cede	0.06050002
55	0x3d89ce93	0.06728854
56	0x3d2a5cf2	0.041592546
57	0xbe7c3245	-0.24628551
58	0xbf5dc968	-0.86635447
59	0xbea885fe	-0.32914728
60	0xbe6719e3	-0.22568469
61	0xbd950aa5	-0.07277421
62	0xbdabdcf6	-0.08391754
63	0x3e98d8be	0.2985286
64	0xbd090f94	-0.033462122
65	0xbc4ce851	-0.01250656
66	0xbe29d7e8	-0.16586268
67	0xbe8bba61	-0.27290633
68	0x3e190b99	0.1494583
69	0x3e197aa4	0.1498819
70	0xbd943c9e	-0.07238124
71	0x3e459886	0.19296464
72	0x3e5fd652	0.218591
73	0xbe19c175	-0.15015204
74	0xbe518ff9	-0.20465077
75	0xbe13dedd	-0.14440484
76	0xbeeaecec	-0.45883882
77	0x3d5e0ada	0.054209568
78	0x3e822d41	0.2542515
79	0x3e7c5f47	0.2464572
80	0xbda138bd	-0.0787215
81	0x3dc009da	0.09376879
82	0x3e2e1f27	0.17004071
83	0xbe28ea36	-0.16495594
84	0xbc81e3dd	-0.015855724
85	0x3d966c8d	0.07344923
86	0xbe077fdd	-0.1323237
87	0xbd5a2365	-0.05325641
88	0xbc4201d6	-0.011841258
89	0x3e0049fd	0.12528224
90	0x3e5fe70b	0.2186548
91	0xbb3bf538	-0.0028680097
92	0x3c91e46e	0.01780912
93	0x3dc72c3e	0.097252354
94	0x3e3e2c5f	0.18571614
95	0xbe060b4b	-0.13090245
96	0x3dc078bc	0.09398028
97	0xbdfc9459	-0.123329826
98	0xbe2ef93d	-0.17087264
99	0xbe43c983	-0.1911984
100	0x3d4c901b	0.049942117
101	0xbd8d8e33	-0.06911888
102	0x3ceb4fe8	0.028724626
103	0xbdb1105e	-0.086457
104	0xbd9e9e37	-0.07745021
105	0xbe6c5fdb	-0.23083441
106	0x3daaa262	0.08331753
107	0x3d9e89eb	0.077411495
108	0xbe1435bc	-0.14473623
109	0xbda39cc4	-0.07988885
110	0x3d920e80	0.07131672
111	0x3e812adf	0.2522802
112	0x3d1a186d	0.03762095
113	0x3d93f24b	0.07223948
114	0xbd4a5113	-0.049393725
115	0xbe02218a	-0.12708107
116	0xbd9f9beb	-0.07793411
117	0xbdb1813e	-0.08667229
118	0xbda961e7	-0.082706265
119	0xbdbaa3c3	-0.09113266
120	0x3c81f614	0.01586441
121	0x3dad54f7	0.084634714
122	0x3dd98f32	0.106230155
123	0x3db2ad13	0.087244175
124	0xbe14cea7	-0.14531957
125	0xbe913779	-0.28362635
126	0xbda857b0	-0.0821985
127	0xbcc96b07	-0.024587167
128	0xbe2c0f51	-0.16802718
129	0xbe3eeca5	-0.1864496
130	0xbdce2720	-0.10066056
131	0x3caeb668	0.021327212
132	0x3e1cfff9	0.15332021
133	0xbcf1fba0	-0.02953893
134	0xbeb3abd9	-0.35092047
135	0x3d87b5db	0.06626483
136	0xbd7ab331	-0.061206046
137	0xbd066e25	-0.032819886
138	0x3d914057	0.0709235
139	0x3e0461f2	0.12927988
140	0xbd263982	-0.040582187
141	0x3de3742b	0.11106142
142	0x3e117afe	0.14207074
143	0x3d31efba	0.04344151
144	0xbd5318e2	-0.051537402
145	0xbcb75477	-0.022379143
146	0xbd4a9fab	-0.049468677
147	0x3e01c8e2	0.12674287
148	0xbd89cee9	-0.06728918
149	0xbd90fcff	-0.07079505
150	0xbe267829	-0.16256775
151	0xbe4b3f99	-0.1984848
152	0xbcd67b65	-0.026181886
153	0xbb57bf42	-0.0032920395
154	0xbd6af740	-0.057364702
155	0xbcceda77	-0.025250657
156	0x3e8dcc6a	0.27695018
157	0x3e2f081f	0.17092942
158	0xbe79f967	-0.24411546
159	0xbf04d4ac	-0.5188701
160	0x3e615aa4	0.22007233
161	0x3c8258d2	0.015911493
162	0xbe3d2202	-0.18470004
163	0xbda23a8a	-0.07921322
164	0x3e5d3c41	0.21605016
165	0xbe49caa0	-0.19706202
166	0xbd56a341	-0.052401785
167	0x3cee507c	0.029091112
168	0xbc4aa65d	-0.012368766
169	0x3de3f091	0.11129869
170	0xbefb1225	-0.4903728
171	0xbe00f371	-0.12592866
172	0x3d7ca7bc	0.0616834
173	0xbc96ab63	-0.01839227
174	0x3db97cee	0.090570316
175	0xbd51994d	-0.05117159
176	0x3e586fd9	0.21136416
177	0xbd91bf19	-0.07116527
178	0x3df162c0	0.11786413
179	0x3de4e4c0	0.11176443
180	0xbdcf5587	-0.10123735
181	0xbe29eb97	-0.16593777
182	0x3dd34c6d	0.103173114
183	0x3db3110a	0.08743484
184	0x3de8262f	0.11335408
185	0x3d91d89a	0.071213916
186	0x3d40084c	0.046882913
187	0x3d7dde32	0.06197948
188	0x3deba9d8	0.115070045
189	0x3e50829e	0.20362327
190	0x3dd65c20	0.1046679
191	0xbd876018	-0.06610125
192	0xbd13e195	-0.036103804
193	0xbe24daf1	-0.16099145
194	0x3df36d52	0.118860856
195	0x3dbebb0e	0.093130216
196	0x3e2979b9	0.1655034
197	0xbddace1f	-0.10683846
198	0x3ee1512c	0.44007242
199	0xbdf93d5a	-0.12169905
200	0xbe98b1d4	-0.29823172
201	0xbbd5b9fe	-0.006522416
202	0xbd942f8a	-0.0723563
203	0x3a267333	0.00063495635
204	0x3dcb3c6d	0.09923635
205	0xbdf278d0	-0.118394494
206	0xbf4d8bba	-0.8029133
207	0xbeb068d0	-0.34454966
208	0xbd6f1e16	-0.0583783
209	0x3e45db0d	0.19321842
210	0xbe741036	-0.23834309
211	0xbeddf5c7	-0.43351576
212	0xbee95be4	-0.4557792
213	0xbe813170	-0.2523303
214	0x3f07bc34	0.5302155
215	0x3de43905	0.11143688
216	0xbe0b3671	-0.13594986
217	0xbd541cc1	-0.051785234
218	0xbd882200	-0.0664711
219	0xbd115c3e	-0.03548836
220	0x3dd5b1d9	0.104343124
221	0x3debc350	0.11511862
222	0xbe1cb0f5	-0.15301879
223	0xbc88998c	-0.01667478
224	0xbcabe633	-0.020983791
225	0x3d389794	0.04506643
226	0x3c9fd9f3	0.019513106
227	0xbda38c32	-0.079857245
228	0x3d3728bb	0.044716578
229	0xbcd8ca1a	-0.026463557
230	0x3d29df0f	0.04147249
231	0x3e5988a1	0.21243526
232	0xbcbe13c2	-0.02320278
233	0x3de5bbab	0.112174354
234	0xbd57d122	-0.05268968
235	0x3d48ec01	0.049053196
236	0x3e956553	0.29178867
237	0xbf102108	-0.563004
238	0xbe2e5ef3	-0.17028408
239	0xbd8d6231	-0.06903494
240	0x3c1a13e3	0.009404155
241	0x3d8ea57c	0.069651574
242	0xbe1fd69d	-0.15609212
243	0xbbf87a75	-0.0075829574
244	0xbd8ba508	-0.068185866
245	0x3c87d80b	0.01658251
246	0xbcfa7533	-0.030573463
247	0xbe0d0dbd	-0.13774772
248	0x3de0a22b	0.10968431
249	0x3d9af0df	0.07565474
250	0x3e21ab54	0.15788013
251	0x3d09d19d	0.03364717
252	0x3d697ec3	0.057005655
253	0x3d8929da	0.06697436
254	0xbe197d63	-0.14989237
255	0xbbf4c07c	-0.007469235

bias f4 [16]
0	0xbda5cc87	-0.08095651
1	0x3d19eecb	0.037581246
2	0x3ea98757	0.3311107
3	0x3ea4b946	0.32172602
4	0x3e4fafdd	0.2028193
5	0xbd1bf08a	-0.038071193
6	0x3d604bd0	0.0547598
7	0xbe90d80e	-0.28289837
8	0xbe8f1d70	-0.27952147
9	0xbe60f16b	-0.21967094
10	0x3e369666	0.1783081
11	0x3ce14bae	0.027501907
12	0x3d8294c7	0.06376033
13	0xbc28b384	-0.010296706
14	0xbece4131	-0.40284112
15	0xbf117a76	-0.56827486

weight f4 [16, 16, 5]
0	0xbe8eca87	-0.2788889
1	0xbe86ffc5	-0.26367012
2	0xbd5394a4	-0.051655427
3	0x3e63964e	0.22225305
4	0x3e85a620	0.26103306
5	0xbebaa9d0	-0.36457682
6	0xbe865ee3	-0.26244268
7	0x3e6ca649	0.23110308
8	0x3e5d6b32	0.21622923
9	0x3a9e734e	0.0012088807
10	0xbd3e5361	-0.046466235
11	0xbea59aa4	-0.32344544
12	0x3ea201c6	0.31641978
13	0x3e724556	0.23659262
14	0x3bb3ba5a	0.0054848613
15	0xbcd4e0fa	-0.025986183
16	0xbd8de4d0	-0.06928408
17	0x3df2f5a0	0.118632555
18	0xbdacdd5a	-0.08440657
19	0xbddb7f80	-0.10717678
20	0xbd942f69	-0.07235605
21	0xbed6b945	-0.41938224
22	0x3cc00776	0.023441058
23	0x3e3f457b	0.18678848
24	0x3ebcc7f4	0.36871302
25	0x3c357229	0.011074581
26	0x3d8b6a89	0.06807429
27	0x3dbae95c	0.09126541
28	0x3d8eafb7	0.06967109
29	0xbca3f75f	-0.020015417
30	0xbd329ceb	-0.04360668
31	0x3deea38f	0.1165229
32	0x3d44d702	0.04805661
33	0xbd639c66	-0.055569075
34	0xbd8e3929	-0.06944496
35	0xbecf5988	-0.40497994
36	0x3f09927e	0.53739154
37	0x3f4a203d	0.7895544
38	0x3ef6bcd2	0.48190933
39	0xbe0ddba3	-0.13853316
40	0x3dbd0aee	0.092306
41	0xbd29c3e3	-0.041446578
42	0xbe5519fb	-0.20810692
43	0x3e92c5eb	0.28666624
44	0xbb8f2d7e	-0.0043694368
45	0xbe46e3ee	-0.19422886
46	0xbe13fcb4	-0.14451867
47	0x3d615f99	0.05502281
48	0x3e7fcc1b	0.24980204
49	0x3d43441b	0.047672372
50	0xbec724d9	-0.388953
51	0xbe8d8696	-0.27641743
52	0x3eb9ac80	0.3626442
53	0xbe327d58	-0.17430627
54	0x3ebf06c2	0.37309843
55	0x3d87d9f7	0.0663337
56	0x3e57afc7	0.21063147
57	0xbe641909	-0.22275175
58	0x3e354acd	0.17704315
59	0xbe9c7f73	-0.30565986
60	0xbd9c6cf9	-0.076379724
61	0xbe891b7c	-0.2677878
62	0x3d83824f	0.06421339
63	0x3d80cb1a	0.062887385
64	0x3d219af1	0.039454404
65	0xbda91a6b	-0.08256992
66	0xbd2b36c6	-0.041800283
67	0x3c503244	0.012707297
68	0x3dccd4b5	0.10001508
69	0x3d85f046	0.06539969
70	0xbef5b431	-0.47989038
71	0xbe58808f	-0.21142791
72	0xbeb7407d	-0.35791388
73	0xbe8e7d7f	-0.2783012
74	0x3e369566	0.17830428
75	0xbe09290d	-0.13394566
76	0xbee7c1d4	-0.45265067
77	0xbdf5f424	-0.12009457
78	0x3f05b2e3	0.52226084
79	0x3e0c1526	0.13679942
80	0xbea98782	-0.33111197
81	0x3e154165	0.14575727
82	0x3e2699a7	0.16269551
83	0x3d2ce69e	0.04221212
84	0xbe5845c7	-0.21120368
85	0xbe8f40a1	-0.27978995
86	0x3e90d9fd	0.28291312
87	0x3e98a12c	0.29810464
88	0xbddb10be	-0.10696553
89	0xbd82dbe8	-0.063896
90	0x3e863b7b	0.26217255
91	0xbcfef92b	-0.031124672
92	0x3e00aea3	0.12566619
93	0xbe882f82	-0.26598746
94	0x3bcd5c51	0.0062671085
95	0xbdda8678	-0.10670179
96	0xbb970f2e	-0.004609964
97	0xbd8d823b	-0.06909605
98	0x3c36db85	0.011160736
99	0x3c5e5a70	0.013571367
100	0x3d110180	0.03540182
101	0xbd305d9f	-0.043058034
102	0x3ea2597f	0.31708905
103	0x3df6aa58	0.12044209
104	0xbdf9b56c	-0.121928066
105	0x3db35ab0	0.08757532
106	0x395bb38a	0.00020952351
107	0xbc6d8b5d	-0.014498559
108	0x3d834fd1	0.06411708
109	0x3bf1fa99	0.00738461
110	0xbd7a5878	-0.061119527
111	0x3d5fadd7	0.054609146
112	0x3dc48f2c	0.0959762
113	0xbdc5d0c2	-0.09658958
114	0x3db102fd	0.08643148
115	0xbed581da	-0.4170063
116	0xbcb63fb9	-0.022247182
117	0x3ed9317a	0.4242056
118	0xbe9ad6ee	-0.30242103
119	0xbe9cf4d5	-0.30655542
120	0xbdd1276e	-0.10212599
121	0x3d5c5a79	0.05379722
122	0xbdde4a46	-0.1085401
123	0xbeb91389	-0.36147717
124	0xbe2166f0	-0.15761924
125	0xbccee3a0	-0.025255024
126	0x3e1487da	0.14504948
127	0x3ea36204	0.31910717
128	0xbb8a0876	-0.0042124344
129	0xbdf4b781	-0.11949063
130	0x3db694a5	0.089150704
131	0x3bf31c41	0.0074191396
132	0xbdab4670	-0.08363044
133	0xbd51a686	-0.0511842
134	0xbe2772af	-0.16352342
135	0x3da7b017	0.08187883
136	0xbf1dfbba	-0.6171223
137	0xbe451f89	-0.19250311
138	0x3e22d8f7	0.15903078
139	0x3dd26524	0.10273197
140	0xbe92910c	-0.28626287
141	0x3e48565a	0.1956419
142	0x3ea588b7	0.32330868
143	0x3e033276	0.12812218
144	0x3e2c9334	0.16853029
145	0xbbfa3153	-0.0076352744
146	0xbc2be42c	-0.010491412
147	0x3d47f5c0	0.04881835
148	0x3c23f0f7	0.010006181
149	0x3c8ed785	0.017436752
150	0xbe986ade	-0.29769033
151	0xbeabf1a5	-0.33582798
152	0xbed4ff00	-0.416008
153	0x3d403a93	0.04693086
154	0x3d8bd1c9	0.06827123
155	0xbcc8c0f3	-0.024506068
156	0x3e827cbd	0.25485793
157	0x3e787cef	0.24266408
158	0x3e30ef81	0.17278863
159	0xbdc3918b	-0.095492445
160	0x3c5d6b09	0.013514289
161	0xbd1cd154	-0.03828557
162	0x3de89c2d	0.11357913
163	0x3e9ee93e	0.31037325
164	0x3e0300f3	0.12793331
165	0xbcae4f0d	-0.021277929
166	0xbe16fed5	-0.14745648
167	0x3e886e51	0.26646665
168	0x3e50d327	0.20393048
169	0x3ee17eb8	0.4404199
170	0xbe008738	-0.12551582
171	0xbedbe3c2	-0.42947203
172	0xbef9bb80	-0.48775864
173	0x3eb6f826	0.35736197
174	0xbe1873ec	-0.1488797
175	0xbb900077	-0.0043945867
176	0xbe0e8d29	-0.13921036
177	0x3ebbca2d	0.36677685
178	0xbeccac4d	-0.39975205
179	0xbf495d48	-0.7865796
180	0xbd149368	-0.03627339
181	0x3ed8a79c	0.42315376
182	0xbe87b10e	-0.2650227
183	0xbe6776df	-0.2260394
184	0xbee14eee	-0.4400553
185	0xbda839ed	-0.082141735
186	0xbdbc332a	-0.09189446
187	0xbd9926e8	-0.07478124
188	0xbc90b32f	-0.017663566
189	0x3dd2ded4	0.10296407
190	0xbd69b71b	-0.05705939
191	0xbda2bf21	-0.07946611
192	0x3d8474dc	0.06467602
193	0x3df88d5e	0.12136339
194	0x3dd9fd75	0.10644046
195	0x3e800794	0.25005782
196	0x3dcc99c9	0.0999027
197	0x3ca6b99f	0.020352183
198	0x3e65ffae	0.22460815
199	0x3e6aca28	0.22928679
200	0xbe53ea30	-0.20694804
201	0x3db74334	0.08948365
202	0x3d71c2ed	0.059023786
203	0xbeb299d4	-0.34882987
204	0xbe1b4723	-0.15163855
205	0xbcdf93fd	-0.027292246
206	0xbe623e06	-0.22093973
207	0xbe3e202b	-0.18566959
208	0x3dfd6d93	0.12374415
209	0xbd34a436	-0.044101916
210	0x3ebd1cc5	0.36936012
211	0xbc165c24	-0.0091772415
212	0xbd879066	-0.06619339
213	0xbed45e18	-0.41478038
214	0xbe45abe6	-0.19303855
215	0xbf8dcb54	-1.1077676
216	0xbea268e1	-0.3172064
217	0x3ec7e9c7	0.39045545
218	0x3d5edb07	0.0544081
219	0xbdbd2ee9	-0.09237463
220	0xbe650312	-0.22364452
221	0x3e9f3992	0.3109861
222	0x3e9f3ebc	0.3110255
223	0xbdffa6d0	-0.12482989
224	0xbe801e1f	-0.2502298
225	0x3dd36d3c	0.10323569
226	0x3c662125	0.014045988
227	0x3c36126a	0.011112789
228	0x3d8183cc	0.063239664
229	0xbd4b4ef0	-0.049635828
230	0xbd4baba5	-0.04972424
231	0x3ed582c2	0.41701323
232	0x3e9161a1	0.28394797
233	0xbe126358	-0.14295709
234	0x3ee197b3	0.4406105
235	0xbe492f72	-0.19647005
236	0x3e3aca7c	0.18241304
237	0x3ebe89ff	0.37214658
238	0x3e7a83b1	0.24464299
239	0xbe63cbf4	-0.2224577
240	0x3ec00b91	0.37508824
241	0xbd8d7885	-0.06907753
242	0xbf20d8db	-0.62830895
243	0xbdd4c0c4	-0.103883296
244	0xbe5b97d6	-0.2144464
245	0x3e810da7	0.25205728
246	0xbda372bb	-0.079808675
247	0xbe3c4a50	-0.18387723
248	0x3bb8a85c	0.0056353044
249	0xbd2f5e7e	-0.042814724
250	0x3dd0aeaf	0.10189568
251	0x3e2abe89	0.16674246
252	0xbe1cfb3d	-0.15330215
253	0xbe922ed2	-0.28551346
254	0xbccbb310	-0.024865657
255	0xbd0f46b6	-0.034979545

bias f4 [16]
0	0xbe9609e1	-0.29304412
1	0xbdfcd425	-0.12345151
2	0x3d6edabf	0.05831408
3	0xbe6669d9	-0.22501315
4	0xbf755d1f	-0.95845217
5	0xbe5fe1e0	-0.21863508
6	0xbd8e2ef2	-0.06942548
7	0xbe15f13c	-0.14642805
8	0xbde53112	-0.11191
9	0x3ec13f14	0.37743437
10	0xbc527bc6	-0.012846893
11	0xbea9636b	-0.33083662
12	0xbed7c194	-0.42139876
13	0x3f03b352	0.51445496
14	0xbe053c45	-0.13011272
15	0xbecdecb1	-0.40219644

weight f4 [64, 112]
0	0xbe25e60e	-0.1620104
1	0x3e2c5582	0.16829494
2	0x3e67dddf	0.22643231
3	0x3d843dfe	0.064571366
4	0xbd0eb2c6	-0.03483846
5	0x3dba8648	0.09107643
6	0xbdf5bbda	-0.119987205
7	0x3cc03331	0.02346191
8	0xbe2116e7	-0.15731393
9	0x3d3b3ce7	0.045712378
10	0x3d820933	0.06349411
11	0x3d732e53	0.05937035
12	0xbe8b01a4	-0.2714969
13	0x3db2e49e	0.087350115
14	0x3f904168	1.126996
15	0x3d24370d	0.040091563
16	0xbeada3e5	-0.33914104
17	0x3e84bdd5	0.2592608
18	0x3e82fa26	0.25581473
19	0x3e06146d	0.1309373
20	0x3f20535e	0.6262721
21	0xbf13433e	-0.5752448
22	0xbee2f95a	-0.44330865
23	0x3eb6ce74	0.35704386
24	0xbe6742d1	-0.22584082
25	0x3cf0588d	0.0293391
26	0x3e4b0982	0.19827846
27	0xbddc0339	-0.10742802
28	0xbebe3495	-0.37149492
29	0xbea4fb6c	-0.3222307
30	0x3e91b163	0.28455648
31	0x3d88273c	0.06648108
32	0xbe5bce2c	-0.21465367
33	0xbd686ae9	-0.056742582
34	0xbc8c9654	-0.017161526
35	0xbf29bee5	-0.66306907
36	0x3d2d9076	0.042374097
37	0x3b18a433	0.002329123
38	0xbe8e90e9	-0.27844933
39	0xbccb20f0	-0.02479598
40	0xbd562294	-0.05227907
41	0x3e4366a5	0.19082125
42	0xbd504de7	-0.050855543
43	0x3d1eedc4	0.03880097
44	0x3d19f1ef	0.03758424
45	0xbde478ee	-0.11155878
46	0xbd99313d	-0.074800946
47	0x3ce4fc8b	0.027952453
48	0x3c13cf6d	0.009021622
49	0xbdd35267	-0.103184514
50	0x3a813de2	0.0009860361
51	0xbe7668dc	-0.24063438
52	0x3e2d0438	0.1689614
53	0x3da8556d	0.08219419
54	0x3a9ca5d4	0.0011951276
55	0x3e19939e	0.14997718
56	0x3ce95ccf	0.028486637
57	0xbdc9ca2d	-0.09853015
58	0xbde3e1b5	-0.111270346
59	0x3e3f4338	0.18677986
60	0x3d565ead	0.052336384
61	0x3e5c70cd	0.21527405
62	0x3ebf4d83	0.37363824
63	0xbd88f542	-0.06687404
64	0xbe4e2218	-0.20130193
65	0xbd1d3ff6	-0.038391076
66	0x3e02335b	0.12714903
67	0x3d8686d8	0.06568688
68	0xbd445be4	-0.047939196
69	0x3c3e72a9	0.011624017
70	0xbf18c5cd	-0.5967682
71	0x3e85d55c	0.26139343
72	0x3c002f27	0.007823742
73	0x3d5b9323	0.053607117
74	0x3c505c0f	0.012717261
75	0x3ea25537	0.3170564
76	0x3e84765c	0.2587155
77	0x3e77caab	0.24198405
78	0xbdcba949	-0.09944398
79	0x3dfad41a	0.122474864
80	0x3e1d881d	0.15383954
81	0x3db6fa05	0.08934406
82	0x3d8f7b25	0.0700591
83	0x3ef50654	0.4785639
84	0x3d249dc2	0.040189512
85	0xbe893d82	-0.2680474
86	0xbe828bf7	-0.2549741
87	0x3df346fb	0.11878773
88	0x3e1d4ad2	0.15360573
89	0x3e2e9db6	0.1705235
90	0x3e8f21fb	0.27955613
91	0x3c930a29	0.01794918
92	0x3d6890c3	0.05677868
93	0x3eac6b89	0.33675793
94	0xbe9f5df5	-0.3112637
95	0x3f071e8a	0.52780974
96	0xbdb7e840	-0.08979845
97	0x3de2818f	0.110598676
98	0xbe202db1	-0.1564243
99	0x3d6b3c96	0.057430826
100	0x3e0d5663	0.13802485
101	0x39e1d8c5	0.0004307685
102	0x3ce92992	0.028462205
103	0x3dac4c2f	0.08412968
104	0x3ce89a9b	0.028394034
105	0x3e0a28ca	0.13492122
106	0xbe512768	-0.20425189
107	0x3dfe8501	0.12427712
108	0xbd17ddad	-0.03707664
109	0x3d8289ea	0.06373961
110	0xbd7f12ad	-0.06227367
111	0x3cede2b0	0.029038757
112	0xbdc71347	-0.09720474
113	0xbdf00c48	-0.117210925
114	0xbc7e3873	-0.015516388
115	0x3c605a41	0.013693393
116	0xbdfdbd4e	-0.12389623
117	0x3d3796e6	0.044821642
118	0xbcf9c7cb	-0.030490777
119	0x3d259be2	0.040431865
120	0xbcd80450	-0.026369244
121	0xbde3540c	-0.11100015
122	0xbd86afa1	-0.06576467
123	0xbc5a13bd	-0.01331037
124	0xbd90cc53	-0.07070222
125	0xbe09536e	-0.13410732
126	0xbe0f41a6	-0.13989887
127	0xbddb6839	-0.10713238
128	0xbcac3f6b	-0.021026334
129	0xbdc101ca	-0.09424169
130	0xbd950e34	-0.072781
131	0x3d0fb6e7	0.03508654
132	0xbe01e231	-0.12683941
133	0xbd4b94f7	-0.04970261
134	0xbd8ba113	-0.06817832
135	0xbdae3647	-0.08506446
136	0x3d86c664	0.06580809
137	0xbdcfe8c8	-0.101518214
138	0x3c860b35	0.016362766
139	0x3d01dd45	0.03170516
140	0xbe0c56cb	-0.13704984
141	0xbde0cf25	-0.1097701
142	0x3cd54b79	0.026036965
143	0x3d2b2f3f	0.041793104
144	0x3d2fabad	0.042888332
145	0xbc899e70	-0.016799182
146	0xbd551ba8	-0.05202833
147	0xbc839bd8	-0.016065523
148	0xbda2d769	-0.079512425
149	0xbdf93964	-0.121691495
150	0xbddb82f4	-0.10718337
151	0x3d894e3a	0.06704374
152	0x3b3bab48	0.0028636027
153	0xbc284785	-0.010270958
154	0x3c1dd0ad	0.009632272
155	0x3cd164a5	0.025560686
156	0x3d27b68b	0.04094557
157	0xbce8e740	-0.028430581
158	0xbd94aa83	-0.07259085
159	0x3cb51f9b	0.022109797
160	0xbdcce434	-0.10004464
161	0xbddc58c6	-0.1075912
162	0xbdddc85b	-0.108292304
163	0xbc3d2337	-0.01154404
164	0x3b67c3c4	0.0035364488
165	0xbd6c8bdd	-0.05775057
166	0x3d1e5b72	0.038661428
167	0xbdf1755d	-0.117899634
168	0x3d1b8e0d	0.037977267
169	0xbb577dad	-0.0032881305
170	0xbd3ee432	-0.046604343
171	0xbd4f6991	-0.050637785
172	0xbdb9ce82	-0.09072591
173	0xbd8221d6	-0.0635411
174	0xbd29e19f	-0.041474935
175	0x3d2801b3	0.041017246
176	0x3d2ab21d	0.04167377
177	0xbd6b88a7	-0.05750337
178	0xbcf09143	-0.029366141
179	0xbdb104b6	-0.08643477
180	0xbdffb765	-0.124861516
181	0xbd948ce8	-0.07253438
182	0x3b0ee73d	0.002180531
183	0x3a9089c0	0.0011027381
184	0xbd9db6fd	-0.07700918
185	0xbd9e1cdb	-0.077203475
186	0xbd1f60bc	-0.038910612
187	0x3d80702c	0.06271395
188	0xbd97b0c2	-0.07406761
189	0x3b4773f1	0.0030434097
190	0xbddd5d41	-0.108088024
191	0xbc4acf42	-0.012378516
192	0xbde89577	-0.11356633
193	0xbd4f34db	-0.050587516
194	0xbd65fed4	-0.056151226
195	0xbdadabd0	-0.08480036
196	0xbd88281b	-0.066482745
197	0xbcb5989f	-0.022167502
198	0xbd2a3e95	-0.04156359
199	0xbc2be243	-0.010490957
200	0xbda638d6	-0.08116309
201	0xbd1769cc	-0.03696613
202	0x3bea04da	0.0071416916
203	0x3cf19b75	0.029493073
204	0xbdb910d8	-0.09036416
205	0xbd24fc1c	-0.040279493
206	0x3d2ab675	0.04167791
207	0xbc7926b7	-0.015206984
208	0x3d32bf07	0.04363921
209	0xbc9ef3c3	-0.019403344
210	0xbd29366b	-0.041311663
211	0x3d193c02	0.037410744
212	0xbc5ff341	-0.013668836
213	0x3c662b7b	0.0140484525
214	0x3c045ea0	0.008079201
215	0x3d1c2c3f	0.038128134
216	0xbca8f58e	-0.020624902
217	0x3d7f6b1f	0.062358018
218	0xbe042a3b	-0.12906735
219	0xbcddeb8e	-0.02708986
220	0xbcb53d5b	-0.022123983
221	0x3d52f936	0.051507197
222	0xbdf48217	-0.11938875
223	0x3d29434d	0.04132395
224	0x3b8f2046	0.004367861
225	0x3cd193de	0.025583204
226	0xbd95ede2	-0.07320763
227	0x3d40b74c	0.047049806
228	0x3c38a1c1	0.011269034
229	0xbd5e047f	-0.054203507
230	0x3c3136b3	0.010816264
231	0xbd406713	-0.0469733
232	0xbdb47796	-0.08811872
233	0xbd771916	-0.06032666
234	0x3a2581ee	0.00063136115
235	0x3d952d70	0.07284057
236	0xbdb43b53	-0.08800378
237	0xbd305f59	-0.04305968
238	0x3d3f13e0	0.046649814
239	0xbdcf8a2f	-0.10133778
240	0x3c45a4b6	0.012063196
241	0xbd3ce9c2	-0.046121366
242	0xbd08bccf	-0.033383187
243	0xbdcc4d95	-0.09975735
244	0x3d89134b	0.06693133
245	0x3c0a9ecc	0.008460712
246	0x3c1fdd72	0.0097573865
247	0xbd63d5bf	-0.055623766
248	0xbace5781	-0.0015742631
249	0xbe01597d	-0.12631793
250	0x3d74fd23	0.059811722
251	0xbd72f644	-0.05931689
252	0xbd57eee5	-0.052718062
253	0xbdba91cd	-0.091098405
254	0x3c34edf4	0.011043061
255	0x3cf8df77	0.030379994

bias f4 [64]
0	0x3f7cd7ff	0.98767084
1	0xbaa66b1e	-0.0012696718
2	0xbde2e4b9	-0.11078782
3	0xbde4cdf2	-0.111720935
4	0x3dad1f79	0.084532686
5	0x3ec6e040	0.38842964
6	0xbde04bea	-0.109519795
7	0x3e8fcfa0	0.28088093
8	0x3d4e0988	0.05030206
9	0x3e6a686d	0.22891398
10	0x3dc0d619	0.09415836
11	0x3e031038	0.12799156
12	0xbca366fd	-0.01994657
13	0xbdae5dcd	-0.08513985
14	0x3f097d3e	0.5370673
15	0x3f09a663	0.5376951
16	0xbeb29421	-0.34878638
17	0x3c5bbdca	0.013411948
18	0x3f247e92	0.6425563
19	0x3e566c38	0.2093972
20	0x3decf973	0.11571016
21	0x3c8b5d40	0.017012239
22	0x3ed89970	0.42304564
23	0x3e818236	0.25294656
24	0x3ed629d9	0.41828802
25	0x3f452a51	0.77017695
26	0x3ce9b9bd	0.02853095
27	0x3f0a5198	0.5403075
28	0x3e8d8972	0.27643925
29	0xbd7d8f82	-0.061904438
30	0xbe75d2e1	-0.24006225
31	0xbdc634c8	-0.09678036
32	0xbda96bbb	-0.08272501
33	0xbe72e670	-0.23720717
34	0xbe0026a9	-0.12514748
35	0x3e37763f	0.17916201
36	0x3de27d37	0.11059039
37	0xbe08e72a	-0.13369432
38	0x3e5244e3	0.2053409
39	0x3ee8cf93	0.45470867
40	0xbd9f243a	-0.077705815
41	0xbbd7a581	-0.006581009
42	0x3f37ceef	0.7180013
43	0xbc00c94d	-0.007860494
44	0x3f03607e	0.5131911
45	0x3e33bad3	0.17551737
46	0x3cfd47dd	0.030918056
47	0x3e09719a	0.13422242
48	0xbdc00f93	-0.093779705
49	0xbcc7d1d0	-0.024392039
50	0x3cf74586	0.030184519
51	0x3e6d2d10	0.23161721
52	0x3e158578	0.14601696
53	0x3d365aeb	0.0445203
54	0x3f2e00a9	0.6796976
55	0xbd8e4c1f	-0.06948113
56	0x3ef6003f	0.48047063
57	0xbd7da27f	-0.061922546
58	0x3e55ab48	0.2086612
59	0x3ccb1801	0.02479172
60	0xbd3fcf8e	-0.0468288
61	0x3e239df6	0.15978226
62	0xbe0a76b6	-0.13521847
63	0xbe0fcf56	-0.14043936

weight f4 [32, 64]
0	0xbcdb524c	-0.02677264
1	0xbd1f0918	-0.03882703
2	0xbd5d5354	-0.054034546
3	0xbd06de54	-0.032926872
4	0xbda30998	-0.07960814
5	0xbe1a222a	-0.15052095
6	0xbde84e12	-0.11343016
7	0xbd868c9e	-0.06569789
8	0x3dcd9d86	0.10039811
9	0xbda8fe34	-0.082516104
10	0xbdde660b	-0.10859307
11	0x3da0bed1	0.07848895
12	0xbd6ee705	-0.058325786
13	0xbe1d575b	-0.15365355
14	0xbced1bb3	-0.028943872
15	0xbd76f88c	-0.060295627
16	0xbd92fc4e	-0.071770296
17	0xbde39f85	-0.1111441
18	0x3d763ca6	0.060116433
19	0x3dcc219c	0.09967348
20	0xbda00761	-0.078139074
21	0xbd9b1bc6	-0.07573657
22	0xbdf26824	-0.118362695
23	0xbdd55714	-0.104169995
24	0xbdeb628e	-0.11493407
25	0xbdcc3b74	-0.09972277
26	0x3d354e44	0.044264093
27	0x3d21f747	0.039542463
28	0xbc68ba0a	-0.014204511
29	0x3d1f7e24	0.038938656
30	0x3c3dda90	0.011587754
31	0xbda7e674	-0.08198252
32	0xbdc22d14	-0.09481254
33	0x3de4bd66	0.111689374
34	0xbc8c9b78	-0.017163977
35	0x3d5efbc1	0.05443931
36	0x3c8e0460	0.01733607
37	0xbda79b10	-0.08183873
38	0xbcd16e58	-0.025565311
39	0xbd499c95	-0.049221594
40	0x3d806430	0.06269109
41	0x3c6d0740	0.014467061
42	0x3d646640	0.055761576
43	0xbd3a4dfc	-0.045484528
44	0xbcb0fe43	-0.021605616
45	0x3a85d500	0.0010210574
46	0xbcf16a60	-0.029469669
47	0xbc7c6530	-0.015404984
48	0x3d77afb4	0.060470298
49	0x3d743658	0.05962214
50	0x3d67c3c4	0.05658318
51	0xbdb8171b	-0.08988782
52	0xbc682bf3	-0.014170635
53	0xbcd3aba0	-0.025838673
54	0x3d9c7820	0.076400995
55	0x3d7e310c	0.062058493
56	0xbc241570	-0.010014877
57	0x3d9ce8de	0.076616034
58	0xb890369a	-6.8766254e-05
59	0x3d228918	0.039681524
60	0xbc485997	-0.012228391
61	0xbd3ebf57	-0.046569195
62	0x3d3e4997	0.0464569
63	0xbdf5d5e4	-0.12003687
64	0x3d6e1b88	0.058131725
65	0x3d9b65a4	0.07587746
66	0xbd337e74	-0.043821767
67	0xbdf306bc	-0.11866519
68	0xbe1c916c	-0.15289849
69	0x3d8f3450	0.069924
70	0x3dba6d35	0.09102861
71	0xbe1237f5	-0.14279158
72	0xbccd07b5	-0.025028089
73	0xbe2e53e2	-0.17024186
74	0xbdd8b70f	-0.10581791
75	0xbdf08256	-0.117436096
76	0xbd54c9e4	-0.05195035
77	0xbd63a510	-0.055577338
78	0xbe1bdf73	-0.15221958
79	0xbda363a5	-0.0797799
80	0xbdf8512f	-0.121248595
81	0xbdd873e6	-0.10568981
82	0xbdce9679	-0.10087294
83	0xbdddc9e3	-0.108295225
84	0x3d911657	0.07084339
85	0x3dadc12a	0.08484109
86	0x3dbc8e37	0.09206813
87	0xbe129cf9	-0.14317693
88	0xbd6fb34e	-0.058520608
89	0xbd2d52dc	-0.04231535
90	0xbbd53397	-0.006506394
91	0xbdcda8c4	-0.10041955
92	0xbe0bb5f5	-0.1364363
93	0x3be95a19	0.007121336
94	0xbe010144	-0.12598139
95	0xbd74430e	-0.05963426
96	0xbcf48170	-0.029846877
97	0x3d8faa8d	0.07014952
98	0xbd1c5f48	-0.038176805
99	0xbdaa0d20	-0.08303285
100	0xbe1bf975	-0.15231879
101	0x3c369dce	0.011146022
102	0x3d9c1c8a	0.07622631
103	0x3d71d4a6	0.059040688
104	0xbc2f1d50	-0.010688141
105	0xbdb81928	-0.08989173
106	0xbd5bd48e	-0.053669505
107	0xbdfdc1e0	-0.12390494
108	0xbb775b39	-0.0037743582
109	0xbcb14ffe	-0.021644589
110	0x3cedd78b	0.029033443
111	0xbcf32b3d	-0.029683704
112	0x3c927660	0.017878711
113	0xbd411237	-0.04713651
114	0x3d302268	0.043001562
115	0x3d19e1e6	0.03756895
116	0xbe1a0436	-0.15040669
117	0xbddb5c76	-0.10710995
118	0x3dabf1e8	0.08395749
119	0x3d332737	0.04373857
120	0xbdad118a	-0.08450611
121	0x3de532ab	0.11191305
122	0x3d4b8299	0.049685095
123	0xbda9df70	-0.082945704
124	0xbd35a476	-0.044346295
125	0xbe138660	-0.14406729
126	0x3c322a55	0.010874351
127	0x3dc456d2	0.09586872
128	0xbcf0444d	-0.029329443
129	0xbcd9f6a4	-0.026606865
130	0x3de87c4c	0.11351833
131	0xbdab9aa1	-0.083791025
132	0xbd6e04b6	-0.05810996
133	0xbe2c00b7	-0.16797148
134	0xbe0225f3	-0.12709789
135	0xbd7c2bc7	-0.061565187
136	0x3d857594	0.06516567
137	0x3dc7d583	0.09757521
138	0xbb0eea92	-0.0021807295
139	0xbd42c40f	-0.047550257
140	0x3ca3debf	0.020003675
141	0x3ca7858b	0.02044942
142	0xbe288e53	-0.16460542
143	0x3d1bda23	0.03804983
144	0x3c3df267	0.011593438
145	0x3d191cf9	0.037381146
146	0xbc8f8137	-0.01751767
147	0xbd68151f	-0.056660768
148	0xbe20cae5	-0.15702398
149	0x3d020646	0.031744264
150	0x3be5ac33	0.007009053
151	0xbe0aaea0	-0.13543177
152	0xbe0f8b73	-0.1401804
153	0xbcc833bd	-0.024438733
154	0x3d5b7092	0.053574152
155	0xbc36ba5e	-0.011152832
156	0x3db40d4b	0.08791598
157	0xbdf2ab55	-0.11849085
158	0xbe46da14	-0.19419128
159	0xbdda9dc4	-0.10674623
160	0xbe0e4bb8	-0.13896072
161	0xbc292f78	-0.010326259
162	0xbda0767f	-0.07835101
163	0xbe363532	-0.1779373
164	0xbd169272	-0.036760755
165	0x3d726465	0.059177775
166	0x3cdb0396	0.026735108
167	0xbd5f2089	-0.054474387
168	0xbdf02b62	-0.117270246
169	0x3be0cab9	0.006860104
170	0xbb288fee	-0.0025720554
171	0xbc7f49e3	-0.015581581
172	0xbc71eb69	-0.014765599
173	0xbdcbd52f	-0.09952771
174	0xbdbad6da	-0.09123011
175	0xbcf7ae39	-0.030234443
176	0xbc3ebf1c	-0.011642244
177	0x3d99010f	0.07470905
178	0xbde45088	-0.111481726
179	0xbcdd639c	-0.027025037
180	0x3d1e9450	0.03871566
181	0xbc16a44f	-0.009194448
182	0x3d00d09f	0.031448957
183	0x3d8d0406	0.06885533
184	0x3da57b16	0.080801174
185	0x3db9cd5e	0.09072374
186	0xbe26a853	-0.16275148
187	0x3d086e80	0.033308506
188	0xbe2ddba1	-0.16978313
189	0xbddb14ae	-0.10697304
190	0xbdbfb2f6	-0.09360306
191	0x3d65b5d9	0.056081627
192	0x3f0aca7a	0.54215205
193	0x3d072b11	0.033000056
194	0xbdd5b9cd	-0.10435829
195	0xbdcf8eea	-0.101346806
196	0x3b068a6b	0.002052928
197	0xbc24a0af	-0.010048076
198	0x3db76cba	0.08956285
199	0x3eb685aa	0.35648853
200	0xbdd0054b	-0.101572596
201	0x3def69c3	0.11690094
202	0x3e12494a	0.1428577
203	0xbd6806b5	-0.05664702
204	0x3c56ef70	0.01311861
205	0x3e4eaf19	0.20183982
206	0x3e9bc8d6	0.30426663
207	0xbbb2082b	-0.0054331026
208	0xbd1c29ba	-0.03812573
209	0xbe26b51b	-0.16280024
210	0x3de8acb0	0.113610625
211	0xbea453d2	-0.320952
212	0x3e9d0a02	0.30671698
213	0xbc7462ec	-0.014916163
214	0x3d8b46e7	0.06800633
215	0xbe328e20	-0.17437029
216	0x3e8ba94e	0.27277607
217	0x3d0993b2	0.03358812
218	0x3d8350fe	0.064119324
219	0x3d70d299	0.05879459
220	0x3ed481e1	0.4150534
221	0x3da70c10	0.081565976
222	0x3e796cc5	0.24357899
223	0x3d8fb556	0.07017009
224	0x3d8d7d08	0.069086134
225	0x3eaf02b6	0.34181756
226	0x3d9fc5e8	0.078014195
227	0x3df8e466	0.121529385
228	0x3eadaaf7	0.33919498
229	0xbd68b882	-0.056816585
230	0xbd126a3b	-0.03574584
231	0x3d0c1037	0.03419515
232	0x3dc69135	0.09695665
233	0xbd306228	-0.04306236
234	0xbdf942fc	-0.121709794
235	0x3d2a7c08	0.04162219
236	0xbd5ffc49	-0.054683957
237	0x3df722fe	0.12067221
238	0x3ad9d251	0.0016618465
239	0x3e334f2a	0.17510667
240	0xbd8259a7	-0.06364756
241	0xbc22997a	-0.009924287
242	0xbd4fc27e	-0.05072259
243	0x3e2f86ff	0.1714134
244	0x3d99a158	0.07501477
245	0xbd5fb0c8	-0.05461195
246	0x3dc54245	0.096317805
247	0x3e497512	0.19673565
248	0x3d842d1d	0.06453917
249	0x3d926a95	0.07149235
250	0x3e06db71	0.13169648
251	0xbcce29ca	-0.025166411
252	0xbe1019f0	-0.14072394
253	0xbe2ade38	-0.16686332
254	0xbe606986	-0.21915254
255	0xbceb7ada	-0.028745104

bias f4 [32]
0	0xbe0ad1e2	-0.13556626
1	0x3c12fba7	0.008971131
2	0xbd51fb2a	-0.05126492
3	0x3e016ea4	0.12639862
4	0x3d517f55	0.051146824
5	0x3e2769f5	0.16349013
6	0x3f5c33f5	0.8601678
7	0x3f0520ea	0.5200335
8	0xbccd4eba	-0.025061954
9	0xbdf6f043	-0.12057545
10	0x3ebadba7	0.36495706
11	0x3edad11d	0.42737666
12	0xbe0b3618	-0.13594854
13	0xbd81db20	-0.06340623
14	0x3d9e72a4	0.0773671
15	0x3d119daa	0.03555075
16	0xbe3e1d26	-0.18565807
17	0x3e466307	0.19373713
18	0x3d8c5d94	0.06853786
19	0x3e82b885	0.25531402
20	0x3ee3ca66	0.44490355
21	0xbd941187	-0.072299056
22	0x3c0aada3	0.00846425
23	0x3e16b1fc	0.14716333
24	0xbdcfb171	-0.10141266
25	0x3f12a124	0.5727713
26	0x3ec8c74f	0.3921456
27	0xbe212311	-0.15736033
28	0x3d1c0aea	0.038096346
29	0xbd8aa7df	-0.067703
30	0x3d8986ec	0.067151874
31	0xbe2e357c	-0.1701259

weight f4 [8, 32]
0	0x3d291805	0.041282672
1	0x3db29a79	0.087208696
2	0x3ba9c75b	0.0051812357
3	0x3e75cb02	0.24003223
4	0x3e297316	0.16547808
5	0x3dd760e8	0.1051653
6	0x3e8cc757	0.27495834
7	0x3c3f771e	0.011686115
8	0xbd7f59c1	-0.062341455
9	0xbd75d58e	-0.060018115
10	0xbb986bc4	-0.0046515185
11	0x3e4be810	0.19912744
12	0x3bb8cc67	0.005639601
13	0xbd7aad0f	-0.061200198
14	0xbba58229	-0.0050509167
15	0xbd4253d9	-0.047443245
16	0xbd5668e7	-0.052346136
17	0xbe35b290	-0.17743897
18	0x3de4ea3c	0.11177489
19	0xbd5fe3ab	-0.05466048
20	0x3db695a6	0.08915262
21	0x3e25aca2	0.16179135
22	0xbcd7d0be	-0.026344653
23	0xbda3f14f	-0.0800501
24	0x3d5d1cd1	0.05398256
25	0x3e94a6a0	0.29033375
26	0xbcfc8f3e	-0.030830022
27	0xbe0f52f9	-0.13996495
28	0x3dcfa2ca	0.101384714
29	0xbdc253b2	-0.0948862
30	0xbd13e5fd	-0.036108006
31	0x3c702b7f	0.014658808
32	0x3dcc6713	0.09980597
33	0x3d7ba00d	0.061431933
34	0xbd01c828	-0.031685024
35	0x3e1f82e8	0.1557728
36	0x3d3ebccf	0.04656678
37	0x3c2e483f	0.010637342
38	0x3e68f6b7	0.22750364
39	0x3e558f26	0.20855388
40	0x3d55fd9c	0.052243814
41	0xbdd7eee3	-0.10543611
42	0x3e4cb0e5	0.19989355
43	0x3d1158fe	0.03548526
44	0x3e92958b	0.28629717
45	0xbcd4b2ca	-0.02596416
46	0x3ea3865d	0.3193845
47	0x3df05c1c	0.117363185
48	0xbc9bc4e1	-0.019014778
49	0x3e527e95	0.205561
50	0xbe7ebb79	-0.24876203
51	0xbd82ecb6	-0.06392805
52	0x3e1dfd1e	0.15428588
53	0xbda42d03	-0.08016398
54	0xbb37264a	-0.0027946406
55	0x3d11050c	0.035405204
56	0x3e001afb	0.12510292
57	0x3e254004	0.16137701
58	0xbd9bf663	-0.07615354
59	0xbdd40e53	-0.10354295
60	0x3e835124	0.25647843
61	0x3dbf3730	0.09336698
62	0xbd2cfea3	-0.042235028
63	0x3d489c8f	0.04897743
64	0x3e197d3a	0.14989176
65	0xbdf8f274	-0.12155619
66	0xbdc4f6c2	-0.09617378
67	0xbe98f21f	-0.29872224
68	0x3d9ca2cc	0.076482385
69	0x3e5a68a1	0.21328975
70	0x3e88d714	0.26726592
71	0x3e912689	0.28349712
72	0xbd8cc812	-0.06874098
73	0x3d7fb771	0.062430803
74	0x3e5ec0e0	0.21753263
75	0x3d9e238b	0.07721623
76	0xbcf0eb71	-0.029409142
77	0xbe0f1235	-0.13971789
78	0xbd384891	-0.04499108
79	0xbc8a21b4	-0.016861774
80	0x3b6eeadd	0.0036455907
81	0x3e2b9d2a	0.16759172
82	0x3e3785b1	0.17922093
83	0xbd12ef90	-0.035872996
84	0x3dbd2b7e	0.09236811
85	0xbe1ec47d	-0.15504642
86	0xbc5d433a	-0.013504798
87	0xbcb5b312	-0.022180114
88	0x3e13b250	0.1442349
89	0x3de7ff31	0.11327971
90	0x3e60d090	0.2195456
91	0xbd1272b4	-0.03575392
92	0x3e088bd6	0.13334593
93	0xbd4a97c3	-0.049461138
94	0x3d45903c	0.048233256
95	0x3aa394e4	0.0012480286
96	0xbe131a10	-0.14365411
97	0x3d096503	0.033543598
98	0xbdbbe4fd	-0.091745354
99	0x3e080657	0.13283668
100	0xbe123479	-0.14277829
101	0x3e517c11	0.20457484
102	0x3d901e10	0.07036984
103	0x3e927d68	0.28611302
104	0x3d990739	0.07472081
105	0xbe4e7d6d	-0.20165034
106	0x3ce52317	0.027970834
107	0xbcc07481	-0.023493053
108	0xbe414b37	-0.18876348
109	0x3d332193	0.04373319
110	0x3d42cfaa	0.047561325
111	0x3cabea43	0.020985728
112	0x3d32a40c	0.04361348
113	0xbd3e08c1	-0.046395067
114	0xbd937773	-0.072005175
115	0x3ec1e6e7	0.37871477
116	0x3e986c75	0.29770246
117	0x3db71dbc	0.08941218
118	0xbd9a2e2e	-0.07528339
119	0xbd160a0b	-0.03663067
120	0xbd7737be	-0.060355894
121	0x3e73bf07	0.2380334
122	0x3e5f7637	0.21822439
123	0xbcde8557	-0.02716319
124	0x3d79bf40	0.060973406
125	0x3e007b51	0.12547041
126	0xbd2f441a	-0.042789556
127	0xbe7ab8bb	-0.24484532
128	0x3d809156	0.06277721
129	0x3d6569c5	0.056009073
130	0xbb076395	-0.002065872
131	0x3e03d6df	0.12874936
132	0xbdc04a97	-0.09389227
133	0xbdd5390b	-0.10411271
134	0x3e6a997e	0.22910115
135	0x3e021883	0.12704663
136	0xbe17ee4f	-0.14837001
137	0x3ddf427d	0.109013535
138	0x3e5462e9	0.20740856
139	0x3e3fa8c9	0.1871673
140	0xbde711d2	-0.11282696
141	0xbe1481c0	-0.1450262
142	0x3eb0a798	0.34502864
143	0x3dea416e	0.11438261
144	0xbd0324b9	-0.032017443
145	0xbd09e6f0	-0.033667505
146	0x3c715330	0.014729306
147	0xbc384728	-0.011247434
148	0x3d625c78	0.055263966
149	0x3d2d85d1	0.042363945
150	0x3db34640	0.087536335
151	0x3e4642f6	0.19361481
152	0xbd886fd3	-0.06661954
153	0x3d311b4b	0.04323892
154	0x3e6bc2e5	0.23023565
155	0xbc08d0c0	-0.008350551
156	0xbe8a87e3	-0.27056798
157	0xbe20c1a4	-0.15698868
158	0xbc29504c	-0.010334086
159	0x3dff6d9a	0.12472077
160	0xbdf76ef5	-0.1208171
161	0x3da16043	0.078796886
162	0x3d635f83	0.05551101
163	0x3de66406	0.11249547
164	0xbe40aff6	-0.18817124
165	0xbdb93e1d	-0.0904505
166	0xbe83b089	-0.25720623
167	0x3e3f5eda	0.18688527
168	0x3b8106ba	0.0039375694
169	0x3df0e74a	0.11762865
170	0xbdd8b110	-0.10580647
171	0xbd6f00aa	-0.058350243
172	0xbe40f420	-0.18843126
173	0x3e01a8c3	0.12662034
174	0x3c6d7104	0.014492277
175	0x3dcbee6f	0.09957587
176	0x3dc98706	0.09840207
177	0xbe25addc	-0.16179603
178	0x3dbd08cb	0.09230193
179	0xbe568caf	-0.20952104
180	0x3e01a5f0	0.12660956
181	0xbe17ac95	-0.14811929
182	0xbe300145	-0.17187984
183	0xbe548f30	-0.20757747
184	0xbdce3ac2	-0.10069801
185	0xbd4e13a4	-0.0503117
186	0x3d82738b	0.06369694
187	0x3e13b8dc	0.14425987
188	0x3d4f6135	0.050629813
189	0x3be4e42c	0.006985208
190	0xbd4e6fe1	-0.050399665
191	0x3e4360cf	0.19079898
192	0xbb1bd5e7	-0.0023778619
193	0xbdf3455b	-0.11878463
194	0x3da67b75	0.08129016
195	0xbde2114c	-0.11038455
196	0xbdfbe70e	-0.122999296
197	0xbe427427	-0.18989621
198	0x3dd4a812	0.10383619
199	0xbe04f81b	-0.1298527
200	0x3d92f3dc	0.07175419
201	0xbbfe2211	-0.007755526
202	0x3cdf7c52	0.02728096
203	0xbd9242e8	-0.071416676
204	0x3da6f7da	0.08152743
205	0xbe2494e3	-0.16072421
206	0xbdefdb33	-0.11711731
207	0xbd1db4d0	-0.038502514
208	0x3cd33aaa	0.02578481
209	0xbe13c67b	-0.14431183
210	0x3c481485	0.0122119235
211	0xbd07e076	-0.033173047
212	0xbd0b5655	-0.03401788
213	0xbc4e6a00	-0.012598515
214	0x3d6ec342	0.05829168
215	0xbde7238a	-0.112860754
216	0xbdf6e720	-0.12055802
217	0xbe30ab62	-0.17252877
218	0xbdd570f8	-0.10421938
219	0xbe04d814	-0.12973052
220	0xbcb6dd95	-0.022322455
221	0xbdb50c30	-0.08840215
222	0xbe2d538a	-0.16926399
223	0xbd8086a1	-0.062756784
224	0x3da193bf	0.078895085
225	0x3e224beb	0.15849273
226	0x3cf59fe7	0.029983474
227	0x3d600bbe	0.0546987
228	0xbd9a411c	-0.0753195
229	0xbdc8efbb	-0.0981135
230	0xbbdc96e9	-0.006731857
231	0xbe3f51aa	-0.18683496
232	0xbd682e76	-0.056684934
233	0xbd378f15	-0.044814188
234	0xbdc11917	-0.09428614
235	0xbe12c920	-0.14334536
236	0xbdd69a8a	-0.10478695
237	0xbc7f9fd1	-0.015602068
238	0xbde4c23e	-0.11169861
239	0xbd9de8f3	-0.07710447
240	0xbd42083d	-0.047371138
241	0x3d871267	0.06595307
242	0xbd2a9bda	-0.041652538
243	0xbd82ec52	-0.06392731
244	0x3d27941e	0.04091274
245	0xbaec3168	-0.0018020095
246	0xbcf2cd4c	-0.029638909
247	0xbe0da171	-0.13831116
248	0xbd905b33	-0.07048645
249	0xbdfba104	-0.12286571
250	0xbbc5368c	-0.0060184654
251	0x3dae62d8	0.08514947
252	0xbd13e181	-0.03610373
253	0xbe0653b3	-0.13117866
254	0x3e23754f	0.15962718
255	0x3e1ffd29	0.15623917

bias f4 [8]
0	0x3e5a432b	0.21314685
1	0x3db7d2ad	0.0897573
2	0x3eda2c93	0.42612132
3	0x3e8cee51	0.2752557
4	0xbe4c418b	-0.19946878
5	0x3c6c9eb7	0.014442137
6	0xbe03000e	-0.1279299
7	0x3d86b983	0.06578352
