AE Models/8lat1.562loss.pth (torch, 117186 bytes, 27 tensors)

weight f4 [16, 1, 4]
000000 42 bf 05 3e 75 ce cd bd bd ba a0 3c c8 22 9c 3d
       0.1306124 -0.10049144 0.019620294 0.076238215
000010 95 f5 5c 3e 9f d9 ce bd 15 7b ea bb c4 ad 5b be
       0.21578057 -0.10100102 -0.007155786 -0.21453005
000020 1d 38 9e 3d 20 24 4d 3d c3 d1 37 3d 95 76 44 3c
       0.077255465 0.05008328 0.04487778 0.011991163
000030 80 fc 10 bd 43 7c d8 bc e5 c7 15 bd 05 e8 69 bd
       -0.035397053 -0.02642644 -0.036567587 -0.057106037
000040 fd 5f e2 3d 29 18 dd bd bb 28 5f 3b 2b 80 cb bc
       0.110534646 -0.10795624 0.0034051377 -0.024841389
000050 93 f1 b7 3c 5a 2d d2 3d bd b1 10 be 6a 83 36 bc
       0.022454059 0.102625564 -0.14130302 -0.01113973
000060 0f 9e a5 3d d0 8b 13 be 81 5c 1d be 0a 8d 77 3d
       0.08086788 -0.14408803 -0.15367319 0.06043724
000070 34 8a 2c bd 43 6b c6 3c fc 1d e8 3d 8a a5 de bd
       -0.04212399 0.024221068 0.11333844 -0.10871418
000080 e6 75 64 bd 38 b3 52 bc 13 9f c2 bc bd fd 11 3b
       -0.0557765 -0.012860112 -0.023757493 0.0022276484
000090 aa 91 a8 bd af e5 12 bc 60 08 57 bd d4 ee 04 bd
       -0.08230908 -0.008965894 -0.05249822 -0.032454327
0000a0 f7 ae 08 3e ae 4a a5 3c bf d7 3f bd 5e 54 ea bd
       0.13347994 0.020177212 -0.04683661 -0.11441873
0000b0 0b 0d 05 be da 6d 0f 3d 6d 8b d9 bc 93 3b df 3d
       -0.12993257 0.035016872 -0.026555741 0.10900035
0000c0 a0 27 c9 bb b4 f5 d6 3d c6 2e c5 3d ea c3 af 3d
       -0.006138757 0.10496083 0.09628062 0.085822895
0000d0 37 10 d5 be be 11 a5 be 26 9b 5a 3e 56 88 8a be
       -0.41613933 -0.322401 0.21348247 -0.2705714
0000e0 7a f2 a9 be b5 81 8a bd 89 5e 08 be 8c d5 59 3e
       -0.33192807 -0.06763021 -0.13317312 0.21272868
0000f0 37 35 76 3d 04 17 5f bd 3d 05 b6 bd b5 67 79 3d
       0.060109343 -0.05446531 -0.08887718 0.06088992

bias f4 [16]
000000 10 0e 30 bf c5 9d c7 bf 1d b8 4c bc a8 fa 4c 3f
       -0.6877146 -1.5595022 -0.012495068 0.8006997
000010 3f 75 71 3e 25 1b 18 be e3 f3 95 3e 2e 2d e5 3d
       0.23579882 -0.14854105 0.29287633 0.11190258
000020 b0 da 52 3f 73 a3 e8 3e 1a 9c d7 3c 91 07 48 3e
       0.8236494 0.45437202 0.026319552 0.19534136
000030 2f 7d 90 bc cd c2 eb 3e f4 cb 01 bf 18 d7 74 3e
       -0.017637817 0.4604706 -0.5070183 0.23910177

weight f4 [16, 16, 4]
000000 85 c3 e8 bd 41 4f 9b 3c 56 5c fb bd 35 0b 66 bd
       -0.113654174 0.01895869 -0.12273471 -0.05616303
000010 a0 af 18 be d4 45 68 3c 1e 89 30 bd f5 b3 b3 3b
       -0.14910746 0.014176805 -0.043099515 0.005484099
000020 4f fe cc bd 8e 4d 84 bd 4b 6f b7 bd 15 da bd bc
       -0.10009443 -0.06460105 -0.08956774 -0.023175279
000030 47 40 61 bd 4b 89 a4 bd cc 3a 65 bc 7b 89 e5 bc
       -0.05499294 -0.08033999 -0.013991069 -0.028019657
000040 f2 35 bf b8 ce 10 05 be 07 24 2a bd 0f ea 60 3d
       -9.117638e-05 -0.12994692 -0.041538265 0.054910716
000050 df 30 b9 bd 47 4b 80 bd 4a cb 1a bc 3f 54 80 bd
       -0.090425245 -0.06264358 -0.009447882 -0.06266069
000060 0e d7 63 3a 41 2c 0d 3d 9a c5 25 be d3 1b 0f be
       0.00086914084 0.034466032 -0.1618866 -0.13975458
000070 08 de be bd 3b 34 ab bd b6 29 47 3d 1f 60 f7 bd
       -0.09319693 -0.083595715 0.048623763 -0.120788805
000080 8f 50 dd bd 71 c6 c6 3d b3 82 b6 bd 2c 22 1e be
       -0.10806381 0.097058184 -0.08911648 -0.15442723
000090 69 c1 ea bd e6 a1 43 bd e9 08 d0 bd 2c 06 0c bc
       -0.11462671 -0.04776182 -0.101579495 -0.008546393
0000a0 30 53 d4 3c c7 1a 1f 3d 69 54 c4 bd 27 5a 28 3d
       0.025918573 0.038843896 -0.095864125 0.0411016
0000b0 8f 12 d7 bd 98 80 bf 3d ab 0f bb bd 8c 96 ff bb
       -0.10501587 0.09350699 -0.09133848 -0.007799929
0000c0 64 62 85 3d 1b 9b f0 bd 9c bd 17 be e9 19 19 3c
       0.06512907 -0.11748334 -0.14818424 0.009344556
0000d0 56 41 9b bd 16 27 0a bd 64 9a fa bc 0c 07 c2 3d
       -0.07580821 -0.03372868 -0.030591197 0.09474
0000e0 cb f9 72 bd 0c 67 33 bc 81 52 1f bd b0 3d 51 bc
       -0.059320252 -0.010949861 -0.03889704 -0.012771055
0000f0 4f 19 d7 bd fd 0f 12 be ec 1f 15 be e4 96 c2 bc
       -0.10502874 -0.14263912 -0.14562958 -0.02375359
000100 cd 2e 0c 3d 03 57 1b 3e c9 bc 1b 3d e6 d6 ea 3a
       0.03422432 0.15169911 0.038021836 0.0017916828
000110 b2 28 02 be 96 08 5c be f1 db f7 bd e7 b3 b5 3d
       -0.12710837 -0.2148765 -0.12102497 0.08872204
000120 72 44 67 3e d0 95 c2 3d 8f d3 69 3a c4 c4 f4 3d
       0.22584704 0.09501231 0.00089197693 0.119515926
000130 c3 9f bb bc ad f2 a1 bd bb 13 06 bd e5 11 30 3d
       -0.022903329 -0.07907615 -0.03273366 0.042985816
000140 bb 4a ac 3d b7 39 cb bb d1 51 bd 3d 83 90 3f bd
       0.08412691 -0.0062019485 0.09244121 -0.046768676
000150 7e 4b 91 bd 60 ea 61 bd be 1b c1 bc 56 51 d0 3d
       -0.07094477 -0.055155158 -0.023572799 0.101717636
000160 bd 66 f8 3a d9 a4 2c 3e 11 10 bc 3c 36 13 d9 ba
       0.0018951517 0.1685976 0.02295688 -0.0016561511
000170 41 fe b5 bd 91 1e ca bd b1 d3 74 3c fb 77 c2 bd
       -0.08886386 -0.09869111 0.014943049 -0.09495541
000180 25 4f 23 be 4a f0 e0 bb ad a2 34 3e 5e 56 6f bc
       -0.1594816 -0.006864582 0.17640181 -0.014607994
000190 06 88 0a 3b 12 db 77 3d 74 69 5d 3d d9 bc e4 3d
       0.0021138205 0.060511656 0.054055646 0.11168832
0001a0 4a 3d 81 bd fb 96 7b bd de 75 0b bd e4 bc 86 bd
       -0.06310518 -0.061423283 -0.034047954 -0.06578997
0001b0 cc 0a 2d bd 0e b7 19 be 7a 78 6b bd 27 85 51 bd
       -0.042246625 -0.15011236 -0.057487942 -0.051152375
0001c0 90 e6 b2 bd b6 d5 e4 3d c2 5e f9 3c 8e ce 3e 3e
       -0.087353826 0.111735746 0.030440692 0.18633482
0001d0 b0 cc f1 bc 52 9c 2e bd 02 32 a4 bd 5d 51 54 bd
       -0.029516548 -0.042629547 -0.08017351 -0.051835407
0001e0 86 43 d3 bd 22 d3 bb bd f6 5d b3 bd ef 0e 3e bd
       -0.103156134 -0.0917113 -0.08758156 -0.04640096
0001f0 0f 6e e1 3d 5f 85 d8 bd b3 53 42 3d 24 77 0b 3e
       0.1100732 -0.105723135 0.047443103 0.13619667
000200 33 45 1f bf 63 18 8b be e5 70 62 be 29 91 aa be
       -0.62214965 -0.27167043 -0.22113378 -0.33313873
000210 a4 cf 42 be dd 78 bf be 6c e3 ee 3d fd cb 89 be
       -0.19024521 -0.373969 0.11664471 -0.26913443
000220 f4 29 44 3b 90 d1 07 be 02 e0 5d bd 75 86 16 be
       0.0029932233 -0.13263535 -0.05416871 -0.14699729
000230 b9 0e 1d 3e 69 23 bc be 13 b1 3a be 30 86 c4 3d
       0.15337647 -0.36745766 -0.18231611 0.09595907
000240 eb 64 06 bf f4 82 8b be 5f 97 66 3c 6d 59 ca 3e
       -0.5249774 -0.27248347 0.014074176 0.3952135
000250 5c df 02 3f 33 0d 96 bd 1d 8b 15 3d 30 df 8f 3e
       0.5112207 -0.07326736 0.036509622 0.28099966
000260 56 b8 bc 3e ec 4e 43 3e 98 76 5b 3e 3f 24 57 3d
       0.36859387 0.19073075 0.21431959 0.0525248
000270 35 0d 5a 3e ea 3b 34 be e6 9a 66 be 0c df 62 3d
       0.212941 -0.1760098 -0.22520027 0.055388495
000280 11 51 ee 3e a6 99 e5 3c a7 c6 ee 3c 6b c1 c4 3d
       0.46546224 0.028027367 0.02914746 0.09607204
000290 12 37 40 3e f9 96 e6 3d b1 e8 24 3c 24 b2 e1 3d
       0.18771008 0.112592645 0.010065244 0.11020306
0002a0 78 df 45 be a6 1d c1 bd 11 01 10 be 2a 94 87 3b
       -0.19323528 -0.09429483 -0.14062907 0.0041375356
0002b0 6f 19 33 3e 37 9d a3 3d b0 03 99 3d 17 16 05 bf
       0.17490171 0.07988971 0.074714065 -0.5198683
0002c0 a2 ba 71 3d 2a 36 6d bd df 02 be bd a3 8c 4b be
       0.059015878 -0.057912983 -0.09277891 -0.19877867
0002d0 fe a7 b5 3e 7e f7 e1 3d 37 c3 ce bd 39 e7 67 3d
       0.3547973 0.110335335 -0.10095828 0.056616995
0002e0 62 31 6e 3e d3 35 2b 3e 85 73 4b 3e a9 7e 13 c0
       0.23261026 0.16719751 0.19868286 -2.3046057
0002f0 18 0c 61 be 74 c7 69 3c 20 4f 0f 3e 5c 7c 2f be
       -0.2197727 0.014268745 0.13995028 -0.17137283
000300 fb 5d 0e be e9 43 1a bc 49 cc d3 3c b5 09 c8 bd
       -0.13903038 -0.009415605 0.025854247 -0.097674765
000310 d0 70 14 3c 39 c1 d2 be 73 c3 c4 3d 34 91 21 3d
       0.0090601 -0.41163042 0.096075915 0.039445117
000320 24 06 59 bd f0 e9 9c 3d 5e c8 56 bd c8 a9 06 3d
       -0.05298437 0.076618075 -0.05243718 0.03287676
000330 e4 96 6a bd 82 e1 57 be 64 6f a2 bd 40 d7 83 be
       -0.057272807 -0.21082118 -0.07931402 -0.2575016
000340 a1 4e 1d 3b 82 ff 3f be c8 b0 a2 3d 06 3f 56 3d
       0.0024003165 -0.18749812 0.079438746 0.052306198
000350 6a 44 00 3d 17 d5 9f be 92 60 f5 bd 49 96 65 be
       0.031315245 -0.31217262 -0.1198131 -0.2242061
000360 aa 47 86 3e 6b ed c9 3d cc d1 10 3e a5 ee 8f bc
       0.2622655 0.09859737 0.14142531 -0.01756985
000370 96 e6 0e 3e 9e a2 06 be 00 ac 77 3d 3a f4 52 bd
       0.13955149 -0.13147971 0.060466766 -0.051502444
000380 50 94 43 3e 17 25 01 3e 23 5c 0b 3e b8 36 31 be
       0.19099545 0.12611805 0.13609366 -0.1730603
000390 2d 45 c9 3d 1d 3e 9a be 28 8c 81 3e af b6 2c 3f
       0.09827647 -0.30125514 0.25302243 0.67466253
0003a0 91 3f e3 bd be 1b 91 bd c5 0e 11 3c f5 91 0a 3d
       -0.11096109 -0.070853695 0.008853619 0.0338306
0003b0 83 68 3b be 3b 60 a8 bd ea de d7 bd 0d c5 3e 3e
       -0.18301587 -0.082214795 -0.10540564 0.18629856
0003c0 3d 39 21 3e ee 3e 3a be 15 b2 27 3e 7b d1 f5 3d
       0.15744491 -0.18188068 0.16376527 0.12002846
0003d0 59 d2 c1 3e e3 8e 84 3d 1a 57 40 bd b8 c5 d7 3d
       0.37855795 0.06472566 -0.046958067 0.10535759
0003e0 59 87 49 3e 99 6a da 3d ec 5d 2f 3c d4 d6 09 3d
       0.19680537 0.10664863 0.010703545 0.03365214
0003f0 df 4a aa bc 06 26 5d bd 8f 1d 15 be c5 e3 d9 3d
       -0.020787654 -0.05399134 -0.14562057 0.10639147

bias f4 [16]
000000 07 1c 64 bd 5d 87 1a 3d ec ae cb 3e 35 1b 0a be
       -0.05569079 0.03772675 0.39781892 -0.13486941
000010 29 2c 8c be d4 5f 0e bf fa 94 c1 bd f1 58 d1 3d
       -0.27377442 -0.5561497 -0.09452243 0.10222042
000020 e3 e6 bc 3d af c4 6b 3e 99 5c a4 be d3 54 46 be
       0.09223726 0.23024248 -0.32101896 -0.19368295
000030 e5 e1 0c 3f 8c fc 89 be 3a 03 dc 3d 7f cd dd be
       0.5503219 -0.2695049 0.10742803 -0.43320844

weight f4 [16, 16, 5]
000000 6e a2 d0 bd 19 69 9e 3c 48 1a 78 bc 65 d7 59 3d
       -0.10187231 0.019337224 -0.015142985 0.05318393
000010 f9 7f d4 bd 9c cb aa 3c 9f 84 1b 3e df 01 2d 3d
       -0.10375971 0.020849042 0.1518731 0.042238113
000020 3f 9e 2c be a1 44 1f be e8 b2 13 bf 28 7b 92 bf
       -0.16857241 -0.15553524 -0.57694864 -1.1443834
000030 8b 75 b2 be 34 6f 2b 3e fa d2 59 3e 82 84 3a 3e
       -0.34855303 0.1674164 0.21271887 0.1821461
000040 c0 31 6f 3e c6 22 3d bc ab 45 72 3d 01 2f 51 bd
       0.23358822 -0.011543935 0.05914847 -0.051070217
000050 59 da 31 3d 1e 5e 47 3e a9 cd 93 3e cf 44 e6 3d
       0.043421123 0.19469497 0.28867844 0.11243593
000060 f2 60 8f be ad 58 9c be 5b 9b 5e 3c 75 47 33 3e
       -0.2800365 -0.30536404 0.013586844 0.17507727
000070 30 54 a1 3d 1f 93 ab ba 0e a3 be bd 41 e3 5d 3e
       0.078773856 -0.001309011 -0.09308444 0.21668722
000080 bd 84 41 3d 28 21 5b bd 67 89 c3 bd 74 2d de bc
       0.04724573 -0.053498417 -0.09547692 -0.027121283
000090 cc 75 f0 bc e0 f0 ac bd 4a 9b 6a be dd e7 66 be
       -0.029353045 -0.08444381 -0.229108 -0.22549386
0000a0 dc 34 8e 3d ba d6 81 3d 5a 72 8b 3e 83 12 d1 bd
       0.06943676 0.06339784 0.2723568 -0.10208609
0000b0 b3 37 50 bd 85 79 ef 3d f6 f6 a1 bd b5 d8 f6 3d
       -0.05083437 0.116931 -0.07908432 0.12053052
0000c0 4c 11 10 3e f2 48 4c 3e a0 63 81 3d 82 2d 9d bd
       0.14069098 0.19949701 0.0631783 -0.076746956
0000d0 33 46 f9 3d a8 9f 7b bd 73 1c 61 3e 74 20 86 be
       0.121715926 -0.061431557 0.21983509 -0.26196635
0000e0 9d 9e 18 be 73 dd ba bd ac 86 44 be 25 14 68 3d
       -0.14904256 -0.09124269 -0.19191998 0.056659836
0000f0 a4 7d c7 3d 53 2e 31 3e 7c 34 25 3d 7e ea 83 bc
       0.09740761 0.17302828 0.040333256 -0.016103026
000100 8c cf 8e bd 43 50 86 bd f5 df de bd fc 98 b8 bc
       -0.0697318 -0.065582775 -0.1088256 -0.022533886
000110 ad 71 fa bd bb 9e 3d 3e a3 b8 e3 3d 12 37 a9 3d
       -0.12228713 0.18517582 0.11119201 0.08262457
000120 ad e0 91 3d d4 12 6a be 3c 8c 6b be e6 90 bf bd
       0.07122932 -0.22858745 -0.23002714 -0.09353809
000130 2b 7b db 3d 3d 53 8a bd 65 80 15 bc 35 9d 01 3d
       0.10716852 -0.06754158 -0.00912485 0.031644065
000140 3c e2 2d bd ca 13 15 3b 8b 54 54 3d bb 91 5b bd
       -0.042452082 0.002274739 0.05183844 -0.053605776
000150 13 87 8f 3c 9d d0 ba 3b 0b 69 3e 3b e7 b0 4a bd
       0.017520463 0.005701138 0.002905431 -0.049485113
000160 59 d2 7d 3d ab 51 8f 3d a1 2a 54 bd f7 f5 6c 3d
       0.06196818 0.06997999 -0.051798467 0.057851758
000170 0c 84 a1 3d 79 de 87 3e 63 94 3f 3e b6 93 10 be
       0.07886514 0.2653692 0.18708949 -0.14118847
000180 9f 97 a3 bd 5a a7 f1 3d c8 53 e2 3d 60 6a ef 3d
       -0.07987904 0.11799498 0.11051136 0.11690211
000190 52 38 87 3d dc f4 1c bd 50 76 16 3d db 20 f0 bc
       0.06602539 -0.038319454 0.036733925 -0.029312542
0001a0 2b ce fb 3d 44 52 d1 bc b4 45 f4 bd 61 fc 75 be
       0.12295183 -0.025551923 -0.11927357 -0.24022056
0001b0 82 5f 79 3d c6 e4 a8 bc 01 b3 88 3e 26 87 2b 3e
       0.0608821 -0.0206169 0.2669907 0.16750774
0001c0 34 2a f2 3d da 46 c9 bc ab f4 11 3e 9f 15 44 3e
       0.11824456 -0.024569917 0.1425349 0.19148873
0001d0 e6 81 3a 3e 6f d2 4f bb 0f ee 87 3d e4 51 64 3d
       0.18213615 -0.0031711122 0.06637203 0.05574216
0001e0 a9 e0 73 be f8 61 ab bd ec e4 f7 bd a1 51 2f be
       -0.2381617 -0.083682954 -0.1210421 -0.17120983
0001f0 3c 3b 04 bd 59 d9 83 3d fd 46 01 3e 3e b1 89 bd
       -0.032283053 0.0643794 0.12624736 -0.067232594
000200 e4 fa e0 bd 8a 8f 16 be be 76 07 be e1 b1 56 3e
       -0.109853536 -0.14703193 -0.1322889 0.20966293
000210 67 ae 8f 3b f8 f7 17 bc 9a 2a d6 3d 0e ed c0 3d
       0.004384804 -0.009275429 0.10457344 0.094202146
000220 a5 fe d8 bd b0 ba 9a bd fe 4c 6d bc b8 1c 4f bd
       -0.105954446 -0.07555139 -0.014483688 -0.050564498
000230 d2 cb 62 3d bd f3 71 3d d5 5d 1d bd 84 6f 32 3d
       0.05537016 0.059070338 -0.038419563 0.04356338
000240 c4 9b 51 3e 15 87 4c 3e c7 45 b9 bc 52 a4 3f bd
       0.20469576 0.19973405 -0.02261628 -0.046787567
000250 5c 1b b7 bd 5f fb 95 bb 32 b4 f7 bd 74 fb 97 be
       -0.08940765 -0.004577085 -0.120949164 -0.2968403
000260 fa c9 ec be 85 6c 42 be d7 77 e6 bc 04 4d 86 bd
       -0.46247846 -0.1898671 -0.028133316 -0.06557658
000270 2a 24 de 3d af 0a 74 3d 42 48 a7 bd 84 b0 bd 3d
       0.108467415 0.0595805 -0.08168079 0.09262183
000280 e8 9f d1 3c 4c 9e c9 bc 68 90 29 bd 93 75 1d 3d
       0.025588945 -0.024611615 -0.041397482 0.038442206
000290 04 e5 a9 bd a1 de 10 3e e3 42 17 be 73 04 aa bc
       -0.082956344 0.14147426 -0.14771609 -0.020754075
0002a0 ff 50 cd bd ea 3f 39 3e d0 cb 33 bc c6 cc 6b bd
       -0.100252144 0.18090788 -0.010973886 -0.057568334
0002b0 5f 6e 04 3d 4c 0b 28 3c 8a 64 20 3e a6 05 85 3d
       0.03233182 0.0102566 0.15663353 0.06495218
0002c0 93 22 00 3e ae 15 40 3e fb 2e 65 bb 75 9b 14 3e
       0.12513189 0.1875827 -0.003497063 0.14512427
0002d0 b3 3d a7 bd e3 f9 2a be db d7 94 3d 70 6b 41 3d
       -0.08166065 -0.16696887 0.07267734 0.0472216
0002e0 42 92 d6 3c c5 c3 98 bd 35 28 69 be 50 4d 1c be
       0.026192788 -0.07459215 -0.22769244 -0.15263867
0002f0 df 85 e4 3d b3 97 3a 3e aa 6e 26 3d a8 4d 09 3e
       0.111583464 0.18221931 0.04063288 0.1340853
000300 cd cc b8 3d 9e ed 17 bd 92 04 09 bd 95 dc 3a 3e
       0.09023438 -0.037091844 -0.033451624 0.18248208
000310 7f 2a 16 bc f3 99 4c bd 0a 08 b1 3c 58 dc fc 3d
       -0.009165405 -0.049951505 0.021610279 0.12346715
000320 4e f1 88 bc 14 6d 03 bc 2b 69 0b 3e 61 dc 84 bc
       -0.016716626 -0.008021612 0.13614337 -0.016218366
000330 cb 90 38 be 03 bc 36 be 0d 79 4e bc 46 15 b0 bd
       -0.18023984 -0.17845158 -0.012602103 -0.085978076
000340 48 90 9a be 97 8a 92 be 72 23 28 3e 3b 1b 5c bd
       -0.30188203 -0.2862136 0.16419771 -0.053736906
000350 33 5b 58 be 73 69 66 3d 74 05 0a 3e 63 12 52 be
       -0.2112854 0.056252908 0.13478643 -0.20514826
000360 86 99 e6 bd 1a 94 b6 bd d0 d1 d3 bd 0d 75 ae bd
       -0.11259751 -0.08914967 -0.10342753 -0.085184194
000370 f1 77 52 3e 5a d0 39 3e 53 fd 9c 3e d4 04 7b 3d
       0.20553567 0.18145886 0.3066202 0.0612839
000380 e1 5b 71 3e bf bc 97 be c3 60 8f bd 44 11 90 3c
       0.23570205 -0.2963619 -0.07000878 0.017586358
000390 3f bc 82 3d eb 50 11 be f5 e3 0d 3d f3 38 e5 3d
       0.06383561 -0.14191024 0.034641225 0.11192503
0003a0 14 ac ca 3e d4 1f 60 3e 03 38 d3 bd 94 77 c0 3d
       0.3958441 0.21887141 -0.10313418 0.09397808
0003b0 2e e0 e4 bd fe 01 fb bd 0c b6 ed 3c a1 f9 26 3e
       -0.111755714 -0.12256239 0.02901747 0.16306163
0003c0 f6 a6 9e bc a6 7b b1 bd 3d 09 05 bc 79 c5 b5 3d
       -0.019366723 -0.08666162 -0.008119878 0.088755555
0003d0 b3 0a 17 bd 82 72 8e 3e 70 e6 d4 bb 74 1c 2e bd
       -0.036875438 0.27821738 -0.006497197 -0.042507604
0003e0 77 80 2c 3e a3 68 05 3e 04 15 d7 3b 53 13 7a 3d
       0.1684588 0.13028197 0.0065637846 0.061053585
0003f0 69 e0 8a bd b0 84 8b bd 9b ac 1b be c5 1d 1f 3e
       -0.06781084 -0.068124175 -0.15202563 0.155387

bias f4 [16]
000000 61 61 c9 3d 73 e9 94 3c f1 1d 85 bd 10 63 78 3d
       0.09833027 0.018177724 -0.064998515 0.06064135
000010 ec e6 14 3c 8a 54 e2 be a9 57 f4 bd 73 6d 5c 3e
       0.009088259 -0.44205123 -0.11930782 0.21526127
000020 1d 79 92 3c c0 59 56 be 05 6b 9c 3d 7e 0f 43 bd
       0.017880017 -0.20932674 0.076376 -0.047622196
000030 b6 57 75 3d 77 a9 0f be 98 67 cd 3d 40 05 40 3d
       0.0598981 -0.1402949 0.100295246 0.046880007

weight f4 [16, 16, 5]
000000 60 ed 4b 3e 38 bb a8 3e 1b 80 a9 3d 8b a0 cb bd
       0.1991477 0.32955337 0.08276387 -0.099427305
000010 35 d3 f9 3d e2 df 9a 3e 3e ee 2c 3c 5f 4a 82 3d
       0.12198488 0.30248934 0.010554848 0.063618414
000020 d8 6c 26 be 64 f8 29 3d bd d9 9a bc e1 f7 25 3e
       -0.16252458 0.04149665 -0.018902654 0.1620784
000030 49 2c 95 be 3e 92 10 bd 66 2e 34 3e 27 a6 0e 3e
       -0.2913535 -0.035295717 0.17595825 0.1393057
000040 a7 f6 71 3d 38 e1 1c 3e 95 90 ac be 25 b3 22 bd
       0.059073117 0.15320289 -0.33704057 -0.039721627
000050 71 90 a0 3e 3f 74 2d 3e 90 9b f7 bd 1f ba ad 3d
       0.313602 0.16938876 -0.12090218 0.084827654
000060 a3 54 86 3d 09 6d 43 3c 1b d3 99 be 36 0f fa bc
       0.06559112 0.0119278515 -0.30043873 -0.030524831
000070 2a 13 16 3c ec e4 0f be 1a 5f a5 3e 17 61 74 3e
       0.0091598425 -0.1405217 0.3229912 0.23865162
000080 01 51 c4 be 30 58 23 bd ff 28 87 bd 85 43 ec 3d
       -0.3834305 -0.039879024 -0.06599616 0.11536316
000090 2c e8 4c be 04 10 84 bd d1 14 05 be c5 a9 bb 3a
       -0.20010442 -0.06448367 -0.12996222 0.0014317563
0000a0 41 c8 ae bd 2a 3b 28 3e 80 24 62 3c 40 83 b4 be
       -0.08534289 0.1642882 0.013802648 -0.35256386
0000b0 a9 72 ec bc 14 0a d5 bc 1a a5 18 3e f6 fa f3 bd
       -0.028863268 -0.026005782 0.14906731 -0.119131014
0000c0 22 0d 96 3c cd 53 2a be 19 a6 8e 3e 83 db ae 3e
       0.01831681 -0.1663353 0.27861097 0.3415185
0000d0 5a db 6f be 26 f0 b4 bc 1b 1b 04 be 70 45 b7 3d
       -0.2342352 -0.022087168 -0.12900965 0.08948791
0000e0 20 00 4b 3e b5 31 02 be b1 8f 9d bc 80 0a 8b 3d
       0.19824266 -0.12714274 -0.019233556 0.06789112
0000f0 2e 6a 86 3d a2 cb 5d be 17 8f c6 bc 90 64 32 bc
       0.06563221 -0.21659711 -0.024238152 -0.010888234
000100 1d 7d 4c 3d 17 bf 6c be 44 d6 8a 3e 5b 6b 90 3c
       0.049924005 -0.2311977 0.27116597 0.017629316
000110 66 a5 52 bd 93 34 b6 3d d8 72 3f 3e f8 e9 03 be
       -0.051427267 0.088967465 0.18696153 -0.12882221
000120 ea 00 51 3d e5 39 42 bd ab 26 12 be 5b 2f 8d bd
       0.051026262 -0.047418494 -0.14272563 -0.06893798
000130 7a c1 a3 3e 34 7d f8 bd 49 a8 6b 3d 67 b5 7a 3d
       0.31983548 -0.121332556 0.057533536 0.061208155
000140 a5 ab 58 3e c0 8a 98 3d bb e6 2a bd 27 92 c9 bd
       0.21159227 0.074483395 -0.041723948 -0.098423295
000150 68 6a d3 bd ef c3 0c bd 45 42 05 3c c0 65 b7 3b
       -0.1032303 -0.034366544 0.008133476 0.0055968463
000160 8f c3 8e 3d 78 47 b8 3c f0 e4 f3 3c a0 bc f3 3d
       0.069708936 0.022495016 0.029772252 0.11901212
000170 2a 22 0a be b4 58 b7 3c c0 0e 97 3d 22 df 20 3e
       -0.13489595 0.022381164 0.0737586 0.15710118
000180 90 f9 a9 3e 9c 31 3d bd 80 77 86 bd bf 37 03 3d
       0.33198214 -0.04618989 -0.065657616 0.032035585
000190 d8 65 ff 3d 1a 35 97 3d d6 7b ac 3d b3 30 a3 bd
       0.12470597 0.07383175 0.08422057 -0.07968273
0001a0 8d 3c 83 bd b3 ef 35 bd 5a 1f 47 bd 41 4f 13 3e
       -0.064080335 -0.044418048 -0.048613884 0.14385702
0001b0 9e 68 70 3e ae 17 da bb 4d 84 9d 3e 12 28 a3 3d
       0.23477408 -0.006655655 0.30765 0.07966627
0001c0 3c 44 ed 3d 90 2a 8d 3d 15 27 66 3d 9c 62 51 bd
       0.1158528 0.06892884 0.056189615 -0.05111943
0001d0 43 fd 8f bd 84 c2 7f bd 45 0f b8 3d 30 92 2b 3d
       -0.07030728 -0.062441364 0.089872874 0.041887462
0001e0 5e a7 8d 3e 4b f8 80 3d a3 cb 58 ba bc 2d fb bd
       0.27666754 0.06297358 -0.00082700903 -0.122645825
0001f0 7f 94 20 3d 12 a1 b1 3c f9 72 41 be 86 ff 89 bd
       0.039204117 0.02168325 -0.18891515 -0.0673819
000200 2f 8b e4 3d b0 f2 27 3d f4 8c aa 3d 62 cb 8c 3d
       0.1115936 0.04100293 0.08327666 0.0687473
000210 ed 2e 96 3c c7 89 8d bb 0d 44 8d bb 98 f0 9a 3d
       0.018332923 -0.004319403 -0.004311091 0.07565421
000220 da 58 f0 bd 40 12 ef bd a9 0e 43 be 10 78 92 bd
       -0.11735697 -0.11673403 -0.19048561 -0.07151806
000230 af b8 b1 bd 97 77 e2 bd 96 76 dc 3c 51 85 01 3e
       -0.08677804 -0.11057966 0.026912015 0.12648512
000240 85 5b dd ba 09 f5 88 3d 00 5b 82 3e 4a e6 64 3c
       -0.0016888237 0.06687362 0.25460052 0.013970921
000250 87 e9 f4 bd f3 85 d6 3c 8a 2c 08 be 09 6d 89 3c
       -0.11958604 0.026186919 -0.1329824 0.016775625
000260 24 2d ce 3c 38 e9 8d 3d fd 82 ba 3d da 65 cd 3e
       0.02516801 0.069292486 0.09107015 0.4011677
000270 eb 96 ed 3d 4f db 86 bc 5e 3e d0 bc 1b ff 2e 3d
       0.11601051 -0.016461996 -0.025420364 0.042723756
000280 b4 d9 9f 3c 3e 4b da bc c8 f0 cd bd 98 82 17 3d
       0.019512989 -0.026647206 -0.10055691 0.03698978
000290 16 db f6 bc 4f dd 9d 3e cd 78 ea 3d a1 46 7e 3d
       -0.030133765 0.30832908 0.11448822 0.062079076
0002a0 f9 c9 05 3d 85 73 0e 3e 94 73 b0 3c c0 7e 95 3d
       0.03266332 0.13911255 0.021539487 0.07299566
0002b0 65 56 4c bd 19 6b 19 3e b0 6c c4 3c 86 cd 59 3d
       -0.04988708 0.14982261 0.023977607 0.053174518
0002c0 5e 66 52 3c f4 4e 36 bc a9 f1 03 3d 80 22 f8 bc
       0.012841789 -0.011127222 0.032212887 -0.030289888
0002d0 84 6c 5a 3d 0c 94 00 3e 0d ea c5 bc d2 5b d5 bc
       0.053326145 0.12556475 -0.024159456 -0.02604476
0002e0 fd f5 ba 3d f8 48 e5 3d 28 a1 8d 3d 3b e6 05 bd
       0.0912895 0.11195558 0.06915504 -0.032690268
0002f0 7c 65 5a 3d 31 74 3b be cc de 3f bd e6 34 71 be
       0.05331944 -0.18306042 -0.046843335 -0.23555335
000300 eb b6 04 3e ce 14 26 bc 46 55 9c bd e5 81 2b 3e
       0.12960403 -0.010136796 -0.07633452 0.1674877
000310 85 9d bf bd 45 d1 e4 bd 6d 5c 50 be 6a cb 94 bd
       -0.09356216 -0.111727275 -0.20347758 -0.07265361
000320 b9 b8 f9 3d 4f a9 aa be 7e 39 a1 be 56 bf 8c bd
       0.12193436 -0.33332297 -0.31489176 -0.06872432
000330 b4 d6 7e bd c1 36 0e bc 85 5e 3c 3d 16 e9 8b 3e
       -0.062216476 -0.008680047 0.04598858 0.27326268
000340 b2 83 2a 3e fe 48 12 3d 9b e2 67 bc 95 7a 54 3e
       0.166518 0.035714142 -0.014153148 0.20749886
000350 04 f8 11 3e 52 c4 1c 3e 9b 5f bf bc 8c ae 58 3e
       0.14254767 0.15309265 -0.023361018 0.21160334
000360 0b 7c 4f 3e 4e a9 3c bd 42 46 41 3d 57 d9 2d be
       0.20262162 -0.0460599 0.047186144 -0.1697744
000370 4a 72 00 be 9f 24 b7 be 9a dd 24 be f5 ea c4 3e
       -0.12543598 -0.35770127 -0.1610016 0.38460508
000380 68 13 9f 3c 36 6b 70 3d b9 2f bb bd c1 5d ec 3a
       0.019418433 0.058695994 -0.09139962 0.0018033312
000390 c9 03 ae 3d a5 0e 06 3e fe 8b 1e 3d 2e e1 c1 3e
       0.08496816 0.13091524 0.038707726 0.3786711
0003a0 f8 3c ae bc ee 31 82 bd b8 90 f1 bd 66 42 5a be
       -0.021269307 -0.063571796 -0.11795181 -0.21314391
0003b0 f3 c7 59 be 42 ef 8e bd 20 84 83 3d fa c9 f5 3c
       -0.21267681 -0.069792286 0.06421685 0.030003536
0003c0 cd 90 22 3d 6a cc 3d 3b ca 42 8f bd 7f 71 b9 3d
       0.039688874 0.0028960952 -0.06995161 0.09054851
0003d0 9e 9a 65 be 0d f3 f2 bd 9d 32 42 3d de dc 30 bd
       -0.22422263 -0.118627645 0.04741155 -0.043179385
0003e0 5a 39 41 3e 27 67 5f bd 10 15 24 3e f7 56 df 3d
       0.18869534 -0.054541733 0.1602366 0.10905259
0003f0 b5 4c 83 3c 5f 75 06 be 1a 75 20 bc 9f ea ce bd
       0.016027788 -0.13130711 -0.009793544 -0.10103344

bias f4 [16]
000000 7a bc 25 bd f3 d9 f5 bd 1b 87 b1 be 19 61 7f be
       -0.04046295 -0.12004461 -0.3467339 -0.24939384
000010 6c 5b 84 be f7 7b c0 3d 15 35 b1 bd f1 07 84 bd
       -0.25851 0.093986444 -0.08652703 -0.06446827
000020 4a 62 5d be 3d e0 45 bd e2 17 0a be 21 31 55 bd
       -0.21619526 -0.048309553 -0.13485673 -0.052048806
000030 e0 6f a1 be c8 11 30 3d da cb 70 3f e8 90 1b 3e
       -0.31530666 0.042985708 0.9406105 0.15191996

weight f4 [64, 112]
000000 53 c4 db bc bd a1 14 be d8 c7 00 3e 9c ff 04 3e
       -0.026827013 -0.14514823 0.12576234 0.12988132
000010 7d 86 77 be ea 1b 7d 3c d6 bb fe bd 70 57 27 3c
       -0.24172397 0.01544855 -0.124381706 0.010213718
000020 ca 13 0e 3e fd 60 c7 3d 84 87 7d 3e 74 a0 51 be
       0.13874736 0.09735296 0.24758726 -0.20471364
000030 bc 9f 6f bd 76 b3 67 3d 66 0e 44 3d e4 b6 35 3e
       -0.058501944 0.05656763 0.047865294 0.17745548
000040 6b ca 6d 3c 53 d0 10 be 73 16 57 3c 25 a4 d5 bc
       0.014513592 -0.1414197 0.013127911 -0.026079247
000050 2e 0c 8c 3d 28 73 80 3d db 94 bd bc f0 53 0f 3e
       0.068382606 0.06271964 -0.023142269 0.13996863
000060 f7 52 66 bd 2c ea 92 bd ad 6d 1b 3d 1e 73 52 be
       -0.056231465 -0.07173571 0.03794639 -0.20551726
000070 00 5a 5e 3e 47 d5 3a 3d d7 ab 00 3d 75 b7 46 3e
       0.2171402 0.045613553 0.03141388 0.19405921
000080 f3 e9 e1 3c 38 28 3c 3c b5 17 22 3e 4d 8f 02 be
       0.027577376 0.011484198 0.15829356 -0.12749977
000090 7a 37 22 3e 24 fd e4 3d 03 f2 fc bd 53 0e a0 3d
       0.15841475 0.11181095 -0.123508476 0.07815232
0000a0 c4 6e 51 bd 8d 7a 48 3e 5a 2e 03 bc dd fa 41 be
       -0.051131025 0.19578 -0.008006657 -0.18943353
0000b0 dc 15 83 3e aa d5 8f bd 4e 0e ca bd 87 24 43 be
       0.25602615 -0.07023175 -0.0986601 -0.19056903
0000c0 d2 dd d8 3d 3d bf f1 3d 93 bf 19 3d 56 b6 b0 3e
       0.10589184 0.11804054 0.037536215 0.3451411
0000d0 99 5a bd 3c c9 75 0d be 81 e2 06 3e ae 52 ba 3c
       0.02311449 -0.13814463 0.13172342 0.022744503
0000e0 6c 69 80 3d 9c 71 3c bc 6f 44 d6 3d 45 44 19 bd
       0.062701076 -0.011501696 0.104622714 -0.037418623
0000f0 4c 4a 35 be 8c 20 32 be c4 fb 8b 3d 12 08 77 3d
       -0.17704123 -0.17395228 0.0683513 0.06031043
000100 88 38 76 bd 74 93 29 bc 7e a3 12 bd 65 90 85 3d
       -0.060112506 -0.010350097 -0.03580045 0.06521682
000110 50 7f e0 bd 0a 89 db bc 71 56 1e be 51 66 1f 3e
       -0.10961783 -0.026798744 -0.15462662 0.15566374
000120 47 0c 69 bd f0 37 e4 3e f8 fe 69 bd 92 28 be 3c
       -0.056896474 0.44573927 -0.057127923 0.023212705
000130 23 5a 2d be 56 9c 63 bd 91 bd 6e 3e bf 7a 4d bd
       -0.16928916 -0.055569015 0.23314501 -0.050165888
000140 f1 b1 3d 3e 62 6c 22 3e 05 fe 18 3e 72 b1 88 bd
       0.1852491 0.15861657 0.14940651 -0.0667447
000150 0e 3d d2 bd 3e 6e 50 be cb 52 85 3e 41 d0 e9 3c
       -0.102655515 -0.20354554 0.2603973 0.028541686
000160 71 fb 6c 3c f9 57 90 3d ad a1 22 be 61 f4 bf 3d
       0.014464245 0.070480295 -0.15881987 0.093727835
000170 05 19 a2 bc c4 0d 0a 3e 74 9d 44 bd ef 19 3d bd
       -0.01978732 0.13481814 -0.04800172 -0.04616731
000180 04 26 82 bd 72 c1 62 3c 5e 80 1e be ad e1 62 3d
       -0.06354907 0.013840066 -0.15478656 0.055391002
000190 22 49 ab bd 46 84 37 3f 7f f0 12 3e 5a db 63 3e
       -0.08363558 0.7168621 0.14349554 0.22251645
0001a0 d9 c7 55 3e 53 9b 09 bd d9 a7 3b 3e 06 24 a2 3c
       0.20877017 -0.033595394 0.18325748 0.019792568
0001b0 fa 9d 9e bd 84 ec d6 bd 3f 7e 63 3d 4e 1a 09 bd
       -0.077449754 -0.104943305 0.05554032 -0.03347235
0001c0 ab 5d 93 3d 92 00 5d 3d 1e b7 45 bd 5f 53 b0 3c
       0.071956 0.053955622 -0.048270337 0.02152413
0001d0 14 df a1 bd f1 0d 9b bd 42 e1 fd 3c 6b 79 99 bc
       -0.07903877 -0.075710185 0.0309912 -0.018734654
0001e0 e5 e1 99 3c a6 7a 53 3c 6d 6f 1f 3d 9a 78 f0 bc
       0.018784473 0.01290766 0.038924623 -0.029354382
0001f0 b1 9d 57 3c de bc 58 3d 17 a7 b7 bd 1e 16 88 bd
       0.013160155 0.052914493 -0.08967417 -0.066448435
000200 b5 9d a3 bd df 33 89 bd c8 68 07 bd 40 ac 9b bd
       -0.079890646 -0.06699347 -0.03305891 -0.076012135
000210 91 a6 3a 3d 8f 60 8b 3b 39 29 12 3c bb f1 90 3c
       0.045569006 0.004253454 0.008920961 0.017693391
000220 9c 19 be bc 01 99 b3 3c 13 2a 03 be 87 ea 82 3b
       -0.02320557 0.021923544 -0.12809019 0.003995243
000230 54 19 92 bd fb 5a 0e bd 01 a8 aa 3b 8f 51 44 3b
       -0.07133737 -0.034754734 0.005208016 0.002995584
000240 b0 79 03 be 3b e4 61 bd 02 dc b6 3c d8 a6 84 3d
       -0.12839389 -0.0551493 0.022321705 0.064771354
000250 51 29 9a bc 3c 5c cb bd 7e dc cb bd ff b4 59 bd
       -0.01881853 -0.09929702 -0.09954165 -0.053151127
000260 45 f9 ab 3c e0 36 19 bd 8a f3 5f bd c0 2f 7c bd
       0.020992884 -0.03740585 -0.054675616 -0.061568975
000270 18 fe c8 ba 6f b5 f3 bd 0d c4 be bd 0c c6 3a 3d
       -0.0015334515 -0.1189984 -0.093147375 0.04559903
000280 e5 c7 ce bd 18 38 3b 3d 06 bc e5 bd c3 c1 f4 3c
       -0.100967206 0.045707792 -0.11217503 0.029877549
000290 9e 18 99 bc 57 d3 50 bd 4d f5 58 bc 3e 54 96 3c
       -0.018688496 -0.0509828 -0.013242078 0.018350717
0002a0 e8 03 b6 bb 0c 54 ab bd fe 6b 7a 3d 36 85 ef bd
       -0.005554665 -0.0836564 0.061138146 -0.1169533
0002b0 53 ec c2 bd 9b ac a4 bd 07 96 10 bd 81 0b 52 bd
       -0.095177315 -0.080407344 -0.035299327 -0.051280502
0002c0 1d a7 00 3d 6e e9 6d bd d0 8e 45 bd 4b 7a 47 3d
       0.03140937 -0.058083944 -0.0482319 0.048700612
0002d0 a0 df 84 bd c8 0a 95 3d 26 1f 0a bc bc a7 b0 bc
       -0.064879656 0.07277447 -0.008430278 -0.021564357
0002e0 3b 80 d6 3c 9a df d4 bd 56 21 48 3b 5e c3 9f 3c
       0.026184192 -0.10394211 0.0030537448 0.019502338
0002f0 a6 59 8b bc fb b5 b4 bd 63 d4 02 be 9c a4 1b bc
       -0.017010521 -0.088237725 -0.12776332 -0.009499695
000300 10 c9 7c 3d b0 a7 46 3d 70 9d d7 bd 1e 98 d5 bc
       0.061715186 0.048499763 -0.10528076 -0.026073512
000310 13 55 db bd 7e c5 06 bd 15 79 9e bd ba ed cb bd
       -0.10709586 -0.032903187 -0.07737938 -0.09957452
000320 2a f9 a0 3b 7f 85 6a bc 8c f4 9c bd dd ac dd 3c
       0.004912515 -0.0143140545 -0.07663831 0.027059967
000330 77 f2 66 bc f6 ad f4 3c 20 95 07 bd c0 75 e8 bd
       -0.014095894 0.029868107 -0.0331012 -0.11350584
000340 11 58 9f 3c dc 0a bd bc a7 a5 06 bd db 79 b0 bd
       0.019451173 -0.023076467 -0.032872822 -0.08616992
000350 98 6c 36 3d e9 e7 bb bd 5d 92 06 bd 7a d8 06 bd
       0.044537157 -0.09175093 -0.032854427 -0.032921292
000360 9c cf be bc 54 4f d3 bd db 2b 01 bd 68 d4 32 3c
       -0.023292355 -0.10317865 -0.031535964 0.010914899
000370 aa 5a 70 bd 23 55 8f bc e6 b1 97 bd fd 0b cd 3c
       -0.058680214 -0.017496651 -0.07406978 0.02503013
000380 71 88 6b 3d a1 ef 86 3d 98 9e 42 bd 0a 6f d9 bc
       0.057503168 0.06588674 -0.047514528 -0.026542205
000390 45 6c 12 3e 90 8f 8a 3d a9 27 28 bd ee eb c9 bd
       0.14299114 0.067656636 -0.041053448 -0.09859453
0003a0 11 9e 89 3e bc 91 49 3d b2 44 e4 bd 44 a6 e8 3d
       0.26878408 0.04921125 -0.11145915 0.11359838
0003b0 7b 0d 2f bd 67 ff a4 be b5 02 a6 3d 7e 16 dd 3c
       -0.042737465 -0.32226107 0.08105985 0.026988264
0003c0 cc bf d7 bd 69 2f bc 3d c0 48 81 3e 10 5c ab be
       -0.10534629 0.0918873 0.25250816 -0.33468676
0003d0 b8 31 18 3e d6 93 39 3e 73 b0 94 be cd e6 e6 bd
       0.14862716 0.18122801 -0.2904087 -0.112744905
0003e0 77 31 46 3e 52 61 57 3d 97 8c 83 3e 8b 03 5a 3e
       0.19354807 0.052583046 0.256932 0.21290414
0003f0 25 23 57 be ba 47 fa 3c b4 ee 0a 3e 7c bd 54 be
       -0.210095 0.03055178 0.1356762 -0.20775408

bias f4 [64]
000000 a8 ce 66 3e 86 44 f0 bd 1f b4 bc 3c c2 11 e3 bd
       0.2253977 -0.1173182 0.023035107 -0.110873714
000010 7d 26 5b bd 24 66 a9 bd 46 ba 90 bc b7 09 25 3d
       -0.053503502 -0.08271435 -0.017666947 0.040292468
000020 1f f3 6f bb 0b 23 f4 bd 60 d2 3e 3e cb c2 9a 3e
       -0.0036613417 -0.119207464 0.18634939 0.3022674
000030 a9 96 99 3e 1d cd b2 3b f4 93 c1 bd 38 2f c7 3e
       0.29997757 0.0054565803 -0.09452048 0.38903213
000040 af fc b3 3e 73 79 f4 bd 6c 91 30 3e 79 01 17 be
       0.3515372 -0.11937227 0.17242974 -0.14746656
000050 20 49 0a 3d f2 13 c5 bc 53 89 70 bd 0f 5b e1 3d
       0.033761144 -0.024057362 -0.058724713 0.11003696
000060 ff 26 b0 3e 1f 4f 9c 3d ee d6 64 bf e6 49 54 be
       0.34404752 0.07632279 -0.89390457 -0.20731315
000070 60 cb a4 3e 88 75 15 3e e5 86 0e 3c 33 ed 03 bc
       0.32186413 0.14595616 0.008699154 -0.008052158
000080 92 5e d9 3e e0 24 9c 3e 90 4f 0f 3e ec fe 76 3d
       0.42454964 0.30496883 0.13995194 0.060301706
000090 f9 dc b4 bd 99 f6 19 bd d6 cd 27 3d 24 83 df bd
       -0.0883121 -0.03758869 0.040967785 -0.10913685
0000a0 61 e1 c0 3b 03 77 c4 3e 6a 70 e1 bd 9f e2 6d 3d
       0.0058862423 0.3837205 -0.110077694 0.05807745
0000b0 53 b1 a0 3d a5 82 d6 bd a0 5a 97 3e ee 9f c1 bc
       0.07846322 -0.10474137 0.2956133 -0.02363583
0000c0 be 26 06 be 00 02 ff bd 55 d7 bd 3d 97 78 09 be
       -0.13100716 -0.12451553 0.09269587 -0.13424908
0000d0 1a c5 9c 3e 5e 82 3a 3c eb 88 88 3e 15 ce d4 bc
       0.30619127 0.011383621 0.2666696 -0.025977174
0000e0 f9 24 b2 3e 2c 22 e4 3d 8c 46 8a 3c 92 0e e4 3d
       0.34793833 0.1113933 0.016879342 0.111355916
0000f0 d7 24 17 3e f1 a0 12 be 46 10 02 bd a0 05 ca 3d
       0.14760147 -0.14319207 -0.0317538 0.09864354

weight f4 [32, 64]
000000 70 e7 fc 3d f2 95 ce 3b 7a 7d b9 3c b2 fb a9 bd
       0.12348831 0.006304496 0.02264284 -0.0829996
000010 63 80 87 bd 78 ec 86 bd 53 20 8e be 55 b5 3f be
       -0.06616285 -0.065880716 -0.27759036 -0.18721516
000020 38 f8 ac 3d 12 aa 3d bb 65 f6 84 3d 7a c6 5b 3b
       0.084457815 -0.002894048 0.064923085 0.003353505
000030 e7 a6 0d 3d c4 3e a0 3d 16 a0 f3 bd d6 33 6a 3d
       0.034583 0.078244716 -0.11895768 0.05717834
000040 24 6f 4a 3e c7 9e 2c 3d 58 9f b8 3e 55 69 13 3e
       0.1976896 0.04214361 0.3605907 0.1439565
000050 0c 9c 4a 3d 3b 74 26 3e f4 f7 59 bb fb 8d 28 bd
       0.049465224 0.16255276 -0.0033259364 -0.041151028
000060 fc e1 f1 3e d5 32 7e bb 4f 20 87 3e 08 f2 57 be
       0.47242725 -0.0038787622 0.26391837 -0.21088421
000070 b6 9e 13 bd f1 f2 33 3e 31 f6 e7 bd 14 88 d8 bc
       -0.03604003 0.17573144 -0.11326254 -0.026432075
000080 de e1 21 3e 1f 08 d7 3b e9 b4 53 3e 4a 65 81 3d
       0.15808818 0.0065622474 0.2067448 0.063181475
000090 56 02 06 bc 1c 0b 4e bd e5 03 ba 3d 85 43 a0 3d
       -0.008179268 -0.050303563 0.09082774 0.07825378
0000a0 bd 06 e4 bd 03 9d be 3e ae 72 9d 3c be 8b 9f 3e
       -0.11134098 0.37229165 0.019219723 0.31161302
0000b0 84 da a6 3d 1b e6 29 bd 19 b1 23 3e f6 3b 94 bd
       0.08147147 -0.04147921 0.15985526 -0.07237999
0000c0 f1 42 f5 3d 74 84 41 bd 07 3c 3c be 85 ae 29 be
       0.11975659 -0.047245458 -0.18382274 -0.1657048
0000d0 68 5f d2 bc d7 92 cb bc e8 e5 b5 3e f6 51 84 3e
       -0.025680259 -0.024850292 0.35526967 0.2584378
0000e0 91 3c a2 3e a2 f4 f6 bd 41 ba 27 3d 5b ed 3f 3f
       0.31686834 -0.12058379 0.04094911 0.7497155
0000f0 5e 21 30 be a3 e3 d5 bd 47 cf 06 bd 82 ed 44 3e
       -0.17200229 -0.10443809 -0.03291252 0.19231227
000100 1a 88 60 3d c7 0d 11 bd 5e 9b ec bd 90 4d 85 3c
       0.054817297 -0.03541353 -0.115530714 0.016272336
000110 18 d5 87 bc 8f a6 06 3d b5 94 11 be af 0d ca bd
       -0.016581103 0.032873686 -0.14216883 -0.09865891
000120 71 e7 e3 bd 8e 84 b8 3d 67 df c1 bd 5d bd a6 3c
       -0.11128128 0.09009658 -0.09466439 0.020353967
000130 69 3a e5 bb 91 d9 52 bd 0c 38 b9 3d 43 59 34 bd
       -0.0069954884 -0.05147702 0.09043893 -0.04403044
000140 c4 ee bf bd 09 4e 10 bd fd 55 79 bc b8 6d c0 3d
       -0.09371713 -0.03523067 -0.015218255 0.09395927
000150 f2 9f f0 bc 8f 56 74 bd 7a 87 e2 bd e2 98 9b 3c
       -0.029373143 -0.05965286 -0.11060996 0.018993799
000160 aa 00 ab bc 1a d9 91 bd 4a 6a 17 3e f8 ac 17 be
       -0.02087434 -0.07121487 0.1478664 -0.14812076
000170 80 2d cd 3c c5 8b 88 3b db 23 cb 3d 98 e9 56 bd
       0.02504611 0.0041670525 0.09918948 -0.052468866
000180 6a ed 56 bd 50 b7 af 3a 4f 3e 04 3d 80 21 11 3c
       -0.05247251 0.0013406072 0.032285985 0.008858085
000190 ca f3 f5 bd 8a 79 df bd cd 9c b2 bd 14 27 bf 3d
       -0.1200939 -0.109118536 -0.087213136 0.093336254
0001a0 82 39 54 bc 17 68 96 bc f6 4d ed bd d1 11 91 3d
       -0.012953164 -0.01836018 -0.115871355 0.07083476
0001b0 ac 18 f6 bd 92 85 dc bd a2 21 25 3d 9c 5e 01 bd
       -0.120164245 -0.10767664 0.040315278 -0.031584367
0001c0 26 d9 d8 bd 80 11 7e bd dc bd 88 3c c7 94 a2 3d
       -0.10588293 -0.062028408 0.016692095 0.07938533
0001d0 91 7c 4a be 74 10 9f bd a7 46 ea bd 60 13 24 be
       -0.19774081 -0.0776681 -0.11439257 -0.16023016
0001e0 86 b4 47 3b 42 bf 4f bd 64 45 65 bd f4 df 25 3a
       0.003047259 -0.050719507 -0.05597438 0.0006327622
0001f0 7d 6d c6 3d b0 50 a6 bd a0 4b 88 3d 58 2c 08 bc
       0.09688852 -0.08120859 0.06655049 -0.008311354
000200 54 91 23 bd 1a a1 7e bc e0 46 1b 3e ba 6a c5 3c
       -0.039933518 -0.015541339 0.15163755 0.024098743
000210 d4 cb 37 3e 92 dc a2 3d a6 f2 a7 ba 2d 4a 12 be
       0.17948848 0.07952227 -0.0012813404 -0.14286108
000220 9e 09 2b 3f 48 13 36 3d 6d a0 de 3c 2b 29 b7 bd
       0.6681155 0.04445198 0.027176106 -0.08943399
000230 77 4f 08 3d 0a 82 94 bd bb 65 ec bd 59 0b e9 bc
       0.03327891 -0.072513655 -0.11542841 -0.028447794
000240 52 3a 6a bd 83 25 46 bd 35 c3 e0 3c cb 8f 15 bd
       -0.057184525 -0.048375618 0.027436832 -0.036514085
000250 6e 07 c2 bd 4b 33 70 3d a7 8e 61 be be fd 91 bd
       -0.09474073 0.058642667 -0.22027074 -0.071284756
000260 fd 86 cb bc 6e 2e 42 3e 44 f4 a3 bd e5 be 95 bc
       -0.02484464 0.18963024 -0.08005574 -0.018279502
000270 bc e1 f3 3a 83 ca b2 3c 6e 84 06 bd 92 15 17 be
       0.0018606703 0.02182508 -0.03284114 -0.14754322
000280 d0 27 0d 3e af 63 2c 3d a2 4f 8c 3d 37 72 0a 3e
       0.13784719 0.042087253 0.06851126 0.13520132
000290 69 7d 2f bf 88 a4 0d be d9 b8 02 bd 5f 59 41 bd
       -0.68550736 -0.13832295 -0.031914566 -0.04720437
0002a0 3f 34 9c 3d be 1e f8 3d 03 03 d3 3d 51 61 1d 3e
       0.07627153 0.121152386 0.10303309 0.15369155
0002b0 c1 97 82 3e 00 31 c8 bd ea 9b 1d 3d 8c 68 13 3e
       0.25506404 -0.09774971 0.03847877 0.1439535
0002c0 21 51 34 3c 82 2b 06 be f0 ce dd 3c 77 45 5a bd
       0.011005671 -0.13102534 0.027076215 -0.053288903
0002d0 b2 b1 31 3d 09 3f d2 bd df c7 16 be ec ec 36 3d
       0.043382354 -0.10265929 -0.14724682 0.04465954
0002e0 a1 b6 11 be 6d 12 22 3c 9a 19 0a 3e 84 72 b4 3e
       -0.14229824 0.009892088 0.13486329 0.35243618
0002f0 73 7d fc 3c 84 9c 40 3e 4d 39 14 3d 6a b0 49 3e
       0.030821538 0.18809706 0.03618746 0.19696203
000300 7b d6 0b 3d ba 63 67 bd 07 e7 1a bf db 81 71 3d
       0.03414009 -0.05649159 -0.6050877 0.05896173
000310 00 6d 9d bd c4 89 dc bd c0 bf 12 3f d4 b1 3e bc
       -0.07686806 -0.10768464 0.5732384 -0.011639077
000320 85 f5 1e bf fb a3 7f 3d 1a 8c 93 3d 04 63 26 3e
       -0.62093383 0.062412243 0.072044566 0.16248709
000330 06 3c 53 be 99 5f db bc d7 f9 18 bd 33 61 fc bc
       -0.20628366 -0.026778983 -0.03734764 -0.030808067
000340 d3 da 23 be b3 89 31 bb f8 26 7d bd 78 5b 90 3e
       -0.16001444 -0.0027090132 -0.06180474 0.28194785
000350 f1 3b e2 3c 39 b8 06 be 9e e1 da 3e 59 a8 29 be
       0.027616473 -0.13156213 0.42750257 -0.16568126
000360 e9 ca 12 3e 5a 81 dd 3d 83 95 7a bc 60 a4 b2 3d
       0.14335217 0.108156875 -0.015294435 0.08722758
000370 96 0e 40 3e 8f e1 02 3e 56 52 a8 b8 29 e2 ac bd
       0.18755564 0.12781356 -8.0262005e-05 -0.08441574
000380 72 5f eb 3d eb e1 2a be cf 65 1c bd 82 ac 85 bd
       0.11492814 -0.16687743 -0.03818303 -0.06527044
000390 2b 2f d3 3e 3a b4 5f 3e 38 8b 2c be 75 36 b1 bd
       0.41246924 0.21846095 -0.16849983 -0.08652965
0003a0 c4 d0 5f 3d 64 56 a6 be 23 e7 16 bd c7 1c 0c 3c
       0.054642454 -0.32487786 -0.036841523 0.008551783
0003b0 ff 9a 75 3d 11 81 29 bd 43 93 64 be c9 5b f0 3c
       0.05996227 -0.041382853 -0.22321801 0.029340642
0003c0 23 bb 71 3d 5f 9c 9c 3d 1e 1c b0 be d1 a2 01 3e
       0.059016358 0.07647013 -0.34396452 0.12659766
0003d0 59 19 27 3e ce 8d f6 3d 90 06 58 3f 0c dd f8 3d
       0.16318263 0.12038766 0.84385014 0.12151536
0003e0 c7 fe 28 be a3 1c 83 be d8 66 8e bd 6f 49 97 bc
       -0.1650344 -0.25607786 -0.0695321 -0.018467633
0003f0 8e 8a a0 3e 1c ab de bc 1a d7 9f 3d c0 e8 02 bc
       0.3135571 -0.0271812 0.07804699 -0.007990062

bias f4 [32]
000000 f0 c5 9d 3e 77 57 1b be 28 de 7a 3e 05 70 1d be
       0.30815077 -0.15170084 0.24498808 -0.15374763
000010 9d e2 fb 3d 21 6d 08 bf fe c3 e8 3c fa bd 8a 3e
       0.122990824 -0.5329152 0.028413769 0.27098066
000020 0a 24 94 3e f2 ac 36 3f 85 45 77 3d 81 af 78 3e
       0.28933746 0.71357644 0.060369033 0.242857
000030 f5 de 30 3d d3 9f df bd bb 0d cc 3e da a8 49 3e
       0.04318138 -0.10919156 0.39854226 0.19693318
000040 b3 2d 8e 3b b1 06 34 3d 37 ed df be c2 c1 a6 3e
       0.004338944 0.043951694 -0.43735668 0.325697
000050 7b 15 15 3e 2d f2 95 bd 12 7c a7 3d 6d af bb bc
       0.14558975 -0.07321582 0.081779614 -0.022910798
000060 cf a1 fc 3c c4 92 96 be c5 b3 0c bf e1 58 33 3d
       0.030838875 -0.29408848 -0.54961807 0.043785933
000070 f2 e8 81 3d a8 31 67 3e fb 80 3e 3e 24 dd 9e 3e
       0.06343259 0.22577536 0.1860389 0.31028092

weight f4 [8, 32]
000000 fa b4 bf bd 54 47 e4 3d 7a b1 14 3e bc 68 8e be
       -0.093606904 0.11146417 0.14520827 -0.2781428
000010 ee a7 83 3e 0e f4 31 be 04 b7 98 bd 99 8c 69 3a
       0.25714058 -0.17378256 -0.074567825 0.00089091953
000020 47 6a 87 be fb 72 b3 3c 3a 1a 67 be 4f b7 87 be
       -0.2644827 0.021905413 -0.22568598 -0.2650704
000030 75 02 8b 3d f0 1c ad 3d ed 23 41 3e f1 34 32 be
       0.06787578 0.08452785 0.18861361 -0.17403008
000040 22 91 df 3d 91 2f 73 be ec 3d 81 bd b9 20 1d 3e
       0.10916354 -0.23748614 -0.06310639 0.15344514
000050 61 39 fd 3d 7a e0 8b bd f3 5a 82 bb 8c ee e1 bc
       0.1236446 -0.06829925 -0.003978127 -0.027579568
000060 0e b9 88 bd 38 c4 2b 3e 69 23 10 bd 99 ee 8a bc
       -0.066759214 0.1677407 -0.03519002 -0.016959475
000070 d3 56 f6 bb 1f 1c 39 be 8e 6c 89 3e aa 77 83 bc
       -0.0075176745 -0.18077134 0.26840633 -0.016048271
000080 bc 84 1d 3e b7 17 a0 3d 6e 19 88 bd d5 14 14 3d
       0.15382665 0.07817023 -0.06645475 0.03615268
000090 19 69 0d 3e 06 24 1e be 07 68 90 bd 9a 76 b6 3e
       0.13809623 -0.1544343 -0.07051092 0.3563736
0000a0 bb b3 03 3e 96 f2 9b 3e 53 98 9a be 93 a4 b5 bd
       0.1286153 0.30458516 -0.3019434 -0.08869281
0000b0 10 4a 30 3e 1c e5 d4 3d ba d6 1a 3e 98 69 83 3d
       0.17215753 0.10395262 0.15120974 0.06416625
0000c0 4a d1 00 3e c1 bf 92 3d a6 04 b8 be 4a cc 5d 3e
       0.12579837 0.071654804 -0.35941046 0.21659961
0000d0 ed cd 4c 3e 96 0a a3 bd 41 7d d1 bd 12 95 bf bd
       0.2000043 -0.079610035 -0.102289684 -0.09354605
0000e0 52 bf 23 be d1 a1 2f bf 02 09 97 be 8c b3 47 be
       -0.15990952 -0.6860629 -0.2949906 -0.19502085
0000f0 2d 8d 44 3f 6f 76 8d 3e 49 6d 9e bc 73 67 28 3d
       0.7677792 0.2762942 -0.01933922 0.041114282
000100 6f 8c 66 3e 9c af 55 3e 69 ed 9c bc 03 8a 54 3e
       0.22514509 0.20867771 -0.019156175 0.20755772
000110 0e 1b f2 3c f8 b9 31 bf 79 55 7d 3c ed 52 e7 3d
       0.029553916 -0.6942439 0.015462273 0.11295114
000120 65 65 63 be 5b b1 71 be ef 67 b1 bd 95 37 94 be
       -0.22206648 -0.23602812 -0.08662402 -0.28948656
000130 63 4b 02 bd 10 09 24 3d 1f 71 7e bc f1 de 2d 3d
       -0.031810176 0.040047705 -0.0155299 0.04244894
000140 cf 0e 5e be 13 68 5b 3e 31 27 cc be da 76 be be
       -0.21685337 0.2142642 -0.3987365 -0.37200052
000150 b3 14 0e 3e f1 18 1a bd a1 0a 02 3e 74 62 e3 bc
       0.13875084 -0.037621442 0.12699367 -0.027756907
000160 2f 5e 39 3c 5b 0d ac 3e e5 7e 22 be 82 19 01 be
       0.011313959 0.3360394 -0.15868719 -0.12607387
000170 39 2d 65 3e cb b7 b8 3d 43 78 b8 be f2 4a 91 be
       0.22380532 0.09019431 -0.36029252 -0.2837749
000180 9c 5e b1 be f5 50 76 bd ea 85 a0 bd 03 14 ab 3e
       -0.34642494 -0.0601358 -0.07838042 0.33413705
000190 69 da 90 3d 13 a0 fa 3d 8e f6 35 be 54 72 04 be
       0.070729084 0.12237563 -0.17769834 -0.12934238
0001a0 b9 2f 76 be a7 63 30 be 0c 4b db 3d 83 90 ba bd
       -0.24041642 -0.17225514 0.107076734 -0.09109595
0001b0 6b 5b bd bd 1a b1 0b be 91 ad d6 3c 9d 9f 87 3d
       -0.09245952 -0.13641778 0.02620581 0.06622241
0001c0 80 73 cf bd 2c fc ff bc aa 23 cd 3e cc cf 5b bd
       -0.10129452 -0.031248175 0.40066272 -0.053664967
0001d0 be bc db 3d d2 0f 03 3e af fc 07 bb 36 28 a4 3b
       0.10729359 0.12799004 -0.0020749976 0.0050096763
0001e0 6a 2b 33 bc a0 2e 91 be 96 ae 36 bd c8 6c 9a 3e
       -0.010935644 -0.28355885 -0.044600092 0.30161119
0001f0 32 8f 95 3e 6a b8 af 3d 82 f1 d8 bc 7b 30 ce 3d
       0.29210812 0.08580096 -0.026482347 0.10067841
000200 55 3f 40 be 6c d2 a1 3a cb 8f 21 be e1 09 06 3e
       -0.18774159 0.0012346036 -0.15777509 0.13089706
000210 bd 48 3b be 20 88 5b 3d e5 37 4e 3d c6 c3 f5 bd
       -0.18289466 0.053596616 0.050346274 -0.120002314
000220 62 1d 70 3e 55 48 4e be 0c 61 3d be b5 1b 5f be
       0.23448709 -0.2014478 -0.18494052 -0.21787913
000230 c9 05 32 3c 74 db b3 bd d5 3c a1 be f0 c6 0d be
       0.010865637 -0.08782092 -0.31491724 -0.1384542
000240 20 b4 c8 3e e3 8a 20 3e 54 48 26 3f c0 9e 69 be
       0.39199924 0.15677981 0.64954114 -0.22814465
000250 1d 84 09 3d 51 55 39 3e 35 b9 18 be 73 54 40 bd
       0.03357326 0.18098952 -0.14914401 -0.046955537
000260 a9 8a 26 be 49 c3 bf bb 8d e0 a7 3d 84 2c 3d 3d
       -0.16263832 -0.005852137 0.081971265 0.04618503
000270 85 9f e4 3d e9 8a b1 bd 03 13 04 3e 52 b4 e3 bd
       0.111632384 -0.08669073 0.12897877 -0.11118378
000280 16 9b 15 3e 3f 64 8d bd c6 1d f4 3d 23 26 08 be
       0.14609942 -0.06903886 0.11919741 -0.13295798
000290 dc d1 ac bd a4 0d d0 bd 2a f9 c1 3d a6 3e 2e 3e
       -0.08438465 -0.10158852 0.094713524 0.17016086
0002a0 82 6a cf 3d be f9 b4 3d 33 bc 06 bd c9 17 4d be
       0.10127737 0.08836697 -0.032894325 -0.20028605
0002b0 1a 85 16 be 10 e0 96 bd 9e 1d ac bd 72 c2 4f 3d
       -0.14699212 -0.07366955 -0.084040865 0.050722547
0002c0 a1 89 1b be ad 98 6c 3d 96 f0 2a bf ae b4 94 3d
       -0.1518922 0.05776279 -0.66773355 0.072610244
0002d0 b6 d0 77 3e 60 4c bd 3c b4 5e 8f 3d ff 47 37 3d
       0.2420071 0.023107708 0.07000485 0.044746395
0002e0 64 40 17 3d f3 7a b3 bd 6f c6 b9 3d 83 21 c3 3e
       0.036926642 -0.08763685 0.09071051 0.38111505
0002f0 22 9a db be bd 5a 33 3d e2 35 7f bd a1 40 71 3d
       -0.42891032 0.043787707 -0.062307246 0.058899526
000300 d4 8b 12 be 63 d2 14 3e dd 1b 0c be 32 18 36 3e
       -0.14311153 0.14533381 -0.13682504 0.17782667
000310 c5 e2 d1 be ed 82 a6 be e5 37 bb bd 37 c2 21 3c
       -0.40993324 -0.32521763 -0.091415204 0.009872965
000320 db a9 50 be a1 69 b4 bd 1b 2d a8 3d 95 62 54 3d
       -0.20377295 -0.088092096 0.08211728 0.051851828
000330 b0 94 2f 3d 1b 38 2e 3d 9e db 81 3e 4b 97 31 3e
       0.04286641 0.042533975 0.25362867 0.1734287
000340 64 ed 85 3e 8e b3 34 3d 57 9b ef be 46 18 2a 3d
       0.26157677 0.04411655 -0.46798202 0.041527055
000350 4d a1 91 3e 48 eb 20 3e 71 c3 d9 3d ec bf 9b bd
       0.28443375 0.15714753 0.106329806 -0.076049656
000360 4c c7 1f be 50 50 86 3d 8c 37 1f 3d 9d fc 95 be
       -0.1560337 0.06558287 0.038871333 -0.2929429
000370 a9 d5 70 be 9d eb c8 bd ce fa dc 3d 46 10 b2 3d
       -0.23519005 -0.09810565 0.10790025 0.0869451
000380 a1 05 ea 3b 25 e8 84 bb 9f 8a 92 bc fd 26 85 be
       0.0071417843 -0.004055994 -0.017888365 -0.26006308
000390 a6 cd 2e be 66 52 a1 bd 59 66 a8 3d 14 59 3a 3e
       -0.17070636 -0.078770444 0.08222646 0.18198043
0003a0 76 19 78 bd 44 7d 30 bd de d7 53 3d 30 47 08 3e
       -0.060571156 -0.043088213 0.05171954 0.13308406
0003b0 fc 96 aa bb a8 4b 7d 3d af 85 37 3e 92 c1 c8 be
       -0.005205987 0.06183973 0.1792209 -0.39210182
0003c0 f0 81 30 3e 7e 5b 75 3e 08 2a 1b be e2 50 c7 bd
       0.17237067 0.23960683 -0.15152752 -0.09732224
0003d0 15 b7 2f bd 12 12 dd bd 40 cc 7f be e1 d9 7a bd
       -0.04289921 -0.10794462 -0.24980259 -0.06124294
0003e0 96 93 c2 bd fa 8b f6 3d ef a8 d5 be fc 7c d9 3d
       -0.09500806 0.12038417 -0.4173045 0.10619542
0003f0 98 da db 3d ac 42 8a 3d d4 ea c8 be 28 f1 bb bc
       0.10735053 0.06750998 -0.3924166 -0.02294214

bias f4 [8]
000000 fa 1d 14 3e b4 89 38 3e 40 d6 b5 be fa 8e 0b be
       0.1446456 0.1802128 -0.35515022 -0.1362876
000010 3c d3 98 be 3b f8 9b 3e 1b a3 a9 3d 77 b6 8f bd
       -0.2984866 0.30462822 0.08283063 -0.07017224
