AE Models/multimodal2.pth (torch, 512848 bytes, 41 tensors)

weight f4 [16, 1, 4]
-0.18493727 -0.102961086 -0.48083985 -0.058810778 -19.186771 -3.7024314 -1.9137841 -0.41809812
-0.96544975 -0.28482714 -0.24760932 -0.18818441 -1.4766699 -1.0203177 -0.451311 -0.010300537
-0.01049442 -1.531405 -0.29152587 0.07793623 -0.0070940354 -0.032705385 -0.043736573 -0.95124125
-0.3429919 -0.032059766 -0.19839805 0.021507952 -0.32249016 -0.3887674 -0.044038 0.009406314
-1.3657819 0.09887396 -0.3743068 -1.5013667 0.056077875 0.04027854 0.036138434 0.05691773
-0.3400227 0.027171249 -0.14134471 -0.16983272 -0.56922334 -0.12143635 -0.077814095 -0.20079362
-0.7302557 0.009278943 -0.13936149 -0.1941948 -0.052544262 -0.6395154 -0.077179156 -0.37702337
-0.22510763 0.6308238 -0.66014147 0.24501102 -0.02278787 -0.00803229 0.17569274 -0.3682394
00000000: 3260 3dbe 43dd d2bd a430 f6be 92e3 70bd
00000010: 827e 99c1 a3f4 6cc0 e1f6 f4bf f510 d6be
00000020: b727 77bf ddd4 91be 4c8d 7dbe 6ab3 40be
00000030: 8503 bdbf c599 82bf 3c12 e7be 95c3 28bc
00000040: caf0 2bbc 1405 c4bf e142 95be 089d 9f3d
00000050: 1575 e8bb 15f6 05bd 1f25 33bd 8c84 73bf
00000060: a29c afbe 1a51 03bd dc28 4bbe 7231 b03c
00000070: 6e1d a5be 850c c7be 3161 34bd f11c 1a3c
00000080: f1d1 aebf 6e7e ca3d 24a5 bfbe c92c c0bf
00000090: eab1 653d 1cfb 243d e505 143d 9122 693d
000000a0: 7517 aebe 3d96 de3c abbc 10be a1e8 2dbe
000000b0: 9fb8 11bf 9fb3 f8bd ff5c 9fbd d89c 4dbe
000000c0: 0af2 3abf b506 183c c7b4 0ebe 00db 46be
000000d0: a738 57bd 48b7 23bf 1b10 9ebd 3509 c1be
000000e0: 9d82 66be ab7d 213f 08ff 28bf 2be4 7a3e
000000f0: a1ad babc de99 03bc cce8 333e e089 bcbe

bias f4 [16]
-0.7257163 0.24312642 0.34279764 -0.16053988 0.17128575 -0.012697638 -0.72501546 -0.38745266
-3.6179237 -0.07883446 -0.42079246 -0.015309096 -0.014373677 -0.019519497 -0.0035403087 0.16791603
00000000: 8bc8 39bf 22f6 783e 2c83 af3e 9164 24be
00000010: 8865 2f3e c109 50bc 9d9a 39bf 3260 c6be
00000020: 108c 67c0 f673 a1bd 1c72 d7be 01d3 7abc
00000030: 927f 6bbc 5ae7 9fbc 8604 68bb 2ef2 2b3e

weight f4 [16, 16, 4]
-0.08132087 0.0043426943 0.06876659 0.08833032 0.08720142 -0.108725496 -0.124520876 0.035192557
-0.13152885 -0.16898867 0.08572202 -0.041148603 -0.16036418 -0.13222837 0.04125891 -0.24209072
-0.101030245 -0.082057886 -0.067182645 -0.15592758 -0.011225116 -0.10657632 0.08899293 -0.1119389
0.044541873 -0.03473678 -0.032331146 -0.103079006 -0.10611717 -0.13240153 -0.093662 0.01861433
0.04528379 0.04916127 -0.049718566 -0.2673856 -0.11089559 0.00072079664 0.013799656 0.010672359
-0.1548989 -0.077842236 -0.08567691 -0.12238058 0.035274345 0.03545717 0.07827635 -0.054067586
-0.10006819 0.0024724125 0.032266032 -0.012445414 0.0141838575 -0.08869334 -0.01719426 0.051046725
-0.46573356 -0.4435434 -0.31635094 -0.35323724 -0.104088925 -0.06548418 0.008384891 0.075696066
-0.19615488 -0.008931309 -0.38521308 0.02729148 -0.16089547 0.031115292 0.008866456 -0.036984373
-0.015665097 0.011504414 -0.08158026 -0.3177542 -0.12696853 0.044631165 -0.15419668 -0.13582222
-0.1902354 -0.40222007 -0.16737626 -0.38631788 -0.3740818 -0.059028186 -0.44250432 -0.40740275
-0.37405473 -0.11351987 -0.039640266 0.063189566 -0.044241313 -0.06250403 -0.11875315 -0.032644875
-0.16193457 0.098898076 -0.258511 0.050933644 -0.41586939 -0.40820357 -0.38448793 -0.4637691
-0.29434106 0.03857658 -0.47632778 -0.055165455 -0.28575525 -0.15515845 -0.4266162 -0.014141477
-0.1469898 -0.1764673 -0.38665003 -0.13048556 0.0074181757 -0.35900322 -0.32099724 -0.47861212
-0.28543368 0.05260503 -0.32038787 0.014846787 -0.42767236 -0.44638392 -0.32584414 -0.36110795
-0.1558349 -0.06705948 -0.16995466 -0.26268968 0.0060539264 0.03428719 0.008700481 -0.038285755
-0.06443035 -0.10635393 -0.16074522 -0.17525633 0.034602337 -0.031896725 -0.074067034 -0.14211103
-0.14170265 0.054829337 -0.12265709 -0.011827882 0.009474425 -0.13241878 -0.116628975 -0.019861061
-0.12632103 -0.0849122 -0.1490495 -0.13240524 -0.11574903 0.042838335 -0.10399002 0.06412374
-0.118818566 -0.033883166 0.12950991 -0.08556348 -0.041832153 -0.11914217 -0.10836189 -0.2025597
-0.101773955 0.012968707 0.015261649 0.0010954633 -0.053591736 0.015565038 -0.006029525 0.037360717
-0.14575057 -0.10627036 0.046963524 0.038820695 -0.08336454 -0.00647348 -0.062782556 -0.05313739
-0.32378608 -0.42846203 -0.44848245 -0.19566892 -0.041096974 0.03770311 0.01594717 -0.13165408
-0.1999358 -0.01269254 -0.13650277 0.2025508 0.41976795 -0.26224664 0.036902092 -0.047308568
0.25709736 -0.5621691 -0.09246556 -0.04433772 0.033478245 -0.14624731 0.014358733 -0.051944014
-0.047614384 0.03686888 0.01111346 0.030306378 -0.05148379 -0.02269791 -0.04860855 0.12331597
0.03393425 0.039128944 0.026320161 0.008904682 -0.10057375 0.1233347 -0.04460164 -0.06387827
-0.40135446 -0.52515835 -0.5802444 -0.089252874 0.09761847 0.12620987 0.15889157 0.1773549
-0.071151905 -0.049896795 -0.16107321 0.03487598 -0.030026384 0.005271097 -0.052536417 -0.11243594
-0.06050267 -0.07030129 -0.1368061 -0.12412537 -0.20879719 -0.1776966 0.127547 -0.17434527
-0.013146195 0.0007181342 0.005220019 0.0022999356 0.016235782 -0.03375558 -0.02700888 0.059776157
00000000: 8e8b a6bd 294d 8e3b 7fd5 8c3d 87e6 b43d
00000010: a896 b23d 79ab debd cd04 ffbd 1226 103d
00000020: 80af 06be 5e0b 2dbe 078f af3d 708b 28bd
00000030: 8236 24be e066 07be 1aff 283d a1e6 77be
00000040: f2e8 cebd f70d a8bd 0e97 89bd 7bab 1fbe
00000050: 8de9 37bc b044 dabd ed41 b63d 3940 e5bd
00000060: 8a71 363d 2748 0ebd aa6d 04bd 161b d3bd
00000070: f553 d9bd 4494 07be ddd1 bfbd 147d 983c
00000080: 7f7b 393d 545d 493d b2a5 4bbd c4e6 88be
00000090: 3a1d e3bd d8f3 3c3a f417 623c 1edb 2e3c
000000a0: d19d 1ebe c06b 9fbd 6077 afbd aba2 fabd
000000b0: d57b 103d 8a3b 113d 5a4f a03d f975 5dbd
000000c0: 8df0 ccbd 3308 223b 6329 043d dae7 4bbc
000000d0: 6963 683c dba4 b5bd fada 8cbc 5f16 513d
000000e0: a174 eebe 1f18 e3be c0f8 a1be 83db b4be
000000f0: 932c d5bd 921c 86bd c860 093c 8a06 9b3d
00000100: d3dc 48be a054 12bc a63a c5be 6292 df3c
00000110: c8c1 24be 7fe5 fe3c 9d44 113c ed7c 17bd
00000120: 1754 80bc 027d 3c3c 8d13 a7bd aeb0 a2be
00000130: 0a04 02be 2bcf 363d bce5 1dbe fb14 0bbe
00000140: 12cd 42be caef cdbe af64 2bbe 75cb c5be
00000150: a687 bfbe 8ac7 71bd ed8f e2be 1897 d0be
00000160: 1a84 bfbe 1b7d e8bd d55d 22bd 8869 813d
00000170: 6136 35bd 1d02 80bd da34 f3bd a2b6 05bd
00000180: 2dd2 25be 138b ca3d 8e5b 84be cc9f 503d
00000190: d5ec d4be 0f00 d1be 9adb c4be 2573 edbe
000001a0: dfb3 96be 7a02 1e3d 3ce1 f3be 2cf5 61bd
000001b0: 834e 92be dbe1 1ebe 706d dabe a7b1 67bc
000001c0: 7e84 16be d8b3 34be fef6 c5be 029e 05be
000001d0: 2b14 f33b 45cf b7be c059 a4be a60c f5be
000001e0: 5d24 92be 5f78 573d e109 a4be f03f 733c
000001f0: dff7 dabe 6f8c e4be 0bd5 a6be 24e3 b8be
00000200: 2f93 1fbe 7b56 89bd 9808 2ebe 437f 86be
00000210: 0460 c63b b970 0c3d 768c 0e3c 86d1 1cbd
00000220: 0ff4 83bd 17d0 d9bd 659a 24be 6576 33be
00000230: 2ebb 0d3d 24a6 02bd 75b0 97bd 8e85 11be
00000240: 801a 11be ba94 603d a433 fbbd bcc9 41bc
00000250: 9e3a 1b3c ca98 07be 2cdb eebd aab3 a2bc
00000260: 4d5a 01be 73e6 adbd 6fa0 18be 3d95 07be
00000270: d40d edbd 4077 2f3d b8f8 d4bd 4f53 833d
00000280: 2657 f3bd 13c9 0abd 3f9e 043e e83b afbd
00000290: 3158 2bbd cf00 f4bd d7ec ddbd cf6b 4fbe
000002a0: dd6e d0bd b37a 543c ff0b 7a3c a695 8f3a
000002b0: 0283 5bbd 8004 7f3c 5293 c5bb 8d07 193d
000002c0: a33f 15be 46a4 d9bd d35c 403d 7302 1f3d
000002d0: 07bb aabd 7c1f d4bb 2494 80bd 98a6 59bd
000002e0: 4ac7 a5be 605f dbbe 7e9f e5be 6f5d 48be
000002f0: 4d55 28bd 946e 1a3d a4a3 823c 54d0 06be
00000300: f8bb 4cbe 5ff4 4fbc 62c7 0bbe 7a69 4f3e
00000310: d3eb d63e 3145 86be a626 173d a1c6 41bd
00000320: 44a2 833e 50ea 0fbf 955e bdbd 789b 35bd
00000330: 7c20 093d dbc1 15be e440 6b3c 3fc3 54bd
00000340: 4d07 43bd d303 173d 3b15 363c 1545 f83c
00000350: abe0 52bd f8f0 b9bc c219 47bd 158d fc3d
00000360: a4fe 0a3d ac45 203d 619d d73c f1e4 113c
00000370: 9cf9 cdbd e796 fc3d 36b0 36bd 9cd2 82bd
00000380: 557e cdbe c770 06bf e68a 14bf 36ca b6bd
00000390: 31ec c73d 293d 013e 79b4 223e 869c 353e
000003a0: 17b8 91bd 9560 4cbd 60f0 24be 1eda 0e3d
000003b0: e4f9 f5bc 2bb9 ac3b 6d30 57bd d044 e6bd
000003c0: a6d1 77bd 1ffa 8fbd e616 0cbe 7135 febd
000003d0: eece 55be 19f6 35be ae9b 023e 9187 32be
000003e0: 2363 57bc 2c41 3c3a b10c ab3b 84ba 163b
000003f0: e700 853c 4b43 0abd ba41 ddbc d8d7 743d

bias f4 [16]
-0.157329 -0.33962905 -0.11320008 -0.018120095 -0.08512371 -0.32797003 -0.2605809 -0.35136244
-0.038179856 -0.096446425 -0.058318924 -0.14502819 -0.06239206 0.19458061 -0.09607474 0.28595957
00000000: da1a 21be dce3 adbe 72d5 e7bd 9870 94bc
00000010: 5755 aebd b0eb a7be dc6a 85be c7e5 b3be
00000020: 7b62 1cbd b485 c5bd d3df 6ebd 4582 14be
00000030: d18e 7fbd 2440 473e d5c2 c4bd 4b69 923e

weight f4 [16, 16, 5]
0.02874849 0.02190314 0.0049379473 0.0030147862 -0.024180625 0.11010489 0.04646336 -0.37607324
-0.09602532 -0.17550018 0.041668396 -0.114755325 -0.11065889 -0.09247927 -0.1115573 0.025873596
-0.2919848 -0.3421473 -0.09415555 -0.13331886 -0.047397345 0.045535762 -0.104023986 -0.10316107
-0.08970698 0.41971874 -0.36172187 0.17076994 -0.17060778 0.34752166 -0.101842076 -0.08253929
-0.19908544 -0.10184607 -0.057749037 -0.22052242 -0.00043053358 -0.06668006 0.01999133 -0.10771814
0.008749823 -0.13574843 -0.08856001 0.020863144 0.029623646 0.052819382 0.04033377 -0.019752894
0.058149178 -0.038298395 0.020388765 0.048675653 0.000743095 -0.07417145 0.027469432 -0.121553905
0.0086045535 0.018524682 0.058216244 0.0059236237 -0.01515421 0.034145873 0.00046987456 -0.078901656
0.07812728 -0.111704916 -0.08281294 -0.047060613 -0.09471014 -0.00740417 -0.009663767 -0.17712986
-0.122285895 -0.027338848 -0.13615273 0.024617223 -0.091983825 -0.17969047 -0.07747049 0.034536973
-0.10939895 -0.12535769 -0.16540971 -0.18805043 -0.5472292 -0.15712985 0.04735565 -0.086313196
-0.056981724 -0.02619969 -0.12411281 0.40432176 0.38730562 0.07124728 0.21573365 -1.4650168
-0.30117333 0.08286873 0.09662754 0.05677581 0.070588954 0.10744114 0.031149935 0.035896655
0.101387575 -0.18283671 -0.54104716 -0.36301556 0.32989657 0.32175022 -0.19807556 0.31205273
0.49191374 0.07949435 -0.4720636 -0.40661246 -0.05256668 0.23422159 -0.093455955 -0.68085
1.0568094 1.3678079 2.5513606 1.6616298 -2.306824 -0.07011506 0.19027323 0.2349544
0.15451108 -0.44784582 -0.1267128 -0.08154538 -0.09367939 -0.025839178 -0.027504364 0.23937581
0.20600961 -0.41425425 0.17732906 -0.040799856 0.031848066 -0.13927986 0.0032313478 0.13697459
-0.0032310323 -0.8229267 -0.39962476 -0.00517636 -0.18186174 0.13527048 -0.104601696 -0.084710665
-0.01750583 -0.056959055 0.0020481509 -0.5338248 0.8812822 -0.1339843 0.17944928 0.08790005
0.07625051 -0.063810825 -0.041489452 -0.096832365 0.07420661 0.036688656 0.105287656 -0.13325942
0.0632699 -0.043447286 0.035360593 -0.12778205 0.010453706 -0.08968923 -0.10566953 -0.06601397
-0.0596835 -0.014762493 -0.053057153 -0.13337237 -0.08774864 0.010729817 0.05390516 -0.0007754609
0.025997104 0.020272527 0.02072515 -0.047173396 0.13102406 0.027511371 0.012803433 0.059814297
-0.091015495 -0.04407902 -0.087104104 0.07032489 0.048370205 -0.07680969 -0.12547338 0.07148477
-0.015866896 -0.074458934 0.00087994745 -0.101307124 -0.016463423 0.07516785 0.027780492 0.021688653
-0.028892953 -0.123325735 0.00731212 0.074379556 -0.013041734 0.04562938 -0.1149787 -0.018581228
0.026310747 -0.075391516 -0.018933492 0.06730428 -0.026961 0.037062474 0.10624565 -0.12476262
-0.025838206 -0.11917389 -0.12388734 0.072750784 -0.08702402 -0.103484534 -0.000619824 -0.036515027
-0.025092158 -0.14821796 -0.15992983 0.03065027 -0.06378171 0.050610386 -0.11446409 -0.03775845
0.071235664 -0.0028927238 -0.10474194 -0.06414769 -0.014183081 -0.048530716 0.031375695 0.021230536
-0.03532743 -0.06984614 -0.0955198 0.07805807 -0.073641755 -0.08539495 -0.05294735 -0.934983
00000000: f481 eb3c 376e b33c 81ce a13b b893 453b
00000010: 7216 c6bc ac7e e13d 5d50 3e3d ac8c c0be
00000020: eca8 c4bd 52b6 33be 7bac 2a3d d704 ebbd
00000030: 21a1 e2bd c665 bdbd 2778 e4bd ddf4 d33c
00000040: 087f 95be ee2d afbe a0d4 c0bd bd84 08be
00000050: b823 42bd b583 3a3d 870a d5bd 1c46 d3bd
00000060: 4bb8 b7bd 60e5 d63e 9c33 b9be 51de 2e3e
00000070: ceb3 2ebe 5cee b13e 9492 d0bd 5c0a a9bd
00000080: 0edd 4bbe ac94 d0bd 418a 6cbd a1d0 61be
00000090: 3db9 e1b9 8e8f 88bd dcc4 a33c 549b dcbd
000000a0: 6b5b 0f3c a301 0bbe f35e b5bd 2fe9 aa3c
000000b0: 4aad f23c 2359 583d 0635 253d d2d0 a1bc
000000c0: d52d 6e3d c7de 1cbd 5706 a73c 1f60 473d
000000d0: 43cc 423a 34e7 97bd 9307 e13c 41f1 f8bd
000000e0: 1dfa 0c3c 13c1 973c 2874 6e3d f51a c23b
000000f0: 5d49 78bc 8bdc 0b3d 7f59 f639 3197 a1bd
00000100: 3201 a03d 8cc5 e4bd d599 a9bd a1c2 40bd
00000110: 64f7 c1bd ae9e f2bb c754 1ebc 8861 35be
00000120: 0771 fabd b8f5 dfbc 9f6b 0bbe 0faa c93c
00000130: 0462 bcbd c700 38be d9a8 9ebd a476 0d3d
00000140: 8f0c e0bd c45d 00be 2a61 29be 4b90 40be
00000150: 3617 0cbf a6e6 20be 00f8 413d f9c4 b0bd
00000160: ab65 69bd bba0 d6bc db2e febd 4303 cf3e
00000170: ec4c c63e 18ea 913d 48e9 5c3e ac85 bbbf
00000180: 6433 9abe 15b7 a93d a9e4 c53d c08d 683d
00000190: f190 903d 1a0a dc3d 262e ff3c 5f08 133d
000001a0: 4aa4 cf3d 8c39 3bbe 1182 0abf 2ddd b9be
000001b0: 34e8 a83e 72bc a43e 52d4 4abe 60c5 9f3e
000001c0: 1edc fb3e efcd a23d 52b2 f1be 822f d0be
000001d0: 2950 57bd c9d7 6f3e d665 bfbd 304c 2ebf
000001e0: 8845 873f 5414 af3f 7e49 2340 49b0 d43f
000001f0: 01a3 13c0 7c98 8fbd fcd6 423e e397 703e
00000200: 2738 1e3e 0c4c e5be 00c1 01be 4401 a7bd
00000210: fbda bfbd afac d3bc d550 e1bc ef1e 753e
00000220: 2ff4 523e 2219 d4be c095 353e c01d 27bd
00000230: 1e73 023d 619f 0ebe 05c5 533b 1143 0c3e
00000240: babf 53bb 53ab 52bf 9e9b ccbe 749e a9bb
00000250: f739 3abe 5884 0a3e 6a39 d6bd c97c adbd
00000260: 6368 8fbc e64d 69bd 453a 063b bea8 08bf
00000270: b69b 613f 2e33 09be 8dc1 373e f104 b43d
00000280: 3a29 9c3d 40af 82bd d8f0 29bd 0c50 c6bd
00000290: a3f9 973d d846 163d 0ea1 d73d 2875 08be
000002a0: a693 813d c8f5 31bd 45d6 103d 4cd9 02be
000002b0: 0546 2b3c fdae b7bd 4469 d8bd 5532 87bd
000002c0: b076 74bd 62de 71bc 7552 59bd c492 08be
000002d0: 8fb5 b3bd 1dcc 2f3c a8cb 5c3d 4d48 4bba
000002e0: e1f7 d43c 9212 a63c cac7 a93c e438 41bd
000002f0: 2c2b 063e 875f e13c 7ec5 513c d6ff 743d
00000300: 5566 babd 348c 34bd a363 b2bd 7f06 903d
00000310: d61f 463d 664e 9dbd 187c 00be 9b66 923d
00000320: 4bfb 81bc ed7d 98bd 46ac 663a 1c7a cfbd
00000330: 4dde 86bc 9af1 993d ea93 e33c 67ac b13c
00000340: eab0 ecbc 3492 fcbd 829a ef3b 4f54 983d
00000350: ffac 55bc dfe5 3a3d f479 ebbd a937 98bc
00000360: a389 d73c de66 9abd 691a 9bbc d4d6 893d
00000370: 51dd dcbc d2ce 173d 5297 d93d 8b83 ffbd
00000380: a5aa d3bc 7111 f4bd a5b8 fdbd 5dfe 943d
00000390: a639 b2bd b3ef d3bd af7b 22ba c890 15bd
000003a0: 128e cdbc 73c6 17be a5c4 23be 4616 fb3c
000003b0: fc9f 82bd d64c 4f3d 266c eabd 9ba8 1abd
000003c0: 01e4 913d da93 3dbb f182 d6bd dd5f 83bd
000003d0: 2760 68bc 25c8 46bd cd83 003d a9eb ad3c
000003e0: 7fb3 10bd 7e0b 8fbd e39f c3bd e9dc 9f3d
000003f0: 7dd1 96bd 8ce3 aebd 52df 58bd 0c5b 6fbf

bias f4 [16]
-0.16502506 -0.27605587 -0.13254039 -0.0020133313 0.23179355 -0.018026562 -0.14103773 0.40896058
-0.33081278 -0.15129147 -0.044427272 -0.12867141 -0.4351981 0.0050993557 0.23412208 0.114589356
00000000: 54fc 28be 3257 8dbe abb8 07be 18f2 03bb
00000010: 4a5b 6d3e 71ac 93bc 326c 10be 4863 d13e
00000020: 4b60 a9be 27ec 1abe 5ff9 35bd 70c2 03be
00000030: 49d2 debe 7f18 a73b b3bd 6f3e d3ad ea3d

weight f4 [16, 16, 5]
0.017341103 -0.11087473 0.14498965 -0.03087004 0.08529669 -0.14096369 0.095538564 0.04673499
0.040341347 -0.024510097 0.1846511 -0.29818925 -1.9453905 0.22446537 0.5854217 -0.03085385
-0.39687023 -0.16213998 -0.058118068 0.13748054 -0.1335064 0.01995956 -0.084899694 0.026813276
-0.08808941 -0.18642198 0.025628576 -0.08229443 -0.14807118 -0.013111648 0.012019389 0.0019754572
0.14430416 0.05391579 -0.0010433275 0.09103046 0.15456326 0.09397572 0.039291408 0.036859687
0.6940322 -0.8479418 -0.6515105 0.43659866 0.41350842 -0.10246345 -0.00014928824 0.050788727
-0.18608697 -0.23608485 0.15832177 0.5049246 0.11634733 0.12202827 0.08031969 0.028823307
-0.04047205 0.0015505455 0.0065763015 -0.0892147 0.4899581 -0.5072477 -0.030516945 -0.18592899
-0.4111006 -0.048189905 0.024282621 -0.17276356 -0.2657725 -0.140598 0.014526261 0.09167446
0.07658933 0.052009758 -0.07879941 -0.39812472 0.16429055 -0.72306186 0.010717085 -0.14641881
-0.13850538 -0.15392071 0.040883884 -0.07436196 -0.1484647 -0.005247038 0.020344205 -0.096454956
-0.1507862 0.019816458 0.021476805 -0.0030348182 -0.10288507 -0.10076808 -0.10421637 -0.11710446
-0.14009747 0.040144727 -0.010470985 -0.15214474 -0.04987003 -0.04925608 -0.09066022 -0.0065745
-0.021212958 0.031027952 -0.12093928 0.019077452 0.025037965 -0.10983103 0.028807385 -0.10706475
-0.11133979 -0.025107587 -0.124430455 -0.14172028 0.014563613 0.04343595 -0.0951734 -0.09102223
0.025013456 -0.11956455 0.037468214 -0.016861878 -0.15080169 0.025918506 -0.09448623 0.0030044832
-0.016517065 0.012517662 0.017597172 -0.110209785 -0.03468911 -0.11605954 -0.13647345 -0.026684277
-0.1214319 -0.00581377 -0.10521073 0.0030618557 -0.11400452 -0.03796623 -0.14932539 -0.044738825
-0.025845967 -0.046923436 -0.13316315 -0.11741579 0.03486282 0.0072496976 -0.067634344 0.02620054
-0.019949015 0.08221731 0.041769847 -0.12202849 -0.11231574 0.000572141 -0.16558719 0.04961924
0.03781187 -0.120119914 0.054224357 -0.09793696 -0.13668181 0.0048813173 -0.1217718 -0.18887176
-0.038675427 -0.13299417 -0.10051565 0.03256239 0.045598365 -0.04845143 -0.1712231 -0.1492359
-0.06963216 -0.14869344 -0.07566472 0.020669078 -0.09970343 -0.19116913 -0.109370634 -0.1289292
-0.017400488 -0.10739132 -0.13990629 0.0230825 -0.10840239 -0.044553895 0.06342672 -0.045855366
-0.2651901 -0.12181125 -0.057936657 -0.11921248 -0.12238535 -0.1180787 -0.040863577 -0.14310043
-0.09628653 0.042391066 -0.10839698 0.033616636 0.014230956 -0.018892495 -0.059586838 -0.14156358
0.008349204 -0.019623738 -0.15958199 -0.117539056 -0.09613046 0.039355643 -0.15721251 0.043206327
-0.007895661 -0.11421633 0.006415168 0.013234714 -0.1646481 -0.1490868 -0.048705086 0.07326699
0.043888345 -0.031174187 -0.09744409 -0.1780173 0.042394087 0.0641765 -0.11334909 -0.13881347
-0.13733016 -0.049416102 -0.033217013 -0.08072831 -0.17343874 -0.065932214 -0.06110979 -0.036016334
-0.04236116 -0.08704534 -0.12041955 -0.06085491 0.22882058 0.12969382 0.10987386 -0.19610411
0.023175921 0.15782087 -0.101383865 -0.001548014 -0.07748451 -0.13585562 0.03867572 0.081314705
00000000: ee0e 8e3c 4a12 e3bd 2b78 143e 2be3 fcbc
00000010: 08b0 ae3d c958 10be b9a9 c33d 306d 3f3d
00000020: f83c 253d 66c9 c8bc 2e15 3d3e 43ac 98be
00000030: 8e02 f9bf 40da 653e 32de 153f 37c1 fcbc
00000040: 9332 cbbe 0608 26be 360d 6ebd b3c7 0c3e
00000050: e7b5 08be 3b82 a33c e4df adbd 84a7 db3c
00000060: 3868 b4bd 67e5 3ebe 05f3 d13c fb89 a8bd
00000070: f99f 17be 3dd2 56bc f9ec 443c ac76 013b
00000080: 78c4 133e ced6 5c3d 43c0 88ba 2e6e ba3d
00000090: d545 1e3e 5876 c03d 07f0 203d 2ffa 163d
000000a0: 18ac 313f b712 59bf 64c9 26bf dc89 df3e
000000b0: 60b7 d33e 5bd8 d1bd 428a 1cb9 d707 503d
000000c0: 958d 3ebe 3ac0 71be 1a1f 223e bd42 013f
000000d0: 8247 ee3d f5e9 f93d a67e a43d db1e ec3c
000000e0: 05c6 25bd ac3b cb3a 047e d73b 32b6 b6bd
000000f0: cadb fa3e fcda 01bf acfe f9bc 2b64 3ebe
00000100: c77b d2be c762 45bd 59ec c63c eee8 30be
00000110: 5513 88be ecf8 0fbe 8eff 6d3c d2bf bb3d
00000120: deda 9c3d 2f08 553d 9661 a1bd 01d7 cbbe
00000130: c83b 283e 951a 39bf b696 2f3c d0ee 15be
00000140: 5bd4 0dbe 649d 1dbe dc75 273d 154b 98bd
00000150: 2107 18be 58ef abbb e4a8 a63c 2d8a c5bd
00000160: b367 1abe 2056 a23c 20f0 af3c cde3 46bb
00000170: 68b5 d2bd 7f5f cebd 646f d5bd 77d4 efbd
00000180: b675 0fbe cc6e 243d 7f8e 2bbc d5cb 1bbe
00000190: 8444 4cbd bec0 49bd 11ac b9bd e76e d7bb
000001a0: ccc6 adbc 552e fe3c 03af f7bd 5148 9c3c
000001b0: 6b1c cd3c 17ef e0bd 77fd eb3c c344 dbbd
000001c0: 1e06 e4bd 6dae cdbc 65d5 febd 1f1f 11be
000001d0: 389c 6e3c e5e9 313d 46ea c2bd dd69 babd
000001e0: 05e9 cc3c 42de f4bd 4578 193d ec21 8abc
000001f0: c26b 1abe 0c53 d43c ff81 c1bd dde6 443b
00000200: cc4e 87bc e116 4d3c f227 903c abb5 e1bd
00000210: 2b16 0ebd a0b0 edbd b2bf 0bbe fc98 dabc
00000220: 4ab1 f8bd 7081 bebb b978 d7bd 6aa9 483b
00000230: 347b e9bd 7a82 1bbd c1e8 18be 0f40 37bd
00000240: ecba d3bc ca32 40bd ec5b 08be b177 f0bd
00000250: 51cc 0e3d df8e ed3b e083 8abd 84a2 d63c
00000260: 1e6c a3bc 8d61 a83d dc16 2b3d 13ea f9bd
00000270: cb05 e6bd bcfb 153a b08f 29be 8b3d 4b3d
00000280: 9fe0 1a3d 6e01 f6bd 5c1a 5e3d 2c93 c8bd
00000290: 51f6 0bbe 75f3 9f3b 7e63 f9bd 9967 41be
000002a0: 206a 1ebd a02f 08be 26db cdbd 2460 053d
000002b0: 5ac5 3a3d 0275 46bd 1c55 2fbe 4cd1 18be
000002c0: 4e9b 8ebd 1843 18be 1bf6 9abd 3352 a93c
000002d0: 5031 ccbd d7c1 43be b6fd dfbd 0406 04be
000002e0: 788b 8ebc fbef dbbd 9843 0fbe 8317 bd3c
000002f0: 1202 debd 257e 36bd dee5 813d d6d2 3bbd
00000300: ffc6 87be 2d78 f9bd fd4e 6dbd ac25 f4bd
00000310: 2ca5 fabd 3fd3 f1bd 9160 27bd eb88 12be
00000320: df31 c5bd 41a2 2d3d 3cff ddbd 99b1 093d
00000330: f528 693c 6fc4 9abc 5411 74bd 0bf6 10be
00000340: 1acb 083c f6c1 a0bc 7669 23be 51b8 f0bd
00000350: 0ce0 c4bd 6233 213d 51fc 20be 1ef9 303d
00000360: cd5c 01bc 40ea e9bd 5436 d23b 6ad6 583c
00000370: 8399 28be 36aa 18be fc7e 47bd 010d 963d
00000380: 44c4 333d 0261 ffbc c490 c7bd 2b4a 36be
00000390: 6ca5 2d3d f86e 833d 9123 e8bd 1e25 0ebe
000003a0: 47a0 0cbe 8a68 4abd 900e 08bd e254 a5bd
000003b0: ed99 31be 7807 87bd 424e 7abd dd85 13bd
000003c0: e582 2dbd d444 b2bd 869e f6bd 0043 79bd
000003d0: f14f 6a3e 75ce 043e 8c05 e13d 84cf 48be
000003e0: 6edb bd3c cb9b 213e 58a2 cfbd bbe6 caba
000003f0: 33b0 9ebd bc1d 0bbe 6f6a 1e3d 5388 a63d

bias f4 [16]
0.025404783 -0.08337864 -0.21980497 -0.008383923 -0.4012941 0.058473058 -0.13103451 0.033146452
0.3784949 -0.17117609 -0.09663858 -0.31444207 0.04331893 -0.30251235 -0.1330993 -0.33588362
00000000: b11d d03c 6cc2 aabd 8e14 61be b95c 09bc
00000010: 6c76 cdbe 7281 6f3d e92d 06be 93c4 073d
00000020: 15ca c13e c948 2fbe 73ea c5bd 8dfe a0be
00000030: 316f 313d e6e2 9abe 2f4b 08be f0f8 abbe

weight f4 [64, 112]
-0.029595472 -0.043859307 -0.09828843 0.01458018 -0.15390226 -0.02107734 0.008808615 -0.14056773
-0.14700933 -0.07511697 -0.08296438 -0.082418375 -0.08474648 -0.06823689 -0.0156010585 -0.095213994
-0.14443234 0.021226043 -0.10537153 0.074275434 0.03036144 -0.1465747 -0.061537653 -0.018083159
-0.1494502 -0.021567974 -0.06175936 -0.07457896 -0.14420012 -0.025919562 -0.015961636 0.033292335
-0.11532068 0.000349132 -0.011192681 -0.02652063 -0.05906946 -0.09005967 -0.084301524 -0.07885195
-0.070589006 -0.11696343 -0.06342918 -0.095004246 -0.02412222 -0.07507707 0.03037436 0.0023366972
-0.093710124 -0.025227387 -0.13008255 0.0027442754 -0.105488844 -0.10633576 0.017463367 -0.14317243
-0.1172025 -0.064157195 0.018602911 -0.092034444 -0.060692947 -0.11549593 -0.09228487 -0.023666067
-0.04472602 -0.11389625 -0.0048270696 -0.083752364 -0.021745373 -0.13810879 -0.01356829 -0.014433844
-0.13130842 -0.13996167 -0.11660982 -0.0120219 -0.12609904 -0.09228674 -0.026585804 -0.05426085
-0.1331493 -0.08345443 -0.08283948 -0.046778847 -0.039177857 0.01179782 -0.15019381 0.01447934
0.029239057 -0.10274177 0.012096562 0.007038222 0.031501453 -0.037424207 -0.12610607 -0.010702144
-0.11244657 0.02076997 -0.009554528 -0.08687473 -0.0029938873 -0.13895012 -0.116120726 -0.032030717
-0.027186263 -0.06357917 -0.059433658 0.022136094 -0.08231679 0.0076775 -0.048317496 -0.04760936
-0.3354121 -0.35469466 -0.33507764 -0.46027693 -0.77701896 -0.7512337 0.22314687 0.15358758
-0.02309567 0.09398074 0.07885569 0.07721135 0.12800008 0.10502986 -0.02495091 0.015745964
-0.035372034 -0.062959224 -0.1005809 -0.21142681 -0.052680016 -0.028725406 0.02363629 -0.13904025
0.0030301432 0.038956482 -0.111138605 -0.03871241 0.01501965 -0.03667645 0.081922434 0.0947939
0.07525067 0.10595825 0.0022545278 -0.09199262 -0.018586151 -0.040637627 -0.03102757 0.026874837
0.01846393 0.021100465 -0.07666089 -0.08309922 -0.0029952193 -0.07764358 -0.13035126 -0.0077258954
0.029663045 -0.028668275 -0.09079043 0.0267721 -0.14301994 -0.06515213 -0.073739685 -0.014739061
0.027865753 -0.13934022 -0.021287864 -0.14598458 -0.008355666 0.003358781 -0.030392956 0.028434316
-0.05491033 0.046780046 -0.10881917 -0.09945673 -0.0034912184 0.030119983 0.04599718 0.03883058
-0.03172514 0.055317055 -0.014217538 -0.07939529 -0.08352654 -0.014412101 -0.11269601 -0.022511695
-0.015553454 -0.035495393 -0.021503607 -0.104631245 -0.096531026 -0.00058508606 -0.019951934 0.030356864
-0.051568348 0.04086056 -0.015772184 0.11470309 -0.032100517 0.14204654 0.115689725 0.152523
0.11749789 -0.036837563 0.040373135 -0.08812199 -0.02858974 -0.07099484 0.055814717 0.021961791
-0.1132901 -0.03691645 0.091246985 -0.0036194413 0.0882513 -0.05983632 -0.08734725 0.04727338
0.08951018 -0.41729295 -0.43554896 -0.95672476 0.2458261 -1.1096573 -2.484986 0.0036671695
-0.10233723 -0.12358585 -0.021032836 0.21740398 0.052381456 0.029455772 -0.049447093 -0.02860063
-0.032026462 -0.03302722 0.083248876 -0.06787331 -0.007657727 -0.266234 0.047604408 0.035809252
-0.1336542 -0.54301834 -0.097159155 -1.9394352 0.03471437 0.025631819 0.07337799 -0.060797233
00000000: 3472 f2bc d1a5 33bd 724b c9bd b5e1 6e3c
00000010: 8e98 1dbe 63aa acbc 0252 103c fdf0 0fbe
00000020: 9d89 16be edd6 99bd 3be9 a9bd f7ca a8bd
00000030: 908f adbd c8bf 8bbd 959b 7fbc 8eff c2bd
00000040: 12e6 13be 3de2 ad3c 07cd d7bd b81d 983d
00000050: 8eb8 f83c ae17 16be e80e 7cbd 2223 94bc
00000060: 7909 19be 52af b0bc 62f7 7cbd dbbc 98bd
00000070: 32a9 13be 4355 d4bc fac1 82bc 8b5d 083d
00000080: 402d ecbd b40b b739 8261 37bc cb41 d9bc
00000090: d1f2 71bd 3471 b8bd 47a6 acbd 227d a1bd
000000a0: f890 90bd 868a efbd 28e7 81bd 9691 c2bd
000000b0: f69b c5bc 02c2 99bd a6d3 f83c 4623 193b
000000c0: 18eb bfbd aaa9 cebc 5c34 05be 4dd9 333b
000000d0: 890a d8bd 90c6 d9bd 560f 8f3c cb9b 12be
000000e0: dd07 f0bd d964 83bd 2265 983c 8e7c bcbd
000000f0: 2b99 78bd 2189 ecbd daff bcbd 57df c1bc
00000100: a232 37bd 7042 e9bd 652c 9ebb 5c86 abbd
00000110: 5a23 b2bc 646c 0dbe 884d 5ebc ee7b 6cbc
00000120: b775 06be 1d52 0fbe 21d1 eebd 81f7 44bc
00000130: 1b20 01be d500 bdbd 79ca d9bc a040 5ebd
00000140: 4a58 08be 28ea aabd bfa7 a9bd 2d9b 3fbd
00000150: f678 20bd a54b 413c 68cc 19be c13a 6d3c
00000160: bf86 ef3c 476a d2bd a930 463c e3a0 e63b
00000170: ab07 013d 204a 19bd f321 01be 0c58 2fbc
00000180: 634a e6bd c925 aa3c 988a 1cbc 61eb b1bd
00000190: 1835 44bb f148 0ebe b4d0 edbd a432 03bd
000001a0: bab5 debc cc35 82bd b570 73bd c156 b53c
000001b0: b595 a8bd 8a93 fb3b 91e8 45bd 0802 43bd
000001c0: 23bb abbe 8a9a b5be 4c8f abbe 6ba9 ebbe
000001d0: b7ea 46bf da50 40bf 9d80 643e 1046 1d3e
000001e0: 2133 bdbc f978 c03d 187f a13d fc20 9e3d
000001f0: 7412 033e e519 d73d da65 ccbc aefd 803c
00000200: 44e2 10bd c4f0 80bd 5cfd cdbd 4580 58be
00000210: 00c7 57bd 8b51 ebbc e5a0 c13c 9160 0ebe
00000220: 5e95 463b d590 1f3d a39c e3bd e790 1ebd
00000230: fa14 763c 0c3a 16bd f3c6 a73d 4e23 c23d
00000240: 061d 9a3d a400 d93d b3c0 133b a066 bcbd
00000250: fc41 98bc a473 26bd 882d febc 9e28 dc3c
00000260: ab41 973c e2da ac3c 6200 9dbd ed2f aabd
00000270: 714b 44bb 9903 9fbd cd7a 05be 8229 fdbb
00000280: eaff f23c bbd9 eabc 55f0 b9bd 2a51 db3c
00000290: d273 12be 7b6e 85bd d504 97bd 1a7c 71bc
000002a0: b846 e43c 34af 0ebe e363 aebc fb7c 15be
000002b0: 34e6 08bc ff1e 5c3b a6fa f8bc 15ef e83c
000002c0: a7e9 60bd 6f9c 3f3d 96dc debd f8af cbbd
000002d0: edcc 64bb 2fbe f63c 8a67 3c3d d00c 1f3d
000002e0: 38f2 01bd 2394 623d adf0 68bc ff99 a2bd
000002f0: f60f abbd bc20 6cbc 2acd e6bd 726a b8bc
00000300: ead3 7ebc 9e63 11bd 5528 b0bc e848 d6bd
00000310: 0fb2 c5bd 7660 19ba 3d72 a3bc f5ae f83c
00000320: 5539 53bd 675d 273d ab34 81bc 74e9 ea3d
00000330: d57b 03bd a674 113e bcee ec3d fd2e 1c3e
00000340: bca2 f03d fce2 16bd 4d5e 253d 4d79 b4bd
00000350: 0835 eabc be65 91bd f99d 643d 37e9 b33c
00000360: a404 e8bd b435 17bd b3df ba3d 2634 6dbb
00000370: 19bd b43d ee16 75bd 1de3 b2bd bba1 413d
00000380: 1d51 b73d 6ca7 d5be 4600 dfbe eaeb 74bf
00000390: d6b9 7b3e 4009 8ebf 030a 1fc0 e554 703b
000003a0: 2f96 d1bd 941a fdbd 0e4d acbc 269f 5e3e
000003b0: f08d 563d 3b4d f13c 0989 4abd de4b eabc
000003c0: 2e2e 03bd 8d47 07bd 637e aa3d 2901 8bbd
000003d0: aced fabb d34f 88be d7fc 423d b9ac 123d
000003e0: a6dc 08be 4003 0bbf 61fb c6bd 6a3f f8bf
000003f0: a830 0e3d d2f9 d13c 3347 963d 8506 79bd

bias f4 [64]
0.0058355792 -0.17727734 1.1215327 0.9042717 -0.13181154 0.1612922 0.006214212 -0.36611742
-0.40459132 0.014383793 0.5383216 -0.64005417 -0.33337638 0.060362827 0.12459 0.01268487
0.6938805 0.039903328 -0.07145884 0.47781825 -0.17386721 -0.18464322 -0.048195872 0.13745195
-0.021490576 -0.053481054 -0.1381556 0.17364065 -0.14009024 0.0024228618 -0.017055182 -0.03581722
-0.20712657 -0.23858763 -0.03765416 -0.087544076 -0.20644338 -0.041433167 -0.07134552 -0.014311882
0.3444086 0.01827035 0.015070784 -0.0044544833 -0.035111066 -0.08744577 -0.00879785 -0.11785056
0.38448745 0.0768277 -0.040671535 -0.07609405 -0.25365543 0.2725587 -0.15387903 -0.059470184
-0.07250969 0.47497773 0.21941265 -0.5180283 0.018987289 0.0052130804 -0.088290416 -0.6412901
00000000: 6338 bf3b 3188 35be 628e 8f3f 5a7e 673f
00000010: 9bf9 06be c829 253e 97a0 cb3b be73 bbbe
00000020: 9826 cfbe 00aa 6b3c 72cf 093f 97da 23bf
00000030: 4fb0 aabe 033f 773d 0b29 ff3d 33d4 4f3c
00000040: 27a2 313f ac71 233d 0359 92bd 98a4 f43e
00000050: 3f0a 32be 1d13 3dbe 0969 45bd 34c0 0c3e
00000060: 010d b0bc f30e 5bbd a978 0dbe dbce 313e
00000070: d173 0fbe e0c8 1e3b 4fb7 8bbc 14b5 12bd
00000080: fd18 54be 5150 74be 403b 1abd 4f4a b3bd
00000090: e565 53be d3b5 29bd 9a1d 92bd 627c 6abc
000000a0: 5356 b03e b3ab 953c 73eb 763c eaf6 91bb
000000b0: 9fd0 0fbd c516 b3bd dc24 10bc a25b f1bd
000000c0: 8adb c43e d757 9d3d 3297 26bd 33d7 9bbd
000000d0: 20df 81be d08c 8b3e 7792 1dbe 0297 73bd
000000e0: f67f 94bd 4830 f33e b6ad 603e 819d 04bf
000000f0: 3b8b 9b3c 7dd2 aa3b 9bd1 b4bd 972b 24bf

weight f4 [32, 64]
0.0021509624 0.05547908 0.070626654 -0.25944695 -0.00042894864 -0.35694814 0.081308745 0.63225126
0.39086282 -0.0008700007 0.03442006 -0.08973722 0.021473406 0.032721158 0.09234457 -0.02944344
-0.91232634 -0.04446624 0.1580284 -0.06536547 -0.029919168 0.050164003 0.07462961 0.09804724
0.056004692 0.1637733 0.09901321 0.1767103 0.05238261 -0.1459151 0.038908485 0.034804795
0.09927102 0.007869422 -0.08775945 -0.032203168 -0.059869487 -0.00018725738 0.007170034 0.04616749
0.040453352 0.014377466 0.08236617 -0.0012890302 -0.043508153 0.17043759 0.09029427 0.15405981
0.009295614 0.09071803 -0.018472986 -0.015532655 -0.7981952 0.082155906 -0.020667192 0.024285762
0.04567447 -0.24954386 -0.1368603 -0.038344808 -0.04167829 -0.10748413 0.17859142 0.008835703
0.15749033 -0.03791555 -0.096225284 0.19874316 0.14209661 0.2212125 0.041941017 0.029876731
0.5617309 0.08037565 0.65017027 0.22764258 0.14155658 -0.22925225 -0.062169775 0.058699377
0.3265034 -0.7648479 0.03225328 0.16324158 -0.07406211 0.006888639 0.031528413 0.7265403
-0.025228761 0.17689265 0.0013688352 0.84940994 -0.10322268 -0.12714429 0.05876464 0.048378438
-0.0216751 0.03737116 0.09583905 -0.016921248 0.17007536 -0.28050482 0.13722245 -0.00963407
0.16085126 0.01350092 0.19077975 0.039457593 0.17602251 -0.47571966 0.10239 -0.0033567324
0.05474138 0.091602296 0.1315777 0.08076317 0.062163565 0.40364718 0.046968494 0.053678643
-0.12607181 -0.12321293 0.14307185 0.11926685 0.3651833 -0.034014754 0.16221532 0.277794
-0.04844479 -0.017791638 0.050702777 0.045785036 0.06416176 0.11617786 -0.057196997 -0.013967305
-0.06149298 -0.17875873 -0.14584048 -0.13776192 -0.099313945 -0.31887656 -0.11004415 -0.022355804
-0.22394031 0.09695721 0.028165549 -0.043404385 0.04948187 -0.15106891 0.10415232 -0.119072214
-0.006215796 -0.0876984 0.04033686 -0.31374136 -0.089574486 -0.033891622 0.080833435 -0.02838492
0.06835455 -0.10840955 -0.028698102 0.0339541 0.015022359 -0.002832756 0.016563103 -0.021569584
-0.117919795 -0.046897203 -0.11005516 -0.0074066403 0.053951174 -0.09553918 0.017502084 -0.014514491
-0.18638662 -0.14564608 -0.057951078 -0.14162932 0.012089983 -0.18019758 -0.15188138 -0.044579547
0.029612005 0.009110272 -0.18313992 0.02602768 -0.052719668 -0.07117228 -0.13324738 -0.18357645
0.11726645 -0.024366694 0.023949986 -0.045205854 -0.061614793 -0.4542308 -0.03428318 0.036492113
0.009387374 0.027551793 -0.08090605 -0.09937895 -0.01608362 0.06900506 0.016811095 0.031021528
-0.20764665 -0.41895056 0.18240964 -0.451448 -0.04352025 0.06320307 -0.0063377903 -0.20467642
0.07081242 0.020890962 -0.11602742 -0.14259005 -0.026628118 -0.08599811 0.04717621 0.011146918
0.10437741 -0.119583234 0.01730474 0.044048127 0.1738444 0.006337649 -0.058366325 -0.15678754
-0.05735833 -0.035351932 -0.046661753 0.019119734 0.027440649 -0.36269218 0.14378405 0.021461692
-0.11365156 -0.011718826 0.18264389 0.011497925 -0.280551 -0.11858623 0.07423987 0.014396395
0.010732031 -0.15988036 -0.0241293 0.0034205425 -0.10595881 -0.1554931 -0.0228688 -0.06776753
00000000: 29f7 0c3b 083e 633d b5a4 903d 3bd6 84be
00000010: 83e4 e0b9 e8c1 b6be 3385 a63d 38db 213f
00000020: 2c1f c83e c210 64ba 0dfc 0c3d 26c8 b7bd
00000030: ffe8 af3c 9f06 063d 261f bd3d 5e33 f1bc
00000040: 388e 69bf 3b22 36bd 32d2 213e 55de 85bd
00000050: 0b19 f5bc c578 4d3d 69d7 983d fecc c83d
00000060: 2d65 653d 30b4 273e 70c7 ca3d 8bf3 343e
00000070: 268f 563d c56a 15be 815e 1f3d 798f 0e3d
00000080: 9b4e cb3d c0ee 003c 3abb b3bd 78e7 03bd
00000090: b539 75bd 855a 44b9 9bf2 ea3b 1f1a 3d3d
000000a0: 6ab2 253d 778f 6b3c 98af a83d adf4 a8ba
000000b0: 9b35 32bd 3187 2e3e 34ec b83d dbc1 1d3e
000000c0: a24c 183c 60ca b93d a954 97bc ad7c 7ebc
000000d0: 8556 4cbf 5b41 a83d 3e4e a9bc eff2 c63c
000000e0: 2715 3b3d 6d88 7fbe 1b25 0cbe 720f 1dbd
000000f0: dbb6 2abd a420 dcbd abe0 363e a0c3 103c
00000100: 2545 213e 564d 1bbd c311 c5bd 5483 4b3e
00000110: c681 113e 8885 623e 58ca 2b3d 0cc0 f43c
00000120: 99cd 0f3f fd9b a43d 8f71 263f 231b 693e
00000130: 35f4 103e 1ac1 6abe bca5 7ebd c26e 703d
00000140: 742b a73e 12cd 43bf 041c 043d cd28 273e
00000150: e0ad 97bd 18ba e13b f023 013d 8cfe 393f
00000160: 8cac cebc 5923 353e 7d6a b33a ee72 593f
00000170: 6a66 d3bd 1d32 02be 31b3 703d 7828 463d
00000180: fb8f b1bc 8012 193d 4447 c43d 6e9e 8abc
00000190: 3c28 2e3e 549e 8fbe 0b84 0c3e 38d8 1dbc
000001a0: 31b6 243e f632 5d3c c45b 433e 499e 213d
000001b0: 3f3f 343e 8791 f3be d9b1 d13d a0fc 5bbb
000001c0: 7f38 603d fc99 bb3d 4ebc 063e 2967 a53d
000001d0: 399f 7e3d d8aa ce3e 0962 403d 23de 5b3d
000001e0: f818 01be 1057 fcbd 6d81 123e 2e42 f43d
000001f0: 4ef9 ba3e 0e53 0bbd c61b 263e 043b 8e3e
00000200: 0b6e 46bd c5bf 91bc b7ad 4f3d 1789 3b3d
00000210: 3e67 833d a8ee ed3d 6647 6abd 20d7 64bc
00000220: 10e0 7bbd 870c 37be 3557 15be 7611 0dbe
00000230: 1c65 cbbd ca43 a3be d45e e1bd 8523 b7bc
00000240: 9c50 65be 8091 c63d 70bb e63c ccc8 31bd
00000250: 80ad 4a3d cfb1 1abe d04d d53d 22dc f3bd
00000260: e0ad cbbb 389b b3bd 4338 253d b5a2 a0be
00000270: d472 b7bd f1d1 0abd 008c a53d 7e87 e8bc
00000280: 78fd 8b3d d305 debd 4818 ebbc 7413 0b3d
00000290: 5720 763c c2a5 39bb 58af 873c b2b2 b0bc
000002a0: ef7f f1bd 4817 40bd 9a64 e1bd 67b3 f2bb
000002b0: e8fb 5c3d 0caa c3bd 8860 8f3c 30ce 6dbc
000002c0: 22dc 3ebe 3f24 15be 1c5e 6dbd 4707 11be
000002d0: 1015 463c b785 38be cb86 1bbe 0b99 36bd
000002e0: e094 f23c 4043 153c 0889 3bbe 0038 d53c
000002f0: 94f0 57bd c6c2 91bd 0072 08be 77fb 3bbe
00000300: 6429 f03d a99c c7bc c332 c43c c629 39bd
00000310: cb5f 7cbd f090 e8be 856c 0cbd c178 153d
00000320: 80cd 193c 4cb4 e13c 12b2 a5bd 3187 cbbd
00000330: ccc1 83bc 8652 8d3d 6cb7 893c dc20 fe3c
00000340: 53a1 54be b080 d6be 98c9 3a3e 3124 e7be
00000350: 4a42 32bd 9c70 813d 3dad cfbb b296 51be
00000360: 1a06 913d 8623 ab3c c99f edbd 2003 12be
00000370: 3623 dabc c71f b0bd d73b 413d 90a1 363c
00000380: d3c3 d53d 0ee8 f4bd acc2 8d3c cf6b 343d
00000390: 4404 323e 0eac cf3b 8711 6fbd ea8c 20be
000003a0: 91f0 6abd 30cd 10bd 6520 3fbd fda0 9c3c
000003b0: 36cb e03c cab2 b9be 203c 133e 6ed0 af3c
000003c0: 26c2 e8bd 5200 40bc 0007 3b3e cb61 3c3c
000003d0: 61a4 8fbe 56dd f2bd 130b 983d dbde 6b3c
000003e0: 67d5 2f3c adb7 23be cfaa c5bc 2e2b 603b
000003f0: ef00 d9bd 9539 1fbe 5a57 bbbc b4c9 8abd

bias f4 [32]
-0.06906773 -0.28902003 -0.1809135 -0.0021747355 0.078779 -0.034946647 -0.39526394 0.32049978
0.01021348 -0.095109634 -0.10319713 0.0720632 -0.06205165 0.17988491 -0.009204632 -0.24653465
0.2053305 -0.15831773 -0.27445933 -0.097074606 -0.058717698 0.0019688858 -0.1887525 0.23432168
0.48112082 0.017324794 -0.1536374 -0.33954877 0.14738871 -0.0006252244 -0.24281752 -0.36759877
00000000: 6273 8dbd 6ffa 93be 6341 39be 0286 0ebb
00000010: e256 a13d 3724 0fbd 0960 cabe 8c18 a43e
00000020: 7156 273c d7c8 c2bd 0459 d3bd df95 933d
00000030: df29 7ebd c033 383e 06cf 16bc 9473 7cbe
00000040: 2942 523e 0b1e 22be ef85 8cbe 0dcf c6bd
00000050: f881 70bd 6c08 013b 5648 41be 06f2 6f3e
00000060: 7855 f63e baec 8d3c 1f53 1dbe 56d9 adbe
00000070: 11ed 163e 19e6 23ba 28a5 78be e835 bcbe

weight f4 [16, 32]
-0.14268805 -0.054782793 0.089922234 0.08283681 0.124363124 -0.07559313 -0.17837818 -0.018053347
-0.021987231 0.08523644 -0.0035485139 0.0053841854 -0.14357255 0.10876771 0.09106225 0.0072613987
0.124187075 -0.08215163 0.23727241 0.09395964 0.06520298 0.008840423 -0.07978499 0.021569088
0.078035645 -0.10159465 -0.049753163 0.32162353 0.013976944 0.12622613 0.1807298 0.2462394
-0.047544952 -0.3456503 -0.34192604 0.068374835 -0.5787484 0.03463676 -0.07954544 -0.18248978
0.08018912 -0.11591771 0.022013342 0.22312333 -0.07455127 -0.20287366 0.08560695 0.33758035
-0.0051318035 -0.14531471 -0.07510453 0.1113018 0.4585002 -0.12590563 -0.17870471 0.2903228
0.15173799 -0.039133232 0.13757332 0.35388187 -0.030692473 -0.10924044 -0.25122184 -0.3695031
0.044973116 0.28648084 -0.03640019 -0.026161589 -0.3389306 0.034034897 0.25718445 -0.134061
-0.05870145 -0.1019685 0.09644644 0.34104764 0.53103656 0.00307908 -0.009958236 -0.20198677
0.05058054 -0.08023682 -0.25306305 0.15548535 0.3259496 0.06341834 -0.017049475 -0.21246421
0.18813962 0.17594649 -0.019701645 0.045861088 -0.00012668979 0.030310232 -0.25884315 0.10408295
0.04933063 -0.106557935 -0.16252866 0.042878438 0.52243096 0.062427618 0.100743465 0.37861103
-0.089343816 -0.083778866 0.03743915 0.27326524 -0.10443705 -0.30544934 -0.042683113 -0.11276439
0.0066727493 0.04443247 -0.34965083 0.0833386 0.16372395 0.08128623 0.22418815 0.42269132
-0.012463488 -0.015312408 -0.07926292 -0.21627487 -0.63367295 0.09964579 -0.08692818 -0.31001207
-0.017884372 0.25632563 0.27990335 -0.08964028 0.009752984 0.037227377 -0.017452342 -0.53068465
0.10537056 -0.0022731551 0.031716455 0.29021153 -0.28709623 0.09941977 0.13301359 -0.075096905
0.02621119 -0.1613533 0.36264282 -0.04030576 -0.38532454 0.06157872 0.02959894 0.31717753
0.49220112 -0.19538419 -0.12746868 -0.15558554 -0.22300667 0.066920124 -0.0561351 -0.12314074
0.16599464 -0.07504763 -0.098631 0.07673461 0.25835624 -0.1353154 0.13078533 -0.027393548
0.18019576 -0.096391365 -0.05443151 -0.21531253 -0.2548532 -0.19360164 0.12489951 -0.06574782
-0.4171426 -0.026758036 -0.14511509 0.07128288 0.30644768 0.041523486 0.010163759 -0.25376347
0.6503284 -0.099838294 0.017302908 0.014263165 0.27218106 0.12476334 0.08606389 0.36162597
-0.07416488 -0.25065053 0.13112898 0.00915536 -0.15760891 -0.064798824 -0.0006901737 0.27820852
-0.027873 0.017245483 -0.13894036 0.3921314 -0.36860445 0.18302792 0.09921719 -0.19908793
0.57263726 0.18694995 -0.17216879 0.16293126 -0.21061723 0.030432016 -0.060024355 -0.30633202
0.11821274 0.23233752 -0.040601898 -0.18724893 0.25764376 0.16923338 0.2271611 0.34107375
-0.088754535 0.44051275 -0.06748664 -0.017617954 -0.3160301 -0.09975179 -0.02690791 0.026934754
-0.05627782 0.040710147 0.11809729 -0.54429656 -0.44528395 0.1752597 0.2029793 -0.22266135
0.3324675 -0.10763473 0.23523763 0.0671556 0.47477454 -0.02101754 0.08626367 0.16810003
-0.08013936 -0.12551135 0.06388156 -0.21242954 -0.12717389 0.1983995 -0.24720904 -0.09000916
00000000: d11c 12be ec63 60bd 2629 b83d 58a6 a93d
00000010: 18b2 fe3d 92d0 9abd c5a8 36be 9de4 93bc
00000020: 911e b4bc 7190 ae3d 2f8e 68bb d26d b03b
00000030: af04 13be 9bc1 de3d d87e ba3d 07f1 ed3b
00000040: cb55 fe3d 1d3f a8bd 8af7 723e e96d c03d
00000050: 2489 853d 6cd7 103c 5066 a3bd a8b1 b03c
00000060: 27d1 9f3d db10 d0bd f9c9 4bbd d7ab a43e
00000070: 8dff 643c 6c41 013e 3c11 393e 2e26 7c3e
00000080: 7fbe 42bd 13f9 b0be ee10 afbe 1b08 8c3d
00000090: db28 14bf 46df 0d3d b8e8 a2bd 9ade 3abe
000000a0: 313a a43d 4466 edbd 5355 b43c 717a 643e
000000b0: 56ae 98bd 1dbe 4fbe b252 af3d 55d7 ac3e
000000c0: b028 a8bb 61cd 14be 67d0 99bd 33f2 e33d
000000d0: 8ac0 ea3e 68ed 00be 5efe 36be 31a5 943e
000000e0: 3461 1b3e 2b4a 20bd 05e0 0c3e 0130 b53e
000000f0: c86e fbbc 74b9 dfbd 26a0 80be 832f bdbe
00000100: bb35 383d 9ead 923e 5e18 15bd d450 d6bc
00000110: 5088 adbe 2d68 0b3d aead 833e 4947 09be
00000120: ee70 70bd dcd4 d0bd b685 c53d cc9d ae3e
00000130: 03f2 073f 64ca 493b de27 23bc 9fd5 4ebe
00000140: 8a2d 4f3d 3453 a4bd 7b91 81be 8d37 1f3e
00000150: dee2 a63e 7ae1 813d 57ab 8bbc 3890 59be
00000160: aca7 403e 512b 343e 5865 a1bc d6d8 3b3d
00000170: 08d8 04b9 2a4d f83c 1787 84be 7129 d53d
00000180: ea0e 4a3d 0c3b dabd ea6d 26be 4da1 2f3d
00000190: 09be 053f 1ab4 7f3d 9752 ce3d 4ed9 c13e
000001a0: e4f9 b6bd 4194 abbd cb59 193d 6ce9 8b3e
000001b0: 18e3 d5bd db63 9cbe 7dd4 2ebd 04f1 e6bd
000001c0: 14a7 da3b d2fe 353d 6f05 b3be 6ead aa3d
000001d0: 40a7 273e 6579 a63d 9491 653e ff6a d83e
000001e0: a833 4cbc e5e0 7abc 9954 a2bd 2977 5dbe
000001f0: 6438 22bf 1813 cc3d 6707 b2bd e7b9 9ebe
00000200: 3f82 92bc 1d3d 833e 7e4f 8f3e 5395 b7bd
00000210: fbca 1f3c bc7b 183d 37f8 8ebc f3da 07bf
00000220: 85cc d73d 37f9 14bb 1de9 013d 9b96 943e
00000230: 47fe 92be 989c cb3d b734 083e 68cc 99bd
00000240: d9b8 d63c cd39 25be 52ac b93e a717 25bd
00000250: 4249 c5be f839 7c3d 7a79 f23c 1865 a23e
00000260: c901 fc3e cb12 48be 2687 02be d151 1fbe
00000270: dc5b 64be 6b0d 893d ebed 65bd 3631 fcbd
00000280: 80fa 293e 92b2 99bd 0dff c9bd 0927 9d3d
00000290: 4547 843e 1f90 0abe 97ec 053e 6f68 e0bc
000002a0: 3d85 383e d668 c5bd 93f3 5ebd e37a 5cbe
000002b0: 1e7c 82be 823f 46be 50cb ff3d cba6 86bd
000002c0: b793 d5be ab33 dbbc 0d99 14be c2fc 913d
000002d0: b6e6 9c3e 8814 2a3d e585 263c 49ed 81be
000002e0: ec7b 263f 0578 ccbd d4be 8d3c 0db0 693c
000002f0: 515b 8b3e ec83 ff3d 4442 b03d 0a27 b93e
00000300: c2e3 97bd 4455 80be ad46 063e 5d00 163c
00000310: 3b64 21be 3fb5 84bd c6ec 34ba 5971 8e3e
00000320: eb55 e4bc 6646 8d3c 6246 0ebe 72c5 c83e
00000330: b9b9 bcbe ac6b 3b3e 6232 cb3d b5dd 4bbe
00000340: 5b98 123f cf6f 3f3e 044d 30be 74d7 263e
00000350: 0bac 57be 904c f93c 19dc 75bd 8dd7 9cbe
00000360: 8519 f23d e3e9 6d3e 2d4e 26bd 2fbe 3fbe
00000370: e2e9 833e 844b 2d3e eb9c 683e 38a1 ae3e
00000380: f0c4 b5bd e38a e13e 6f36 8abd 8753 90bc
00000390: b3ce a1be ab4a ccbd fa6d dcbc 46a6 dc3c
000003a0: 9283 66bd afbf 263d fedc f13d 0557 0bbf
000003b0: 42fc e3be 4777 333e ced9 4f3e 5601 64be
000003c0: 2e39 aa3e 996f dcbd 22e2 703e e088 893d
000003d0: a615 f33e fa2c acbc 02ab b03d 6a22 2c3e
000003e0: 1b20 a4bd 0c86 00be 56d4 823d 2187 59be
000003f0: df39 02be 3d29 4b3e 5e24 7dbe b956 b8bd

bias f4 [16]
-0.5988023 0.29828432 -0.87365305 -0.39316773 0.079386406 -0.2911734 -0.6885599 -0.13853374
0.5526495 0.1532501 0.06739617 0.533076 0.20933437 -0.31017613 0.48193318 0.24137451
00000000: 1c4b 19bf b9b8 983e baa7 5fbf 484d c9be
00000010: 5795 a23d ae14 95be 7645 30bf cadb 0dbe
00000020: 707a 0d3f 98ed 1c3e 0107 8a3d ab77 083f
00000030: c05b 563e 68cf 9ebe f2bf f63e e12a 773e

weight f4 [32, 16]
0.9201299 0.08407672 0.3327007 -1.1545305 -0.0931706 -0.75017637 0.13515654 -0.026555602
-1.2699033 -0.15350777 -0.30660102 1.422335 1.398216 1.2150484 0.6838937 -0.1461708
0.20109071 0.1180463 -0.29581016 -0.23499304 -0.013461679 0.019490449 -0.2077005 -0.35621753
-0.53544074 0.21826565 -0.573839 0.36680645 0.40228578 -0.1962762 -0.48673138 0.6723101
-0.103137255 0.060390294 0.30045542 0.5472612 0.03325846 0.46934596 -0.15755904 0.7786246
0.1605173 -0.11779473 -0.024899188 -0.3848868 -0.49361125 0.28175494 0.4427715 -0.91030157
-0.067423366 -0.06790181 0.08851016 -0.30123758 0.087806106 0.07299439 -0.3955731 0.16265051
0.38043836 -0.028911348 0.44564041 0.93366915 -0.08896121 -0.40449855 -0.71422005 -1.1858155
-0.111924194 0.0057295514 0.76266116 0.35934776 0.24736466 -0.40279272 0.86082447 -0.13152295
-0.18174072 -0.5050705 -0.026157033 -0.469392 0.38060808 -0.15282595 -0.10405646 -0.74611944
0.4446631 0.23066321 -0.8185954 -0.46463603 -0.24473757 0.15601024 -0.29918814 -0.20948404
-0.3710471 0.13154256 -0.35418856 0.25336516 0.28018382 -0.032332867 -0.036953706 0.39261526
-0.23080312 -0.3893678 0.2183388 1.0449 -0.023922333 0.2693126 1.0371777 -0.56834394
0.3968204 -0.3399371 0.045106538 0.31593463 -0.98454946 -0.09816068 0.19455265 -0.15605548
0.54097223 0.94510937 0.11792465 -0.08904299 -0.4283415 0.46983057 -1.2767233 -0.6816958
-0.086299635 0.84131104 -0.1503418 -0.37458473 -0.19685295 0.10050125 -0.19269489 -0.015258983
-0.48225042 -0.41708395 -1.0542892 -0.70488435 0.17317116 -0.7128419 -0.53141755 0.010817806
-0.1815269 -0.8150774 0.1364013 1.253061 -0.2065167 -0.39352226 -1.5631586 -0.07181918
0.06907639 0.29055136 -0.62850183 -0.8943821 0.23560244 -0.0824979 -0.24549222 -0.18153499
-0.008053612 0.18475251 0.061231975 0.5201387 0.19924344 -0.27427587 -0.21136698 0.17627537
-0.15245932 -0.3706333 0.40464222 0.82120466 0.5575578 0.14698377 0.18400343 -0.0895026
0.11993935 0.19560003 0.037658587 -0.049889356 0.77311 0.07453621 1.0753129 0.3014107
-0.02568003 -0.70885676 0.3646668 -0.8487943 -0.22954029 0.7825481 0.79817146 -0.5583394
-0.24604522 0.26031506 -0.07639226 0.048402812 0.076365024 0.4399398 0.9073477 0.5255389
0.19793725 0.10836363 -0.7057986 -0.73870546 0.12457002 0.0044309474 0.54003984 0.011982426
-0.5294531 -0.31567708 0.007489372 -0.34821045 0.44862217 -0.11588789 -0.43699172 -0.7053076
-0.12539284 -0.64055437 -0.31124887 -0.16394304 0.15929128 0.18605702 0.15706225 -1.0359422
-0.17639174 0.15351218 -0.033302166 -0.5507545 -0.7903798 0.009623657 0.1441665 -0.42663103
0.09190313 -0.23177971 -0.41984382 -0.9622591 -0.60909325 0.08971711 -0.41817895 0.61415327
-0.029379318 -0.035842653 -0.066365175 -0.060639493 -1.1399688 -0.021667693 -1.1953248 -0.7229451
-0.33853418 -1.2883463 0.89408094 0.477128 0.27049747 -0.23718628 -0.005894088 0.83224285
-0.33332747 -0.75647223 0.018240904 -0.06620646 -0.3607836 0.05369544 0.12142355 0.20305021
00000000: a28d 6b3f 6a30 ac3d bf57 aa3e a8c7 93bf
00000010: 3ad0 bebd 8f0b 40bf 7a66 0a3e 228b d9bc
00000020: 318c a2bf 2431 1dbe cffa 9cbe 130f b63f
00000030: bef8 b23f b586 9b3f a813 2f3f ccad 15be
00000040: b9ea 4d3e 42c2 f13d 6e74 97be 04a2 70be
00000050: 608e 5cbc 6faa 9f3c 71af 54be 2562 b6be
00000060: a512 09bf 0881 5f3e 1de7 12bf 0ece bb3e
00000070: 67f8 cd3e a1fc 48be db34 f9be 841c 2c3f
00000080: a039 d3bd d05b 773d 4bd5 993e 4f19 0c3f
00000090: 063a 083d 1d4e f03e 2857 21be f153 473f
000000a0: a65e 243e 5d3e f1bd 62f9 cbbc e20f c5be
000000b0: 9dba fcbe 2f42 903e f2b2 e23e 8609 69bf
000000c0: 4315 8abd 1b10 8bbd d144 b53d d03b 9abe
000000d0: b0d3 b33d 157e 953d 8f88 cabe db8d 263e
000000e0: d1c8 c23e 7ed7 ecbc fb2a e43e f104 6f3f
000000f0: 4b31 b6bd 6f1a cfbe 20d7 36bf cdc8 97bf
00000100: 8338 e5bd f6be bb3b c33d 433f 6efc b73e
00000110: 294d 7d3e d93a cebe fe5e 5c3f f4ad 06be
00000120: 3d1a 3abe 4d4c 01bf 4647 d6bc 2654 f0be
00000130: 10df c23e 687e 1cbe 8e1b d5bd af01 3fbf
00000140: e2aa e33e fa32 6c3e 788f 51bf c6e4 edbe
00000150: 7c9c 7abe 26c1 1f3e 302f 99be fc82 56be
00000160: e3f9 bdbe 18b3 063e 3458 b5be 14b9 813e
00000170: 4174 8f3e 786f 04bd c55c 17bd de04 c93e
00000180: a757 6cbe 375b c7be 3594 5f3e 48bf 853f
00000190: c5f8 c3bc 57e3 893e 3dc2 843f fd7e 11bf
000001a0: 0b2c cb3e 3c0c aebe a2c1 383d 2fc2 a13e
000001b0: 6f0b 7cbf 7708 c9bd cf38 473e 02cd 1fbe
000001c0: 287d 0a3f b0f2 713f 7b82 f13d 2c5c b6bd
000001d0: 944f dbbe a28d f03e ab6b a3bf 9e83 2ebf
000001e0: ddbd b0bd 2960 573f 33f3 19be 92c9 bfbe
000001f0: d293 49be 99d3 cd3d cf51 45be d000 7abc
00000200: 87e9 f6be 078c d5be f3f2 86bf 4d73 34bf
00000210: c853 313e cf7c 36bf fb0a 08bf 2b3d 313c
00000220: 30e2 39be eaa8 50bf c8ac 0b3e 4e64 a03f
00000230: 1d79 53be c07b c9be 9515 c8bf ef15 93bd
00000240: ec77 8d3d 26c3 943e 7fe5 20bf 3af6 64bf
00000250: c441 713e a9f4 a8bd 5062 7bbe 4fe4 39be
00000260: 4cf3 03bc c32f 3d3e 61ce 7a3d cf27 053f
00000270: 7906 4c3e e36d 8cbe 9670 58be 8881 343e
00000280: 4c1e 1cbe a6c3 bdbe 442d cf3e 783a 523f
00000290: 1cbc 0e3f ea82 163e 656b 3c3e 244d b7bd
000002a0: c3a2 f53d 604b 483e e43f 1a3d c858 4cbd
000002b0: 89ea 453f 71a6 983d daa3 893f 8152 9a3e
000002c0: ed5e d2bc a377 35bf 9bb5 ba3e 954a 59bf
000002d0: 9c0c 6bbe 1355 483f f754 4c3f 55ef 0ebf
000002e0: 47f3 7bbe 0448 853e 8c73 9cbd 0742 463d
000002f0: 4465 9c3d ca3f e13e f047 683f b889 063f
00000300: 10b0 4a3e c0ed dd3d 38af 34bf cd1b 3dbf
00000310: 911e ff3d 7b31 913b 0d40 0a3f f051 443c
00000320: 3d8a 07bf 6da0 a1be 6869 f53b a448 b2be
00000330: ceb1 e53e a156 edbd 61bd dfbe 0a8f 34bf
00000340: fb66 00be 5ffb 23bf 035c 9fbe afe0 27be
00000350: 411d 233e bb85 3e3e edd4 203e c199 84bf
00000360: 09a0 34be 4c32 1d3e da67 08bd 3ffe 0cbf
00000370: 5556 4abf 8bac 1d3c 62a0 133e 626f dabe
00000380: b537 bc3d a957 6dbe c5f5 d6be 9d56 76bf
00000390: 89ed 1bbf 9bbd b73d 8d1b d6be 2639 1d3f
000003a0: e5ac f0bc bfcf 12bd 77ea 87bd 1e61 78bd
000003b0: 7fea 91bf 7280 b1bc 6700 99bf ee12 39bf
000003c0: 5a54 adbe 88e8 a4bf 7de2 643f 1f4a f43e
000003d0: a57e 8a3e f6e0 72be 3223 c1bb de0d 553f
000003e0: e6a9 aabe 2aa8 41bf f36d 953c 4197 87bd
000003f0: a1b8 b8be c0ef 5b3d e9ac f83d 65ec 4f3e
