AE Models/multimodal.pth (torch, 223202 bytes, 39 tensors)

weight f4 [16, 1, 4]
0	0xbe99bfba	-0.30029088
1	0xbb8e000d	-0.004333502
2	0xbc2073d7	-0.009793243
3	0xbed15425	-0.4088451
4	0xc186a6aa	-16.831379
5	0xbdc89d76	-0.09795658
6	0xbced1564	-0.028940864
7	0xbc8316ae	-0.016002025
8	0xbeb98946	-0.36237544
9	0xbdb32b22	-0.08748461
10	0xbec11a60	-0.37715435
11	0xbdd6399b	-0.10460206
12	0xbe0cc1b5	-0.13745768
13	0xbe82f7a3	-0.25579557
14	0x3b0ef1e8	0.0021811668
15	0xbe6d9490	-0.23201203
16	0xbefd1d7c	-0.49436557
17	0xbe4eb05e	-0.20184466
18	0xbe3fbdb2	-0.18724707
19	0xbefd82c3	-0.49513826
20	0xbc71a36f	-0.014748438
21	0xbed7cc93	-0.42148265
22	0xbf8cb5ef	-1.0993022
23	0xbcc5237c	-0.024064772
24	0xbe91bc85	-0.2846414
25	0xbe784764	-0.24245983
26	0xbe94608e	-0.28979915
27	0xbe5982f3	-0.2124136
28	0x3d990434	0.07471505
29	0x3d159c37	0.03652593
30	0x3d27dcf3	0.040982198
31	0x3db7319e	0.089450106
32	0x3b2f7a70	0.002677586
33	0xbea52140	-0.3225193
34	0xbeb58155	-0.35450235
35	0x3c614a9d	0.013750699
36	0xbfdd4a4a	-1.7288296
37	0xc10ab90c	-8.670177
38	0xc05bd131	-3.434643
39	0xbf961d07	-1.1727608
40	0xbf4034f8	-0.75080824
41	0xbe4eb985	-0.20187958
42	0xbf06013a	-0.5234562
43	0x3cfac371	0.030610772
44	0xc23188a3	-44.383434
45	0xc1ccc6c7	-25.59706
46	0xbf3aa4d2	-0.72907746
47	0x3cb90b3c	0.022588365
48	0xbf24b464	-0.64337754
49	0xbd6b1741	-0.057395224
50	0xbf131724	-0.57457185
51	0xbf34f535	-0.70686656
52	0x3ea7af2b	0.3275083
53	0xbf502258	-0.81302404
54	0x3f5c152c	0.85969806
55	0xbec69ca1	-0.38791373
56	0xbf3aa045	-0.729008
57	0x3cd7ef3a	0.02635919
58	0xbf1f7055	-0.6228078
59	0xbeb9c827	-0.36285517
60	0xbebe5b0f	-0.37178847
61	0xbeb65ace	-0.35616153
62	0xbe33d098	-0.17560041
63	0xbf40f023	-0.7536642

bias f4 [16]
0	0xbf86c1f7	-1.0527943
1	0x3e8f18cf	0.27948615
2	0x3ed1c030	0.4096694
3	0xbe64f03c	-0.22357267
4	0xbca606a8	-0.020266846
5	0xbe23e837	-0.16006552
6	0xbc0f5df0	-0.008750424
7	0xbe2ae6a3	-0.16689543
8	0xbf371161	-0.71510893
9	0x3e9342ed	0.28761998
10	0xc0551c20	-3.3298416
11	0x3e956ce2	0.29184633
12	0xbdcdc6b2	-0.10047664
13	0xbbba7879	-0.005690631
14	0xbe7813de	-0.24226329
15	0x3e437001	0.19085695

weight f4 [16, 16, 4]
0	0xbdb27c53	-0.08715119
1	0x3cd90fab	0.026496729
2	0xbe1a2131	-0.15051724
3	0xbb8b0e8f	-0.004243679
4	0x3eb2469e	0.34819502
5	0xbde78bfe	-0.11305998
6	0xbf15ebad	-0.5856274
7	0x3e611968	0.21982348
8	0x3f323bd9	0.6962257
9	0xbfe0852a	-1.7540638
10	0xbf405175	-0.75124294
11	0x3f102dd0	0.56319904
12	0xbd3ce700	-0.046118736
13	0x3de32fbc	0.11093089
14	0x3dbdaf0a	0.09261902
15	0xbcc27ffc	-0.023742668
16	0x3dd075e6	0.10178737
17	0x3d5128e2	0.05106438
18	0x3e0c8297	0.13721691
19	0xbda02e01	-0.078212745
20	0xbeb39997	-0.35078117
21	0xbedb25df	-0.4280233
22	0x3cfd62df	0.030930934
23	0x3eb95b35	0.36202398
24	0xbeaa4dea	-0.3326257
25	0xbf56f73f	-0.8397102
26	0xbfdb48df	-1.7131613
27	0xbf7797bc	-0.96715903
28	0xbffd8c29	-1.9808398
29	0xbf66d199	-0.9016357
30	0x3e1a519b	0.15070193
31	0xbfac0750	-1.3439732
32	0xbd950aa1	-0.07277418
33	0xbdb84074	-0.089966685
34	0xbcca76f9	-0.024714934
35	0xb9b11aef	-0.00033780138
36	0xbf54e2c2	-0.83158505
37	0xc050d9ee	-3.2633014
38	0xc12ed80f	-10.927749
39	0xbf08e7d1	-0.53478724
40	0xbeda0396	-0.4258086
41	0xbe034f2f	-0.12823175
42	0xbec13056	-0.3773219
43	0xbf56ee63	-0.839575
44	0x3f828937	1.0198125
45	0xbdaf8a17	-0.085712604
46	0xc15ca6ff	-13.790771
47	0xbf86f4fb	-1.0543512
48	0xbf45636f	-0.7710485
49	0xbf4eb1b5	-0.8073991
50	0xbf32b5fb	-0.6980893
51	0xbe923f90	-0.2856412
52	0x3e5e8224	0.21729332
53	0xbdb91a86	-0.09038262
54	0x3e0d4aea	0.13798109
55	0x3d5f51a4	0.054521218
56	0xbe8e1cfc	-0.27756488
57	0xbf39fee7	-0.72654575
58	0xbe848650	-0.25883722
59	0xbe9088e8	-0.2822945
60	0x3e5da003	0.21643071
61	0xbf8977c0	-1.073967
62	0xbfadd6fe	-1.3581235
63	0x3f891e80	1.0712433
64	0x3d94d73f	0.072676174
65	0xbe23c421	-0.15992786
66	0xbd60ae92	-0.054853983
67	0xbd81f74e	-0.06345998
68	0xbdaac8ed	-0.08339105
69	0xbe44dfa9	-0.19225945
70	0xbd31d5e6	-0.04341688
71	0xbdbb3f98	-0.09142989
72	0xbd8449d3	-0.06459393
73	0xbe49b633	-0.1969841
74	0xbec1f598	-0.37882686
75	0xbef856af	-0.48503634
76	0xbd213fb0	-0.039367378
77	0x3d7b6f84	0.061385646
78	0xbd42652c	-0.047459766
79	0xbd87a36a	-0.06622966
80	0xbe12e64b	-0.14345662
81	0xbd4c3480	-0.049854755
82	0x3c9f7500	0.01946497
83	0xbe2b251e	-0.16713378
84	0xbd9a5d25	-0.07537297
85	0xbe85c923	-0.26130018
86	0x3cf6a5cd	0.030108357
87	0xbde698b6	-0.11259596
88	0xbe9c460a	-0.30522186
89	0xbd854c6e	-0.065087184
90	0x3cc5bca1	0.024137797
91	0xbe072f77	-0.132017
92	0xbed016d1	-0.40642408
93	0xbe8f3383	-0.27968988
94	0xbefd2c3b	-0.49447808
95	0x3c374663	0.011186215
96	0x3df9d535	0.12198869
97	0xbdeae949	-0.11470277
98	0xbc8b2144	-0.016983636
99	0xbe3493b1	-0.17634465
100	0xbc7abba8	-0.01530353
101	0xbd9f5127	-0.077791505
102	0xbd8ac8a0	-0.067765474
103	0x3cfc7fac	0.030822597
104	0xbc827714	-0.015925921
105	0xbe102c62	-0.1407943
106	0xb9983901	-0.0002903417
107	0xbd0f0552	-0.034917183
108	0xbe243e4a	-0.16039386
109	0xbe0516c5	-0.12996967
110	0xbda22d48	-0.07918793
111	0xbcaea66b	-0.021319589
112	0xbd8a3283	-0.067479156
113	0x3cc28f31	0.02374992
114	0xbd3a6275	-0.045504052
115	0xbe3bd4fa	-0.18342963
116	0xbe96188a	-0.29315597
117	0xbeb71dcc	-0.3576492
118	0xbed7dbf6	-0.42160004
119	0xbe94d2b2	-0.29066998
120	0xbe019b2b	-0.12656848
121	0xbe1043f1	-0.14088418
122	0xbe2f5e35	-0.17125781
123	0xbd9f43ec	-0.07776627
124	0x3d22f1d2	0.0397814
125	0xbcf8049d	-0.030275637
126	0xbc91254b	-0.017717978
127	0xbc35301f	-0.011058836
128	0xbd58d955	-0.05294164
129	0xbd76787f	-0.060173508
130	0xbd84dfc9	-0.06487996
131	0x3daa8008	0.08325201
132	0xbde691f6	-0.112583086
133	0x3bdfa0c1	0.0068245833
134	0xbd98919d	-0.074496485
135	0xbe097981	-0.13425256
136	0xbd552e44	-0.052046075
137	0xbe8a668a	-0.27031356
138	0xbf168188	-0.587914
139	0xbe8fa10e	-0.28052562
140	0xbd6dfc54	-0.058101967
141	0x3cfe9ef0	0.031081647
142	0x3b8e4b80	0.0043424964
143	0x3ddb232c	0.10700068
144	0x3dd49e4f	0.103817575
145	0xbd88c356	-0.066778824
146	0x3d394a54	0.0452369
147	0xbd3ff32f	-0.046862777
148	0xbe9a5b1a	-0.3014763
149	0xbe3228a8	-0.17398322
150	0xbcc267a1	-0.023731055
151	0x3d470b89	0.048594985
152	0xbde02a1a	-0.1094553
153	0xbc50ffc4	-0.012756292
154	0xbeef3f66	-0.46728057
155	0xbe8fcbec	-0.28085268
156	0xbf0cd21b	-0.55008096
157	0xbc9a3303	-0.018823152
158	0xbe23250d	-0.15932103
159	0xbe26eec9	-0.16302027
160	0x3d8003ed	0.06250749
161	0x3e1f881e	0.15579268
162	0xbd39cd11	-0.045361582
163	0xbdfbaed7	-0.122892074
164	0xbe006f6f	-0.12542509
165	0xbec48d6a	-0.3838914
166	0xbeb381da	-0.35060006
167	0xbe3b4fb3	-0.18292122
168	0xbd2a7746	-0.041617654
169	0xbe379995	-0.1792968
170	0x3d81b3d2	0.06333126
171	0xbd0f7c4c	-0.035030648
172	0x3abd7cff	0.0014456807
173	0xbec8db65	-0.39229885
174	0xbebe4eda	-0.37169534
175	0xbe26898e	-0.1626341
176	0xbd85e091	-0.06536973
177	0xb9ba033c	-0.00035479094
178	0xbe7d1b25	-0.24717386
179	0xbdea8ab8	-0.1145224
180	0xbea9e18d	-0.33179894
181	0xbe5576a9	-0.20846047
182	0xbdc0ce40	-0.09414339
183	0xbe7d729f	-0.24750756
184	0xbdcaceb5	-0.099027075
185	0xbd47eccd	-0.048809815
186	0xbe1592a6	-0.14606723
187	0x3d2ed150	0.042680085
188	0x3e0d4bb4	0.1379841
189	0xbea8ef66	-0.32995147
190	0xbef7f223	-0.48426923
191	0x3cd4ed3b	0.025992027
192	0xbcb1bad4	-0.021695532
193	0xbda5f315	-0.08103005
194	0x3d948968	0.07252771
195	0xbe17a5f2	-0.14809397
196	0xc0f9fdd6	-7.812236
197	0x3f48e37d	0.7847212
198	0x3f1b1994	0.60585904
199	0x3f19d278	0.60086775
200	0xc0da5e68	-6.824024
201	0x3f39a6ec	0.7252033
202	0x3ea9b399	0.33144835
203	0xbfd58ff3	-1.6684555
204	0xbc8662ce	-0.016404536
205	0xbcfd4c10	-0.030920058
206	0xbde831a0	-0.1133759
207	0xbdf469f9	-0.11934275
208	0xbe2315d1	-0.15926291
209	0xbe0f2835	-0.13980182
210	0xbdb1743b	-0.08664747
211	0x3d8a456b	0.06751522
212	0xbf1261db	-0.57180566
213	0xbdcf01d1	-0.10107768
214	0xbe076648	-0.13222611
215	0x3e974c69	0.29550484
216	0xc0321608	-2.7825947
217	0xbfd4dfcf	-1.6630801
218	0x3e05da73	0.13071613
219	0xbe6221c9	-0.220832
220	0xc1233cc7	-10.202338
221	0xc0388a7a	-2.883452
222	0x3e9cdc60	0.30636883
223	0x3d678e0e	0.05653196
224	0xbb9d9a13	-0.004809627
225	0xbde8e039	-0.11370892
226	0xbdf43f09	-0.119260855
227	0x3d4d8d0f	0.050183352
228	0xc0afe07e	-5.496154
229	0x3f5dae18	0.8659377
230	0x3f1ec778	0.62023115
231	0x3ecb5182	0.39710623
232	0xbdc72286	-0.09723382
233	0x3d35a0b7	0.044342723
234	0xbf8312de	-1.0240133
235	0xc005923e	-2.087051
236	0xc09d8300	-4.922241
237	0x4009a1f2	2.1505094
238	0x3fde5ea3	1.7372631
239	0x3fa40b37	1.2815922
240	0xbe5a1cff	-0.21300124
241	0xbcd5754b	-0.026056906
242	0x3dbaf914	0.09129539
243	0x3e817382	0.25283438
244	0xc1567795	-13.404195
245	0x3e3ff801	0.1874695
246	0xbd9f2ba2	-0.07771994
247	0xbd4ccba9	-0.049998913
248	0xbf163fd0	-0.5869112
249	0xbeaedeb6	-0.3415429
250	0x3d8d26c7	0.06892162
251	0xbc0f740c	-0.008755695
252	0xc0e04bf1	-7.00927
253	0xbeb39271	-0.35072663
254	0x3db18843	0.08668568
255	0x3f417cde	0.7558116

bias f4 [16]
0	0x3eebf9b3	0.46088943
1	0xbf04e6ae	-0.5191449
2	0xbf1f5e68	-0.6225343
3	0xbecc0893	-0.39850292
4	0xbeed7549	-0.46378544
5	0xbec91c93	-0.39279613
6	0x3f270bce	0.6525239
7	0xbf56785b	-0.837774
8	0xbf59fe08	-0.85153246
9	0xbf7c3204	-0.9851382
10	0x3df846ae	0.12122856
11	0xbddea602	-0.10871507
12	0x3e953a1c	0.29145896
13	0xbd88cc7b	-0.066796266
14	0xbee62519	-0.44950178
15	0xbead6cbc	-0.3387202

weight f4 [16, 16, 5]
0	0x3d6c3484	0.05766727
1	0x3e640cfb	0.22270577
2	0x3d7220b0	0.059113204
3	0x3dea6d7e	0.11446665
4	0xbf0af048	-0.5427289
5	0xbd677305	-0.056506176
6	0xbcc76aa5	-0.024342844
7	0xbe1055a7	-0.14095174
8	0x3d549010	0.0518952
9	0xbbdf3c27	-0.0068125906
10	0xbe09ddd3	-0.13463525
11	0xbd40e03a	-0.04708884
12	0xbd931394	-0.071814686
13	0xbdfb5f1c	-0.12274
14	0x3e33e943	0.17569451
15	0xbfbe5b4e	-1.4871614
16	0x3f344ce9	0.70429856
17	0x3df841bb	0.12121912
18	0xbd44c94a	-0.048043527
19	0xbef0905f	-0.46985146
20	0x3d3a896a	0.045541205
21	0xbe3b2c96	-0.18278727
22	0xbee7ea91	-0.45296147
23	0xbeae7a2d	-0.34077588
24	0x3d839a3b	0.064259015
25	0x3d561743	0.052268278
26	0xbdcccf9f	-0.10000538
27	0xbe5371db	-0.20648901
28	0xbec3b3ef	-0.38223216
29	0xbd544db7	-0.051831927
30	0xbe17caef	-0.14823507
31	0x3d7298ae	0.059227638
32	0xbd17214d	-0.036896992
33	0x397954a8	0.00023778027
34	0x3dcd729a	0.10031624
35	0x3e9afdf3	0.30271873
36	0x3ee6d654	0.45085394
37	0xbe4b4ef8	-0.19854343
38	0x3edf9b67	0.4367325
39	0x3e2284b9	0.15870942
40	0xbd034388	-0.032046825
41	0xbe99ec87	-0.3006327
42	0x3f1ea298	0.6196685
43	0xbeac2bad	-0.33627072
44	0xbedfe171	-0.43726686
45	0xbebcc0e9	-0.3686593
46	0xbe58a47a	-0.21156493
47	0x3edf38dd	0.4359807
48	0x3c6a78dc	0.014311042
49	0x3ef5ca56	0.48005933
50	0xbdc0d8f8	-0.094163835
51	0x3dda3003	0.10653689
52	0x3e88b533	0.26700744
53	0x3ea6d770	0.3258624
54	0x3def235c	0.11676666
55	0xbe1dd41a	-0.15412942
56	0x3e24aad4	0.16080791
57	0xbe9832a6	-0.29726142
58	0x3e99fa5a	0.30073816
59	0xbeddd09e	-0.43323225
60	0xbc820547	-0.015871657
61	0xbf5af61e	-0.85531795
62	0xbe9d64a8	-0.30740857
63	0xbda3875d	-0.07984803
64	0x3e9ee818	0.31036448
65	0xbecd35c5	-0.40080085
66	0xbf071b67	-0.5277619
67	0xbe981865	-0.29706112
68	0x3e9a52c4	0.3014127
69	0x3f20d9b6	0.628322
70	0x3d424204	0.04742624
71	0x3d720bac	0.059093162
72	0x3be2e55e	0.0069243154
73	0xbd7ec0db	-0.06219564
74	0xbeb3e484	-0.3513528
75	0x3f2c1e59	0.67233807
76	0x3e8e962b	0.27848944
77	0x3e4dce92	0.20098332
78	0x3e8afb73	0.27144966
79	0x3ec1824f	0.3779473
80	0xbe060532	-0.1308792
81	0xbd99fc39	-0.07518811
82	0xbc5097ba	-0.012731487
83	0xbe017100	-0.12640762
84	0xbde2387d	-0.110459305
85	0x3d6a8d58	0.057263702
86	0x3e4fd922	0.20297673
87	0x3e9abd1a	0.30222398
88	0xbdb10e55	-0.08645312
89	0x3efecb9c	0.49764717
90	0x3e089226	0.13337001
91	0x3e2befcd	0.16790695
92	0x3d9e0b7c	0.07717034
93	0x3e261ed3	0.16222696
94	0xbe7fcf09	-0.24981321
95	0xbdd173fa	-0.10227199
96	0x3ec1a204	0.3781892
97	0xc05329da	-3.2994294
98	0x3eb7ebcc	0.35922086
99	0xbfccfa95	-1.6013972
100	0xbf070f9c	-0.52758193
101	0x3e87e712	0.2654348
102	0xbe9372fe	-0.2879867
103	0xbde9cd50	-0.114161134
104	0x3dacefdd	0.08444188
105	0xbea21be6	-0.3166191
106	0x3d90910a	0.07058914
107	0xbd3e0b5e	-0.04639756
108	0x3d89efe4	0.06735209
109	0xbe01df78	-0.12682903
110	0x3e12776f	0.14303373
111	0x3e86a16f	0.2629504
112	0x3e80d6e9	0.25163963
113	0x3e98839c	0.2978791
114	0x3e920027	0.2851574
115	0xbccd4775	-0.025058487
116	0xbe8bcdc9	-0.2730544
117	0xbe8524db	-0.2600468
118	0xbd1d0b93	-0.038341116
119	0xbedf0214	-0.43556273
120	0xbd55c392	-0.052188464
121	0xbde72395	-0.112860836
122	0x3c945e20	0.018111289
123	0xbeb8eac0	-0.361166
124	0xbefa3a98	-0.48872828
125	0x3f10c603	0.5655214
126	0xbdc8e2de	-0.098088965
127	0xbda2ec28	-0.079551995
128	0x3f245ebb	0.6420705
129	0x3dbb1576	0.09134953
130	0xbe9859ee	-0.2975611
131	0xbe064c15	-0.1311496
132	0xbe74cf82	-0.23907283
133	0xbe1fa959	-0.15591945
134	0xbe231dd2	-0.15929344
135	0xbdce275e	-0.100661024
136	0xbf064b2d	-0.5245846
137	0xbd107479	-0.035267327
138	0xbcdbb890	-0.026821405
139	0x3f420047	0.75781673
140	0xbe992263	-0.29909047
141	0x3eb7e49e	0.3591661
142	0xbec21ef7	-0.3791425
143	0x3f02c014	0.5107434
144	0xbe68e7c3	-0.2274466
145	0xbe3153fe	-0.17317197
146	0x3b0bdbfc	0.0021340838
147	0x3cf65efe	0.030074593
148	0xbd94cf79	-0.07266135
149	0x3e3dcd28	0.18535292
150	0x3c08bb97	0.008345506
151	0x3d5b02f7	0.053469624
152	0x3dc2eaac	0.09517416
153	0x3e06b6ef	0.13155721
154	0xbe9fd7ac	-0.31219232
155	0x3d8f6e74	0.07003489
156	0xbdfa8c87	-0.12233835
157	0xbdd73688	-0.10508448
158	0xbd8f0ec3	-0.069852374
159	0xbdd859dc	-0.10564014
160	0x3c8d978e	0.017284181
161	0xc0df7f5e	-6.9842978
162	0x3f11d6a8	0.56968164
163	0xbe26d232	-0.1629112
164	0x3c180841	0.009279312
165	0x3d74c853	0.059761357
166	0xbdc44642	-0.09583713
167	0xbe509ccd	-0.20372315
168	0xbdde7615	-0.10862366
169	0x3ea09da4	0.3137027
170	0x3e2c8f6d	0.16851588
171	0x3dcbc55d	0.099497534
172	0x3d8b3caf	0.06798684
173	0x3e0988ca	0.13431087
174	0x3dc32725	0.095289506
175	0x3e1c2b0e	0.15250799
176	0xbe1c4294	-0.15259773
177	0xc01dec50	-2.4675484
178	0x3f1a076f	0.6016759
179	0x3eb667bc	0.35626018
180	0x3d5a31c6	0.053270124
181	0x3de46cce	0.11153565
182	0x3f02728a	0.5095602
183	0xbe87e4e4	-0.26541817
184	0x3e6422c5	0.22278889
185	0xbae57f4d	-0.0017509252
186	0x3ddfe325	0.10931996
187	0xbcde7a68	-0.027157977
188	0x3e02558c	0.12727946
189	0x3e242aaf	0.16031907
190	0xbd406069	-0.046966944
191	0x3d493c20	0.049129605
192	0x3d1391a4	0.036027566
193	0x3d9c4eb5	0.076322
194	0x3d1e8356	0.03869947
195	0xbf0c61b6	-0.54836595
196	0x3d7edc7e	0.062221996
197	0x3ebca0f2	0.36841542
198	0xbeafac36	-0.34311074
199	0x3ea51fcf	0.3225083
200	0x3e73d356	0.23811087
201	0xbda71114	-0.08157554
202	0xbe2870cf	-0.16449283
203	0xbda5d566	-0.08097343
204	0xbeaaf108	-0.33387017
205	0xbee68437	-0.45022747
206	0xbe2501f3	-0.16114025
207	0xbea0b837	-0.31390545
208	0x3e006064	0.1253677
209	0x3e2d8e18	0.16948736
210	0x3e0b0821	0.1357732
211	0x3e7516a3	0.23934416
212	0x3e1def00	0.15423203
213	0xbd7307af	-0.0593335
214	0xbb28a8cf	-0.0025735383
215	0xbdf6cd4d	-0.12050877
216	0xc0495aaf	-3.14616
217	0xbe9efdb0	-0.31052923
218	0xbde1e187	-0.11029344
219	0x3d374eff	0.04475307
220	0x3eccf673	0.40031776
221	0xc02a5c94	-2.6619005
222	0xbeddeac9	-0.4334319
223	0xbd0619e6	-0.032739542
224	0xbe377d62	-0.17918923
225	0xbed05728	-0.40691495
226	0x3f9da9eb	1.231748
227	0xbc902206	-0.017594349
228	0xbef5f446	-0.48037928
229	0xbe82fb04	-0.25582135
230	0x3e42cfdf	0.19024609
231	0x3c4b7eba	0.012420351
232	0xbd9d54dc	-0.07682201
233	0x3dced7fd	0.1009979
234	0xbb74d90c	-0.0037360815
235	0x3d874c75	0.0660638
236	0xbd6df94e	-0.058099084
237	0xbdb79abc	-0.0896506
238	0xbd8e7e63	-0.069577
239	0xbda11470	-0.07865226
240	0xbff4100a	-1.9067395
241	0x3ee39806	0.44451922
242	0xbfb40890	-1.4065113
243	0xbf62a7b0	-0.8853712
244	0xbf5ca9b9	-0.86196476
245	0xbe96589b	-0.29364476
246	0x3e93bb45	0.28853813
247	0x3e1f7d41	0.15575124
248	0xbe91ee34	-0.28502047
249	0xbd30fa9f	-0.04320776
250	0xbb0597b7	-0.0020384619
251	0x3da4ed23	0.08053043
252	0x3caf1e8f	0.021376876
253	0x3e024d35	0.12724765
254	0x3ee1a66d	0.44072285
255	0x3f64c3ba	0.89361155

bias f4 [16]
0	0xbe8afe48	-0.27147126
1	0xbe0d27b1	-0.13784672
2	0xbf26a164	-0.6509001
3	0xbfcfc2a8	-1.6231279
4	0x3d9a31cf	0.075290315
5	0xbd856210	-0.065128446
6	0xc00d7c0b	-2.210696
7	0x3f903ae2	1.126797
8	0x3ecfb023	0.4056407
9	0x3f52c3a0	0.8232975
10	0xbe6add34	-0.22935945
11	0x3f3d13ba	0.73858225
12	0xbf3c20dd	-0.73487645
13	0xbf9a69f1	-1.2063581
14	0xbddb6906	-0.10713391
15	0xbdbbf7ee	-0.09178148

weight f4 [16, 16, 5]
0	0x3e75b4f3	0.23994808
1	0xbe3f91ce	-0.18707964
2	0xbee53445	-0.4476644
3	0x3f2486d0	0.6426821
4	0x3f2cfd66	0.67574155
5	0x3bb99cc0	0.005664438
6	0xbe471dd4	-0.19444972
7	0x3b16cff7	0.002301214
8	0x3f0c0806	0.5469974
9	0xbf259e91	-0.6469508
10	0xbed17924	-0.40912735
11	0x3e26b077	0.16278253
12	0x3e148a6d	0.1450593
13	0x3e0669c8	0.1312629
14	0xbf6f88b5	-0.93567973
15	0xbdccc261	-0.09998012
16	0xbd562f8b	-0.052291434
17	0x3c38ccac	0.011279266
18	0xbe65cc55	-0.22441228
19	0xbeae7037	-0.34069988
20	0xbf2be283	-0.67142504
21	0xbf8fa78f	-1.122301
22	0x3f4ddd37	0.8041567
23	0x3f6d9aef	0.92814535
24	0xbfc458f2	-1.5339644
25	0x3f6e3dc6	0.9306301
26	0x3fa11c5b	1.2586778
27	0x3e7d70cf	0.24750064
28	0x3e1dc3fc	0.15406793
29	0x3eb468ed	0.35236302
30	0xbe93233e	-0.28737825
31	0xbf1accc6	-0.6046871
32	0xbc4e54bd	-0.012593445
33	0x3efbe659	0.4919918
34	0x3c4ddb52	0.012564497
35	0x3e41c6d8	0.18923509
36	0xbe5ce90d	-0.21573277
37	0x3e454807	0.19265758
38	0x3eaad2b3	0.33363876
39	0xbf1bf3fb	-0.6091916
40	0x3e20289f	0.15640496
41	0xbe1c9e31	-0.1529472
42	0x3c468688	0.012117036
43	0xbfc57d92	-1.5428946
44	0x3f0dac3b	0.5534093
45	0xbeab0ca7	-0.3340809
46	0xbe3559d4	-0.17710048
47	0xbdbf2090	-0.09332383
48	0xbdd7a157	-0.1052882
49	0xbd3d12f6	-0.04616066
50	0xbdef3937	-0.11680835
51	0xbdbac948	-0.091204226
52	0xbd2e1075	-0.042496163
53	0x3cbe5537	0.023233993
54	0xbd9b232d	-0.075750686
55	0xbcc7f42e	-0.024408426
56	0xbe8e6840	-0.2781391
57	0xbebc5dfd	-0.36790457
58	0x3dd87452	0.10569061
59	0xbd94d289	-0.07266719
60	0xbe1939cb	-0.14963453
61	0xbeebf855	-0.460879
62	0xbee65dc9	-0.44993427
63	0xbeb24146	-0.34815425
64	0xbed61a5a	-0.4181698
65	0xbe9d54c3	-0.3072873
66	0x3dc4b292	0.09604372
67	0xbf2d7439	-0.67755467
68	0xbf8fbecf	-1.1230105
69	0xbe085618	-0.13314092
70	0x3da97d3d	0.082758404
71	0x3d9b9124	0.07596043
72	0xbdb5c54a	-0.088755205
73	0xbd3419da	-0.043969966
74	0x3da01634	0.07816735
75	0x3e887adc	0.26656234
76	0xbe2b6a6d	-0.16739817
77	0xbfeab466	-1.8336303
78	0x4036770c	2.851016
79	0xbfcf575f	-1.6198539
80	0xbe707a22	-0.2348409
81	0xbf502f0e	-0.813218
82	0xbb473d6f	-0.0030401608
83	0xbdabb3b4	-0.08383885
84	0xbdd1c511	-0.102426656
85	0xbee626a8	-0.44951367
86	0xbefec99a	-0.49763185
87	0xbee540e1	-0.4477606
88	0xbdcc9510	-0.09989369
89	0x3ca2f409	0.019891756
90	0xbce4a85d	-0.027912313
91	0xbdd45616	-0.10367982
92	0xbea12e3a	-0.3148058
93	0xbe5826f7	-0.21108614
94	0xbea419e3	-0.32051
95	0xbdbf8c74	-0.09352961
96	0xbd8901dd	-0.066898085
97	0xbdd28d65	-0.10280875
98	0xbd6c505a	-0.057693817
99	0x3beb0b4d	0.007172978
100	0xbf232703	-0.637314
101	0xbf01ba01	-0.50674444
102	0xbf296c73	-0.66181105
103	0xbe9623d2	-0.29324204
104	0xbe8b96d2	-0.27263504
105	0xbeeb1ad7	-0.45918915
106	0xbe1a8404	-0.15089422
107	0xbe3cf747	-0.18453704
108	0x3aeb5f43	0.0017957467
109	0xbd216f44	-0.03941275
110	0xbe042418	-0.12904394
111	0x3d46f833	0.048576545
112	0x3dd79181	0.105257995
113	0x3e2c47ed	0.16824313
114	0x3cddc891	0.027073177
115	0xbdb2bc8c	-0.08727369
116	0xbdc4f3a4	-0.09616783
117	0xbe0ef291	-0.13959719
118	0xbc8e69f5	-0.017384509
119	0xbcb60400	-0.022218704
120	0xbea9642e	-0.33084244
121	0xbe801b75	-0.25020948
122	0xbc2df133	-0.010616588
123	0xbda9cef0	-0.08291423
124	0xbd803588	-0.0626021
125	0xbc823852	-0.015895996
126	0xbdc27c3d	-0.09496353
127	0xbd72d2dd	-0.059283126
128	0xbc371bd3	-0.011176067
129	0xbd34392c	-0.043999836
130	0xbe29aba0	-0.16569376
131	0xbe0b9f31	-0.13634945
132	0xbdd487ab	-0.10377439
133	0x3d2b8f64	0.041884795
134	0x3d1796b0	0.03700894
135	0xbe3d560f	-0.1848986
136	0xbd5ddec6	-0.05416753
137	0x3d37c7c1	0.044868235
138	0xbde8087e	-0.11329745
139	0x3ce645a9	0.028109388
140	0xbd8612e6	-0.06546573
141	0xbde5fffe	-0.11230467
142	0xbe18755a	-0.14888516
143	0x3d47fae7	0.048823263
144	0xbdae4836	-0.08509867
145	0xbdafc4b4	-0.0858244
146	0x3d24e164	0.04025401
147	0xbde45053	-0.11148133
148	0x3d4955ec	0.049154207
149	0xbe2c1b82	-0.16807368
150	0xbdb971d2	-0.090549126
151	0x3d39838e	0.045291476
152	0x3cf130d5	0.02944223
153	0x3c9321f3	0.017960524
154	0xbdf0588c	-0.11735639
155	0xbe1a2773	-0.15054111
156	0xbe246d6f	-0.1605737
157	0xbee59621	-0.44841102
158	0x3bedc693	0.007256338
159	0xbf1f974a	-0.62340224
160	0xbda85a2e	-0.082203254
161	0xbe8dfaa9	-0.277303
162	0xbec5c5d9	-0.38627508
163	0xbdd29173	-0.102816485
164	0xbe1f0824	-0.15530449
165	0xbdb1dcde	-0.08684705
166	0xbd7e5e37	-0.06210157
167	0xbc90f46f	-0.01769468
168	0xbe88ccf8	-0.2671888
169	0xbdb9fd27	-0.09081488
170	0x3c846d44	0.016165383
171	0xbd8b94bc	-0.06815478
172	0xbd56659a	-0.05234299
173	0xbe93cc3f	-0.28866765
174	0xbeabe79c	-0.3357514
175	0xbdb2b691	-0.08726228
176	0xbcfcaba9	-0.030843573
177	0xbd8ee983	-0.069781326
178	0xbe1f77f7	-0.15573107
179	0xbe3aaf84	-0.18231016
180	0xbd949f3a	-0.072569326
181	0xbe21ab91	-0.15788104
182	0xbcfbf0fe	-0.030754562
183	0xbd9ae297	-0.0756275
184	0xbe211f64	-0.15734631
185	0xbddf73aa	-0.10910733
186	0xbd9ac72a	-0.07557519
187	0xbe7bb1bf	-0.24579524
188	0xbe3ff090	-0.18744111
189	0xbda17851	-0.07884277
190	0x3c041ad2	0.008063035
191	0xbd462d95	-0.048383314
192	0x3c1c772c	0.009549897
193	0xbd8210b7	-0.06350844
194	0x3d1724ee	0.036900453
195	0xbd6bfc9e	-0.05761396
196	0xbe316cc0	-0.17326641
197	0xbe8194be	-0.25308794
198	0xbe9284a6	-0.28616828
199	0xbda8f2d2	-0.08249439
200	0xbca7f78e	-0.020503785
201	0xbda26f70	-0.07931411
202	0xbe291c52	-0.1651471
203	0xbe36f74d	-0.17867775
204	0xbe0bc9bf	-0.13651179
205	0xbdec8a3b	-0.11549803
206	0xbe61f3db	-0.2206568
207	0xbe02f684	-0.12789351
208	0xbe641a61	-0.22275688
209	0xbe0596e7	-0.13045846
210	0xbe2fb70c	-0.1715967
211	0xbe3da517	-0.18520008
212	0xbdd258e9	-0.102708645
213	0xbe2ffb73	-0.17185764
214	0xbe48e04e	-0.19616815
215	0xbd1c0514	-0.03809078
216	0xbe06efa7	-0.13177358
217	0x3b0602fe	0.002044856
218	0xbd605118	-0.054764837
219	0xbd726f5a	-0.059188224
220	0x3c66d9ab	0.014089982
221	0xbe21316e	-0.15741512
222	0xbe14c190	-0.14526963
223	0xbe52f953	-0.20602922
224	0xbce84fa5	-0.02835829
225	0xbd7795b5	-0.060445506
226	0x3cdd1bfa	0.02699088
227	0xbd214b10	-0.039378226
228	0xbd71c411	-0.059024874
229	0xbd7a11be	-0.061052077
230	0x3d278d48	0.04090622
231	0xbd4eac1c	-0.050457105
232	0xbbd311cd	-0.006441331
233	0xbcacb56b	-0.0210826
234	0x3dcb07cd	0.09913597
235	0xbd833be9	-0.06407911
236	0xbddd3563	-0.10801198
237	0xbbc692fd	-0.006060003
238	0x3da11b84	0.07866576
239	0x3d9e8ba5	0.07741479
240	0xbf32e646	-0.6988262
241	0xbeec05f4	-0.46098292
242	0xbe9a2f28	-0.30114102
243	0xbebe0427	-0.37112543
244	0xbf4cf431	-0.80060107
245	0xbec52e22	-0.3851176
246	0xbe8e2c87	-0.27768347
247	0xbf03eba2	-0.5153142
248	0xbf607051	-0.8767138
249	0xbf57a8d3	-0.8424198
250	0xbdd11561	-0.10209156
251	0xbd4177cf	-0.0472334
252	0x3d835b00	0.06413841
253	0xbd7fbfe3	-0.062438857
254	0xbe2abd95	-0.16673882
255	0xbdd28589	-0.10279376

bias f4 [16]
0	0x3ecce746	0.40020198
1	0xbf09a5a1	-0.53768355
2	0xbe2c156d	-0.16805048
3	0xbfac2b82	-1.3450778
4	0x3de4982c	0.11161837
5	0xbead9c43	-0.3390828
6	0xc0344247	-2.8165452
7	0xbf07cc74	-0.53046346
8	0xbeb250b0	-0.34827185
9	0x3eb817be	0.35955614
10	0xbe9b26cb	-0.30303034
11	0xbe4441ae	-0.1916568
12	0xbee63a89	-0.44966534
13	0xbe46dfdc	-0.19421333
14	0x3f3198a8	0.6937356
15	0xbe2fe3ab	-0.17176692

weight f4 [64, 112]
0	0xbef167b1	-0.47149423
1	0xbe1561b7	-0.14588057
2	0x3cf497c8	0.029857531
3	0xbeb6c5ed	-0.3569788
4	0xbd8259b4	-0.06364766
5	0xbd4a92cc	-0.049456403
6	0x3b19b6f3	0.0023454993
7	0xbe1b58df	-0.1517062
8	0xbe161d13	-0.14659528
9	0xbd9159ec	-0.07097229
10	0xbda9d07d	-0.08291719
11	0x3c679ee3	0.014137003
12	0xbcbab953	-0.022793448
13	0xbd1fac15	-0.03898247
14	0xbc7155e2	-0.014729949
15	0xbd8c2944	-0.06843808
16	0xbc1ec415	-0.009690304
17	0xbdb0d129	-0.08633644
18	0xbd2498c6	-0.04018476
19	0xbd70a06d	-0.058746744
20	0xbd96a171	-0.07355011
21	0x3c91659c	0.017748646
22	0x3ba41006	0.005006793
23	0x3db4d862	0.08830334
24	0xbc609886	-0.013708239
25	0xbccb4de5	-0.024817416
26	0x3daf7260	0.08566737
27	0x3d9a334a	0.07529314
28	0xbe0338b5	-0.12814601
29	0xbeb428ee	-0.35187477
30	0xbeb3443c	-0.35012996
31	0xbeee2f8d	-0.46520653
32	0xbde529d5	-0.111896195
33	0xbedf1c3e	-0.43576235
34	0xbdc7c6f3	-0.097547434
35	0x3ccbc6e5	0.024875114
36	0xbdcfed5f	-0.10152697
37	0xbdbefc14	-0.09325424
38	0xbda3fa3b	-0.08006712
39	0xbce440bc	-0.027862899
40	0xbd9b48ac	-0.075822204
41	0xbd21b0b2	-0.03947515
42	0x3c9da769	0.019244866
43	0xbb5151d5	-0.0031939645
44	0x3ba791a6	0.005113798
45	0xbd0bc48b	-0.034122985
46	0xbe0813e8	-0.13288844
47	0xbd848858	-0.06471318
48	0xbe09a468	-0.13441622
49	0xbc998d9f	-0.018744288
50	0xbe166004	-0.14685065
51	0xbe0a333a	-0.13496104
52	0xbd0bafdd	-0.034103263
53	0xbe0e7164	-0.13910443
54	0xbcd5bba3	-0.026090449
55	0xbe15012a	-0.14551225
56	0x3cfb3d2b	0.030668816
57	0xbde852ef	-0.11343943
58	0xbe61c623	-0.2204824
59	0xbeab0e32	-0.33409268
60	0xbd5323ff	-0.051548
61	0xbdf0d270	-0.11758888
62	0xbc0e7070	-0.008693799
63	0xbeba7142	-0.36414534
64	0xbeaa54b4	-0.33267748
65	0xbda17cbb	-0.078851186
66	0xbcb6900a	-0.02228548
67	0x3bc12ad5	0.0058949986
68	0x3c0ad736	0.008474162
69	0xbd41f233	-0.04735012
70	0x3bbb6dd5	0.00571988
71	0xbd02ce85	-0.031935234
72	0xbc400f9a	-0.01172247
73	0xbca30f2d	-0.019904697
74	0x3d8741b1	0.066043265
75	0x3db04f18	0.08608836
76	0x3d00c8eb	0.03144161
77	0xbd96f67a	-0.073712304
78	0x3b7ab29b	0.003825343
79	0xbdc5bcbe	-0.0965514
80	0xbd220fb9	-0.039565776
81	0xbb3bc562	-0.0028651585
82	0xbe001e87	-0.12511645
83	0x3d9e4ab3	0.077290915
84	0xbce3d34e	-0.027810719
85	0x3cc6e629	0.02427967
86	0x3b64869e	0.0034870277
87	0xbd1f533b	-0.038897734
88	0xbe11eab2	-0.14249685
89	0xbcca0486	-0.02466036
90	0xbda950a9	-0.08267338
91	0xbdee0bab	-0.11623319
92	0x3c9e7ceb	0.019346675
93	0xbd6d65d0	-0.057958424
94	0xbd8b32f3	-0.06796827
95	0x3b9d680c	0.004803663
96	0xbdb7476d	-0.0894917
97	0xbd454ca2	-0.048168786
98	0xbd1276ad	-0.03575771
99	0x3c5de024	0.013542209
100	0xbd094a2b	-0.033517998
101	0xbc4e2304	-0.012581591
102	0xbe9563db	-0.29177746
103	0xbec5c43d	-0.3862628
104	0xbeb9b7a1	-0.3627291
105	0xbe0a3fa3	-0.13500838
106	0xbd281e5a	-0.04104457
107	0x3c87725f	0.016534029
108	0x3b024731	0.001987886
109	0x3ce4f8e1	0.027950706
110	0xba80604d	-0.0009794325
111	0xbd8ac42e	-0.067756996
112	0x3b340593	0.0027469143
113	0xbddce528	-0.107858956
114	0xbe15af96	-0.14617762
115	0xbdb565ae	-0.088572845
116	0xbdbafba5	-0.09130029
117	0xbafcbf5d	-0.0019283105
118	0x3c8c7bba	0.017148841
119	0xbdb277ed	-0.0871428
120	0xbd562eba	-0.052290656
121	0xbdd98b09	-0.10622222
122	0x3c02108b	0.007938514
123	0xbd646728	-0.05576244
124	0x3ce410e5	0.027840087
125	0xbd8893bc	-0.06668803
126	0xbdd9324d	-0.10605297
127	0x3c26c12c	0.010177892
128	0x3c2992e0	0.010349959
129	0x3c0bb515	0.00852706
130	0xbe07204a	-0.13195911
131	0x39851d1a	0.0002538942
132	0xbcf67143	-0.030083304
133	0xbbfa4a4c	-0.0076382514
134	0xbd75609a	-0.05990658
135	0xbbd03ca6	-0.006354886
136	0xbd84381c	-0.064560145
137	0xbd052599	-0.03250656
138	0xbd5e78ff	-0.05431461
139	0xbdb8ebd7	-0.09029358
140	0xbda469f2	-0.0802802
141	0xbd2d6742	-0.042334802
142	0xbdc642e1	-0.09680725
143	0xbc134137	-0.008987716
144	0xbdbd91c5	-0.09256319
145	0xbda0e286	-0.07855706
146	0xbe09a46d	-0.1344163
147	0xbdd81c31	-0.10552252
148	0xbd67c418	-0.056583494
149	0xbde15363	-0.11002233
150	0xbe23aabc	-0.15983099
151	0xbd3fffc2	-0.04687477
152	0xbddd9aab	-0.10820516
153	0xbe0e6edb	-0.13909476
154	0xbd9d21d3	-0.07672467
155	0xbe5e9c40	-0.21739292
156	0xbdda3fcb	-0.10656699
157	0xbd5890b9	-0.052872393
158	0xbe0db7b2	-0.13839605
159	0xbe3a414b	-0.1818897
160	0x3e035dd6	0.12828764
161	0xbd73b65b	-0.05950008
162	0x3bae0405	0.0053105378
163	0xbe26a4fd	-0.16273876
164	0xbd0f628e	-0.0350061
165	0xbd2988ce	-0.041390233
166	0xbcf6cc8c	-0.030126832
167	0xbaa69543	-0.0012709278
168	0xbe0e6a1b	-0.13907664
169	0xbda25651	-0.0792662
170	0x3b275e48	0.0025538374
171	0xbd337232	-0.043810077
172	0xbdd4e33b	-0.10394903
173	0x3c073901	0.008253337
174	0xbd6acd65	-0.057324786
175	0xbe45b4b3	-0.19307213
176	0xbda67196	-0.081271335
177	0xbd6b1a12	-0.05739791
178	0xbdf17f00	-0.117918015
179	0xbb40984a	-0.0029387646
180	0xbd933e61	-0.07189632
181	0xbd55aa1a	-0.052164175
182	0xbdc0834e	-0.094000444
183	0x3d25d37d	0.040484894
184	0xbbb3295d	-0.0054675774
185	0xbdd92cb0	-0.106042266
186	0xba408d5a	-0.0007345282
187	0x3d07fda6	0.033200882
188	0x3c1093e4	0.008824322
189	0xbdc28eb2	-0.09499873
190	0xba0a6712	-0.0005279641
191	0xbdb89906	-0.09013562
192	0x3d290cb7	0.04127189
193	0x3d34ec6b	0.04417078
194	0x3d184b1a	0.037180997
195	0x3dac592b	0.08415445
196	0xbc7e5666	-0.015523529
197	0xbdf35165	-0.11880759
198	0xbdb52a02	-0.08845903
199	0xbb9f5438	-0.0048623346
200	0x3d260ac8	0.040537626
201	0x3d80f17e	0.06296061
202	0x3ca9079f	0.020633517
203	0xbd86180f	-0.065475576
204	0xbdc1918d	-0.0945159
205	0xbcf95f90	-0.030441076
206	0xbba7b398	-0.005117845
207	0x3b9e12b5	0.0048240074
208	0xbd9850e9	-0.074373074
209	0xbc895730	-0.016765207
210	0xbea7f002	-0.328003
211	0xbeb36065	-0.3503448
212	0xbea66807	-0.32501242
213	0xbeda6ceb	-0.42661223
214	0xbeace859	-0.33771017
215	0xbeb3bde5	-0.35105816
216	0xbecc3936	-0.39887398
217	0xbde3bc18	-0.111198604
218	0xbdae8c46	-0.08522849
219	0xbd673804	-0.056449905
220	0xbe0d2ba3	-0.13786177
221	0x3b954937	0.004555847
222	0xbd13d8f3	-0.03609557
223	0x3cd3e4f6	0.025866013
224	0xbdd22423	-0.10260799
225	0x3c895eb9	0.0167688
226	0xbdebcd78	-0.115137994
227	0xbc9690d2	-0.018379603
228	0xbdc21aa5	-0.09477738
229	0xbdf0bcef	-0.11754786
230	0xbd91e8ca	-0.07124479
231	0x3d05c212	0.032655783
232	0xbcbb4abc	-0.022862785
233	0xbe25628e	-0.16150877
234	0xbc27959d	-0.010228542
235	0xbe1fa6c0	-0.15590954
236	0x3b8fef57	0.004392545
237	0xbda7b3ee	-0.08188616
238	0x3d4de182	0.05026389
239	0xbde6139e	-0.112342104
240	0x3d35d9c8	0.044397146
241	0xbd1e80db	-0.038697105
242	0xbc7c8b3e	-0.015414057
243	0xbe0021f3	-0.1251295
244	0x3ce76b27	0.028249336
245	0xbd3662f8	-0.044527978
246	0xbdff36b5	-0.124616064
247	0xbde47260	-0.11154628
248	0x3d276238	0.040865153
249	0xbdf0ae79	-0.11752028
250	0xbb8f3eea	-0.0043715136
251	0xbdf12c39	-0.11776013
252	0xbd892792	-0.066970006
253	0xba98d3b3	-0.0011659771
254	0x3c06f854	0.008237917
255	0xbdac728d	-0.08420286

bias f4 [64]
0	0xbea54ec4	-0.32286656
1	0x3e8d97bc	0.27654827
2	0xbc6654c4	-0.014058296
3	0xbe96b77e	-0.29436868
4	0x3f983e0d	1.1893936
5	0x3f2ad0d3	0.6672489
6	0xbe9cc288	-0.30617166
7	0x3f165e0d	0.5873726
8	0xbdae2761	-0.08503605
9	0xbe7396ab	-0.23787944
10	0xbed9fc00	-0.42575073
11	0xbe2512fe	-0.16120526
12	0xbec10ff9	-0.377075
13	0xbd78d005	-0.060745258
14	0xbd8b5a9d	-0.068043925
15	0xbf2716c4	-0.6526911
16	0xbecb2495	-0.39676347
17	0x3e849dd6	0.2590167
18	0xbf723652	-0.94614136
19	0xbe8544d0	-0.26029062
20	0xbc25c509	-0.010117778
21	0xbdfe1268	-0.124058545
22	0xbe9f7062	-0.3114043
23	0xbdd7719c	-0.10519716
24	0x40378c35	2.8679326
25	0xbef33ae7	-0.47505876
26	0xbdd2d88f	-0.102952115
27	0xbe9d1cd2	-0.3068605
28	0xbed6938c	-0.41909444
29	0xbe9b4958	-0.30329394
30	0x3e07acf2	0.13249567
31	0xbe12152e	-0.14265892
32	0xbf4236d6	-0.75864923
33	0xbf20d069	-0.6281801
34	0xbd854d18	-0.06508845
35	0xbe85ea25	-0.261552
36	0xbe896a21	-0.26838782
37	0xbe1b7da0	-0.15184641
38	0xbe037523	-0.12837653
39	0xbe28bab0	-0.16477466
40	0xbe0a2056	-0.13488898
41	0xbd0df0ee	-0.034653597
42	0x3fe8df00	1.8193054
43	0x3c6976c5	0.014249508
44	0x402cd86d	2.7007096
45	0xbdb5b321	-0.08872057
46	0x3f968678	1.1759787
47	0xc026ec04	-2.6081553
48	0xbda4d447	-0.08048301
49	0x3d26524d	0.040605832
50	0xbeb3ea37	-0.3513963
51	0xbe322c04	-0.17399603
52	0x403320b4	2.798871
53	0xbdbf9639	-0.093548246
54	0x3ec124b5	0.37723318
55	0xbefa02ff	-0.4883041
56	0xbcba4f2f	-0.022742836
57	0xbf0770cc	-0.5290649
58	0xbea9086d	-0.3301424
59	0x3d06775a	0.032828666
60	0xbed92611	-0.42411855
61	0x400372fa	2.0538926
62	0x3f110ae5	0.5665725
63	0xbd030646	-0.031988405

weight f4 [32, 64]
0	0x3a25882e	0.0006314543
1	0xbd01087d	-0.031502236
2	0x3d309f8c	0.043120906
3	0xbe241d66	-0.1602684
4	0xbdc94d53	-0.098292015
5	0xbc78e246	-0.015190667
6	0xbe076801	-0.13223268
7	0xbe4e148e	-0.20125028
8	0xbd7870a0	-0.060654283
9	0xbd8cfe16	-0.068844005
10	0xbc2804cf	-0.010255053
11	0xbd496fd5	-0.049178917
12	0xbdd40d81	-0.10354138
13	0xbe3a6296	-0.1820167
14	0xbce22237	-0.027604206
15	0x3d3c2ef9	0.045943234
16	0xbe01b3c8	-0.12666237
17	0xbda48468	-0.08033067
18	0xbdceedb5	-0.10103933
19	0xbe1acdfd	-0.15117641
20	0xbcbda2b7	-0.023148878
21	0xbe02f046	-0.1278697
22	0xbcfd1843	-0.030895358
23	0xbd69b68d	-0.05705886
24	0xbde54c7f	-0.11196231
25	0xbda801b5	-0.082034506
26	0xbb59c69c	-0.0033229953
27	0xbdea6b51	-0.1144625
28	0xbd8bc884	-0.06825355
29	0xbd735382	-0.05940581
30	0xbc13cb8e	-0.009020699
31	0x3d3af402	0.04564286
32	0xbde5fda8	-0.11230022
33	0xbdee79fb	-0.1164436
34	0xbda7e46f	-0.08197867
35	0xbe175a58	-0.14780557
36	0xbe165e5b	-0.14684431
37	0xbe25b7b2	-0.16183355
38	0xbd955ae5	-0.072927274
39	0x3df445e6	0.119273946
40	0xbcbfe4d4	-0.023424543
41	0xbe0461a4	-0.12927872
42	0xbe08612f	-0.13318323
43	0xbd4589c3	-0.048227083
44	0xbe0348de	-0.12820765
45	0xbcfc0274	-0.030762888
46	0xbacfb449	-0.0015846576
47	0xbe38fb75	-0.18064673
48	0xbdaeb012	-0.085296765
49	0xbd7e1218	-0.062028974
50	0x3d4c2379	0.049838517
51	0xbe1eec53	-0.15519838
52	0xbe0e1523	-0.1387525
53	0xbb79a687	-0.0038093643
54	0xbca7ccae	-0.020483341
55	0xbe0ad037	-0.1355599
56	0xbdddcc92	-0.10830034
57	0xbdd07516	-0.10178582
58	0xbe059b46	-0.13047513
59	0xbd0f4669	-0.034979258
60	0xbde32c16	-0.11092393
61	0xbe3fc244	-0.1872645
62	0xbdb29e1c	-0.08721563
63	0x3b5d3048	0.0033750702
64	0xb93f2464	-0.00018228736
65	0xbea182fc	-0.31545246
66	0x3bb020bb	0.0053749955
67	0xbe3d2a9d	-0.18473287
68	0xbd350b1c	-0.044200048
69	0xbdbc7dea	-0.09203704
70	0xbc5d44be	-0.013505159
71	0xbea635a7	-0.32462808
72	0xbd5ee1d8	-0.0544146
73	0xbe37a7f9	-0.1793517
74	0x3d1ea49f	0.038731214
75	0xbd796e2d	-0.060896087
76	0x3bc5542d	0.0060219974
77	0xbe1a3fe3	-0.15063433
78	0xbe257bb2	-0.16160467
79	0xbd2e1bf1	-0.042507116
80	0xbc66d28d	-0.014088285
81	0xbe0c313f	-0.13690661
82	0x3d04912a	0.032365
83	0x3d98c836	0.07460062
84	0x3d5eb6c1	0.054373506
85	0xbdf0cb07	-0.117574744
86	0xbe33ed8f	-0.1757109
87	0x3d361b40	0.04445958
88	0xbdc5f68c	-0.09666166
89	0xbe5501fe	-0.20801541
90	0xbe2d1990	-0.16904283
91	0xbd9cee15	-0.07662598
92	0xbe0fefaa	-0.14056268
93	0xbe01c010	-0.12670922
94	0xbc3aa8b9	-0.011392766
95	0x3de63942	0.1124139
96	0x3b6850d2	0.0035448563
97	0xbe0e0cc3	-0.13872056
98	0x3c13de2a	0.009025136
99	0x3d5d5cc5	0.05404355
100	0xbdb822fb	-0.08991047
101	0xbe134d7d	-0.14385028
102	0xbdda2f31	-0.10653532
103	0xbdb44fc2	-0.08804275
104	0xbd3b0dfb	-0.04566763
105	0x3d83e842	0.06440784
106	0xbf21f0b6	-0.6325792
107	0xbe07ac08	-0.13249218
108	0xbee1e0c2	-0.4411679
109	0xbd9469dc	-0.072467536
110	0xbd998059	-0.074951835
111	0xbdb9040b	-0.09033974
112	0xbe0c849a	-0.13722458
113	0xbde86bd9	-0.11348695
114	0x3d3ba7ca	0.045814313
115	0xbce5f56d	-0.02807113
116	0xbe3c63c9	-0.1839744
117	0x3ac200c5	0.0014801255
118	0xbebb12c4	-0.36537755
119	0xbed9b369	-0.42519692
120	0xbe3ff30b	-0.18745057
121	0xbe01692e	-0.12637779
122	0xbd6a7504	-0.0572405
123	0xbdeebcab	-0.11657079
124	0xbd0ca6d2	-0.03433878
125	0xbe4a647b	-0.19764893
126	0xbd36b63d	-0.04460739
127	0x3b952978	0.0045520626
128	0x3d89c5f6	0.06727211
129	0x3c8e4fa2	0.017371956
130	0x3da80f3e	0.08206032
131	0xbd7a4444	-0.06110026
132	0xbea3c302	-0.31984717
133	0xbeab9696	-0.33513325
134	0x3dfffe83	0.12499716
135	0xbeccd580	-0.40006638
136	0xbd959335	-0.07303468
137	0xbe882869	-0.2659333
138	0xbe02e9f2	-0.12784556
139	0x3c9f00ca	0.019409556
140	0xbd893153	-0.06698861
141	0xbd9c1c6c	-0.076226085
142	0xbde4d7e8	-0.11173993
143	0xbc48d47f	-0.012257694
144	0x3b8941f5	0.004188771
145	0xbcbda4a6	-0.0231498
146	0xbd0a0bac	-0.033702537
147	0xbdee7673	-0.11643686
148	0xbd290017	-0.04125985
149	0xbd63b3c9	-0.05559138
150	0xbe39ff70	-0.18163848
151	0x3e140956	0.14456686
152	0xbd2d69ee	-0.04233735
153	0x3d20443b	0.03912757
154	0x3e3392fb	0.17536537
155	0xbd180f48	-0.03712395
156	0xbe2aac7e	-0.16667363
157	0xbe21f1fe	-0.15814969
158	0xbdd262c9	-0.10272748
159	0x3ddb52d0	0.107091546
160	0xbe9e6adb	-0.309409
161	0xbe5d8d31	-0.21635891
162	0x3c97596b	0.018475255
163	0xbe181302	-0.14851001
164	0xbc317dd6	-0.010833224
165	0x3e171bdf	0.14756726
166	0x3aabfe55	0.0013122062
167	0x3daa2968	0.08308679
168	0x3dece32c	0.11566767
169	0x3c3f2de9	0.011668661
170	0xbebc6cf3	-0.36801872
171	0xbded8330	-0.11597288
172	0xbee3f3bc	-0.44521892
173	0xbdb9f37b	-0.09079643
174	0xbefc9b51	-0.49337247
175	0xbbfabd60	-0.00765197
176	0x3ca2b82c	0.01986321
177	0xbc9714ae	-0.018442478
178	0xbe0d6f86	-0.13812074
179	0xbe0035ef	-0.12520574
180	0xbe175523	-0.14778571
181	0x3d70b272	0.05876393
182	0xbe1a25b8	-0.15053451
183	0x3d9058e3	0.07048204
184	0x3a3e9ae4	0.00072710053
185	0x3d79013e	0.0607922
186	0xbea3a651	-0.31962827
187	0x3c71de3e	0.014762459
188	0xbd2af405	-0.04173662
189	0xbf006caf	-0.5016584
190	0xbe1f6851	-0.15567137
191	0xbe0fbfdd	-0.14038034
192	0x3e81d09a	0.25354463
193	0x3d8c7a4f	0.06859266
194	0x3d306a64	0.043070212
195	0x3e1a72b0	0.15082812
196	0xbd9eb5d3	-0.07749524
197	0x3f36f1b2	0.7146255
198	0x3e8e8fa5	0.27843967
199	0x3e7f58b2	0.24936178
200	0xbc6fe244	-0.014641348
201	0xbecbd762	-0.39812762
202	0xbd303366	-0.043017767
203	0x3de38195	0.111087
204	0xbdee4a67	-0.11635285
205	0x3c98c5e7	0.018649055
206	0x3d42eb1d	0.047587503
207	0x3e9cd3fc	0.3063048
208	0xbe784155	-0.24243672
209	0xbe215c2f	-0.15757822
210	0x3ef414f6	0.47672242
211	0x3e331110	0.17486978
212	0x3b83ce37	0.0040223855
213	0x3e47610c	0.19470614
214	0xbe9bc0d6	-0.3042056
215	0x3dea8aee	0.1145228
216	0xbcbc8c58	-0.02301614
217	0x3e066b46	0.13126859
218	0x3e2e6a63	0.17032771
219	0xbe6527ae	-0.22378418
220	0x3eb0320c	0.34413183
221	0x3d8d833a	0.06909795
222	0x3cf537da	0.029933859
223	0x3db6f666	0.089337155
224	0x3f265102	0.6496736
225	0x3e00796f	0.12546323
226	0xbe479913	-0.19491987
227	0xbd397805	-0.045280475
228	0x3d26d13e	0.040726893
229	0x3c266645	0.010156219
230	0xbe054808	-0.13015759
231	0x3ddcc6fd	0.107801415
232	0xbd387560	-0.045033813
233	0x3db27cdc	0.08715221
234	0x3f2f67c9	0.6851774
235	0x3d98cc1a	0.07460804
236	0xbe215712	-0.15755871
237	0xbe09c3f7	-0.13453661
238	0x3de11d92	0.10991968
239	0x3f7b7be5	0.98235923
240	0xbd3a8d32	-0.04554481
241	0x3d3e7222	0.046495564
242	0xbde1279e	-0.109938845
243	0xbde07ba1	-0.1096108
244	0x3ebfcb55	0.37459818
245	0xbd83eb06	-0.064413115
246	0x3e0f9ee4	0.14025456
247	0x3ebdf490	0.3710065
248	0xbe86ca0e	-0.2632603
249	0x3d5d6b28	0.05405727
250	0x3e2ab1bf	0.16669367
251	0xbe4a1c4e	-0.1973736
252	0x3e9d3f1a	0.30712205
253	0x3de27c6a	0.11058886
254	0xbdec1e84	-0.11529258
255	0x3d094f06	0.03352263

bias f4 [32]
0	0xbcfcc688	-0.030856386
1	0xbd9c9a28	-0.076465905
2	0xbefb17be	-0.4904155
3	0x3fb55261	1.4165765
4	0xbda6ad82	-0.08138563
5	0x404fd61a	3.2474427
6	0x3f9330ba	1.1499245
7	0xbdacda43	-0.084400676
8	0xbe67e3f9	-0.22645558
9	0x4008a9fb	2.1353748
10	0xbd9e93e3	-0.07743051
11	0xbe60a8d3	-0.21939401
12	0x3f41b10b	0.7566077
13	0xbefb662c	-0.49101388
14	0xbed871ae	-0.4227423
15	0xbeaa339a	-0.33242494
16	0x3fb5693b	1.4172739
17	0xbea84028	-0.32861447
18	0xbecbbfae	-0.39794677
19	0x3e5e0b75	0.21684058
20	0xbead1afc	-0.3380965
21	0xbe8974cc	-0.2684692
22	0x3d4ff6d9	0.05077252
23	0xbcfd3aba	-0.030911792
24	0xbe22e18f	-0.15906356
25	0xbe9ba8d5	-0.30402246
26	0xbd9792bc	-0.07401034
27	0xbe911992	-0.2833982
28	0xbec5db90	-0.38644075
29	0xbdcb9375	-0.099402346
30	0xbf095424	-0.53644013
31	0xbec41a71	-0.38301423

weight f4 [16, 32]
0	0xbd8f1cb9	-0.069879
1	0x3ba010f4	0.0048848335
2	0xbe5eb22e	-0.21747658
3	0xbea3257f	-0.31864545
4	0xbcca8a48	-0.02472414
5	0xbe14b6ba	-0.1452283
6	0xbdd02c90	-0.101647496
7	0xbe87aa95	-0.2649733
8	0x3d0af134	0.033921435
9	0xbea18f86	-0.31554812
10	0xbd4432f3	-0.04790015
11	0xbea202a7	-0.3164265
12	0x3e060d23	0.13090949
13	0x3e4f65e3	0.2025371
14	0xbe2f401f	-0.17114304
15	0xbe84bb5d	-0.25924197
16	0x3f5fea1b	0.8746659
17	0x3de0410c	0.10949907
18	0x3e5f9a0d	0.2183611
19	0x3de125f7	0.10993569
20	0x3e249ce2	0.16075471
21	0x3ddbe832	0.10737647
22	0x3d5b33ea	0.053516306
23	0x3b90e8c5	0.0044222795
24	0x3c246007	0.01003266
25	0xbee833b1	-0.45351937
26	0xbda3f549	-0.08005769
27	0xbd44d741	-0.048056845
28	0xbd9758be	-0.07389973
29	0x3e95225b	0.29127774
30	0xbef2dd04	-0.47434247
31	0xbe02eb13	-0.12784986
32	0x3dc287eb	0.094985805
33	0xbc79349f	-0.0152103
34	0xbe5b4f06	-0.21416864
35	0x3bd755cc	0.006571507
36	0xbe3f246b	-0.18666236
37	0xbc8fb31d	-0.017541463
38	0x3cfa6fdd	0.030570919
39	0x3c95790a	0.018246192
40	0x3e43adff	0.19109343
41	0xbbffe88e	-0.007809705
42	0xbc584960	-0.013201088
43	0xbdb3a0ed	-0.087709285
44	0xbb9184e6	-0.0044408916
45	0x3e806f5d	0.25084963
46	0x3dcde70e	0.10053836
47	0x3da9d5b1	0.082927115
48	0xbb6bc7e0	-0.003597729
49	0xbdcba2aa	-0.09943135
50	0xbebc9187	-0.3682978
51	0xbdfff472	-0.12497796
52	0x3ee2d571	0.44303468
53	0xbe87557f	-0.26432416
54	0xbeaeea44	-0.34163105
55	0xbe125585	-0.14290436
56	0xbe482f46	-0.19549283
57	0x3de9f326	0.1142333
58	0x3e4af68e	0.19820616
59	0x3e12abf9	0.14323415
60	0xbe16d57d	-0.14729877
61	0xbcffe8c7	-0.031238927
62	0xbe0a2cb2	-0.13493612
63	0x3e87248d	0.26395074
64	0xbce4f303	-0.027947908
65	0xbe5739f5	-0.21018203
66	0xbd91f348	-0.0712648
67	0x3b504fc8	0.0031785835
68	0x3e50b19a	0.2038025
69	0xbc1e1fee	-0.009651167
70	0x3c0587e6	0.0081500765
71	0xbd1e16c5	-0.038595933
72	0x3e0bc94d	0.13651009
73	0xb9e9adde	-0.00044570764
74	0xbc32040d	-0.010865224
75	0x3d9c58d6	0.076341316
76	0x3bf22c2e	0.0073905205
77	0xbe9e1cf0	-0.30881453
78	0xbe918443	-0.2842122
79	0x3e82326a	0.25429088
80	0xbc0cc6a6	-0.008592283
81	0x3e5026d0	0.20327306
82	0xbe72fe31	-0.23729779
83	0x3ce48041	0.027893187
84	0x3ef68983	0.48151788
85	0x3cf52578	0.029925093
86	0x3db1f8e2	0.08690049
87	0x3d3c0f84	0.045913234
88	0xbd6ae837	-0.057350364
89	0x3ef4974f	0.4777169
90	0x3e2ea8cc	0.17056578
91	0xbdd070f6	-0.101777956
92	0xbe540fb5	-0.20709117
93	0x3dd33493	0.10312762
94	0x3ebd9b75	0.37032667
95	0x3b654079	0.0034981056
96	0xbe17a17c	-0.14807695
97	0x3cdfc9ac	0.027317844
98	0x3d2eb3ad	0.04265182
99	0xbba645bd	-0.0050742314
100	0xbe40a772	-0.18813875
101	0xbb407741	-0.0029367956
102	0x3d37dd77	0.04488894
103	0xbe6aaed2	-0.22918251
104	0xbcc540f1	-0.024078818
105	0x3c9bd290	0.019021302
106	0x3b91cf2c	0.0044497456
107	0x3e6293f8	0.22126758
108	0xbc740bae	-0.014895363
109	0x3e01c7ca	0.1267387
110	0xbe0385a1	-0.12843944
111	0xbe8ff4b3	-0.28116378
112	0x3b6b8a4a	0.003594058
113	0x3d1e8de5	0.03870954
114	0x3e1ae3d7	0.15125977
115	0xbcd73829	-0.026271896
116	0x3db60f2e	0.08889614
117	0xbe2296ef	-0.15877889
118	0x3d928d3e	0.07155846
119	0x3e0d3ded	0.13793154
120	0xbda00f05	-0.07815365
121	0x3e52af09	0.20574583
122	0x3d4d2ca8	0.050091416
123	0x3e43b010	0.19110131
124	0x3e40ed92	0.18840626
125	0xbdc533c9	-0.09629018
126	0xbeacf7c5	-0.33782783
127	0x3c6e0ae0	0.01452896
128	0x3d7732cd	0.06035118
129	0x3e77a184	0.24182707
130	0xbe511606	-0.20418558
131	0xbab58f54	-0.0013851919
132	0x3de05269	0.109532185
133	0x3c2999ad	0.010351581
134	0xbfb15b56	-1.3855999
135	0x3e910e4e	0.28331226
136	0x3e83eb63	0.25765523
137	0xbc656614	-0.014001388
138	0xba8c5382	-0.001070604
139	0xbe91dd8b	-0.28489336
140	0xbb525961	-0.003209673
141	0xbd507a44	-0.05089785
142	0xbe8f3f38	-0.2797792
143	0xbe81625d	-0.25270358
144	0xbc5eac9e	-0.01359096
145	0xbd8d3498	-0.06894797
146	0xbe9b0b7b	-0.30282196
147	0x3ddda15f	0.10821795
148	0xbec7b9a5	-0.39008823
149	0xbd6057fc	-0.05477141
150	0xbecf3b00	-0.404747
151	0x3e10f35a	0.14155331
152	0xbde0f4bf	-0.109841816
153	0x3f194246	0.5986675
154	0x3e1336f1	0.14376427
155	0x3d8abf59	0.06774778
156	0x3db7d911	0.08976949
157	0xbe7a600e	-0.24450704
158	0xbec39065	-0.38196102
159	0x3f06ab13	0.5260479
160	0xbd04f8de	-0.0324639
161	0x3b10fcfc	0.0022123447
162	0x3e9d0241	0.30665782
163	0xbc16717d	-0.009182331
164	0x3e9e2ce6	0.3089363
165	0x3b51e7c2	0.0032029008
166	0x3c553f37	0.01301556
167	0xbd540c86	-0.051769756
168	0x3e1792f5	0.14802153
169	0x3bdc2833	0.0067186593
170	0x3ad708aa	0.001640578
171	0xbed234fe	-0.41056055
172	0x3b9350e5	0.0044957274
173	0x3e91aed6	0.28453702
174	0xbd0a15e8	-0.033712298
175	0xbedc4ecf	-0.43028876
176	0xbb11157b	-0.0022138047
177	0x3de0817f	0.109621994
178	0x3df7a5f1	0.12092198
179	0x3de6d300	0.11270714
180	0xbe70b7fc	-0.23507684
181	0xbeb22bd2	-0.34799057
182	0x3e894ffb	0.26818833
183	0xbdc8e395	-0.09809033
184	0xbea5cac7	-0.3238127
185	0x3e076cd6	0.13225111
186	0x3caae567	0.02086134
187	0xbd1eed6b	-0.03880064
188	0xbd609082	-0.054825313
189	0x3c0d0473	0.008607018
190	0xbed63bb2	-0.4184242
191	0xbe2b96ee	-0.16756794
192	0x3d020a4b	0.031748097
193	0xbdade23e	-0.08490418
194	0x3edde1a6	0.4333622
195	0xbe5f6de8	-0.2181927
196	0xbedbb6a7	-0.4291279
197	0xbe27ccea	-0.16386762
198	0x3dd0e7fd	0.10200498
199	0xbdcd1325	-0.10013417
200	0x3e4cc3ea	0.1999661
201	0xbd4c7802	-0.049919136
202	0x3f54abb7	0.83074516
203	0xbcacd270	-0.021096438
204	0x3e1c984d	0.15292473
205	0xbe85549f	-0.26041123
206	0x3bbb3d01	0.0057140593
207	0xbdaca152	-0.08429207
208	0xbdd179d8	-0.10228318
209	0x3aeb9fa9	0.001797666
210	0xbea708ec	-0.32623994
211	0xbe5c21eb	-0.21497314
212	0x3e7cbada	0.24680653
213	0xbea6b770	-0.32561827
214	0xbdbade76	-0.09124462
215	0xbd864fdb	-0.065582
216	0xbe51c95b	-0.20486967
217	0xbeaff496	-0.34366292
218	0xbdb2a712	-0.087232724
219	0xbdc52369	-0.096258946
220	0xbe436bb8	-0.1908406
221	0xbd736f97	-0.059432592
222	0x3e9fa8c6	0.3118345
223	0x3d8887ed	0.06666551
224	0x3d9065cd	0.07050667
225	0x3dce0115	0.100588
226	0xbe28d3d8	-0.16487062
227	0x3c751b03	0.014960053
228	0xbef64e8e	-0.48106807
229	0xbbefd869	-0.0073194993
230	0x3d54de9a	0.051970102
231	0x3c42aaec	0.011881571
232	0x3e0425a2	0.12904981
233	0x3cb75bd2	0.02238265
234	0x393272f0	0.0001701822
235	0xbd4ee434	-0.0505106
236	0x3c62d717	0.013845227
237	0x3ebde746	0.3709051
238	0xbd8ec775	-0.06971637
239	0x3df4f40c	0.11960611
240	0x3bb79a80	0.0056031346
241	0xbd7bcc34	-0.06147404
242	0xbe688c99	-0.22709884
243	0xbd8a2b4c	-0.067465395
244	0xbec989cd	-0.39362946
245	0xbe671a1c	-0.22568554
246	0xbd64e15a	-0.055878974
247	0xbc056549	-0.008141824
248	0xbe2f104e	-0.17096063
249	0xbea0e732	-0.31426388
250	0x3c8c4411	0.0171223
251	0x3dc19438	0.094520986
252	0x3dd849bd	0.105609395
253	0xbc5d70f5	-0.013515701
254	0x3ef0aaa6	0.47005194
255	0x3e8b14c0	0.27164268

bias f4 [16]
0	0xbf6136f8	-0.879745
1	0x3e195989	0.14975561
2	0x3d67603c	0.05648826
3	0xbd6a29a3	-0.057168614
4	0x3d12d688	0.035849124
5	0xbe1d7be0	-0.15379286
6	0xbfb15d9c	-1.3856692
7	0x3d9f903c	0.077911824
8	0x3d0ade1c	0.033903226
9	0xbef0a85f	-0.47003457
10	0x3d5462b5	0.051851947
11	0x404b8110	3.1797523
12	0xc00db44d	-2.2141297
13	0xbda309c0	-0.07960844
14	0xbdc40cc1	-0.09572745
15	0xbf0121a8	-0.5044198
