AE Models/torch1.03autoencodervalmodel.pth (torch, 113882 bytes, 23 tensors)

weight f4 [16, 1, 4]
0	0x3cb4a92e	0.022053327
1	0xbb9813a7	-0.0046410146
2	0x3dab5db1	0.083674796
3	0xbe89914c	-0.26868665
4	0xbd1c5313	-0.038165163
5	0x3c1379e5	0.00900123
6	0xbe537c6d	-0.20652933
7	0x3e886d9f	0.26646134
8	0x3dbcb5dc	0.092143744
9	0xbd8fcf4f	-0.07021963
10	0xbcce13c0	-0.025155902
11	0xbcdd0f16	-0.026984733
12	0xbc4b51af	-0.012409612
13	0x3e5ee00a	0.21765152
14	0x3e34035c	0.17579406
15	0x3e304b1a	0.17216149
16	0xbdf656e5	-0.120282926
17	0xbc550998	-0.013002776
18	0x3e111013	0.14166288
19	0xbee327bf	-0.4436626
20	0x3e9be50f	0.30448195
21	0xbdfdc10d	-0.12390337
22	0xbd16cb24	-0.036814824
23	0xbe0f42b7	-0.13990293
24	0xbea0e75d	-0.31426516
25	0xbe196a45	-0.14981945
26	0xbd9e176e	-0.077193126
27	0x3ea948ca	0.33063346
28	0x3d87ac98	0.066247165
29	0x3e9b4656	0.303271
30	0xbd8a42be	-0.06751011
31	0xbe898b59	-0.26864126
32	0x3dead089	0.11465556
33	0x3e1f5cde	0.1556277
34	0x3e9794c1	0.29605678
35	0xbcafc9fe	-0.021458622
36	0xbe020952	-0.12698868
37	0x3ca2cf39	0.019874202
38	0xbcdc7943	-0.02691329
39	0xbdae82bf	-0.085210316
40	0x3e964a9a	0.2935379
41	0xbc971b35	-0.01844559
42	0xbe0b556a	-0.13606802
43	0xbec911cf	-0.392714
44	0xbd00ad32	-0.031415172
45	0xbcae7c76	-0.021299582
46	0x3e55e1b2	0.20886877
47	0x3e18cef1	0.14922692
48	0x3e002846	0.12515363
49	0xbd420a9d	-0.047373403
50	0x3d993a6c	0.07481846
51	0x3dc5a7c9	0.09651143
52	0x3d7a1684	0.06105663
53	0x3dbf25e2	0.093333974
54	0xbc836af2	-0.016042206
55	0x3e7804e7	0.2422062
56	0x3e37a8a2	0.17935422
57	0x3e22db23	0.15903907
58	0x3e1ca4ba	0.15297213
59	0x3e0586ac	0.13039654
60	0x3e531fbd	0.20617576
61	0x3e583ebb	0.2111768
62	0x3d390731	0.045172874
63	0xbd85fa21	-0.06541849

bias f4 [16]
0	0x3f506f40	0.81419754
1	0x3dc02cc5	0.09383539
2	0x3f90ed6b	1.1322454
3	0xbd40e04c	-0.047088906
4	0x3e88ea8b	0.26741442
5	0xbc296a3f	-0.010340272
6	0xbf33f6e1	-0.7029858
7	0xbe387367	-0.18012773
8	0xbede2a0c	-0.43391454
9	0x3fa36710	1.2765827
10	0xbf23b4e0	-0.6394787
11	0xbd8658c5	-0.065599
12	0x3d9d298a	0.076739386
13	0x3f104468	0.5635438
14	0x3eb88950	0.3604226
15	0xbe7fc015	-0.24975617

weight f4 [16, 16, 4]
0	0x3df5ef91	0.12008584
1	0xbcda4673	-0.02664492
2	0xbd22bd62	-0.03973139
3	0xbe05c67b	-0.13063996
4	0x3df3b020	0.118988276
5	0x3d9c2b41	0.076254375
6	0xbc5bc838	-0.013414435
7	0x3d24d15c	0.040238723
8	0x3dc94120	0.09826875
9	0xbe1e844a	-0.15480152
10	0xbe0340de	-0.12817714
11	0xbe4951d8	-0.19660127
12	0x3e118635	0.14211352
13	0xbc131905	-0.008978133
14	0x3e109107	0.14117824
15	0x3cf0f478	0.029413447
16	0xbed90b63	-0.423915
17	0x3c943c97	0.018095298
18	0x3e48fe74	0.19628316
19	0x3ef119cd	0.47089997
20	0xbdbe182f	-0.092819564
21	0xbd7420bf	-0.05960154
22	0x3d6adba9	0.05733839
23	0x3dd541b5	0.10412923
24	0xbdce67a2	-0.1007836
25	0xbeba7659	-0.36418417
26	0xbdd6e4c1	-0.1049285
27	0x3e220b94	0.15824729
28	0xbd88c388	-0.066779196
29	0xbcd2251c	-0.02565246
30	0x3df72f9b	0.12069627
31	0xbbb4ca0e	-0.005517251
32	0x3e05d49a	0.13069382
33	0x3dd080b8	0.10180801
34	0x3c7a4234	0.015274573
35	0x3d9e1eb2	0.077206984
36	0x3e0dfbd6	0.13865599
37	0x3e151ebd	0.14562507
38	0xbe4f382f	-0.20236276
39	0x3da3597b	0.079760514
40	0xbe4595be	-0.19295403
41	0xbdcafafc	-0.09911153
42	0x3e8fd2c1	0.2809048
43	0x3deff48f	0.11716568
44	0x3e59afba	0.2125844
45	0xbd4a83b2	-0.049442
46	0xbccaf9cc	-0.024777316
47	0x3c5f7927	0.013639725
48	0xbda7e0f3	-0.081972025
49	0xbdbdd03a	-0.09268232
50	0xbc421f8e	-0.011848344
51	0x3cb1c8a1	0.021702113
52	0xbdb26dd0	-0.08712351
53	0xbd9be651	-0.07612289
54	0x3e07442b	0.13209598
55	0xbd851340	-0.06497812
56	0x3cfe9b2e	0.031079855
57	0x3b87b9d4	0.0041420255
58	0xbc97c70f	-0.018527536
59	0x3d1f733d	0.03892826
60	0x3dcae9eb	0.099078976
61	0x3dd88b8c	0.105734915
62	0x3ad7966a	0.0016448025
63	0x3cf238a5	0.029568026
64	0x3caec38f	0.021333484
65	0xbd4c17ce	-0.04982739
66	0xbddd60c0	-0.10809469
67	0xbdd1935b	-0.10233184
68	0x3d8d049b	0.06885644
69	0xbc178090	-0.00924696
70	0x3d2f6938	0.042824954
71	0xbd178950	-0.036996186
72	0xbc686c32	-0.014185952
73	0x3dbc3ce5	0.09191302
74	0x3d9ea98e	0.07747184
75	0xbe216327	-0.1576048
76	0xbe08aa2b	-0.13346164
77	0x3d96b963	0.073595785
78	0xbdb45829	-0.08805878
79	0xbd6f8ac9	-0.058481965
80	0xbe401d31	-0.18761136
81	0x3b76b801	0.0037646296
82	0xbe1f7d33	-0.15575103
83	0xbd0c1aa1	-0.034205083
84	0xbc7ec8ad	-0.0155507745
85	0xbd713b58	-0.058894485
86	0xbcc3b219	-0.023888635
87	0x3d8a839c	0.06763384
88	0xbdac0382	-0.083991066
89	0xbaaa30a9	-0.0012984473
90	0x3db8fcfb	0.09032627
91	0x3bf668af	0.0075198035
92	0xbd2eecca	-0.04270629
93	0x3c024ca8	0.007952847
94	0x3d8b1739	0.06791539
95	0x3de76e35	0.11300317
96	0x3d935f60	0.07195926
97	0x3cd567eb	0.026050529
98	0x3c99fa86	0.018796217
99	0xbd84ae57	-0.06478565
100	0xbd949b6c	-0.07256207
101	0xbdc870c7	-0.097871356
102	0xbd9fe272	-0.07806863
103	0xbe2f4b4a	-0.17118564
104	0xbd9c11fb	-0.07620617
105	0xbb98569d	-0.004648997
106	0xbd2b833e	-0.04187321
107	0xbdfe9d80	-0.124323845
108	0xbdb205b8	-0.08692497
109	0xbe0a9fb8	-0.1353749
110	0xbca47677	-0.02007602
111	0xbd53b366	-0.05168476
112	0xbdf53f64	-0.119749814
113	0x3cb13ad4	0.021634497
114	0xbd536efa	-0.051619507
115	0xbe058625	-0.13039453
116	0x3c8c38e0	0.017116964
117	0x3c5ae5a8	0.013360418
118	0xbda72ccc	-0.08162841
119	0x3dc070d1	0.09396518
120	0xbe100d48	-0.14067566
121	0xbc084f89	-0.008319744
122	0x3d065cb6	0.03280326
123	0xbdbbe749	-0.091749735
124	0xbca34cdf	-0.019934116
125	0xbdcd67c5	-0.10029558
126	0xbd449cf6	-0.048001252
127	0xbd58d269	-0.052935038
128	0xbde2df60	-0.11077762
129	0xbd3fdec8	-0.04684332
130	0xbdd5207d	-0.10406587
131	0xbe42913e	-0.19000718
132	0xbd27fac3	-0.04101063
133	0x3d9052b6	0.07047026
134	0xbd0170d1	-0.03160173
135	0x3c8f5ae9	0.017499404
136	0x3e3ecb42	0.18632224
137	0x3d256b74	0.04038568
138	0xbe718fe6	-0.23590049
139	0xbd9dd1ce	-0.07706033
140	0x3e03af0b	0.12859742
141	0x3e107d69	0.1411034
142	0x3d962b9b	0.07332536
143	0x3dc5a0d2	0.09649815
144	0xbd57c981	-0.052682403
145	0x3e1a3c61	0.15062095
146	0xbed9482f	-0.42437884
147	0xbe884a30	-0.266191
148	0xbe86feac	-0.26366174
149	0xbe37d4fa	-0.17952338
150	0xbe1df153	-0.15424089
151	0xbe0ea7ad	-0.1393115
152	0x3d417d00	0.04723835
153	0x3e3651c1	0.17804624
154	0xbb9c0d70	-0.004762344
155	0x3c555062	0.013019653
156	0xbe2b1d58	-0.16710413
157	0xbe594970	-0.2121942
158	0xbd0bb256	-0.03410562
159	0x3dab7eb9	0.0837378
160	0xbc829787	-0.015941394
161	0x3e085dfb	0.133171
162	0x3d8730f2	0.066011325
163	0xbc0c1094	-0.008548874
164	0xbe319e68	-0.17345583
165	0xba120cd5	-0.000557137
166	0x3e88ef7f	0.2674522
167	0x3dc8b7a2	0.0980065
168	0x3daff146	0.08590941
169	0x3dc97684	0.09837058
170	0x3ba352a3	0.0049842163
171	0x3eb30355	0.3496348
172	0x3bd5958a	0.0065180706
173	0x3d04cd76	0.032422505
174	0xbe303373	-0.17207126
175	0xbd60cd20	-0.054883122
176	0x3db3e46e	0.08783804
177	0x3d56b3a6	0.05241742
178	0xbe5341a7	-0.20630513
179	0x3d80185b	0.062546454
180	0x3d9dfbd8	0.07714051
181	0xbc447a0b	-0.011991988
182	0x3cb8d92b	0.022564491
183	0x3df79b3b	0.12090155
184	0xbd5f55a4	-0.054525033
185	0xbca61580	-0.020273924
186	0xbc2b226c	-0.0104452185
187	0x3e265c79	0.16246213
188	0x3e038b40	0.12846088
189	0x3d00e1db	0.031465393
190	0x3c813f73	0.015777325
191	0x3e2475f5	0.16060622
192	0xbc9d2abc	-0.019185416
193	0xbe181dc8	-0.1485511
194	0xbdfcea7b	-0.12349411
195	0x3d321587	0.04347756
196	0xbd928f2f	-0.07156216
197	0xbd4add36	-0.04952737
198	0xbd2bbd57	-0.041928615
199	0x3e22e187	0.15906344
200	0x3e3c717b	0.18402664
201	0x3db162a9	0.08661396
202	0xbb17466b	-0.0023082744
203	0x3e0ed0c6	0.13946828
204	0xbc816aa2	-0.015797917
205	0x3dd3403a	0.103149846
206	0x3d94e131	0.07269514
207	0x3e58fa37	0.211892
208	0xbcc72d39	-0.024313556
209	0xbe36fce2	-0.17869905
210	0xbe5df73b	-0.21676342
211	0x3dc22336	0.09479372
212	0x3d8bfcd7	0.06835335
213	0x3da32a4b	0.07967051
214	0x3e4fc7fb	0.2029113
215	0x3dc4dda6	0.096125886
216	0x3e079398	0.13239896
217	0x3e0907cb	0.13381879
218	0x3e17c96a	0.14822927
219	0x3d468931	0.04847068
220	0x3c3bc3b7	0.011460236
221	0xbd27aca8	-0.040936142
222	0x3e0971a5	0.13422258
223	0x3e049da1	0.12950756
224	0x3e54630d	0.2074091
225	0x3d0b7bfb	0.034053784
226	0x3ddc016c	0.10742459
227	0x3cb21ee1	0.02174324
228	0xbe512472	-0.20424059
229	0xbe0b14a0	-0.13582087
230	0xbd879de3	-0.066219114
231	0xbd19f458	-0.03758654
232	0x3db9257a	0.09040351
233	0x3da7d732	0.08195342
234	0xbd50026b	-0.050783556
235	0x3d0789ae	0.033090286
236	0x3d7435f7	0.059621777
237	0x3d9c5986	0.07634263
238	0xbc4763e4	-0.012169812
239	0x3da3bdf8	0.07995218
240	0x3e0e119d	0.13873906
241	0x3c6786bc	0.014131244
242	0x3e012f80	0.12615776
243	0x3c9da469	0.019243436
244	0x3cd607a7	0.026126696
245	0x3e16a184	0.14710051
246	0x3e05aeef	0.13055013
247	0x3db91a77	0.09038251
248	0x3cd48568	0.02594252
249	0xbd29ca93	-0.041452955
250	0x3d27161d	0.040792573
251	0x3e94cca0	0.29062366
252	0x3da635c4	0.08115724
253	0x3d8b8ed4	0.06814352
254	0xbd99c444	-0.07508138
255	0xbb8169d8	-0.003949385

bias f4 [16]
0	0xbe377ec8	-0.17919457
1	0xbd03824b	-0.03210668
2	0x3da10362	0.07861973
3	0x3e5ee30d	0.217663
4	0x3e591fa0	0.2120347
5	0xbee14ba2	-0.44003016
6	0xbc0b4769	-0.008500912
7	0x3f2599f6	0.6468805
8	0x3e6f2c11	0.23356654
9	0x3e7eca77	0.24881922
10	0x3d8cb57b	0.06870552
11	0x3dd8b4e8	0.1058138
12	0x3e97b797	0.29632255
13	0x3ede9c94	0.43478835
14	0x3d93f40b	0.07224282
15	0xbd9f538b	-0.077796064

weight f4 [16, 16, 5]
0	0xbd1e5f02	-0.038664825
1	0x3e481035	0.19537432
2	0xbd374797	-0.044746008
3	0x3c9364e6	0.017992448
4	0x3dde1594	0.108439595
5	0x3db3edaf	0.08785569
6	0x3d596a00	0.053079605
7	0xbdabf155	-0.0839564
8	0x3d1a5c96	0.037685953
9	0xbdc1655b	-0.0944316
10	0x3dec62eb	0.115423046
11	0x3e18d460	0.14924765
12	0x3db14a11	0.08656705
13	0x3e096e5c	0.13421005
14	0x3d42750b	0.047474902
15	0x3d31311a	0.043259718
16	0x3e743675	0.23848899
17	0xbd3356b3	-0.043783855
18	0xbbff0150	-0.007782139
19	0x3e52e177	0.2059382
20	0x3ce7fa39	0.028317558
21	0xbe3729a6	-0.17886981
22	0xbe26f9f2	-0.16306284
23	0x3e49aa69	0.19693913
24	0x3c31cb6a	0.01085172
25	0x3b994403	0.004677297
26	0xbe1d4ce7	-0.15361367
27	0x3de795fa	0.11307903
28	0x3d3d59d7	0.046228256
29	0xbe4b33d6	-0.19843993
30	0x3cc5e7e3	0.024158424
31	0xbd65ade8	-0.056074053
32	0x3c0bcbd6	0.008532485
33	0xbd599868	-0.05312386
34	0x3b282dfd	0.0025662177
35	0x3dc9c36d	0.09851728
36	0xbd3f7544	-0.046742693
37	0xbe77c8d5	-0.24197705
38	0xbd1b8007	-0.037963893
39	0x3e37bd61	0.17943336
40	0xbc924ab7	-0.017857892
41	0xbd870679	-0.065930314
42	0xbdbb8f21	-0.09158159
43	0x3d110ac7	0.03541067
44	0xbe52ee09	-0.20598616
45	0x3cbc35c4	0.022974856
46	0x3de1f9ed	0.11033998
47	0xbe38ee98	-0.18059766
48	0xbe0e91c4	-0.13922793
49	0xbdbbdb43	-0.0917268
50	0x3cf0614d	0.029343272
51	0x3e2fa21f	0.17151688
52	0x3ea53efc	0.32274616
53	0xbdfedc81	-0.124444015
54	0x3e82c071	0.25537446
55	0x3e1829dd	0.1485972
56	0xbd83dcc7	-0.06438594
57	0x3c9ee8b6	0.019398075
58	0xbe32d9ef	-0.17465948
59	0x3e3578d9	0.17721881
60	0x3dd8dc06	0.10588841
61	0xbdeff830	-0.1171726
62	0x3d79963a	0.060934283
63	0x3e2897a1	0.16464092
64	0x3dc82f42	0.09774639
65	0xbd452996	-0.048135363
66	0xbe8d984c	-0.27655256
67	0xbdc8f398	-0.09812087
68	0xbd9b9928	-0.075975716
69	0x3c592d92	0.013255494
70	0x3d1ac425	0.037784714
71	0xbd221c86	-0.039577983
72	0x3e1cb11c	0.15301937
73	0x3ddc247d	0.10749147
74	0x3dbb3e0e	0.09142695
75	0xbd32c366	-0.043643378
76	0xbd2b1fa4	-0.04177822
77	0x3bf4e5da	0.0074736895
78	0xbd269478	-0.040668935
79	0x3b900245	0.004394802
80	0x3d1a5628	0.03767982
81	0x3db8dea4	0.0902684
82	0x3d04af51	0.032393757
83	0xbd3e05f2	-0.04639239
84	0x3da28d15	0.079370655
85	0x3d9872cd	0.074437715
86	0x3d8b3985	0.0679808
87	0xbd8df656	-0.069317505
88	0x3d6afb2c	0.057368442
89	0x3d1a3820	0.03765118
90	0xbd66d853	-0.056358647
91	0x3e459532	0.19295195
92	0x3e5036b4	0.20333368
93	0x3ccfe9ec	0.025380097
94	0x3bc04ec5	0.005868765
95	0xbe2c5772	-0.16830233
96	0xbeb87417	-0.3602607
97	0x3da67b1c	0.0812895
98	0xbc158ec6	-0.009128278
99	0x3d6db7d2	0.058036633
100	0x3f507448	0.8142743
101	0x3e89fa07	0.26948568
102	0x3ea3305e	0.3187284
103	0xbcda79ac	-0.026669346
104	0xbe430a48	-0.1904689
105	0xbe1fcba8	-0.15605032
106	0xbe69e5fb	-0.22841637
107	0xbe79ff6c	-0.24413842
108	0x3d613d59	0.054990146
109	0xbee2df49	-0.44310978
110	0x3dcba35a	0.09943266
111	0x3d38f8d8	0.04515919
112	0xbd9a27e6	-0.07527141
113	0x3dac376a	0.08409007
114	0xbcd3f4d8	-0.025873587
115	0xbd11251d	-0.035435785
116	0xbe606ecd	-0.21917267
117	0x3cbb051d	0.022829587
118	0x3d4f831d	0.05066215
119	0x3e643710	0.2228663
120	0xbd40a567	-0.04703274
121	0xbcc005a8	-0.023440197
122	0xbdb52135	-0.08844224
123	0x3d700203	0.05859567
124	0x3a199eb2	0.0005860134
125	0x3e9371f6	0.28797883
126	0xbe844d7c	-0.25840366
127	0x3e356d3f	0.17717455
128	0xba9e9b7f	-0.0012100785
129	0x3dbe4576	0.09290592
130	0x3cdbbdcb	0.026823899
131	0xbebe2278	-0.37135673
132	0xbda1abb3	-0.07894077
133	0x3d5dad0a	0.0541201
134	0xbdc2be25	-0.095089234
135	0xbdbe5712	-0.09293951
136	0xbe4b086c	-0.19827431
137	0x3da9f268	0.082981884
138	0x3e15f888	0.14645588
139	0x3e71d421	0.23616077
140	0x3ec2de0f	0.38060042
141	0xbd9aeee7	-0.07565098
142	0x3cd48d9c	0.02594643
143	0x3e9004a5	0.28128543
144	0xbe8de7b2	-0.27715832
145	0xbf115d72	-0.5678321
146	0xbf071148	-0.52760744
147	0xbf8f0037	-1.117194
148	0xbf0655b9	-0.5247455
149	0xbe0727a6	-0.13198718
150	0xbe32ff26	-0.17480144
151	0xbe95882f	-0.29205462
152	0xbe8c453c	-0.27396572
153	0x3d4b4300	0.049624443
154	0x3dd6ff5a	0.10497923
155	0xbc4acc77	-0.01237785
156	0xbdae0458	-0.08496922
157	0x3ccfbc60	0.025358379
158	0xbdc6e6a7	-0.09711962
159	0xbbb58953	-0.005540052
160	0xbda01ee2	-0.078183904
161	0xbd2822d5	-0.041048843
162	0xbe23a576	-0.15981087
163	0xbd52a686	-0.05142834
164	0xbe1d253a	-0.15346232
165	0x3df14d12	0.11782278
166	0x3de40e65	0.11135558
167	0x3ccec5eb	0.025240859
168	0x3dcc772e	0.09983669
169	0xbd8792d6	-0.066198036
170	0x3b3f1219	0.0029155074
171	0x3ddf0c12	0.10890974
172	0x3e04ba54	0.12961704
173	0x3e271b36	0.16318974
174	0x3d1bb48a	0.038013972
175	0xbdcaa545	-0.09894804
176	0x3db26c54	0.08712068
177	0xbb32ff3e	-0.002731278
178	0x3b8d3868	0.0043097027
179	0xbe3ab316	-0.18232378
180	0x3c0e665b	0.008691396
181	0xbca446cb	-0.020053288
182	0x3e272667	0.16323243
183	0x3d87e1c2	0.06634857
184	0xbe6245b7	-0.22096907
185	0x3e235563	0.15950541
186	0x3c8e59ca	0.0173768
187	0xbdee5ead	-0.11639152
188	0x3dd76cd8	0.10518807
189	0x3c8969a6	0.01677401
190	0x3da2f7d6	0.07957427
191	0xbd2981c5	-0.041383523
192	0xbc7bd06d	-0.015369517
193	0x3c4b3594	0.012402911
194	0xbd94cc6d	-0.072655536
195	0x3dd0a123	0.101869844
196	0x3dc1c04e	0.09460507
197	0xbdb36b30	-0.08760679
198	0xbe07daff	-0.13267134
199	0xbe6488cf	-0.22317813
200	0x3dae7066	0.08517532
201	0x3db6ddc1	0.08929015
202	0xbdbf21d5	-0.09332625
203	0xbcf4268c	-0.029803537
204	0x3d1f59b5	0.03890391
205	0xba47cd3b	-0.0007621829
206	0xbd9a1686	-0.07523827
207	0xbc730701	-0.014833213
208	0x3eef8e58	0.46788287
209	0xbdd198e9	-0.102342434
210	0x3ebbfea0	0.367177
211	0x3da308dc	0.07960674
212	0x3b6d08b4	0.0036168518
213	0x3e6cdc75	0.23130973
214	0xbc10b1ce	-0.008831454
215	0x3e221e91	0.15831973
216	0xbe4d67ee	-0.20059177
217	0x3e790681	0.24318887
218	0x3d64521c	0.055742368
219	0x3ba9b0f5	0.0051785656
220	0x3d3c3f2b	0.04595868
221	0x3cfece63	0.031104272
222	0x3d8fcb40	0.07021189
223	0x3e553a56	0.20823035
224	0x3d935713	0.071943425
225	0x3e31aa0f	0.17350028
226	0xbe199797	-0.14999233
227	0x3e61c83d	0.22049041
228	0x3d966e8a	0.073453024
229	0xbd6a8443	-0.05725504
230	0x3e04924a	0.1294643
231	0xbd2325c7	-0.03983095
232	0x3cfb2ad5	0.030660072
233	0x3e4ef02c	0.20208806
234	0xbe21a5c5	-0.15785892
235	0xbd4bc78a	-0.049750842
236	0x3d00bf9c	0.031432733
237	0x3db56256	0.08856647
238	0x3cd7b6b0	0.02633223
239	0xbd81f90b	-0.06346329
240	0xbc8f2ac1	-0.017476441
241	0xbdc4cd5f	-0.09609484
242	0x3e16acf3	0.14714412
243	0x3d58b121	0.0529033
244	0x3d61ac94	0.055096224
245	0xbd512684	-0.051062122
246	0xbdc159b8	-0.094409406
247	0x3cce4912	0.025181327
248	0xbd33ced1	-0.043898407
249	0x3d55f316	0.052233778
250	0x3e0d62e9	0.13807262
251	0x3d5dc896	0.05414637
252	0x3e876c30	0.26449728
253	0x3cb93cf5	0.022612074
254	0x3df95c8e	0.121758565
255	0x3d7c3450	0.061573327

bias f4 [16]
0	0x3d846c9a	0.064660266
1	0x3e93aa57	0.28840896
2	0x3f1a09ab	0.60171
3	0xbe4e9f17	-0.20177875
4	0x3e9e4cc1	0.30917934
5	0xbdab378f	-0.08360206
6	0xbebbdca9	-0.36691788
7	0xbdc436cb	-0.095807634
8	0x3f7b292d	0.98109704
9	0x3ef7f873	0.4843174
10	0x3e270362	0.16309884
11	0xbded6d44	-0.115931064
12	0xbe64acbb	-0.22331516
13	0xbf5ba726	-0.85801923
14	0xbd9097f7	-0.07060235
15	0xbe49ccff	-0.19707106

weight f4 [16, 16, 5]
0	0x3eac83dd	0.33694354
1	0xbe2590d2	-0.16168526
2	0xbcb92633	-0.022601223
3	0xbcfa15a7	-0.030527903
4	0x3d24f3ba	0.0402715
5	0x3d5a6ef0	0.053328454
6	0x3ed8d4b1	0.4234977
7	0x3c3679b3	0.011137414
8	0xbcd15791	-0.02555445
9	0x3dd29c4b	0.10283717
10	0x3ea82244	0.32838643
11	0xbd7a84d0	-0.061161816
12	0xbd87f844	-0.0663915
13	0x3d85c82a	0.06532319
14	0xbae15c62	-0.001719367
15	0x3e09621b	0.1341633
16	0x3cf7e12b	0.030258736
17	0x3add095c	0.0016863751
18	0x3e44e7b3	0.19229011
19	0x3b3f3ce3	0.0029180578
20	0xbf14b193	-0.58083457
21	0x3df2b106	0.11850171
22	0x3e33e4d1	0.17567755
23	0x3d16f204	0.036851898
24	0x3d9a2736	0.0752701
25	0x3e8d1f12	0.27562767
26	0x3e11db34	0.14243776
27	0x3e81922f	0.25306842
28	0xbdbad109	-0.091219015
29	0x3dad0ca2	0.08449675
30	0x3b9ec766	0.0048455475
31	0x3e84148d	0.2579693
32	0xbcb62306	-0.022233497
33	0xbd251413	-0.040302347
34	0xbda606c8	-0.08106762
35	0x3e3d67c4	0.18496615
36	0x3d30811e	0.043091886
37	0x3c702644	0.014657561
38	0xbdf5e746	-0.120070025
39	0x3da3dc34	0.08000985
40	0x3e1b7910	0.151829
41	0x3e1390a5	0.14410646
42	0x3c5c0105	0.013427977
43	0xbccd37b3	-0.025050974
44	0x3de65d31	0.112482436
45	0x3e8399d6	0.25703305
46	0x3e56d910	0.2098124
47	0x3e34c255	0.17652257
48	0xbd6ee843	-0.05832697
49	0x3e0e63be	0.13905236
50	0x3e925e8e	0.28587765
51	0xbecf9a89	-0.40547588
52	0x3e3bab34	0.18327028
53	0xbc8a9432	-0.016916368
54	0x3c38b5f5	0.011273851
55	0x3ebecef0	0.37267256
56	0xbdf64b17	-0.12026041
57	0xbdd0cd43	-0.101954006
58	0x3d41af9c	0.047286615
59	0xbcb7b040	-0.02242291
60	0xbdbf5858	-0.09343022
61	0x3e6551e5	0.22394522
62	0x3cbb1bd2	0.022840414
63	0x3e61ae69	0.22039188
64	0xbd41c6f9	-0.047308896
65	0xbe6555eb	-0.22396056
66	0x3ea40a29	0.32039002
67	0xbe3264f8	-0.17421329
68	0x3e0cc457	0.13746773
69	0xbd4783f4	-0.048709825
70	0xbda991b8	-0.08279747
71	0xbbba29d6	-0.0056812568
72	0xbd4d9d02	-0.050198562
73	0x3d815915	0.06315819
74	0xbd29caef	-0.0414533
75	0x3d8349f2	0.06410588
76	0x3d3bd680	0.04585886
77	0xbda71bf9	-0.08159632
78	0x3da748bd	0.081681706
79	0xbcf5ad13	-0.029989755
80	0x3e07c00a	0.13256851
81	0x3ebbf6e0	0.36711788
82	0xbdc4759e	-0.09592746
83	0x3d9498e4	0.07255724
84	0xbd32987a	-0.043602444
85	0x3db5baf6	0.088735506
86	0x3e983aa2	0.29732233
87	0xbd0ebc91	-0.0348478
88	0x3e256fde	0.16155955
89	0x3d6110f5	0.054947812
90	0xbdf281af	-0.118411414
91	0x3e4c7ce3	0.19969516
92	0xbd0ba4f3	-0.034092855
93	0xbdc32eba	-0.09530397
94	0xbda267f4	-0.07929984
95	0x3c5579de	0.013029544
96	0x3e905f2d	0.28197613
97	0xbd748bc4	-0.059703603
98	0x3c1a092e	0.009401603
99	0x3d6a9a16	0.057275854
100	0xbea08c46	-0.3135702
101	0xbf2bc727	-0.6710076
102	0x3dfdcdf1	0.12392796
103	0x3e80607d	0.25073615
104	0xbcb47655	-0.022029081
105	0xbe01c1b3	-0.12671547
106	0x3d2a7f55	0.04162534
107	0x3cb028b2	0.02150378
108	0x3dbea944	0.093096286
109	0xb92c2b65	-0.00016419364
110	0x3e34f85e	0.1767287
111	0x3dd67971	0.10472382
112	0x3ddcc78a	0.107802466
113	0x3d6ae570	0.057347715
114	0xbc40a1e6	-0.01175735
115	0xbbc31209	-0.0059530777
116	0x3d894f79	0.06704611
117	0xbd8d3ee1	-0.06896759
118	0x3e3ffe45	0.1874934
119	0xbde1e20f	-0.110294454
120	0x3d81bf0d	0.06335268
121	0x3dbb166b	0.09135135
122	0xbe1a4767	-0.150663
123	0x3e2da81f	0.16958664
124	0x3dab8f17	0.083769016
125	0x3e398c72	0.18119982
126	0x3de92cae	0.11385475
127	0x3eb711f2	0.3575588
128	0x3e14fa3d	0.14548583
129	0xbdb66208	-0.08905417
130	0x3e0c77f2	0.1371763
131	0x3d696c67	0.056988146
132	0xbe68d88e	-0.22738859
133	0x3da8cede	0.08242582
134	0xbd4b5436	-0.049640857
135	0xbdf97b85	-0.121817626
136	0x3e5938ca	0.2121307
137	0x3e2f9372	0.1714609
138	0xbdcd6d45	-0.10030607
139	0xbc58c67a	-0.013230914
140	0x3e97581b	0.29559407
141	0x3d22080e	0.039558463
142	0xbbdde974	-0.0067722145
143	0x3cf8027c	0.030274622
144	0x3d10ce74	0.03535314
145	0xbcd48ae8	-0.025945142
146	0xbdc35b10	-0.09538853
147	0x3ed62ef3	0.41832694
148	0xbd93bd06	-0.07213788
149	0x3d454aac	0.048166916
150	0xbd87b2d1	-0.066259034
151	0xbdcaadbd	-0.09896419
152	0xbde22b2c	-0.11043391
153	0x3a989dc0	0.0011643693
154	0xbc9de917	-0.019276185
155	0x3dac75dd	0.08420918
156	0x3cc51f6c	0.024062835
157	0x3cf23a6f	0.029568879
158	0xbde49c80	-0.111626625
159	0x3d9d133e	0.07669686
160	0xbe0c91cc	-0.13727492
161	0x3c89f6ab	0.016841253
162	0xbdb870e0	-0.09005904
163	0x3d5dbf3d	0.054137457
164	0x3e2e811a	0.17041436
165	0x3e16aacd	0.14713593
166	0x3e99caf9	0.30037668
167	0x3e541c16	0.20713839
168	0x3e7a0db0	0.24419284
169	0x3b5b146c	0.003342892
170	0xbd8d8316	-0.06909768
171	0xbce46960	-0.027882278
172	0x3c5be62b	0.013421576
173	0xbe33ece6	-0.17570838
174	0x3e4dbdd2	0.20091942
175	0xbcd16248	-0.02555956
176	0x3cef600e	0.029220607
177	0xbe2b9698	-0.16756666
178	0x3d441424	0.04787077
179	0x3e2de5cd	0.16982193
180	0xbd0ce3a0	-0.034396768
181	0x3ea12369	0.31472328
182	0x3e9e6bfc	0.3094176
183	0x3d700613	0.058599543
184	0xbf0ac5d6	-0.54208124
185	0x3d9c0878	0.07618803
186	0xbcb22e1a	-0.021750499
187	0xbad8310e	-0.0016494112
188	0xbe958a71	-0.29207185
189	0x3e4f9a2c	0.20273656
190	0x3ca25a48	0.01981844
191	0xbd18f756	-0.037345253
192	0xbe028b2d	-0.12748404
193	0x3e66e99e	0.22550055
194	0xbde040d0	-0.10949862
195	0x3caa672e	0.020801153
196	0x3d6827a2	0.05667842
197	0x3e09a4c8	0.13441765
198	0xbe0e5747	-0.13900481
199	0x3e04e72c	0.1297881
200	0xbde7a4ef	-0.113107555
201	0xbe7a3861	-0.2443557
202	0xbe18929d	-0.14899679
203	0xbe28404d	-0.16430779
204	0x3fae8907	1.3635567
205	0xbdd1fb7e	-0.102530465
206	0x3df5f2aa	0.12009175
207	0x3deb8917	0.11500757
208	0x3e3bad45	0.18327816
209	0xbe359147	-0.177312
210	0x3d792429	0.0608255
211	0x3cd082ea	0.02545305
212	0x3e655b21	0.22398044
213	0x3e3523f6	0.176895
214	0x3edb323e	0.4281177
215	0xbe44e846	-0.1922923
216	0x3df68c31	0.12038458
217	0x3dce2da9	0.10067303
218	0xbd9b1de1	-0.07574058
219	0x3e42acf7	0.19011293
220	0x3d74fb94	0.059810236
221	0x3cd90f02	0.026496414
222	0xbd0911a5	-0.033464093
223	0x3e4eb074	0.20184499
224	0x3cf7e45b	0.030260256
225	0xb9255bca	-0.0001576982
226	0xbe1c6117	-0.15271412
227	0xbd53a037	-0.051666465
228	0x3d44c394	0.04803808
229	0xbe5da443	-0.21644692
230	0xbdb9797e	-0.09056376
231	0x3d9f8fc2	0.077910915
232	0xbd6808f3	-0.05664916
233	0x3cceb5b4	0.025233127
234	0xbb1f1d51	-0.0024278949
235	0x3c52d71b	0.012868668
236	0xbce67bce	-0.028135207
237	0x3d5221fe	0.05130195
238	0x3b8ebfad	0.0043563456
239	0x3d3c20de	0.045929782
240	0x3e08f0b5	0.13373072
241	0xbe9ab91d	-0.30219355
242	0xbd142ffc	-0.036178574
243	0x3e6b9f2b	0.23009937
244	0x3e1e6850	0.1546948
245	0x3e6d3e85	0.2316838
246	0x3eb59e2f	0.35472247
247	0x3ec48896	0.38385457
248	0xbd47d5c7	-0.04878786
249	0xbcf65578	-0.030070052
250	0xbe1cee96	-0.15325388
251	0xbcf57f97	-0.029968066
252	0x3caa1b10	0.020764858
253	0x3dc9563c	0.09830901
254	0x3d5b0d2d	0.053479362
255	0x3da2071b	0.079115115

bias f4 [16]
0	0xbe99bf6e	-0.30028862
1	0xbf4831b5	-0.78200847
2	0x3eac3026	0.33630484
3	0x3ecdf997	0.40229484
4	0x3d8b6a17	0.068073444
5	0xbd7cd8e5	-0.061730284
6	0x3ed817aa	0.42205554
7	0xbeff033e	-0.4980716
8	0xbe861aa9	-0.26192215
9	0x3de98dce	0.11404
10	0xbf2c2bdf	-0.6725444
11	0x3f04c101	0.51857
12	0xbdcd6926	-0.10029821
13	0x3e8293a3	0.25503263
14	0xbf188ea8	-0.59592676
15	0xbdc9375a	-0.098250106

weight f4 [64, 112]
0	0xbe1f2fec	-0.15545624
1	0xbe0a8e03	-0.13530736
2	0x3c24f171	0.01006733
3	0x3b249811	0.0025115053
4	0xbe3f9db0	-0.18712497
5	0xbdb238d2	-0.08702244
6	0xbcb06d14	-0.021536388
7	0x3e262530	0.16225123
8	0x3e3fe594	0.18739921
9	0xbe1bef14	-0.1522792
10	0x3eb4fabc	0.35347545
11	0x3bb22f18	0.005437743
12	0x3cbadd1e	0.022810515
13	0xbd5d2b2d	-0.053996254
14	0x3e32bb5b	0.17454283
15	0x3cc8b95e	0.024502452
16	0x3cdfe829	0.027332382
17	0x3dc51a59	0.09624166
18	0x3e358dff	0.17729948
19	0x3d81d255	0.06338946
20	0xbb5640b5	-0.0032692377
21	0xbdca72e4	-0.09885195
22	0xbe08707b	-0.13324158
23	0xbd224ebf	-0.03962588
24	0x3cd073fe	0.025445934
25	0x3d40e782	0.047095783
26	0xbd8ff837	-0.07029765
27	0x3e345267	0.17609559
28	0x3d257e9a	0.04040394
29	0x3d341654	0.043966606
30	0xbdf15a7e	-0.11784838
31	0xbda5c68c	-0.080945104
32	0xbdb95323	-0.0904906
33	0x3d0c4a0f	0.034250315
34	0x3e806b95	0.2508208
35	0x3e00f5bd	0.12593742
36	0xbcbe2ad7	-0.023213787
37	0x3dc19898	0.09452933
38	0xbdb5d60f	-0.08878719
39	0x3de93a3d	0.11388061
40	0x3c26b196	0.010174176
41	0xbeb3420c	-0.35011327
42	0x3e61e653	0.22060518
43	0x3e167e47	0.14696608
44	0xbd998beb	-0.0749739
45	0x3eb679b3	0.35639724
46	0x3e0463c6	0.12928686
47	0x3cde9f9e	0.02717572
48	0xbcce2499	-0.025163935
49	0x3ebf25ea	0.37333614
50	0x3e1cf9e1	0.15329696
51	0x3c6693f1	0.014073358
52	0x3e4c959a	0.19978943
53	0x3db32f1a	0.08749218
54	0x3da6772d	0.081282
55	0x3d444a05	0.047922153
56	0xbe30ab75	-0.17252906
57	0xbdf306c5	-0.118665256
58	0x3de3cde2	0.111232534
59	0xbe45be2a	-0.19310823
60	0xbe555a38	-0.20835197
61	0xbd8ff43b	-0.07029005
62	0x3dd5e052	0.10443176
63	0xbf02c60a	-0.51083434
64	0x3d772ece	0.06034737
65	0x3e5e26e9	0.2169453
66	0xbd995961	-0.07487751
67	0xbda4bd46	-0.080439135
68	0xbd6a0c5b	-0.05714069
69	0x3d46de52	0.048551865
70	0xbdaa70f5	-0.08322326
71	0x3e33df0c	0.17565554
72	0xbe41899a	-0.18900147
73	0x3e03a161	0.1285453
74	0x3e172323	0.14759497
75	0x3d36ea0f	0.04465681
76	0xbd15dc6d	-0.036587168
77	0x3cb7ea32	0.02245054
78	0x3d0d7d53	0.034543347
79	0x3c5ac253	0.013351995
80	0xbd9600c3	-0.07324364
81	0x3d47f94f	0.048821744
82	0x3d90852b	0.0705665
83	0x3e467fed	0.19384737
84	0xbddc2ff8	-0.10751337
85	0xbe0bcd44	-0.13652521
86	0x3e2a8c1a	0.16655007
87	0xbe594dd4	-0.21221095
88	0xbe783160	-0.24237585
89	0xbdeeee0e	-0.11666499
90	0x3df9a308	0.12189299
91	0x3e8f5cbc	0.28000438
92	0xbde1df30	-0.11028898
93	0x3e1bd659	0.15218486
94	0x3deae96e	0.114703044
95	0x3e44683d	0.19180389
96	0xbcb0c723	-0.02157933
97	0x3e82f7db	0.25579724
98	0x3e469de9	0.19396175
99	0xbdca6104	-0.098817855
100	0xbd7a70a9	-0.061142597
101	0x3e3910e8	0.18072855
102	0x3e240eca	0.16021267
103	0xbdea57b2	-0.11442508
104	0xbd12a13f	-0.035798308
105	0x3e0b8d65	0.13628156
106	0xbc46f506	-0.012143379
107	0x3dd96c36	0.10616343
108	0x3e09c637	0.13454519
109	0xbcbee6ac	-0.023303352
110	0xbde76800	-0.11299133
111	0xbda623ad	-0.08112273
112	0xbe6a5940	-0.22885609
113	0x3dac2101	0.084047325
114	0x3c1fcc9d	0.009753373
115	0xbc01c37f	-0.007920145
116	0xbe50dd53	-0.20396928
117	0x3e6c9b64	0.23106152
118	0xbd950f9a	-0.072783664
119	0xbadfb4b7	-0.0017067407
120	0xbc8b0116	-0.016968291
121	0xbd4c9d0d	-0.049954463
122	0x3d93eb7f	0.07222652
123	0x3d7bac97	0.06144389
124	0xbccefdd8	-0.025267527
125	0x3b22ec87	0.002486022
126	0x3e4317a6	0.1905199
127	0x3dbd887b	0.09254547
128	0x3e75715d	0.23969026
129	0x3edb9752	0.42888886
130	0x3e356f68	0.1771828
131	0x3e44b07a	0.19207945
132	0xbd3fc939	-0.04682276
133	0xbe27b23d	-0.16376586
134	0xbdaf761b	-0.08567449
135	0x3db5a5c1	0.08869506
136	0xbd912eb7	-0.07088988
137	0xbdcd5023	-0.100250505
138	0x3d91a5f8	0.07111734
139	0xbdc1f15b	-0.09469863
140	0x3e078b45	0.13236721
141	0xbbd2afce	-0.006429649
142	0xbe6713ec	-0.22566193
143	0x3e53cd1a	0.20683709
144	0x3c323709	0.010877379
145	0xbd6ee260	-0.058321357
146	0x3e5121d1	0.20423056
147	0x3dd3bfb7	0.10339301
148	0xbd47cbc4	-0.04877831
149	0x3cb21d5e	0.021742519
150	0x3ea7a732	0.32744747
151	0xbd706ab8	-0.058695525
152	0x3e0d11c8	0.13776314
153	0xbe556b4e	-0.20841715
154	0x3e723aad	0.23655196
155	0x3de49d79	0.11162848
156	0xbe561f90	-0.20910478
157	0x3e5883cc	0.21144027
158	0x3e704d87	0.23467074
159	0xbe0ec403	-0.1394196
160	0x3d21de30	0.039518535
161	0x3dc6a076	0.09698574
162	0x3d4aee4c	0.049543664
163	0xbe039177	-0.12848459
164	0xbda00ff1	-0.078155406
165	0x3e723f69	0.23657002
166	0xbe5f0a17	-0.21781193
167	0xbdd4a890	-0.10383713
168	0xbe1d5031	-0.15362622
169	0x3dfd60ff	0.12372016
170	0x3d31103a	0.043228365
171	0xbe04ff6e	-0.12988064
172	0x3d9e3471	0.07724846
173	0x3d201857	0.039085712
174	0x3d481c49	0.0488551
175	0xbe01427b	-0.12623017
176	0x3d4fbaa0	0.05071509
177	0x3e7ab126	0.2448164
178	0xbdcf4638	-0.10120815
179	0x3d07d82e	0.03316515
180	0x3e7313e0	0.2373805
181	0xbd8bc620	-0.06824899
182	0x3e9bebc2	0.30453306
183	0x3e749b23	0.23887305
184	0x3c730d97	0.014834783
185	0x3dbec7bf	0.09315442
186	0x3e8f26e8	0.2795937
187	0xbc1ca470	-0.009560689
188	0x3d97f196	0.07419126
189	0x3cb6100f	0.022224454
190	0x3caefc97	0.021360679
191	0xbe1a46a9	-0.15066017
192	0x3e6561c5	0.22400577
193	0x3e117335	0.14204104
194	0x3e206aa3	0.15665679
195	0x3e25e2e7	0.16199838
196	0xbde6fcbf	-0.11278676
197	0x3c5fc8c4	0.013658706
198	0xbcb3ebc2	-0.021963004
199	0xbdfbf6f0	-0.12302959
200	0xbe019f18	-0.12658346
201	0x3e653d06	0.2238656
202	0x3b5d4d2c	0.0033767922
203	0x3bd41aa6	0.0064729033
204	0xbd8d5fbb	-0.06903025
205	0xbd02351a	-0.031788923
206	0x3eb199ab	0.34687552
207	0xbe7604e1	-0.24025299
208	0x3da3fd32	0.080072775
209	0x3ce290c8	0.027656928
210	0xbd875635	-0.066082396
211	0xbe1b7ab1	-0.15183522
212	0x3ccd2763	0.025043195
213	0x3df65b93	0.12029185
214	0xbe941e0f	-0.28929183
215	0x3d39997a	0.045312382
216	0xbe56c0a0	-0.20971918
217	0xbe47528a	-0.1946508
218	0xbdbaccd7	-0.09121101
219	0xbde4d1c3	-0.111728214
220	0xbcc32bf1	-0.023824664
221	0xbde3632f	-0.11102902
222	0xbe14c63b	-0.14528744
223	0xbe8da477	-0.2766454
224	0xbe238d61	-0.159719
225	0xbb5af36a	-0.0033409246
226	0x39bc9ff8	0.0003597734
227	0xbc4ea702	-0.01261306
228	0x3cd8c4f7	0.026461108
229	0x3dffc21d	0.12488196
230	0xbd8452d1	-0.064611085
231	0x3e01c0f1	0.12671258
232	0x3c2837c3	0.010267201
233	0xbd89b781	-0.06724454
234	0xbe0d94d2	-0.13826302
235	0x3dae2d73	0.085047625
236	0x3e79bf55	0.24389394
237	0xbc570a0a	-0.013124952
238	0x3e063eec	0.1310994
239	0x3e05be8e	0.13060972
240	0x3da347b9	0.079726644
241	0x3e26d372	0.16291597
242	0xbb8bbca6	-0.004264432
243	0xbdd15a4c	-0.10222301
244	0xbde6dbf1	-0.11272419
245	0xbe323979	-0.17404737
246	0xbd8b9e6e	-0.068173274
247	0xbe05a0d3	-0.13049631
248	0x3daaecdb	0.08345958
249	0x3e78c470	0.24293685
250	0x3cb6f08b	0.022331497
251	0x3d1ab7a6	0.037772797
252	0xbb5783de	-0.0032884995
253	0x3ceb2ded	0.028708423
254	0x3e5b191f	0.21396302
255	0x3e8a4162	0.27003008

bias f4 [64]
0	0xbd0938e6	-0.03350153
1	0x3e26bc83	0.16282849
2	0x3ddaf6f3	0.10691633
3	0x3c880bb1	0.016607137
4	0x3d9c1a02	0.07622148
5	0x3d327a51	0.04357368
6	0xbdb4d4b3	-0.08829632
7	0x3e2f9a77	0.17148767
8	0xbcfcd3f2	-0.030862782
9	0xbca13cfd	-0.019682402
10	0x3c8f5bc6	0.017499816
11	0x3cdf1fe4	0.027236886
12	0x3d24ca9d	0.04023229
13	0x3db84c47	0.08998924
14	0xbc8a476b	-0.016879758
15	0xbdcaf0ae	-0.09909187
16	0xbe1e5a34	-0.15464097
17	0x3db7b24d	0.08969555
18	0x3b4a72bb	0.0030891139
19	0x3bb5a474	0.005543286
20	0x3e0c0560	0.13673925
21	0xbdd02a55	-0.10164324
22	0x3bb24a57	0.005440991
23	0x3d3cf53f	0.046132322
24	0xbe0285cd	-0.12746353
25	0x3d345f14	0.044035986
26	0xbde5a5ad	-0.11213241
27	0xbe28f56e	-0.16499874
28	0xbd23b781	-0.039969925
29	0xbdaed7a5	-0.08537225
30	0x3c4727cc	0.012155484
31	0xbd2520d3	-0.040314507
32	0x3bda2353	0.006657043
33	0x3ca2bd31	0.019865604
34	0xbc10cbc9	-0.008837649
35	0x3dbe0cd7	0.09279793
36	0xbdbc8f6b	-0.09207042
37	0xbdba8580	-0.09107494
38	0xbdc559b8	-0.09636253
39	0x3e8710dc	0.2638005
40	0x3d157abc	0.036494
41	0x3e40d6e5	0.18831976
42	0xbd6ffcb8	-0.05859062
43	0x3c001d9d	0.00781956
44	0x3dfefe40	0.12450838
45	0x3c49988d	0.012304437
46	0x3d835060	0.06411815
47	0xbd7d6399	-0.06186256
48	0xbf11ccab	-0.56952924
49	0x3e0fefe9	0.14056362
50	0x3ceb99f7	0.02875994
51	0x3dc937b4	0.09825078
52	0xbe725e98	-0.23668897
53	0x3db5ceea	0.08877356
54	0x3d63f17e	0.055650227
55	0x3d86fc07	0.06591039
56	0xbdb921ff	-0.09039687
57	0xbc8d9d19	-0.017286824
58	0xbdebf2ac	-0.11520895
59	0xbd9d2d52	-0.0767466
60	0x3c9253b6	0.017862182
61	0x3e0efb71	0.13963105
62	0x3e4a27dc	0.19741768
63	0x3de30476	0.11084835

weight f4 [32, 64]
0	0xbe73699d	-0.23770757
1	0xbd135c1b	-0.03597651
2	0xbda3d8f0	-0.08000362
3	0x3d09ad6e	0.03361266
4	0x3e89ccbd	0.26914015
5	0x3cb9defd	0.022689337
6	0xbdc360d4	-0.09539953
7	0xbd63d01f	-0.0556184
8	0x3eb9b78f	0.36272857
9	0x3d9ed294	0.07755008
10	0xbdd74e6b	-0.10513004
11	0x3cad3f71	0.021148415
12	0xbdd3fa9f	-0.103505366
13	0x3e6a3732	0.22872618
14	0x3dafc247	0.08581977
15	0x3d0f0d04	0.034924522
16	0x3de44bde	0.11147283
17	0x3db2048e	0.08692275
18	0x3df735e3	0.12070825
19	0xbcce6ff5	-0.02519987
20	0xbd562ad6	-0.052286945
21	0xbd1b1683	-0.037863266
22	0x3e2cefdd	0.16888376
23	0x3e0eebe1	0.13957168
24	0xbd98721f	-0.07443642
25	0xbe37f549	-0.17964663
26	0xbdccb23a	-0.099949315
27	0xbc831e77	-0.016005738
28	0x3e2280c8	0.15869439
29	0xba3ef917	-0.0007285042
30	0x3e5e8be6	0.21733055
31	0x3e1d1d6b	0.15343253
32	0x3d947de7	0.072505765
33	0x3dc49984	0.09599593
34	0xbc841829	-0.016124802
35	0x3e14c348	0.14527619
36	0x3de87f36	0.113523886
37	0xbd13f9c4	-0.036126867
38	0x3d7dfb02	0.062006958
39	0xbd87718f	-0.066134565
40	0xbe2c742c	-0.16841191
41	0xbdc2edd1	-0.09518016
42	0xbd1aeaac	-0.037821457
43	0x3df55754	0.11979547
44	0xbdd49f31	-0.10381926
45	0xbc269c9c	-0.0101691745
46	0x3e076697	0.13222729
47	0x3c01e99b	0.007929231
48	0x3e373adb	0.17893545
49	0x3e4ddf52	0.20104721
50	0x3e9c93be	0.30581468
51	0x3d127931	0.03576011
52	0xbe9a2ecb	-0.30113825
53	0x3e78bfe6	0.24291953
54	0xbdd9cb74	-0.10634509
55	0x3ce4dec4	0.027938254
56	0xbd71f357	-0.059069958
57	0xbc4e7aee	-0.012602551
58	0x3dc03334	0.09384766
59	0xbdc8d7e5	-0.098068036
60	0x3c98e1bc	0.018662326
61	0x3d45d96c	0.048303053
62	0xbd14dd8f	-0.036344107
63	0x3e3b07c6	0.18264684
64	0x3e9021e6	0.28150862
65	0xbdf77ca8	-0.12084323
66	0xbd54e041	-0.051971678
67	0x3d1c7058	0.038193077
68	0x3e5bc610	0.21462274
69	0x3d0d5a13	0.03450973
70	0xbdd54b8e	-0.104148015
71	0x3a056b95	0.00050895783
72	0xbd533cc9	-0.05157164
73	0x3a7bd4c7	0.00096065964
74	0x3dc20680	0.09473896
75	0x3c86d49c	0.016458802
76	0xbda8cfc2	-0.08242752
77	0x3e21b66e	0.15792248
78	0xbdfa3386	-0.122168586
79	0xbde6b33d	-0.11264656
80	0xbe9f810e	-0.31153148
81	0x3e0cab1a	0.13737145
82	0x3e37ac06	0.17936715
83	0x3e747c5b	0.23875563
84	0x3a4c58d7	0.00077952206
85	0xbd707578	-0.058705777
86	0x3db7a774	0.08967486
87	0xbc1f795c	-0.009733524
88	0xbd4e2c64	-0.050335303
89	0x3d93e4fc	0.0722141
90	0x3d9837f0	0.07432544
91	0x3e2986ba	0.165553
92	0x3e3f7b42	0.18699363
93	0x3d9a9459	0.07547826
94	0xbee63af4	-0.44966853
95	0xbd86ee25	-0.06588391
96	0xbe1cc7c1	-0.15310575
97	0xbd57ef09	-0.052718196
98	0x3cbcd188	0.023049131
99	0x3d923693	0.071393155
100	0xbe161a0d	-0.14658375
101	0x3dcf5ce1	0.10125137
102	0x3cd8cd75	0.026465157
103	0xbe4bc269	-0.1989838
104	0x3e0a905c	0.13531631
105	0xbdeb9032	-0.115021124
106	0x3d27df92	0.040984698
107	0x3e2490c3	0.16070847
108	0x3d8b77ce	0.0680996
109	0xbd9dffb2	-0.07714786
110	0x3d433298	0.04765567
111	0x3d93842b	0.072029434
112	0x3e06274f	0.13100933
113	0x3d26fe9e	0.040770166
114	0xbcb8e213	-0.022568738
115	0x3db46c83	0.088097595
116	0x3e39251b	0.18080561
117	0xbdff2028	-0.12457305
118	0xbd7f95c6	-0.062398694
119	0xbd84c0ad	-0.064820625
120	0xbe952468	-0.29129338
121	0x3b9ff382	0.0048813233
122	0x3dd27a35	0.102772154
123	0xbcd0f7e9	-0.025508838
124	0x3e53805c	0.20654434
125	0x3e625e5d	0.22106309
126	0x3dae8673	0.08521738
127	0x3edcb54e	0.43107074
128	0x3e934cbf	0.2876949
129	0xbd02acb4	-0.031902984
130	0xbdbb1a1e	-0.09135841
131	0x3d75451e	0.05988037
132	0x3e0d0091	0.13769747
133	0x3e33ccdc	0.17558616
134	0x3daf1402	0.08548738
135	0x3dda9ee1	0.10674835
136	0x3dd1a261	0.102360494
137	0xbc766417	-0.015038512
138	0xbaf6fb40	-0.0018843189
139	0x3d8b331f	0.0679686
140	0x3d2a5c62	0.04159201
141	0xbe29278e	-0.16518995
142	0xbd929779	-0.07157797
143	0x3e17036f	0.14747404
144	0xbd367422	-0.044544347
145	0x3d2f2bfd	0.04276656
146	0x3ccb1008	0.024787918
147	0xbe078500	-0.13234329
148	0x3d549963	0.051904093
149	0xbdbbebb2	-0.09175815
150	0x3cc8d734	0.02451668
151	0x3e40aa1b	0.1881489
152	0x3da1908b	0.078888975
153	0x3e476ba3	0.19474654
154	0x3b44d836	0.0030036098
155	0xbcbd66e7	-0.023120357
156	0x3c9f66b0	0.019458145
157	0xbdbd2dd6	-0.09237258
158	0x3ec397c1	0.38201717
159	0x3e0f7b65	0.14011915
160	0x3e7c519f	0.24640511
161	0x3df3a00e	0.118957624
162	0xbc4f38f0	-0.012647852
163	0xbe1431c7	-0.14472114
164	0xbc1579df	-0.009123295
165	0x3dd75279	0.10513777
166	0xbd5550c0	-0.052078962
167	0xbc97b8f8	-0.018520817
168	0x3e2283b9	0.1587056
169	0xbe1548be	-0.1457853
170	0xbdd73735	-0.10508577
171	0xbd035593	-0.03206403
172	0x3d8cdd87	0.068781905
173	0x3cb8b7a2	0.0225485
174	0xbe43e562	-0.19130471
175	0x3d373818	0.04473123
176	0xbe03f069	-0.12884678
177	0xbd64a755	-0.055823643
178	0xbe045089	-0.12921347
179	0xbd878a23	-0.06618144
180	0xbe65c53d	-0.22438522
181	0x3cc62241	0.024186255
182	0x3d9cc23c	0.07654235
183	0x3e7c48ad	0.24637099
184	0xbd7d002f	-0.061767753
185	0xbd6734c9	-0.056446824
186	0xbcb006d0	-0.021487623
187	0xbc773caf	-0.015090152
188	0xbe2773fb	-0.16352837
189	0x3e1e68cc	0.15469664
190	0x3e3efe07	0.18651591
191	0x3b96a08b	0.004596775
192	0xbf142726	-0.57872236
193	0xbf7dfdfa	-0.9921566
194	0xbeebd567	-0.4606125
195	0x3bb4a31c	0.005512608
196	0xbecb6448	-0.39724946
197	0x3c1232c6	0.008923238
198	0x3e3b04eb	0.18263595
199	0xbf104767	-0.5635895
200	0x3d6b630a	0.057467498
201	0xbcc83445	-0.024438987
202	0xbddd6352	-0.108099595
203	0x3d8c2874	0.06843653
204	0x3d325550	0.04353839
205	0xbe0c8799	-0.13723601
206	0x3aa07180	0.0012240857
207	0x3d32ef34	0.043685153
208	0x3e9d6ee2	0.3074866
209	0xbeee43aa	-0.46536
210	0xbc7b9501	-0.0153553495
211	0x3ebd3c21	0.36959937
212	0x3e89a12f	0.26880786
213	0x3c9b9c4f	0.018995432
214	0xbcff18c9	-0.031139748
215	0xbe125fb4	-0.1429432
216	0xbc6047a4	-0.013688955
217	0xbe42c658	-0.19020975
218	0xbe978cf7	-0.29599735
219	0x3d5e0ccf	0.054211434
220	0xbe65a225	-0.22425134
221	0xbdd48ab5	-0.10378019
222	0x3e0cec72	0.13762072
223	0x3e382a44	0.17984873
224	0x3e223b66	0.15842971
225	0xbdab3b46	-0.08360915
226	0xbd63a4e6	-0.05557718
227	0xbe44a01e	-0.19201705
228	0x3dcc4afc	0.0997524
229	0xbda4a663	-0.08039548
230	0xbe9a5cae	-0.30148834
231	0x3cb9861b	0.022646954
232	0xbd13bfa1	-0.036071423
233	0xbed0a1fe	-0.4074859
234	0x3dffec12	0.12496199
235	0x3cde7314	0.027154483
236	0x3e790fee	0.24322483
237	0xbd1b773f	-0.03795552
238	0x3e52caef	0.20585226
239	0x3c74b072	0.014934646
240	0x3f2bbeaf	0.67087835
241	0x3e4410d5	0.19147046
242	0xbda13753	-0.078718804
243	0x3e084ea3	0.13311248
244	0xbee89a8f	-0.4543042
245	0xbd26f70e	-0.040762953
246	0xbd3edcdd	-0.04659735
247	0x3e7599ee	0.23984501
248	0x3f09ce18	0.538301
249	0xbc49f6b0	-0.012326881
250	0x3df63526	0.12021856
251	0xbc719ba0	-0.014746577
252	0x3e44214a	0.19153324
253	0xbef9c746	-0.48784846
254	0xbf041e54	-0.5160878
255	0x3d3e2395	0.046420652

bias f4 [32]
0	0x3e1b8d07	0.15190516
1	0xbd21bad1	-0.039484803
2	0x3e2b6ca1	0.16740657
3	0xbf0ef5a4	-0.5584357
4	0xbebea52b	-0.37235388
5	0x3e2a1e22	0.16613057
6	0xbee275a1	-0.4423037
7	0x3dcaf88d	0.099106885
8	0x3e581eb0	0.21105456
9	0xbd6fba90	-0.05852753
10	0xbd11df90	-0.035613596
11	0xbe50cb9d	-0.20390172
12	0x3e0c55dd	0.13704629
13	0x3dc5263e	0.09626435
14	0xbd743d79	-0.059628937
15	0xbe094c2c	-0.13407964
16	0xbe0fc5b9	-0.14040269
17	0x3ba2219f	0.0049478556
18	0x3c0e5a25	0.008688484
19	0x3eedc7be	0.46441454
20	0xbdbfd532	-0.09366836
21	0xbd3045b5	-0.043035228
22	0xbe575f69	-0.2103249
23	0x3e4090bc	0.18805212
24	0x3e0b3fe0	0.13598585
25	0xbd2506f3	-0.04028983
26	0x3d388133	0.04504509
27	0x3ce43a92	0.02785996
28	0xbe1302a0	-0.1435647
29	0x3b0a5e12	0.00211132
30	0xbdb114ab	-0.0864652
31	0x3c6e7c6b	0.014556031

weight f4 [64, 32]
0	0x3b9d094b	0.0047923676
1	0x3d238a39	0.03992674
2	0x3ea923f6	0.3303525
3	0x3dc0ec16	0.0942003
4	0xbdaaab77	-0.083334856
5	0xbcdc94e2	-0.026926462
6	0xbebaac5a	-0.3645962
7	0xbea8ce53	-0.32969913
8	0x3e530c83	0.20610242
9	0xbe48864b	-0.19582479
10	0x3dff1526	0.124552056
11	0x3e8ed3e5	0.27896038
12	0x3d84ca51	0.06483901
13	0x3d9f3cbd	0.07775257
14	0x3d966ea2	0.0734532
15	0x3d0e7dfb	0.034788113
16	0x3ca62f1f	0.020286141
17	0xbd422a83	-0.047403824
18	0xbe33cf13	-0.17559461
19	0x3e94a227	0.29029962
20	0x3db037b0	0.086043715
21	0xbc288269	-0.010284998
22	0xbe89487c	-0.26813114
23	0x3e5fda8f	0.21860717
24	0xbe2ffe02	-0.1718674
25	0x3d46861e	0.048467748
26	0x3e1c6a9e	0.15275046
27	0xbe063c33	-0.13108902
28	0x3d8dcb5c	0.06923553
29	0xbdfd4cd7	-0.12368172
30	0xbbf42e52	-0.007451811
31	0x3dc3a742	0.09553386
32	0x3e4bd56a	0.1990563
33	0x3da479ee	0.08031069
34	0x3dcbbbbf	0.09947919
35	0xbe084217	-0.13306461
36	0xbe58d01c	-0.21173137
37	0x3e3c17cd	0.18368454
38	0xbe40e397	-0.18836819
39	0xbe0a526a	-0.13508001
40	0x3dcfbd09	0.101434775
41	0x3e97a817	0.2962043
42	0xbe223013	-0.15838651
43	0xbc9b9c9b	-0.018995574
44	0xbd2bef62	-0.04197634
45	0xbdc305d4	-0.09522596
46	0x3dd036fb	0.10166737
47	0xbda113d6	-0.078651115
48	0x3df55429	0.11978943
49	0x3c0c9136	0.008579543
50	0xbd838e2f	-0.06423604
51	0x3e4a1c39	0.19737329
52	0x3e2a25a8	0.16615927
53	0x3c5a500f	0.0133247515
54	0xbe34ca86	-0.17655382
55	0xbe369539	-0.17830361
56	0x3dcd3179	0.10019202
57	0xbddc84f5	-0.10767547
58	0xbdd1ea80	-0.102498055
59	0x3d66d018	0.056350797
60	0xbbe9eb2b	-0.00713863
61	0x3e6be15b	0.23035185
62	0xbdcc2960	-0.09968829
63	0xbe094ad7	-0.13407455
64	0x3c6af213	0.014339942
65	0x3e621e44	0.22081858
66	0x3c66ee35	0.014094879
67	0x3e8adec1	0.27123073
68	0xbe3a89d6	-0.18216643
69	0x3d142891	0.0361715
70	0xbe6492fc	-0.22321695
71	0xbe21b861	-0.15792991
72	0xbe392a64	-0.18082577
73	0xbce111d8	-0.027474329
74	0x3dfda2cd	0.123845674
75	0x3cb770d6	0.022392672
76	0x3e1e173f	0.15438555
77	0x3e15e636	0.146386
78	0x3d13d59b	0.036092382
79	0x3e48d526	0.1961256
80	0x3e278ee5	0.16363104
81	0x3d3d3df1	0.04620165
82	0x3d5c6fa1	0.053817395
83	0x3e43f43d	0.19136138
84	0x3d5f46ae	0.054510765
85	0xbc9a4f7c	-0.01883673
86	0x3de63521	0.11240602
87	0xbea0b662	-0.31389147
88	0x3e4290be	0.19000527
89	0x3c975856	0.018474739
90	0xbdddc118	-0.10827845
91	0x3d327e02	0.0435772
92	0xbe0e0b01	-0.13871385
93	0xbe491c81	-0.1963978
94	0x3a7d24e7	0.0009656683
95	0xbd1b4503	-0.03790761
96	0xbe0fdc04	-0.14048773
97	0xbe41ec4e	-0.189378
98	0xbde5c999	-0.11220092
99	0x3dc23bbb	0.09484049
100	0x3d972655	0.07380358
101	0xbd2483cc	-0.040164754
102	0xbc6adfad	-0.014335555
103	0x3bc82930	0.0061084256
104	0xbd8dea63	-0.06929471
105	0x3df8c7ec	0.12147507
106	0x3c567722	0.013089927
107	0xbd75ed21	-0.060040597
108	0xbb02d368	-0.0019962434
109	0xbdcb9554	-0.099405915
110	0x3d8fd51b	0.070230685
111	0x3d58cacc	0.052927777
112	0x3d518f4f	0.05116206
113	0x3d81ac39	0.06331677
114	0xbd5bad5a	-0.053632118
115	0xbe00c298	-0.12574232
116	0xbe0e94c5	-0.13923939
117	0xbd70c0a4	-0.058777466
118	0xbe2c070a	-0.1679956
119	0xbe108049	-0.14111437
120	0xbe4e335e	-0.20136783
121	0x3c031a13	0.008001822
122	0xbc866694	-0.016406335
123	0xbe1fa4fd	-0.15590282
124	0x3d7d375a	0.061820365
125	0xbdf6c12f	-0.120485656
126	0xbe31cbc6	-0.1736289
127	0xbd65edb0	-0.05613488
128	0xba3b336c	-0.00071411463
129	0x3e9f5102	0.31116492
130	0x3dee3f78	0.116331995
131	0xbcea7e91	-0.028624805
132	0x3e1be877	0.15225397
133	0x3b2c3e9a	0.002628243
134	0x3e6e9f36	0.23302922
135	0xbe515c90	-0.20445466
136	0xbcb9b6d6	-0.02267019
137	0x3e22fb0d	0.15916081
138	0x3db86657	0.09003895
139	0xbe857a34	-0.26069796
140	0xbb13ab87	-0.0022532658
141	0x3daf86a8	0.085706055
142	0x3d05851f	0.032597657
143	0xbd3c864b	-0.04602651
144	0xbcef96d2	-0.029246721
145	0xbd7b6a36	-0.061380588
146	0xbd25e4cf	-0.040501412
147	0xbb5d0102	-0.0033722525
148	0x3e8bd884	0.27313626
149	0x3db946dc	0.090467185
150	0x3d4bf2d0	0.04979211
151	0xbd20927b	-0.039202195
152	0xbe618a73	-0.2202547
153	0x3e8b7fde	0.27245992
154	0xbe0d6f81	-0.13812067
155	0xbc3efafb	-0.011656518
156	0x3dc82717	0.09773081
157	0x3d0700c9	0.032959733
158	0xbe135a2c	-0.14389867
159	0xbe0e072c	-0.13869923
160	0x3e92426d	0.28566304
161	0x3ceaccec	0.028662167
162	0xbc5e06bf	-0.013551413
163	0xbd87b78a	-0.06626804
164	0x3e08dd5a	0.13365689
165	0x3e3c4450	0.18385434
166	0x3e0cbb81	0.13743402
167	0x3d7eb6de	0.062186114
168	0x3e7b84d5	0.2456239
169	0xbe24fbce	-0.16111681
170	0x3ddf9b1d	0.109182574
171	0xbc255890	-0.010091916
172	0xbe31dee5	-0.17370184
173	0xbd21ed05	-0.03953268
174	0xbe197ba7	-0.14988576
175	0x3d8e9e5d	0.06963799
176	0x3cf42d17	0.029806657
177	0x3d424fd7	0.047439422
178	0xbacc8b3d	-0.0015605461
179	0x3e03adce	0.1285927
180	0x3e85c10d	0.2612385
181	0x3e0b503b	0.13604824
182	0x3d405e11	0.04696471
183	0xbdf5d197	-0.12002867
184	0xbdb6fdae	-0.08935104
185	0xbe34c238	-0.17652214
186	0x3ce4a183	0.027909046
187	0x3d8671cc	0.06564674
188	0xbd2a8832	-0.041633792
189	0xbeb56fd3	-0.35436878
190	0x3e4c6ee6	0.1996418
191	0xbdb46775	-0.08808795
192	0x3deb9d94	0.11504665
193	0x3ea2060d	0.3164524
194	0xbdfd059b	-0.12354585
195	0x3e830e94	0.2559706
196	0xbc8e7b45	-0.017392764
197	0x3e887e9d	0.26659098
198	0x3e0a0d98	0.13481748
199	0x3e3eced5	0.18633588
200	0xbde001f7	-0.10937875
201	0xbda1f434	-0.07907906
202	0x3dccd9ae	0.100024566
203	0x3db89e88	0.090146124
204	0xbe13c621	-0.14431049
205	0xbd589f82	-0.052886494
206	0xbe0987b7	-0.13430677
207	0xbd9b0b50	-0.07570517
208	0x3e0935fa	0.13399497
209	0x3d543536	0.05180856
210	0x3e25da56	0.1619657
211	0xbdb43c3b	-0.088005506
212	0x3e518c5f	0.20463704
213	0x3d63217a	0.055451848
214	0x3d724088	0.059143573
215	0x3e6d1117	0.2315105
216	0xbe441669	-0.19149174
217	0x3e474626	0.19460353
218	0x3d8c2364	0.06842688
219	0xbb4f957f	-0.00316748
220	0x3de3f2f3	0.11130323
221	0xbd992adb	-0.07478877
222	0x3d1eccd1	0.038769547
223	0xbd973ff1	-0.07385243
224	0x3d4c633b	0.04989932
225	0xbd93d0dc	-0.07217571
226	0xbe5e0494	-0.21681434
227	0x3e9b93d1	0.30386212
228	0x3e9a7643	0.30168352
229	0xba7fe82d	-0.0009762075
230	0x3dd090b7	0.10183852
231	0x3d8ff9fa	0.07030101
232	0xbe904139	-0.2817476
233	0xbc2fe6cf	-0.010736181
234	0x3d1c396b	0.038140696
235	0xbd8bb60e	-0.068218336
236	0x3e05b01d	0.13055463
237	0x3e383f0b	0.17992799
238	0x3d8e1666	0.06937866
239	0x3e896a73	0.26839027
240	0xbdd92da7	-0.106044106
241	0x3c44e3b7	0.012017182
242	0x3d80075a	0.06251402
243	0x3e5e71b8	0.21723068
244	0xbc513646	-0.012769287
245	0x3c59ac0b	0.013285647
246	0xbe1f8e81	-0.15581705
247	0xbe430b4c	-0.19047278
248	0x3e454a79	0.1926669
249	0xbe0787d4	-0.13235408
250	0xbdad601c	-0.08465597
251	0xbcf2614f	-0.029587416
252	0xbdc7b225	-0.09750775
253	0xbd90fd18	-0.07079524
254	0x3e5c0e5f	0.21489857
255	0x3e053ef6	0.13012299

bias f4 [64]
0	0x3f0616f4	0.52378774
1	0x3f514b4b	0.8175551
2	0xbe3f869f	-0.18703698
3	0xbe3da89b	-0.18521349
4	0xbec12ca7	-0.3772938
5	0x3ea941fe	0.3305816
6	0xbe7d94b4	-0.24763757
7	0x3e2b3614	0.16719848
8	0x3ee4cd0f	0.44687697
9	0x3eaccc33	0.33749542
10	0x3dbb3dd1	0.0914265
11	0x3d8b6d34	0.06807938
12	0xbf76bc09	-0.9638067
13	0x3e9c73bd	0.3055705
14	0xbdd35cfd	-0.103204705
15	0x3e5aa31a	0.21351281
16	0xbd33a3b6	-0.0438573
17	0x3df36b24	0.1188567
18	0xbed0fac9	-0.40816334
19	0x3dcc57b4	0.099776655
20	0xbe1e2515	-0.15443833
21	0xbe0faa1c	-0.14029735
22	0xbe8f21a1	-0.27955344
23	0x3e130813	0.14358549
24	0xbe2a2f80	-0.16619682
25	0x3b5e87bd	0.0033955418
26	0xbe1b1b16	-0.15147051
27	0x3d8cc8dc	0.068742484
28	0x3e175a25	0.14780481
29	0x3e20744f	0.15669368
30	0x3e49eb10	0.19718575
31	0x3dbbb7fd	0.09165952
32	0x3e2503e7	0.1611477
33	0xbe2663d7	-0.16249023
34	0x3d9216a7	0.07133227
35	0xbe6b94f0	-0.23006034
36	0x3d67a7e9	0.056556616
37	0xbd9e1b52	-0.07720055
38	0xbdc43e8e	-0.09582244
39	0x3f1836e7	0.59458774
40	0xbe01b0c9	-0.12665094
41	0x3da8a97a	0.0823545
42	0x3eb386c2	0.3506375
43	0x3eee0cf1	0.46494249
44	0x3de6c629	0.11268265
45	0x3e110dff	0.14165495
46	0x3f06ee9a	0.5270783
47	0x3e8dc87a	0.27692014
48	0x3f41adca	0.75655806
49	0x3e5f7b2b	0.21824329
50	0x3e1db668	0.15401614
51	0xbdce86af	-0.100842826
52	0x3e9191f5	0.2843167
53	0xbdda17c7	-0.106490664
54	0xbf1219d8	-0.57070684
55	0xbecb3200	-0.39686584
56	0x3f2eab25	0.68229896
57	0xbd922beb	-0.07137283
58	0x3e0c6d9b	0.13713686
59	0x3ea4693a	0.32111531
60	0x3e2db295	0.16962655
61	0x3eaf53c4	0.34243596
62	0x3d8699f0	0.0657233
63	0x3e1a809c	0.15088123
