AE Models/torch1.66autoencodervalmodel.pth (torch, 119906 bytes, 27 tensors)

weight f4 [16, 1, 4]
00000000: e2d6 cdbd 7ed0 103d cae3 0e3d 5fb2 2fbb
00000010: 17a3 fdbd 4fed 05bd 3d57 acbb 6dd2 6ebd
00000020: 3892 babd a074 55bd 3224 1d3d e04f be3d
00000030: 17c0 08bd 98e8 85bd 1deb 363e 8e9f 07be
00000040: 0f36 f6bd 685e 7b3d 58d7 ce3d 2813 5f3c
00000050: 6834 eabe dbf7 6a3d 82ba ae3d 3121 b3be
00000060: dc6f 953d 1f9c db3d 17f6 8f3d 8703 fb3b
00000070: f710 88bd ccf8 0e3b 4ecd 47bd ab16 b73d
00000080: e22b 4bbd b8da 79bc 5a8f a0ba 0781 afbc
00000090: 27f9 8dbd 9cc9 ed3d 4cd9 5abd 1652 403d
000000a0: 929a f83d ee69 093d 0485 2dbd 7400 f4bd
000000b0: 8b7a cd3d e56f 27bd 8b66 1d3d 9b20 9fbc
000000c0: 5e6e 97be af28 cfbd ab04 f03c fe57 573e
000000d0: f7bf ee3c b134 433d eddd b8bd b94a a23d
000000e0: 10cc 193e 57a1 95bd afe8 8a3d 2de1 01bf
000000f0: 5bc9 9b3b 8e2e 703d 27d6 0f3e 47f6 ec3d
-0.10050751 0.035355084 0.034885205 -0.0026809198 -0.123846225 -0.03269702 -0.005259423 -0.058306146
-0.0910992 -0.052113175 0.038364597 0.09292579 -0.033386316 -0.06538504 0.17863126 -0.13244459
-0.120220296 0.06136933 0.10099667 0.013615407 -0.45743108 0.05736528 0.08531667 -0.3498626
0.07296726 0.10723137 0.0702936 0.0076603326 -0.06643861 0.0021815775 -0.04877978 0.089398704
-0.049602397 -0.0152499005 -0.0012249753 -0.02142383 -0.06932288 0.116107196 -0.053429887 0.046953283
0.12138857 0.033548288 -0.04236318 -0.11914149 0.10033139 -0.040878195 0.03842787 -0.019424727
-0.2957639 -0.10115182 0.0292991 0.2102966 0.02914427 0.047657672 -0.09026704 0.079244085
0.1501925 -0.07306164 0.06782662 -0.50734216 0.004754228 0.058638148 0.14046536 0.11570411

bias f4 [16]
00000000: a1fe 833e 1ac5 8b3f d755 203d 497d e33e
00000010: 6128 5abf 33a6 333f 77b7 f03c c1f7 dd3e
00000020: 3707 523f a348 d0bd b3ec 183d 3714 17be
00000030: 36f5 9bbf 2149 36bd f697 d6be 43e7 cabe
0.25780204 1.0919526 0.039144363 0.44431522 -0.85217863 0.70175475 0.029384358 0.43353084
0.8204226 -0.10170104 0.03733511 -0.14753805 -1.2184207 -0.044503335 -0.41912812 -0.39629564

weight f4 [16, 16, 4]
00000000: 3127 3dbd b052 acbc 4ae4 2abe 1439 5bbe
00000010: 1654 70bd 3264 da3c 983a 183d 5219 fd3d
00000020: 41f6 413d 745b c5bd 03e7 cfbd 475e a6bd
00000030: 8a79 b4bd 2814 fabb 35b4 d6bd fc7a b73d
00000040: d9c7 33bc 608a 0bbf d8ed 2fbd 2a4a d43e
00000050: b867 ca3d c29a 91bd 5813 a33d 544c d93c
00000060: ef3e e7bc 90ee 38be 5a56 323d 1bd6 f83c
00000070: 6292 883e 3a53 95bd 5ef1 e73d 7e90 22be
00000080: d5b7 af3e 9cff cc3d edd1 813e 781b a13e
00000090: 7ce8 6b3d 11e0 cdbd dee9 01bd 284b 113d
000000a0: ce01 d2bc f0df d93d e5f1 1fbd 7007 d63d
000000b0: 1a26 80be 6be1 2b3e e746 5ebd baf6 533e
000000c0: 22ff 613c 7d38 2e3e c0b9 1ebe a91c 83be
000000d0: 0805 843d c1e5 5a3d 0baf bfbd d2b0 a7be
000000e0: a6f4 4f3e 60ef 743e c21b 8b3e 3fef 863d
000000f0: 9d69 b2bd 80b6 6fbc 64cb 573b d30c 32be
00000100: 767f 8dbc 98c7 eb3d b022 003d 1f79 2bbe
00000110: 7e5b 62c0 f911 d2be 68ea 30bf 9855 9a3d
00000120: 56f2 343d ea09 883d 09d9 d23c 0dba 56be
00000130: da3b 14be c275 9ebd 63ae 9b3d ecbb ad3e
00000140: e80f 9c3e aeea 11be 754a 23be 0dd2 6b3e
00000150: dde5 2bbf 2142 903e ef3a 4b3e 71fb febd
00000160: 7f52 2c3e 9ccb df3d 8b48 23be 9201 6e3c
00000170: b00e 92bd 4b22 683e dcc5 12bd 834b 98bc
00000180: 3234 c2bf 1aa6 96be 729c 553e b5dd 1b3f
00000190: d6ca eabd 6c81 493d ea6c 9d3d 397b 003c
000001a0: d365 d63d 2333 b03d f3af 0b3e d647 ee3d
000001b0: e9c7 353d c1cf c93d 3901 073e e03e d4bd
000001c0: ae33 5bba 3699 c0be a9c7 febe eab9 a0be
000001d0: 3d17 203d 1a03 48bd c014 c1bd 4024 b3be
000001e0: fecd 6a3e 3976 3f3e c0b5 f63d 48a3 97be
000001f0: 3f81 29bd 713e 6bbd 335b 88be bdbc c5bd
00000200: b6d9 0dbd 3086 c73c d54b 2dbd 3336 dbbe
00000210: d251 2cbf db91 cebe 738a 98be 8fbb 6dbe
00000220: 9425 3d3d 8315 4bbd e4d6 96be 2886 8b3e
00000230: 5690 f2bd 1b8b 07be eb68 9c3e c9ec ce3e
00000240: 75fb 1bbe 181b 4dbd 4233 073e 3f14 2a3f
00000250: f9ed 1bbf 9e76 40bf 15d7 afbd fd4c 42bf
00000260: 7760 4f3e 98a4 143e d8ec 6e3d dea2 34bf
00000270: 6853 c0bd 22a1 f93d ec88 4dbe 0cc8 aebe
00000280: 9c82 e33e 3707 403e 6ddb 90bd feb2 87bf
00000290: 172b 203e 26a9 6ebd 6bb5 48be e85a e2bc
000002a0: 7ff3 afbc d5e3 943d 37c1 ee3b 96c6 96bd
000002b0: 52cb 52bd ac28 a63d b812 f13d a799 04bf
000002c0: f116 3e3e 1d0b 683e 7524 a3bb 28f0 87bf
000002d0: ff70 693d 1a75 c33d fa61 b8bd 57f2 2ebf
000002e0: 88dd 583e 99c4 6abc a040 393e 33cb 5ebd
000002f0: 0794 0b3e 7bc8 7ebc 2d56 fa3e 0902 49be
00000300: 6185 c03d 6a7b 193e 4332 d43c 21c0 08bd
00000310: 5223 28be f24f 5cbe f9b0 3d3d b0f9 863d
00000320: f1c8 6dbe 01c0 82bd 1181 14be 4782 d1bd
00000330: f02e 2a3e 28e3 ccbc cfd2 dfbd 2a44 47be
00000340: 2319 8f39 fac0 2ebe 0771 f63d b0c5 2f3e
00000350: 1599 e9ba d2a6 6bbe 3f2d 0cbf 6647 febd
00000360: b777 98bd 1de7 78bd 5e13 0a3e 8614 a03c
00000370: 5348 26bd 2de6 35be 13ce f33b e7a3 2e3e
00000380: a363 033e 4e2c 5a3e b64f c8be 1eff 7f3d
00000390: d8f5 49bd cbaf 2a3e c375 00be ffb2 ba3d
000003a0: 1f53 ba3c 9ccd e5bd 436a 763c acca 97bc
000003b0: 3803 91bb 2c65 d1bd 8e83 96bd 33f5 a9bd
000003c0: c5d2 58be 6bbb 58bd da38 a73d e97d 073d
000003d0: 25b1 a1bd 6c31 ef3d f2a0 733e c2ff f93b
000003e0: 9c8d acbe 90f3 5a3d 7dbd bfbf 67f1 34bd
000003f0: c824 fcbc ab14 85bd 5c5d 5639 e81a 463e
-0.046179954 -0.021035522 -0.16688648 -0.21408492 -0.05867394 0.026659105 0.037165254 0.12358345
0.047353987 -0.09636584 -0.10151484 -0.08123451 -0.08812244 -0.0076317973 -0.104835905 0.08959004
-0.01097294 -0.5450802 -0.042951435 0.41462833 0.09883064 -0.07109596 0.07962674 0.026525654
-0.028228251 -0.18059754 0.043539383 0.030375531 0.2667418 -0.07291265 0.11325334 -0.15875432
0.3431994 0.10009691 0.25355473 0.3146627 0.05759476 -0.10052503 -0.031717174 0.035472065
-0.025635626 0.10638416 -0.039049048 0.10450637 -0.2502907 0.16785209 -0.054266836 0.20699587
0.013793739 0.17013736 -0.15500546 -0.25607803 0.06446272 0.053441767 -0.09359559 -0.3275209
0.2030817 0.2391944 0.27169615 0.06588601 -0.087115504 -0.014630914 0.0032927627 -0.17387705
-0.017272692 0.11512679 0.03128308 -0.16745423 -3.5368342 -0.41029337 -0.69107676 0.07535857
0.044176422 0.06642516 0.025738256 -0.2096941 -0.14475957 -0.07737304 0.07601621 0.33932436
0.30480886 -0.1424968 -0.15946372 0.23029347 -0.6714762 0.28175452 0.198467 -0.124503024
0.16828345 0.10927507 -0.15945642 0.014526742 -0.07131708 0.22669332 -0.035833225 -0.018590694
-1.5172179 -0.294236 0.2086046 0.60885173 -0.11464469 0.049195692 0.07686789 0.007841879
0.1046864 0.086035036 0.13641338 0.11634795 0.044380102 0.09854079 0.1318406 -0.10363555
-0.0008361888 -0.3761689 -0.49761704 -0.3139184 0.03908466 -0.048831083 -0.09427786 -0.34988594
0.22930142 0.18697442 0.12046385 -0.2961676 -0.041383024 -0.057432596 -0.2663208 -0.096551396
-0.034631453 0.024355978 -0.042308647 -0.42814788 -0.6731235 -0.40345654 -0.29793128 -0.23216079
0.046178415 -0.049581062 -0.29460824 0.2725079 -0.11843936 -0.13236658 0.30548796 0.40415028
-0.15232642 -0.050074667 0.13203147 0.66437143 -0.6090999 -0.75180995 -0.085859455 -0.75898725
0.20251642 0.14515913 0.05833134 -0.70561016 -0.093909085 0.12188937 -0.20071763 -0.34137
0.44435585 0.18752752 -0.07073102 -1.0601499 0.15641437 -0.05826678 -0.19600455 -0.027631238
-0.021478413 0.07270018 0.0072862166 -0.07362096 -0.051463433 0.08113226 0.117711484 -0.51796955
0.18563439 0.2266049 -0.0049787113 -1.0620165 0.056992527 0.0954382 -0.090030625 -0.6833853
0.21178257 -0.014329099 0.18091059 -0.054393005 0.13630687 -0.015550728 0.48893872 -0.19629683
0.0940044 0.14988485 0.025902873 -0.033386353 -0.16419724 -0.21514872 0.046311352 0.06590593
-0.23221184 -0.06384278 -0.1450236 -0.102299266 0.16619468 -0.02501066 -0.109288804 -0.19459596
0.00027293814 -0.17065802 0.12033277 0.17165256 -0.0017822111 -0.23012856 -0.5475654 -0.12415962
-0.07444709 -0.06076728 0.1348395 0.019541036 -0.040596317 -0.17763586 0.0074403374 0.17054711
0.12830977 0.21305963 -0.39123315 0.062499158 -0.04930672 0.16668622 -0.12544923 0.09116172
0.022744713 -0.112208575 0.015039983 -0.018529259 -0.0044254325 -0.10224375 -0.07349311 -0.08298721
-0.21174152 -0.05291311 0.081651405 0.03307906 -0.07895116 0.11679348 0.23791865 0.0076293657
-0.3370179 0.053454936 -1.4979702 -0.04417553 -0.030779257 -0.06498083 0.0002044341 0.19346201

bias f4 [16]
00000000: a4b8 1a3e 01d3 863e 571f 4fbe cde8 953e
00000010: fd82 d8bd 1215 33bb 8cbe 01bf 8bc2 7ebe
00000020: e5de 14be c5ef 623c 8fed 2abd 6592 233f
00000030: 1328 00bd c9b1 1fbf 6280 d2be 0d1c babc
0.15109497 0.26332858 -0.20226799 0.29279175 -0.10571859 -0.0027325791 -0.50681376 -0.248789
-0.14538153 0.013851111 -0.04173046 0.63895255 -0.031288218 -0.62380654 -0.41113573 -0.022718454

weight f4 [16, 16, 5]
00000000: 799c 0f3d d16b ecbd cfd2 93bd 08f3 e23b
00000010: 6100 a4bc b87a 533d 5825 ae3d 303f cf3c
00000020: 7bd1 d4bd c4ec 943d cfa0 7dbc 4c42 07bd
00000030: e4a8 dabc 6888 223c 987c c7bd 4b38 83bd
00000040: e7c5 1cbe 50a5 91bd 3352 ee3c b48e 533d
00000050: ac8e 28bd d379 9ebd 4397 283d 5dae 19be
00000060: b0fb 303d e11c 90bc 6f6b 1bbd aaf3 6d3d
00000070: 2575 533d f240 a23c 266e 55bc d252 733d
00000080: 6a30 ddbd d565 fdbd c699 c6bd 0810 d2bd
00000090: f554 76bd d499 d53c 2540 9cbd e2a7 98bd
000000a0: 61e1 dbbd 3ab0 ecbd f0b1 cebd 26ca 58bd
000000b0: 824b ecbc 5c93 b83c b7bd 05be 04b8 a8bc
000000c0: 138a ff3c a28e 10be 7847 f6bd 1e6b 543d
000000d0: 1ada 1bbe 6fc5 9bbc 0a73 633d 91d2 88bd
000000e0: 8bcf a7bd fc1c dcbc 519d aabc 05ed 803c
000000f0: 7e9b e3bc 291e 71bd 6e46 d3bd cc8d b9bd
00000100: 01c0 873d 4f99 cebc 0558 0fbd 8be4 d4bd
00000110: 4583 e1bd 45cb 88bc cf41 d7bd ba10 00bd
00000120: bc8a 403d e4b6 513d c21e 993b 982c d9bd
00000130: d5fe e13c 001f 75bd 4424 97bd 6733 cabd
00000140: fe66 383e db81 933e 1482 bd3e 8e45 9c3e
00000150: cdd6 2dbd 114d 813d 96c8 533e 7c2c f1be
00000160: dd59 aabe a4ed 1d3d 70cc f6bd c273 8fbc
00000170: 9877 973d 69f0 313d a2a4 293f d91c 433e
00000180: 965a e4bc 8b39 d4bd b84f 06be 8a2e 81bd
00000190: 30ef e5bd a128 423e 0eee 0e3e 355a 843c
000001a0: 8700 f03c cac0 89be 9ea5 aebd 2b1a c3bd
000001b0: 077f 46bd f8d2 253d 7462 16bd 5a76 ad3e
000001c0: 62d0 09bd 67ff c8bd 762f 643d 7b40 59be
000001d0: deeb 1b3d bc7b 06be 37f0 ecbd ce53 393e
000001e0: 56ce e8bd ea39 0abd c6b2 e2bd baef d13d
000001f0: afd4 a0be c6cf dc3e a863 08be b488 10be
00000200: a221 bdbd 9e8e 9d3d 8380 f53c 809e ce3c
00000210: 6a34 17be b855 0cbe 26cd 29be 7480 93bd
00000220: 9670 88bd e03c 2ebe a035 6abd 0967 65be
00000230: 8fcc de3d 66cb 603d 26b4 813d dd2f ac3d
00000240: 2c7e 3fbe 02e6 c13c 8ec1 903d 5e20 6d3e
00000250: 1511 b73d 5c6f 1f3e ddb8 053e 905f a63c
00000260: 26ec 823d 2ffd 1ebe 7654 7b3e 4b9f 563e
00000270: 3d30 aa3c e36d b9bc 0a83 37be fac2 e3bc
00000280: 41f0 a0bc abf2 cdbd cedd e4bc bb5f d33d
00000290: cee6 883d dd8c 00be d5e8 65be d529 5bbe
000002a0: 59cb 373e 9b45 503e 00cc 073e f44b 883d
000002b0: e968 fbbc 447b a13e 4156 b63e aa80 f2bc
000002c0: 930f e33d 0354 183d 20a2 09bd 8882 193d
000002d0: 09bf aa3d 5cb3 3c3d 0a86 ae3d d828 3c3e
000002e0: e52a 763e 3c43 d73d 18e5 8b3d 8900 d13d
000002f0: 76ed a93c d195 77bd e052 773d ca1b 9fbb
00000300: f441 33be fd25 16bd 7f9f 29bd a561 d83b
00000310: 7dda 133e 1b42 1fbe ec27 033e 6129 3a3e
00000320: 6caf 143d ce8d 093d 158f 1a3e 85b9 503c
00000330: 2c02 473e 2a9d 86be e1c4 96be f92a a63d
00000340: 9aba 593d 92bf f9bd 1db2 373e 06e3 f53c
00000350: da94 983d 0e8d 4c3d 8d98 f13d 4069 8bbd
00000360: 0666 18bd df93 7cbd 4e99 87bd 0c3a b13c
00000370: a309 e2ba 5858 e0bd aefd 12bd 91e2 bfbd
00000380: 4589 843c 3754 213c cf07 8f3d c089 debd
00000390: 2c2d 5c3d 5fd4 5b3c 06f9 89bc 68b2 a93d
000003a0: 36ec 4dbd 6d90 223e 9ebf 2a3e e5be 9e3d
000003b0: 675f bc3d daea 17be 4156 953d 54ed 63bd
000003c0: bdb4 4ebd cf1b 39be 1b88 65bd 1ee9 3cbb
000003d0: abc7 0cbf b981 0fbe add2 95be 6a4a 23bf
000003e0: c9ab 193f 0020 b23e a829 24be b3ba f9bf
000003f0: 0ecf ecbd edb7 e13e 6fb5 3cbd ab5b 1d3e
0.035061333 -0.11544002 -0.07217943 0.0069259442 -0.020019712 0.051630706 0.085032165 0.025298685
-0.10391518 0.07271722 -0.015480234 -0.03302221 -0.026691861 0.009920217 -0.09740561 -0.064072214
-0.15309869 -0.07111609 0.02909193 0.051649764 -0.041151688 -0.0773808 0.04115988 -0.1500792
0.043208778 -0.017591896 -0.037944254 0.058093704 0.05162539 0.019806359 -0.01302675 0.059405155
-0.1080025 -0.123729385 -0.09697299 -0.10256964 -0.060139615 0.026074328 -0.07629422 -0.07453896
-0.10736347 -0.1155705 -0.10092533 -0.05292716 -0.028844599 0.022531204 -0.13060652 -0.020595558
0.031193769 -0.1411691 -0.1202535 0.051859967 -0.15219918 -0.019015042 0.05552963 -0.06680787
-0.081938826 -0.02686929 -0.020826967 0.01573802 -0.027784105 -0.058866654 -0.10316168 -0.09060249
0.06628419 -0.025219588 -0.03499605 -0.103951536 -0.11011366 -0.016698489 -0.10510599 -0.03126595
0.047007307 0.05119981 0.004672856 -0.10604209 0.027587334 -0.059844017 -0.07379964 -0.098730855
0.18008038 0.2881001 0.37013304 0.30521816 -0.042441178 0.063135274 0.20681986 -0.4710425
-0.33271685 0.03855671 -0.12050712 -0.017511252 0.073958576 0.043442164 0.66266835 0.19053973
-0.027875226 -0.10362538 -0.13116348 -0.06307705 -0.11227262 0.18960811 0.13957998 0.016156295
0.029297126 -0.269049 -0.08527683 -0.095264755 -0.048460986 0.0404844 -0.036714986 0.33879358
-0.033645995 -0.09814339 0.055709325 -0.21216004 0.038066737 -0.13133138 -0.11569255 0.18098375
-0.113674805 -0.033746637 -0.110692546 0.10250802 -0.31412265 0.4312727 -0.13319266 -0.14114648
-0.092349306 0.07693218 0.029968506 0.025222063 -0.14766088 -0.13704574 -0.16582164 -0.07202235
-0.06662099 -0.1701541 -0.057180047 -0.22402586 0.1087886 0.054881476 0.06333189 0.08407567
-0.18700475 0.023669247 0.070681676 0.23156878 0.08938805 0.15569824 0.13058801 0.02030924
0.06392698 -0.1552627 0.24543938 0.20959203 0.020774955 -0.022635406 -0.17921081 -0.027802933
-0.019645812 -0.10056051 -0.027937796 0.103209935 0.066846475 -0.12553735 -0.224521 -0.21402676
0.17948665 0.20339052 0.13261414 0.06655112 -0.030689673 0.31539357 0.35612682 -0.029602367
0.11086955 0.037189495 -0.03360188 0.037478 0.08337218 0.046069488 0.0852166 0.18374956
0.240398 0.10510871 0.068308055 0.1020518 0.020743113 -0.06044561 0.06038177 -0.0048556076
-0.17505628 -0.036657322 -0.041411873 0.006603437 0.14438815 -0.15552561 0.12808198 0.18179847
0.036300108 0.0335825 0.15093644 0.012739544 0.19434422 -0.26291782 -0.29447082 0.08113665
0.053156473 -0.12194742 0.17939039 0.03001548 0.07450266 0.049939208 0.11796675 -0.06807184
-0.037206672 -0.06166446 -0.066210374 0.021634124 -0.0017245304 -0.1095435 -0.03588646 -0.09369386
0.016178736 0.009846739 0.06983911 -0.108661175 0.053754017 0.013417332 -0.016842376 0.082859814
-0.050274096 0.15875407 0.16674659 0.07751254 0.09197884 -0.14835683 0.07291842 -0.055646256
-0.050465334 -0.18077014 -0.056038003 -0.0028825472 -0.5499217 -0.14014329 -0.29262295 -0.6378542
0.6002775 0.3479004 -0.16031516 -1.9510101 -0.1156293 0.44085637 -0.046071466 0.15367

bias f4 [16]
00000000: 2561 29be 56fd 2e3d a85e 7d3c 569d 9b3d
00000010: ccdb 123d 6b1e c7be 3bd5 7dbe 806c d3bd
00000020: 49bc cfbd 3762 533e ce32 94bd 8e71 073e
00000030: 2696 823e 70d3 c63d 02d5 27be 9c94 d43d
-0.16540964 0.04272207 0.015464462 0.07598369 0.035854146 -0.38890395 -0.24788372 -0.10323429
-0.101433344 0.20642935 -0.07236253 0.13226911 0.2550518 0.09708297 -0.1638985 0.103799075

weight f4 [16, 16, 5]
00000000: d335 d7bd aae1 34bd 0fee e8bc abaa 67bd
00000010: a322 faba 364e 0bbe b6ce f1bc ca35 043d
00000020: 0fa5 013d cf21 85bd 0aca 88be 2480 1cbe
00000030: 56be 083e 6250 253e 1130 453c 39ee e03d
00000040: b2e5 24be be37 ffbd 8273 a23e 4660 493e
00000050: c684 643d d067 5dbd 5afb 81bc abc0 b13d
00000060: 239b 243d 4e40 1abe d34e ee3d dc44 6d3d
00000070: cc54 2dbe 23a2 97bd 9fe7 8abd 9007 8cbe
00000080: 2fa8 7fbe fed9 963e fc63 513e 3eb9 8a3d
00000090: a3c4 8bbc 9ddd b1bd 5e04 bebc d513 e5bd
000000a0: 2cb2 93bc fbc3 cbbd 3fcd fa3c 443f 623d
000000b0: 1648 ebbd 28c5 21be 448f e9bc 4d2d 08bd
000000c0: 7030 f1bd b521 b43c d4f1 4b3b a212 803d
000000d0: 427d c7bd a6f4 8a3e 3357 d43e 6c0a 5b3e
000000e0: c5d7 81be 3256 09be 9d91 7ebd 8028 babd
000000f0: 20c5 b2bd a44c 5e3d 9374 f9bc d82d 80bd
00000100: c112 123c f4b0 0bbd c2ba c8be d030 adbd
00000110: 64cb 873e a8e9 823e ce47 12be 345e c7bd
00000120: 4848 923d 57b9 9b3e 3dab ab3e 66bb 4dbe
00000130: 8936 88bc 3a01 67be 8927 b23d c709 b53e
00000140: c27d 1ebd f740 99bd 95a1 e73d 9ad1 1b3d
00000150: c8d3 053d 31a7 0ebe dc24 3c3e 175a 0a3e
00000160: 632b 153b 5c7e 05bd 0436 e6bd d2e3 a33e
00000170: 1721 fc3d 43e5 c7be 93ac dcbe 1448 fb3d
00000180: 20e9 9bbd b4cf 913d ca64 57bb 8c60 4fbf
00000190: 5022 8a3e 7bf1 35be 4a71 b33e cea0 253e
000001a0: 543b eabe 4483 08be 51ec d7bd 7bad 703d
000001b0: 8375 123e 1896 b2be 2702 ce3d d71c b4bc
000001c0: 7e2a 3b3e 029c 953d ffaa 3dbe ec76 3fbe
000001d0: 8158 4b3e 6988 3cbe 333a 6a3e 88de b6bd
000001e0: ba4a b53c c62c 59bd 023e 45bd ab63 14bd
000001f0: 0da8 9a3d 6437 0d3d 1e5a 703e 7cc7 abbd
00000200: 2f96 fbbd 3c48 823e 0dc6 423e ba72 213e
00000210: dffe dabd 4b44 053e 6b31 8fbe c7e3 afbd
00000220: 0a1e 11bd d70f 1fbe 07f3 37be 36d8 adbe
00000230: 2e72 8c3d 14f7 10bd 3110 08bd 30b8 a9be
00000240: d8ef 99be 8498 e23b b766 01bf 2cde e0bc
00000250: 7465 df3e 9238 e1be 5a3a 0b3e 2fc7 ac3d
00000260: 6619 bc3d 62af 763c 2944 c73d 1bf1 c53c
00000270: f82d 073e 87d1 52bd 9d4c 2ebb 4bd5 a03e
00000280: 0151 bb3c 39fe 093d 84a3 31bd a2b8 19bb
00000290: 371c 443d 1d63 c1be d47b 793d 5f61 ce3d
000002a0: 6272 303c 63ce 8a3d 7cef 903c aa13 b93d
000002b0: e924 8abb 2248 963d d4fd 253d 66fa b9bd
000002c0: 5db7 38be a96a 013d 389c 1a3e 7296 20bd
000002d0: b1a7 a8bd 1c4e 97bc 8c64 073d 9be7 34bc
000002e0: 8f03 fabd 64c4 6abd 806a 74bd c098 0b3e
000002f0: 1200 2bbc 82b4 b6bd 35f4 e5bd ce06 0dbe
00000300: 312f aebc 342f 6d3e 2ff2 c53c eb83 d93e
00000310: 09c0 183e d0e4 003d 250f 73bd 4c5e 63bd
00000320: 1733 b5bc 1044 5f3d a849 0f3d e2e4 e43c
00000330: 3ab2 1b3d fdbe 533e 1e92 0a3d e4d0 0dbe
00000340: c812 e03d 24dc cd3d 1119 9d3e 2058 6c3d
00000350: d9ee 983c ed01 a7bc 130d ecbc 6766 c23d
00000360: c0cc bd3d ebe7 d63c eda8 b93c 895b 6bbd
00000370: 5bef 3b3e 6a9b f1bd b6cb f8bd 0c0d 93bd
00000380: bb33 843d a680 043e 8f07 1abe b860 c73d
00000390: 3fc1 b03c 24c2 c9bd 9067 773e ff54 7c3c
000003a0: 3b46 c23d 10d5 d93d c02d 083e f1a4 773e
000003b0: 4130 8abd 97fc 44be b09f 763c 985f 043e
000003c0: 12a8 abbc 2fd4 b7bd 7072 d6bc c7d0 e13c
000003d0: 71c8 41bc 9169 ea3e b63a a73c d3b6 7b3e
000003e0: 2269 3fbe 65fe e1bd 23e9 d1bd a7a1 88bd
000003f0: 0c67 d5bd 470c 2a3e d669 f83c 5003 243e
-0.10508313 -0.044160523 -0.028433828 -0.056559246 -0.0019083809 -0.13604054 -0.029517513 0.03227786
0.031651553 -0.06500589 -0.26716644 -0.15283257 0.13353857 0.16143945 0.012035386 0.10982937
-0.16103247 -0.12461804 0.3172875 0.19665632 0.055790685 -0.05405408 -0.015866924 0.086793266
0.040187012 -0.15063593 0.11636128 0.057926998 -0.16926879 -0.07403972 -0.067824595 -0.2734952
-0.249665 0.2946319 0.20448297 0.067736134 -0.017061537 -0.086848475 -0.023195442 -0.11185423
-0.018029295 -0.0994949 0.030615447 0.055236116 -0.11488359 -0.15797865 -0.028510697 -0.033246327
-0.11776817 0.021988729 0.0031119483 0.06253554 -0.09740688 0.27139777 0.41472778 0.21390694
-0.25359932 -0.13411787 -0.062150586 -0.09089756 -0.08729005 0.05427231 -0.030451095 -0.06258744
0.008915604 -0.034104303 -0.39204985 -0.08456576 0.26522362 0.2556889 -0.14285204 -0.09734765
0.07142693 0.3041484 0.33529082 -0.20091018 -0.016627567 -0.22559062 0.08698947 0.35359022
-0.03869415 -0.07483094 0.11310116 0.03804169 0.032672673 -0.13930966 0.18373436 0.13510929
0.0022761456 -0.03259121 -0.112407714 0.3200975 0.12310999 -0.390421 -0.43100414 0.12269607
-0.076128244 0.07119694 -0.0032866471 -0.81006694 0.26979303 -0.17767899 0.3504737 0.16174623
-0.4574839 -0.13331324 -0.10543121 0.058759194 0.1430264 -0.34880137 0.10059004 -0.021986408
0.18277928 0.07305147 -0.18522261 -0.18697709 0.1985798 -0.18411411 0.22873764 -0.08929163
0.022130359 -0.053021215 -0.04815484 -0.036227863 0.075515844 0.034476653 0.23471877 -0.08387658
-0.122845046 0.25445735 0.19020863 0.15766421 -0.10693144 0.13014333 -0.2796739 -0.08588367
-0.035429038 -0.15533386 -0.17963801 -0.33954018 0.068577155 -0.035391882 -0.033218566 -0.33148336
-0.300658 0.006915154 -0.50547355 -0.02744969 0.4363209 -0.43988472 0.13596478 0.08436429
0.09184532 0.015056463 0.097297974 0.02416282 0.1320113 -0.051469352 -0.0026595958 0.3141273
0.022865774 0.03368971 -0.04336883 -0.0023455997 0.04787847 -0.3777093 0.060909107 0.10077166
0.0107694585 0.067776464 0.01769232 0.09036954 -0.004215826 0.07337977 0.040525272 -0.09080963
-0.18038698 0.03159586 0.15098655 -0.039205976 -0.082351096 -0.018469863 0.033054873 -0.011041547
-0.1220771 -0.0573162 -0.05967188 0.13632488 -0.0104370285 -0.08921148 -0.112282194 -0.13772127
-0.021262737 0.23162538 0.024163334 0.42483458 0.14917006 0.031468213 -0.059340615 -0.05550985
-0.022119088 0.05450827 0.034982353 0.027941171 0.038011767 0.20678325 0.033830754 -0.13849217
0.10941082 0.10051754 0.30683187 0.05770123 0.018668579 -0.02038666 -0.028814828 0.09492188
0.092675686 0.026233634 0.022663558 -0.05746034 0.18353026 -0.11797221 -0.1214823 -0.07180223
0.06455179 0.129397 -0.15041946 0.097352445 0.021576522 -0.098514825 0.241606 0.015401124
0.09486052 0.106363416 0.13298702 0.24184014 -0.06747485 -0.1923698 0.015052721 0.12927091
-0.020954166 -0.08976018 -0.026177615 0.027565373 -0.011827574 0.45783666 0.020413738 0.2458146
-0.18692449 -0.1103485 -0.102495454 -0.06671458 -0.10420045 0.16606246 0.030323904 0.16016889

bias f4 [16]
00000000: 370d 833e cbaa 13bf 85cc eebe 89d1 97be
00000010: 7c6c dc3d ed8b a2be 332c 2a3e 4ebc 2d3f
00000020: c8d0 8abe 46c0 933d 52a9 ddbe d1cc afbd
00000030: e49c 03be c3f2 9f3c 24eb a23b 7d73 163e
0.2559602 -0.57682484 -0.4664041 -0.2965205 0.10762879 -0.3174738 0.16618423 0.67865455
-0.27112412 0.072144076 -0.43293244 -0.085839875 -0.12852818 0.019524937 0.0049718786 0.14692493

weight f4 [64, 112]
00000000: eade 043e fcbc 053e 60c2 8ebe 5b07 813e
00000010: a6e1 48be 2133 763e 7d90 a0be 49b4 593c
00000020: d7bc 3b3d ec8c 4bbe bbf5 75bd 65c0 693d
00000030: 3eab 3f3e 0b21 87bd bacc 80be 44f9 2a3e
00000040: 45e5 943e 3be8 03be 3789 ad3c 4179 9dbc
00000050: 3296 30bd ee83 cb3d 0b56 723e f04e fc3d
00000060: 9580 33bd 56f8 84be 5182 b0be 5112 b1ba
00000070: cfbf 613e 8073 4ebd a4a5 ba3d 5b45 3bbd
00000080: 9d53 493e df1b 4ebe e3bc 183e cf75 fbbc
00000090: 89e3 9a3e f4e6 2dbe 9fe2 afbd 32c5 333d
000000a0: 5432 c73d 8c44 a9bd dc40 11be 68f3 ab3d
000000b0: 71a4 803e e867 5e3e 1e54 86bd 75e8 c3bd
000000c0: eafa 5abe 26d9 373f 1395 b3bd 0082 7a3e
000000d0: 3b84 d4be 689b 42be 5706 f43d 7d6d 153e
000000e0: 84ea ffbd c820 583e b7e1 22be 0739 ba3e
000000f0: ab65 f3bd 8637 e83d cc05 093e 2a49 b5bd
00000100: d3d6 3c3e c9a8 033c 4ac5 d93b cdd3 843d
00000110: bf49 db3d 8cf8 8f3d 1cff 5d3d 7a83 383d
00000120: 0dcd b03d 1ebd 9b3d 714e 1fbe 5391 073f
00000130: 4b1e 2abe 32c4 33be 90ae f23d 5681 213e
00000140: 558b 1bbe 85a2 f63d eb19 1abe a441 b8be
00000150: 55f1 a03c 8f7b 6b3e 6f35 653e 7dd8 c1bc
00000160: 5cdc 743e b72f 47bc 1c76 a23e fd59 b33e
00000170: 00f7 9f3e f73b f7bb 42fe b23e e71f 82bf
00000180: f064 403e 7116 033d 17db 02be c3c5 babd
00000190: c926 1cbe 23f4 923e 7818 0a3d 8b7b 7b3e
000001a0: d428 69be b66e cdbe b261 d43d a514 debc
000001b0: 75bf debd 5cb7 503e 9cf4 f1bd 72a5 03bc
000001c0: ad9c a73c 25a4 94bc 82b1 803d 82ee ce3c
000001d0: ee0e 4cbd e81a 1a3d 1c80 1cbd 4b53 5ebc
000001e0: bc43 cebd a9c1 783c 67bd 10bd 0803 94bb
000001f0: 318f d6bd 1beb 18bd d3e7 40bd e431 93bd
00000200: 1791 333d e011 913d 9a55 64bc fd98 05bc
00000210: 4ea4 b73c 2c57 523c a8af 023c 12e0 27bd
00000220: f7a2 98bd 0230 87bc 1d49 863c 12b7 0d3d
00000230: 7a32 20bd 8620 aebd f743 98bd dd7a 7e3d
00000240: 46ab 573d 0623 803d a38f 74bc a6c1 90bc
00000250: c45f 09bd 733b b33c e70c 73bd c85f 44bd
00000260: c7b8 88bd 8434 00bd c406 1bbd 51a6 eabd
00000270: 7b40 193d e884 0c3c fb32 5fbd 0a79 85bc
00000280: e627 21bd ffa2 a73d b3cb abbd 74b9 823d
00000290: 3ab8 a0bd d372 0dbd 883b 2ebd 5c82 0c3d
000002a0: 97d9 21bd e457 363d e6f7 293d 96b4 243d
000002b0: 57c5 843d dd4e bebd 75e8 8abd 33d1 3dbd
000002c0: 4e51 9cbd b19d 16bd ef26 293d 1c09 3abd
000002d0: e9e1 a7bd f293 a7bd 4b2d e43b 0838 dc3c
000002e0: 5bbd c4bc 914b 8ebd 2ee2 d1bd 1b0f c9bd
000002f0: 7732 3cbd b297 aebd 33b7 a3bd f395 6f3d
00000300: 9b32 4dbd c3cb dbbd 836d ddbd 88ea ab3c
00000310: 934f a63c 3f7e f33c eefc 48bd 0f72 4cbd
00000320: b6a3 783d 73ab 13bd cfc5 c83c b7c8 6ebd
00000330: 312a 05bd 6850 30bd 4aa0 2b3c 1258 5fbc
00000340: 0565 b13b 9783 32bb 44f2 283d b380 92bd
00000350: faa2 c63c 4602 32bd 8f7b f93c 21b4 c7bb
00000360: 538d 89bc 0268 65bc 8fb3 f83c cbdc c1bd
00000370: f985 32bc 9828 9b3d 090b 9abc 5add 83bd
00000380: 766d 023e 705e 0c3e f603 a3bb 3b55 8d3e
00000390: 8144 22be 985a 813e 0d40 c1bc 8492 ee3e
000003a0: 03ec 44bd 600f e7bd 3601 873e 3c97 373d
000003b0: 4202 a93d beed 4abe e4ab acbd d04c 05bc
000003c0: 9999 f33c 8735 dcbd 4115 cf3d 0717 103e
000003d0: f70a 20be f594 b7bd 6070 38bc d8ba df3c
000003e0: afa3 a4bd f38c 44bc 7219 8a3e aa4b 153e
000003f0: 30bd e4bd ffe6 92bd 48e0 813d 0cd6 be3b
0.1297566 0.13060373 -0.2788267 0.25200924 -0.19617328 0.24042942 -0.31360236 0.013287612
0.04583439 -0.19877976 -0.0600488 0.057068247 0.18717667 -0.06598099 -0.25156194 0.1669665
0.2908117 -0.12881558 0.021183593 -0.019222857 -0.043111987 0.09937273 0.23665635 0.12319744
-0.043823797 -0.25970715 -0.34474424 -0.0013509487 0.22045825 -0.050403118 0.09113625 -0.04572044
0.19660802 -0.2012782 0.14915805 -0.030695824 0.3025172 -0.16982633 -0.085881464 0.043889232
0.09726396 -0.082650274 -0.14184898 0.083960354 0.2512546 0.21719325 -0.06559013 -0.09565822
-0.21384779 0.7181572 -0.08768668 0.24463654 -0.41507134 -0.19004595 0.11915272 0.14592548
-0.12495902 0.21106255 -0.15906416 0.36371633 -0.11884626 0.11338715 0.13381118 -0.088518456
0.18441324 0.008035847 0.006645833 0.0648571 0.10707425 0.070298284 0.05419837 0.04504726
0.0863286 0.076044306 -0.15557267 0.5295612 -0.16613118 -0.17555311 0.118497014 0.15771994
-0.1518987 0.12042717 -0.1504895 -0.3598758 0.019646326 0.22996353 0.22383665 -0.0236628
0.23912185 -0.012157372 0.31730735 0.35029593 0.31243134 -0.00754499 0.34959608 -1.0165986
0.18788505 0.032003824 -0.12778889 -0.09119751 -0.1524917 0.28701887 0.03371474 0.24558847
-0.22769481 -0.40123528 0.103701964 -0.027109453 -0.10876361 0.20382446 -0.11814234 -0.008035051
0.020460451 -0.018144676 0.06283857 0.025260214 -0.049818926 0.037623316 -0.038208112 -0.013569663
-0.10071513 0.015182891 -0.03533688 -0.004516963 -0.1047653 -0.03733359 -0.047096085 -0.0718725
0.04383954 0.070834875 -0.013936425 -0.008154151 0.022417214 0.012838166 0.00797645 -0.040985174
-0.07452958 -0.016502384 0.016392285 0.034598418 -0.03911064 -0.08502297 -0.07434838 0.06212889
0.052653573 0.0625668 -0.014926824 -0.017670464 -0.033538595 0.021878934 -0.059338477 -0.047942907
-0.066758685 -0.031300083 -0.03784825 -0.114575036 0.03741501 0.008576609 -0.05449198 -0.016293067
-0.03934469 0.08185386 -0.08388462 0.063830286 -0.078476384 -0.034533333 -0.042537242 0.034304008
-0.03951415 0.044517413 0.04149618 0.040211283 0.06482952 -0.09292386 -0.06782619 -0.046342086
-0.07632695 -0.03677148 0.041296896 -0.045418844 -0.08197386 -0.08182515 0.006963407 0.026882187
-0.024016073 -0.06948007 -0.102482185 -0.09817334 -0.045946565 -0.08525027 -0.07993927 0.058492612
-0.05009709 -0.10732224 -0.10811903 0.020985857 0.020301616 0.029723285 -0.049069338 -0.049913462
0.060703002 -0.03605218 0.024508385 -0.058296885 -0.03251094 -0.04304543 0.010475228 -0.013631837
0.005413654 -0.0027239078 0.041246668 -0.07153454 0.024247635 -0.0434592 0.030454425 -0.006094471
-0.016791021 -0.014001848 0.030359058 -0.09465941 -0.010896199 0.07576102 -0.01880409 -0.06438704
0.12737069 0.137079 -0.0049748374 0.27604088 -0.15846445 0.2526443 -0.023590112 0.46596158
-0.04807664 -0.112822294 0.2636811 0.044821963 0.08252384 -0.19817254 -0.08431223 -0.008135989
0.029736327 -0.10752397 0.10111476 0.14071284 -0.15629183 -0.08963958 -0.011257261 0.027310774
-0.08039033 -0.011996496 0.26972538 0.14579645 -0.11168897 -0.07172965 0.063416064 0.005823856

bias f4 [64]
00000000: 80d9 903e 4985 0abe 7079 5d3e faf2 213d
00000010: de81 c43c 4280 363e 6f5b 183d d845 273f
00000020: 8b4b 633e 9110 513e c932 5e3c dcc3 4c3f
00000030: e1fc a13e 0f6d 4cbd 1b91 653e 1c38 843e
00000040: e24e 823e 1fba a7bd a228 babd d5df 98bd
00000050: b206 fd3e af04 993e f53d 7a3e 1888 483e
00000060: bf84 a1be cb2a 343e 8e63 17bc 28e9 babd
00000070: 2e13 01bd 55b2 4b3d ee7a c5bd 6b56 a33e
00000080: 690b 0bbe 856c 44bc 2f68 93bd 4c02 edbc
00000090: d1f1 00be b7f7 ad3e 7d23 2ebe 2db1 36bd
000000a0: f206 6e3e fedf d9bd ff61 93be 438a 013e
000000b0: ab41 e2ba d88a 323f ac40 ff3d 427f d73d
000000c0: e58e a8bd 4419 963c 119c 0d3d 76e3 ab3c
000000d0: 8197 173e 6a24 a8bd 9add 08bd 7a0d e13e
000000e0: 677c 953d a393 79bc 0113 72bd 4dbb bd3d
000000f0: a5da b83d c318 f9bd 26c5 a5ba 7b1c 15be
0.2829094 -0.13527407 0.21628356 0.03953836 0.023987707 0.17822364 0.037196573 0.6534095
0.22196786 0.20416476 0.013561913 0.7998636 0.31638244 -0.049908694 0.22418635 0.25824058
0.25450808 -0.08189797 -0.09089781 -0.074645676 0.4941917 0.29886386 0.24437697 0.19583166
-0.3154659 0.17594449 -0.009240044 -0.09126502 -0.03151243 0.049730618 -0.096425876 0.3190187
-0.13578571 -0.011988764 -0.07197606 -0.02893176 -0.12592246 0.33978054 -0.17005725 -0.04460256
0.23244837 -0.10638426 -0.28785703 0.12650399 -0.0017262002 0.6974311 0.12463507 0.105223194
-0.0823038 0.018322594 0.034572665 0.020982485 0.14803888 -0.082100704 -0.03341446 0.43955594
0.072991185 -0.015232953 -0.059100155 0.092642404 0.09026078 -0.12162926 -0.0012647256 -0.14561646

weight f4 [32, 64]
00000000: 8238 23bd a03a 1b3c 6187 833d cc54 3e3d
00000010: 503e ad3c af01 18be 28fa 33bd 9b79 febd
00000020: 606b 4d3d e143 de3d 8778 853d 7880 c4ba
00000030: 7439 dfbc 0288 1ebe da02 923d 3b40 8fbc
00000040: d660 d4bd 184e f0bd 04ab 553d 530f 173a
00000050: 7b0b c3bc 6474 a4bb 80e1 dbbd e1b2 58bd
00000060: 50c4 363d b5c5 f5bc f4e0 ac3d 14bc 17be
00000070: 1ece 11bd 0e7b 53bd e69f ae3d cd25 85bd
00000080: 5849 c13d 075a f8bd b8b5 403d 902a 123d
00000090: 3251 e3bd 2059 1abb 8101 f5bd 17d5 38bc
000000a0: 7c7e ea3c 0020 b839 d4d8 88bd 2721 35bd
000000b0: 123b d63c 55e5 2f3d d4fd 04be 6eeb 153c
000000c0: 5c6b a83d 7c99 ffbd a473 3c3d 9be0 4e3d
000000d0: 4b31 b6bd 7c6e 6dbd 9855 083d f43b 843d
000000e0: 2bb6 10be 001e 55bd 807c debc 6dfb bd3d
000000f0: 1c35 8fbd f4b8 ba3d 383c 06bd 2b10 14be
00000100: ec9b 2bbe 85d6 e13d 17c7 39bd 655b 883d
00000110: 7fc9 b13d 8e5e a5bb f9a6 44be 6cee b4bd
00000120: 331f 4dbd 4dce ae3b d865 4cbc 3477 93bd
00000130: 42a4 f0bd a37d a8bd 312d 84bd 12cb 02be
00000140: 6ca5 bf3d cb4e 00be 4023 52bc b382 dcbc
00000150: 288f 0abe e53c cfbd b4c2 523d 612d 29be
00000160: 273e 25be f32d 84bd 3537 ca3c c2e1 d7bd
00000170: 834f 4ebc 84cd 883d 8d3f 19be 173d 40bc
00000180: 8b4e 313d 2f0c d5bc 8480 fdbd 55ce a33c
00000190: a05b d53c a35b 43bd 8256 7e3c d8a3 f8bc
000001a0: 2c03 56bd 84f0 e1bd e239 44bc 25e4 823c
000001b0: ebc0 96bc 7a1b f6bd 8d6d 57be 8591 eebd
000001c0: a071 74bd d7bb f53d 78cf c9bd d364 96bd
000001d0: 4f09 0ebe aff1 a93c fa14 b4bd 4430 cf3d
000001e0: df33 683d c21d 06bd 789d 113d 56fb 913d
000001f0: d7a9 303c 0296 9b3d ce7b d5bd 8eec 6ebd
00000200: 1bca da3b 81b2 59ba cca1 40bd 21d3 473a
00000210: faf2 213e 1fdb 5f3e acb6 00be 67c7 973d
00000220: 046c 813e 3065 813d bd04 1bbe 791c a43d
00000230: ee06 b73d a0fd a1bd e0d5 0cbe 6c21 0a3e
00000240: 63e2 c33c df26 08be db20 80bd 32ea 153e
00000250: 0b9e ffbb 4e8c 9f3e 859b bebc 31e4 db3d
00000260: 22ec ca3d 71ff 23bb e70f 1b3d b567 f2bd
00000270: 2fd8 433e 4573 27bc c1ae 023e c5a5 dcbc
00000280: 6953 ea3d c3fe 083e 21c7 183c 33b9 b8bd
00000290: 06e3 9f3d 5207 173d ffab 893d 1cb4 abbd
000002a0: 97c1 2b3c 28ad 6f3d 2ec5 bd3e af15 1f3e
000002b0: 812a 823c b952 463e b585 053c 9baa 323e
000002c0: f3b7 edbc 0316 9d3c a0f7 5f3d 9234 003c
000002d0: b286 1cbe 563a efbd 75ec 6abd 8243 f13e
000002e0: 8ae3 53be 78c6 e23d cdc3 593d 6d29 453e
000002f0: 37f6 69bd 68ec 1bba 7e6d 21bd 5ed7 353d
00000300: 435a 003d 62e4 58bd b5ae 53bd db51 0fbd
00000310: eeb1 fdbc 6403 773d fb64 bb3d 3853 783d
00000320: 99ec 783c c361 6e3e ba2f 283e 7bbd 743d
00000330: d5f8 7a3b 7178 693e 7d99 b2bc c2b8 063e
00000340: a4d9 dc3d 8e9d 8abd dffe 35bd 0ab3 56bc
00000350: cd9a f0bd b18e 8b3d 2afc a73d 92b4 fd3d
00000360: 159b 353d f075 be3d d74c dabd 07fb 193e
00000370: f8b3 833e 7913 a23d 3c36 e73e 1c10 7c3c
00000380: 0872 e6b8 2e7c c43d 63e8 2a3e 7fe6 4b3c
00000390: aa44 bf3d 2fd5 ba3d 6727 e23d d8bb d13d
000003a0: e8b0 ab3d 3cba bf3d 742b 253e 42bd 623c
000003b0: aa9c 1c3d 9257 2cbd 273b b8bb dda7 4ebe
000003c0: 5d20 98bd c161 d2bd 15bf 963c b98c 803c
000003d0: 219a 1e3e 3d74 c43d a7f7 41bd 3ff4 a9bd
000003e0: 964a 603d 779f 1a3c 9969 1abe dd8b 753d
000003f0: 6e98 333e c3bd 933d 55b0 3a3d ab86 f93d
-0.039848812 0.0094744265 0.06422306 0.046467587 0.021147877 -0.14844392 -0.04393974 -0.12425538
0.05015123 0.108527906 0.065171294 -0.00149919 -0.027249075 -0.1548157 0.0712945 -0.017486682
-0.103700325 -0.11733645 0.052165046 0.00057624764 -0.023809185 -0.0050187577 -0.1073637 -0.052904967
0.044620812 -0.0300015 0.08441344 -0.1481784 -0.03559696 -0.051631026 0.08526592 -0.065013506
0.09437817 -0.12126546 0.0470483 0.035685122 -0.11099471 -0.0023551658 -0.119631775 -0.011281273
0.028624766 0.00035119057 -0.06681982 -0.04422107 0.026151214 0.042943317 -0.12987453 0.009150369
0.08223602 -0.12480447 0.04600872 0.05050717 -0.08896121 -0.057966694 0.033284754 0.06456748
-0.14131992 -0.052030563 -0.027158976 0.09276471 -0.06992552 0.09117308 -0.032772273 -0.14459293
-0.16758698 0.110272445 -0.045355882 0.06658057 0.086810105 -0.005046672 -0.1920432 -0.08834538
-0.050078582 0.0053346516 -0.012475453 -0.072004706 -0.1175008 -0.08227088 -0.06453932 -0.12772778
0.093577236 -0.12530057 -0.012825787 -0.026917791 -0.13531172 -0.101190366 0.051455215 -0.16521217
-0.1613699 -0.064540766 0.024684528 -0.10541107 -0.012592199 0.06679824 -0.14965649 -0.011733315
0.043287795 -0.026006786 -0.12378028 0.019995848 0.026044667 -0.047694813 0.015523555 -0.030351564
-0.05224912 -0.11032203 -0.011976691 0.015977928 -0.018402537 -0.120169595 -0.21037884 -0.116488494
-0.059678674 0.11998718 -0.09854025 -0.073434494 -0.13870738 0.020745127 -0.087930635 0.10116628
0.056690093 -0.032743223 0.035550565 0.07128017 0.0107826805 0.07596971 -0.104240045 -0.058331065
0.006676925 -0.0008304492 -0.0470293 0.0007622708 0.15815344 0.21860932 -0.12569684 0.0741108
0.25277722 0.06318128 -0.15138526 0.08013243 0.089368686 -0.07909703 -0.13753462 0.13489312
0.02391166 -0.13296078 -0.06256267 0.1464012 -0.0078008226 0.3116173 -0.023267517 0.107368834
0.0990832 -0.002502408 0.037856963 -0.11836187 0.19125436 -0.0102203535 0.12761976 -0.026934514
0.114416905 0.13378434 0.00932482 -0.09019699 0.07806973 0.036872216 0.06722259 -0.083839625
0.010483167 0.058514744 0.370645 0.15535615 0.015889408 0.19367494 0.008149554 0.17447893
-0.029018378 0.019175535 0.054679513 0.007825034 -0.15285757 -0.116810486 -0.05735441 0.47121817
-0.20692268 0.11073011 0.053165246 0.19254084 -0.057119574 -0.0005948008 -0.03941106 0.044394843
0.03133608 -0.052952178 -0.051680285 -0.034990173 -0.030968633 0.060305968 0.0915012 0.06062624
0.015193128 0.2327948 0.16424456 0.059751015 0.0038295288 0.22799851 -0.021801705 0.13156417
0.10783699 -0.067683324 -0.044432517 -0.01310421 -0.11748276 0.068143256 0.08202393 0.12387957
0.04433735 0.092998385 -0.10659187 0.15037166 0.25723243 0.0791387 0.45158565 0.0153847
-0.000109884946 0.09593998 0.16690211 0.012445091 0.093392685 0.09122693 0.11042672 0.102409065
0.083833516 0.09361693 0.16129857 0.013839068 0.038235344 -0.0420757 -0.005622286 -0.20181222
-0.07428048 -0.10272551 0.018401662 0.015692102 0.15488483 0.09592483 -0.04735532 -0.08298539
0.05475863 0.009437433 -0.15079345 0.059947837 0.17538616 0.072139286 0.04557832 0.12183889

bias f4 [32]
00000000: 771b afbd 5f9d 9fbc 97b8 c03e d08b 82bd
00000010: b702 4bbe 41fd 9c3e 8dba 8ebd f7c8 89bd
00000020: 135b 843e ca46 bebc 855c 303d 7682 b73e
00000030: 7548 9b3d 352b 4fbd 1f66 843c 6c92 923d
00000040: 3420 bebd bb38 93be 0d4f 123f 3996 ecbc
00000050: 08a8 ed3c e856 81be 28da 833e fcbf 53be
00000060: 5ae8 a33e dbe7 12be f34b 7c3d 5369 8b3d
00000070: 1d64 bd3e f499 50be b922 893d 5c1f b93e
-0.085501604 -0.01948422 0.3764083 -0.06374323 -0.19825254 0.30661967 -0.069691755 -0.06727784
0.25850734 -0.023227114 0.043056984 0.3584172 0.075821795 -0.050578315 0.016161976 0.07156834
-0.09283486 -0.2875422 0.5715187 -0.028880225 0.029010788 -0.25261617 0.25752378 -0.20678705
0.32013208 -0.14346258 0.06159587 0.068071984 0.36990443 -0.20371228 0.06696076 0.36156738

weight f4 [16, 32]
00000000: 6e3b 6fbd a34a 853d 2759 933c c2bf 76bd
00000010: 63d4 d2bb 29e8 693e 017c 923d e4ec b23d
00000020: 43f8 5ebd f9c7 3d3e 1233 a83d 511a 953d
00000030: adb1 0a3e 42af 53bd 21d6 703d 5b43 053e
00000040: b467 b23d 0775 c6be d050 723e 38d5 a5bd
00000050: c7de c23d dbde 9cbe 3f42 643e 1789 03be
00000060: e449 0cbc 4f4d 09be b0ab 4abd 8952 cb3e
00000070: bccb 4abc 0ae2 d13d f918 3a3d 3ade 723e
00000080: 7ffe 1fbe e571 403d 2be3 0bbe 872d d63c
00000090: 2e2d 693d 378a 16be 5485 9b3d 41b0 c6bd
000000a0: 5527 68bd 77ca 00bd 658b f9bd a397 a4bd
000000b0: f63e 973c 89d6 14be 6049 283e 2518 20be
000000c0: 8136 1abe e546 26be 3c72 b23d 24c1 61bd
000000d0: 2e7d dbbc f72b dabd f3a4 b0bd d519 8dbd
000000e0: 24c8 abbd ab95 1fbe 5168 0a3e 8b4e b93d
000000f0: 9f2f 1abd 8117 84bd 7ab0 16bd 688b 1ebd
00000100: 2d1b 7d3d 3b27 063e a740 a13b 3e5a 3fbd
00000110: 993f 13be 368a 1bbe 7647 573d 9bbe 9f3d
00000120: 28d7 04be 5711 b23d a0b0 30bd aec7 d3bd
00000130: 64b4 28be d9c9 a8bd 0070 95bd 0ab5 02be
00000140: a42e 003d 448e 59be 39a9 2fbe f3ca 1a3d
00000150: ba0a 2b3d 04b8 2abd a004 12be 9768 413d
00000160: 1576 ba3d b6ad cfbd fd0d f2bd dab0 7a3c
00000170: fc47 6bbe 6a78 a43d 22d2 54bd 9765 bc3c
00000180: 77a8 8c3d 4328 abbd 5838 0ebe 95b7 e93b
00000190: f6e8 67ba 8ce7 5cbc 63b0 053e 3893 24be
000001a0: 6525 8fbe 23f6 9e3d ccf7 183e c6f6 b3be
000001b0: 8197 3ebe 7b67 573e c83f a33d 485a bf3d
000001c0: 1462 aa3e 02d5 5fbe 28be ddbd d737 c43c
000001d0: 40b5 3f3e 2480 493e 4479 adbe 4b09 d2bd
000001e0: c3ac d7bd e62d 0dbe 5355 ac3d 782f 8ebe
000001f0: eaf0 79be cace eebe 39bd 0b3e 76b0 18bf
00000200: d5cc b0bd 1e77 7cbd 7e4c f83c f665 30bc
00000210: 8eb4 7f3d 8caf d9bd 00cb f3bd e46d a2bd
00000220: 7834 c2bb ea3f 8cbd e50b 36bd 9c40 d03d
00000230: d100 21be 1473 20bd 322e 143e 448f a53c
00000240: 56ed 17be a144 15be 770e 543d 7d53 223e
00000250: d71e 39bd 587e 67bd 3db7 05be 0c27 54be
00000260: 7de4 a3bd 38b6 d33d 0087 a4bd d9d5 babd
00000270: 7644 00bd d8b8 ba3c 20c0 d73d 4dfa ccbd
00000280: 9ba9 22be fb91 c2bd 5f05 ebbb f61a 35be
00000290: 2538 21be 6367 94bc 3228 b93d ba41 fe3d
000002a0: be89 f6bd 1652 033e 9c2b 913d cca3 0bbe
000002b0: bab4 acbd 5c88 c23d e291 2dbd 5a16 df3d
000002c0: d416 ebbc dba9 3bbe 94df 073e 1a99 843c
000002d0: c507 913d 6758 d83c 7e33 1fbe 6c27 fc3b
000002e0: 8ca1 3bbe 4322 a0bd 38d3 a0bd 0a07 dbbd
000002f0: 68e8 2bbd a641 133e 04f0 983d f744 89bc
00000300: 93df 4f3d 4345 20bc 295b ac3d 3192 513e
00000310: 5a1b adbe c3fd 133e 9e57 1fbe bb22 6ebe
00000320: ccc6 163e aefd 1aba e575 8bbc 0ad2 323e
00000330: b69f bd3d 307a 753d 6e5a 833d 0fa4 1d3e
00000340: bb28 a0be b6f3 27bd d7d5 883e df8a 91bc
00000350: 5815 44be 636f 1c3e 1b4c 403d dcd2 97bd
00000360: cfb1 553e d0ff cbbb 319f 14be 2ad7 773d
00000370: c1b3 253e 2095 a3be d1b6 143e 4c86 3b3e
00000380: 5131 11bd b595 30be 98bf 89bc 3dcc 123e
00000390: 2702 10be 310f 04be f971 823d afd8 2e3e
000003a0: 1bf6 f7bb 4c98 5fbc 4111 0dbe c0e0 333d
000003b0: b0e2 493e 0709 0a3d deb6 273e ff6b 12be
000003c0: f0a6 2f3e 6f1d a4bd 6efd 383e f56d 5abc
000003d0: a682 a6bd e493 debd 43b2 4abe 2934 1abd
000003e0: 90d8 9d3e d3ef 0abb 661e c93d 180e 74be
000003f0: 9039 3cbd a773 123e 0561 50bc dcea 863e
-0.058406286 0.065083764 0.017986847 -0.06024147 -0.00643401 0.22842468 0.07152558 0.087365896
-0.05443598 0.18533315 0.08212866 0.0728041 0.1354434 -0.05168081 0.05879796 0.13013975
0.08711186 -0.3876116 0.2366364 -0.08097309 0.09515148 -0.30638775 0.22290896 -0.12845264
-0.008562539 -0.13408397 -0.04948014 0.39711407 -0.012377676 0.10248192 0.045433972 0.23717585
-0.15624426 0.04698362 -0.13660876 0.026144756 0.056927852 -0.14701162 0.0759379 -0.097015865
-0.056678135 -0.031443086 -0.121847905 -0.08036735 0.01846264 -0.14534964 0.1643424 -0.1563421
-0.15059854 -0.16237982 0.08713195 -0.055115834 -0.026793089 -0.10652917 -0.086252116 -0.06889693
-0.08387783 -0.15584438 0.13516356 0.09048184 -0.03764307 -0.064497955 -0.036789395 -0.038707167
0.061793495 0.13100903 0.0049210372 -0.04671692 -0.1437973 -0.15189442 0.052558385 0.07800027
-0.129727 0.086947136 -0.043137193 -0.1034082 -0.16475064 -0.082416244 -0.07296753 -0.12764373
0.03129448 -0.21245676 -0.17154397 0.037791204 0.041758277 -0.041679397 -0.14259577 0.047218885
0.091045536 -0.101405546 -0.11819074 0.015300954 -0.22976679 0.0803078 -0.05195821 0.02299766
0.068680696 -0.08357289 -0.13888681 0.0071324804 -0.00088466646 -0.013482939 0.13055567 -0.16071784
-0.27958217 0.077617906 0.14938277 -0.3514921 -0.18612482 0.21035568 0.0797115 0.09343392
0.33277953 -0.218586 -0.10827285 0.023952408 0.18721485 0.19677788 -0.3388158 -0.10255679
-0.105309986 -0.1378704 0.08414712 -0.2777059 -0.24408308 -0.46642143 0.13646401 -0.5964426
-0.086328186 -0.061637037 0.030309912 -0.010766497 0.06242805 -0.10629186 -0.119039536 -0.07931116
-0.005926665 -0.06848128 -0.044444937 0.10168573 -0.15722968 -0.039172247 0.14470747 0.020209916
-0.1483663 -0.14576961 0.051771607 0.15852161 -0.045195427 -0.056516975 -0.13058181 -0.2071802
-0.08002565 0.1033749 -0.08033562 -0.091228195 -0.03131529 0.022793218 0.10534692 -0.100086786
-0.15885012 -0.095005 -0.007172271 -0.17686066 -0.15744074 -0.018115705 0.0904087 0.1241488
-0.12037991 0.12824282 0.07088396 -0.13636702 -0.08432908 0.09498665 -0.042375453 0.10892935
-0.028697409 -0.18326513 0.13268882 0.016186286 0.0708156 0.026409341 -0.15546986 0.007695129
-0.18323344 -0.07819035 -0.07852787 -0.10694702 -0.041969687 0.14380512 0.07467654 -0.016756518
0.050750326 -0.009782138 0.08415825 0.20465924 -0.3380993 0.14452271 -0.15560767 -0.23255436
0.14724272 -0.0005912435 -0.01702399 0.17462936 0.09258978 0.05993098 0.064137325 0.15394615
-0.31281075 -0.041003905 0.26725647 -0.017766414 -0.19148767 0.15276866 0.04694758 -0.07413265
0.2086861 -0.0062255636 -0.14513852 0.06050793 0.16181852 -0.3194971 0.14522864 0.18312949
-0.035447422 -0.17244609 -0.016814992 0.14335723 -0.14063321 -0.1289642 0.06369395 0.17074846
-0.00756718 -0.01364715 -0.13776113 0.04391551 0.1971538 0.033700015 0.16378352 -0.1429901
0.17153525 -0.080134265 0.18065426 -0.01333188 -0.08130388 -0.10868052 -0.19794564 -0.0376474
0.30829287 -0.0021200075 0.09820251 -0.23833501 -0.045953333 0.1430193 -0.012718444 0.26351058

bias f4 [16]
00000000: e4fb b73e 5655 07be 1ea7 bebd e969 96be
00000010: c1d6 083e b8ae 28be 77f6 6c3e 15e2 afbb
00000020: 6d15 7ab9 6ceb e9bd 626d fc3d 8c81 4c3e
00000030: 3cc6 dfbd 84b2 d93d d8cc c53e 6ca0 bc3d
0.35934365 -0.13216147 -0.09309219 -0.29377678 0.13363172 -0.164729 0.23140894 -0.0053675273
-0.0002384984 -0.11421856 0.123255506 0.19971293 -0.10926482 0.10629752 0.38632846 0.092102855

weight f4 [32, 16]
00000000: 576d 17bb 97c0 88ba f9f0 12be 7346 633d
00000010: 3b6c 193e 9bb6 84be 4aa7 75be 150f c43d
00000020: aa70 c03a 474d dbbd b380 123e e8eb a43e
00000030: 2bcb 52bc e4cd c73d 3dcb 643d e159 a6bd
00000040: 7fbf 15be 3439 18be b03e 283d 7cc7 bdbd
00000050: ae60 3dbd 40f4 d93b f0db bebd 3c32 a3be
00000060: 4a43 603e 0431 00be 755a 27be dc39 a8be
00000070: d811 c8bd bccc a4bd aab0 883d 2864 14bd
00000080: 3e09 263e 22c8 533e 603b 4dbe 2b72 193d
00000090: f688 b33d 6c95 88bd d45e 92be d4cf f43d
000000a0: 4c86 27bc f57f 64be 1b0e 42be bf7c 6fbe
000000b0: a079 67bc ab6e c43d 2637 78be 4263 17be
000000c0: bcb4 d63d 6f40 f33d 57fb b9bd dd19 61be
000000d0: 9343 80be 97ec 033e beec 48be 0860 b83b
000000e0: ea3b 873e 0ae2 22bd 5843 063d 3c00 143e
000000f0: 921e 33be 06bf 1dbe 4b5f eebd fbc2 8c3e
00000100: df2c 36be b690 153e ea25 35be da78 793e
00000110: 8e49 b13d 2cb0 a33d abd6 6abd 9d61 25bc
00000120: 0c21 7cbe 1834 2e3f ce68 e2bd 2028 693d
00000130: 2f66 bcbc 1fd7 7c3d d471 073f b87a 18be
00000140: a49f 653c 8c11 72be c47f 5abe adc0 653e
00000150: 90cd 3e3d e4c6 ca3d 7753 293e 0e55 60be
00000160: 9802 7cbe 5ef9 cf3d ebf4 53be 169a f73d
00000170: e846 bd3d 3847 ee3d 3be4 78be e18a 003e
00000180: 51a1 96be 80ee 4ebe 0275 2bbe ff30 813d
00000190: 88f2 0b3e ac2f e3bd 1505 393d 9042 913d
000001a0: 0ad2 c5bc ac4c 77be b358 e2bc 4e22 24bc
000001b0: e0f8 753d f4c4 6abe e324 67be 41ae 85bd
000001c0: 08d2 debe 04f6 04be 203e 003e 9358 91be
000001d0: c137 313e ba75 15be b7e4 4a3e 341e da3d
000001e0: bb93 3b3e 8c0d 69be bcd8 ce3d c9ee 903e
000001f0: de38 09bb d54b bebd f7eb fc3d bc8f 363e
00000200: 6cee 9dbd 507d 273e 7416 1a3e 80f3 c93b
00000210: 1cc9 5abe e23d 05be 22c8 013e a453 1ebe
00000220: 4845 b2bd 48a7 1abd 3c8d 7bbe 708e aabc
00000230: 58e2 583d 6209 253e 6ec9 3ebe ac2c 92bd
00000240: 2db9 dfbd e4fb 583e 6a66 36be 9bb9 67bd
00000250: 2c05 903d e0f7 4e3c af7d 1e3e 6a35 2b3e
00000260: 1373 f4bd 4870 313e 77aa 66be c05a fcbd
00000270: 06df 763e e5bb 303e 8b99 a4be eb44 a6bd
00000280: 2ada 553e 778d 243d 492f 0cbe 65b5 833c
00000290: 174f 363e b748 763d 0c10 c2bc 47bf 303e
000002a0: af6b 6d3e 22b1 b8bd 7d6f 9a3e 8782 553e
000002b0: da87 86bd 160f 5abe b2fa b5be 9f9f 56be
000002c0: e8e0 4b3e 045f 143c 997a a4bd f84d 85be
000002d0: a8d1 30be fccc 643e 206a a93e ff6d 30bd
000002e0: f4d6 8ebe 12b2 31bd 80d3 983e f815 45be
000002f0: 1265 453e 5d84 2c3c 504a 0a3e 3400 e1bd
00000300: e322 a83e 769f 5e3e 12af 6a3e 17f9 483d
00000310: 068a 8dbe 0e8a 343e 4739 c03d a450 cd3e
00000320: b9e8 f7bd c9af ddbd ae6f 30bd 9ec2 abbc
00000330: 99df cabd 937f 913d f43e ffbc 21ed 1a3e
00000340: 1311 043e ac75 9fbd e06a 08bc c96a 1a3e
00000350: fa4b 5bbe 4036 b2bd e2e4 573e 2491 61be
00000360: 8d2a 6fbe 8b6a f0bd 37e2 f2bd 5148 7cbe
00000370: 1045 c0bc 8640 dc3d 3493 68be 8027 0dbe
00000380: 063b 9e3e afc4 48be 7404 4e3d f888 8ebd
00000390: ad52 1c3e 70a8 6c3e 8517 ab3d 8e8c d1be
000003a0: a0f4 02be 0911 9ebd 86c9 143e 4bf8 d43e
000003b0: bad9 353e ddae 96bd 0b9e e93d 86b6 7a3d
000003c0: 2c80 ae3e 5243 283e 5868 cd3d 0f9f e43c
000003d0: edb4 86be c73b 143e 71ff 923e 303f b93d
000003e0: 33a2 57be 094a 3dbf 2a91 dabe 18c6 d93c
000003f0: 018a c2bb b91d d33c c5c4 a4bc 728a 17be
-0.0023105943 -0.0010433373 -0.14349736 0.055487107 0.14982693 -0.25920567 -0.23989597 0.09573189
0.0014682014 -0.10708099 0.14306907 0.32211232 -0.012865822 0.097560674 0.055857886 -0.08122612
-0.14623831 -0.14865571 0.04107541 -0.09266564 -0.04623478 0.0066514313 -0.093192935 -0.31874263
0.21900669 -0.12518698 -0.163431 -0.32856643 -0.097690284 -0.080468625 0.06674321 -0.03622833
0.16214463 0.20681813 -0.20042181 0.037462395 0.087663576 -0.06669125 -0.28587973 0.119537026
-0.01022489 -0.22314437 -0.18950693 -0.2338743 -0.014128119 0.09591421 -0.24239787 -0.14783958
0.10483691 0.11877524 -0.090811424 -0.21982522 -0.25051555 0.1288322 -0.1962156 0.005626682
0.26412898 -0.03976635 0.032779068 0.14453214 -0.1749213 -0.15404901 -0.116392694 0.27492508
-0.17790554 0.14605984 -0.17690244 0.24362507 0.086566076 0.079925865 -0.05733363 -0.010094074
-0.24621981 0.6804824 -0.11055146 0.05692303 -0.022997944 0.061728593 0.5290806 -0.14890563
0.014015112 -0.23639506 -0.21337801 0.22436781 0.04658276 0.099012166 0.16535746 -0.21907446
-0.24610364 0.10154985 -0.20698898 0.120899364 0.0924204 0.11634678 -0.24305813 0.12552978
-0.2941995 -0.20208168 -0.16743854 0.063081734 0.13666737 -0.11093077 0.045170862 0.07092774
-0.024148006 -0.24150342 -0.027630186 -0.0100179445 0.0600518 -0.22926694 -0.22572665 -0.06527377
-0.43519616 -0.12984473 0.12523699 -0.2838789 0.17306425 -0.1459569 0.1981381 0.10650292
0.18318073 -0.22759074 0.100999326 0.2830718 -0.0020938437 -0.092918076 0.12349694 0.17828268
-0.07711491 0.16356397 0.15047628 0.0061630607 -0.2136578 -0.13011888 0.12674001 -0.15461594
-0.087046206 -0.037757188 -0.24565595 -0.020819873 0.052950233 0.1611686 -0.18631527 -0.07137427
-0.10923991 0.21189839 -0.17812505 -0.05657349 0.070322365 0.01263234 0.15477632 0.16719595
-0.11936011 0.17327988 -0.22525965 -0.12321997 0.24108514 0.17259176 -0.32148394 -0.08118614
0.20884004 0.040173974 -0.13689913 0.016077707 0.17803608 0.06012794 -0.023689292 0.17260467
0.2318561 -0.090181604 0.30163184 0.20850573 -0.065688804 -0.21294817 -0.35542828 -0.20959328
0.19910014 0.009055857 -0.08031196 -0.26036048 -0.17267478 0.2234382 0.3308878 -0.04307365
-0.2789837 -0.04338271 0.29848862 -0.19246662 0.19276837 0.010529605 0.1350491 -0.10986367
0.32839116 0.21740517 0.22918347 0.049065676 -0.27644366 0.17630789 0.09385925 0.40100586
-0.12104935 -0.10824544 -0.043075256 -0.020966824 -0.09905929 0.07104411 -0.031157948 0.1512952
0.12897138 -0.07786116 -0.008326262 0.15079798 -0.21415702 -0.087017536 0.21083406 -0.22028023
-0.23356076 -0.117390715 -0.11859553 -0.24636962 -0.023470432 0.10754494 -0.22712404 -0.137846
0.30904406 -0.19606279 0.050297216 -0.069597185 0.15265913 0.23111129 0.08354095 -0.40927547
-0.1278863 -0.07718093 0.1453 0.41595683 0.17758837 -0.07357571 0.114070974 0.061209224
0.34082162 0.1643193 0.100296676 0.027907876 -0.2630991 0.14475928 0.2871051 0.09045255
-0.21057968 -0.73941094 -0.42688876 0.026583716 -0.0059368615 0.025771009 -0.020113358 -0.14798906
