AE Models/torch0.963autoencodervalmodel.pth (torch, 113910 bytes, 23 tensors)

weight f4 [16, 1, 4]
00000000: 77f0 143d 57ce 983b fe31 063d ddc1 7fbe
00000010: e786 bbbd a985 f0bb 6f71 d7bd 56bf 503e
00000020: 891e 3f3d 73ac e9bc bd4d 84bc 19ce b1bc
00000030: 4db7 3c3c e8c8 2f3e 9b63 1e3e e876 053e
00000040: 7e5c 8cbd dcc4 45bc c728 b03d 0f36 a6be
00000050: ec53 683e 035a 4bbd 1e91 14bd 6a1b 11be
00000060: 6f81 82be 6c82 c9bd f460 3cbd 1f02 7b3e
00000070: b751 313d 1ec0 5c3e dc0f afbc 141b 59be
00000080: ad07 963d 1675 e33d 14ea 2d3e 99f0 a1bc
00000090: afd3 c0bd a524 393a 2395 ffbc 1b87 9cbd
000000a0: 6a5d 573e 6ae1 c1bc 4c5c d4bd 7c4e 7abe
000000b0: f27a afbc 64f8 99bc e1a2 033e 17f7 bd3d
000000c0: 7b93 c43d cf8e a5bc 9f2b 7f3d d85c ac3d
000000d0: 751b e63c 5628 7b3d 22cf 6a3a 70c7 f63d
000000e0: 8a31 033e c75f fc3d ef24 003e 2350 d23d
000000f0: 8652 0b3e b987 073e 6eb7 bf3c d664 22bd
0.036362138 0.0046632695 0.03276252 -0.24976297 -0.0915659 -0.0073401523 -0.105196826 0.20385489
0.04665998 -0.028524613 -0.01615035 -0.02170472 0.011518312 0.17166483 0.15467684 0.1303364
-0.06853579 -0.012070861 0.08601528 -0.32463118 0.22688264 -0.04964639 -0.036271207 -0.14170614
-0.25489375 -0.09839329 -0.0459909 0.24512528 0.04329082 0.21557662 -0.021369867 -0.21201736
0.07325683 0.11106317 0.16983825 -0.019768046 -0.094153754 0.00070626504 -0.031199044 -0.07642957
0.21031728 -0.023667056 -0.10369167 -0.24444002 -0.02142093 -0.0187952 0.12855102 0.09275644
0.09598442 -0.020209698 0.06229746 0.08416146 0.028089264 0.061317764 0.0008957257 0.120497584
0.12811866 0.123229556 0.12514089 0.10269191 0.13605699 0.13235368 0.023402896 -0.039646946

bias f4 [16]
00000000: 8777 3a3f 53cf 603e a6a0 ab3f c616 37bd
00000010: a3c8 673e ec85 84bb fef1 10bf 8f2a 02be
00000020: e4f8 c7be 6322 9c3f 978d a9be ea06 42ba
00000030: 08ce 773b 3752 0c3f 5eb9 c43e 7b4d 06be
0.72838634 0.21954088 1.3408401 -0.044699453 0.2263513 -0.004044285 -0.5661925 -0.12711547
-0.39057076 1.2197994 -0.33115837 -0.0007401543 0.0037812013 0.5481295 0.38422674 -0.13115494

weight f4 [16, 16, 4]
00000000: 6d55 0b3e b136 983d 8e80 be3c 2277 993c
00000010: 569e d83d 2605 a13d a10c dd3c cdeb 183d
00000020: 00d5 0b3e bfcc b7bc b4e1 d9bd 429d 49be
00000030: c538 003e e752 4d3d bf3f ea3d 9647 a03d
00000040: 6799 9dbe 81bb cfbd a468 9abd 9d85 c63e
00000050: b21d f8bd 43f2 8ebd f0aa c63d d63a 943d
00000060: 733d 38be 19c7 c4be 2e6e 5cbe 7bec 8e3d
00000070: f438 a7bd e93a c9bd a149 6a3d add6 fdbb
00000080: c9bc 273e a43a a03d 2597 2ebc 766c 833d
00000090: 2721 113e e76b 003e f153 00be c700 bfbc
000000a0: e33d 3cbe 87b1 54bd 6ff7 f73d 8adf b33c
000000b0: b410 6f3e 47a2 ab3b 845f da3d ed20 963c
000000c0: 5394 c7bd 2191 39be 6fd3 1abc dc28 e63b
000000d0: ed0e b6bd 8768 a5bd eb3c 1e3e 355f dfbd
000000e0: 7ae0 3dbc 7184 cc3c be6d 773d 43a4 283d
000000f0: 5928 043e cc7c 503e c149 973c d97a b7bd
00000100: 8fc3 ae3c ce17 4cbd c060 ddbd 5b93 d1bd
00000110: 9b04 8d3d 9080 17bc 3869 2f3d 5089 17bd
00000120: 326c 68bc e53c bc3d 8ea9 9e3d 2763 21be
00000130: 2baa 08be 63b9 963d 2958 b4bd c98a 6fbd
00000140: 311d 40be 01b8 763b 337d 1fbe a11a 0cbd
00000150: adc8 7ebc 583b 71bd 19b2 c3bc 9c83 8a3d
00000160: 8203 acbd a930 aaba fbfc b83d af68 f63b
00000170: caec 2ebd a84c 023c 3917 8b3d 356e e73d
00000180: 605f 933d eb67 d53c 86fa 993c 57ae 84bd
00000190: 6c9b 94bd c770 c8bd 72e2 9fbd 4a4b 2fbe
000001a0: fb11 9cbd 9d56 98bb 3e83 2bbd 809d febd
000001b0: b805 b2bd b89f 0abe 7776 a4bc 66b3 53bd
000001c0: 643f f5bd d43a b13c fa6e 53bd 2586 05be
000001d0: e038 8c3c a8e5 5a3c cc2c a7bd d170 c03d
000001e0: 480d 10be 894f 08bc b65c 063d 49e7 bbbd
000001f0: df4c a3bc c567 cdbd f69c 44bd 69d2 58bd
00000200: 230f a43c e73f 3fbc 3372 cabd 35dd 68be
00000210: 7eea 71bd 23a1 c53c e2fd 9b3c 50da ed3d
00000220: dd6a 813e f66d 8b3d f99f 85be d991 11be
00000230: 8fb8 fe3d baf7 3b3e 324f 1f3e a8e3 023e
00000240: b9fb 72be 98c3 03be 6bb2 9bbe be8d ccbe
00000250: fac2 8cbe 69c6 07be 7cdc b9bd de15 b6bd
00000260: ffd1 4e3d 0984 5d3e 5ea0 4b3d 593e e03c
00000270: 37d2 0ebe 1aaa 29be ef1a f1bc 8870 f83d
00000280: 9c33 0ebd d3d3 833d 7474 273d 7289 7cbd
00000290: af0a 22be 9af2 f2bc ea25 883e 0094 ce3b
000002a0: 24e0 143e fbea 393e bc10 1e3e 53a4 a63e
000002b0: 1a65 e2bc 12ba 9a3c aa3b 0ebe e3db 01be
000002c0: 2aec e33d 6e85 ea3d 9b5d 4ebe 63d2 2e3d
000002d0: 31e4 963d a89c 0e3d 95ff 8a3c e368 143e
000002e0: a718 41bd 65c4 b83c 9f15 903c 3313 3e3e
000002f0: ff1c c33d 73e7 323c cc5c 463d b6b8 0c3e
00000300: 2427 87bd d1e0 d8bd 7251 2bbc 337e ec3c
00000310: 0263 efbd 1d90 d0bd 6804 67ba fdc7 153e
00000320: f7eb 333e 3709 de3d d13a c2bd 4974 083e
00000330: 18f8 92bd 1446 f53d 7144 f03d a7f0 503e
00000340: f4a6 9a3e 5c2f 10be 5ed5 3f3d c2bd 9a3e
00000350: 0635 0e3e 53d0 e33d a862 a13e a506 cb3d
00000360: cb4e 0b3e bf2b 0d3e cda4 fd3d 8ac9 bf3d
00000370: f5e5 da3c c86b 973d c827 233e 0231 803d
00000380: 593e 5f3e 445e 9a3c 782f 963d d50d f73b
00000390: 1860 71be a85c 27be 4bec 4abe 9a30 33be
000003a0: 5cbb 943d 9879 7e3d 62ee 00bc 65df b93d
000003b0: 8557 7e3d 57a7 79bd b887 8a3d b5ae 483d
000003c0: 5036 983d 004b 6b3d 853a c23d 30d8 263d
000003d0: 5840 3f3c e4c4 1f3e d915 0b3e 1b37 bd3c
000003e0: 1ef8 253d a24c baba 086f f33d f77d 8b3e
000003f0: 660b 953b 91fe 743d fd5f ddbd e9a5 64bc
0.13606806 0.074323066 0.023254659 0.018733565 0.10577075 0.0786231 0.026983561 0.037334252
0.13655472 -0.022436498 -0.106387526 -0.19688895 0.12521656 0.05012789 0.1143794 0.07826154
-0.307811 -0.101431854 -0.0753949 0.38773814 -0.12115039 -0.069798015 0.097005725 0.072377846
-0.17992191 -0.3843315 -0.21526405 0.06978699 -0.0816516 -0.09825689 0.057199124 -0.0077465386
0.1638061 0.07823685 -0.010656153 0.06417172 0.14172803 0.12541161 -0.12532021 -0.0233158
-0.18382983 -0.051927116 0.12107741 0.021957178 0.23346215 0.005237851 0.106627494 0.018326247
-0.097450875 -0.18121769 -0.009449824 0.007023914 -0.088895656 -0.08076578 0.15452926 -0.10906831
-0.011589164 0.024965497 0.060407393 0.041172277 0.12906016 0.20360106 0.018467786 -0.08958978
0.021333484 -0.04982739 -0.10809469 -0.10233184 0.06885644 -0.00924696 0.042824954 -0.036996186
-0.014185952 0.09191302 0.07747184 -0.1576048 -0.13346164 0.073595785 -0.08805878 -0.058481965
-0.18761136 0.0037646296 -0.15575103 -0.034205083 -0.0155507745 -0.058894485 -0.023888635 0.06763384
-0.083991066 -0.0012984473 0.09032627 0.0075198035 -0.04270629 0.007952847 0.06791539 0.11300317
0.07195926 0.026050529 0.018796217 -0.06478565 -0.07256207 -0.097871356 -0.07806863 -0.17118564
-0.07620617 -0.004648997 -0.04187321 -0.124323845 -0.08692497 -0.1353749 -0.02007602 -0.05168476
-0.119749814 0.021634497 -0.051619507 -0.13039453 0.017116964 0.013360418 -0.08162841 0.09396518
-0.14067566 -0.008319744 0.03280326 -0.091749735 -0.019934116 -0.10029558 -0.048001252 -0.052935038
0.020026749 -0.01167295 -0.09885063 -0.22740634 -0.05906152 0.024124688 0.01904196 0.116139054
0.25276843 0.06808083 -0.26098612 -0.14215793 0.124375455 0.18356219 0.15557554 0.12782156
-0.23728837 -0.12867582 -0.3040956 -0.3995189 -0.27492505 -0.13259281 -0.09075257 -0.088908896
0.050493237 0.21632399 0.049713485 0.02737348 -0.13947378 -0.16568795 -0.029431788 0.12130839
-0.034717187 0.06436887 0.040882543 -0.061654516 -0.15824388 -0.029656697 0.26591426 0.006304264
0.14538628 0.18156044 0.15436071 0.32547244 -0.0276361 0.018887553 -0.13889948 -0.12681536
0.11129029 0.11451231 -0.20152895 0.04268111 0.07367743 0.034817368 0.016967574 0.14493136
-0.04714265 0.022554586 0.017588435 0.18562011 0.09527015 0.01091944 0.04842834 0.13742337
-0.06599262 -0.10589755 -0.01045643 0.02886877 -0.11688806 -0.101837374 -0.0008812607 0.1462707
0.17570482 0.10841601 -0.094838746 0.1332561 -0.071762264 0.11976257 0.11731804 0.20404302
0.302055 -0.14080566 0.046834342 0.302229 0.13887414 0.11123719 0.3152058 0.09913377
0.13604276 0.13786219 0.12384949 0.093646124 0.02672098 0.073936045 0.15933144 0.062593475
0.21801127 0.018843777 0.07333273 0.0075394907 -0.23571813 -0.1634394 -0.19816701 -0.17499009
0.072622985 0.06212768 -0.007869335 0.09075812 0.062095184 -0.060950603 0.067641675 0.04899474
0.07432234 0.057444572 0.09483818 0.040733516 0.011673056 0.15602452 0.13582553 0.023097565
0.040519826 -0.0014213512 0.11886412 0.2724454 0.004548478 0.059813086 -0.10809324 -0.013955572

bias f4 [16]
00000000: 3488 0ebe 4b82 03bd 8b97 183e 3f01 593e
00000010: ed8a 6e3e 5588 40be 6947 0bbc a009 783f
00000020: 30a4 3e3e e641 8f3e 5731 343d bf18 1e3e
00000030: 27ef f73e a6d8 003f 072c c73d 8b53 9fbd
-0.13919145 -0.03210668 0.14901559 0.21191882 0.23295183 -0.18802007 -0.008500912 0.96889687
0.1861732 0.27979964 0.043992367 0.15439127 0.48424646 0.5033058 0.097251944 -0.077796064

weight f4 [16, 16, 5]
00000000: 4cc0 f4bd e0d8 233e 7433 08be 5385 553d
00000010: 5a30 cc3d afed b33d 006a 593d 55f1 abbd
00000020: 965c 1a3d 5b65 c1bd e6ac f23d c497 833d
00000030: 9ff0 473e 09a4 183d 8b4e 373e 65e5 113d
00000040: d9d4 703e 9865 85bc c46b 813b 349d 253e
00000050: 3c5a 183d 76d3 45be 2b1e a9bd 6387 223e
00000060: 22ca 27bd 4880 da3d 4eec 03be edeb b73d
00000070: 5950 cd3c 761e 60be e3e7 c53c e8ad 65bd
00000080: d6cb 0b3c 6898 59bd fd2d 283b 3ca4 063d
00000090: 9787 81bc eee4 4bbe f355 d13b 4426 643e
000000a0: aa42 37bc 1115 d63c bbdd 6abd 732a f03c
000000b0: 09a0 36be df82 00bd f454 103e b0bf 97bd
000000c0: c2b7 24be 25f7 063d bed1 463d 5f88 f43d
000000d0: 07de a13e f9f5 92bd c7a8 3a3e 4260 4f3e
000000e0: 77e1 da3c 6c92 923d b26e 08be 7534 a43d
000000f0: 50b2 593d e6c6 3fbd 482f 703d fa41 2c3e
00000100: e455 6c3d d05c 743d 4395 46be 3b6e a6bd
00000110: 6852 d3bd d635 e33d 8008 713d f1a6 86bd
00000120: bc92 a03d be11 cb3d b802 e93d 66c3 32bd
00000130: a41f 2bbd dae5 f43b 7894 26bd 4502 903b
00000140: be71 b53e 8b70 a13e 44b6 d4bd b3de 0fbe
00000150: d3fe b03d cd72 983d 8539 8b3d 56f6 8dbd
00000160: 2cfb 6a3d 2038 1a3d c25d 3dbd 108a d53d
00000170: 4be2 883e 169e 98bd 3789 aabb 04ca 46be
00000180: 8606 81be d159 bc3d 5bff 0bbb 55d0 8a3d
00000190: 255b 183f 0657 563e 1cc7 a13d d251 05be
000001a0: 04ef e2bc 73d3 7bbd 53eb d2be cf97 383e
000001b0: 53f1 013e 91c7 e9be 5aa3 cb3d d8f8 383d
000001c0: e627 9abd 6a37 ac3d d8f4 d3bc 552a 913d
000001d0: 77a8 80be cad1 a7bd 549c 4d3d 10b8 613e
000001e0: 7c17 acbc f301 133e abdd 9dbd a702 eb3d
000001f0: fb6a 5cbe afec 923e 14da 11bd 9bc9 c0bc
00000200: 05d6 bdbd eeb3 ab3d 4d25 5abe 3529 0dbf
00000210: 4c6a afbc 27a5 df3d 4220 3d3d dc37 51bd
00000220: e45c aebe fc65 203e 50a7 2b3e 67c3 703e
00000230: 2376 f93e a13d 7cbd 40f6 85bd ae0d c43e
00000240: e47e 93be 9c1c 18bf 74eb 87bf e7f5 82c0
00000250: cf67 d13d d3a0 abbe 372c 48be 1e09 aebe
00000260: 0065 8cbe 0e56 ec3d edd1 803d 77cc 4abc
00000270: 5804 aebd 60bc cf3c a7e6 c6bd 5389 b5bb
00000280: 4ca9 f6bd 7cb4 9dbd b9c5 66be f026 c53d
00000290: 5425 f1bd 124d f13d 650e e43d ebc5 ce3c
000002a0: 2e77 cc3d d692 87bd 3ced 453d a57e 503e
000002b0: 7d15 b73d 8bcf 043e f33f 733d a7d4 f2bd
000002c0: bde3 d33d 2a35 9dbc cdbe 84bc 4d96 b8bd
000002d0: cfbc 933c faa8 91bc 1115 273e 8d1d 593d
000002e0: fe2b 0abe 38bf 2a3e 7f50 d73d 0dab e2bc
000002f0: 6e1c d73d e537 20be d6f7 a23d c581 29bd
00000300: 6dd0 7bbc 9435 4b3c 6dcc 94bd ff9d d13d
00000310: 68e1 d53d 3d05 e83c 30a1 33be a090 93be
00000320: 29b4 053e 46a2 8f3d 12ec eabd 4b9c e4bd
00000330: 3d69 87bb b569 5b3c fd23 18be bd58 b2be
00000340: 4412 e43e bfc5 2b3c f793 893e 981d f53d
00000350: c25f e53d 16de 75bd 97c3 43be 75fc 55bd
00000360: 1fa2 78be 6145 8d3e 0b3b 0abd ec55 f03c
00000370: bf07 bd3d 7b55 3c3d 814a 0c3e a8c4 663e
00000380: 3808 a83b b857 3e3e 18ce 21bd 5265 2a3e
00000390: 50dd e13c 4437 d9bb 64c2 b33d 2370 1ebd
000003a0: 3549 1f3e ec8b 5f3e d19d 98be 8ac7 4bbd
000003b0: 9cbf 003d 5662 b53d b0b6 d73c 0bf9 81bd
000003c0: 0660 fcbd c865 2abd 6344 143e 6742 303d
000003d0: a697 1a3e 8426 51bd b859 c1bd 1249 ce3c
000003e0: d1ce 33bd 16f3 553d 00c1 313d 7909 823d
000003f0: f663 a13e 5f19 b73d ebf7 4d3e a020 ed3c
-0.1195074 0.160007 -0.13300878 0.0521291 0.0997016 0.08785569 0.053079605 -0.0839564
0.037685953 -0.0944316 0.11849384 0.06425431 0.19525383 0.03726581 0.17901056 0.03561916
0.23518695 -0.016283795 0.0039496142 0.1617325 0.03719543 -0.19318947 -0.08257707 0.15871958
-0.040964253 0.10668999 -0.12883112 0.08980546 0.025062727 -0.2188662 0.024158424 -0.056074053
0.008532485 -0.05312386 0.0025662177 0.03287147 -0.015811725 -0.19911548 0.00638842 0.22280222
-0.011185328 0.026133092 -0.057340365 0.029317116 -0.17834486 -0.03137481 0.14094907 -0.07409608
-0.16085723 0.03295054 0.04853987 0.11940073 0.31614706 -0.07175822 0.18228446 0.20251563
0.026718838 0.07156834 -0.13323477 0.08017818 0.053148568 -0.046820544 0.05863884 0.16822043
0.0576991 0.059658825 -0.19392876 -0.081264935 -0.10318452 0.11094253 0.058845997 -0.0657481
0.07840487 0.099154934 0.11377472 -0.043643378 -0.04177822 0.0074736895 -0.040668935 0.004394802
0.3543834 0.31531176 -0.10386327 -0.14049797 0.08642354 0.074437715 0.0679808 -0.069317505
0.057368442 0.03765118 -0.046231993 0.10426724 0.26735148 -0.074520275 -0.0052043456 -0.19413
-0.2520029 0.091968186 -0.002136192 0.067780174 0.59514076 0.20931634 0.07899305 -0.13019493
-0.027701862 -0.06148095 -0.41195163 0.1802666 0.12689714 -0.4566007 0.09943266 0.04515919
-0.07527141 0.08409007 -0.025873587 0.07088152 -0.25128528 -0.08194311 0.050197914 0.2204287
-0.021007292 0.14356212 -0.077082954 0.11475115 -0.21525185 0.286962 -0.035608366 -0.023533633
-0.092693366 0.08383928 -0.21303292 -0.55141 -0.021412991 0.10920172 0.04617334 -0.051078662
-0.34055245 0.15663904 0.16763043 0.2351204 0.48722944 -0.06158221 -0.06541109 0.38291687
-0.28807747 -0.59418654 -1.061873 -4.0925174 0.10224878 -0.33521137 -0.19548117 -0.3399133
-0.27420807 0.11539851 0.0629004 -0.01237785 -0.08496922 0.025358379 -0.09711962 -0.005540052
-0.120440096 -0.0770044 -0.22536363 0.09626567 -0.11774698 0.11782278 0.11135558 0.025240859
0.09983669 -0.066198036 0.048321947 0.20360811 0.089396454 0.12969796 0.05938716 -0.118569665
0.10346172 -0.01919039 -0.016204262 -0.090130426 0.018034367 -0.01778077 0.1631663 0.053006697
-0.13493344 0.16674507 0.105134 -0.027669454 0.105034694 -0.15646322 0.07957427 -0.041383523
-0.015369517 0.012402911 -0.072655536 0.102352135 0.104433835 0.02832281 -0.17541957 -0.28821278
0.13057007 0.07013373 -0.11470808 -0.11162623 -0.0041324184 0.013391902 -0.14857478 -0.34833327
0.44545186 0.010484158 0.268707 0.11968535 0.11199905 -0.06002625 -0.1911758 -0.052242715
-0.24280594 0.27591994 -0.033747714 0.029337846 0.09229993 0.045979958 0.13700296 0.22535956
0.005127933 0.1858815 -0.039503187 0.16640213 0.02757135 -0.0066289026 0.087773114 -0.03868116
0.1555527 0.2183072 -0.29807904 -0.049750842 0.031432733 0.08856647 0.02633223 -0.06346329
-0.123230025 -0.041600972 0.14479212 0.043032076 0.15096912 -0.051062122 -0.094409406 0.025181327
-0.043898407 0.052233778 0.04339695 0.06349463 0.31521577 0.08940386 0.20114104 0.02894622

bias f4 [16]
00000000: f013 4f3e e489 6b3e bf92 3a3f a609 28be
00000010: 0eb3 603e e698 0abe b568 babe 2069 c8bd
00000020: 28b1 893f 5b33 a73e 7510 173e ce32 23be
00000030: 700c 71be ae81 64bf f797 90bd d3fc e2bd
0.2022245 0.2300182 0.72880167 -0.1640993 0.21943304 -0.13534889 -0.3640801 -0.09785676
1.0757189 0.3265637 0.14752372 -0.15937349 -0.23539901 -0.89260375 -0.07060235 -0.11083379

weight f4 [16, 16, 5]
00000000: a446 ba3e 3b9b fabd 14af 013d db14 8fbd
00000010: 1cad bc3d 5ba4 02be 3f7c bc3e 4d78 2cbe
00000020: 0538 35be c8b2 9a3d 6df5 bd3e 76c2 c83c
00000030: 4ad9 89bd b98c 1f3e 8c07 233d 5648 863c
00000040: c2de 783d 2478 c03c 3564 333e 1025 833d
00000050: 8348 35be 57d0 783e 7ff7 723e a942 3f3c
00000060: 833a 4c3e 0f8f a43e 3fcc 2a3e c2ab 323e
00000070: 5d5f cfbd b1f8 ca3c 3b70 98bd b267 933e
00000080: 318d 35bd d3d7 2fbd 4db8 afbd 7bc3 083e
00000090: c2ad cc3d 538e 003d 350c 18be b659 d43d
000000a0: dc0f 443e 9415 683e 6157 633d 2983 ddbd
000000b0: 9cfb d9bc 3ac1 963e b75f 413e c6fc fd3c
000000c0: ae3c 75be e26d d9ba ef0e 343e 9bc9 b2be
000000d0: 13d9 9f3d f7c0 ddbd 1846 25bc d282 e03e
000000e0: d3b5 08be 1433 36be 1baa 2b3c 1e80 0ebe
000000f0: 7380 21be c295 8d3d 8504 27bd f10e 383e
00000100: f85a 96bc 2278 67be a7fe 9b3e ead2 31be
00000110: 9de4 033e f24e ee3b b891 a9bd d629 babb
00000120: 029d 4dbd 1559 813d efca 29bd 8733 ed3d
00000130: cfb2 e83c 8d8c c3bd 96ee 073e 0838 a5bd
00000140: 7427 243e 4732 dd3e a0ec a8bd a9b6 943c
00000150: 9644 0ebd e862 b43d b8c2 c03e 7bf8 543d
00000160: 16af 663e 705c f63d 75d3 78be ac19 2d3e
00000170: 6c15 90bc f50d 0dbe 2ac0 f0bd 9357 893d
00000180: 354c 983e 6324 2ebe 5dc9 cf3d 2b55 a23d
00000190: ea54 11bf e8d5 9ebf b4a4 eabd 5c53 0e3e
000001a0: 41dd eabd 7c4b 2ebe 9780 743d 2a61 403d
000001b0: 7b40 b53d 8b37 133c 40ac 183e bc19 0c3e
000001c0: 319a cf3d 4c8c d83d d0c5 adba 208a 04bc
000001d0: b25a 913d 0049 d3bc 909b 6c3e 0a62 49bd
000001e0: f707 223e 71af 44be c8bf 90be 4eed 313e
000001f0: 1f91 313e b093 133e d1bb 2b3e 34b4 f73e
00000200: 57ff d53d 4ac9 a4bd bc49 123e 4c85 3c3d
00000210: f13f 92be ed28 893c aeb9 bdbd 029e 613c
00000220: 6d67 ac3e 608c 473e 6a6f 2dbd 82a1 5a3d
00000230: c029 9a3e 6bae 313d 6ec4 b2bd fa9c 503c
00000240: 2ca9 27bd 496c 1dbd 10e2 33bd d8d8 e33e
00000250: 3360 26be 52cd ff3a d1b2 87bd bdad cabd
00000260: 2c2b e2bd c09d 983a 17e9 9dbc 462f 8c3d
00000270: 8f72 3cbc 5813 3e3c d8b2 bfbd 1c50 d83c
00000280: 0e21 3cbe b515 e23c d222 d3bd d149 423d
00000290: 5822 443e 0443 673e e52e 893e c996 993d
000002a0: 0dd7 743e 2121 82be b59a a4bd 3502 0f3d
000002b0: d2dd 973d 4592 44be 25f2 923d 48f4 b33d
000002c0: e5fe 463d 59e9 50be c1f3 d33d 172e 4d3e
000002d0: 77da 89bd 3516 0d3e ded6 aabd 193b d03e
000002e0: af5c 22bf fb4d c6bd cc5d aabd 8085 b8bd
000002f0: caf9 66be a1da 263e 9fd2 143d a77f 98bd
00000300: d041 cbbd 5388 863e 25a8 25be 14a0 f93c
00000310: 2853 fc3d d9ba ef3d 34a6 f4bd c115 ff3d
00000320: 728a cebd 6b83 fcbc 40c4 263d bba0 883e
00000330: 4fae c43f f30e 413d dc3a 903e 38d7 e23d
00000340: 5ca5 b73e fd26 84be 51ce e03d f83f 9b3d
00000350: 88ee 673e 980c 823e 8395 ad3e 4e42 2fbe
00000360: b058 c03d 4e30 e43d ae0f 97ba 32ca df3d
00000370: 587e 143d 20b6 b2ba 31f9 e8bd 4ca3 363e
00000380: d767 eabd 9bb9 503d 5237 3abe b9de 18bc
00000390: 21e1 203d 95cb 57be 7e79 b9bd c28f 9f3d
000003a0: f308 68bd b4b5 ce3c 511d 1fbb 54fc c9bc
000003b0: 6708 94bd 84bc ad3d 30c7 adbb ad9e 0f3d
000003c0: 198f 0f3e bff3 a2be 1902 5dbd 874d 353e
000003d0: 5119 183e e2f7 3b3e 15d8 813e a917 813e
000003e0: 1441 843d 6430 70be cec5 66bc d0b7 d93d
000003f0: 284a 18be 60f2 4cbc 9cc1 b13c 845d d33d
0.3638202 -0.12236639 0.031661108 -0.069864 0.092127055 -0.12758009 0.36813542 -0.16842766
-0.17697151 0.07553631 0.37101308 0.024506789 -0.06730898 0.15581025 0.03980212 0.016391914
0.060759313 0.023494788 0.17518695 0.064035535 -0.17703442 0.24298225 0.23727225 0.011673608
0.19944195 0.32140395 0.16679476 0.17448333 -0.10125611 0.024776788 -0.07443281 0.2879005
-0.044324104 -0.042930435 -0.085800745 0.1335582 0.09994079 0.03138573 -0.14848407 0.103686735
0.19146675 0.22664481 0.055503253 -0.108160324 -0.026609235 0.29444295 0.18884169 0.03100432
-0.23948929 -0.0016588534 0.17583822 -0.34919438 0.078050755 -0.10827821 -0.010087512 0.43849808
-0.1335061 -0.17792922 0.010477568 -0.1391606 -0.15771656 0.0691333 -0.040775795 0.1797445
-0.018353924 -0.22604421 0.30467722 -0.17365614 0.12880178 0.0072725946 -0.08279747 -0.0056812568
-0.050198562 0.06315819 -0.0414533 0.11582094 0.028405575 -0.09548292 0.13274607 -0.08067328
0.16030675 0.4320242 -0.08248258 0.018153505 -0.034733377 0.08807927 0.3764856 0.051994782
0.22527727 0.1202935 -0.24299414 0.16904324 -0.01758834 -0.13774855 -0.117554024 0.067061566
0.2974564 -0.17006068 0.10145829 0.07926401 -0.56770194 -1.2409029 -0.11457196 0.13898987
-0.11467982 -0.17020983 0.059692945 0.046967663 0.08850189 0.00898541 0.14909458 0.13681692
0.101368316 0.105736345 -0.0013257805 -0.008089572 0.07097377 -0.025791645 0.23106217 -0.049165763
0.15823351 -0.1920755 -0.28271317 0.17375681 0.17340516 0.14411807 0.16770865 0.48379672
0.10449093 -0.08046205 0.1428594 0.04602556 -0.28564408 0.016743148 -0.09263931 0.013770582
0.33672658 0.19487143 -0.04234258 0.053376682 0.30109978 0.04337923 -0.08728872 0.012732739
-0.04093282 -0.038433347 -0.043916762 0.44501376 -0.16247635 0.0019516146 -0.066259034 -0.09896419
-0.11043391 0.0011643693 -0.019276185 0.06844954 -0.011501922 0.011601292 -0.093602836 0.026405387
-0.18371984 0.027598241 -0.10309376 0.047433678 0.19153726 0.22584158 0.2679359 0.07499463
0.2391016 -0.254159 -0.080373205 0.034914214 0.07415356 -0.19196422 0.07175092 0.08786827
0.04858293 -0.20401515 0.10349227 0.20037113 -0.06731122 0.13778003 -0.08341764 0.40670088
-0.63422674 -0.09682842 -0.083186716 -0.09009838 -0.22556224 0.16294338 0.036333676 -0.07446223
-0.09924662 0.26275882 -0.16177423 0.030471839 0.12320548 0.1170556 -0.11945763 0.12455321
-0.10085 -0.030824384 0.040714502 0.26685128 1.5365695 0.047133397 0.28169906 0.11076206
0.35868347 -0.25810996 0.10976852 0.075805604 0.22649586 0.25400233 0.3390313 -0.17115137
0.09391916 0.11142026 -0.0011525059 0.109272376 0.036253303 -0.00136346 -0.113756545 0.1783573
-0.11445587 0.050958257 -0.18185166 -0.009330445 0.0392772 -0.21073754 -0.09056376 0.077910915
-0.05664916 0.025233127 -0.0024278949 -0.024656452 -0.07228165 0.08483222 -0.005303286 0.035063434
0.14019431 -0.3182659 -0.05395708 0.17705356 0.14853407 0.18356279 0.2536017 0.25213364
0.06457725 -0.2345596 -0.014085246 0.106307626 -0.14872038 -0.012508959 0.021698765 0.10320571

bias f4 [16]
00000000: 8999 7cbe 743d 3abf 2cb9 883e e2a5 bc3e
00000010: 38f7 cb3d 6d7b 61be 316c 8a3e c66f fcbe
00000020: 465d 9dbe f33a f23c 0ead 35bf 5c52 143f
00000030: 4cda 93bb 9003 333e b2d9 fdbe 2234 9ebd
-0.24667944 -0.7275002 0.26703775 0.3684531 0.099592626 -0.2201974 0.27035668 -0.49304026
-0.30735224 0.029569125 -0.70967185 0.5793817 -0.004512107 0.17481828 -0.4958015 -0.07724787

weight f4 [64, 112]
00000000: 3246 7abe 160e 27be cc4b 5a3b 6ba6 0c3c
00000010: ffcf 2dbe 6b9c b9bd 7759 643b bda5 273e
00000020: c638 553e 1be1 f8bd 3443 cd3e 7057 473d
00000030: ef3a 253c ab1e b8bd 98b2 3d3e aee0 bd3b
00000040: 2590 d43c 8bb2 b7bc 3377 9a3d 0970 dd3c
00000050: b12b 6dbd b154 28be 7bc7 2dbe 441d 38bd
00000060: 19a9 8e3d 2c23 a93d 1520 d5bc 2fde 4a3e
00000070: f69a a43c f0aa 973d 04c4 00be c5ac bdbd
00000080: 188e b2bd 3486 9c3d aa00 8f3e bda0 f53d
00000090: 538f 50bd e387 5b3d 9bcb 90bd af57 d63d
000000a0: 1ffa 0b3d 30b3 9cbe a898 a43e c56e 273e
000000b0: 09e1 d5bd d8d7 d43e e8ab d93d d06d 233d
000000c0: e56b 803c 4cbb b13e b29e 783e 1a66 5a3d
000000d0: 195f 643e 04cd f73d fd16 d13d d809 a43c
000000e0: 8d36 65be 5582 07be fc89 8c3d fbdd 42be
000000f0: e4db 69be e12c aabd 2846 a73d 64bd fabe
00000100: 31ac 763d 9caa 683e 77b0 e5bd 30d0 b9bd
00000110: 2033 b7bd 1d8f 743d 66f2 7bbc 1f51 4e3e
00000120: fbab 32be f2b5 fe3d a8e6 0a3e 8c78 9b3d
00000130: c7c8 82bd 6f46 01bd 9d8d 633b cddb 42bc
00000140: 0abf 9ebd ca6f 613d 3852 883d 6beb 753e
00000150: 8c6f bebd e01b 62be b424 3c3e b926 7dbe
00000160: a2a4 8dbe 0dc6 12be d0bf 0a3e abd3 aa3e
00000170: 6855 1cbe 0136 2a3e 84a8 f03d 5577 4b3e
00000180: f2b9 913c 9464 653e bcae 803e 90bd a9bd
00000190: f9d4 e9bc 15ad 7b3e 7a53 2d3e da7e b8bd
000001a0: 81e2 79bd 7bb2 e53d f09c 98bc b375 193e
000001b0: a5e1 f63d 1488 13bc c519 cfbd 56bc 96bd
000001c0: 1177 83be 331d f53d d52d fc3c ef09 bebb
000001d0: 6c38 50be 457b 693e 1a81 51bd 7fad 54bc
000001e0: 19fa cebc 8a99 64bd f7a9 b73d e4f1 883d
000001f0: 9f39 90bc 4a31 7f3b 0075 7c3e 7f7a 363e
00000200: 65ab 8a3e 528c cc3e 94a0 0f3e fa09 293e
00000210: 8311 cc3c 05ac 11be 983d 0cbe 278a 493d
00000220: 60b0 b0bd f9ff 9bbd 0115 173d 8a17 603c
00000230: 6e20 103e 4690 693b 64c7 54be 13ed 603e
00000240: ef67 9d3d 47ee 48bd 2715 0c3e afba 0f3e
00000250: f6b0 5abd ff85 453c b833 a43e 3549 53bd
00000260: 40c3 b43d 1a09 a0be b754 9e3e ebb0 143e
00000270: 0b13 2abe 6cc4 773e ec1f 6f3e 0db9 45be
00000280: 7e75 13bc 1562 093d 9acb 283d 272d f3bd
00000290: 1994 f8bc 24d2 823e d73e b5bd 41f5 4fbc
000002a0: 7659 10be 74d4 053e 77d6 d23c 4892 45be
000002b0: 50d2 8b3d 8937 763b 75b1 453d 057a c8bd
000002c0: 8488 673d d2a9 923e f367 8dbd 269e 1d3d
000002d0: 3e47 813e 86a0 b2bd e400 b73e 7f99 8d3e
000002e0: e846 653d 5aa9 fd3d 34c3 963e c852 02bd
000002f0: efc6 213d 6b9b 8b3c ff89 6dbc 95b3 13be
00000300: b04d 513e 2086 063e 7a42 483e 164a 433e
00000310: 61cb 08be d0b4 1abc 8788 c1bd 887e 68be
00000320: a30e f2bd f3dc 6d3e c46d b43c 6d63 1c3c
00000330: f879 afbd 2d81 85bb 62b5 c53e f93b 56be
00000340: 8c3c b13d c238 763c 0f54 cfbd f425 1bbe
00000350: f550 463b 3912 ca3d db93 86be d014 69bc
00000360: 421e 27be 9ff9 a9be b55f f4bd 383b 08be
00000370: 2ae9 69bd 41e2 b8bd 0cca ddbd 92ff 8ebe
00000380: f6b8 91be cf62 8dbc 07ca abbc 8467 febc
00000390: 24c5 e73c 9710 f43d ab62 6abd e088 c33d
000003a0: db04 423d 42a5 d9bc 82fa 00be f5b5 ca3d
000003b0: c0c3 9b3e ec51 99bd f953 5c3e 076f 3f3e
000003c0: 55f0 c33d 7bad 5c3e f1b4 cf3c 2e0f 36bd
000003d0: 1633 21be d704 6abe 34f7 8ebd d957 95bd
000003e0: dd52 3f3e d992 ac3e 3633 c23d cdd3 adbd
000003f0: f9a6 c1bc 1f89 09bc 42f9 743e 1679 7c3e
-0.2444084 -0.16313967 0.0033309339 0.008584599 -0.16973875 -0.090630375 0.0034843364 0.16371818
0.20822439 -0.121523105 0.40090334 0.04866737 0.010084852 -0.089902245 0.1852516 0.005794606
0.02594764 -0.022424003 0.07542267 0.027030962 -0.057902995 -0.16438557 -0.16970627 -0.044949785
0.069658466 0.08258662 -0.026016274 0.19811319 0.020093422 0.074056506 -0.12574774 -0.09261469
-0.087185085 0.07642785 0.27930194 0.11993549 -0.050917935 0.05359639 -0.07070085 0.10465943
0.03417408 -0.3060546 0.32147717 0.16350849 -0.10443313 0.41570926 0.10628492 0.039899647
0.015676448 0.3471321 0.24279287 0.053320028 0.22301902 0.120996505 0.10209463 0.020024225
-0.2238409 -0.13233311 0.06862256 -0.19029991 -0.22837788 -0.08309341 0.08167678 -0.4897262
0.06022281 0.22721332 -0.112152986 -0.09072912 -0.08945298 0.059706796 -0.0153776165 0.20148133
-0.17448418 0.12437047 0.13564551 0.07591352 -0.063859515 -0.03156131 0.003472186 -0.011893225
-0.077512816 0.05503825 0.06656307 0.24015586 -0.0929862 -0.22080946 0.18373376 -0.24721803
-0.27664667 -0.14333363 0.13549733 0.33364615 -0.15266955 0.16622163 0.11750892 0.1986974
0.017788861 0.22401649 0.25133312 -0.08288109 -0.028543936 0.24577744 0.16926375 -0.0900857
-0.061007027 0.11215683 -0.018629521 0.14986305 0.12054757 -0.0090046115 -0.10112337 -0.07360141
-0.25676778 0.1196846 0.030783573 -0.005799524 -0.20334023 0.2280093 -0.05114851 -0.012980818
-0.02526574 -0.05581049 0.08967965 0.06686762 -0.0176056 0.003893929 0.24654007 0.17820166
0.2708389 0.39950806 0.140261 0.16507712 0.024910694 -0.14225776 -0.13695371 0.049204018
-0.08627391 -0.07617182 0.036885265 0.013677487 0.14074871 0.0035638972 -0.20779186 0.21965437
0.076858394 -0.049055364 0.13679944 0.14036058 -0.05339142 0.012055873 0.32070708 -0.051583488
0.088263035 -0.31256944 0.30924007 0.14520614 -0.16608827 0.24196023 0.23352021 -0.19308873
-0.00900018 0.033540804 0.041209795 -0.118738465 -0.030344056 0.2555095 -0.088498764 -0.01269275
-0.14096627 0.13069326 0.02573703 -0.19294083 0.06827223 0.0037569723 0.04826494 -0.097888984
0.056526676 0.28645188 -0.06904592 0.0384809 0.25249666 -0.08722024 0.35742867 0.2765617
0.055975825 0.12385817 0.29445803 -0.031817228 0.03949636 0.017041883 -0.014498233 -0.14423974
0.20439792 0.13137102 0.19556609 0.1907123 -0.13358833 -0.009442523 -0.09449869 -0.22704518
-0.11819198 0.23228817 0.022024997 0.009545189 -0.085681856 -0.004074237 0.38614947 -0.20921315
0.086541265 0.015028181 -0.10123455 -0.15151197 0.0030260656 0.09866757 -0.2628468 -0.0142261535
-0.16320136 -0.33198258 -0.11932317 -0.1330384 -0.05710713 -0.090275295 -0.10829553 -0.2792936
-0.28461426 -0.01725903 -0.020970358 -0.03105522 0.028292246 0.11917227 -0.057223003 0.09547591
0.04736791 -0.026568059 -0.12595561 0.09897987 0.30422783 -0.074863285 0.21516408 0.18694697
0.09567324 0.21550553 0.025354834 -0.04444807 -0.15742144 -0.22853409 -0.06980744 -0.07292146
0.18683954 0.33705786 0.09482424 -0.084876634 -0.02363919 -0.008394509 0.2392321 0.24655566

bias f4 [64]
00000000: 1084 0ebc 7a06 2f3e b205 1c3e b10b 883c
00000010: c3f6 053e d5d8 ed3d 3a16 95bc bf10 2f3e
00000020: 6e67 b2bd b12f 503c c65b 8f3c e41f df3c
00000030: 9dca 243d 4e14 243e 6b47 8abc aef0 cabd
00000040: e20c 1dbe 9913 073d f8f2 5f3d 5b17 dabb
00000050: 6036 703e 552a d0bd 6e96 63bc 291b 843b
00000060: cd85 02be 5d6d a43d a395 aabd 2b17 6ebe
00000070: ea46 82bd 2771 4abe b316 27bd f632 a6bd
00000080: 4b77 1a3d 31bd a23c c9cb 10bc 1ca1 fc3d
00000090: 2f26 c4bd 8085 babd cc23 d1bd d63d 5a3e
000000a0: 52ba 533e 4aec 443e b8fc 6fbd cdf4 be3d
000000b0: 23e0 5e3d 8d98 493c 26a1 123e 9963 7dbd
000000c0: 83ca 38bf bd32 1f3e 15f8 6fbb 170d 973d
000000d0: be15 82be ee2e eb3c 7e5f b6bc 436b b93d
000000e0: 6715 6cbe 199d 8dbc acf2 ebbd 522d 9dbd
000000f0: 3d5a 1bbc a994 583e effa a33e bf18 243e
-0.008698478 0.17092314 0.15236548 0.016607137 0.13082413 0.11613623 -0.018199075 0.17096232
-0.08711134 0.012706683 0.017499816 0.027236886 0.04023229 0.1602337 -0.016879758 -0.09909187
-0.15336946 0.032977674 0.054675072 -0.006655616 0.23458242 -0.10164324 -0.013890846 0.004031558
-0.12746353 0.08028672 -0.08329322 -0.23251025 -0.06361182 -0.19769727 -0.040793132 -0.08115189
0.037711423 0.019865604 -0.008837649 0.12335417 -0.095775954 -0.09107494 -0.10211906 0.21312651
0.20676544 0.19230762 -0.05859062 0.09324036 0.054412972 0.012304437 0.14319286 -0.06186256
-0.7218401 0.15546699 -0.0036616374 0.073755436 -0.25407213 0.028708901 -0.022262331 0.09053662
-0.2305504 -0.017286824 -0.11520895 -0.0767466 -0.009481964 0.2115046 0.32027385 0.16025065

weight f4 [32, 64]
00000000: 33ae 78be 5091 79bd 3d82 9bbd 6ead 093d
00000010: 4577 9f3e bcab 603c 5783 e6bd ac6a d3bc
00000020: 6825 bd3e 801e b63d 6b4e d7bd 713f ad3c
00000030: 9ffa d3bd 1ac2 503e 47c2 af3d 040d 0f3d
00000040: e178 db3d bf53 c53d 59a2 023e 3447 c1bc
00000050: b295 31bd 8316 1bbd b34d 2f3e 5689 f63d
00000060: 1f72 98bd bd4c 3ebe 1bd4 b4bd 5807 f03c
00000070: 6379 1e3e 12aa 053d 0fe8 8b3e b6ed 233e
00000080: 5e14 a53d 8499 c43d 2918 84bc 6728 213e
00000090: 3c17 d73d c4f9 13bd 1c3c 813c 92c8 e1bd
000000a0: 5af5 10be d858 15be acea 1abd 142d fd3d
000000b0: c44f d5bd 9c9c 26bc 8efa fd3d 9be9 013c
000000c0: 66ce 023e c934 863e fdcd a43e cac4 cd3b
000000d0: 0584 a2be 0580 803e eb63 e0bd 8c54 c53c
000000e0: 8e02 debd ee7a 4ebc 3433 c03d e5d7 c8bd
000000f0: 7a73 3ebb f676 b63d e92b aa3c cd10 353e
00000100: 23da 8c3e 7eb3 dabd 1204 85bd 5870 1c3d
00000110: cfb5 833e 8ec3 503d 5cc4 fbbd c6a0 8c3c
00000120: 88d6 01bd d3c9 243c 8006 c23d 9cd4 863c
00000130: c2cf a8bd b7cb 143e 8633 fabd 3db3 e6bd
00000140: 66e8 a9be 48b8 193e 0b0c 473e c555 6c3e
00000150: 4041 10bd 7875 70bd 2ea1 983d 9775 d53b
00000160: 642c 4ebd 7993 853d 34d7 a03d 8ab1 2f3e
00000170: 8cd3 493e 72fa 8b3d 59ef dcbe f562 82bd
00000180: 7124 19be 09ef 57bd 88d1 bc3c acbb b73d
00000190: a683 05be e15c cf3d e86e 8a3c 69ef 5fbe
000001a0: 014e 013e 59a7 52be 92df 273d b64a 2e3e
000001b0: f11a 413d b2ff 9dbd da4f 503d 2b84 933d
000001c0: 4e12 123f f6d3 333d ac08 ad3c 8048 863d
000001d0: 0314 373e bec9 debd 5577 a9bd f3d8 c2bd
000001e0: d06a a4be 82f3 9f3b 357a d23d e9f7 d0bc
000001f0: 69ae 463e dcb8 6e3e 5331 d43d 8de7 e33e
00000200: f16f 9d3e 589e 46bd cfe8 e9bd 1e45 753d
00000210: 3bf8 533e 6df3 383e 1609 ba3d c8b5 033e
00000220: 423b b13d f9de 2d3c 40fb f6ba 1f33 8b3d
00000230: 625c 2a3d be36 39be 7997 92bd 6f03 173e
00000240: 3a60 41bd 8f98 c53c b864 033d 42d6 17be
00000250: 76c4 783c b2eb bbbd f5fe a73c 9cf7 273e
00000260: 8b90 a13d 3a17 313e f95b c4bc f117 673c
00000270: 7650 563b b112 cbbd dc95 d93e 2e0c ed3d
00000280: 971a 863e 0ea0 f33d f038 4fbc 66a8 21be
00000290: 0ba6 22bc 7952 d73d 21f4 b7bd 6b72 03bd
000002a0: 976a 623e 9c78 83be 3537 d7bd c089 9a36
000002b0: 2ab6 843d a2b7 b83c 448e 2bbe 1838 373d
000002c0: bcbb f1bd 4046 313b f6b6 9cbd c96e 0bbe
000002d0: 19da 81be c77c 053d e8ef 013d 825f 593e
000002e0: f92d f8bd c934 67bd d006 b0bc af3c 77bc
000002f0: 5c8c 4cbe a684 283e 2016 833e 863b 2e3c
00000300: b7ac 53bf 08cf 82bf 9f51 cbbe 1ca3 b43b
00000310: ec6e 0abf 30f4 293d 820e 613e 0ac1 21bf
00000320: ef0a 4b3d a19a b03d 5263 ddbd 7428 8c3d
00000330: 5055 323d 6fe5 13be 8071 a03a 34ef 323d
00000340: 93d3 a03e 64e3 09bf 3545 dcbc 384e 983e
00000350: eae1 5a3e 4f9c 9b3c acf0 b8bc 9028 b0bd
00000360: a447 60bc 5b26 dabd 35cc 35bd c063 3ebd
00000370: 9195 5ebe e59d f6bd 9dd5 aa3e fe7a 933e
00000380: 286c 703e 463b abbd e6a4 63bd 638d 09be
00000390: 4378 783d 63a6 a4bd f668 9abe 4598 443e
000003a0: 5023 85bd f9bd b5be 12ec ff3d 2584 94bc
000003b0: f860 a73e 3f77 1bbd 0310 263e 72b0 743c
000003c0: 4ef8 6c3f 0393 ec3d 5003 16be 7f65 8d3e
000003d0: a53f e4be e4bd 7d39 2447 483d b1b7 893e
000003e0: c5d4 2a3f b0f6 49bc 2635 f63d a09b 71bc
000003f0: 783e 863d 9602 0ebf 5213 8dbf ea54 76bd
-0.24285202 -0.060929596 -0.075932 0.03361266 0.31145683 0.01371282 -0.1125552 -0.025807701
0.369426 0.08892536 -0.10513004 0.021148415 -0.103505366 0.20386544 0.08581977 0.034924522
0.10716415 0.09635114 0.12757243 -0.023593523 -0.04335565 -0.037863266 0.17119484 0.120379135
-0.07443642 -0.18583961 -0.088295184 0.029300377 0.15475993 0.032632895 0.27325484 0.16008648
0.08060525 0.09599593 -0.016124802 0.15738069 0.105024785 -0.036126867 0.015775733 -0.11024584
-0.14156094 -0.14584672 -0.037821457 0.123621136 -0.10415605 -0.0101691745 0.12401305 0.007929231
0.12774047 0.26212147 0.32188407 0.0062795626 -0.31741348 0.2509767 -0.10956558 0.024088167
-0.10840331 -0.012602551 0.09384766 -0.098068036 -0.0029060529 0.08909409 0.020772891 0.1768219
0.27510175 -0.10678767 -0.06494917 0.038193077 0.25724646 0.050967745 -0.12293312 0.017166506
-0.031698734 0.010057884 0.09473896 0.016458802 -0.08242752 0.14530836 -0.122168586 -0.11264656
-0.33185118 0.15011704 0.19438188 0.23079593 -0.035218477 -0.058705777 0.074526176 0.006514262
-0.050335303 0.06522269 0.07853547 0.1715757 0.19709605 0.06834878 -0.43151358 -0.06366531
-0.14955308 -0.052718196 0.023049131 0.089713424 -0.13038501 0.10125137 0.016898587 -0.21868671
0.12627412 -0.2057165 0.040984698 0.17020687 0.047144834 -0.07714786 0.050857402 0.072029434
0.5705918 0.043903314 0.0211223 0.06556797 0.17878728 -0.10878323 -0.08274714 -0.09514036
-0.3211274 0.0048813233 0.102772154 -0.025508838 0.1940247 0.23312706 0.1036097 0.44512597
0.30749467 -0.048490852 -0.11421358 0.05988037 0.20700161 0.1806161 0.09083764 0.12862313
0.08653881 0.010612243 -0.0018843189 0.0679686 0.04159201 -0.18087289 -0.07157797 0.14747404
-0.04721091 0.024120597 0.032078475 -0.14827827 0.015183559 -0.09175815 0.020507315 0.16403049
0.078888975 0.17294016 -0.023969637 0.014104829 0.0032701767 -0.099156745 0.42497146 0.11574589
0.2619216 0.118957624 -0.012647852 -0.15786895 -0.009927283 0.10513777 -0.08982111 -0.03209154
0.22110973 -0.25677955 -0.10508577 4.605594e-06 0.064800575 0.0225485 -0.16753489 0.04473123
-0.118033856 0.002704993 -0.076520845 -0.1361648 -0.25361708 0.0325897 0.031722933 0.2122784
-0.121181436 -0.056446824 -0.021487623 -0.015090152 -0.19975418 0.16456851 0.25602818 0.010634309
-0.82685417 -1.0219431 -0.3971071 0.005512608 -0.54075503 0.04149264 0.2197819 -0.6318518
0.049570974 0.08623243 -0.108099595 0.06843653 0.04353839 -0.1444299 0.0012240857 0.043685153
0.31411418 -0.53862596 -0.02688847 0.29747176 0.21375242 0.018995432 -0.022575699 -0.08601487
-0.013688955 -0.10651847 -0.0443842 -0.046481848 -0.21736743 -0.12041835 0.333661 0.28804773
0.23478758 -0.08360915 -0.05557718 -0.13432841 0.060661566 -0.08039548 -0.30158204 0.19198711
-0.06500876 -0.354965 0.12496199 -0.018129418 0.3269117 -0.03795552 0.16217045 0.014934646
0.9256638 0.11551478 -0.14649701 0.27616498 -0.44579807 0.000241987 0.04889597 0.26897958
0.6673091 -0.012326881 0.12021856 -0.014746577 0.06554884 -0.55472696 -1.1021521 -0.060139574

bias f4 [32]
00000000: 3c7a 0a3e 98fc 843d e878 793e 4f95 f0be
00000010: a374 a7be bdab 5f3e bdba febe 289d 7e3e
00000020: 04d6 503e 7afc b9bd be9a 7cbd d2dd 93be
00000030: 655d 2f3e 7c8e 8a3d 793d 74bd b6ae 49be
00000040: 47e0 22be 5198 e23c 255a 0e3c bd41 103f
00000050: d73b c2bd b545 30bd fdb2 3cbe 01ee 4a3e
00000060: ff5d 213e f2c1 d0bd 3381 383d 923a e43c
00000070: a002 13be b36d 70bc ab14 b1bd 6b7c 6e3c
0.13523191 0.06493491 0.24362528 -0.46988913 -0.32706174 0.21842857 -0.49751845 0.24864638
0.2039414 -0.09081359 -0.06167101 -0.28880173 0.17125471 0.06765458 -0.059628937 -0.19695553
-0.15905868 0.02766052 0.008688484 0.5635031 -0.0948407 -0.043035228 -0.18427654 0.19817354
0.15758513 -0.10193242 0.04504509 0.02785996 -0.1435647 -0.014674592 -0.0864652 0.014556031

weight f4 [64, 32]
00000000: 1e43 813b 48ee 4a3d 1eab b03e 5f14 d23d
00000010: 7f75 80bd 15b9 ce3c 987c 80be b8c6 aebe
00000020: 115a 583e 10fc 5ebe c282 c53d fec4 8b3e
00000030: 2c00 be3d bee3 483d a26e 963d 4f75 413d
00000040: ee53 1f3d b5f2 1ebd 13cf 33be c97f 823e
00000050: dcc2 d03d 6982 28bc e0c4 aabe ef32 5f3e
00000060: d286 4cbe a046 773d 9e6a 1c3e 333c 06be
00000070: 5ccb 8d3d d46b 09be 522e f4bb 42a7 c33d
00000080: 7dde 453e 0960 933d f9e4 db3d 0b6d 0c3d
00000090: 8909 54be 69f8 3f3e 6741 62be c329 12be
000000a0: 60a2 c13d 2590 973e fbd8 2cbe ce6d 94bc
000000b0: 2b37 16bd 651f bfbd fb36 d03d 79b2 debd
000000c0: d02f fb3d e8d9 0e3c 2f8e 83bd faee 463e
000000d0: 28ec 323e 0f50 5a3c 6606 2cbe f853 30be
000000e0: ba63 f23d 5af3 e5bd 80ea d1bd 18d0 663d
000000f0: 2beb e9bb f705 7e3e 6029 ccbd d74a 09be
00000100: c171 fabb 33c0 773e bc2b 90bc b49d 6b3e
00000110: 00e3 59be a577 1e3d 6879 1bbd 4d7d 26be
00000120: 8bc9 4cbe 9817 37bc bb62 ad3d 336d 023d
00000130: 64fa 3d3e f24d a83d 9bd5 133d a973 6f3e
00000140: 1da3 3a3e 3042 d03d a16f 5c3d fc28 443e
00000150: 350e 773d 7c4f 9abc a513 b33d 9416 93be
00000160: a63f 6f3e 8112 083d 18c1 ddbd 027e 323d
00000170: 010b 0ebe 0b72 6bbe e724 7d3a 0345 1bbd
00000180: 04dc 0fbe 4eec 41be 99c9 e5bd bb3b c23d
00000190: 5526 973d cc83 24bd addf 6abc 3029 c83b
000001a0: 63ea 8dbd ecc7 f83d 2277 563c 21ed 75bd
000001b0: 68d3 02bb 5495 cbbd 1bd5 8f3d ccca 583d
000001c0: 4f8f 513d 39ac 813d 5aad 5bbd 98c2 00be
000001d0: c594 0ebe a4c0 70bd 0a07 2cbe 4980 10be
000001e0: 5e33 4ebe 131a 033c 9466 86bc fda4 1fbe
000001f0: 5a37 7d3d 2fc1 f6bd c6cb 31be b0ed 65bd
00000200: 08af cb3d d6ad a93e 679b 813e a01d 893e
00000210: 6350 683e e430 dabd 148c 3e3d b512 2ebe
00000220: 23a9 a9bd b11f 9e3e eb82 123e fb60 84be
00000230: 813b 8ebd 771c 043e 1f85 053d 1451 25be
00000240: 73e5 2fbc 5d84 80be cfe4 25bd d68f 853d
00000250: a2c0 643e dc46 b93d 4a6a 1f3e bff5 2c3c
00000260: 7897 57be f5dd d13d 816f 0dbe fbfa 3ebc
00000270: 1727 c83d 2b8d df3d 2c5a 13be 2c07 0ebe
00000280: 4dad 993e 2bbc 1fbb 92cd 1abd 8edd 56bd
00000290: f153 183e 1c11 4e3e d677 aa3d 1d9b 863d
000002a0: 15ae 8a3e 0e7b 37be ed49 f13d 2185 14bb
000002b0: 09db 1fbe e0a6 8ebd a77b 19be cf97 5c3d
000002c0: 3e5f 3a3c a33d 723d 3d8b ccba a4af 253e
000002d0: 2cbf 8a3e 3b50 0b3e 0c2a c33d f6fc cfbd
000002e0: c712 d1bd 8e13 4bbe 83a1 e43c cc71 863d
000002f0: 3288 2abd ed53 babe e66e 4c3e 7567 b4bd
00000300: c850 f33d 14e0 9d3e df0b efbd d4ab 7f3e
00000310: ab81 c6bc 6be5 8a3e a082 eb3d 5d91 503e
00000320: 7134 04be 5de2 d0bd 2910 bf3d 11a6 b03d
00000330: 2484 1cbe d878 63bd b787 09be 033a 8fbd
00000340: f8f0 1b3e 97fb 413d 56da 253e b0f2 f0bd
00000350: 5494 613e 7a21 633d 22ef 963d dc14 873e
00000360: f4fd 3cbe 2925 443e 6423 8c3d 7f95 4fbb
00000370: f3f2 e33d 9378 a0bd d1cc 1e3d f13f 97bd
00000380: dfd8 033c e7bf 98bd c130 76be f181 433e
00000390: dcf8 a03e 8612 9dbb 716c bc3d 81c4 a33d
000003a0: c30e 81be 3411 04bc df78 a93c 2d2d 51bd
000003b0: 820f 2b3e 9d37 443e 6616 8e3d eca2 8d3e
000003c0: 75ca b4bd f0c8 113d 5a07 803d e10d 463e
000003d0: 3307 f43a 0bac 593c fc36 38be a2f2 43be
000003e0: d9a1 3b3e 30dd 2dbe 1c60 adbd 4f61 f2bc
000003f0: 25b2 c7bd c37e 94bd 5f0e 5c3e f63e 053e
0.0039447686 0.04954365 0.34505552 0.10257792 -0.062724106 0.025234738 -0.25095057 -0.34135985
0.21128108 -0.21775842 0.09644081 0.2729873 0.092773765 0.049045317 0.0734532 0.047231015
0.0388984 -0.038805682 -0.17559461 0.25488117 0.101934165 -0.010284998 -0.3335333 0.21796773
-0.19973305 0.060370088 0.15275046 -0.13108902 0.06923553 -0.1342004 -0.007451811 0.09553386
0.19323154 0.071960516 0.107370324 0.03428368 -0.20706762 0.18747105 -0.22095262 -0.14273743
0.09454799 0.2960216 -0.16879646 -0.018118765 -0.036673706 -0.0933216 0.10166737 -0.10873885
0.12264979 0.008718945 -0.06423604 0.194271 0.17472899 0.0133247515 -0.16799316 -0.17219532
0.118354276 -0.11228056 -0.102498055 0.056350797 -0.00713863 0.24806963 -0.09968829 -0.13407455
-0.007642955 0.24194412 -0.01759898 0.23009378 -0.21278 0.03868832 -0.03795758 -0.16258736
-0.19998758 -0.011175059 0.08466097 0.03184242 0.18552548 0.08217992 0.036092382 0.23383965
0.18226285 0.10168874 0.053817395 0.1915626 0.060316283 -0.01883673 0.08743981 -0.28728163
0.23364124 0.03322077 -0.10827845 0.0435772 -0.13871385 -0.22992723 0.0009656683 -0.03790761
-0.14048773 -0.189378 -0.11220092 0.09484049 0.07380358 -0.040164754 -0.014335555 0.0061084256
-0.06929471 0.12147507 0.013089927 -0.060040597 -0.0019962434 -0.099405915 0.070230685 0.052927777
0.05116206 0.06331677 -0.053632118 -0.12574232 -0.13923939 -0.058777466 -0.1679956 -0.14111437
-0.20136783 0.008001822 -0.016406335 -0.15590282 0.061820365 -0.120485656 -0.1736289 -0.05613488
0.09945494 0.3314044 0.25313875 0.26780415 0.22686915 -0.106538564 0.046520308 -0.16999324
-0.082842134 0.30883554 0.14307754 -0.2585524 -0.06944943 0.12901483 0.032597657 -0.1614421
-0.010735857 -0.25100985 -0.040501412 0.06521575 0.22339109 0.090467185 0.1556789 0.010556637
-0.21053874 0.10247413 -0.13812067 -0.011656518 0.09773081 0.109155975 -0.14389867 -0.13869923
0.3001503 -0.0024373631 -0.037793703 -0.052457385 0.14875771 0.20123714 0.08323638 0.06572554
0.2708594 -0.17918035 0.11781678 -0.0022662359 -0.15610899 -0.06965423 -0.14988576 0.053855713
0.011375247 0.059140813 -0.0015605461 0.16180283 0.27098978 0.13604824 0.09529504 -0.1015567
-0.102086596 -0.19831678 0.027909046 0.06564674 -0.041633792 -0.36392155 0.1996418 -0.08808795
0.11880642 0.3083502 -0.11672186 0.24967891 -0.024231752 0.27128157 0.11499524 0.20367952
-0.1291063 -0.10199425 0.09329254 0.08625425 -0.15284783 -0.055535167 -0.13430677 -0.06993487
0.15228641 0.047359075 0.1619657 -0.11765039 0.22029239 0.055451848 0.0736983 0.26383102
-0.1845625 0.191548 0.06842688 -0.00316748 0.11130323 -0.07835498 0.038769547 -0.07385243
0.008047312 -0.074584775 -0.24042036 0.19092537 0.31439865 -0.004793468 0.09200371 0.079964645
-0.25206575 -0.008060742 0.020687519 -0.051068474 0.16705135 0.1916184 0.06937866 0.27663362
-0.08827678 0.03559202 0.06251402 0.19341232 0.0018617868 0.013285647 -0.17989725 -0.19135526
0.18323459 -0.16978908 -0.08465597 -0.029587416 -0.09750775 -0.072507404 0.21489857 0.13012299

bias f4 [64]
00000000: 1dbb 3b3f 19cd 8f3f 566f 25be 9ba8 3dbe
00000010: f206 ffbe acf3 c63e 52b1 d5be 7230 5f3e
00000020: f3a7 293f 1249 9a3e a88d b7be 346d 8b3d
00000030: 4134 c5be 884c b23e 26c3 683d 5a0a 153e
00000040: f218 ef3c 246b f33d d9d5 28bf 12bf 603e
00000050: 7f14 8abe 35cc c9be 1982 02bf f8d8 9d3e
00000060: bb3d a9be bd87 5e3b 161b 1bbe ae03 f1bd
00000070: 255a 173e 854e 563c c6ef cc3e fdb7 bb3d
00000080: dd2b cc3e 67a5 bdbe a716 923d 2932 60bd
00000090: 9044 29bd 521b 9ebd 8e3e c4bd 56eb 503f
000000a0: 9b7e 94bc 4583 b6bc a725 123f bf6d 483f
000000b0: 29c6 e63d ff0d 113e 7307 473f cca0 013f
000000c0: 16be 613f 3478 203e 10f2 cd3e 0dd2 57be
000000d0: da6d 9c3e c717 dabd 7ccc 74bf 2afd e9be
000000e0: 2047 633f 10d4 91bd 282e 863e 08ec 093f
000000f0: a4f5 2abd c7a4 8d3e f099 863d 9c80 1a3e
0.7333239 1.1234466 -0.16155753 -0.18521349 -0.49809986 0.38857782 -0.41736847 0.21795824
0.66271895 0.30133873 -0.35850263 0.06807938 -0.3851643 0.34824014 0.056826733 0.1455473
0.0291867 0.1188567 -0.65951306 0.21947888 -0.26968762 -0.3941361 -0.50979763 0.30829597
-0.3305491 0.0033955418 -0.15147051 -0.1176828 0.14780481 0.013080244 0.40026683 0.09165952
0.39877215 -0.37040254 0.07133227 -0.054735336 -0.041325152 -0.07720055 -0.09582244 0.81609094
-0.018126776 -0.022279391 0.570887 0.7829246 0.11268265 0.14165495 0.7774574 0.5063598
0.88180673 0.15670854 0.40223742 -0.21076222 0.3055256 -0.106490664 -0.9562452 -0.4570096
0.88780403 -0.07120526 0.2620709 0.5387578 -0.041738167 0.27664778 0.0657233 0.15088123
